assets/snapshots/P0_baseline_transformer.pth (torch, 297603 bytes, 32 tensors)

input_proj.weight f4 [64, 1]
0.51358914 1.0085897 -0.96893436 -0.4858013 0.084364675 0.89944303 0.5443934 -0.7267819
-0.57211256 -0.93567675 0.13025546 0.56485635 -0.3367158 -0.35546166 0.41184488 0.6534453
-0.9606202 0.4429764 0.5568824 0.64582026 -0.89293677 0.48845017 0.86028594 0.5300143
-0.71362275 0.36497933 -0.13348308 -0.08106189 -0.63569736 -0.9111976 0.32320628 -0.6400371
-0.8353324 -0.07709814 -0.17373592 -0.14846501 0.7112645 -0.3686663 0.36976638 -0.4055538
-0.32055467 -0.28915069 -0.6681291 0.62314683 0.44292563 0.94256836 -0.06608168 0.1799562
-0.3002643 0.57249045 0.90234023 0.3123312 0.11455679 -0.46822152 0.67601246 -0.10854196
-0.99574655 -0.32500574 1.0012879 0.051462937 0.70177376 0.37457225 0.8750928 0.7975314
00000000: 947a 033f 7819 813f 150c 78bf f3ba f8be
00000010: 63c7 ac3d e641 663f 5e5d 0b3f 610e 3abf
00000020: f875 12bf 8388 6fbf b061 053e 6d9a 103f
00000030: 0366 acbe 12ff b5be 55dd d23e 3148 273f
00000040: 35eb 75bf cdcd e23e d88f 0e3f 7a54 253f
00000050: 8197 64bf 2416 fa3e b33b 5c3f 04af 073f
00000060: fbaf 36bf 92de ba3e caaf 08be c703 a6bd
00000070: 10bd 22bf 3f44 69bf 4b7b a53e 79d9 23bf
00000080: 58d8 55bf a1e5 9dbd d4e7 31be 3607 18be
00000090: 6e15 363f d4c1 bcbe 0552 bd3e bfa4 cfbe
000000a0: be1f a4be 8f0b 94be 820a 2bbf 8d86 1f3f
000000b0: 26c7 e23e 294c 713f d555 87bd 7046 383e
000000c0: 3ebc 99be bc8e 123f c5ff 663f e0e9 9f3e
000000d0: c09c ea3d bbba efbe 270f 2d3f 3f4b debd
000000e0: 3fe9 7ebf 2767 a6be 342a 803f cdca 523d
000000f0: 72a7 333f efc7 bf3e 1506 603f 052b 4c3f

input_proj.bias f4 [64]
-0.35507748 0.4341166 0.7580058 0.13461423 0.11143657 0.9370743 -0.37782755 -0.5514216
-0.8397044 0.797659 -0.48755586 0.16024914 0.94186455 -0.9592135 0.3698666 0.54468226
0.8891964 0.05546658 -0.17795777 -0.36309078 -0.35658047 0.9579667 0.3128307 0.9483596
0.97777927 0.65397507 0.82938105 -0.48764628 -0.419994 0.46845388 -0.92646617 -0.99243563
-0.52204925 0.7098157 0.96433026 -0.19399814 0.17468023 0.31781927 -0.51255476 -0.510819
-0.26591 -0.53155917 0.20708516 -0.95401067 0.19373399 -0.9187836 -0.69918483 0.91371673
-0.57314956 0.79710925 -0.9748332 -0.32689863 0.7220526 0.59430027 0.4005025 0.69343907
-0.4893656 -0.2624578 -0.08814361 0.7182352 -0.82790613 0.11685701 0.35010114 -0.49904123
00000000: b7cc b5be 8844 de3e ab0c 423f 50d8 093e
00000010: db38 e43d 1ae4 6f3f 9d72 c1be f729 0dbf
00000020: def6 56bf 6133 4c3f eca0 f9be 5a18 243e
00000030: 091e 713f 048f 75bf 285f bd3e 4c70 0b3f
00000040: 60a2 633f ed30 633d 903a 36be 09e7 b9be
00000050: b791 b6be 4e3d 753f 582b a03e b2c7 723f
00000060: be4f 7a3f e96a 273f 5152 543f c6ac f9be
00000070: 7409 d7be 30d9 ef3e e32c 6dbf 4310 7ebf
00000080: 05a5 05bf 7bb6 353f 59de 763f 73a7 46be
00000090: 60df 323e 35b9 a23e ca36 03bf 09c5 02bf
000000a0: 5b25 88be 4314 08bf 220e 543e 0b3a 74bf
000000b0: 3462 463e 6735 6bbf c7fd 32bf 57e9 693f
000000c0: eeb9 12bf 5a0f 4c3f ab8e 79bf 425f a7be
000000d0: 70d8 383f 1024 183f aa0e cd3e 3985 313f
000000e0: 218e fabe de60 86be a384 b4bd 43de 373f
000000f0: a8f1 53bf ba52 ef3d 7540 b33e 5582 ffbe

encoder.layers.0.self_attn.in_proj_weight f4 [192, 64]
-0.13231796 -0.08899119 -0.02842696 -0.008974599 0.06825869 0.11926814 0.031138359 0.019677559
0.13090698 0.019016732 -0.00026504695 -0.08781047 0.03445857 0.10432542 0.030125245 -0.16845262
0.0061625997 0.13102765 0.0074265613 -0.030779557 -0.13087972 -0.1504967 0.01698224 -0.1083144
-0.0053271563 0.11336328 0.06614582 0.06926209 0.0220528 -0.068019666 -0.11054254 -0.12824436
0.1053919 0.005696201 0.03130131 -0.08100777 0.002546594 -0.11370063 0.049573958 -0.12844215
-0.07844495 0.13576464 0.10279407 0.11411151 -0.1036682 -0.073705785 -0.1351296 0.046178553
-0.06749035 0.08775427 -0.083842225 0.1372166 0.083487056 0.1202249 0.01768185 -0.036012966
0.06793468 -0.07479081 -0.03215294 -0.06447162 -0.090586096 -0.029928273 -0.1704983 0.12862219
0.043832652 -0.16114005 0.14766923 0.09215659 -0.07751185 -0.13463485 0.0047099055 0.049927235
-0.03452786 0.15622306 0.020738473 -0.15549123 0.0316717 -0.052713443 0.051787406 0.08495788
-0.0040371576 -0.06093638 0.0047778725 0.061391965 0.22672474 0.0175342 -0.015966041 -0.06750113
0.10085553 0.14354926 0.09859961 -0.13670024 0.20058997 0.19091529 -0.023401484 -0.09616647
-0.01827287 0.11207945 -0.07570294 0.0078081884 -0.22539634 0.19103254 0.02604723 -0.02751385
0.06454285 -0.066226654 0.15175197 -0.1142401 -0.025953352 0.043763626 0.06437101 0.050060663
-0.13917422 0.08974545 -0.033792447 -0.13001376 0.004365864 -0.025607847 -0.021970015 0.023743272
-0.032755006 0.027613362 0.05115894 -0.061515946 -0.03705277 -0.14367323 -0.04778447 -0.06498781
-0.1621943 -0.14963979 0.019808153 0.06562355 0.07182235 0.016819876 0.08215953 -0.071756735
0.1587425 -0.07455302 -0.1111341 0.000905734 0.026424395 -0.07478456 -0.043759264 -0.067860164
0.026855707 -0.21762758 -0.11989478 -0.17630738 0.21512638 0.058495574 -0.13658522 -0.08802842
-0.05375345 0.13820697 0.17207238 -0.15156397 -0.07686207 0.059222434 0.0769275 0.048209064
-0.029184144 0.09233039 -0.09380323 -0.09392666 -0.053557128 0.11510664 -0.091145515 0.030714966
0.20169999 0.10337316 0.019199219 -0.05187943 -0.18371697 -0.0509478 -0.1763227 -0.081733614
-0.11802911 0.10640064 -0.011989801 -0.1121532 0.17356534 -0.08536099 -0.20600301 -0.098406576
0.2176106 0.038739357 0.03414178 0.16250744 -0.039263908 -0.060518175 -0.20222586 -0.20916489
-0.087895505 -0.099151574 0.07598499 -0.007246299 -0.13250825 -0.02048178 -0.046563487 -0.045557167
0.051580332 0.17796658 0.13383678 -0.17031118 0.13221776 -0.03731802 -0.1649902 -0.20400704
0.08996165 -0.1565487 -0.19148771 -0.1574842 -0.072965115 0.12849565 0.039833758 0.12814283
0.020908903 -0.09391655 -0.09621063 0.048518624 -0.05415978 0.06576473 0.092152014 0.096874975
0.066889636 0.11106693 0.1285514 -0.017343681 -0.088664055 0.018820385 -0.062284227 0.011768783
0.08198084 -0.102378555 -0.07820178 0.056533422 -0.20181437 0.093063146 0.04276578 0.040235385
0.092397496 0.052838877 -0.07068888 -0.12983507 -0.07002185 0.07437232 -0.12197837 -0.1026815
0.1725991 0.003043945 -0.06294696 -0.10921227 -0.1376908 -0.10905723 -0.20873882 -0.037253857
00000000: 5c7e 07be 0341 b6bd a8df e8bc 320a 13bc
00000010: 36cb 8b3d db42 f43d df15 ff3c d532 a13c
00000020: 7b0c 063e fac8 9b3c 00f6 8ab9 fad5 b3bd
00000030: 6e24 0d3d 91a8 d53d 38c9 f63c d87e 2cbe
00000040: a2ef c93b 1d2c 063e 835a f33b 6925 fcbc
00000050: 5505 06be cf1b 1abe 571e 8b3c f1d3 ddbd
00000060: 6d8f aebb 022b e83d 7677 873d 48d9 8d3d
00000070: 13a8 b43c e54d 8bbd 2164 e2bd 7d52 03be
00000080: b5d7 d73d 33a7 ba3b cd35 003d 67e7 a5bd
00000090: c2e4 263b e0db e8bd 100e 4b3d 5786 03be
000000a0: bfa7 a0bd e305 0b3e b385 d23d 4cb3 e93d
000000b0: fe4f d4bd 0ff3 96bd 6a5f 0abe b925 3d3d
000000c0: 6138 8abd 83b8 b33d 79b5 abbd 8282 0c3e
000000d0: 43fb aa3d 7938 f63d 87d9 903c 5582 13bd
000000e0: 5621 8b3d ed2b 99bd cdb2 03bd b209 84bd
000000f0: 3485 b9bd 232c f5bc 1b97 2ebe 89b5 033e
00000100: de89 333d e601 25be 9a36 173e 98bc bc3d
00000110: 88be 9ebd b8dd 09be 8d55 9a3b 8080 4c3d
00000120: 166d 0dbd f0f8 1f3e bbe3 a93c 1839 1fbe
00000130: 2fba 013d 0dea 57bd 081f 543d 66fe ad3d
00000140: 224a 84bb 6d98 79bd b38f 9c3b 2476 7b3d
00000150: 882a 683e e2a3 8f3c 37cb 82bc 083e 8abd
00000160: 588d ce3d 94fe 123e 98ee c93d 26fb 0bbe
00000170: 7567 4d3e 4c7f 433e 78b4 bfbc edf2 c4bd
00000180: fcb0 95bc e989 e53d 250a 9bbd d5db ff3b
00000190: 4cce 66be 099e 433e 0061 d53c ba64 e1bc
000001a0: 0b2f 843d d7a1 87bd de64 1b3e b7f6 e9bd
000001b0: 209c d4bc 7d41 333d f3d4 833d 690c 4d3d
000001c0: b083 0ebe 76cc b73d f369 0abd 5422 05be
000001d0: 860f 8f3b 8cc7 d1bc 76fa b3bc 4081 c23c
000001e0: 1d2a 06bd 6b35 e23c 098c 513d 25f8 7bbd
000001f0: a5c4 17bd 131f 13be a6b9 43bd 5418 85bd
00000200: 4316 26be 2c3b 19be b544 a23c a465 863d
00000210: 9917 933d d6c9 893c 4143 a83d 32f5 92bd
00000220: 658d 223e 41af 98bd 469a e3bd c86e 6d3a
00000230: f977 d83c a628 99bd ea3c 33bd 45fa 8abd
00000240: 8000 dc3c c4d9 5ebe 658b f5bd ec89 34be
00000250: 174a 5c3e 0e99 6f3d ffdc 0bbe 3f48 b4bd
00000260: 942c 5cbd 2186 0d3e be33 303e 9633 1bbe
00000270: dc69 9dbd 3993 723d 2a8c 9d3d de76 453d
00000280: 9613 efbc b717 bd3d e81b c0bd 9f5c c0bd
00000290: b85e 5bbd 08bd eb3d 80aa babd f49d fb3c
000002a0: 718a 4e3e 4fb5 d33d ae47 9d3c 867f 54bd
000002b0: 4d20 3cbe a4ae 50bd f08d 34be f463 a7bd
000002c0: 3fb9 f1bd 94e8 d93d df70 44bc 94b0 e5bd
000002d0: 1dbb 313e bed1 aebd 74f2 52be 6389 c9bd
000002e0: 50d5 5e3e 29ad 1e3d 40d8 0b3d 5a68 263e
000002f0: 31d3 20bd e8e1 77bd 4c14 4fbe 522f 56be
00000300: 8f02 b4bd fb0f cbbd 059e 9b3d 5d72 edbb
00000310: 3eb0 07be 68c9 a7bc 5bb9 3ebd 279a 3abd
00000320: e645 533d df3c 363e 820c 093e 0e66 2ebe
00000330: 1864 073e c8da 18bd 31f3 28be 39e7 50be
00000340: d03d b83d 4d4e 20be 5b15 44be 8a43 21be
00000350: bc6e 95bd 5d94 033e b928 233d e037 033e
00000360: 2649 ab3c 5257 c0bd 140a c5bd 77bb 463d
00000370: a5d6 5dbd a9af 863d 32ba bc3d 6366 c63d
00000380: 6ffd 883d 0f77 e33d faa2 033e 5614 8ebc
00000390: 8095 b5bd 352d 9a3c bf1d 7fbd dbd1 403c
000003a0: 92e5 a73d d9ab d1bd 4128 a0bd 978f 673d
000003b0: 6da8 4ebe e497 be3d 2c2b 2f3d dccd 243d
000003c0: e63a bd3d 946d 583d 55c5 90bd 7cf3 04be
000003d0: 9e67 8fbd 8450 983d cccf f9bd ae4a d2bd
000003e0: d2bd 303e ec7c 473b 56ea 80bd afaa dfbd
000003f0: d1fe 0cbe 6659 dfbd a1bf 55be 8097 18bd

encoder.layers.0.self_attn.in_proj_bias f4 [192]
-0.008775727 0.029824274 0.049861785 0.029225284 0.025327444 0.009454643 0.011574677 0.028020952
0.003857397 -0.008038277 0.0046849335 0.0023133995 -0.0026261834 9.3288916e-05 -0.0008049079 0.0009255057
0.01793734 0.0037799722 -0.017935436 -0.022804907 -0.0019465155 -0.007891198 -0.0050606853 0.010137504
0.01175362 0.07760839 0.015951421 -0.0018182594 0.015339892 0.012693593 -0.0037041833 -0.008012717
-0.0016364185 0.0044897925 -0.0013274858 -0.0050139353 0.0031496894 0.00038457368 0.002068325 -0.0016781498
0.010646715 -0.004736306 -0.0047448757 -0.012440617 -0.011449624 -0.014921439 0.013581297 -0.0006374243
0.017579265 0.03318208 0.009853522 0.013437202 0.0153685855 -0.006524092 0.0044857548 0.0064816047
0.0018574676 -0.013606927 0.010433063 -0.0009245448 0.01649115 0.009114776 -0.01243365 0.017671682
0.003299784 0.006791892 0.0050562653 0.0047922293 -0.0015602101 0.0046726163 0.002248928 0.002476592
-0.004232562 0.013171324 -0.009858953 -0.0017047797 0.0015081746 -0.0005017263 -0.0021162461 0.0003953534
0.0019964878 -0.0005590598 0.00017266072 -0.00017665765 -0.00021381497 -0.00090550346 0.00042967967 0.0006057566
-0.000701477 -0.00017464359 0.00045087212 -0.0003530891 0.0010555789 0.00035463466 0.0006976523 5.6343713e-05
0.0004440114 0.0004280761 -0.00012350648 0.0003913524 0.00097247155 -0.0007641934 0.00042038917 -0.00093681633
0.0023770216 -0.0025658985 -0.0016261272 0.0013685772 -0.00030205576 -0.0022113477 0.0042462233 0.003423376
-0.00027974616 0.00071641634 0.0010865099 0.000477077 -0.00047119497 0.00062148366 -0.00011659694 -0.00041325082
-0.0001163525 -0.002141352 0.0020558299 -0.0015326361 0.00016219303 0.0040063504 -4.138531e-05 -7.8147445e-05
-0.0035612925 -0.007071087 0.01160251 0.016362248 0.0003309086 0.009744018 0.005817145 0.0043493216
0.000431286 0.004632228 0.010769023 0.007887986 0.00252205 0.013513926 0.002794806 -0.009491017
0.0065082214 0.004863987 -0.0047120014 -0.0026831042 -0.00013623029 0.00502464 0.0049433974 0.0061862716
0.010397929 0.013320056 0.0011591156 0.0050606043 -0.0026630545 0.0034628974 -0.016618226 -0.0034536596
-0.00679682 -0.007119931 0.0041754106 -0.008364489 -0.0058128657 0.008891765 0.008906601 -0.00085398153
0.009470945 0.001395376 0.012441807 -0.016134527 0.0057193306 -0.004377545 -0.0018690764 -0.008626945
0.00254381 0.006284859 -0.00750021 -0.00046237677 0.0064072064 0.003543575 -0.011015105 -0.003989215
-0.00856999 -0.004909632 0.001571328 -0.020201983 0.0076737734 0.023592114 0.0071303616 0.0061167195
00000000: 11c8 0fbc 0952 f43c df3b 4c3d dd69 ef3c
00000010: 807b cf3c a6e7 1a3c b7a3 3d3c 328c e53c
00000020: 62cc 7c3b fab2 03bc 1284 993b 679c 173b
00000030: 0c1c 2cbb 1ba4 c338 7400 53ba a39d 723a
00000040: 54f1 923c 69b9 773b 56ed 92bc 5bd1 babc
00000050: 3922 ffba 154a 01bc 1bd4 a5bb c617 263c
00000060: 4192 403c 26f1 9e3d 8eac 823c a952 eeba
00000070: 2c54 7b3c caf8 4f3c e2c1 72bb c547 03bc
00000080: 187d d6ba 1c1f 933b 08ff adba f04b a4bb
00000090: 056b 4e3b 9ba0 c939 bc8c 073b 5df5 dbba
000000a0: 8f6f 2e3c 0433 9bbb e77a 9bbb bbd3 4bbc
000000b0: 3497 3bbc 0d79 74bc 1784 5e3c d218 27ba
000000c0: 6402 903c efe9 073d ab70 213c b627 5c3c
000000d0: 85cc 7b3c 0dc8 d5bb 3dfd 923b a463 d43b
000000e0: 4576 f33a 97ef 5ebc 70ef 2a3c 275d 72ba
000000f0: 7318 873c 2456 153c 82b6 4bbc 34c4 903c
00000100: 3041 583b 858e de3b 07af a53b 2208 9d3b
00000110: f77f ccba bf1c 993b c062 133b 524e 223b
00000120: 4eb1 8abb 89cc 573c 7287 21bc ea72 dfba
00000130: f1ad c53a 4886 03ba b8b0 0abb 6f47 cf39
00000140: 82d7 023b de8d 12ba 420c 3539 2d3d 39b9
00000150: 8533 60b9 4f5f 6dba a146 e139 a3cb 1e3a
00000160: 53e3 37ba 8820 37b9 0863 ec39 d11e b9b9
00000170: 5a5b 8a3a 42ee b939 a7e2 363a 9a52 6c38
00000180: 34ca e839 676f e039 8581 01b9 6e2e cd39
00000190: 76ed 7e3a 2754 48ba ae67 dc39 ae94 75ba
000001a0: cec7 1b3b a228 28bb c623 d5ba d561 b33a
000001b0: 3d5d 9eb9 42ec 10bb e723 8b3b b85a 603b
000001c0: e5aa 92b9 e3cd 3b3a 3969 8e3a 3120 fa39
000001d0: b80a f7b9 10eb 223a 8185 f4b8 96a9 d8b9
000001e0: 4602 f4b8 ed55 0cbb 1abb 063b bce2 c8ba
000001f0: 5c12 2a39 b447 833b 2395 2db8 17e3 a3b8
00000200: 9364 69bb 94b4 e7bb 7418 3e3c 1f0a 863c
00000210: cd7d ad39 60a5 1f3c c09d be3b c184 8e3b
00000220: 3a1e e239 f2c9 973b 8e70 303c 9c3c 013c
00000230: fa48 253b 8469 5d3c 1029 373b 3680 1bbc
00000240: eb42 d53b 1562 9f3b 2267 9abb 05d7 2fbb
00000250: 0ad9 0eb9 bca5 a43b 39fc a13b 35b6 ca3b
00000260: 135c 2a3c 5d3c 5a3c 77ed 973a 6dd3 a53b
00000270: a486 2ebb c7f1 623b f222 88bc cb56 62bb
00000280: dcb7 debb 4f4e e9bb e2d1 883b 360b 09bc
00000290: da79 bebb c4ae 113c feec 113c bbdd 5fba
000002a0: 062c 1b3c 0de5 b63a b9d8 4b3c 8e2c 84bc
000002b0: 3969 bb3b 8271 8fbb ccfb f4ba 0858 0dbc
000002c0: 0db6 263b 38f1 cd3b 52c4 f5bb 296b f2b9
000002d0: 8bf3 d13b 533b 683b b378 34bc f6b7 82bb
000002e0: 2569 0cbc fae0 a0bb 05f5 cd3a a17e a5bc
000002f0: 4774 fb3b 4044 c13c cfa5 e93b c36e c83b

encoder.layers.0.self_attn.out_proj.weight f4 [64, 64]
0.060819417 -0.050715867 -0.058366537 0.014307872 -0.035170615 0.07358436 -0.098884046 -0.10948551
0.12965529 -0.116695754 -0.07916861 -0.04449966 0.044021312 0.032227296 0.12649363 -0.08615693
0.079455845 -0.092382 -0.030448852 -0.017634789 0.1076927 -0.14366317 0.06645295 0.1353729
0.07903601 -0.023033744 -0.0801911 0.10662292 0.071125224 0.13085711 0.13698167 0.012533805
-0.0106281955 0.0694351 -0.049433954 0.11948775 0.13150221 0.009577474 -0.029090932 0.0027454563
0.04587416 0.10141809 0.09227195 -0.038508024 -0.017743278 0.0035409182 -0.063997895 0.086008795
-0.046016455 0.021272967 -0.07337784 -0.03150761 0.06639476 0.082439095 0.0521118 0.09064862
-0.029426645 -0.065935224 -0.058908317 -0.104391 -0.08607184 0.08662417 0.11672716 -0.06721313
-0.11714475 0.078821346 -0.07047176 0.018526573 0.07879145 -0.052214812 -0.062015645 0.119649485
0.03247264 0.023165299 -0.03503126 -0.07048966 0.022473443 0.039891444 0.071603365 -0.026326448
-0.06304101 0.04056134 0.114511386 -0.058114845 -0.069786355 -0.084299564 -0.037358835 0.049607724
-0.09117298 -0.044955462 -0.027565489 -0.044060357 0.093363404 0.08604769 0.12764746 -0.09056564
0.08501895 -0.053800598 0.052496664 0.0133744385 0.05761786 0.06566859 -0.13788114 0.14240453
0.042557925 0.1294503 -0.11699075 -0.047642276 -0.004598401 0.05899967 0.14775337 0.082232386
0.011070794 0.089319766 -0.00097019796 0.11371728 -0.010529664 0.0062203505 -0.03253821 -0.066043384
0.10446963 0.06781325 0.08179908 0.077274516 0.05515602 -0.028791321 -0.12400435 0.08424152
0.09119554 0.066345125 0.019041762 0.060957734 -0.046023834 0.018640228 -0.054776013 -0.099175714
-0.07177345 0.058804248 -0.0040960866 0.10690423 -0.10635929 -0.08013532 -0.077419035 0.0626796
-0.071027055 -0.030295633 0.062466174 -0.04051339 -0.114386246 0.07515729 -0.011124283 0.06633313
-0.08889691 -0.09874968 -0.0020601777 -0.07502886 0.07876928 -0.045595318 0.07677054 -0.09767776
-0.005662981 0.061661843 -0.06854969 -0.00040783983 -0.119328134 -0.03333843 -0.021955224 -0.041787237
0.036818475 -0.080479614 0.009585104 -0.14003398 -0.1288377 0.017808529 0.10989628 -3.5645546e-05
0.03160326 -0.031698402 -0.019684693 -0.012317693 -0.11550753 -0.08402819 -0.09202168 -0.047835153
0.081396505 0.00233469 -0.021864677 -0.1184985 -0.05244594 0.14003901 -0.015577298 -0.067969725
0.077730544 0.017773183 -0.029882548 -0.0626519 0.12196643 -0.05707323 -0.09226583 0.06486051
-0.030338384 0.11445687 0.1056939 -0.10440533 -0.11466572 -0.067005895 -0.1401068 -0.06268925
0.10752132 -0.11789907 0.016449211 0.072258495 0.031827137 0.016382447 0.12873587 -0.13363002
0.093229994 0.10175187 0.09064824 0.01722762 -0.029385665 -0.0044471906 -0.081343904 0.11917668
-0.055343162 -0.074943826 0.023500273 -0.12066201 0.062985145 -0.05047126 -0.06576471 -0.013836158
0.0866431 -0.0059434352 -0.07626368 0.07807424 0.10140544 0.012075402 -0.07530974 -0.040179804
0.12545747 0.026811628 0.03984645 -0.014931271 0.009936394 0.043426763 -0.07988893 0.10540761
-0.11445584 -0.062109675 0.04898241 -0.036058094 0.051519495 -0.07675748 0.025249118 0.09074717
00000000: c81d 793d 71bb 4fbd c011 6fbd 916b 6a3c
00000010: 100f 10bd 66b3 963d b883 cabd f039 e0bd
00000020: 5bc4 043e 2ffe eebd 2723 a2bd 4745 36bd
00000030: b14f 343d c500 043d 8c87 013e 0b73 b0bd
00000040: bfb9 a23d c632 bdbd df6f f9bc d576 90bc
00000050: fe8d dc3d 701c 13be 7c18 883d 329f 0a3e
00000060: a2dd a13d 43b1 bcbc 3b3b a4bd 1e5d da3d
00000070: 1aaa 913d 68ff 053e ec44 0c3e 975a 4d3c
00000080: e221 2ebc fd33 8e3d 427b 4abd feb5 f43d
00000090: 84a8 063e d6ea 1c3c 1b50 eebc 1ded 333b
000000a0: 8be6 3b3d 4ab4 cf3d 13f9 bc3d 97ba 1dbd
000000b0: 5a5a 91bc c00e 683b 5411 83bd 6125 b03d
000000c0: c07b 3cbd a544 ae3c 1f47 96bd 200e 01bd
000000d0: faf9 873d d4d5 a83d 2f73 553d fca5 b93d
000000e0: 2610 f1bc 0c09 87bd d949 71bd f3ca d5bd
000000f0: 6f46 b0bd 0368 b13d a60e ef3d 0aa7 89bd
00000100: 96e9 efbd 166d a13d 8053 90bd 0ac5 973c
00000110: 695d a13d 33df 55bd 1e04 7ebd ca0a f53d
00000120: 0802 053d 27c5 bd3c f07c 0fbd e25c 90bd
00000130: 3a1a b83c 3665 233d c9a4 923d 90aa d7bc
00000140: a51b 81bd a623 263d f284 ea3d d509 6ebd
00000150: 26ec 8ebd 40a5 acbd 9405 19bd 7831 4b3d
00000160: e6b8 babd 3823 38bd 05d1 e1bc a278 34bd
00000170: 5035 bf3d c539 b03d 04b6 023e 7a7a b9bd
00000180: 6a1e ae3d 045e 5cbd be06 573d 7620 5b3c
00000190: b500 6c3d 417d 863d b730 0dbe 7ed2 113e
000001a0: 3851 2e3d 9f8e 043e d998 efbd 8c24 43bd
000001b0: 2fae 96bb a3a9 713d a94c 173e 7469 a83d
000001c0: 4762 353c 48ed b63d e254 7eba 9be4 e83d
000001d0: 9d84 2cbc 15d4 cb3b c946 05bd c141 87bd
000001e0: 2cf4 d53d ace1 8a3d 4786 a73d 1a42 9e3d
000001f0: 47eb 613d c7db ebbc fef5 fdbd d186 ac3d
00000200: bac4 ba3d f4df 873d 78fd 9b3c d1ae 793d
00000210: 7d83 3cbd 64b3 983c d05c 60bd a31c cbbd
00000220: f5fd 92bd b9dc 703d 7738 86bb 9bf0 da3d
00000230: e6d2 d9bd fd1d a4bd df8d 9ebd 2a5e 803d
00000240: a276 91bd 8c2e f8bc 88dc 7f3d 5ef1 25bd
00000250: 5643 eabd 11ec 993d a042 36bc aad9 873d
00000260: 950f b6bd 463d cabd 0c04 07bb bba8 99bd
00000270: ca51 a13d 28c2 3abd df39 9d3d 470b c8bd
00000280: 8790 b9bb 2191 7c3d c863 8cbd 56d3 d5b9
00000290: 4f62 f4bd e18d 08bd 71db b3bc 1829 2bbd
000002a0: f8ce 163d 7fd2 a4bd d70a 1d3c 1165 0fbe
000002b0: 08ee 03be 31e3 913c 4d11 e13d 1d82 15b8
000002c0: 6c72 013d 2fd6 01bd cb41 a1bc 26d0 49bc
000002d0: 368f ecbd f916 acbd dd75 bcbd cbee 43bd
000002e0: 36b3 a63d 9901 193b 8d1d b3bc 57af f2bd
000002f0: 8ed1 56bd 6366 0f3e ec37 7fbc b633 8bbd
00000300: 3131 9f3d 1199 913c 3fcc f4bc a44f 80bd
00000310: 89c9 f93d 9fc5 69bd def5 bcbd 96d5 843d
00000320: 3488 f8bc 5d68 ea3d 0b76 d83d 76d2 d5bd
00000330: dcd5 eabd 633a 89bd 2878 0fbe 3963 80bd
00000340: 2334 dc3d 1175 f1bd 7fc0 863c 43fc 933d
00000350: 2c5d 023d 7b34 863c 56d3 033e 4fd6 08be
00000360: 5eef be3d 4963 d03d c9a5 b93d f020 8d3c
00000370: 35ba f0bc bdb9 91bb a297 a6bd e712 f43d
00000380: 83af 62bd 267c 99bd a583 c03c a51d f7bd
00000390: 5bfe 803d f4ba 4ebd a6af 86bd 0eb1 62bc
000003a0: f071 b13d 26c1 c2bb 2230 9cbd 63e5 9f3d
000003b0: a8ad cf3d e8d7 453c fe3b 9abd 9493 24bd
000003c0: ec77 003e 0fa4 db3c 0836 233d 4aa2 74bc
000003d0: 42cc 223c 43e0 313d cf9c a3bd f2df d73d
000003e0: d367 eabd b766 7ebd c8a1 483d a7b1 13bd
000003f0: 1b06 533d 0733 9dbd 3dd7 ce3c a7d9 b93d

encoder.layers.0.self_attn.out_proj.bias f4 [64]
0.0007882717 -0.0034176174 -0.008443586 -0.0027344127 -0.0002984141 0.009600156 0.013194063 0.005746847
0.015058311 -0.009652262 0.027068386 -0.0076150275 -0.008984417 0.010065476 -0.012950432 -0.0053207446
-0.016892873 0.009875863 -0.00156727 0.0031992625 0.006133032 -0.0047926623 0.00501013 -0.008785902
-0.023813428 -0.0073411968 -0.003119401 0.004481379 0.013060925 0.006487832 0.024552237 0.01799315
0.0003994544 -0.010771338 -0.015327063 0.011353769 0.0024640185 0.0036921762 0.009598323 0.0052556987
0.010956455 0.004879305 0.00018261901 0.0076357247 0.0063382834 0.009903763 0.007879406 -0.004737971
0.0026970785 -0.010358635 0.00846682 0.0036100359 -0.0019454889 -0.0059016026 -0.0048924405 -0.015889926
-0.012900571 -0.0050922404 0.011987208 -0.03324527 0.0048516328 -0.0021062898 0.0040705428 0.0037958978
00000000: 05a4 4e3a 1bfa 5fbb f756 0abc d533 33bb
00000010: 7674 9cb9 f949 1d3c e92b 583c 0c50 bc3b
00000020: 22b7 763c 8524 1ebc 85be dd3c 7b87 f9bb
00000030: 6033 13bc abe9 243c 0c2e 54bc a459 aebb
00000040: ec62 8abc 5fce 213c db6c cdba b8aa 513b
00000050: 9af7 c83b c40b 9dbb 042c a43b bef2 0fbc
00000060: 6114 c3bc 6c8e f0bb dd6e 4cbb 88d8 923b
00000070: 7dfd 553c e197 d43b c621 c93c 5f66 933c
00000080: dd6d d139 447a 30bc 5d1e 7bbc 2905 3a3c
00000090: 5f7b 213b 70f8 713b 4942 1d3c ff37 ac3b
000000a0: b482 333c 94e2 9f3b 6b7d 3f39 1a35 fa3b
000000b0: 60b1 cf3b 6543 223c a018 013c fb40 9bbb
000000c0: 78c1 303b 44b7 29bc 6bb8 0a3c 5a96 6c3b
000000d0: c6ff feba 3b62 c1bb c450 a0bb 972b 82bc
000000e0: eb5c 53bc cfdc a6bb ff65 443c 312c 08bd
000000f0: 72fa 9e3b ae09 0abb 3062 853b 99c4 783b

encoder.layers.0.linear1.weight f4 [128, 64]
-0.104659915 0.041436214 -0.010447811 0.15445025 0.0007848801 -0.1486448 0.08114018 -0.008648323
0.16032092 0.105372496 0.02526118 0.060907077 -0.06809645 0.08753465 -0.14708814 -0.17715327
-0.05869091 -0.09758678 -0.014264052 0.015181458 0.016931962 -0.05734225 -0.15077691 0.0136384675
-0.101556346 -0.1999549 -0.06836441 0.041476224 -0.036060736 0.14519355 -0.11055336 0.10481315
-0.005541086 0.011491111 0.0026673188 0.017951423 -0.12469378 -0.088338755 0.12052196 0.17375241
0.14170279 0.07554556 0.10905312 0.07380177 -0.038842242 -0.09555063 -0.10173438 0.009177704
0.066379376 -0.12009421 -0.024322873 -0.0013453253 -0.13236634 -0.05522979 -0.01515723 0.014618907
-0.036215793 -0.038694672 0.048036132 -0.0838204 0.081739746 -0.17060594 0.081194885 -0.1328659
0.097637884 0.049367853 0.1145689 0.079525925 -0.060425323 0.10594461 -0.032346327 -0.0805529
-0.054829758 -0.08632008 0.094791606 0.04886004 -0.12954362 0.052056972 -0.09096668 -0.09139328
0.0018248318 -0.026328353 -0.11662295 -0.00065366237 0.07252242 -0.119412325 -0.0827122 0.054616805
0.07806175 -0.11371234 -0.029355997 0.05925943 0.10482559 -0.04098389 0.009018554 -0.056066956
0.0072525805 0.109325886 -0.018989045 -0.090923786 -0.08062869 -0.094324686 0.074527845 -0.10191718
-0.06119687 -0.014251055 0.13098182 0.053472232 0.09539557 0.008969987 0.097189136 0.03387338
-0.03725716 0.08758559 0.018746644 0.061241057 -0.10769037 -0.014923359 -0.06971278 0.09011882
0.10053136 -0.015299487 0.032695107 -0.03630494 -0.11532867 -0.061721507 0.009594408 -0.08662535
0.1508461 -0.044423837 0.015172371 -0.14852086 0.21835206 -0.0844589 0.13121487 0.09916867
0.041037414 -0.11116949 0.085847475 0.05126753 0.044914644 -0.07769672 -0.11802401 0.07447901
0.042177975 0.021252263 -0.09331585 0.11901337 -0.09707791 -0.06005461 0.12719883 0.11527562
0.08728084 0.089608185 -0.10816812 -0.09884276 0.009649443 -0.014845677 0.050547566 0.12729539
-0.05970392 0.07662528 -0.021762997 -0.036666185 0.11230715 -0.1581836 -0.019252734 -0.05427439
-0.04638973 -0.103294745 -0.049515735 -0.07510232 -0.105726644 0.04708797 -0.054719295 -0.0062013245
-0.0070107705 -0.06736193 -0.03167608 0.076296076 0.13555974 -0.1278958 -0.0014462678 -0.055587623
0.014491381 0.0386808 -0.07748221 0.0065208813 0.046065252 -0.04790162 -0.08541326 -0.0046845004
0.0782477 -0.018261291 0.073300526 -0.09953145 -0.0275015 -0.047087017 0.14523482 0.11028966
-0.05591954 -0.09526059 -0.020227809 -0.10253531 -0.09122266 0.050762452 0.09561508 0.052579932
0.012723399 0.1316016 0.02091816 0.049794104 -0.046118375 -0.020165201 -0.037636347 0.015232273
-0.13325764 0.042520523 -0.14508462 0.021504235 -0.057862207 0.038288523 0.14123815 0.019998899
-0.11667366 -0.12568694 0.08990295 -0.014017052 -0.0988677 -0.08354977 -0.09686204 0.06474142
-0.09716679 0.07198794 -0.112479284 0.04833132 0.04940857 0.046778433 0.041792303 -0.09227814
0.014037062 0.062943704 0.0039584422 -0.05775403 -0.022309422 -0.033827715 -0.120461114 -0.09574994
-0.053463504 -0.100983955 0.09844604 0.08657477 0.10071722 0.03324769 0.0046361866 0.046747793
00000000: f057 d6bd 05b9 293d 4c2d 2bbc 3528 1e3e
00000010: 69c0 4d3a 5836 18be d32c a63d b2b1 0dbc
00000020: 2b2b 243e 89cd d73d 89f0 ce3c b379 793d
00000030: 2776 8bbd 5e45 b33d 469e 16be ab67 35be
00000040: e165 70bd 94db c7bd c5b3 69bc a6bb 783c
00000050: e6b4 8a3c b5df 6abd 4365 1abe e173 5f3c
00000060: c6fc cfbd fac0 4cbe a402 8cbd f9e2 293d
00000070: 6cb4 13bd 9ead 143e cd69 e2bd 47a8 d63d
00000080: 0092 b5bb 3645 3c3c 2fce 2e3b dd0e 933c
00000090: 745f ffbd f3ea b4bd 38d4 f63d 27ec 313e
000000a0: 891a 113e a1b7 9a3d 3e57 df3d 6225 973d
000000b0: 0b19 1fbd 0cb0 c3bd 1d5a d0bd 155e 163c
000000c0: e9f1 873d f4f3 f5bd c340 c7bc a055 b0ba
000000d0: 0b8b 07be a238 62bd 0856 78bc 2484 6f3c
000000e0: 0357 14bd 4e7e 1ebd 89c1 443d 08aa abbd
000000f0: 2b67 a73d 53b3 2ebe 8149 a63d 000e 08be
00000100: 5ff6 c73d f235 4a3d 19a3 ea3d 7dde a23d
00000110: 8b80 77bd 7df9 d83d 957d 04bd ebf8 a4bd
00000120: 2b95 60bd 95c8 b0bd 1a22 c23d 7721 483d
00000130: 15a7 04be b139 553d bd4c babd 662c bbbd
00000140: 322f ef3a 8fae d7bc 03d8 eebd 8a5a 2bba
00000150: a286 943d 738e f4bd 0465 a9bd dfb5 5f3d
00000160: d7de 9f3d 04e2 e8bd fd7b f0bc 04ba 723d
00000170: cdae d63d b9de 27bd 8fc2 133c 77a6 65bd
00000180: 0ea7 ed3b 40e6 df3d ea8e 9bbc 4036 babd
00000190: a820 a5bd 4d2d c1bd 0ea2 983d f4b9 d0bd
000001a0: 92a9 7abd 427d 69bc 1920 063e b305 5b3d
000001b0: c15e c33d daf6 123c 190b c73d d0be 0a3d
000001c0: f79a 18bd 1360 b33d 9092 993c e7d7 7a3d
000001d0: c58c dcbd 1b81 74bc 93c5 8ebd 3790 b83d
000001e0: 63e3 cd3d b3aa 7abc 4eeb 053d 7db4 14bd
000001f0: 7031 ecbd b1cf 7cbd dd31 1d3c a268 b1bd
00000200: 6677 1a3e c5f5 35bd 8995 783c da15 18be
00000210: af97 5f3e caf8 acbd 315d 063e f218 cb3d
00000220: d916 283d d4ac e3bd cdd0 af3d e7fd 513d
00000230: 6bf8 373d 751f 9fbd 92b6 f1bd 7488 983d
00000240: d0c2 2c3d 3a19 ae3c 611c bfbd 48bd f33d
00000250: c9d0 c6bd d3fb 75bd 6940 023e a015 ec3d
00000260: 4cc0 b23d 7f84 b73d 3f87 ddbd 136e cabd
00000270: b318 1e3c 483b 73bc f70a 4f3d b959 023e
00000280: 198c 74bd b7ed 9c3d 5048 b2bc 482f 16bd
00000290: 4b01 e63d e2fa 21be e9b7 9dbc d34e 5ebd
000002a0: 2803 3ebd 328c d3bd 03d1 4abd 3fcf 99bd
000002b0: 3687 d8bd 51df 403d 5721 60bd 7b34 cbbb
000002c0: 9bba e5bb 0df5 89bd c7be 01bd 1e41 9c3d
000002d0: 2cd0 0a3e 1ef7 02be b290 bdba d9af 63bd
000002e0: 426d 6d3c c26f 1e3d feae 9ebd 1ead d53b
000002f0: ebae 3c3d 7d34 44bd 26ed aebd 7080 99bb
00000300: 5540 a03d b498 95bc 961e 963d 25d7 cbbd
00000310: d34a e1bc 51de 40bd 70b8 143e 8cdf e13d
00000320: e30b 65bd fc17 c3bd cab4 a5bc 08fe d1bd
00000330: f2d2 babd 4aec 4f3d d7d1 c33d 0e5e 573d
00000340: ce75 503c 92c2 063e 905c ab3c e7f4 4b3d
00000350: 9fe6 3cbd 7e31 a5bc 9228 1abd c990 793c
00000360: b174 08be 002a 2e3d 1091 14be a629 b03c
00000370: ec00 6dbd 6dd4 1c3d bca0 103e bbd4 a33c
00000380: 9af2 eebd 14b4 00be 0a1f b83d c7a7 65bc
00000390: 267b cabd 241c abbd 9b5f c6bd 2697 843d
000003a0: 62ff c6bd 6a6e 933d 8a5b e6bd 10f7 453d
000003b0: a460 4a3d be9a 3f3d 682e 2b3d 52fc bcbd
000003c0: b5fb 653c a1e8 803d d2b5 813b 7d8f 6cbd
000003d0: 40c2 b6bc ee8e 0abd 51b4 f6bd 8b18 c4bd
000003e0: 8cfc 5abd add0 cebd 149e c93d 1d4e b13d
000003f0: d444 ce3d bb2e 083d 27eb 973b 9d7a 3f3d

encoder.layers.0.linear1.bias f4 [128]
0.09671908 0.065919586 0.022479422 0.0114154685 0.08741787 0.05987534 -0.11950448 0.117845386
0.13039094 -0.044832706 -0.075565554 -0.08176331 0.04328505 0.058646224 -0.029475488 0.038633298
0.070556454 0.016551195 -0.10540578 -0.07618983 0.11521931 0.124303296 -0.03692803 0.050489925
0.010583591 -0.10870241 -0.017285345 0.087896205 0.09628496 -0.08557684 0.13061827 -0.028385356
-0.0077629765 -0.06709718 -0.07452065 0.073321976 0.074158154 -0.11090238 -0.06680483 0.10890156
-0.07444084 0.007886571 -0.043335967 0.043364495 0.08978455 0.10077938 -0.094457306 0.08347775
-0.08583082 -0.071149796 0.031428322 -0.048747934 0.042813826 0.010289851 0.045321796 0.059932183
-0.03512084 -0.049937207 0.035771012 -0.08924387 0.095517084 -0.06760208 -0.09579298 0.014050352
-0.0021918877 -0.11564109 -0.048019316 0.05099152 -0.030919624 0.055093907 0.09359618 0.07971746
-0.091726616 0.027994746 -0.03295827 -0.035326798 0.11512727 0.039404925 -0.11048616 -0.11667671
-0.027013963 -0.020527886 0.05247138 -0.012329701 0.037617896 -0.04455582 0.05855541 -0.11491109
0.010767604 -0.12276279 -0.01379555 0.020215146 0.004093523 -0.025921656 -0.01371277 0.019450968
-0.06696646 0.035334937 -0.0015439513 -0.10505394 0.027852995 -0.053299207 -0.11767572 -0.031860452
-0.01841658 0.07769201 0.018532403 0.042802766 -0.07927004 -0.025575276 -0.018377056 0.065006204
0.053883553 0.110528 -0.0722894 -0.03716018 -0.07163699 -0.0039480715 -0.09652308 -0.019925809
-0.09057215 -0.007294024 0.06907273 -0.089863755 0.011055929 0.02165866 0.102396585 -0.117258154
00000000: a714 c63d d900 873d c426 b83c f207 3b3c
00000010: 2408 b33d d83f 753d c4be f4bd ec58 f13d
00000020: 3485 053e 80a2 37bd 1dc2 9abd 8673 a7bd
00000030: aa4b 313d 0637 703d 9476 f1bc f33d 1e3d
00000040: e77f 903d 5f96 873c fcde d7bd 6a09 9cbd
00000050: 1af8 eb3d ba92 fe3d d941 17bd 86ce 4e3d
00000060: cc66 2d3c 5e9f debd ff99 8dbc ed02 b43d
00000070: 0d31 c53d e942 afbd ccc0 053e 6888 e8bc
00000080: 9160 febb 3f6a 89bd 489e 98bd d529 963d
00000090: 3be0 973d c920 e3bd f9d0 88bd c807 df3d
000000a0: 7074 98bd ad36 013c 0e81 31bd f89e 313d
000000b0: f6e0 b73d 6b65 ce3d d572 c1bd 62f6 aa3d
000000c0: 12c8 afbd fcb6 91bd fcba 003d eaab 47bd
000000d0: 8d5d 2f3d c396 283c 59a3 393d 737b 753d
000000e0: dfda 0fbd f58a 4cbd a084 123d 7dc5 b6bd
000000f0: 769e c33d f672 8abd 1c2f c4bd 7333 663c
00000100: c6a5 0fbb 3cd5 ecbd e7af 44bd 7cdc 503d
00000110: 274b fdbc 26aa 613d 5baf bf3d e842 a33d
00000120: 2adb bbbd 3d55 e53c 40ff 06bd d5b2 10bd
00000130: d9c7 eb3d 0f67 213d 9146 e2bd 33f4 eebd
00000140: 634c ddbc 192a a8bc 3bec 563d 8402 4abc
00000150: 3915 1a3d 2a80 36bd ccd7 6f3d 8156 ebbd
00000160: 9b6a 303c 0f6b fbbd bb06 62bc 3c9a a53c
00000170: f622 863b a759 d4bc 87ab 60bc a357 9f3c
00000180: b625 89bd 5ebb 103d 695e caba 8526 d7bd
00000190: f72b e43c 4550 5abd f8ff f0bd 1b80 02bd
000001a0: 5ede 96bc fd1c 9f3d 44d1 973c f451 2f3d
000001b0: 5558 a2bd 3e83 d1bc 7b8b 96bc f921 853d
000001c0: 00b5 5c3d 815c e23d 770c 94bd 4635 18bd
000001d0: 6ab6 92bd d35e 81bb e4ad c5bd 733b a3bc
000001e0: e47d b9bd b502 efbb 0176 8d3d 7d0a b8bd
000001f0: ed23 353c 816d b13c 4db5 d13d 0b25 f0bd

encoder.layers.0.linear2.weight f4 [64, 128]
0.07397449 0.027464367 0.06136213 0.059139263 -0.0078112506 0.035784878 -0.04862425 0.017716333
-0.034677874 0.09494065 0.09058874 0.05099237 -0.003834232 0.09158487 0.033688977 0.039484978
0.0066119763 -0.071563825 0.055957366 -0.045547824 0.024435729 0.048341796 0.07009446 -0.041467063
-0.055203155 0.0045742183 0.054273117 -0.019744575 0.00035105005 0.007665868 -0.009723694 -0.0621823
0.049737956 0.002627689 0.03771011 -0.019307328 -0.048017673 -0.026140105 -0.07283286 -0.07971462
0.07308701 -0.0099338135 0.07240312 0.07543525 -0.071251065 -0.04401949 0.044244118 -0.048992433
-0.0046934206 0.06839208 -0.020084077 0.0611406 0.060401443 0.054406017 -0.05938363 0.07378256
-0.07381665 0.012695878 -0.05518373 -0.020762177 0.039503694 -0.069444 -0.04852798 0.02989725
-0.019145444 -0.044429913 0.000844358 -0.03432891 -0.011026058 0.080578625 0.012815904 0.03455058
-0.019820934 -0.016218571 0.05804303 0.050392315 0.030360047 -0.0022482504 -0.027497469 0.025855808
0.027212273 0.060702983 0.025466098 0.0268489 0.09644022 0.09329873 -0.027471833 -0.038354527
0.016069148 -0.06944921 0.15818216 0.037161563 -0.03510288 0.072099485 -0.07675152 0.10150167
-0.05412401 -0.028874166 -0.02027171 -0.019871458 0.0057142475 0.088985085 -0.07220626 -0.003452477
-0.018754601 -0.018821815 -0.031135028 -0.06400042 -0.0047656912 0.04957627 0.09864401 -0.012977135
0.068712115 0.09490108 0.056546893 0.041938856 -0.0536895 0.033299968 0.019520532 0.03034019
-0.060038052 -0.012959875 0.03136921 -0.0664715 0.06592821 -0.04519811 0.03217471 -0.024732836
-0.034378 0.01216122 0.039998446 0.06549427 -0.06800983 -0.049559515 -0.03569831 -0.044255167
-0.018844716 0.06807544 -0.123475604 -0.05541997 0.06420793 0.005502194 -0.06254792 0.00043903483
-0.07316192 0.0094661275 -0.07046756 0.0055445954 -0.07636467 0.0032497998 -0.09375365 -0.0043656095
0.06604113 -0.052173156 -0.074932106 -0.01692324 0.032026686 0.009922848 -0.037276164 -0.027324293
-0.042741895 0.08272948 -0.06674815 -0.080582455 0.03151491 -0.024938723 -0.05296517 -0.046079624
-0.062189482 0.008044426 0.00269121 -0.027044723 0.007717455 -0.05832049 -0.07213531 0.009973937
0.0053458866 -0.004280475 -0.061988335 -0.036854945 -0.10729608 -0.047348574 -0.013525632 -0.037367247
0.017649928 0.016812926 -0.051121365 -0.0571762 0.010975817 0.0054770624 -0.009250795 0.0420063
-0.055875555 0.021033784 0.05113905 -0.041301303 -0.08564741 0.0059730075 0.077467225 -0.04695579
-0.024948139 -0.045810748 0.06472267 -0.070291124 -0.065926686 0.015607067 -0.0638824 -0.04446015
-0.040092677 -0.053857084 -0.0043980917 -0.09255967 0.022686118 0.07095536 0.034841392 0.018007588
0.04369963 -0.05142699 -0.085743025 0.037840284 -0.016130207 -0.050543636 0.034303173 -0.061619084
0.0588184 0.055446245 0.058870938 -0.040493567 -0.036541402 -0.008859881 -0.016393539 -0.05289534
-0.080630705 -0.03609337 -0.0037286629 -0.13151209 -0.021822758 -0.027586332 0.059852444 0.07132579
0.07259109 0.03626694 0.012878537 -0.03462217 -0.026825415 0.018420385 -0.04430539 -0.094915494
-0.022202378 -0.029357905 0.07791254 0.067954876 0.065689944 0.022758858 -0.10139829 -0.07282405
00000000: f07f 973d f4fc e03c db56 7b3d 033c 723d
00000010: 85f5 ffbb 2a93 123d 392a 47bd d821 913c
00000020: 630a 0ebd 3e70 c23d 9786 b93d 60dd 503d
00000030: bd47 7bbb d990 bb3d 74fd 093d 00bb 213d
00000040: 47a9 d83b 0e90 92bd 8d33 653d 5b90 3abd
00000050: 702d c83c 0c02 463d af8d 8f3d 5ed9 29bd
00000060: b41c 62bd 53e3 953b 7d4d 5e3d 60bf a1bc
00000070: 240d b839 f631 fb3b 2150 1fbc deb2 7ebd
00000080: 07ba 4b3d 4e35 2c3b eb75 1a3d 672a 9ebc
00000090: 2eae 44bd c623 d6bc 6529 95bd 6b41 a3bd
000000a0: a4ae 953d 6fc1 22bc 1648 943d cc7d 9a3d
000000b0: 14ec 91bd c84d 34bd 5239 353d 4aac 48bd
000000c0: 44cb 99bb 2611 8c3d 5d87 a4bc 916e 7a3d
000000d0: 8167 773d d8d8 5e3d 403c 73bd 501b 973d
000000e0: 2f2d 97bd 5f02 503c 5608 62bd 7115 aabc
000000f0: a0ce 213d a838 8ebd 46c5 46bd 14eb f43c
00000100: e8d6 9cbc 24fc 35bd e857 5d3a 799c 0cbd
00000110: a4a6 34bc 6806 a53d ccf9 513c e984 0d3d
00000120: 835f a2bc cfdc 84bc 87be 6d3d 2c68 4e3d
00000130: a2b5 f83c 6257 13bb 5f42 e1bc 8fcf d33c
00000140: 46ec de3c b1a3 783d 479e d03c 39f2 db3c
00000150: 7382 c53d 6813 bf3d 9c0c e1bc a319 1dbd
00000160: 72a3 833c 633b 8ebd 81fa 213e b936 183d
00000170: 0ac8 0fbd e5a8 933d e72f 9dbd 1ce0 cf3d
00000180: 23b1 5dbd 8489 ecbc db10 a6bc 78c9 a2bc
00000190: 953e bb3b d03d b63d e0e0 93bd f442 62bb
000001a0: 40a3 99bc 3530 9abc e30e ffbc a712 83bd
000001b0: 8429 9cbb 7d10 4b3d df05 ca3d 0d9e 54bc
000001c0: f0b8 8c3d 7f5b c23d b79d 673d 14c8 2b3d
000001d0: 85e9 5bbd 8c65 083d 86e9 9f3c fd8b f83c
000001e0: 76ea 75bd a855 54bc 007d 003d 3622 88bd
000001f0: 5f05 873d a721 39bd a1c9 033d 849c cabc
00000200: f2cf 0cbd db3f 473c 69d5 233d dc21 863d
00000210: bd48 8bbd ebfe 4abd 6438 12bd e844 35bd
00000220: 3c60 9abc 236b 8b3d c7e0 fcbd 0d00 63bd
00000230: 727f 833d c04b b43b 2019 80bd 422e e639
00000240: ebd5 95bd d117 1b3c 4c51 90bd 70af b53b
00000250: 1565 9cbd 98fa 543b ea01 c0bd 630d 8fbb
00000260: 9240 873d 85b3 55bd 0176 99bd 9ba2 8abc
00000270: 6a2e 033d 7193 223c e4ae 18bd 32d7 dfbc
00000280: 2012 2fbd 136e a93d 41b3 88bd 6a08 a5bd
00000290: c715 013d 4b4c ccbc 02f2 58bd fdbd 3cbd
000002a0: 66ba 7ebd c5cc 033c 035f 303b e58c ddbc
000002b0: b4e2 fc3b 77e1 6ebd adbb 93bd b969 233c
000002c0: 8c2c af3b 3a43 8cbb 7be7 7dbd 36f5 16bd
000002d0: 0cbe dbbd 94f0 41bd 9d9a 5dbc 660e 19bd
000002e0: 9596 903c 43bb 893c a364 51bd 9731 6abd
000002f0: ead3 333c ee78 b33b a590 17bc cc0e 2c3d
00000300: c4dd 64bd 0b4f ac3c 2e77 513d 8e2b 29bd
00000310: e967 afbd 38b9 c33b 23a7 9e3d b754 40bd
00000320: 0a60 ccbc 0da4 3bbd 528d 843d cbf4 8fbd
00000330: 9204 87bd c9b4 7f3c c7d4 82bd d91b 36bd
00000340: 3838 24bd 3f99 5cbd de1d 90bb ed8f bdbd
00000350: 3dd8 b93c 0b51 913d d9b5 0e3d a684 933c
00000360: 62fe 323d 1ca5 52bd 0a9a afbd 6afe 1a3d
00000370: 7f23 84bc d806 4fbd 7c81 0c3d 4b64 7cbd
00000380: 90eb 703d 9a1b 633d a722 713d 95dc 25bd
00000390: 70ac 15bd 0929 11bc be4b 86bc c9a8 58bd
000003a0: b621 a5bd a4d6 13bd 955c 74bb 1bab 06be
000003b0: a4c5 b2bc bbfc e1bc d627 753d 4113 923d
000003c0: a3aa 943d a58c 143d 8000 533c facf 0dbd
000003d0: f9c0 dbbc 59e6 963c 9279 35bd 0e63 c2bd
000003e0: c3e1 b5bc fd7f f0bc 9c90 9f3d ed2b 8b3d
000003f0: 7388 863d c970 ba3c e8a9 cfbd c724 95bd

encoder.layers.0.linear2.bias f4 [64]
-0.011007118 -0.020193338 -0.02978719 0.03217095 -0.03240717 -0.008679862 0.06969956 0.012808835
0.037213944 -0.00755918 -0.049357425 0.024297623 0.015821317 0.046116464 -0.0829887 0.0051054675
-0.023214152 -0.04474171 0.06486013 0.043147996 -0.047250167 9.603873e-05 0.033591606 -0.048233908
-0.047507167 0.006838082 0.036617115 0.0117982915 -0.07434729 -0.018547673 0.058784727 0.032160014
0.014849281 -0.003558665 0.05874391 0.012997488 0.07761484 -0.068966344 -0.03644965 0.03698287
-0.015737105 0.011306228 -0.058837265 0.004030916 -0.023653094 -0.00047461057 0.07727272 -0.015156135
0.07410761 0.020317094 -0.024083527 0.016230896 -0.071294785 -0.02773951 -0.028676083 0.058797006
0.00100562 -0.049325638 0.08584395 0.03942553 -0.049178563 0.040459808 0.042376947 -0.029292008
00000000: 3357 34bc 806c a5bc 4404 f4bc b0c5 033d
00000010: 61bd 04bd fb35 0ebc a5be 8e3d 26dc 513c
00000020: a66d 183d ffb2 f7bb 032b 4abd cf0b c73c
00000030: b59b 813c 9ee4 3c3d fbf5 a9bd c44b a73b
00000040: 9b2b bebc 1543 37bd 63d5 843d f4bb 303d
00000050: 6489 41bd 6768 c938 5a97 093d eb90 45bd
00000060: e096 42bd fd11 e03b d4fb 153d 9f4d 413c
00000070: 6443 98bd 4af1 97bc 41c8 703d 38ba 033d
00000080: 664a 733c 7e38 69bb 749d 703d 6af3 543c
00000090: 87f4 9e3d 3a3e 8dbd 3a4c 15bd 5a7b 173d
000000a0: 1aeb 80bc c23d 393c 58ff 70bd c615 843b
000000b0: 22c4 c1bc 27d5 f8b9 2941 9e3d 7051 78bc
000000c0: bbc5 973d 0970 a63c d14a c5bc a8f6 843c
000000d0: 0003 92bd f83d e3bc 1bea eabc 21d5 703d
000000e0: 02cf 833a ae09 4abd f4ce af3d aa7c 213d
000000f0: 766f 49bd 2fb9 253d 7393 2d3d cbf5 efbc

encoder.layers.0.norm1.weight f4 [64]
1.0156683 1.030231 0.9846399 1.0309014 1.054263 1.0131937 1.0024375 1.0279404
1.008592 0.9790418 0.96246606 0.9952362 0.99185014 1.0190328 1.040801 1.0095981
0.9860931 1.006021 0.9912761 1.0076253 1.0052402 1.0016427 1.0338899 0.9928851
0.9912897 1.0107303 1.0182554 1.0112225 0.9947674 1.0004773 0.975734 0.9959515
1.0065981 1.0034436 0.9980769 1.0266433 1.0309303 1.0332294 0.9973903 1.0191215
0.9911117 1.0017405 1.0032026 0.9875127 1.0334805 0.9958514 0.9903331 1.0049654
1.0136071 1.0169934 1.0027287 1.0219585 1.0108732 0.9923361 1.0244062 0.98303497
0.9960475 0.99382097 1.0070068 0.97324497 0.9525693 1.0215799 0.98757064 0.9987575
00000000: 6b01 823f 9cde 833f 5c11 7c3f 94f4 833f
00000010: 17f2 863f 55b0 813f df4f 803f 8d93 833f
00000020: 8b19 813f 7ca2 7a3f 2d64 763f cdc7 7e3f
00000030: e4e9 7d3f ab6f 823f f838 853f 833a 813f
00000040: 9970 7c3f 4cc5 803f 45c4 7d3f def9 803f
00000050: b6ab 803f d435 803f 8156 843f b82d 7e3f
00000060: 29c5 7d3f 9c5f 813f 3156 823f bd6f 813f
00000070: 14a9 7e3f a40f 803f b4c9 793f adf6 7e3f
00000080: 35d8 803f d770 803f f881 7f3f 0c69 833f
00000090: 86f5 833f dc40 843f f854 7f3f 9372 823f
000000a0: 7fb9 7d3f 0839 803f f168 803f a2cd 7c3f
000000b0: 1749 843f 1ef0 7e3f 7886 7d3f b5a2 803f
000000c0: e1bd 813f d72c 823f 6a59 803f 89cf 823f
000000d0: 4b64 813f bd09 7e3f be1f 833f 2ea8 7b3f
000000e0: f8fc 7e3f 0d6b 7e3f 99e5 803f 9526 793f
000000f0: 95db 733f 21c3 823f 6ed1 7c3f 92ae 7f3f

encoder.layers.0.norm1.bias f4 [64]
0.0052599804 -0.0011935071 -0.013557599 -0.004064491 -0.00025740886 0.007672572 0.02461848 0.005755895
0.018458111 -0.01730885 0.023308309 -0.0084222015 -0.022452757 0.013104934 -0.006339834 -0.00045473428
-0.025347434 0.010485637 0.0069530653 0.0063693156 0.00488977 -0.0032201216 0.007103029 -0.0070945737
-0.041614152 -0.009043252 -0.009450395 0.009921588 0.009396429 -0.0039218143 0.0376594 0.025874916
0.002561935 -0.018890362 -0.021472193 0.007802783 0.0036699928 -0.0009120157 0.017687907 0.0037573453
0.013127769 0.0080536315 -0.0048358967 0.033741053 0.0062479866 0.019453492 0.0161299 -0.011174258
0.0074236505 -0.010888727 0.022691337 0.006808005 -0.0068881754 -0.008406171 -0.0050970614 -0.026663348
-0.0074765375 -0.0039594136 0.012234657 -0.034306914 0.02192217 -0.0030887232 0.0045801443 0.009381895
00000000: ea5b ac3b 746f 9cba b120 5ebc 6c2f 85bb
00000010: d5f4 86b9 336a fb3b b2ac c93c f29b bc3b
00000020: 7735 973c 4acb 8dbc 11f1 be3c 46fd 09bc
00000030: d8ee b7bc 14b6 563c 62be cfbb 6769 eeb9
00000040: 6ca5 cfbc f3cb 2b3c 8ad6 e33b b1b5 d03b
00000050: 5d3a a03b ad08 53bb 87c0 e83b 9979 e8bb
00000060: 9a73 2abd 262a 14bc d4d5 1abc 288e 223c
00000070: 7bf3 193c 9082 80bb be40 1a3d a2f7 d33c
00000080: 23e6 273b f6bf 9abc 74e6 afbc 7dae ff3b
00000090: 4384 703b 5614 6fba 3be6 903c cb3d 763b
000000a0: db15 573c 61f3 033c 7176 9ebb 0f34 0a3d
000000b0: e9bb cc3b ee5c 9f3c da22 843c 3c14 37bc
000000c0: 1842 f33b a266 32bc 2fe3 b93c af15 df3b
000000d0: 34b6 e1bb 09ba 09bc 4005 a7bb 186d dabc
000000e0: befd f4bb f8bd 81bb df73 483c 6885 0cbd
000000f0: 1f96 b33c 2d6c 4abb 0915 963b 85b6 193c

encoder.layers.0.norm2.weight f4 [64]
1.0200453 1.0113378 1.006461 1.0152572 1.0137568 1.0128419 1.0178041 1.0131527
1.0036134 1.0026008 0.9800098 1.0055203 1.0141084 1.0377775 1.0142664 0.998783
1.0188999 0.98508275 1.0200666 1.0110701 1.010113 0.99224097 1.0263005 0.99905306
1.0167305 1.0119104 1.0603293 1.0052221 1.0088087 1.0025913 0.98101896 1.0053635
1.020756 1.072368 1.0136174 1.0200949 1.0285009 1.0300039 0.9927796 1.0211436
1.0261319 0.99518067 1.0370301 1.0349243 0.99775106 0.99879885 1.0058595 1.0040747
1.0171056 1.0037223 1.0303319 1.0340065 1.0093898 0.9957953 1.0033263 0.98476344
0.982084 0.9688718 1.0100319 0.98822325 0.99138904 1.0025139 0.99014014 1.0134767
00000000: d890 823f 8473 813f b7d3 803f f3f3 813f
00000010: c8c2 813f cea4 813f 6847 823f fdae 813f
00000020: 6776 803f 3955 803f ece1 7a3f e4b4 803f
00000030: 4ece 813f e5d5 843f 7bd3 813f 3eb0 7f3f
00000040: 506b 823f 622e 7c3f 8b91 823f bf6a 813f
00000050: 624b 813f 8103 7e3f d15d 833f f1c1 7f3f
00000060: 3a24 823f 4886 813f dfb8 873f 1eab 803f
00000070: a520 813f e954 803f 0f24 7b3f c0af 803f
00000080: 22a8 823f 5b43 893f 37be 813f 7892 823f
00000090: eba5 833f 2bd7 833f ce26 7e3f d5b4 823f
000000a0: 4a58 833f 29c4 7e3f 67bd 843f 6678 843f
000000b0: 9d6c 7f3f 48b1 7f3f 01c0 803f 8585 803f
000000c0: 8430 823f f979 803f eae1 833f 535a 843f
000000d0: af33 813f 71ec 7e3f ff6c 803f 7519 7c3f
000000e0: db69 7b3f fb07 783f ba48 813f 33fc 7c3f
000000f0: accb 7d3f 6052 803f d379 7d3f 9bb9 813f

encoder.layers.0.norm2.bias f4 [64]
-0.005463162 -0.004937934 -0.008706259 -0.0016412573 0.0011403703 0.0030696746 0.017731305 0.012180013
0.031047102 -0.0005879696 0.015191295 -0.008890309 -0.015566382 0.0013816773 -0.0066101938 0.0008162709
-0.012365728 0.009845284 -0.018051099 -0.001398732 0.009296233 0.008409594 -0.0015943605 0.0052517513
-0.028307252 -0.0035270432 0.0013236436 0.007919642 0.0057387482 0.0027566769 0.024010498 0.015185672
0.0067648753 -0.0084612835 -0.016542507 -0.00020978478 -0.003529052 0.005620624 0.015867783 0.0008546662
0.01399311 0.007330001 0.0038320483 -0.00064378075 0.0015898338 0.011775238 0.020243831 -0.006935421
0.004115626 -0.002200377 0.009404224 0.002867804 -0.0065656826 -0.0062995697 -0.015129832 -0.012130866
0.009075518 -0.0032024744 0.0022587199 -0.03690251 0.007816324 -0.0047119153 -0.0073036184 -0.0061216047
00000000: 5304 b3bb 65ce a1bb b2a4 0ebc 751f d7ba
00000010: 7a78 953a 982c 493b 3e41 913c ad8e 473c
00000020: 7e56 fe3c f921 1aba e9e4 783c a9a8 11bc
00000030: 230a 7fbc 6619 b53a 539a d8bb 03fb 553a
00000040: 9f99 4abc 1d4e 213c e6df 93bc a855 b7ba
00000050: 3a4f 183c 65c8 093c dcf9 d0ba e216 ac3b
00000060: 9ce4 e7bc f725 67bb 1c7e ad3a 63c1 013c
00000070: 1c0c bc3b 5da9 343b aab1 c43c 53cd 783c
00000080: e3ab dd3b 32a1 0abc 2784 87bc acf9 5bb9
00000090: ab47 67bb 362d b83b 27fd 813c ae0b 603a
000000a0: 5b43 653c 8130 f03b 1a23 7b3b 65c3 28ba
000000b0: f861 d03a eeec 403c 64d6 a53c 8742 e3bb
000000c0: 60dc 863b 3334 10bb 2d14 1a3c c4f1 3b3b
000000d0: f024 d7bb 9f6c cebb 1de3 77bc 8ac0 46bc
000000e0: 7bb1 143c 9be0 51bb 0807 143b 1627 17bd
000000f0: 0a10 003c 6966 9abb 3153 efbb be97 c8bb
