assets/snapshots/P0_baseline_mlp.pth (torch, 52373 bytes, 6 tensors)

net.0.weight f4 [128, 30]
0.20297472 0.12617086 -0.06582047 0.46187514 -0.17533849 -0.017532224 -0.18803908 0.13442615
0.36142084 -0.17515235 0.18928438 -0.06634169 0.16461521 -0.11869567 0.24635202 0.009304936
0.111963645 -0.17795715 -0.03100225 0.10905983 -0.12835112 -0.11566392 -0.056009516 0.1842134
-0.24080533 -0.23588553 -0.050927114 -0.1364686 -0.03762704 -0.29874834 0.15860076 -0.15684085
0.19108234 -0.17639995 -0.18444952 0.07574731 0.012616755 0.15439613 0.058567937 -0.19979143
0.054917622 -0.11257688 0.14162835 0.32516152 0.18216474 0.041685246 0.12222707 0.017702248
0.20220324 0.014831101 -0.057047293 0.055068325 -0.15454283 0.26588 0.045500647 0.13728513
0.106105655 -0.03430707 0.16592816 -0.14458935 0.016993335 -0.046781156 0.029455215 -0.037721325
-0.032233045 -0.08350359 0.17681597 -0.124347016 -0.09415545 -0.24936481 0.1211494 0.13703282
0.20345174 -0.17780247 -0.1664716 -0.12688732 -0.08761669 0.09472771 0.048392303 0.23370267
-0.042355742 -0.12413554 0.095733315 -0.06518607 0.14624909 -0.08240363 0.18721029 -0.08558856
-0.051091827 0.110244334 0.019611519 -0.078769624 0.124276035 0.10202205 -0.13085121 -0.10990231
0.07212499 -0.010127853 -0.0486484 -0.26313552 -0.10674528 0.026014172 0.021485578 -0.09587913
-0.012936691 -0.08969107 -0.06765046 -0.10762742 -0.17517304 -0.16193587 0.12434961 0.012595219
0.052276358 -0.24748622 -0.016755886 -0.067915164 0.0070296787 -0.18520784 -0.08786296 -0.049021207
-0.01436578 -0.117064714 0.12744963 -0.116591 -0.22604716 -0.20387727 -0.183349 -0.12877738
0.22320399 0.11333798 0.044776198 -0.034345802 -0.101617835 0.28950056 -0.0344922 -0.012123835
-0.14814569 -0.3596464 0.042846482 0.041278064 -0.05959378 -0.19464684 0.13746005 -0.122841634
0.044241212 0.056423396 0.009165065 0.27639934 0.08162717 -0.23928547 0.060509454 -0.0091165
-0.04825751 -0.129109 0.12578799 -0.15605588 0.21055068 0.06535503 0.117887534 -0.03904002
0.19150072 -0.016600104 0.13053484 -0.075030126 0.11580249 -0.14886963 -0.03139909 0.12730525
0.057007335 -0.06692912 0.0063880878 0.013941189 0.2088429 -0.01538111 -0.16678402 -0.030473962
-0.15929288 0.11841006 0.19364943 -0.13753945 0.24034157 0.047179513 0.13191801 -0.35211903
-0.001374493 0.2194321 -0.016406855 -0.041231275 -0.072230525 0.013027948 -0.050580315 -0.022486536
0.22289488 0.2236159 0.012657522 -0.078433014 0.114636764 -0.061970834 0.22651412 0.058265287
-0.1515901 -0.08312309 0.16372803 0.20411944 -0.03159491 -0.11526137 -0.1557584 -0.099870756
-0.31164336 0.04205799 0.09966933 0.042005654 -0.24551791 0.016407091 0.012324862 0.1778777
0.11525706 -0.06435191 0.01106383 0.013035153 -0.08820724 0.10018194 -0.19501318 -0.1307698
-0.18205549 0.11031946 0.14121294 0.124349594 -0.08110202 -0.015996821 -0.10736603 0.19401757
0.08071769 0.17330208 0.029810153 -0.09719891 0.08572619 -0.14748679 -0.13631606 -0.029966986
0.17671338 -0.089192264 -0.0014227353 -0.10220808 -0.15747763 -0.25297078 -0.18734516 0.004963856
-0.033681743 0.10143095 -0.092776544 -0.2208304 0.017631738 0.13722768 -0.030839661 -0.083278656
00000000: 9bd8 4f3e ef32 013e e2cc 86bd e67a ec3e
00000010: ef8b 33be bd9f 8fbc 518d 40be 02a7 093e
00000020: 270c b93e 235b 33be c4d3 413e 27de 87bd
00000030: e490 283e b716 f3bd b443 7c3e bb73 183c
00000040: 324d e53d 663a 36be 6ef8 fdbc c35a df3d
00000050: 7a6e 03be 35e1 ecbd 3c6a 65bd 70a2 3c3e
00000060: ac95 76be fa8b 71be f398 50bd 6dbe 0bbe
00000070: d01e 1abd 8bf5 98be 3d68 223e e39a 20be
00000080: 17ab 433e 30a2 34be 56e0 3cbe 6821 9b3d
00000090: 82b6 4e3c 051a 1e3e efe4 6f3d 2096 4cbe
000000a0: 4df1 603d b58e e6bd 0607 113e 927b a63e
000000b0: 6589 3a3e 26be 2a3d 3052 fa3d 4e04 913c
000000c0: 5e0e 4f3e 25fe 723c 6caa 69bd 538f 613d
000000d0: 7a40 1ebe 6c21 883e e35e 3a3d 7994 0c3e
000000e0: ec4d d93d 9285 0cbd 12e9 293e 3b0f 14be
000000f0: 9b35 8b3c 999d 3fbd 104c f13c ad81 1abd
00000100: cc06 04bd ee03 abbd 3f0f 353e a6a9 febd
00000110: 93d4 c0bd 7d59 7fbe 2d1d f83d 5552 0c3e
00000120: a755 503e da11 36be 8877 2abe c0ee 01be
00000130: 6170 b3bd 9a00 c23d 0237 463d c14f 6f3e
00000140: 377d 2dbd c63a febd d40f c43d 4680 85bd
00000150: 52c2 153e 3cc3 a8bd 0eb4 3f3e 0e49 afbd
00000160: aa45 51bd c8c7 e13d 56a8 a03c f851 a1bd
00000170: 6f84 fe3d f0f0 d03d dcfd 05be 7614 e1bd
00000180: 44b6 933d 4bef 25bc 8b43 47bd b3b9 86be
00000190: 459d dabd ac1b d53c 8602 b03c 475c c4bd
000001a0: 6af4 53bc f4af b7bd 538c 8abd c46b dcbd
000001b0: 9060 33be 84d2 25be 02ab fe3d 2d5c 4e3c
000001c0: bc1f 563d 076d 7dbe a443 89bc 1b17 8bbd
000001d0: 3859 e63b 20a7 3dbe 7ff1 b3bd 76ca 48bd
000001e0: 735e 6bbc a0bf efbd 2882 023e 43c7 eebd
000001f0: e878 67be 34c5 50be d7bf 3bbe 38de 03be
00000200: 968f 643e be1d e83d 3f67 373d 2fae 0cbd
00000210: 031d d0bd 6b39 943e b147 0dbd 0da3 46bc
00000220: 81b3 17be 9323 b8be cb7f 2f3d 3013 293d
00000230: 9c18 74bd 8051 47be 54c2 0c3e 6594 fbbd
00000240: 4636 353d 381c 673d 1229 163c 3784 8d3e
00000250: 252c a73d 4007 75be c3d8 773d 5f5d 15bc
00000260: aba9 45bd 2635 04be 91ce 003e 1dcd 1fbe
00000270: 999a 573e dcd8 853d 056f f13d 6ee8 1fbd
00000280: c418 443e f1fc 87bc edaa 053e 65a9 99bd
00000290: db29 ed3d 4871 18be 559c 00bd 4f5c 023e
000002a0: 8680 693d 2212 89bd 2a53 d13b 9669 643c
000002b0: eada 553e 0d01 7cbc 6ec9 2abe 88a4 f9bc
000002c0: ac1d 23be f980 f23d 094c 463e 24d7 0cbe
000002d0: 1a1c 763e 4e3f 413d 8415 073e f248 b4be
000002e0: 5528 b4ba cfb2 603e ab67 86bc 20e2 28bd
000002f0: 99ed 93bd 2d73 553c 4e2d 4fbd af35 b8bc
00000300: 8e3e 643e 91fb 643e 7f61 4f3c 7da1 a0bd
00000310: aec6 ea3d 21d5 7dbd 51f3 673e 95a7 6e3d
00000320: 6f3a 1bbe 703c aabd 52a8 273e b004 513e
00000330: aa69 01bd 270e ecbd 217f 1fbe 0a89 ccbd
00000340: b88f 9fbe 0045 2c3d 6f1f cc3d 1f0e 2c3d
00000350: 0c69 7bbe 2a68 863c 38ee 493c 9225 363e
00000360: e50b ec3d efca 83bd 1145 353c 6591 553c
00000370: ffa5 b4bd 302c cd3d 89b1 47be 85e8 05be
00000380: c16c 3abe 2bef e13d 209a 103e 00ab fe3d
00000390: d118 a6bd c40b 83bc b9e2 dbbd 8bac 463e
000003a0: 514f a53d 1a76 313e 6c34 f43c 3910 c7bd
000003b0: 3691 af3d c706 17be 7096 0bbe 537d f5bc
000003c0: 5af4 343e 6faa b6bd 137b baba 7852 d1bd
000003d0: d141 21be 6385 81be 69d7 3fbe d8a7 a23b
000003e0: def5 09bd 08bb cf3d a101 bebd 5d21 62be
000003f0: 6f70 903c 6a85 0c3e 75a3 fcbc 008e aabd

net.0.bias f4 [128]
-0.05177962 0.088469006 0.16633008 0.051416215 0.03693702 0.12855212 -0.21566592 -0.066481754
-0.050422158 -0.27409896 0.05631755 0.16489156 0.0669801 0.03624766 -0.18926655 0.07137586
-0.033406638 -0.06259371 -0.030103909 0.0629447 -0.012808234 0.07819357 0.02658107 0.15833494
0.088372 -0.0035905358 -0.059301518 -0.0916351 -0.16299848 0.014059865 -0.087259226 -0.11378883
-0.10061038 0.10501153 -0.17869738 0.011850086 -0.031679515 0.1485775 0.07034968 0.030201556
0.16707873 -0.11704631 -0.11507055 0.110572785 0.12730387 -0.067365125 -0.14443615 0.12762488
0.075337104 -0.087597854 -0.04980006 -0.05897145 0.110810004 -0.05058554 0.036012262 -0.13006954
-0.15493163 -0.0996561 -0.17620973 -0.022636415 -0.122019775 -0.26719385 0.009295029 -0.076526076
-0.16290693 -0.11135137 -0.06014974 -0.1799632 0.12523666 0.12968642 0.12776518 0.15816818
0.016176695 -0.101770945 0.19378763 -0.22782247 0.23373108 0.0030194728 -0.18225479 0.04102905
-0.12707734 -0.0028770987 0.085959435 0.022311693 0.26937106 -0.09136824 -0.047133073 -0.09100552
-0.018868808 0.02964442 -0.07155037 0.17856804 -0.11716752 0.01833006 0.1886457 0.084548555
0.06859701 0.016184349 0.078058645 -0.15586738 -0.2641458 0.14047278 0.14763017 -0.191608
0.10256271 -0.062305145 0.069280796 0.1590295 -0.021751178 -0.040151738 0.116077185 -0.142663
-0.055913024 -0.03874234 0.3841325 0.14637986 -0.054798774 -0.08204145 0.015065962 -0.04176731
0.0866147 -0.147109 0.077306926 -0.2086665 -0.0622212 0.18487738 -0.116007805 0.048269864
00000000: de16 54bd 3d2f b53d 6f52 2a3e cf99 523d
00000010: 464b 173d 2ba3 033e 87d7 5cbe 9627 88bd
00000020: 7787 4ebd b356 8cbe 3bad 663d 55d9 283e
00000030: dd2c 893d 6d78 143d 17cf 41be 822d 923d
00000040: 66d5 08bd 2231 80bd 799c f6bc 27e9 803d
00000050: a1d9 51bc f323 a03d 8bc0 d93c 8e22 223e
00000060: 61fc b43d 324f 6bbb 26e6 72bd 2fab bbbd
00000070: 13e9 26be 595b 663c f7b4 b2bd 1e0a e9bd
00000080: d10c cebd 4910 d73d 72fc 36be dd26 423c
00000090: 61c2 01bd b324 183e 7e13 903d 4169 f73c
000000a0: b016 2b3e fab5 efbd 1caa ebbd fc73 e23d
000000b0: f25b 023e baf6 89bd 12e7 13be 19b0 023e
000000c0: 574a 9a3d 8166 b3bd 26fb 4bbd 0c8c 71bd
000000d0: 5bf0 e23d c832 4fbd 9881 133d f330 05be
000000e0: 66a6 1ebe 7f18 ccbd 5370 34be 0170 b9bc
000000f0: 81e5 f9bd a2cd 88be 2d4a 183c b4b9 9cbd
00000100: 13d1 26be 300c e4bd 935f 76bd 4648 38be
00000110: 0a3e 003e 84cc 043e e0d4 023e d7f6 213e
00000120: fd84 843c 496d d0bd 4470 463e 4b4a 69be
00000130: 3357 6f3e 59e2 453b 00a1 3abe 140e 283d
00000140: 9020 02be b58d 3cbb 800b b03d 03c7 b63c
00000150: 01eb 893e 461f bbbd 9c0e 41bd 1a61 babd
00000160: c292 9abc dbd8 f23c 0089 92bd 8ada 363e
00000170: 86f5 efbd ec28 963c 572c 413e cb27 ad3d
00000180: 977c 8c3d 0a95 843c 36dd 9f3d b39b 1fbe
00000190: 1e3e 87be 19d8 0f3e 5d2c 173e e334 44be
000001a0: 660c d23d ae33 7fbd 17e3 8d3d a1d8 223e
000001b0: 872f b2bc 2676 24bd e0b9 ed3d 4016 12be
000001c0: 0e05 65bd 4ab0 1ebd 04ad c43e 9ae4 153e
000001d0: ae74 60bd 5905 a8bd 3ad7 763c 3314 2bbd
000001e0: 0c63 b13d bea3 16be 1853 9e3d acac 55be
000001f0: a8db 7ebd 7f50 3d3e 8095 edbd 9fb6 453d

net.3.weight f4 [64, 128]
-0.3124613 -0.20401949 0.098320544 0.1024451 -0.12409744 0.058827978 -0.3582009 0.0932316
0.0423727 0.15241097 -0.0016438555 0.05111349 0.14402074 0.015659481 0.091098 0.14074804
-0.14687821 -0.01665492 0.08810017 -0.05026571 -0.07357695 -0.17384623 0.0107246 0.03346988
0.18333772 0.0072468175 0.010985424 0.039235312 -0.06770372 -0.29235747 -0.15127432 -0.026390467
-0.024091393 0.076206125 0.0002776411 0.002993298 -0.08830982 -0.045828186 0.034249958 0.13103256
-0.28743133 -0.13076603 -0.008169648 0.0166816 -0.21449858 -0.01654571 0.06541431 0.09453749
-0.01955154 -0.076028354 0.0043635992 -0.25599897 0.06057007 0.025111664 -0.02320959 0.08872483
-0.5047545 0.11252789 -0.15281141 0.14871351 -0.028805371 0.03309224 -0.19428375 -0.034521237
0.08897902 -0.09480829 0.00317884 0.09815273 -0.0033178532 0.01980571 0.086525306 -0.14315401
-0.041794848 0.13880682 -0.0027306061 0.11118324 0.042472653 -0.03510784 -0.2190296 0.15198684
-0.031385917 -0.029402737 0.17712025 0.10141381 -0.07462265 0.09239332 -0.1206176 0.013703632
0.11133154 -0.06581821 -0.27848044 -0.031741448 0.26881373 0.023371708 -0.031105258 -0.049519673
0.0032696754 -0.21630074 -0.0015614616 -0.09515886 0.014590505 0.041138392 -0.1334582 0.16523801
-0.09353124 0.13830945 0.009292948 -0.0011034776 0.08385502 -0.28875804 -0.05235203 0.008115573
-0.04617147 -0.12893485 -0.017459195 -0.021415997 0.12573048 -0.016797395 -0.007327688 -0.15934879
0.03302015 0.029335506 -0.3160726 0.049433522 0.054866113 -0.19178079 -0.06048952 0.004707662
0.1087462 0.09477647 0.044703048 0.06577095 -0.122822955 0.11878615 0.09295608 0.003990284
-0.109473 -0.098378755 -0.0036090685 -0.101474635 0.021288233 -0.026744282 -0.052349664 0.13016422
0.14905329 0.1444211 0.040627196 0.1284531 0.1069769 0.10668327 0.014696045 0.039588097
0.094401926 -0.09301271 -0.04011917 0.04994061 -0.028262671 0.062368937 0.1727042 -0.1284848
0.10129603 -0.0018396546 -1.4725673e-05 -0.08794637 0.16435744 0.17404069 -0.11134333 0.056587167
-0.03465199 0.23365037 -0.043218702 -0.14616169 0.05112942 -0.0889805 0.103335686 0.03711019
0.02337167 0.06688397 0.13261554 0.28020945 0.058131214 -0.021735717 0.006550185 -0.09302271
-0.027733095 -0.11767878 0.33503887 -0.063091666 -0.11014343 -0.087593764 0.13984185 0.3549059
0.051470004 0.09658628 -0.01575237 -0.12698007 0.05358061 0.20253357 0.056103934 0.058143232
0.21020082 -0.062079657 0.0773927 -0.04657973 0.047951847 0.15803148 0.19554725 0.022342894
0.048298907 0.18595384 -0.024180947 0.021473592 0.14826496 -0.013140998 0.12273501 -0.060840175
-0.026006343 0.10927607 0.23909535 0.102573596 -0.07739725 0.05230994 0.2086243 0.06452128
0.1684365 0.20637594 -0.06264756 0.14207155 -0.03790491 -0.06240405 0.069939375 -0.12582792
-0.019622376 -0.028400034 -0.076729365 -0.040664636 -0.08797027 -0.03309013 -0.04280562 0.08725453
0.07985253 0.20477742 -0.029885571 0.028250536 -0.067608 0.079479784 0.08567159 0.051759128
-0.020688526 -0.10864563 0.14846295 0.002128517 -0.09152716 -0.029577589 -0.010906653 -0.08023763
00000000: edfa 9fbe 7cea 50be 485c c93d bdce d13d
00000010: cc26 febd 9bf5 703d 1c66 b7be 36f0 be3d
00000020: ff8e 2d3d 9f11 1c3e a376 d7ba 615c 513d
00000030: 2c7a 133e 5048 803c 9791 ba3d 4120 103e
00000040: 3e67 16be e66f 88bc dd6d b43d 6be3 4dbd
00000050: 83af 96bd bf04 32be 3cb6 2f3c b717 093d
00000060: e2bc 3b3e b676 ed3b 35fc 333c 35b5 203d
00000070: 3fa8 8abd e1af 95be a8e7 1abe d230 d8bc
00000080: 505b c5bc f511 9c3d 5c90 9139 352b 443b
00000090: c7db b4bd 56b6 3bbd af49 0c3d 662d 063e
000000a0: 332a 93be 88e7 05be fdd9 05bc daa7 883c
000000b0: 84a5 5bbe de8a 87bc f0f7 853d df9c c13d
000000c0: 8d2a a0bc c1b4 9bbd 86fc 8e3b 4c12 83be
000000d0: 5218 783d fab6 cd3c 0a22 bebc 5db5 b53d
000000e0: 9737 01bf 0675 e63d 987a 1cbe 5b48 183e
000000f0: 3ef9 ebbc bb8b 073d 52f2 46be 2466 0dbd
00000100: a23a b63d d92a c2bd 1654 503b 4c04 c93d
00000110: 5770 59bb 963f a23c 2e34 b13d f796 12be
00000120: 1331 2bbd 6023 0e3e f8f3 32bb 0ab4 e33d
00000130: cef7 2d3d 3dcd 0fbd 4c49 60be 70a2 1b3e
00000140: 858e 00bd 02de f0bc 035f 353e 0bb2 cf3d
00000150: c3d3 98bd b538 bd3d 5c06 f7bd 3385 603c
00000160: ca01 e43d b3cb 86bd fd94 8ebe 5203 02bd
00000170: f4a1 893e 0676 bf3c 74d0 febc 24d5 4abd
00000180: 0d48 563b f17d 5dbe f5a9 ccba a6e2 c2bd
00000190: 030d 6f3c bb80 283d 44a9 08be 2734 293e
000001a0: 4f8d bfbd fea0 0d3e 7341 183c 90a2 90ba
000001b0: 2ebc ab3d 18d8 93be 156f 56bd 2ef7 043c
000001c0: 4c1e 3dbd 7f07 04be 9606 8fbc 9a70 afbc
000001d0: 7ebf 003e b19a 89bc 1a1d f0bb 542c 23be
000001e0: 2340 073d 0451 f03c 45d4 a1be ce7a 4a3d
000001f0: 4abb 603d 2f62 44be dcc3 77bd bb42 9a3b
00000200: 54b6 de3d 2a1a c23d 8b1a 373d ebb2 863d
00000210: 9a8a fbbd 2746 f33d c25f be3d eec0 823b
00000220: 6133 e0bd cd7a c9bd 1f86 6cbb efd1 cfbd
00000230: a964 ae3c d316 dbbc 9a6c 56bd c549 053e
00000240: 6da1 183e 20e3 133e b468 263d 3689 033e
00000250: b416 db3d c27c da3d aec7 703c 2127 223d
00000260: cc55 c13d 737d bebd 0054 24bd 868e 4c3d
00000270: 1e87 e7bc 9276 7f3d 5fd9 303e 8591 03be
00000280: 4b74 cf3d 9120 f1ba 490e 77b7 3a1d b4bd
00000290: 514d 283e b937 323e f907 e4bd f2c7 673d
000002a0: 3fef 0dbd 0b42 6f3e 1806 31bd 69ab 15be
000002b0: 156d 513d 693b b6bd a9a1 d33d db00 183d
000002c0: f275 bf3c 76fa 883d 5ecc 073e 9d77 8f3e
000002d0: ff1a 6e3d 1a0f b2bc efa2 d63b b182 bebd
000002e0: 8430 e3bc 9201 f1bd 378a ab3e 3436 81bd
000002f0: e192 e1bd 5c64 b3bd b432 0f3e 3ab6 b53e
00000300: 36d2 523d 07cf c53d 1d0b 81bc 1007 02be
00000310: 5777 5b3d f664 4f3e 3dcd 653d 9927 6e3d
00000320: e23e 573e 3d47 7ebd 1080 9e3d 63ca 3ebd
00000330: 2869 443d 01d3 213e 8a3d 483e 7208 b73c
00000340: 13d5 453d af6a 3e3e 1f17 c6bc 63e9 af3c
00000350: c5d2 173e 574d 57bc 7e5c fb3d 8c33 79bd
00000360: 410b d5bc 22cc df3d 69d5 743e 1b12 d23d
00000370: 7382 9ebd f342 563d 9ca1 553e bc23 843d
00000380: 9e7a 2c3e 3754 533e 5d4d 80bd 347b 113e
00000390: 2e42 1bbd 649b 7fbd 603c 8f3d 09d9 00be
000003a0: 1bbf a0bc 30a7 e8bc 4924 9dbd f68f 26bd
000003b0: c229 b4bd 8489 07bd f254 2fbd 81b2 b23d
000003c0: b989 a33d 2cb1 513e 96d2 f4bc ab6d e73c
000003d0: 1076 8abd 4cc6 a23d 9674 af3d 6101 543d
000003e0: fc7a a9bc 9a81 debd ac06 183e 977e 0b3b
000003f0: 9772 bbbd b34c f2bc d1b1 32bc a053 a4bd

net.3.bias f4 [64]
0.07033567 -0.07222834 -0.023764066 -0.096059725 0.12133747 -0.073956504 0.13561301 -0.06260205
-0.03329225 0.08016127 0.027017847 0.13323918 0.005530355 -0.07687438 0.13552709 0.20863198
-0.0040754112 0.121552706 -0.018630655 0.038685504 0.024593437 -0.060414128 0.007048044 0.020665279
0.04042403 0.05298455 0.0120432 0.074894406 -0.0252396 0.038047973 0.11431368 0.02559528
0.011728477 -0.028775897 0.0098132575 0.0042887246 0.114618234 0.09720476 0.10287789 0.14708938
0.034057103 -0.051709343 -0.055941988 0.18296404 0.052230977 -0.0058053313 0.1839898 -0.031541113
0.090272486 0.00029224777 0.062149327 0.06671846 -0.059150796 0.06655289 0.08115696 0.1433652
-0.076492615 0.055322513 0.054815453 0.03353316 0.07206824 0.08532603 0.12646681 -0.055439197
00000000: 260c 903d 74ec 93bd dcac c2bc f6ba c4bd
00000010: c87f f83d 8276 97bd 23de 0a3e 8135 80bd
00000020: 745d 08bd 982b a43d 8854 dd3c da6f 083e
00000030: fb37 b53b 5170 9dbd 9dc7 0a3e 9fa3 553e
00000040: 078b 85bb a0f0 f83d 519f 98bc b174 1e3d
00000050: 2d78 c93c ce74 77bd 47f3 e63b 3b4a a93c
00000060: ab93 253d 5406 593d d850 453c 3d62 993d
00000070: 47c3 cebc 31d8 1b3d 4a1d ea3d 31ad d13c
00000080: cc28 403c 6ebb ebbc c9c7 203c 6e88 8c3b
00000090: f7bc ea3d 4a13 c73d a5b1 d23d 999e 163e
000000a0: 767f 0b3d 2dcd 53bd 6d23 65bd ed5a 3b3e
000000b0: 26f0 553d a63a bebb d267 3c3e 4131 01bd
000000c0: c8e0 b83d d538 9939 4b90 7e3d b0a3 883d
000000d0: 1b48 72bd e24c 883d 9f35 a63d 54ce 123e
000000e0: 29a8 9cbd dc99 623d 2b86 603d 115a 093d
000000f0: 8398 933d 6abf ae3d 8480 013e 3614 63bd

net.6.weight f4 [2, 64]
-0.17602596 0.15873429 0.011848744 0.05769401 -0.2991946 -0.0046592387 -0.2297368 0.068946235
0.049075887 -0.20477882 -0.13719304 -0.13798945 0.13478324 0.078830026 -0.23234992 -0.30742288
-0.0227461 0.14005129 -0.021832887 -0.13505107 -0.17653123 -0.10247431 0.23102723 -0.116476454
0.08030184 -0.18622729 0.03096884 -0.06702177 0.015552657 -0.05983818 0.13822009 0.12003453
0.15253967 0.13893183 0.17673634 0.17918314 -0.16073534 -0.03837829 0.16677515 -0.15768896
-0.1533849 0.13931821 0.19462116 -0.20354988 0.064467974 0.14427905 -0.14771487 0.016402887
-0.22232717 -0.11241127 0.17469597 0.2269187 -0.108432256 0.009626716 -0.010516391 -0.115102194
-0.013014865 0.11377246 0.15652896 -0.23397233 0.13087064 -0.113986455 -0.25973228 -0.05358952
0.13857242 -0.022582823 -0.13351113 -0.06936967 0.097388074 -0.19677456 0.37524295 -0.15009645
-0.12350152 0.072440095 -0.0028263212 0.26570776 -0.06638506 -0.1468238 0.068062976 0.20112775
0.07293445 -0.07050515 -0.17874251 0.022406217 0.16750087 -0.09251322 -0.18741482 0.17872448
-0.16020072 0.28529203 -0.13755755 0.118808895 0.064515345 -0.026198588 -0.17487706 -0.16734506
-0.06532025 -0.16572905 -0.18231602 -0.22886057 0.1574144 0.09910324 -0.18527569 0.11736801
-0.009780515 0.037646353 -0.19281043 0.070207395 -0.08650743 -0.07659643 0.087421596 -0.15483676
0.07353037 -0.056215964 -0.10074095 -0.19028607 0.033047527 0.044923514 -0.11879003 0.095044896
0.09958343 -0.058143545 -0.22775687 0.23477715 -0.17917544 0.17400083 0.29793325 -0.00335885
00000000: 2640 34be 3e8b 223e 3c21 423c 8e50 6c3d
00000010: 0930 99be 87ac 98bb 2040 6bbe af33 8d3d
00000020: cc03 493d 8ab1 51be 557c 0cbe 1b4d 0dbe
00000030: 9e04 0a3e a371 a13d 23ed 6dbe 8866 9dbe
00000040: 0756 babc 9b69 0f3e e2da b2bc d44a 0abe
00000050: 9ac4 34be 0dde d1bd 6792 6c3e 358b eebd
00000060: 4b75 a43d 5eb2 3ebe 5db2 fd3c b642 89bd
00000070: 92d0 7e3c e118 75bd 9189 0d3e aad4 f53d
00000080: 5c33 1c3e 2544 0e3e 5ffa 343e c97b 373e
00000090: ce97 24be 8e32 1dbd 1bc7 2a3e 3779 21be
000000a0: ee10 1dbe 6fa9 0e3e c54a 473e 616f 50be
000000b0: c907 843d e3bd 133e 9142 17be 595f 863c
000000c0: bca9 63be e137 e6bd 80e3 323e 605d 683e
000000d0: bb11 debd 60b9 1d3c f14c 2cbc b3ba ebbd
000000e0: 4d3c 55bc 8901 e93d 2149 203e 7196 6fbe
000000f0: f402 063e bb71 e9bd a1fb 84be af80 5bbd
00000100: eee5 0d3e 9dff b8bc 24b7 08be af11 8ebd
00000110: 6673 c73d 457f 49be d81f c03e e2b2 19be
00000120: 5dee fcbd 795b 943d cd39 39bb d90a 883e
00000130: e4f4 87bd fa58 16be 9a64 8b3d 6ff4 4d3e
00000140: a85e 953d 0165 90bd 4708 37be 3e8d b73c
00000150: 5985 2b3e 9277 bdbd ace9 3fbe 8d03 373e
00000160: a80b 24be cc11 923e e3db 0cbe 1452 f33d
00000170: 9f20 843d 6c9e d6bc f912 33be 815c 2bbe
00000180: a0c6 85bd e0b4 29be 0db1 3abe 6d5a 6abe
00000190: 3e31 213e a4f6 ca3d e9b8 3dbe a45e f03d
000001a0: 743e 20bc 1033 1a3d 1970 45be e5c8 8f3d
000001b0: cf2a b1bd 97de 9cbd 180a b33d 878d 1ebe
000001c0: 1797 963d b642 66bd 4551 cebd 5ada 42be
000001d0: d85c 073d b801 383d 3048 f3bd e6a6 c23d
000001e0: 66f2 cb3d ed27 6ebd 1939 69be 6c69 703e
000001f0: c479 37be 462d 323e b58a 983e 2720 5cbb

net.6.bias f4 [2]
0.07138175 0.09485386
00000000: 9830 923d be42 c23d
