assets/snapshots/P0_baseline_mlp.pth (torch, 52437 bytes, 6 tensors)

net.0.weight f4 [128, 30]
-0.06483336 -0.2296878 0.13531208 0.026048759 0.07316395 -0.1153264 -0.06495603 0.06979679
-0.0832864 -0.041548815 0.0426482 0.124507114 -0.21154489 0.008768077 0.08676937 0.007964841
-0.13455123 0.05813407 0.12485215 -0.22639826 -0.015550516 0.17598741 0.15142539 0.2057877
-0.15729652 0.0016150414 0.124420464 0.0075981366 -0.15352537 0.110991865 0.108766444 -0.12908255
0.031193174 -0.13085878 0.18152337 0.090559684 -0.13389471 -0.016885854 0.1514315 0.115708016
-0.06825921 0.0098828 0.0037654345 -0.083957866 -0.10658722 0.08176428 0.11352718 -0.16326337
-0.013994513 0.03299851 0.19500686 0.14016655 0.099460125 -0.09117299 -0.15907367 0.11710462
-0.06646687 0.17670962 0.108410046 0.18925622 0.12711212 0.03182004 0.06727463 -0.20177706
-0.019734325 0.0047314926 0.040543307 0.18453768 -0.16735482 0.06683659 0.114605434 0.118731484
-0.17139798 -0.19182889 -0.031129666 -0.123343945 0.09490844 -0.018359441 0.093750715 -0.10485852
-0.1687655 0.062186435 -0.084469356 0.06979416 0.058171954 -0.016148822 -0.08758852 0.010017363
-0.17466857 0.121008135 -0.031206137 -0.18502346 0.0975774 0.20578489 -0.20189776 -0.015552979
-0.08191298 0.047383413 -0.006597225 -0.07991262 -0.079714574 -0.15990502 0.06575883 -0.17605852
-0.0161439 0.07887043 0.09437618 0.14406356 0.05189083 -0.11413703 -0.09959299 -0.0015296338
-0.08406463 0.061147776 0.15816322 -0.062839136 0.13358067 -0.06607177 -0.02253678 -0.28159752
-0.09150195 -0.155706 0.17749321 -0.057162706 0.14234644 0.114039406 -0.12045717 -0.16481437
-0.09062164 0.11194486 0.12244581 -0.119942404 0.11194092 -0.19601524 0.10302725 -0.13850442
-0.17953436 0.044708654 -0.130945 -0.083380304 -0.058277026 -0.14441912 -0.039065696 -0.15961277
-0.14168262 0.088725425 0.025936943 -0.15636031 0.15384755 -0.10620095 0.10588026 0.11023899
-0.0574429 0.17598286 -0.18767345 0.11054142 0.18587406 -0.0006178994 0.122046635 0.14811271
0.009276759 -0.037694942 0.10313146 -0.048657835 0.23823018 0.10952283 0.17702888 0.13729176
0.068313204 0.23367736 -0.15969455 -0.048450265 0.07726878 -0.14229743 0.018051358 0.077974096
-0.021262197 0.025433686 -0.02155511 -0.16982831 0.06633188 -0.06361906 0.07570963 0.21293141
-0.14121118 -0.13983612 -0.11784313 0.15354887 0.13723674 0.050410613 0.1094232 -0.2070428
0.025749255 -0.042850144 0.17277303 -0.0943749 0.20803273 -0.103593744 0.1964174 0.050300993
-0.00052803895 0.07975834 -0.096563466 0.07101506 0.070191704 0.03276705 0.16557156 -0.0891342
-0.050136026 0.095460616 -0.10079039 0.058351744 -0.1928459 0.0017194009 -0.118459314 -0.0025504192
-0.026785754 0.13922653 0.045716316 -0.117397964 0.13931069 -0.0022867972 -0.12432946 0.18945481
-0.018481052 -0.17677365 0.046696104 0.18059927 -0.068446785 0.24668866 -0.12038478 -0.07159175
0.0098148575 0.10773727 0.0102259405 -0.117554195 0.07057467 0.13867855 -0.10565803 -0.10532793
-0.07438113 0.17598836 0.08704397 -0.081984885 0.061814103 0.21259363 -0.13191542 -0.009981878
-0.108958505 0.15410899 0.16058682 -0.15510994 -0.13207306 0.10471076 0.21304853 -0.16157563
00000000: 5ac7 84bd 4733 6bbe 408f 0a3e 3564 d53c
00000010: fbd6 953d 3f30 ecbd ab07 85bd 9ff1 8e3d
00000020: 0f92 aabd 172f 2abd e1af 2e3d 96fd fe3d
00000030: 399f 58be fba7 0f3c 24b4 b13d f77e 023c
00000040: ccc7 09be fe1d 6e3d 7cb2 ff3d f2d4 67be
00000050: 97c7 7ebc 0b36 343e 420f 1b3e 03ba 523e
00000060: 5712 21be ccaf d33a 28d0 fe3d caf9 f83b
00000070: c135 1dbe b44f e33d f1c0 de3d 372e 04be
00000080: d488 ff3c d8ff 05be 43e1 393e 5b77 b93d
00000090: b21b 09be 3454 8abc dc10 1b3e 53f8 ec3d
000000a0: 7ccb 8bbd 78eb 213c 82c5 763b 1af2 abbd
000000b0: 674a dabd 0874 a73d f080 e83d 832e 27be
000000c0: 3e49 65bc 7229 073d e1af 473e d287 0f3e
000000d0: c0b1 cb3d e8b8 babd 35e4 22be 8cd4 ef3d
000000e0: c81f 88bd 5ef3 343e 1606 de3d 62cc 413e
000000f0: ae29 023e bb55 023d 48c7 893d a59e 4ebe
00000100: e1a9 a1bc a30a 9b3b bd10 263d 72f7 3c3e
00000110: 105f 2bbe 9fe1 883d 41b6 ea3d 7e29 f33d
00000120: f482 2fbe cb6e 44be a403 ffbc c09b fcbd
00000130: 5b5f c23d 8a66 96bc 6000 c03d 10c0 d6bd
00000140: ddd0 2cbe 34b7 7e3d 45fe acbd 3ef0 8e3d
00000150: b745 6e3d 894a 84bc 9c61 b3bd de1f 243c
00000160: 51dc 32be 1dd3 f73d 03a4 ffbc ca76 3dbe
00000170: a9d6 c73d 46b9 523e 49be 4ebe ecd1 7ebc
00000180: fec1 a7bd 1c15 423d 892d d8bb 3aa9 a3bd
00000190: 6541 a3bd 24be 23be 91ac 863d af48 34be
000001a0: 3640 84bc d286 a13d 4c48 c13d 6685 133e
000001b0: 7b8b 543d adc0 e9bd 69f7 cbbd fe7d c8ba
000001c0: 142a acbd 1776 7a3d 8af5 213e ceb1 80bd
000001d0: 5fc9 083e a350 87bd 0e9f b8bc 8d2d 90be
000001e0: 6065 bbbd 6571 1fbe c8c0 353e 7123 6abd
000001f0: 44c3 113e 7e8d e93d 40b2 f6bd 19c5 28be
00000200: d797 b9bd 5943 e53d dec4 fa3d 5da4 f5bd
00000210: 4841 e53d 38b8 48be f3ff d23d 1ad4 0dbe
00000220: dbd7 37be 6c20 373d 7216 06be 4bc3 aabd
00000230: e4b3 6ebd 9be2 13be 5a03 20bd 8871 23be
00000240: 4015 11be adb5 b53d b679 d43c eb1c 20be
00000250: 368a 1d3e e27f d9bd c0d7 d83d fbc4 e13d
00000260: 3f49 6bbd da34 343e 782d 40be 8a63 e23d
00000270: c555 3e3e 87fa 21ba 96f3 f93d dcaa 173e
00000280: 8cfd 173c 0366 1abd 9636 d33d 704d 47bd
00000290: 9df2 733e 814d e03d 0f47 353e 3696 0c3e
000002a0: cbe7 8b3d 1e49 6f3e f886 23be c973 46bd
000002b0: 183f 9e3d 6bb6 11be 71e0 933c e2b0 9f3d
000002c0: 0f2e aebc 4e5a d03c 5894 b0bc 79e7 2dbe
000002d0: 02d9 873d b64a 82bd a70d 9b3d b10a 5a3e
000002e0: aa99 10be 3331 0fbe bd57 f1bd ea3b 1d3e
000002f0: ca87 0c3e 5c7b 4e3d 4519 e03d 0703 54be
00000300: 1af0 d23c a283 2fbd 6aeb 303e a147 c1bd
00000310: 8806 553e f528 d4bd a521 493e 6a08 4e3d
00000320: 186c 0aba 5758 a33d 11c3 c5bd 5870 913d
00000330: abc0 8f3d be36 063d 978b 293e fe8b b6bd
00000340: 6f5b 4dbd db80 c33d 316b cebd 3d02 6f3d
00000350: 6579 45be 855d e13a cc9a f2bd ef24 27bb
00000360: cc6d dbbc 6691 0e3e 0841 3b3d 586e f0bd
00000370: 76a7 0e3e 17de 15bb 72a0 febd 7100 423e
00000380: 9365 97bc 2704 35be 6a44 3f3d 04ef 383e
00000390: d42d 8cbd f49b 7c3e 4c8c f6bd b29e 92bd
000003a0: 7fce 203c 5ca5 dc3d b48a 273c 41c0 f0bd
000003b0: 7489 903d c001 0e3e 3d63 d8bd 2bb6 d7bd
000003c0: 2255 98bd 4b36 343e 1c44 b23d b1e7 a7bd
000003d0: c930 7d3d 25b2 593e d614 07be 088b 23bc
000003e0: a325 dfbd bfce 1d3e df70 243e 24d5 1ebe
000003f0: 293e 07be 9872 d63d 6529 5a3e 1574 25be

net.0.bias f4 [128]
0.17148724 0.14664294 -0.09794114 -0.080513634 0.16260381 0.041709952 -0.008288273 0.18268625
-0.0791772 0.09490796 -0.11894682 -0.14687917 0.033359747 0.08545789 0.11807738 0.03929929
0.05482445 -0.07043407 0.020868355 0.16663812 0.050787278 0.07558124 -0.068342485 0.04123333
0.083733924 -0.020902762 0.17329945 -0.06917986 0.118517846 0.018919956 0.05477741 0.0347139
0.12734336 -0.107855774 0.10778226 -0.049588885 -0.01565968 0.11207042 0.14140843 0.008987201
-0.08374842 0.014843491 0.16799174 0.17511462 0.051320862 -0.042420596 0.13580649 -0.009824378
0.122944 -0.09994445 0.06348485 0.17390217 -0.12359902 0.013445761 -0.092316344 -0.09369307
0.06788478 0.09997525 -0.007241852 -0.11707369 0.025967097 0.11972987 0.06672051 0.15750456
0.17881218 0.027969252 0.04473291 -0.14324126 -0.05977268 -0.051711973 0.15717556 0.13896103
-0.076497436 -0.064278744 0.19339506 -0.069088146 0.015897624 -0.0025954405 -0.059980143 -0.060170494
-0.11436948 0.17546363 0.19306712 -0.031297404 -0.015489814 0.006827736 0.18869932 0.010249245
0.07889195 -0.08184193 0.17780326 -0.10957246 0.04492791 -0.0921236 0.15462367 -0.02598636
-0.034058526 -0.04154237 -0.15922418 0.119650744 -0.085436285 0.047095984 0.0062132627 -0.009293749
-0.015580209 0.019082163 -0.12371437 -0.084164895 -0.094212845 -0.07027098 -0.05554116 0.19917463
-0.085922085 -0.035627484 -0.1361202 -0.12322773 -0.096230984 0.06903383 0.19250847 -0.13416536
-0.10492139 0.21404712 0.21544679 0.20938349 -0.124047935 -0.07414708 -0.07774854 0.05322367
00000000: 5a9a 2f3e 9129 163e 5d95 c8bd 55e4 a4bd
00000010: 9d81 263e 0ed8 2a3d 89cb 07bc 1b12 3b3e
00000020: a827 a2bd 1b5f c23d 649a f3bd 7e67 16be
00000030: 3ba4 083d 8c04 af3d 8ed2 f13d 4bf8 203d
00000040: 9a8f 603d bd3f 90bd 1df4 aa3c 2fa3 2a3e
00000050: 5206 503d 56ca 9a3d 25f7 8bbd 48e4 283d
00000060: b17c ab3d 453c abbc 6975 313e 2cae 8dbd
00000070: 7cb9 f23d 06fe 9a3c 475e 603d 2a30 0e3d
00000080: 4c66 023e 7de3 dcbd f2bc dc3d b71d 4bbd
00000090: bb48 80bc 2d85 e53d 5fcd 103e 0e3f 133c
000000a0: 4b84 abbd 1d32 733c 0706 2c3e 3f51 333e
000000b0: d335 523d 38c1 2dbd db10 0b3e 6ef6 20bc
000000c0: 10ca fb3d adaf ccbd 5804 823d 6913 323e
000000d0: 7c21 fdbd 9c4b 5c3c 5a10 bdbd 27e2 bfbd
000000e0: 2d07 8b3d d3bf cc3d 0f4d edbb 55c4 efbd
000000f0: f3b8 d43c ef34 f53d c3a4 883d e048 213e
00000100: 8a1a 373e c61f e53c db39 373d d6ad 12be
00000110: 33d4 74bd efcf 53bd a1f2 203e cd4b 0e3e
00000120: b0aa 9cbd 93a4 83bd 5b09 463e 167e 8dbd
00000130: bc3b 823c 4418 2abb bdad 75bd 5675 76bd
00000140: 8c3a eabd bdac 333e 63b3 453e b531 00bd
00000150: fdc8 7dbc 33bb df3b 653a 413e 73ec 273c
00000160: 1a92 a13d be9c a7bd 0f12 363e 8767 e0bd
00000170: 5406 383d 4cab bcbd ab55 1e3e 59e1 d4bc
00000180: f480 0bbd 5528 2abd aa0b 23be 730b f53d
00000190: 38f9 aebd b8e7 403d a098 cb3b cf44 18bc
000001a0: 2244 7fbc 3252 9c3c f65d fdbd a55e acbd
000001b0: aaf2 c0bd 3bea 8fbd 217f 63bd 6ff4 4b3e
000001c0: ebf7 afbd 20ee 11bd 1863 0bbe d25e fcbd
000001d0: c014 c5bd 9c61 8d3d f120 453e a562 09be
000001e0: 07e1 d6bd 2b2f 5b3e 159e 5c3e a068 563e
000001f0: d80c febd 6dda 97bd a03a 9fbd 1001 5a3d

net.3.weight f4 [64, 128]
-0.09257165 -0.061183445 -0.010320105 0.047384925 0.11495714 -0.02962504 0.022992363 0.020496808
-0.0029701677 -0.026845826 -0.03606301 0.0058789086 -0.037725277 0.06908268 0.06245371 -0.018203035
0.06960232 0.12049248 0.086171955 0.032216944 -0.036352564 -0.053865638 -0.0123315025 -0.046276405
-0.07249039 -0.04741282 0.048140913 0.12095542 -0.08612983 -0.10611561 0.00048889156 -0.010574651
-0.07061623 0.05915852 -0.02963048 -0.045677006 0.06963581 0.09543524 0.013755403 0.1261616
-0.012285958 0.015607424 0.022011003 0.12179889 0.08630507 0.019666646 -0.025403956 0.08451415
0.05566378 -0.06578326 -0.0092333825 0.07651503 0.119182214 -0.02008285 0.005215278 -0.07441082
0.089787774 -0.021824813 0.092114545 0.10082628 -0.01173066 -0.001044489 0.08852823 -0.038430206
0.057974286 0.020614259 0.032015152 0.06990693 0.044100143 -0.038109284 0.089201316 0.05628637
0.026876293 -0.016468866 0.09324943 -0.0032865857 -0.10017863 -0.049380247 -0.14123034 0.054656938
0.07106012 0.027565308 -0.051030353 0.04231257 0.044708177 -0.024525488 -0.09905288 0.111582935
-0.027858747 0.08666835 -0.1042189 -0.050990526 -0.02562082 0.053568035 -0.07811816 -0.08216498
0.12096836 0.055123676 0.021475716 -0.002139456 0.098373145 -0.081751004 0.057055023 0.0270977
0.032730848 0.034083307 0.0033421419 0.01883885 0.011264032 0.052442104 0.009522852 -0.0144045325
0.120356776 -0.01693986 0.039979663 -0.039772544 -0.0580104 -0.053998236 -0.07233744 0.022725377
0.057643153 0.079235844 0.10710656 0.013335229 0.019585483 0.084181756 -0.071202524 0.10886293
0.07950656 0.05545046 -0.01028898 -0.040005866 0.041962836 -0.10847391 -0.07112792 -0.0136468345
-0.023909472 -0.008750062 -0.036561657 -0.12114799 0.09946317 0.031414602 0.07386439 0.08810854
-0.008301543 -0.078608245 -0.063327536 0.010080605 0.050298832 0.081591114 0.05482991 0.04616642
0.10359889 0.03355183 0.00959476 0.05633877 0.07163874 0.13016422 0.0014824618 0.03986989
0.031010361 0.0047917557 -0.011804821 0.083072856 0.017020456 -0.0611829 0.13999534 -0.08597772
0.100490846 0.007980054 0.08481258 0.100875214 -0.005490486 0.10718043 0.036996417 0.047014065
0.06039421 0.03384642 0.11881933 -0.038278833 0.023828102 -0.048135486 0.03975604 0.009400367
-0.0010802902 0.06326353 0.08152146 0.067922555 0.009755881 -0.058790065 -0.062684685 0.075961515
0.09495916 0.08537373 0.09317703 0.016731594 -0.12318574 0.10882327 -0.0061765434 0.021944992
0.11784313 0.07229495 0.113642834 0.11373668 0.014796338 0.07033625 0.04926709 -0.08022632
0.07241711 0.08302195 0.06764521 0.15342854 0.0229303 0.056014195 0.00075067685 -0.11603636
-0.01842879 0.012930788 0.05602373 0.07511004 -0.027211837 -0.024914406 -0.029610535 0.109141424
-0.017586635 -0.14443357 0.025525326 -0.064942464 0.025791518 0.09219869 -0.02393617 -0.07616941
0.0421301 -0.034546528 -0.09733048 0.029192984 -0.09633801 0.06529668 -0.111858696 -0.038869422
-0.053341966 -0.0982277 0.118789114 -0.04622177 0.09594243 0.076350145 0.0834073 0.14607723
-0.07953784 -0.00494896 -0.033577524 -0.0852048 -0.030247295 0.049894806 -0.042335678 0.038138017
00000000: 3596 bdbd 7e9b 7abd a815 29bc b216 423d
00000010: a66e eb3d 36b0 f2bc 7b5a bc3c ece8 a73c
00000020: 25a7 42bb c7eb dbbc cfb6 13bd dca3 c03b
00000030: d285 1abd 387b 8d3d 76cf 7f3d 881e 95bc
00000040: a98b 8e3d c3c4 f63d ec7a b03d eaf5 033d
00000050: 6de6 14bd 37a2 5cbd 120a 4abc 548c 3dbd
00000060: d775 94bd f233 42bd 682f 453d 7ab7 f73d
00000070: d664 b0bd 2453 d9bd f528 003a 4d41 2dbc
00000080: 3e9f 90bd 3450 723d 9fbb f2bc d017 3bbd
00000090: 389d 8e3d 8d73 c33d 585e 613c 8230 013e
000000a0: 0b4b 49bc 48b6 7f3c 6b50 b43c b271 f93d
000000b0: b6c0 b03d f21b a13c f51b d0bc c115 ad3d
000000c0: b4ff 633d 60b9 86bd 9d47 17bc e9b3 9c3d
000000d0: ce15 f43d ca84 a4bc ece4 aa3b b364 98bd
000000e0: a7e2 b73d f3c9 b2bc 8da6 bc3d 027e ce3d
000000f0: f431 40bc 3ce7 88ba 4a4e b53d fe68 1dbd
00000100: 7276 6d3d 3cdf a83c 5222 033d 5d2b 8f3d
00000110: 5aa2 343d 7b18 1cbd 2eaf b63d 898c 663d
00000120: ac2b dc3c b7e9 86bc 8ff9 be3d c263 57bb
00000130: 742a cdbd f142 4abd b09e 10be f4df 5f3d
00000140: f887 913d a4d0 e13c 3405 51bd f24f 2d3d
00000150: ec1f 373d ade9 c8bc 3ddc cabd 9885 e43d
00000160: 0738 e4bc 2d7f b13d b870 d5bd 71db 50bd
00000170: c1e2 d1bc 286a 5b3d 6afc 9fbd 1d46 a8bd
00000180: 42be f73d 5dc9 613d d7ed af3c 1e36 0cbb
00000190: dc77 c93d 126d a7bd 87b2 693d fffb dd3c
000001a0: c810 063d f09a 0b3d d607 5b3b ef53 9a3c
000001b0: c68c 383c 88cd 563d bc05 1c3c fd00 6cbc
000001c0: 9d7d f63d 76c5 8abc b7c1 233d 89e8 22bd
000001d0: 509c 6dbd 412d 5dbd a725 94bd 922a ba3c
000001e0: 3a1b 6c3d 6746 a23d af5a db3d 017c 5a3c
000001f0: bc71 a03c 7c67 ac3d a1d2 91bd 87f3 de3d
00000200: 56d4 a23d 0620 633d 1c93 28bc 31dd 23bd
00000210: 39e1 2b3d 9227 debd 84ab 91bd f996 5fbc
00000220: ccdd c3bc 6c5c 0fbc adc1 15bd 701c f8bd
00000230: 59b3 cb3d 99ac 003d 3746 973d 4072 b43d
00000240: 3203 08bc 5cfd a0bd deb1 81bd 1f29 253c
00000250: 2606 4e3d 3e19 a73d 5495 603d 0019 3d3d
00000260: a82b d43d a56d 093d 5733 1d3c 7bc3 663d
00000270: 55b7 923d c549 053e 2a4f c23a 9c4e 233d
00000280: 7109 fe3c 2904 9d3b 0269 41bc 1a22 aa3d
00000290: 7c6e 8b3c ec9a 7abd f05a 0f3e 1615 b0bd
000002a0: 25ce cd3d c6be 023c 38b2 ad3d aa97 ce3d
000002b0: 89e9 b3bb 6a81 db3d 8e89 173d d291 403d
000002c0: eb5f 773d 8ba2 0a3d 8d57 f33d 44ca 1cbd
000002d0: 2733 c33c b729 45bd 3bd7 223d ff03 1a3c
000002e0: 8698 8dba 4f90 813d b9f4 a63d fb1a 8b3d
000002f0: 21d7 1f3c dacd 70bd d460 80bd b691 9b3d
00000300: f379 c23d 6cd8 ae3d 99d3 be3d b210 893c
00000310: ce48 fcbd bcde de3d 9a64 cabb fcc5 b33c
00000320: bd57 f13d 600f 943d 93bd e83d c7ee e83d
00000330: 576c 723c 740c 903d 4acc 493d b24d a4bd
00000340: 6c4f 943d 6a07 aa3d 9289 8a3d 5f1c 1d3e
00000350: 53d8 bb3c 246f 653d 12c9 443a 79a4 edbd
00000360: f9f7 96bc a8db 533c 2479 653d 4bd3 993d
00000370: 5ceb debc 4c19 ccbc cb91 f2bc 8a85 df3d
00000380: d911 90bc 65e6 13be 7d1a d13c 8e00 85bd
00000390: bc48 d33c abd2 bc3d c915 c4bc b5fe 9bbd
000003a0: 9d90 2c3d a980 0dbd 3455 c7bd 2026 ef3c
000003b0: dd4c c5bd 44ba 853d 2c16 e5bd 8b35 1fbd
000003c0: 1b7d 5abd 9b2b c9bd b547 f33d 0a53 3dbd
000003d0: 777d c43d 775d 9c3d 72d1 aa3d 4595 153e
000003e0: bce4 a2bd e32a a2bb 9688 09bd db7f aebd
000003f0: 2dc9 f7bc 7f5e 4c3d 2d68 2dbd 9c36 1c3d

net.3.bias f4 [64]
-0.019176666 -0.03910608 0.10488681 0.06767596 0.056048363 -0.061551508 0.084301904 0.01475641
0.033232547 0.07085589 0.019998763 0.08124761 0.013924104 0.09870144 0.103443444 -0.011879213
0.07283514 0.06694912 0.033862565 -0.034723 0.09096162 0.08798582 0.00143456 0.011860115
-0.012978973 -0.002252423 0.031706106 0.02998924 0.08338073 0.09944912 0.04669749 0.10335757
-0.033570666 -0.018950755 0.03675062 -0.041726384 -0.010150047 0.014026353 0.032323506 0.020912789
0.026772987 -0.029746188 0.019227944 -0.02235413 0.03052918 -0.038599648 0.06328869 0.040536292
-0.011917756 0.089144625 -0.034838554 0.07043481 -0.006891202 0.0056531024 -0.016810957 0.13657928
0.092268296 0.0837973 0.008543289 0.11037386 0.060064822 0.07907977 0.065699235 0.06449565
00000000: 6218 9dbc b22d 20bd e5ce d63d b299 8a3d
00000010: f892 653d 6f1d 7cbd 7aa6 ac3d dfc4 713c
00000020: da1e 083d e51c 913d 72d4 a33c 2665 a63d
00000030: ed21 643c fb23 ca3d 28da d33d 08a1 42bc
00000040: 972a 953d 9f1c 893d 79b3 0a3d b439 0ebd
00000050: 164a ba3d e931 b43d d907 bc3a ee50 423c
00000060: c2a5 54bc 639d 13bb 43de 013d ffab f53c
00000070: 84c3 aa3d fbab cb3d de45 3f3d 22ad d33d
00000080: 6581 09bd 9d3e 9bbc d187 163d 49e9 2abd
00000090: 624c 26bc cace 653c a765 043d 4c51 ab3c
000000a0: 0653 db3c 47ae f3bc ec83 9d3c 0220 b7bc
000000b0: 5518 fa3c aa1a 1ebd 809d 813d 6209 263d
000000c0: b142 43bc 7591 b63d dfb2 0ebd 2040 903d
000000d0: 98cf e1bb a93d b93b 22b7 89bc 70db 0b3e
000000e0: 29f7 bc3d eb9d ab3d 27f9 0b3c b10b e23d
000000f0: 8806 763d 93f4 a13d 528d 863d 4c16 843d

net.6.weight f4 [2, 64]
0.14226328 -0.10407816 -0.147042 0.06624548 0.06514259 0.054207865 -0.11275225 0.123595096
0.026997587 0.037696924 0.14565131 0.06699402 -0.14274004 0.16419038 0.12777895 0.17862597
-0.042212464 0.0601211 -0.14397223 -0.14435375 -0.036332697 -0.089185804 -0.1302189 -0.13865848
0.14218952 -0.122422874 -0.14849083 0.103641614 -0.06488076 -0.0051568598 -0.102062225 0.098717265
0.11717599 -0.11902245 0.12204629 0.13489471 0.03975136 -0.12106722 0.18676558 -0.14777356
-0.049704086 0.14549173 0.024460742 -0.05729618 -0.15818483 -0.06426378 -0.105203755 -0.025881296
-0.11617479 -0.1481097 0.109215885 -0.098961085 0.012533949 -0.0028437322 -0.0028080752 -0.102163136
0.17135537 0.092257276 0.1221609 -0.13857298 0.1382286 0.095963985 -0.0021342803 -0.13856827
-0.08478723 0.027203588 0.064489 -0.13979712 -0.11496458 -0.10353847 0.098701485 -0.052880768
0.15987055 0.15422589 0.015779063 -0.16209766 0.038500234 0.034520637 -0.03564833 -0.06306899
0.1791154 -0.13064453 0.041728046 0.15876397 -0.16022027 0.07077139 0.11044525 0.13195403
-0.056754686 0.061333757 0.08087955 -0.09539709 0.1103571 0.11939879 0.11078639 -0.09229628
-0.023997992 0.15409699 -0.076829396 -0.13558926 -0.16136909 0.04175403 -0.1495814 0.07262766
-0.01245662 -0.14523718 0.17128155 0.080090806 0.12431024 0.14932714 0.06548935 -0.16322213
0.03410644 0.016473576 -0.075777985 0.09287 0.044170283 -0.15907857 -0.16436173 0.058151312
-0.11848013 -0.114419095 -0.07665802 0.014486591 0.017614037 -0.05357066 0.10409533 0.13305591
00000000: 77ad 113e ee26 d5bd 2e92 16be b6ab 873d
00000010: 7a69 853d 1109 5e3d a7ea e6bd 6d1f fd3d
00000020: 0b2a dd3c 1768 1a3d 9e25 153e 2934 893d
00000030: 722a 12be 8621 283e 7cd8 023e bae9 363e
00000040: fae6 2cbd 8b41 763d 756d 13be 78d1 13be
00000050: 98d1 14bd 0ca7 b6bd 1a58 05be 7dfc 0dbe
00000060: 219a 113e d8b8 fabd fb0d 18be 0e42 d43d
00000070: 34e0 84bd e0fa a8bb 0006 d1bd 472c ca3d
00000080: f7f9 ef3d 0bc2 f3bd 68f3 f93d d721 0a3e
00000090: 52d2 223d 17f2 f7bd 7a3f 3f3e f451 17be
000000a0: 8396 4bbd c9fb 143e e561 c83c 66af 6abd
000000b0: 34fb 21be bb9c 83bd 1175 d7bd 0305 d4bc
000000c0: 0ced edbd 12aa 17be 94ac df3d 1cac cabd
000000d0: 315b 4d3c e95d 3abb af07 38bb e83a d1bd
000000e0: c877 2f3e 62f1 bc3d 7e2f fa3d 13e6 0dbe
000000f0: cc8b 0d3e c488 c43d 48df 0bbb d7e4 0dbe
00000100: eda4 adbd 0fda de3c cf12 843d fa26 0fbe
00000110: 8d72 ebbd fa0b d4bd 0124 ca3d 8199 58bd
00000120: 1bb5 233e 64ed 1d3e 1843 813c eefc 25be
00000130: 6cb2 1d3d 8365 0d3d fc03 12bd 512a 81bd
00000140: 076a 373e aec7 05be 07eb 2a3d 0693 223e
00000150: c810 24be 97f0 903d 1f31 e23d f51e 073e
00000160: 9a77 68bd 1b39 7b3d 2da4 a53d 8d5f c3bd
00000170: e702 e23d 5a87 f43d fae3 e23d d505 bdbd
00000180: 7097 c4bc 9acb 1d3e bb58 9dbd e9d7 0abe
00000190: f03d 25be 4606 2b3d de2b 19be d0bd 943d
000001a0: da16 4cbc 0eb9 14be 6e64 2f3e a606 a43d
000001b0: 5e96 fe3d 37e9 183e 481f 863d b423 27be
000001c0: 32b3 0b3d 98f3 863c 7d31 9bbd a032 be3d
000001d0: e6eb 343d 7ee5 22be 714e 28be 1230 6e3d
000001e0: b6a5 f2bd 8f54 eabd e1fe 9cbd 2b59 6d3c
000001f0: 504b 903c e96c 5bbd ef2f d53d cf3f 083e

net.6.bias f4 [2]
-0.051589955 -0.108020335
00000000: fd4f 53bd c439 ddbd
