assets/snapshots/P0_baseline_lstm.pth (torch, 222233 bytes, 12 tensors)

lstm.weight_ih_l0 f4 [256, 1]
0.06122931 -0.19993089 0.21442346 -0.28683653 0.22423519 -0.17036608 -0.24505788 -0.20213164
0.082197264 -0.12819293 -0.23281863 0.12789318 -0.058090646 -0.18343477 0.033443015 -0.11996941
-0.188465 -0.034666084 0.1350139 -0.23082548 -0.2478583 -0.10666667 -0.10359627 0.08297972
-0.19606403 -0.09062841 -0.038806215 -0.17559911 -0.118423305 -0.0071920394 -0.107757956 0.28631
0.064492814 0.04800827 0.07410545 0.08480696 0.12649576 -0.013265193 -0.14836603 -0.27338064
0.23369189 -0.120868914 0.15012199 -0.040544916 -0.26986256 -0.09190973 -0.02170337 -0.24189965
0.23645996 -0.16125545 -0.18924576 0.2911424 -0.017176086 -0.1973118 0.1841428 -0.19307366
0.2579642 -0.25140262 -0.29651788 -0.21854508 0.13957083 -0.21307272 0.23218124 -0.124174275
-0.026636645 0.28246942 0.3619542 0.39507288 0.25942543 0.03531187 0.21448259 -0.011428647
0.122026846 0.18255208 0.17692946 -0.119916074 -0.3159747 -0.13902809 -0.17838137 -0.123770334
0.03133205 -0.0683262 0.27704203 -0.023993142 0.22924308 0.104347765 0.05257877 0.26067463
-0.04066973 -0.17646332 -0.17173898 0.44096684 0.19182605 -0.07258445 -0.14955397 0.5102377
0.032192636 -0.19261624 0.020889373 0.030246535 0.1269129 -0.36429062 0.11491179 0.12953609
-0.112901166 0.06390021 0.16355796 0.017567728 0.26490924 0.07210172 0.041307498 0.23509862
0.15265426 -0.02154894 0.14767313 0.15903065 0.14605387 0.0019679007 0.20120807 -0.096360795
-0.022964038 0.024004787 0.05441941 -0.063029334 0.37387136 0.08944633 -0.11484478 -0.0668853
-0.09570463 0.23578103 -0.32224146 0.19113696 -0.32388777 0.19698633 0.22176385 0.13862753
-0.06696963 -0.18591301 -0.1983373 -0.03790887 -0.08690521 0.15026224 -0.0041880305 0.1267652
-0.20386863 -0.10694139 0.14574465 -0.09943019 -0.18412845 0.2022444 0.08682344 -0.1260443
0.23594868 -0.22301777 -0.17660972 0.14102602 0.18661837 0.17118436 -0.19107604 0.3053194
0.10812043 0.11307089 0.21146731 0.15024416 0.030288322 -0.03737075 -0.17928149 -0.2635861
-0.02679158 -0.16681696 0.0388287 0.075911246 -0.23123309 -0.022696018 0.14043689 -0.16659078
-0.1368457 -0.13711667 -0.09809144 0.2564166 0.1194414 0.17885755 -0.048150092 -0.18409042
-0.019949198 0.09200816 0.16395754 0.10524938 0.31514943 0.18887648 0.27488834 -0.12364182
-0.1628358 -0.27206543 -0.016591536 -0.23792945 0.12562093 -0.23656686 -0.30486527 -0.24128032
0.12399557 -0.26204962 0.09107595 -0.006600474 -0.1894002 -0.19777678 -0.18593577 0.041115265
-0.21501876 -0.15917146 0.11266738 0.060080692 -0.24595244 -0.23822708 0.067767754 0.057233077
-0.027974594 -0.19093277 -0.22075157 -0.2191027 0.030483605 -0.012596279 -0.10139921 0.21403983
0.043275405 0.11777006 0.2610567 0.24447486 0.026650896 -0.10696893 -0.075802445 -0.60708857
0.07762575 0.00023203304 0.2653441 -0.16984558 -0.06988962 -0.0046482673 -0.08541146 -0.1228907
0.0063073114 -0.060375 0.058452215 0.2774921 -0.0134868175 -0.11814453 0.1527493 -0.21554348
0.04714827 0.001270361 -0.22180574 0.0083157765 -0.024628831 -0.24565177 0.119987614 -0.06597471
00000000: 96cb 7a3d afba 4cbe d391 5b3e 3ddc 92be
00000010: e99d 653e 7274 2ebe 74f0 7abe 99fb 4ebe
00000020: 0a57 a83d 0245 03be 0268 6ebe 6ef6 023e
00000030: 75f0 6dbd 53d6 3bbe 8bfb 083d 86b2 f5bd
00000040: f8fc 40be 06fe 0dbd 1541 0a3e 845d 6cbe
00000050: 91ce 7dbe 0e74 dabd 482a d4bd 45f1 a93d
00000060: 02c5 48be 639b b9bd 44f3 1ebd 41d0 33be
00000070: eb87 f2bd 33ab ebbb 34b0 dcbd 3997 923e
00000080: cf14 843d 52a4 443d 99c4 973d 45af ad3d
00000090: 1b88 013e 4156 59bc 44ed 17be 8cf8 8bbe
000000a0: ed4c 6f3e 1f8a f7bd 94b9 193e 6d12 26bd
000000b0: 6d2b 8abe 2b3b bcbd 44cb b1bc 8bb4 77be
000000c0: 8f22 723e 2620 25be a4c9 41be 9e10 953e
000000d0: ddb4 8cbc 1b0c 4abe ee8f 3c3e 1ab5 45be
000000e0: e213 843e d8b7 80be 31d1 97be 48ca 5fbe
000000f0: a8eb 0e3e bc2f 5abe ebc0 6d3e 154f febd
00000100: 1835 dabc d59f 903e 1052 b93e fe46 ca3e
00000110: 69d3 843e 2ea3 103d 53a1 5b3e 383f 3bbc
00000120: 36e9 f93d efee 3a3e ff2c 353e 8f96 f5bd
00000130: 70c7 a1be 615d 0ebe 9ba9 36be 4d7b fdbd
00000140: 0956 003d 9bee 8bbd 74d8 8d3e 448d c4bc
00000150: b3be 6a3e 48b4 d53d d65c 573d 2577 853e
00000160: 4e95 26bd cdb2 34be 58dc 2fbe 68c6 e13e
00000170: 0c6e 443e 28a7 94bd ad24 19be f09e 023f
00000180: 6ddc 033d 313d 45be 3120 ab3c 95c7 f73c
00000190: 75f5 013e 4d84 babe df56 eb3d 1ca5 043e
000001a0: ba38 e7bd 1dde 823d bd7b 273e 32ea 8f3c
000001b0: 2fa2 873e 11aa 933d 0d32 293d b1bd 703e
000001c0: 6651 1c3e 6787 b0bc a037 173e eed8 223e
000001d0: 258f 153e e5f7 003b 7d09 4e3e cf58 c5bd
000001e0: 141f bcbc b0a5 c43c e3e6 5e3d 8615 81bd
000001f0: 116c bf3e a32f b73d bd33 ebbd 29fb 88bd
00000200: ca00 c4bd 9570 713e d5fc a4be 68b9 433e
00000210: 9ed4 a5be c9b6 493e 1016 633e 60f4 0d3e
00000220: 6027 89bd fb5f 3ebe ef18 4bbe 5546 1bbd
00000230: 5cfb b1bd 58de 193e bf3b 89bb bdce 013e
00000240: f0c2 50be 1604 dbbd 163e 153e 0ea2 cbbd
00000250: 2b8c 3cbe 2819 4f3e 7dd0 b13d c211 01be
00000260: 889c 713e c55e 64be 2ed9 34be 2069 103e
00000270: e318 3f3e f44a 2f3e 70a9 43be d352 9c3e
00000280: 3e6e dd3d b691 e73d e38a 583e 9bd9 193e
00000290: 371f f83c 1212 19bd 9195 37be c2f4 86be
000002a0: 047a dbbc 11d2 2abe d80a 1f3d 5b77 9b3d
000002b0: 5ec8 6cbe 00ed b9bc b0ce 0f3e c696 2abe
000002c0: 4721 0cbe 5068 0cbe 2ae4 c8bd 0949 833e
000002d0: b19d f43d 6f26 373e 0839 45bd 3382 3cbe
000002e0: 806c a3bc c66e bc3d 7ce4 273e fd8c d73d
000002f0: 445b a13e d668 413e 2abe 8c3e ec37 fdbd
00000300: 6ebe 26be 294c 8bbe f9ea 87bc c7a3 73be
00000310: c6a2 003e 953e 72be 4d17 9cbe 3012 77be
00000320: 64f1 fd3d 5e2b 86be 0786 ba3d ca48 d8bb
00000330: 20f2 41be ff85 4abe f265 3ebe 7b68 283d
00000340: e12d 5cbe d8fd 22be 28be e63d 2c17 763d
00000350: f5da 7bbe cdf1 73be d2c9 8a3d 3b6d 6a3d
00000360: fa2a e5bc e183 43be b30c 62be 755c 60be
00000370: c1b8 f93c a060 4ebc 64aa cfbd 422d 5b3e
00000380: 8d41 313d 6e31 f13d 39a9 853e 9e57 7a3e
00000390: fb52 da3c 8712 dbbd 503e 9bbd 286a 1bbf
000003a0: 40fa 9e3d e54d 7339 2fdb 873e 00ec 2dbe
000003b0: 4a22 8fbd 7e50 98bb 34ec aebd 1fae fbbd
000003c0: 90ad ce3b c74b 77bd 976b 6f3d 7213 8e3e
000003d0: d0f7 5cbc c2f5 f1bd 506a 1c3e 6eb7 5cbe
000003e0: 8b1e 413d 3e82 a63a 0b21 63be e53e 083c
000003f0: 67c2 c9bc 238c 7bbe 11bc f53d c01d 87bd

lstm.weight_hh_l0 f4 [256, 64]
-0.12953508 -0.02987863 -0.13251188 0.18895619 -0.18882515 0.12018119 0.105006404 -0.014029154
-0.035455763 -0.043311328 0.019627074 -0.026234811 0.0064168624 -0.012047803 0.01742846 -0.09421112
-0.032941006 0.024311157 0.15331756 -0.038756944 -0.18009245 0.18968257 0.033888698 -0.07022836
0.11440591 -0.018596437 0.02923267 0.11720512 0.1115726 -0.12244165 0.05117715 0.1146346
0.027870292 0.08874681 -0.0028181286 -0.15270573 -0.034390625 -0.034013264 0.07206957 -0.037655864
0.16150191 -0.10819561 0.04172925 0.13428307 -0.15875493 -0.055254627 0.030306298 -0.089726456
-0.1273781 -0.075106904 -0.029547036 -0.040832244 0.106196955 -0.12031437 -0.25807926 -0.11718607
-0.053667255 0.1443271 0.009398228 -0.020449415 0.0922055 0.112477966 0.09743366 -0.0076438338
-0.061673593 0.10785838 -0.040742837 0.24966155 -0.09970923 0.22589868 0.122491844 0.034655027
0.18217088 -0.05749238 -0.120679125 -0.07910146 -0.16852374 0.27725533 -0.055318106 -0.09476501
-0.20399237 -0.14889066 0.0443705 -0.24826169 -0.17771696 0.3043751 0.08100082 0.037058894
0.2840502 -0.12450181 -0.2424761 0.047407117 0.07541272 0.01868374 -0.09916256 0.04339909
-0.05141423 -0.05205435 0.22548832 -0.010088847 0.1716035 -0.12348197 -0.055457573 -0.067437835
-0.113328725 -0.2606874 -0.09378084 -0.03259296 -0.22104305 0.034599308 -0.04199507 -0.25928083
-0.13446887 -0.27752715 0.04197092 -0.1273302 -0.060084485 0.019764502 -0.023704143 -0.1434139
-0.11078143 0.22650686 0.13559613 -0.010587956 0.024591502 0.23888536 0.08006736 -0.17147
-0.10269333 0.06315634 -0.09842623 -0.027387507 -0.020688282 0.008313018 0.0046002073 0.06604891
0.32341102 -0.03505748 -0.26135164 -0.1705455 0.09051952 -0.0067373663 0.059923816 0.14058657
-0.021578062 -0.019552276 0.11107741 0.02238742 0.029384628 -0.0046167215 0.09009567 -0.08628035
0.12196178 -0.11594515 -0.14962853 -0.004159409 -0.06302935 0.05983865 -0.109413445 0.26659045
-0.17249925 0.17205524 0.11258344 -0.14306347 0.24503973 -0.012444793 0.002175072 0.0919551
-0.0007601066 0.031374816 0.027550362 0.122568145 -0.15610069 -0.16459353 -0.09109116 -0.13980775
-0.08454014 -0.012455737 -0.21196857 0.069007725 0.2648713 0.057902876 -0.11316084 -0.10029096
0.033558592 0.22528286 -0.029381406 -0.07628179 0.3134019 -0.061101392 0.31949252 0.1547244
0.02300946 -0.0829521 0.115061335 0.5437759 0.04596241 0.26046836 0.3982118 0.1299498
-0.13267569 -0.33553872 -0.20396201 -0.00033801794 -0.25180286 0.30165875 -0.10778737 0.032539304
-0.2660705 0.0014322182 -0.09135685 -0.1403123 -0.14237303 0.3384341 0.21951467 0.15298922
0.10952971 -0.25633067 -0.11974526 0.06608439 0.22437268 0.17926829 -0.10061009 -0.0902781
0.22482525 -0.03834265 -0.09898196 0.18673109 -0.0990825 -0.083696246 -0.09937955 -0.33047506
-0.1305637 -0.2852637 0.009669906 0.10164737 -0.22051536 -0.044976477 0.20111214 -0.13929832
0.18855593 -0.07642815 -0.06347672 -0.10816924 0.070749685 0.14183973 0.1388288 0.01698086
0.123523325 0.20615943 0.14084221 0.18902443 -0.014947634 0.27418098 -0.041967347 0.064371504
00000000: d8a4 04be 07c4 f4bc 32b1 07be bb7d 413e
00000010: 615b 41be 8e21 f63d 990d d73d 89da 65bc
00000020: 103a 11bd 3867 31bd f5c8 a03c 63ea d6bc
00000030: 8b44 d23b 2664 45bc 21c6 8e3c c2f1 c0bd
00000040: 26ed 06bd 3128 c73c 47ff 1c3e 9abf 1ebd
00000050: 286a 38be 263c 423e e0ce 0a3d e3d3 8fbd
00000060: a54d ea3d 8e57 98bc 5a79 ef3c 3d09 f03d
00000070: 2d80 e43d b0c2 fabd 229f 513d 8cc5 ea3d
00000080: 3d50 e43c e3c0 b53d 5ab0 38bb e45e 1cbe
00000090: 2fdd 0cbd 7e51 0bbd 3699 933d 093d 1abd
000000a0: c260 253e a995 ddbd 4aec 2a3d 8081 093e
000000b0: a790 22be ad52 62bd ea44 f83c 81c2 b7bd
000000c0: 686f 02be a6d1 99bd a00c f2bc b63f 27bd
000000d0: ca7d d93d 6167 f6bd f722 84be 40ff efbd
000000e0: 32d2 5bbd 7cca 133e 06fb 193c 8885 a7bc
000000f0: 3dd6 bc3d d95a e63d 4c8b c73d 2079 fabb
00000100: 739d 7cbd dbe4 dc3d f6e1 26bd 47a7 7f3e
00000110: 5a34 ccbd fc51 673e 01dd fa3d 6ef2 0d3d
00000120: 018b 3a3e 217d 6bbd 9e26 f7bd f2ff a1bd
00000130: 7d91 2cbe 69f4 8d3e 3d95 62bd 2814 c2bd
00000140: 60e3 50be cb76 18be d7bd 353d 5038 7ebe
00000150: 6ffb 35be 0ed7 9b3e c2e3 a53d 11cb 173d
00000160: 076f 913e cefa febd a84b 78be f72d 423d
00000170: fc71 9a3d a50e 993c be15 cbbd 3fc3 313d
00000180: ba97 52bd f136 55bd 69e6 663e b14b 25bc
00000190: d4b8 2f3e 1de4 fcbd 7b27 63bd d91c 8abd
000001a0: e418 e8bd d278 85be 2b10 c0bd 3280 05bd
000001b0: 1c59 62be 01b8 0d3d 0603 2cbd 75c0 84be
000001c0: 35b2 09be 0a18 8ebe b3e9 2b3d d962 02be
000001d0: 261b 76bd 2ae9 a13c 312f c2bc 18db 12be
000001e0: 60e1 e2bd 6af1 673e b6d9 0a3e 1b79 2dbc
000001f0: 1e74 c93c 5d9e 743e 5bfa a33d d595 2fbe
00000200: e150 d2bd 1c58 813d b193 c9bd c45b e0bc
00000210: 797a a9bc 5333 083c 56bd 963b a744 873d
00000220: 2196 a53e 6f98 0fbd e2cf 85be 7ba3 2ebe
00000230: 4c62 b93d 20c5 dcbb ad72 753d edf5 0f3e
00000240: 7ac4 b0bc 182c a0bc 8e7c e33d d365 b73c
00000250: 08b8 f03c de47 97bb 1484 b83d c1b3 b0bd
00000260: 19c7 f93d a774 edbd 3938 19be a74b 88bb
00000270: 8815 81bd 5f19 753d 2814 e0bd 8b7e 883e
00000280: a5a3 30be 402f 303e 2692 e63d 3b7f 12be
00000290: b2eb 7a3e 3fe5 4bbc a78b 0e3b f552 bc3d
000002a0: e441 47ba e182 003d 4cb1 e13c 0205 fb3d
000002b0: dcd8 1fbe 358b 28be 018e babd c329 0fbe
000002c0: 6223 adbd 2613 4cbc 4a0e 59be ec53 8d3d
000002d0: 369d 873e 912b 6d3d dfc0 e7bd 5965 cdbd
000002e0: bc74 093d 8db0 663e 46b1 f0bc a139 9cbd
000002f0: 3776 a03e 7445 7abd 8694 a33e 1370 1e3e
00000300: 567e bc3c cae2 a9bd 47a5 eb3d e634 0b3f
00000310: 1443 3c3d 1c5c 853e 6be2 cb3e 8f11 053e
00000320: 23dc 07be bbcb abbe 6bdb 50be 0038 b1b9
00000330: 4eec 80be 0473 9a3e a0bf dcbd ef47 053d
00000340: 643a 88be 45b9 bb3a 4d19 bbbd 07ae 0fbe
00000350: 3cca 11be 3c47 ad3e 74c8 603e 35a9 1c3e
00000360: 1d51 e03d c63d 83be 013d f5bd 4157 873d
00000370: f4c1 653e 1b92 373e aa0c cebd b9e3 b8bd
00000380: 9738 663e 2f0d 1dbd 0eb7 cabd 6f36 3f3e
00000390: c4eb cabd f068 abbd 8187 cbbd 0734 a9be
000003a0: 7eb2 05be 150e 92be 876e 1e3c 7f2c d03d
000003b0: c7ce 61be 4139 38bd 57f0 4d3e 38a4 0ebe
000003c0: ce14 413e 5d86 9cbd 1500 82bd d687 ddbd
000003d0: 36e5 903d 6f3e 113e 2329 0e3e 721b 8b3c
000003e0: ccf9 fc3d 751b 533e f138 103e 9f8f 413e
000003f0: ece6 74bc 7361 8c3e f4e5 2bbd 35d5 833d

lstm.bias_ih_l0 f4 [256]
-0.051006563 -0.025763882 0.058557007 -0.054223064 0.007981483 -0.12160619 0.037261445 -0.0582555
-0.015256468 -0.13657835 0.00063627906 0.04573513 0.05219018 0.04426711 0.00868207 0.10112088
-0.11099627 -0.23071669 -0.14999951 -0.22495052 -0.0312884 -0.06375595 -0.17107083 -0.10551379
-0.062562734 -0.11597673 -0.15677875 0.1105978 -0.13538727 -0.044868056 -0.03531542 -0.050497167
-0.1254668 -0.15377995 -0.07120704 -0.022644445 -0.0039541814 -0.036868375 -0.05141761 -0.010107113
-0.11805837 -0.17032787 -0.22389752 -0.086485416 -0.16589941 0.000779338 -0.09101923 0.027325887
-0.09597983 -0.09639531 -0.120755844 0.12485513 -0.21877447 -0.08490893 -0.058580827 -0.19289087
-0.07143546 -0.046207882 -0.11205236 -0.12468582 -0.09009541 0.056691326 -0.064975 -0.07721617
0.1451783 0.14030626 0.14026193 -0.0048594 0.095335856 -0.04096071 0.11616429 0.002364872
-0.023550713 -0.04416909 -0.19494446 0.025564674 0.070544906 0.024867436 0.046764698 0.17469881
-0.015379412 -0.07909143 0.043851905 0.033822414 0.087237865 -0.08185675 0.083480805 -0.025115754
0.07874162 -0.046376348 0.058821682 0.028280929 0.057053767 0.22386853 0.06605768 0.2346204
0.0019938813 -0.014611502 -0.12291273 0.0038447862 0.014197837 0.12285188 0.074361436 -0.059702285
-0.025058724 0.017168712 -0.20355888 -0.02705777 -0.0015881989 -0.051637296 -0.04008685 0.036807925
0.033761345 -0.14537854 -0.09162373 0.21080555 -0.13209431 -0.06331623 0.14060052 -0.076653354
0.025653232 -0.10919247 -0.13378961 0.11739076 -0.06498425 -0.03739209 0.073668756 -0.0022558225
-0.0059110685 0.055012096 0.023668924 -0.091294646 -0.0031482633 0.015239086 0.10204706 0.026488898
-0.07755836 0.0063360617 -0.07610744 -0.052783735 0.058993537 0.062423114 0.058804784 -0.021236494
0.044619195 -0.07439575 -0.08587459 -0.004772583 -0.019032454 0.055140663 0.104370266 -0.06510237
0.066843875 -0.04159717 -0.04943817 0.0029557622 -0.051995467 -0.08018302 0.07667246 -0.09434785
0.056904376 -0.089637116 -0.080010734 0.071439296 0.012446615 0.015690302 -0.06014781 -0.011877994
-0.002713984 0.005104126 -0.009801457 -0.05659026 -0.06363833 0.0020183655 -0.012190147 -0.108146064
0.030051585 -0.08546288 -0.04333112 -0.031360116 0.04998454 0.119928844 0.013556817 0.02860772
0.07827223 0.033603102 0.065612145 -0.030367147 0.012863506 0.024267076 -0.05446455 0.050582778
-0.025753418 -0.08465174 0.11463678 -0.09673702 -0.0881223 -0.07106641 0.058859278 0.12275738
-0.13934363 -0.13799451 -0.05989929 0.08316993 0.07308309 -0.054106336 -0.04853625 -0.01439333
0.13218588 -0.091157846 -0.0069588656 -0.07027906 -0.111627616 -0.07067268 -0.20818971 0.030316602
0.06873214 0.010901932 -0.10858999 0.11120334 0.033633243 -0.072007455 -0.09369014 0.2707719
0.05803077 -0.048268214 -0.064837836 -0.17725074 -0.15231335 -0.08559451 0.0779913 0.016395163
-0.05975049 0.022378165 -0.06305857 -0.087158196 -0.034867536 -0.14600296 -0.06385298 -0.10128125
0.018277144 -0.09874403 -0.015924258 0.16302645 -0.19644064 -0.025219264 0.014447956 0.004152697
-0.08275846 0.02063861 -0.09518796 0.026198477 -0.027534941 -0.07971271 -0.064036794 0.023634575
00000000: 42ec 50bd c70e d3bc 79d9 6f3d 0119 5ebd
00000010: c4c4 023c ab0c f9bd 759f 183d 529d 6ebd
00000020: 44f6 79bc 32db 0bbe f7cb 263a c254 3b3d
00000030: 5fc5 553d 6e51 353d 3e3f 0e3c 7718 cf3d
00000040: 0352 e3bd ff40 6cbe 7999 19be 6e59 66be
00000050: 4428 00bd 7b92 82bd 312d 2fbe 9d17 d8bd
00000060: e420 80bd 3585 edbd 9c8a 20be 1981 e23d
00000070: f6a2 0abe 91c7 37bd e7a6 10bd 1ed6 4ebd
00000080: 5e7a 00be 7e78 1dbe ffd4 91bd d880 b9bc
00000090: 1492 81bb 4b03 17bd 469b 52bd 4e98 25bc
000000a0: 96c8 f1bd 6e6a 2ebe 6445 65be 441f b1bd
000000b0: 89e1 29be 7d4c 4c3a 4a68 babd 8ada df3c
000000c0: 1391 c4bd e76a c5bd d74e f7bd 0cb4 ff3d
000000d0: 6a06 60be bce4 adbd 73f2 6fbd 2f85 45be
000000e0: c14c 92bd 7a44 3dbd b57b e5bd 475b ffbd
000000f0: f183 b8bd 2a35 683d 9d11 85bd 8323 9ebd
00000100: 9fa9 143e 72ac 0f3e d3a0 0f3e 9a3b 9fbb
00000110: 723f c33d 6bc6 27bd 8be7 ed3d f8fb 1a3b
00000120: 6ded c0bc a6ea 34bd 859f 47be 026d d13c
00000130: d979 903d cbb6 cb3c 578c 3f3d 3fe4 323e
00000140: eef9 7bbc b0fa a1bd 0e9e 333d 5f89 0a3d
00000150: c4a9 b23d 83a4 a7bd fcf7 aa3d 8ebf cdbc
00000160: 4943 a13d 20f5 3dbd 01ef 703d 68ad e73c
00000170: 36b1 693d cb3d 653e 4049 873d 5540 703e
00000180: c7ab 023b 1565 6fbc abb9 fbbd cff8 7b3b
00000190: 0b9e 683c c499 fb3d cf4a 983d 628a 74bd
000001a0: f447 cdbc 66a5 8c3c bd71 50be 42a8 ddbc
000001b0: 1d2b d0ba a181 53bd 1c32 24bd e8c3 163d
000001c0: 5649 0a3d 1dde 14be 39a5 bbbd 69dd 573e
000001d0: bb43 07be f1ab 81bd 95f9 0f3e 6ffc 9cbd
000001e0: ba26 d23c 4da0 dfbd 2500 09be 916a f03d
000001f0: 7616 85bd 7328 19bd a5df 963d 6cd6 13bb
00000200: a3b1 c1bb 5d54 613d 55e5 c13c b0f8 babd
00000210: 1853 4ebb 5cad 793c 0dfe d03d 3fff d83c
00000220: ebd6 9ebd bd9e cf3b 38de 9bbd c233 58bd
00000230: 35a3 713d 61af 7f3d 49dd 703d 28f8 adbc
00000240: 9ec2 363d cd5c 98bd 04df afbd 5463 9cbb
00000250: f3e9 9bbc 2ddb 613d 14c0 d53d 6454 85bd
00000260: 71e5 883d cb61 2abd ae7f 4abd 76b5 413b
00000270: 33f9 54bd ff36 a4bd 7306 9d3d 7239 c1bd
00000280: 9014 693d aa93 b7bd abdc a3bd c44e 923d
00000290: e3ec 4b3c f388 803c 8d5d 76bd eb9b 42bc
000002a0: 19dd 31bb 8340 a73b 4a96 20bc 30cb 67bd
000002b0: d054 82bd 8e46 043b 2fb9 47bc af7b ddbd
000002c0: be2e f63c 2a07 afbd f97b 31bd 7773 00bd
000002d0: 97bc 4c3d 419d f53d 691d 5e3c bd5a ea3c
000002e0: 314d a03d 68a3 093d a95f 863d 86c4 f8bc
000002f0: 74c1 523c bfcb c63c 3816 5fbd e32f 4f3d
00000300: d5f8 d2bc e45d adbd b0c6 ea3d 0f1e c6bd
00000310: 7779 b4bd 448b 91bd 6d16 713d 3968 fb3d
00000320: 19b0 0ebe 6f4e 0dbe f558 75bd ff54 aa3d
00000330: 96ac 953d 9b9e 5dbd f2cd 46bd 00d2 6bbc
00000340: bc5b 073e f7b0 babd 3207 e4bb 78ee 8fbd
00000350: 059d e4bd d7bc 90bd af2f 55be 865a f83c
00000360: 70c3 8c3d 049e 323c 6e64 debd 94be e33d
00000370: 03c3 093d a578 93bd 9ee0 bfbd 9da2 8a3e
00000380: acb1 6d3d e4b4 45bd b3c9 84bd 3881 35be
00000390: 08f8 1bbe 2d4c afbd e7b9 9f3d 264f 863c
000003a0: eebc 74bd 6a52 b73c da24 81bd ff7f b2bd
000003b0: 43d1 0ebd cd81 15be 5ac5 82bd 8b6c cfbd
000003c0: f3b9 953c 4f3a cabd 9773 82bc 68f0 263e
000003d0: bc27 49be a198 cebc 1fb7 6c3c 5913 883b
000003e0: 447d a9bd 4d12 a93c e8f1 c2bd 309e d63c
000003f0: f590 e1bc 6b40 a3bd b925 83bd 4c9d c13c

lstm.bias_hh_l0 f4 [256]
-0.17536111 -0.106438205 -0.04024516 -0.15188436 0.066746034 0.030647388 -0.06646468 -0.01260219
-0.20962836 -0.13650098 -0.13821767 -0.09631031 0.04194262 -0.08452118 0.04040666 -0.09410366
-0.07312065 -0.09790834 -0.106580764 0.0045141024 -0.08530466 0.091411956 -0.10180621 0.0019960818
-0.13941637 0.06691999 -0.13939218 0.1114689 0.08016614 -0.039623436 0.04253936 0.10450417
-0.1576298 -0.1178339 -0.09641945 -0.09122747 0.0022554493 -0.15009643 -0.1166462 0.02131462
-0.1310327 -0.083993904 -0.1815133 -0.11662729 -0.039299704 -0.19798991 0.024422403 -0.00434636
-0.22825414 -0.1499146 -0.068838894 0.0989839 -0.16513425 -0.16612904 0.045416165 -0.110051215
-0.1209282 0.023898967 -0.09462028 0.03709643 -0.06436452 -0.13037902 0.05019482 0.043896068
0.15378301 0.1394596 0.08274349 -0.18174987 0.16153425 0.097795665 -0.04517095 0.059145235
0.03533983 -0.010077548 -0.026049593 -0.00939295 -0.050186273 -0.09483455 -0.012506392 0.01074146
-0.013916341 0.044304553 0.024636567 -0.12488016 -0.02931524 0.02709345 -0.07934867 0.10816531
0.026934328 -0.0661373 -0.10108277 0.0067235203 -0.059962675 0.20233794 -0.056245703 0.28562662
-0.024016548 -0.024835907 -0.070235536 0.065205626 0.057806395 0.12774862 0.14690721 0.129241
-0.04498859 -0.10641214 -0.10917498 -0.009369096 0.020016266 -0.06785934 -0.103012905 0.02042897
0.11946478 0.026081137 -0.06356595 0.1993285 -0.18116069 -0.025151812 0.019150533 0.13495715
-0.109265245 0.034658972 -0.13572676 0.10940582 -0.09048524 0.11434372 -0.07873467 0.039086513
0.024251482 0.061921712 0.011294328 0.12578943 0.07511566 0.082657464 0.09773294 0.04383775
0.021791797 -0.07672554 0.025541997 0.06557036 0.0032142801 -0.06588326 -0.106030844 0.09790872
-0.10467397 0.059736177 -0.03955503 0.04825275 -0.036426425 -0.04659523 -0.0822911 0.031727273
-0.011986331 -0.00827887 -0.0050657857 0.040048245 0.06941567 0.15985274 -0.12979536 -0.03790519
-0.016350359 0.0598169 0.027098753 -0.023218822 -0.047202528 -0.010456421 -0.11645099 -0.12733431
-0.004656801 -0.025255302 -0.014771029 0.05389732 -0.024842057 -0.028003296 0.0834259 0.04788209
0.046454936 0.056968596 0.048306476 0.040794183 -0.03645344 -0.0148220165 0.101828106 -0.03927513
-0.05241601 0.012525195 0.036374476 0.060524244 0.019003633 0.06342698 0.027807975 -0.10464602
0.032785017 -0.08528127 -0.044119004 -0.006242818 0.023445765 -0.1617589 0.11697745 0.06945075
-0.109797575 -0.0956438 -0.109256275 0.037988372 0.022277687 -0.1413461 -0.07679784 0.0040721544
-0.09492001 -0.21513303 0.017829424 -0.13896306 -0.13869147 0.041457314 -0.19048008 -0.12727508
-0.018100196 -0.104093574 0.038524378 0.00861196 -0.046702582 0.07817985 -0.055916198 0.19527406
0.03325963 -0.055349063 -0.21211942 -0.001100121 -0.18828526 -0.038051255 -0.0807262 0.02680649
-0.18665431 0.05209652 -0.059053726 -0.050553408 0.114593044 -0.16908976 -0.13531259 0.08929782
-0.001381722 -0.075042635 -0.114954196 0.006087812 -0.04223499 -0.025573893 -0.05961137 0.03263144
-0.13017872 -0.17530178 -0.1581475 -0.12707512 0.007742273 0.013086502 -0.0049423142 0.025406646
00000000: dd91 33be 46fc d9bd 1cd8 24bd 9387 1bbe
00000010: 25b2 883d 3b10 fb3c a21e 88bd 6a79 4ebc
00000020: d1a8 56be eac6 0bbe ef88 0dbe 573e c5bd
00000030: 06cc 2b3d 7119 adbd 7481 253d 6bb9 c0bd
00000040: 48c0 95bd 2b84 c8bd 0447 dabd 09eb 933b
00000050: 36b4 aebd 3136 bb3d c67f d0bd b2d0 023b
00000060: 2ac3 0ebe 590d 893d d3bc 0ebe cf49 e43d
00000070: 252e a43d 2f4c 22bd c03d 2e3d 4806 d63d
00000080: b569 21be e652 f1bd 9077 c5bd 78d5 babd
00000090: 29d0 133b e1b2 19be 34e4 eebd ff9b ae3c
000000a0: 702d 06be ff04 acbd 9fde 39be 4ada eebd
000000b0: baf8 20bd debd 4abe 7e11 c83c e96b 8ebb
000000c0: 74bb 69be 3783 19be 68fb 8cbd 12b8 ca3d
000000d0: f418 29be bb1d 2abe 4d06 3a3d 8862 e1bd
000000e0: 34a9 f7bd c4c7 c33c 47c8 c1bd 6df2 173d
000000f0: 8cd1 83bd 1482 05be 1599 4d3d 5dcc 333d
00000100: 4b79 1d3e 7fce 0e3e 6b75 a93d a31c 3abe
00000110: 3c69 253e 1849 c83d 2d05 39bd 4642 723d
00000120: 7fc0 103d 4d1c 25bc f565 d5bc e3e4 19bc
00000130: 1f90 4dbd 9e38 c2bd 9ce7 4cbc f3fc 2f3c
00000140: 5d01 64bc b178 353d a0d2 c93c 2bc1 ffbd
00000150: 8426 f0bc 15f3 dd3c 8e81 a2bd c685 dd3d
00000160: 61a5 dc3c fe72 87bd 7c04 cfbd fa50 dc3b
00000170: 6c9b 75bd ad31 4f3e e561 66bd a73d 923e
00000180: 5abe c4bc ac74 cbbc a6d7 8fbd 878a 853d
00000190: 66c6 6c3d 89d0 023e d86e 163e c157 043e
000001a0: f545 38bd 9cee d9bd 2297 dfbd d680 19bc
000001b0: 27f9 a33c d6f9 8abd 6ef8 d2bd a85a a73c
000001c0: f3a9 f43d 1ca8 d53c dd2e 82bd c51c 4c3e
000001d0: 3082 39be 2c0b cebc 94e1 9c3c 3532 0a3e
000001e0: 75c6 dfbd 91f6 0d3d f5fb 0abe 2910 e03d
000001f0: 5350 b9bd 0a2d ea3d a53f a1bd 2e19 203d
00000200: 0bab c63c 9fa1 7d3d d80b 393c f2ce 003e
00000210: 3dd6 993d 5148 a93d 3528 c83d 368f 333d
00000220: b684 b23c 4822 9dbd 733d d13c c149 863d
00000230: aca6 523b cded 86bd b326 d9bd 5e84 c83d
00000240: 4e5f d6bd ecad 743d 7504 22bd ada4 453d
00000250: e033 15bd a4da 3ebd 3c88 a8bd 75f4 013d
00000260: 5162 44bc 19a4 07bc e4fe a5bb a109 243d
00000270: ce29 8e3d 70b0 233e 13e9 04be 7942 1bbd
00000280: 30f1 85bc 9102 753d 34fe dd3c 6635 bebc
00000290: 7057 41bd 6951 2bbc db7d eebd ed63 02be
000002a0: 1498 98bb 35e4 cebc 3002 72bc 70c3 5c3d
000002b0: 9281 cbbc 2b67 e5bc 33db aa3d 0320 443d
000002c0: 8847 3e3d e757 693d 03dd 453d cd17 273d
000002d0: 3450 15bd 0bd8 72bc 418b d03d f5de 20bd
000002e0: 2cb2 56bd 7a36 4d3c 67fd 143d 45e8 773d
000002f0: 82ad 9b3c 01e6 813d 8dcd e33c a750 d6bd
00000300: 9549 063d f2a7 aebd 21b6 34bd 8e90 ccbb
00000310: 5511 c03c 20a4 25be e091 ef3d 323c 8e3d
00000320: 8ddd e0bd e6e0 c3bd c1c1 dfbd b299 1b3d
00000330: b27f b63c 08bd 10be 3048 9dbd b56f 853b
00000340: 6c65 c2bd d54b 5cbe 030f 923c 554c 0ebe
00000350: 2305 0ebe 25cf 293d 360d 43be 6654 02be
00000360: dd46 94bc 032f d5bd bdcb 1d3d 2e19 0d3c
00000370: 354b 3fbd c21c a03d 6208 65bd ecf5 473e
00000380: 403b 083d b3b5 62bd d535 59be ef31 90ba
00000390: dacd 40be a2db 1bbd c753 a5bd 4999 db3c
000003a0: 4f22 3fbe 2963 553d 52e2 71bd 1711 4fbd
000003b0: c2af ea3d de25 2dbe 628f 0abe c7e1 b63d
000003c0: e61a b5ba f4af 99bd 1b6d ebbd 457c c73b
000003d0: 99fe 2cbd 5780 d1bc 0d2b 74bd 8ba8 053d
000003e0: 924d 05be 4f82 33be 6bf1 21be fb1f 02be
000003f0: e5b2 fd3b c568 563c 23f3 a1bb 9921 d03c

lstm.weight_ih_l1 f4 [256, 64]
-0.040310666 0.12757772 -0.022779014 -0.10261774 0.038367145 0.112084255 0.028429536 -0.10507604
0.06848149 0.036167394 0.032868605 0.016018465 0.043699298 0.03833419 0.033734042 -0.14099261
-0.08576921 0.19606674 -0.004000687 0.0049209357 -0.1279604 0.11789649 0.0472118 -0.043245222
-0.030293133 0.044541243 0.05931064 -0.15628855 -0.023308624 0.0842104 0.013096494 -0.15589741
0.15594272 -0.08747881 3.0240028e-05 -0.10264117 0.021520713 -0.015128541 -0.092579424 0.17976214
-0.058027197 -0.14023736 0.01086088 0.06997649 -0.039231475 -0.034413904 0.13078895 -0.034720562
0.19485854 0.16821629 0.11688141 -0.05060947 -0.044888668 0.14152075 0.038738806 -0.01909814
0.20469633 0.08619084 0.1603272 0.031690802 -0.022989528 -0.055837598 -0.0715462 0.021559132
-0.062811024 -0.023772912 -0.16398576 0.13396701 -0.21699937 -0.08792285 -0.22310589 0.13970874
-0.05221802 -0.13322376 0.01252722 0.00533975 -0.005926081 -0.06268469 0.01165635 0.13193011
-0.06403735 0.046634253 0.19708237 0.08357426 -0.035497792 -0.0009517884 -0.18050583 -0.020721326
0.15570171 -0.052505948 -0.055114087 0.10040482 0.096483946 -0.0077041807 0.061459128 0.4610484
-0.05950363 0.019381693 0.17102374 -0.064501725 0.061936323 0.017715307 0.0025580213 -0.005724327
0.2023941 -0.02217197 -0.04153278 0.10326201 -0.039106797 0.09129765 0.062599815 -0.023833023
-0.21318606 -0.03435118 -0.006773821 0.17414309 0.010556323 -0.18840405 -0.255141 -0.12406565
-0.26920217 0.007438134 -0.095882274 -0.12541695 0.05761214 0.049104646 0.21692689 0.12629972
0.05509728 -0.08585667 0.14120077 -0.04960451 0.19017948 -0.09028087 -0.10397592 -0.23575045
-0.107908264 -0.063522585 0.114201955 0.094803095 0.005551227 -0.26955652 0.16667306 -0.17609052
0.24723156 0.15528351 0.06687431 0.010855412 -0.026490469 -0.084461465 -0.21072099 -0.064189814
-0.17215127 0.2613534 -0.020381691 -0.11586604 -0.038203318 -0.04213761 0.25245595 -0.1625357
0.070411615 -0.03788853 -0.11360476 -0.056824476 -0.032425966 0.106412426 0.15673663 0.1305998
0.20113024 -0.0050708363 0.21443109 -0.14492851 -0.0013949389 -0.024154775 -0.21895225 0.25482628
-0.10930462 0.02331576 0.11009025 0.068306066 -0.035198115 -0.052173506 -0.097541586 0.14115755
-0.12956548 -0.1384276 -0.01866748 -0.027409727 -0.009912899 0.06770754 0.064235896 0.05105474
0.058186285 0.12748602 0.06305104 -0.038900085 -0.12225144 0.025437567 -0.029712394 -0.059803385
0.18250768 0.0032951466 -0.056945827 -0.11202363 -0.017785428 -0.16947618 0.10071913 -0.010949453
-0.075326696 0.2241649 0.05569951 -0.12594254 -0.033132225 0.049868237 -0.1046688 0.012369317
-0.05143059 -0.033478897 0.056371953 0.14452225 0.15423217 0.04243464 0.09070339 0.09228425
-0.17204084 0.08227389 0.035977516 -0.16867755 -0.057405245 0.0135029685 0.02956199 0.0884292
0.14111961 -0.070177086 -0.086463444 0.1396038 -0.037145443 0.0964903 0.08301743 0.03949542
-0.040312443 -0.029328378 -0.032925967 -0.021304823 -0.12673698 -0.0093534775 0.07244893 -0.07112755
0.111905396 -0.11789343 0.16187364 -0.102862015 0.1846432 0.08847182 -0.19047259 0.06224185
00000000: cc1c 25bd bca3 023e 0e9b babc 4029 d2bd
00000010: de26 1d3d 6e8c e53d 0fe5 e83c 1b32 d7bd
00000020: 0640 8c3d 4324 143d 3ba1 063d 2839 833c
00000030: 09fe 323d 5004 1d3d b52c 0a3d 5e60 10be
00000040: c4a7 afbd b8c5 483e 3218 83bb cd3f a13b
00000050: 0d08 03be b773 f13d 2961 413d e721 31bd
00000060: 4e29 f8bc e170 363d b7ef 723d 1b0a 20be
00000070: baf1 bebc 8176 ac3d ad92 563c 92a3 1fbe
00000080: 73af 1f3e 1728 b3bd f7ab fd37 8935 d2bd
00000090: 354c b03c b3dd 77bc 489a bdbd 9113 383e
000000a0: edad 6dbd 629a 0fbe d5f1 313c d64f 8f3d
000000b0: 2fb1 20bd 98f5 0cbd 8aed 053e 2637 0ebd
000000c0: ff88 473e e440 2c3e 855f ef3d e04b 4fbd
000000d0: 2edd 37bd d1ea 103e 95ac 1e3d b473 9cbc
000000e0: ea9b 513e d384 b03d d02c 243e 37ce 013d
000000f0: 8954 bcbc f7b5 64bd d086 92bd c79c b03c
00000100: 11a3 80bd 69bf c2bc e2eb 27be a62e 093e
00000110: 1535 5ebe e510 b4bd df75 64be cf0f 0f3e
00000120: 90e2 55bd cf6b 08be f83e 4d3c 12f9 ae3b
00000130: 922f c2bb d560 80bd 47fa 3e3c b018 073e
00000140: 0426 83bd 8f03 3f3d f6cf 493e fb28 ab3d
00000150: 2266 11bd 7081 79ba 85d6 38be c5bf a9bc
00000160: 4570 1f3e 7a10 57bd 4fbf 61bd 0ba1 cd3d
00000170: 6099 c53d 5a73 fcbb 91bc 7b3d 890e ec3e
00000180: 14ba 73bd 5bc6 9e3c d920 2f3e 7b19 84bd
00000190: f1b0 7d3d b11f 913c 7aa4 273b 2393 bbbb
000001a0: 6640 4f3e fea1 b5bc 471e 2abd 087b d33d
000001b0: 732e 20bd 43fa ba3d 5534 803d 793d c3bc
000001c0: 724d 5abe d3b3 0cbd eef6 ddbb 9152 323e
000001d0: 6ef4 2c3c feec 40be d7a1 82be 2216 febd
000001e0: ded4 89be 97bb f33b ed5d c4bd 4d6d 00be
000001f0: b5fa 6b3d f421 493d 1522 5e3e b754 013e
00000200: afad 613d 9fd5 afbd ef96 103e 192e 4bbd
00000210: 69be 423e 2de5 b8bd 54f1 d4bd 9168 71be
00000220: 02ff dcbd 2118 82bd b7e2 e93d 2028 c23d
00000230: 11e7 b53b 5003 8abe 58ac 2a3e 1351 34be
00000240: 452a 7d3e a402 1f3e 66f5 883d e6da 313c
00000250: 8a02 d9bc 22fa acbd 3ec7 57be f375 83bd
00000260: 6c48 30be 1dd0 853e 81f7 a6bc 2d4b edbd
00000270: 157b 1cbd 7d98 2cbd e841 813e c26f 26be
00000280: f733 903d 0131 1bbd 9da9 e8bd c8c0 68bd
00000290: 17d1 04bd c2ee d93d 917f 203e f4bb 053e
000002a0: 16f5 4d3e 4229 a6bb d393 5b3e 2468 14be
000002b0: 62d6 b6ba 3ce0 c5bc 0535 60be 9778 823e
000002c0: 1adb dfbd b100 bf3c ff76 e13d 0de4 8b3d
000002d0: e62b 10bd e3b3 55bd e2c3 c7bd 9b8b 103e
000002e0: d0ac 04be f7bf 0dbe 8bec 98bc 5d8a e0bc
000002f0: b669 22bc 40aa 8a3d 1c8e 833d c61e 513d
00000300: be54 6e3d b28b 023e e720 813d b255 1fbd
00000310: f75e fabd 7262 d03c 6867 f3bc 65f4 74bd
00000320: 4be3 3a3e 63f3 573b 0740 69bd a56c e5bd
00000330: bfb2 91bc 2a8b 2dbe d545 ce3d 5665 33bc
00000340: e244 9abd 7c8b 653e 2b25 643d 15f7 00be
00000350: a8b5 07bd a342 4c3d 995c d6bd ada8 4a3c
00000360: e2a8 52bd 2b21 09bd 47e6 663d a4fd 133e
00000370: 0aef 1d3e f2cf 2d3d b3c2 b93d 86ff bc3d
00000380: 792b 30be 377f a83d 295d 133d cfb9 2cbe
00000390: c321 6bbd 8e3b 5d3c fd2b f23c 5e1a b53d
000003a0: a981 103e 01b9 8fbd bf13 b1bd 4cf4 0e3e
000003b0: d225 18bd b59c c53d 0b05 aa3d f3c5 213d
000003c0: a91e 25bd 1142 f0bc 61dd 06bd 7487 aebc
000003d0: 57c7 01be 543f 19bc 1b60 943d 52ab 91bd
000003e0: a82e e53d 1c72 f1bd 34c2 253e 52a9 d2bd
000003f0: 1b13 3d3e b730 b53d 3f0b 43be 4ff1 7e3d

lstm.weight_hh_l1 f4 [256, 64]
-0.0913967 0.0040162364 0.10560339 -0.14208145 -0.006976759 -0.15562144 0.15311594 0.07778365
0.023851028 -0.060452137 0.074622184 -0.00532264 0.08011989 -0.20546862 0.08455539 0.09758171
-0.026041584 -0.10212491 -0.03305076 0.14808503 0.053718984 0.10834253 0.119514026 0.017614221
-0.05211225 -0.052944757 -0.014578231 -0.056507517 0.13058768 -0.07973579 0.07280754 -0.076207794
-0.10345967 0.092581265 0.111954674 0.10183648 0.02895122 -0.04068426 -0.11155163 -0.14488539
0.007013566 0.0021176392 0.05172917 -0.040964354 0.11825027 0.037154336 -0.0011375878 -0.0035762757
-0.0917469 0.048625115 -0.08416305 -0.10188554 0.062116124 0.0042094975 0.0021391362 -0.13637161
-0.16037662 0.035765864 -0.06786909 -0.09749 -0.09059222 0.078831784 0.023990307 -0.06393601
-0.1798036 -0.11802262 0.048372705 -0.04333926 0.17791787 -0.16654484 0.037217487 -0.06119074
0.18957113 0.13619122 0.040662292 -0.020060694 -0.039660275 -0.0707078 -0.036007028 0.01143878
0.08346142 -0.028839817 -0.22099438 0.12264315 -0.062011857 -0.10109206 -0.048318572 0.039418906
0.0120942425 0.11346974 -0.073600665 -0.03130637 0.15779833 0.04345725 0.17091091 0.1179718
0.038616687 0.060688633 0.1073595 -0.016653921 0.12148969 -0.067783736 0.05209904 -0.054220546
-0.051445924 0.060696654 0.13095917 -0.05431458 0.1042538 0.22867641 0.0770093 -0.12615943
-0.11057318 -0.08412511 0.00476721 -0.26420593 0.04441698 -0.035169773 0.037314672 -0.101123944
-0.097914144 -0.095248155 0.09435232 -0.1880709 0.14839707 -0.018112417 -0.011572617 -0.19062853
-0.12716208 0.06507323 0.013088254 -0.00883667 0.021614255 0.079353735 -0.00014822246 -0.038443763
0.19304755 -0.055123657 0.14797223 0.11284539 0.011987347 -0.1639167 -0.03711952 0.22870043
0.078248054 0.1565229 -0.044706386 -0.037583437 -0.08753282 -0.04764048 0.0019035719 0.11620059
-0.09029776 -0.025996609 0.07371487 -0.08491358 -0.008785165 -0.15735626 0.073164634 0.13937095
-0.07364267 0.12257126 0.11602312 0.055705804 0.029260868 -0.075985484 0.06610428 -0.076902
0.022889286 -0.095498316 -0.018597493 -0.07342381 0.20436572 0.081626445 0.10504088 -0.10350071
0.030551203 -0.019166302 0.011605822 -0.19695076 -0.040182576 0.094529204 0.08844857 0.0647311
-0.12102969 -0.018881243 -0.070635654 0.015120668 0.079813235 -0.117038235 -0.025543042 -0.15374252
-0.17514433 -0.23091607 -0.16700993 -0.005707615 -0.035621323 0.0729484 -0.023595413 0.009741982
0.15358908 0.02873466 0.13615915 -0.1166166 -0.1924808 -0.29485002 0.030571455 -0.17426684
0.04139647 -0.20488304 -0.14241742 0.16768546 0.043420903 -0.18212321 -0.1759693 -0.15870512
-0.04779099 0.080379024 0.0013690395 0.040414903 -0.06753027 -0.03946314 0.0013287578 0.3179432
0.002902098 -0.123811014 0.15251176 0.17590444 0.19489233 0.1674071 -0.07903321 0.0027981505
-0.03990418 -0.2054323 0.24637777 -0.086910255 -0.03484766 0.11080388 0.043133274 0.05045346
0.036068566 -0.13910723 -0.05339975 -0.27422786 -0.13705651 -0.20481536 0.33128026 -0.032419335
-0.026780061 0.17715614 0.18909869 -0.11899649 -0.019323323 0.05702653 0.10578042 0.0064346655
00000000: 312e bbbd a29a 833b 9746 d83d cd7d 11be
00000010: 4c9d e4bb 3a5b 1fbe 6dca 1c3e 094d 9f3d
00000020: 3b63 c33c a99c 77bd 84d3 983d 8a69 aebb
00000030: e615 a43d 5e66 52be 602b ad3d ebd8 c73d
00000040: 2955 d5bc dd26 d1bd 3c60 07bd 9aa3 173e
00000050: 7008 5c3d b0e2 dd3d c5c3 f43d b34b 903c
00000060: a873 55bd 9adc 58bd 88d9 6ebc 6d74 67bd
00000070: c7b8 053e 854c a3bd 1f1c 953d d512 9cbd
00000080: aae2 d3bd 3f9b bd3d 7e48 e53d a58f d03d
00000090: 1c2b ed3c 8aa4 26bd 2e75 e4bd d65c 14be
000000a0: 0ed2 e53b 17c8 0a3b f7e1 533d 3dca 27bd
000000b0: 332d f23d 252f 183d 1d1b 95ba f35f 6abb
000000c0: cce5 bbbd 212b 473d ad5d acbd 5ea9 d0bd
000000d0: 7a6d 7e3d d3ef 893b c030 0c3b 00a5 0bbe
000000e0: c539 24be 3a7f 123d f3fe 8abd d6a8 c7bd
000000f0: 6a88 b9bd 8f72 a13d 5287 c43c e2f0 82bd
00000100: 6f1e 38be d8b5 f1bd 7522 463d 8284 31bd
00000110: 1a30 363e bb8a 2abe 5d71 183d 24a3 7abd
00000120: ef1e 423e b675 0b3e 818d 263d 5356 a4bc
00000130: d072 22bd 40cf 90bd 1b7c 13bd b969 3b3c
00000140: d2ed aa3d 7b41 ecbc 5a4c 62be 552c fb3d
00000150: 2500 7ebd 5b09 cfbd b2e9 45bd b875 213d
00000160: ee26 463c d362 e83d f2bb 96bd 1c3b 00bd
00000170: e395 213e 3b00 323d 4503 2f3e 339b f13d
00000180: 882c 1e3d a594 783d 4cdf db3d ce6d 88bc
00000190: 96cf f83d 33d2 8abd ce65 553d 5d16 5ebd
000001a0: f6b8 52bd 0e9d 783d 291a 063e f778 5ebd
000001b0: 0483 d53d 262a 6a3e 0db7 9d3d f02f 01be
000001c0: 3174 e2bd c949 acbd 4236 9c3b 0046 87be
000001d0: 94ee 353d 2e0e 10bd 45d7 183d 121a cfbd
000001e0: 3687 c8bd 7711 c3bd ca3b c13d a895 40be
000001f0: 67f5 173e 7e60 94bc 139b 3dbc 2034 43be
00000200: c736 02be 1d45 853d 1e70 563c aec7 10bc
00000210: 6110 b13c 3684 a23d 2a6c 1bb9 3577 1dbd
00000220: 42ae 453e 58c9 61bd 0886 173e 7c1b e73d
00000230: 9466 443c c8d9 27be a30a 18bd 7230 6a3e
00000240: 8440 a03d 8a47 203e 0b1e 37bd 17f1 19bd
00000250: 6844 b3bd aa22 43bd 4681 f93a 93fa ed3d
00000260: 08ee b8bd d7f6 d4bc d2f7 963d 2ce7 adbd
00000270: a7ef 0fbc 0022 21be 57d7 953d 42b7 0e3e
00000280: f8d1 96bd a406 fb3d 889d ed3d c52b 643d
00000290: 7db4 ef3c 479e 9bbd ae61 873d cc7e 9dbd
000002a0: 5082 bb3c 9f94 c3bd c559 98bc 395f 96bd
000002b0: 3f45 513e c42b a73d ac1f d73d 2ef8 d3bd
000002c0: 8446 fa3c a602 9dbc 5826 3e3c 76ad 49be
000002d0: 7c96 24bd 8798 c13d 8624 b53d bd91 843d
000002e0: 6ade f7bd d6ac 9abc 6da9 90bd aebc 773c
000002f0: 1f75 a33d beb1 efbd a43f d1bc ae6e 1dbe
00000300: 0959 33be 4375 6cbe a704 2bbe f206 bbbb
00000310: aae7 11bd f965 953d 2b4b c1bc d69c 1f3c
00000320: 7546 1d3e f364 eb3c 4e6d 0b3e afd4 eebd
00000330: b019 45be 95f6 96be fd70 fa3c 0273 32be
00000340: 588f 293d dccc 51be dfd5 11be bdb5 2b3e
00000350: 1eda 313d 827e 3abe 4c31 34be 9883 22be
00000360: 7cc0 43bd c29d a43d 5871 b33a 198a 253d
00000370: 4f4d 8abd 1aa4 21bd b729 ae3a 73c9 a23e
00000380: 2031 3e3b a190 fdbd 0b2c 1c3e 4b20 343e
00000390: db91 473e c46c 2b3e 2adc a1bd 2d61 373b
000003a0: 9172 23bd d85c 52be 744a 7c3e 01fe b1bd
000003b0: 6cbc 0ebd 25ed e23d 84ac 303d 4aa8 4e3d
000003c0: a2bc 133d 2072 0ebe b2b9 5abd 9867 8cbe
000003d0: 8b58 0cbe 1ebb 51be 919d a93e 23ca 04bd
000003e0: dc61 dbbc 6b68 353e 16a3 413e 6fb4 f3bd
000003f0: f24b 9ebc a794 693d 68a3 d83d e3d9 d23b

lstm.bias_ih_l1 f4 [256]
0.031895746 -0.09393827 -0.13667594 -0.09417324 -0.12672947 -0.058920007 -0.10757343 -0.032925226
-0.013290644 -0.20245844 0.08756232 -0.16925369 -0.15859368 0.12087154 -0.24596027 -0.02315054
-0.07273676 -0.07972671 0.17602006 -0.26400834 -0.1954921 0.04461588 -0.076059125 -0.13190116
-0.12744667 -0.13159844 0.03031273 -0.17939338 -0.11882097 -0.18448369 -0.15396997 0.009572884
-0.057001557 -0.10342095 -0.038038794 -0.13087325 -0.0016682612 0.009199375 -0.0070597366 -0.0009046935
0.019551104 -0.16121688 -0.010657847 -0.26482025 0.13373655 0.07798207 0.10573734 -0.039818168
-0.030611495 -0.14761417 -0.031461146 -0.11570707 -0.06923729 -0.14644162 -0.087280646 -0.1943857
-0.071836226 0.14531188 -0.0861687 0.03215791 -0.16830681 0.040620953 0.05260323 0.23410285
0.017237047 0.014558982 0.08496717 0.0882963 -0.06903963 0.1397996 -0.17441185 0.21579202
0.100646034 -0.03206901 0.12453449 0.011962115 0.022142546 0.19453235 0.057460953 0.0855026
0.06827372 0.18222202 0.21138212 0.05537041 -0.0077615147 0.01854763 0.15580356 0.13845363
-0.029286632 0.0959343 0.046576034 0.029194644 0.06779972 -0.12350976 0.008671343 -0.050893825
0.1345264 -0.08171905 -0.074527815 0.076810606 0.16276942 -0.059765305 0.05120309 0.120524585
0.002472438 0.0052894806 0.07300611 -0.063112274 0.03332912 0.08431265 0.1137895 0.020050142
0.17705563 0.023951152 0.045892484 -0.073891684 -0.043691702 0.067337185 0.06903333 0.057726603
0.097947255 0.06137848 -0.059073344 0.06104193 -0.06160826 0.12991007 -0.052548163 -0.03639568
-0.052516818 0.03134126 -0.08690818 0.12641099 -0.019509867 0.17375962 -0.04225509 -0.055806246
0.11476372 0.004404885 0.11433918 -0.12202989 -0.13475898 -0.09482793 0.036977965 -0.012062695
0.008126421 0.040294472 0.082864396 -0.060466606 0.09803234 -0.081114225 -0.13294514 0.016448632
-0.021436611 0.08838132 -0.028973134 0.06606932 0.08816815 -0.13865806 0.07169016 0.061792955
0.07806382 0.025315152 -0.089984246 0.0051835263 0.1716344 0.13716117 0.12760095 0.13481662
-0.09761483 0.05960861 0.091519214 0.04005288 0.14363158 0.16131084 0.053573884 0.11920988
0.17542024 -0.033046164 -0.17155759 -0.015672268 -0.12691718 -0.039440606 0.09496268 -0.0950468
-0.055412743 -0.12598461 0.08207022 0.20115562 -0.16219284 0.0056013786 0.081802286 0.041931614
-0.0940615 -0.109855846 -0.080278635 -0.09333434 -0.16146515 0.014939967 -0.12415344 -0.017330872
0.11845329 -0.093010135 -0.07895915 -0.10301484 -0.04856729 0.26517025 -0.21256515 -0.011252452
-0.004421078 -0.039517842 0.014384474 -0.052731063 -0.036455706 -0.08272508 -0.11388474 0.045962878
-0.13253924 0.0098765 -0.1711502 -0.17367522 -0.110363975 -0.17074442 -0.13890333 -0.08402629
-0.10653648 0.022447484 -0.14256817 0.044592954 -0.061386637 -0.14843172 -0.18347651 -0.039685555
-0.047450926 -0.28693113 0.17986614 -0.2695127 -0.05497966 0.0850116 0.12858959 -0.124586664
0.0948163 -0.17859638 -0.07285518 0.023648597 -0.039570455 -0.06701299 -0.030763574 -0.12537596
0.033489987 -0.006531635 -0.038394712 0.12817767 -0.17376523 -0.07850792 0.07300789 0.14384033
00000000: 1da5 023d b562 c0bd c7f4 0bbe e6dd c0bd
00000010: 5fc5 01be 1b56 71bd 754f dcbd 9adc 06bd
00000020: 00c1 59bc 4451 4fbe e053 b33d d750 2dbe
00000030: 6266 22be 7f8b f73d 02dd 7bbe 34a6 bdbc
00000040: 03f7 94bd c247 a3bd 9a3e 343e 1a2c 87be
00000050: 152f 48be 24bf 363d e3c4 9bbd 1911 07be
00000060: 6181 02be bec1 06be 6752 f83c e6b2 37be
00000070: 6958 f3bd 4be9 3cbe 4eaa 1dbe 96d7 1c3c
00000080: 777a 69bd 5dce d3bd 91ce 1bbd a303 06be
00000090: 8fa9 daba fab8 163c 5d55 e7bb f428 6dba
000000a0: a329 a03c 0a16 25be 409e 2ebc 8596 87be
000000b0: 3cf2 083e 10b5 9f3d d28c d83d 6018 23bd
000000c0: f5c4 fabc 2b28 17be 67dd 00bd d4f7 ecbd
000000d0: 48cc 8dbd cbf4 15be 32c0 b2bd 0c0d 47be
000000e0: df1e 93bd a3cc 143e 3779 b0bd 03b8 033d
000000f0: 9f58 2cbe 2862 263d 7c76 573d a8b8 6f3e
00000100: b534 8d3c cc88 6e3c 4503 ae3d b1d4 b43d
00000110: a664 8dbd a027 0f3e 0599 32be 95f8 5c3e
00000120: 821f ce3d cb5a 03bd f00b ff3d bffc 433c
00000130: 4964 b53c 7d33 473e 2d5c 6b3d fd1b af3d
00000140: 18d3 8b3d 6998 3a3e 8e74 583e 15cc 623d
00000150: 4e54 febb 33f1 973c f88a 1f3e cac6 0d3e
00000160: 85ea efbc 3479 c43d 83c6 3e3d 9b29 ef3c
00000170: 94da 8a3d aff2 fcbd 4012 0e3c 0b76 50bd
00000180: 4ac1 093e 515c a7bd 0aa2 98bd e14e 9d3d
00000190: 07ad 263e 77cc 74bd 55ba 513d 98d5 f63d
000001a0: a008 223b 6153 ad3b 3a84 953d 0241 81bd
000001b0: 1e84 083d 1cac ac3d 780a e93d 3240 a43c
000001c0: 124e 353e 3535 c43c c2f9 3b3d 8654 97bd
000001d0: 12f6 32bd 14e8 893d 5961 8d3d bb72 6c3d
000001e0: 9298 c83d 0068 7b3d e4f6 71bd 1a07 7a3d
000001f0: f158 7cbd 2507 053e be3c 57bd a313 15bd
00000200: e01b 57bd b15f 003d eafc b1bd e271 013e
00000210: 28d3 9fbc 0bee 313e ac13 2dbd 1795 64bd
00000220: 3e09 eb3d db56 903b a92a ea3d cfea f9bd
00000230: 42fe 09be 2535 c2bd 3576 173d 9ca2 45bc
00000240: ae24 053c d10b 253d cfb4 a93d d5ab 77bd
00000250: 2ec5 c83d 371f a6bd c522 08be 48bf 863c
00000260: d59b afbc 4401 b53d 1159 edbc 5a4f 873d
00000270: 8191 b43d 61fc 0dbe 4ad2 923d 9c1a 7d3d
00000280: eddf 9f3d b961 cf3c a949 b8bd 92da a93b
00000290: eec0 2f3e fa73 0c3e d3a9 023e 5e0d 0a3e
000002a0: 49ea c7bd 2828 743d 6d6e bb3d 7d0e 243d
000002b0: 2814 133e ab2e 253e 4a70 5b3d 4f24 f43d
000002c0: 5da1 333e 6a5b 07bd cbac 2fbe 2163 80bc
000002d0: 94f6 01be 798c 21bd cb7b c23d e6a7 c2bd
000002e0: 79f8 62bd 1c02 01be 6e14 a83d bdfb 4d3e
000002f0: e115 26be c58b b73b f587 a73d 7cc0 2b3d
00000300: 51a3 c0bd 1afc e0bd 2069 a4bd 1326 bfbd
00000310: 1f57 25be c3c6 743c 2944 febd 79f9 8dbc
00000320: a397 f23d 197c bebd 56b5 a1bd 72f9 d2bd
00000330: 7fee 46bd 65c4 873e aeaa 59be 345c 38bc
00000340: b1de 90bb 76dd 21bd dbac 6b3c 87fc 57bd
00000350: 9452 15bd c46b a9bd 673c e9bd 9243 3c3d
00000360: 5eb8 07be 0bd1 213c ff41 2fbe ebd7 31be
00000370: 8206 e2bd a0d7 2ebe ad3c 0ebe fa15 acbd
00000380: cc2f dabd c9e3 b73c 64fd 11be 1aa7 363d
00000390: 8e70 7bbd 7cfe 17be 44e1 3bbe 528d 22bd
000003a0: e75b 42bd a3e8 92be d42e 383e 92fd 89be
000003b0: 5a32 61bd 901a ae3d fdac 033e 4b27 ffbd
000003c0: 0c2f c23d f8e1 36be 1935 95bd b4ba c13c
000003d0: a114 22bd 1b3e 89bd e403 fcbc 8e62 00be
000003e0: cc2c 093d 5307 d6bb c643 1dbd 0241 033e
000003f0: 83ef 31be c3c8 a0bd 2985 953d e14a 133e

lstm.bias_hh_l1 f4 [256]
0.06529416 -0.26368204 -0.1343967 0.02609719 0.067927405 0.079260714 -0.14381059 -0.011254083
0.15237485 -0.022260537 -0.033202976 -0.10616936 -0.09374917 0.22367817 -0.19570227 -0.0043361625
-0.2134898 -0.16220751 0.04958702 -0.22262365 -0.120881 -0.107417434 0.14954877 0.008952491
-0.048390877 -0.013692297 -0.16441941 -0.24955167 -0.20697714 -0.17898476 -0.0062549114 -0.12230637
0.08823164 -0.01956123 -0.14077514 0.03040392 0.07231971 -0.004267609 -0.037915215 -0.04742676
-0.1801244 -0.2467756 0.2086278 -0.04908632 -0.034060318 0.03309318 0.09914005 -0.009862159
0.024039453 -0.18685108 0.0034199858 -0.234981 -0.0672181 -0.02401241 -0.029163694 -0.07322543
0.07229151 -0.016764821 -0.05714343 -0.08105851 -0.21357644 -0.060589805 0.041873008 0.13394845
0.08228049 -0.07257341 0.082830496 0.055201072 0.010468956 0.18747367 -0.08105686 0.24148571
0.19608791 0.07001744 0.1968951 0.085726276 0.07800349 0.21026453 0.06758429 0.07694311
-0.012472784 0.022997838 0.1869906 0.08786633 -0.011356264 0.12806545 -0.014536593 0.07874242
0.05146489 0.11175223 0.1018654 -0.020857647 0.20934013 -0.015545878 -0.07164006 0.11030439
0.11916472 0.0022877653 -0.11816389 0.09607657 0.12575956 0.10683954 0.02247959 0.035199564
0.19852428 0.005039569 0.11521604 0.09486017 0.13492233 0.008027373 0.083086036 -0.019223107
0.16730034 -0.0833222 0.12158635 0.061902978 -0.016058818 -0.05743096 0.1223045 0.030186629
-0.0449736 0.060135983 -0.07001788 -0.011074944 -0.10796005 0.017471187 0.08579239 0.005020772
-0.031516217 -0.031525325 -0.117093 0.16113627 -0.08582253 -0.015253587 -0.066281624 -0.16505459
0.09992526 0.15306394 0.026190652 0.02491043 0.015423292 -0.10366027 -1.4819683e-05 0.14184974
0.10539827 0.08238643 0.05940239 -0.0124105755 0.08496938 -0.07151175 -0.106773175 -0.10668908
-0.19373988 0.047345705 -0.028518252 0.06593954 -0.03453951 -0.12210851 -0.040957037 0.07769345
0.02041789 -0.08002098 -0.20215122 0.044840775 0.0693653 -0.0035839276 0.027130006 0.108392425
-0.011046208 0.010683668 0.07257125 0.024065148 -0.022541702 0.030841803 0.15108755 0.036098566
0.097104594 0.008158025 -0.1575557 0.055859897 -0.15823711 -0.02678827 0.021917818 -0.05755753
-0.049455024 -0.1468061 -0.0098629985 -0.028390614 -0.13384466 0.12841718 0.07626289 0.02651138
-0.1984562 -0.13601798 -0.050711077 -0.12272041 -0.21689828 -0.026944049 -0.09958309 0.14628263
0.08722668 -0.22106333 -0.063763976 -0.1249251 -0.12541269 0.2815666 -0.104257554 -0.10857636
-0.19035468 0.01905042 0.11114099 0.022507995 -0.18737103 0.04466323 0.08992196 -0.14820835
-0.057294156 -0.13562931 -0.003976849 -0.041022073 -0.15282683 -0.1725728 -0.104479745 -0.080725506
0.040129505 -0.020932367 -0.21774624 0.00969046 0.06418302 -0.04443213 -0.07319729 -0.10469005
-0.042132713 -0.09038254 0.14886212 -0.03128665 0.13705419 0.00233772 0.11121877 -0.001406907
-0.055508904 -0.06624747 0.031463623 -0.095068835 0.119976334 -0.122469075 0.16777714 -0.049326997
-0.12978472 0.07630869 -0.0058938786 0.030907588 -0.08632146 -0.007741981 -0.06403107 0.20040053
00000000: f2b8 853d 5501 87be 4a9f 09be c6c9 d53c
00000010: 861d 8b3d 7153 a23d 1543 13be 0c63 38bc
00000020: 2708 1c3e bb5b b6bc d8ff 07bd 526f d9bd
00000030: 91ff bfbd e40b 653e 2d66 48be 5e16 8ebb
00000040: 129d 5abe ba19 26be c21b 4b3d 74f7 63be
00000050: 7590 f7bd acfd dbbd 5023 193e 78ad 123c
00000060: 8335 46bd a855 60bc 905d 28be 798a 7fbe
00000070: d1f1 53be c847 37be 00f6 ccbb c37b fabd
00000080: cab2 b43d df3e a0bc 5c27 10be a411 f93c
00000090: 5b1c 943d 4dd7 8bbb fc4c 1bbd 9042 42bd
000000a0: 8872 38be beb2 7cbe 87a2 553e bd0e 49bd
000000b0: d582 0bbd b78c 073d f009 cb3d e594 21bc
000000c0: 63ee c43c e455 3fbe d721 603b dc9e 70be
000000d0: a5a9 89bd acb5 c4bc b3e8 eebc 37f7 95bd
000000e0: 920d 943d 6156 89bc 3b0f 6abd 0102 a6bd
000000f0: c8b3 5abe 042d 78bd 0883 2b3d c829 093e
00000100: ac82 a83d 5ea1 94bd 09a3 a93d 851a 623d
00000110: fc85 2b3c 19f9 3f3e 2401 a6bd 0848 773e
00000120: 45cb 483e 4e65 8f3d de9e 493e 4291 af3d
00000130: 4bc0 9f3d 964f 573e a269 8a3d 5994 9d3d
00000140: a65a 4cbc f665 bc3c 777a 3f3e 43f3 b33d
00000150: a00f 3abc 9723 033e e42a 6ebc b543 a13d
00000160: d9cc 523d 5ade e43d cf9e d03d a8dd aabc
00000170: 425d 563e 23b4 7ebc 06b8 92bd 45e7 e13d
00000180: a20c f43d 55ee 153b e9ff f1bd cbc3 c43d
00000190: 1dc7 003e b0ce da3d 1e27 b83c 6b2d 103d
000001a0: f349 4b3e f822 a53b 63f6 eb3d 0c46 c23d
000001b0: 1429 0a3e 3e85 033c 0329 aa3d c779 9dbc
000001c0: c850 2b3e d4a4 aabd 4402 f93d fa8d 7d3d
000001d0: c88d 83bc ba3c 6bbd c87a fa3d f349 f73c
000001e0: 3d36 38bd 2651 763d 8965 8fbd af73 35bc
000001f0: 291a ddbd bc1f 8f3c ecb3 af3d 4a85 a43b
00000200: 2617 01bd b320 01bd 74ce efbd e800 253e
00000210: b9c3 afbd 2eea 79bc a9be 87bd 1204 29be
00000220: 9da5 cc3d cbbc 1c3e c78d d63c f510 cc3c
00000230: fab1 7c3c d64b d4bd 0ea2 78b7 0f41 113e
00000240: 0cdb d73d 37ba a83d ec4f 733d ba55 4bbc
00000250: 6d04 ae3d c174 92bd e5ab dabd ce7f dabd
00000260: bf63 46be 92ed 413d 1c9f e9bc 4f0b 873d
00000270: 4d79 0dbd 0714 fabd 91c2 27bd be1d 9f3d
00000280: 6b43 a73c 0ae2 a3bd bb00 4fbe f6aa 373d
00000290: 650f 8e3d 54e0 6abb bf3f de3c d9fc dd3d
000002a0: 28fb 34bc 8d0a 2f3c 3ca0 943d 4624 c53c
000002b0: 60a9 b8bc f3a7 fc3c b2b6 1a3e 17dc 133d
000002c0: c6de c63d 3da9 053c 4856 21be 59cd 643d
000002d0: e908 22be 1373 dbbc ff8c b33c 72c1 6bbd
000002e0: 5a91 4abd 5754 16be 6a98 21bc 6f93 e8bc
000002f0: 930e 09be cb7f 033e b82f 9c3d 652e d93c
00000300: 1a38 4bbe 4c48 0bbe 6bb6 4fbd d754 fbbd
00000310: 951a 5ebe c4b9 dcbc 38f2 cbbd 1dcb 153e
00000320: e7a3 b23d 6d5e 62be b096 82bd bbd8 ffbd
00000330: 2f6c 00be 7f29 903e fc84 d5bd 485d debd
00000340: 56ec 42be a00f 9c3c e39d e33d b062 b83c
00000350: 31de 3fbe cbf0 363d 0129 b83d eec3 17be
00000360: 47ad 6abd 69e2 0abe 3a50 82bb c306 28bd
00000370: a37e 1cbe edb6 30be 7af9 d5bd 6a53 a5bd
00000380: d65e 243d 5b7a abbc dff8 5ebe bcc4 1e3c
00000390: 6372 833d 77fe 35bd 76e8 95bd bd67 d6bd
000003a0: 5a93 2cbd 7b1a b9bd 506f 183e 6e26 00bd
000003b0: ef57 0c3e 6f34 193b abc6 e33d f767 b8ba
000003c0: 4e5d 63bd c1ac 87bd 00e0 003d 73b3 c2bd
000003d0: 27b6 f53d 11d1 fabd c5cd 2b3e 1b0b 4abd
000003e0: 49e6 04be bb47 9c3d 7021 c1bb e931 fd3c
000003f0: 4ec9 b0bd 72b0 fdbb b922 83bd cc35 4d3e
