assets/snapshots/P0_baseline_transformer.pth (torch, 296457 bytes, 30 tensors)

input_proj.weight f4 [64, 1]
000000 93 80 c1 3e 47 3b 91 bc 7e ed 2c bd a9 fb 11 3f
       0.37793407 -0.017728461 -0.042218678 0.5702463
000010 14 5e 85 3f 5a 6a 22 3f 03 ff 13 3f e0 c7 fb be
       1.0419335 0.6344353 0.5781099 -0.4917593
000020 54 77 16 3f 71 fd 01 3e 31 13 99 3e b3 92 01 3f
       0.5877583 0.12694336 0.29897454 0.5061447
000030 4c 20 5f bf a4 04 1b 3e b0 67 5e 3f cc 9a 66 3f
       -0.87158656 0.15138489 0.86876965 0.9007995
000040 9f e0 7a 3e 6a 6a 4d 3f f8 bd de be e3 80 ea bd
       0.24499749 0.802405 -0.4350431 -0.114503644
000050 8c 99 72 bf c5 72 b6 be 52 97 84 bf 2a 02 7f bf
       -0.94765544 -0.35634437 -1.0358679 -0.9961268
000060 73 ee 3b bf 91 7b 35 3e 0b 65 3a bf a1 09 1b 3f
       -0.7341072 0.17722918 -0.7281043 0.6056157
000070 6d 03 26 3d 28 c8 0a 3f 7f 28 0e be fc 78 a5 be
       0.04053061 0.54211664 -0.13882636 -0.32318866
000080 15 ee 8b bf 08 a6 4e be a6 a9 65 3f 5c 05 36 3e
       -1.0932032 -0.20180523 0.8971199 0.17775482
000090 11 10 d1 3e 42 86 71 3f 0c ba 44 bf 4d d7 74 bf
       0.4083257 0.94345486 -0.76846385 -0.9564102
0000a0 e2 5f 82 bf 78 e3 be 3e b4 62 28 3f 9e 6b 36 3f
       -1.0185511 0.3728292 0.6577561 0.7125796
0000b0 ab a0 07 bf 83 62 14 3f 5e ac 66 bf e0 40 47 bf
       -0.52979535 0.57962817 -0.9010676 -0.77833366
0000c0 ca cb 2d bf c0 eb 28 be 65 e6 2f bf 12 79 32 3f
       -0.6788908 -0.16496181 -0.6871093 0.6971599
0000d0 27 1a 68 bf aa 64 a3 be 49 7a 88 3f cc 63 54 3f
       -0.90664905 -0.31912738 1.0662318 0.8296478
0000e0 bd fb be be 1f e1 13 bd 85 eb 66 3f 66 90 ee 3d
       -0.37301436 -0.036103364 0.90203124 0.116486356
0000f0 9e dd 9e be f9 4c 58 3f e7 b6 53 3f 48 0c 09 bf
       -0.31028455 0.8449245 0.8270096 -0.53534365

input_proj.bias f4 [64]
000000 45 9b 1d 3b e3 c1 3e 3f 5c 6a fd 3e 3e 4a 4d 3f
       0.0024048847 0.745146 0.49495208 0.8019141
000010 c5 0d 6d 3e 18 43 1b 3f 62 01 2f bf 2f 10 3d bf
       0.23149784 0.6064925 -0.68361485 -0.7385282
000020 61 62 1e 3f c5 7c 2f bf f2 60 12 bf dc 20 06 bf
       0.61868864 -0.6854976 -0.57179177 -0.5239389
000030 52 8e 16 3f f1 77 20 bf bc 33 a3 3e 7a 6c 2d 3d
       0.58810914 -0.62683016 0.31875408 0.04233978
000040 78 5a 4d bf a8 c4 76 be b6 65 16 be 7d b7 80 be
       -0.8021617 -0.24098456 -0.14687237 -0.2513999
000050 55 5b 52 bf bc 5e 25 bf 0b 9a b4 3e de ac 4a bb
       -0.8217061 -0.6459768 0.35273775 -0.003092579
000060 a5 31 96 3e 57 b0 cd 3e 97 0b e2 3e eb db 46 3f
       0.2933475 0.401736 0.44149467 0.7767932
000070 c6 fe 06 bf 10 b8 06 bf 36 43 66 3f 70 ef a8 bd
       -0.52732503 -0.5262461 0.89946306 -0.08248794
000080 39 7b 20 3e 57 64 3e 3d be 33 1d bf 00 54 87 3e
       0.15672006 0.04648241 -0.6140708 0.26431274
000090 05 f1 12 bf c7 b5 2c be b2 92 83 3f 82 d8 9a 3d
       -0.57399017 -0.16866218 1.0279143 0.07560827
0000a0 d9 32 c2 bd b1 25 df be f6 03 73 bf 40 82 37 3d
       -0.09482355 -0.43583444 -0.9492792 0.04480195
0000b0 ce 12 bc be f7 5c b4 3e dd 91 3b bf 7d 24 e5 3e
       -0.36733097 0.35227177 -0.73269445 0.447544
0000c0 32 e1 5c 3d ea 97 4c bf 69 de 0d be 8b 45 3e 3f
       0.0539257 -0.799193 -0.13854374 0.74324864
0000d0 d4 03 c3 3e d1 c9 be 3c cb 8c b7 be 56 25 31 bf
       0.38088858 0.023289593 -0.35849604 -0.69197595
0000e0 75 d4 be 3d 9a 3a b2 3e 3a 02 b8 3d d6 4e 37 3e
       0.09317867 0.34810334 0.089848 0.17901167
0000f0 e5 2f d8 be 7f 0f cb 3e 68 51 b8 3d 91 d7 45 bf
       -0.4222404 0.3966026 0.08999902 -0.77282053

encoder.layers.0.self_attn.in_proj_weight f4 [192, 64]
000000 58 0a a4 bc 13 3a 0f 3e 90 a0 7b 3d cb 7f 14 be
       -0.020024464 0.13986997 0.06143242 -0.14501874
000010 c9 17 a5 bc 61 33 fc 3c 3d bc 6f bc 91 9c ad 3d
       -0.020152943 0.030786218 -0.014632282 0.08477128
000020 d5 67 46 3d b3 67 83 3d b7 06 bf bd a1 84 7f bd
       0.048438866 0.064162634 -0.09327453 -0.062382344
000030 46 73 cd bd 2c 03 27 3b 12 31 a9 3c 64 7f b2 3d
       -0.10031752 0.0025484068 0.020653281 0.08715704
000040 db 73 85 bd 67 c3 89 3d f1 7a 06 be 77 2d a0 bc
       -0.06516238 0.06726723 -0.13132836 -0.01955293
000050 69 61 25 3e 81 98 d5 3d 2a 67 81 bd b1 17 9e bd
       0.1615044 0.104294784 -0.06318505 -0.077193625
000060 bb 4b 28 3c 27 1a ed 3d 8a 9b 03 bd 5f 10 3f bc
       0.010271962 0.11577254 -0.032130755 -0.011661618
000070 77 1f bf bd 2e de 40 bc b8 86 89 bc 31 db 3d bd
       -0.09332173 -0.011771722 -0.016787872 -0.046351615
000080 0f 84 64 bc 29 bb 9c 3c df ab b4 bd 5e 3e e1 bd
       -0.013947501 0.019132214 -0.08821844 -0.10998224
000090 81 30 e1 3d f9 64 2a bd 2b f3 08 3e 27 68 27 bd
       0.109955795 -0.0416002 0.13374011 -0.04087081
0000a0 30 d3 fe 3d a7 4b bb bc 09 ba 0a be 20 a8 c8 bd
       0.124426246 -0.022863222 -0.1354753 -0.09797692
0000b0 12 ed c6 bd 42 89 89 bc f6 0c 03 be 9d 98 07 be
       -0.09713186 -0.016789082 -0.12797913 -0.13241811
0000c0 e6 25 79 bd 77 5a 99 bc 15 22 ee 3d ac 90 c3 bd
       -0.06082716 -0.018719895 0.116275944 -0.09549078
0000d0 66 58 10 bc f2 bc a2 bd bf 0b 11 3d bd 36 10 3e
       -0.008810138 -0.07946195 0.035411593 0.14083381
0000e0 84 c7 6b bd de 56 13 be 3f 56 04 be 07 2d e2 bd
       -0.05756332 -0.14388606 -0.12923525 -0.110437445
0000f0 eb 59 81 bd f9 6b 1d 3c 02 cf 30 3d e3 cd 7b bd
       -0.063159786 0.009608262 0.043166168 -0.061475646
000100 c3 a3 98 3d 85 fc 07 3d fc f6 a1 bd 21 e7 52 bd
       0.0745311 0.033199806 -0.07908437 -0.051489953
000110 ab 89 e8 bd 53 3d fd bd 3a db 06 be 45 96 ae 3c
       -0.11354383 -0.12365212 -0.13169566 0.021311888
000120 43 a1 c8 3d 46 7e da 3d 90 ed b7 bc 70 ee c5 bd
       0.09796383 0.10668616 -0.022452146 -0.09664619
000130 bd ad 4e 3c 64 52 a7 3d 80 73 1d bd 0d eb a6 3d
       0.012614665 0.08170012 -0.038440228 0.08150301
000140 94 d0 79 bd aa a7 5a bd 59 54 17 be 22 62 8a 3d
       -0.06098993 -0.053382553 -0.1477827 0.067569986
000150 8d b0 0d 3c 31 e5 8d bc 86 6b ff bd c4 51 2d 3d
       0.00864805 -0.017321201 -0.1247168 0.042314306
000160 7d ad e1 3d 9b 5e 04 3e dd 4b d6 3d 92 ce a7 3d
       0.110194184 0.12926714 0.104636885 0.08193697
000170 a9 ea a3 bb f7 98 19 3d 35 6f a7 bd 9b eb 86 bd
       -0.005002339 0.037499394 -0.08175508 -0.06587907
000180 23 ff 3e bd 70 d1 8c bc 70 68 29 3c aa f0 15 3e
       -0.046630036 -0.017189711 0.010339841 0.14642587
000190 82 7f 7e 3a 01 a0 07 3c 6b e9 d3 bd bd 55 18 bd
       0.0009708331 0.008277894 -0.10347255 -0.03719114
0001a0 7c 12 14 3d 75 1f 9e 3d 36 66 ad bd 4f b9 94 3d
       0.03615044 0.07720844 -0.08466761 0.07261907
0001b0 90 36 cc 3b a6 fc b1 bc d6 fb c2 3c b8 19 08 bd
       0.0062320903 -0.021726917 0.023801725 -0.033227652
0001c0 3b 71 c8 bd 1a ce 20 be 2f 0a 08 bc 01 bb d7 3c
       -0.09787222 -0.15703622 -0.008303209 0.026334288
0001d0 2f 3a 96 3d f4 81 db bd 05 75 94 3c c2 5d e2 3d
       0.073353164 -0.10718146 0.018122206 0.11053039
0001e0 95 8a 82 bd d9 e5 7c ba 33 78 8d bd 22 71 06 be
       -0.06374089 -0.0009647287 -0.06907692 -0.13129094
0001f0 16 4d ca bc df 41 e3 bd 24 ef d4 bd 9d e4 e7 bc
       -0.02469496 -0.11096548 -0.10397175 -0.028307253
000200 7a f6 6d 3d 62 78 a4 3d ee cf f8 bc ea 99 a1 bc
       0.058096386 0.08030774 -0.030372586 -0.019726712
000210 34 03 c9 3d 7b e0 9d bd 13 93 c2 3d 40 05 f3 bd
       0.09815064 -0.07708832 0.095007084 -0.11866236
000220 cd 28 6d bd 5e 4f 2d 3d 16 74 12 be 6b a3 89 bd
       -0.05790024 0.04231202 -0.14302096 -0.06720623
000230 f8 80 d1 bc 7e 88 c0 3d 9c 6f ef bd 79 64 7f bc
       -0.025574192 0.09401034 -0.1169121 -0.015587919
000240 4f ba 97 bd 55 fd d8 3d 92 b0 a3 3b 25 f9 a4 3d
       -0.074085824 0.10595194 0.004995414 0.08055333
000250 a7 98 03 3d 5b ad 73 3d 0b 03 9d bd 38 2f b8 bc
       0.032128002 0.059491497 -0.07666596 -0.022483453
000260 a8 5a f9 3d 1e 55 c9 3d c3 48 07 be 4a 1d 3a 3d
       0.121754944 0.09830688 -0.1321135 0.04543809
000270 f8 35 dd 3d 04 a3 35 bc ac 66 f5 3d 61 31 bf bd
       0.10801309 -0.011086229 0.11982474 -0.0933559
000280 06 0c a7 bd 09 9c f2 bd e1 5e 5b bd 13 25 27 bd
       -0.0815659 -0.118461676 -0.05355728 -0.04080684
000290 fc 3b bd 3d d5 05 59 3d 77 16 f8 3d 68 16 e1 bd
       0.09239957 0.052984077 0.1211366 -0.10990602
0002a0 0d 73 62 3d af fe 0b 3e 3a d4 a5 3c 64 1d 07 be
       0.055285502 0.13671373 0.0202428 -0.13194805
0002b0 94 bc fc bd 17 f3 b2 bb 33 27 85 3c 88 c1 12 3e
       -0.12340656 -0.0054611075 0.016254043 0.14331639
0002c0 9c e9 5b bd 3f 1b 33 3c 81 c4 ca 3d e8 f0 85 3d
       -0.053689584 0.010931789 0.099007614 0.0654009
0002d0 44 b1 e3 3d 65 42 e4 3d 4d 7c fe 3d a3 56 62 3d
       0.11117795 0.11145476 0.12426052 0.055258404
0002e0 82 91 c9 3b 93 d5 0d 3d c1 9a 65 bd d9 d4 6a 3d
       0.006151379 0.03462751 -0.056055788 0.057331894
0002f0 7a de 84 3d 0a 75 6e bc 9d 47 f1 bd d1 1f 62 3d
       0.064877465 -0.0145542715 -0.11781237 0.055206124
000300 4b 0c 20 3e f0 b7 bd bd 80 14 f7 bd 39 6e 42 bd
       0.1562969 -0.09263599 -0.12064457 -0.047468398
000310 86 fd da 3d 91 86 91 bd 9c 57 d0 bc 2c 95 82 3c
       0.10692887 -0.07105745 -0.0254324 0.015940271
000320 f5 bd e8 3a 2a ff e5 bd 9c fa d2 3d 7c 4d 2d 3d
       0.0017756807 -0.11230309 0.10301706 0.042310223
000330 83 2f 04 be 35 17 42 bd 23 2c f2 3d 3d b5 16 3e
       -0.1290875 -0.047385413 0.11824825 0.14717574
000340 c5 f0 74 bb fe f1 7a 3c dc 79 ff 3d fa b8 ca 3d
       -0.0037374955 0.0153164845 0.12474415 0.09898563
000350 7f ce 3a 3d ff b9 e4 3d 6b ae e3 3d ff c3 cd 3d
       0.045607086 0.111682884 0.11117252 0.10047149
000360 c8 4c 20 bd 82 52 0a 3d 0c e9 c1 bd 58 cd 4f bd
       -0.039135724 0.03377009 -0.09468278 -0.05073294
000370 25 92 0a bd f5 6f cb bd e7 b1 00 bc ad 4c e2 3d
       -0.03383078 -0.099334635 -0.007854915 0.11049781
000380 16 c4 51 bd ab c4 d5 bd 92 59 a9 bd 21 a4 c4 bd
       -0.051212393 -0.10437902 -0.08269037 -0.096016176
000390 85 17 ff bd 3b 11 ad bc 2c a9 df bd 53 10 9b bd
       -0.12455658 -0.02112638 -0.10920939 -0.07571473
0003a0 77 51 d7 3d 35 0d 15 3d 4e d1 9c bd 78 00 6b bc
       0.10513585 0.03638955 -0.07657109 -0.0143433735
0003b0 41 9b 10 be 8e 28 65 bd a0 3b f0 bd 31 06 03 be
       -0.14121725 -0.05594688 -0.117301226 -0.1279533
0003c0 c8 b3 ca 3d 94 d9 f8 3d 95 9d 02 3e db 2d f4 3d
       0.09897572 0.12150875 0.12755425 0.11922809
0003d0 9d ca b7 3d 47 eb dc bb 85 95 6b bd da 66 c5 bd
       0.08974192 -0.0067419144 -0.05751564 -0.09638758
0003e0 d9 d6 71 3d 0f 0d f8 3c 3e 70 34 bd b6 78 e1 bd
       0.059042785 0.030279664 -0.044052355 -0.11009352
0003f0 56 3e 17 be b6 74 c0 bd ce e1 c2 3d eb b0 0e be
       -0.14769873 -0.09397261 0.09515725 -0.13934676

encoder.layers.0.self_attn.in_proj_bias f4 [192]
000000 69 8a 39 bb a3 27 bb 3b 4f ea 86 3c 1a 07 56 3c
       -0.0028311259 0.005711512 0.016469149 0.013063217
000010 d4 7a 53 bb a6 55 b7 3b 28 c4 2b 3c 31 39 a9 bb
       -0.0032269256 0.005594927 0.010483779 -0.0051642885
000020 e0 de be 3c ca 07 81 bc 8e 65 5c bc 3c de c4 bb
       0.023299634 -0.015750784 -0.013451947 -0.0060079377
000030 2e 3f d7 bb 5d f6 c8 bb 18 a5 92 3c f2 a1 d7 3c
       -0.006568811 -0.0061328844 0.017900988 0.026322339
000040 2b bc ca 3c 48 75 c2 3c 39 ca 41 bc 2f 51 86 3b
       0.024747929 0.023737565 -0.011827999 0.0040990333
000050 93 ef 54 bd 09 00 f3 bc 3b 55 77 3d 3f d4 64 3c
       -0.05198629 -0.029663103 0.060384016 0.013966619
000060 1e f0 c3 bc 64 25 3b 3c 4a ea fa bc 7e 28 23 bc
       -0.023918208 0.011422489 -0.030629296 -0.009958385
000070 22 9a 9a 3b c5 12 36 3c 47 6f 8e 3c 53 a9 f3 bb
       0.004718081 0.011112873 0.017387046 -0.0074359565
000080 f1 77 c4 3b 81 87 9d bc ee bd 6d bb 0d 1f 88 3c
       0.0059957434 -0.019229652 -0.0036276537 0.016616369
000090 42 c7 0f bc 45 a0 85 3b b3 72 9c 3c 46 6c a4 bc
       -0.008775534 0.0040779435 0.019097662 -0.02007116
0000a0 68 ce a4 bc c9 4c 4a 3c 18 0d 9b bb de ee 3a bc
       -0.020117953 0.012347409 -0.0047317855 -0.011409489
0000b0 c3 f8 4d bc 4d f3 05 3d 64 bc 2c bc 1e 66 10 bc
       -0.012571516 0.032702733 -0.010542963 -0.008813409
0000c0 f1 0c f2 bb 0b cc b3 3c d7 43 04 bc 62 21 cf bc
       -0.0073867966 0.021947881 -0.008072815 -0.025284473
0000d0 98 9e f1 bb 2c c9 59 bc 3f f4 0f 3d 58 e1 4d 3c
       -0.007373642 -0.013292592 0.03514504 0.012565933
0000e0 1d cd 3d 3d b0 ce 55 bc 33 1b 8e bb 1b 39 cf bc
       0.04633819 -0.013049766 -0.0043367385 -0.025295785
0000f0 8a 43 fb bb c2 99 c0 bc e7 e4 d2 3c 4d 19 5c bc
       -0.0076679634 -0.023510817 0.025743915 -0.013433767
000100 62 eb d9 3a 7e 63 32 b9 66 a1 2c bb 4d fd 50 bb
       0.0016625936 -0.00017012467 -0.0026341318 -0.003188926
000110 70 d6 b7 3a 22 d1 e4 36 54 b6 b8 ba ae 65 78 39
       0.0014025699 6.8192758e-06 -0.0014092424 0.00023689002
000120 c7 27 4a bc 3e 56 05 3b 74 ec ca 39 d9 4b d6 b9
       -0.012338585 0.0020345594 0.00038704614 -0.00040873772
000130 74 26 97 b9 aa 9d 9a bb aa 0a d9 b9 11 88 0d bb
       -0.00028829614 -0.004718502 -0.0004139741 -0.0021595994
000140 42 ed 01 be 2c 7c 1c bd a5 50 70 bc cc 4e 1f bd
       -0.12688163 -0.038204357 -0.014667665 -0.038893506
000150 e0 f8 12 3e 73 85 da 3d f9 4e 1d be 48 47 84 bd
       0.14352751 0.10669985 -0.15362157 -0.06458908
000160 9c 6d 11 3c 87 63 12 bb d9 12 31 3b eb 13 fe 3a
       0.008876231 -0.0022337155 0.002701929 0.0019384598
000170 7b 82 e5 b9 3a 20 84 ba 16 a1 88 bb a1 43 40 3a
       -0.000437755 -0.0010080405 -0.0041695936 0.0007334296
000180 bb 08 c4 b9 74 7a 46 39 34 ee 15 ba b7 c4 70 bc
       -0.00037390538 0.00018928369 -0.0005719394 -0.014695338
000190 d0 a5 69 3b 2a fa 04 bc 0c c9 8f ba 7b ce 88 3b
       0.003565181 -0.008116284 -0.0010969951 0.004175005
0001a0 62 b5 02 3b 09 cf 4d bd 17 22 20 ba e5 a3 90 39
       0.0019944538 -0.050246272 -0.00061085954 0.0002758793
0001b0 0e 63 07 38 63 62 ee 3b 3f 00 81 ba 8e 0a 08 bb
       3.227876e-05 0.007274912 -0.0009841992 -0.0020758244
0001c0 44 63 a6 bb 3c 1d 8f bc d5 ea b1 3a 51 94 12 3c
       -0.0050777514 -0.017469995 0.0013574014 0.008946494
0001d0 7c f9 b1 39 cd 75 d0 3b a4 c9 75 bc 02 5a 59 ba
       0.0003394595 0.006361699 -0.015001688 -0.0008291305
0001e0 39 2e 5d 3e 92 28 e0 ba 8a 44 ba ba e0 9d 21 be
       0.21599664 -0.0017101935 -0.00142111 -0.15782881
0001f0 b7 1e 80 bd 73 66 21 be f2 a1 41 3e fe d6 98 bb
       -0.062558584 -0.15761738 0.18909433 -0.004664301
000200 9b b6 07 bc ee 1c 44 3b ed 03 25 bc 81 60 29 3c
       -0.008283283 0.002992447 -0.010071737 0.01033795
000210 07 2e 87 3c d2 ea a4 3c d8 80 db 3c 38 fc 84 3a
       0.01650144 0.020131502 0.026794836 0.0010145968
000220 53 e1 03 38 70 02 39 38 5d 90 41 3b 8a 23 78 3b
       3.1442683e-05 4.4109707e-05 0.002953551 0.003786298
000230 bd c6 86 3c 52 19 a2 bb d5 73 07 bc f1 c2 99 bc
       0.016452188 -0.004946866 -0.008267363 -0.018769713
000240 34 b7 37 3b 73 eb 84 bb bb 96 7c bc 49 d0 ea 3d
       0.0028032782 -0.004056388 -0.015416796 0.114655085
000250 4a e4 c4 bb 9e 3b c7 3b 74 4d 39 bd c3 55 6c bd
       -0.0060086595 0.006080105 -0.04523988 -0.057698976
000260 55 20 ea bb fe 77 b6 3a d5 24 a8 bc 75 8e 00 3c
       -0.0071449676 0.0013921259 -0.020525375 0.007846464
000270 ed 48 4a ba 8f 23 7f bc 7b e8 fb 3b 0e 5c f6 bc
       -0.0007716555 -0.015572443 0.007687626 -0.030073192
000280 25 94 62 bc 2b d9 05 3c 00 9b 1d 3c 26 d7 98 3b
       -0.013829266 0.008169453 0.009619474 0.0046643196
000290 e9 f4 ec 39 62 50 6e 3c 99 d0 67 3c 57 49 64 bc
       0.000451959 0.014545532 0.014148855 -0.013933501
0002a0 38 10 2d 3c 67 c4 19 3c c7 a1 ea 3b f0 f8 13 bc
       0.010562949 0.009385205 0.0071603986 -0.009031519
0002b0 b2 c0 a2 3b 7d 9b 96 bc 52 c9 43 3b f7 61 bd bc
       0.0049668187 -0.01838469 0.0029874635 -0.023118002
0002c0 d2 8a 0c 3b 13 e7 c9 bc b8 aa e8 bc 01 03 b9 38
       0.0021445048 -0.024646318 -0.028401718 8.822047e-05
0002d0 15 e4 b4 38 d2 4c 41 bc e9 bf 5b 3c d0 7e dc bc
       8.6255524e-05 -0.011798101 0.013412454 -0.026915938
0002e0 ea fe 21 3c d7 31 1c 3b d3 4e 0f bd d9 5a 7e 3d
       0.009887436 0.0023833418 -0.034987282 0.062098358
0002f0 e5 62 e6 bb 33 22 7c 3c 84 6c 31 bd dd ca f7 3c
       -0.007030832 0.015389013 -0.04331638 0.0302481

encoder.layers.0.self_attn.out_proj.weight f4 [64, 64]
000000 b8 d1 88 3d 8e 12 cd bc 1d ef 10 be c0 b8 d5 3a
       0.06680626 -0.025033262 -0.14153714 0.001630567
000010 f5 0e 88 bc 4c b2 94 3d a5 c5 fd bd db 72 aa bd
       -0.016608695 0.0726057 -0.12391213 -0.08322688
000020 de e3 3d be 8b 51 50 3d c3 24 5f bd 34 70 98 3d
       -0.18543956 0.050859015 -0.054478418 0.07443276
000030 09 db 6d bc 42 a2 8e 3c d4 a8 14 bd c7 55 0d 3d
       -0.014517554 0.017411355 -0.03629382 0.03450563
000040 53 67 e9 bc 02 a0 2a bd 08 56 9a 3c 00 ae 35 be
       -0.028491652 -0.0416565 0.018839851 -0.17742157
000050 db a6 32 3c cc bd fc 3a 07 0b 9f 3d 90 30 79 3d
       0.010904039 0.0019282638 0.07765775 0.06083733
000060 73 f4 77 bc c0 a6 4f bd 81 fd 2f 3e 14 19 46 3d
       -0.015133965 -0.050696135 0.17186548 0.04836376
000070 4c d7 6c bd 4b e5 9a 3c 6f 4e 44 be c0 4b 46 bd
       -0.05782251 0.018908164 -0.19170545 -0.048412085
000080 ae 1d c5 bc 2d fa ba bc 57 e3 83 3d bb 00 bf bd
       -0.024062004 -0.022824371 0.06439846 -0.09326311
000090 e7 fa 51 3e bd 33 1d 3e fc 2a 14 bb 4b bf e9 bc
       0.20505868 0.15351768 -0.0022608628 -0.028533598
0000a0 78 32 fa bc 06 6f a4 bd 48 fa 0c bd 3d 7b df 3c
       -0.030541644 -0.080289885 -0.034418374 0.027280444
0000b0 f4 07 f7 3d 9e 53 14 3e d9 de c7 bd 54 e0 25 bd
       0.12062064 0.14485022 -0.09759302 -0.04049714
0000c0 d3 cf 34 bc 9e d2 2c bd 51 7d e1 3c 5f f9 82 bd
       -0.011035877 -0.042193048 0.027525576 -0.0639522
0000d0 14 71 f6 bc ec 93 6c 3d 9d e9 ac 3d 43 10 6a 3d
       -0.030083217 0.057758257 0.08442996 0.057144415
0000e0 cb 05 75 bd 47 d2 09 3d 59 30 75 bd 3a da 16 3d
       -0.059819978 0.0336478 -0.05986056 0.03682921
0000f0 7d 97 42 3d b7 1e c5 bb ed 51 74 be 3f 60 61 3d
       0.04750775 -0.0060156244 -0.23859377 0.055023428
000100 e8 02 01 bc 6f 5c 67 3d 77 44 61 bd b5 87 64 bd
       -0.007874228 0.056484636 -0.054996934 -0.055793483
000110 8f 61 82 bd 8b 4e 66 bd c7 4f f1 39 9e 30 a3 bc
       -0.06366264 -0.05622725 0.0004602654 -0.019920643
000120 99 61 06 3d 5a a1 94 bd 06 2f f6 3c 91 73 a5 bc
       0.03280792 -0.07257338 0.03005172 -0.020196708
000130 97 24 d2 bc bd c3 44 bd 64 65 1a 3d 45 45 08 bc
       -0.025652213 -0.048038233 0.03769435 -0.008317296
000140 66 50 8c 3c 8e d1 5e 3c d2 0b 4d bd 75 ed 87 bd
       0.01712818 0.013599766 -0.0500601 -0.06637088
000150 6a f5 9f 3b f8 07 05 bc ac 36 2a 3c 45 f7 09 bd
       0.0048815506 -0.008119576 0.010389011 -0.03368308
000160 2f f1 30 bd 3a 1c 57 bd 36 e3 e5 3c da 67 47 bd
       -0.04319876 -0.052517153 0.028062444 -0.048683025
000170 58 e5 d9 39 5b 30 81 3c 38 1c 0d bd 72 94 fb bb
       0.0004156034 0.015770128 -0.03445074 -0.007677608
000180 5f 88 90 3c 42 77 be 3c f2 59 09 bd 85 e9 5a 3d
       0.017643152 0.023250226 -0.033533044 0.053445358
000190 09 8f 12 bc 34 fd 44 3d de 9a 80 bd eb b7 a4 bc
       -0.008945235 0.048093036 -0.062795386 -0.02010723
0001a0 39 6d 9a bd 79 a1 80 3d 14 73 cb bc 05 01 70 bd
       -0.07540364 0.062807985 -0.024835147 -0.058594722
0001b0 24 38 93 3d 92 fb dc bc b1 1d 7d 3c 47 a2 57 3c
       0.07188442 -0.026975427 0.0154489735 0.0131612485
0001c0 81 03 42 3d d9 d6 22 bd 79 fb 28 3c c8 02 63 bc
       0.047366623 -0.039755676 0.010313862 -0.013855644
0001d0 71 5d f9 bc 4e 89 90 bc 09 59 1a 3d bd b0 35 bb
       -0.030440064 -0.017643597 0.037682567 -0.0027723752
0001e0 1c 42 e5 bc dc 58 90 3d 65 8a a4 bc b4 60 7f 3c
       -0.027985625 0.070481986 -0.020085523 0.015587021
0001f0 f4 db df 3d f1 fd 9e bd d0 6d 50 bd 8e 1f 0f 3d
       0.109306246 -0.07763279 -0.050885975 0.034942202
000200 e4 a6 85 3c a9 5d 0e bb 28 38 0a be 1e 23 5f 3d
       0.016314931 -0.0021723306 -0.13497984 0.05447685
000210 70 28 5c bc 0d dc f7 bb 2b 1b a0 3d 56 5e 19 bc
       -0.013437375 -0.007564074 0.07817682 -0.00936087
000220 3f e6 cf 3c 15 77 79 3d c1 42 a4 bc b9 21 24 bd
       0.025378345 0.06090458 -0.020051362 -0.040071223
000230 38 dc ec bc 36 2a 8d bc dd cb bc 3c c7 30 02 3d
       -0.028913602 -0.017232042 0.023046428 0.0317848
000240 aa 33 79 bb 60 d7 00 bd b4 66 ad bd 06 9f 08 3c
       -0.003802518 -0.031455398 -0.08466855 0.008338695
000250 74 b9 0a 3d 01 cd 2e bd fa aa 15 3d f5 2c 05 3d
       0.033868268 -0.042675976 0.03654001 0.032513577
000260 42 62 6d 3d 15 b8 a2 bd 7a 58 39 bb 0b 23 ef 3b
       0.057955034 -0.07945267 -0.0028281496 0.0072978786
000270 17 5c 60 3b 1d 61 e8 3c d7 b6 2d 3d bf bf 3c b8
       0.0034234577 0.02836662 0.042410698 -4.500127e-05
000280 7e 47 80 3d 30 71 0f be 9d bd 89 3d 65 51 cf bd
       0.06263636 -0.14008021 0.06725619 -0.10122947
000290 d7 c9 3a bd 2b a2 7a bd 1b 6e 6b 3d 90 4a d3 3c
       -0.045602646 -0.06118981 0.05747805 0.02579239
0002a0 bd f7 57 3d 5f 89 6b 3d c0 3e 11 3d fa c1 9d bd
       0.052726496 0.057504054 0.035460234 -0.07703014
0002b0 d7 9e 20 3c 19 0a 69 3c cd 18 8c 3d 5d 65 f2 bc
       0.009803495 0.014223599 0.06840668 -0.02958935
0002c0 ba 48 85 3b 26 32 81 3a 52 b1 c4 3c 22 7a 02 3d
       0.0040675076 0.0009856864 0.024010334 0.031854756
0002d0 a6 7c dc bd 7e b8 53 3d b3 cc 4e 3d eb c5 9a 3d
       -0.10765962 0.051689617 0.050488185 0.07557281
0002e0 56 32 c6 3c 8c b6 39 3d 45 25 27 3c 3f 28 53 3c
       0.024193924 0.045340106 0.010201757 0.012888013
0002f0 83 99 c8 3d f0 7b 4e 3d a8 c7 12 3c ea 13 da bc
       0.09794905 0.050411165 0.008958735 -0.026620824
000300 e9 7f c8 ba dd cc 38 bd ff e8 7a bc af 88 40 bd
       -0.0015296909 -0.045117248 -0.01531434 -0.04700535
000310 4d ae 99 3d e4 92 c9 3c 57 e6 6d 3d 23 25 60 bd
       0.07503948 0.024606176 0.058080997 -0.054722916
000320 c5 d1 db bd 9b 0d 93 bc a7 0f 11 3d bd 37 57 bd
       -0.1073337 -0.017950824 0.035415318 -0.05254339
000330 2c c7 70 3d 18 50 bb 3d 2b 2d 8f 3c 09 48 f4 3d
       0.058783695 0.09146136 0.017477592 0.11927802
000340 88 53 13 3d f6 55 14 3b a8 0a 3a bc d3 88 5f 3e
       0.035968333 0.0022634245 -0.01135508 0.21829538
000350 93 12 80 bd fa 03 18 3d b1 75 12 be 44 75 00 be
       -0.06253543 0.037113167 -0.14302708 -0.12544733
000360 8c 22 1e 3d d6 28 39 bd 06 95 18 bd ae 60 79 bd
       0.038607165 -0.04520496 -0.037251495 -0.060883217
000370 56 31 07 3e 41 12 bc bc 2f f0 23 be d1 50 5f 3d
       0.13202414 -0.022957923 -0.16009592 0.054520432
000380 b2 aa 21 bd 0b 46 1e bd 12 08 b6 3c c8 2b ed bd
       -0.03946943 -0.038641017 0.022220645 -0.11580616
000390 4e a3 35 3d c8 18 93 39 46 a3 71 bd 81 73 c6 bb
       0.044345193 0.00028056488 -0.0589936 -0.0060562496
0003a0 e1 66 e7 3d 24 7b 00 be c1 ab b5 bd 05 9b ab 3d
       0.112989195 -0.12546974 -0.0887065 0.08379177
0003b0 86 29 2a 3e bb 78 1e 3e 1a e4 c0 bd f8 66 e8 bc
       0.16617402 0.15475743 -0.09418507 -0.028369412
0003c0 f3 4d 19 bb dc a7 11 be 37 09 80 3b 02 3f b1 bc
       -0.0023392409 -0.1422419 0.0039073485 -0.02163649
0003d0 16 98 9f 3d 5f cd ca 3d f7 50 89 3c 87 ed 3d 3d
       0.0779268 0.09902453 0.01676224 0.0463691
0003e0 a6 86 cb 3c a6 49 14 3d 9c 15 3c bd 80 52 a7 3d
       0.024844479 0.03620305 -0.045919046 0.081700325
0003f0 9a 23 d6 3d 3d 31 72 bc d2 22 e5 bd 8b 6c 62 bd
       0.10456009 -0.014782247 -0.11188282 -0.055279296

encoder.layers.0.self_attn.out_proj.bias f4 [64]
000000 ba 10 1f bd 48 5b 68 3c 43 01 2d 3d fe ab 08 bd
       -0.03883431 0.014181919 0.04223753 -0.03336715
000010 94 b8 4e 3b cd 19 1f bd 47 ba 56 bd ca fe 4c bd
       0.0031543123 -0.038842965 -0.05242374 -0.050047673
000020 2e ea 25 3c ee c7 55 3d 1b 40 27 3d d7 f9 37 bd
       0.010126634 0.05219262 0.04083262 -0.044916
000030 ea e6 da bb 3e 20 87 bc cd 33 20 bd 61 6a 14 bd
       -0.006680359 -0.016494866 -0.0391119 -0.036234263
000040 3c 29 3f bd 5e 9b b2 3c 00 67 db 3c 02 3a e0 3c
       -0.046670184 0.0218026 0.026782513 0.02737141
000050 3e 05 1c 3d 01 f8 23 bb 14 39 77 bc 82 2c 54 3b
       0.038090937 -0.0025019648 -0.015089292 0.0032375162
000060 48 0e 6b 3d 33 d5 bc 3c 5b 07 2e 3d 93 fd b5 3c
       0.057386667 0.02305088 0.042487483 0.02221564
000070 73 fb 0b 3d f5 82 4b 3d 18 54 18 bb ac 66 b6 3c
       0.034175348 0.049685437 -0.0023243483 0.022265755
000080 a4 d4 eb 3c e4 46 70 3d 4f 35 33 bd 08 03 b7 bc
       0.028787918 0.058661357 -0.04375201 -0.022340313
000090 8a 24 7d bc 3b b7 09 bd 0c ba 9f 3b 17 96 55 bc
       -0.015450606 -0.033622008 0.0048744734 -0.0130362725
0000a0 5e 83 0f 3d 4c cf 10 bc ab 1c 09 3d 65 d6 e7 bc
       0.03503739 -0.008838486 0.033474606 -0.028300473
0000b0 17 82 17 3d 8f 2b 15 bd c3 d3 40 bd 35 46 9b 3c
       0.036989298 -0.036418494 -0.04707695 0.018954376
0000c0 ef 7f d4 bc 0d 3f c4 bb a2 2c d3 bc fa 8b 72 3c
       -0.02593991 -0.0059889616 -0.025778119 0.014803881
0000d0 8f bb 40 3c e7 8a bc 3c 53 56 27 3c 16 5a 0c bd
       0.011763467 0.023015453 0.010213452 -0.0342656
0000e0 4d 87 12 3c 37 94 15 3d 26 b4 62 bc 8e 34 be 3c
       0.008943391 0.0365183 -0.013836896 0.02321842
0000f0 99 28 0c 3c ca e0 87 bc d2 49 f5 3c 54 43 a4 3c
       0.008554601 -0.01658668 0.029942427 0.020051636

encoder.layers.0.linear1.weight f4 [128, 64]
000000 c3 10 f3 3d 4f b4 bb bd 91 a4 49 bc 57 48 64 bd
       0.118684314 -0.091652505 -0.012307302 -0.05573305
000010 cb 87 94 bd bf 51 be bc 21 ff 08 be ee 17 13 bb
       -0.07252463 -0.023232339 -0.13378574 -0.0022444683
000020 76 e0 a1 bc 79 cd 03 be 2c 7e 94 bd a5 4a 94 bc
       -0.019760352 -0.1287135 -0.07250628 -0.018102
000030 79 14 5f bd 0d 7a 08 3d 91 60 bb bc e1 11 1e 3d
       -0.054462884 0.03331952 -0.022873195 0.03859127
000040 db dd 0f 3d 0b e7 58 3d e5 90 ed bc 5b e7 7a 3c
       0.035123687 0.052954715 -0.028999755 0.0153139485
000050 9f 00 d4 3d fa 04 cf 3d f9 48 83 bc 33 f0 ca bc
       0.10351681 0.10108371 -0.016026007 -0.024772739
000060 0b 49 ba bc 9c bb 42 3d cf ae 75 3d 51 13 02 3e
       -0.022739908 0.0475422 0.059981164 0.12702681
000070 9f 9b 09 be 0a 74 b0 bd 60 a9 74 bd aa e1 2e bd
       -0.13438271 -0.08615883 -0.05973184 -0.04269568
000080 39 b2 c7 3d 55 a5 b7 bd 03 dd aa 3d b3 54 15 3e
       0.0975079 -0.089670815 0.08342936 0.14583091
000090 92 fe 8b 3d 96 cd 48 3c 38 35 92 bd 4f 55 b5 bd
       0.06835665 0.012256047 -0.07139057 -0.08854162
0000a0 93 87 9f 3d 69 2d 49 bd 2a 52 fd bd 08 21 05 3e
       0.077895306 -0.049115572 -0.12369187 0.13000882
0000b0 d5 d8 a2 bd 1c f9 43 bc d7 be 2d bd 33 4c 93 3c
       -0.07951514 -0.011961248 -0.042418327 0.01798067
0000c0 12 3a e3 bd 5f f9 e3 bd a0 98 f1 3d a0 0e c4 bd
       -0.110950604 -0.11131548 0.11796689 -0.09573102
0000d0 b3 04 cb bd f2 d8 ec bd 6a b1 bd bd d9 b9 d4 bd
       -0.09913006 -0.115648165 -0.09262355 -0.1038701
0000e0 92 ef e2 3c ab 01 1f 3e 62 8f 0f bc 4f f1 4c bb
       0.027702127 0.1552798 -0.0087622125 -0.003127176
0000f0 9a d5 39 be 8a 86 5e bd cf 1b 7a bc ea 7a 24 3d
       -0.18147889 -0.054327525 -0.015265419 0.040156282
000100 18 0a e5 bd 61 66 0e be b5 cd d0 3c 75 7f 09 be
       -0.11183566 -0.13906242 0.025488714 -0.13427527
000110 c0 56 c3 be a9 85 67 be 34 6f 83 3d a9 3b b6 3d
       -0.38152122 -0.22609581 0.06417695 0.08898098
000120 16 b3 5c be 3e 95 c9 3c 32 65 4b bc d2 db 0c be
       -0.21552691 0.024607297 -0.012414264 -0.1375573
000130 3f 98 08 3d 9a b4 af b9 7c 34 12 3d b2 be 47 be
       0.03334832 -0.0003351316 0.035694584 -0.19506338
000140 4c 7d af 3c f3 75 31 be c0 49 5f bd 39 d8 0b 3e
       0.02142205 -0.1733015 -0.054513693 0.13656701
000150 bf a3 5c 3e f0 74 86 3e fb fb 91 3d 13 14 7d 3e
       0.21546839 0.2626109 0.071281396 0.24714689
000160 d3 40 61 3e e9 52 d6 bd 3e 53 4e bd 1b 87 cc bd
       0.21997385 -0.104650326 -0.050372355 -0.09986707
000170 25 51 ef bd bf 15 ef bd fb 86 c7 bd 99 69 67 3e
       -0.11685399 -0.116740696 -0.09742542 0.22598876
000180 e8 a7 2e 3e 97 d2 f5 3d 77 bb 92 bd e0 f7 2f 3d
       0.17056239 0.120030575 -0.07164662 0.042961
000190 ad 9f 49 3d 38 4a 37 be 0a af 45 bd 20 17 53 3c
       0.049224544 -0.17899406 -0.048262633 0.012883931
0001a0 d4 bc 64 3e 78 fc 51 ba a5 c2 b3 3a 35 8b 29 bd
       0.22337657 -0.0008010338 0.0013714625 -0.041392524
0001b0 71 68 9a 3e 33 e7 27 be d9 d2 94 3d cc 5b 81 3d
       0.30157807 -0.16396789 0.072667785 0.06316337
0001c0 8c ae 1c 3d 6e 97 d3 3d f9 c1 e5 3d 40 21 15 be
       0.0382524 0.10331617 0.11218638 -0.14563465
0001d0 e9 04 30 3e 4e 97 1f 3e 69 d5 a4 bc 1d 1c 10 be
       0.17189373 0.15585062 -0.020121293 -0.14073224
0001e0 19 e5 eb 3d 1a 6e a9 ba c1 cb 36 bc 16 bd 36 3e
       0.11518306 -0.001292649 -0.011156977 0.17845568
0001f0 51 e7 83 3d 7a 80 1f be 22 d5 58 bd d4 45 f9 3d
       0.064406045 -0.15576354 -0.052937634 0.12171522
000200 a8 91 3e bd 67 8a c0 bc bf 22 fe 3c 57 4f a7 3a
       -0.046525627 -0.023503495 0.031022428 0.0012764734
000210 5c 92 76 be e1 dd 9d 3d d1 2c 21 bd 32 29 19 3e
       -0.24079269 0.07708336 -0.03934938 0.14957121
000220 39 0f fb bd 53 a8 85 3d ae a5 22 3e ff 19 c2 3d
       -0.12258763 0.06526246 0.15883514 0.094776146
000230 42 6e 91 3c 90 6b b7 3d b3 65 60 3c 97 e1 24 3d
       0.01775277 0.08956063 0.013696122 0.0402542
000240 a8 a0 52 3d 35 05 08 be 0d 10 59 3d 2b 08 3d 3d
       0.051422745 -0.13283236 0.052993823 0.046150368
000250 02 8c 03 bd 12 ee a7 3b f3 1f 9a 3d a5 24 54 3e
       -0.032115944 0.0051248157 0.07525625 0.20717104
000260 3a 42 03 3e 4a 8c b9 bc 4f 68 8b bd 12 1b c9 bc
       0.12818232 -0.022649903 -0.06807005 -0.024549041
000270 d0 da b8 bd 73 90 c3 bb 2c 5a a4 3d 73 1b 4d be
       -0.0902611 -0.0059681474 0.080250114 -0.20030002
000280 c6 d3 52 3e f3 b9 ed 3b 2a 54 ad bd 69 6e 24 bc
       0.20588598 0.007254833 -0.08463319 -0.010036089
000290 c9 42 5e 3d b5 db de bd e4 08 7d 3d 08 0c 24 3e
       0.05426291 -0.108817495 0.061776057 0.16020215
0002a0 76 5c c1 3d 4e 7d 2a bd 38 14 80 3d e4 4b 02 be
       0.09441464 -0.041623406 0.062538564 -0.12724262
0002b0 7f 15 93 bd 0a 40 05 3d f7 d6 22 3d 11 1b ba 3b
       -0.071818344 0.032531776 0.039755788 0.005679496
0002c0 6c 54 19 bd 7a bf 2d 3e 7a 1c 13 3e c2 3b a5 bc
       -0.037434027 0.16967574 0.14366332 -0.020170096
0002d0 c0 0f 0a bd 68 a9 0e be 87 86 0d be 4b b6 8a bd
       -0.033706427 -0.13931811 -0.1382085 -0.06773051
0002e0 68 a9 e6 3d 5f 12 0c be 43 96 6d bc 5c 9a 90 bd
       0.112627804 -0.13678883 -0.014501157 -0.07060692
0002f0 0c 06 92 3b 47 ac b2 bb ac 6f 88 be 42 93 23 3e
       0.0044562872 -0.005452666 -0.266477 0.15974143
000300 ab d5 6e 3d 0d 99 5f 3d 47 76 02 be 2a ff ca bb
       0.05830924 0.05458932 -0.12740432 -0.0061949687
000310 8d 81 3b be 5b 3d a5 bd 45 5e 2f 3c 35 27 f9 3d
       -0.18311138 -0.08068343 0.010703628 0.12165681
000320 7e ad 1c 3d 8b 1b 86 bd de f4 01 bd 7d 0f 19 3d
       0.038251393 -0.06548222 -0.031727664 0.037368286
000330 e2 72 a8 bc 73 c0 2a bd 0d 5e d0 bd a9 46 0c 3c
       -0.020562593 -0.04168744 -0.10174189 0.008561769
000340 be b3 10 bd b7 a3 07 be 4c 99 e6 bd 6b 9e c2 bd
       -0.035327666 -0.13246046 -0.11259708 -0.09502872
000350 a0 4a 9c 3c 49 7e 4f 3d fb 8a f9 3d ee 7d 4e 3e
       0.019078553 0.050657544 0.121847115 0.20165226
000360 db 53 28 3e 64 d1 c3 bc 3b 29 e3 3d 2d 1d 00 be
       0.16438238 -0.023903556 0.110918485 -0.1251113
000370 86 71 67 bc f6 33 1e be 10 30 90 3d 23 8b c2 bd
       -0.014126187 -0.15449509 0.07040417 -0.094991945
000380 93 57 02 3c 10 36 f6 bd c2 ed aa bd f5 4c d7 bc
       0.00795545 -0.1202203 -0.0834613 -0.026281813
000390 5d 86 bc 3b f4 6a fd bd 47 f8 c3 3c a4 56 4c 3e
       0.005753322 -0.12373915 0.023922099 0.19954926
0003a0 8b 27 16 bc 2b 03 87 3b 9d 0e df 3c 64 80 8f 3d
       -0.009164701 0.0041202507 0.027228648 0.070069104
0003b0 02 21 d7 3d ff 12 3a bd 3f c1 33 bc 92 f4 ea 3d
       0.105043426 -0.045428272 -0.010971366 0.11472429
0003c0 2d d4 d6 3d bf 38 3e bd 5e 19 84 bd c2 7a f7 3c
       0.10489688 -0.046440836 -0.06450151 0.030209903
0003d0 f5 ce 8b 3d 00 f0 af bc 08 05 4d be a2 ed 39 bd
       0.06826583 -0.021476746 -0.2002145 -0.04539264
0003e0 84 f7 c2 3d c0 85 7a 3d 99 7f 81 3d 6c 9b d5 3d
       0.09519866 0.06116271 0.063231654 0.10430035
0003f0 1a 1f cd bc 4c 7a 33 be 19 bf e2 3d 02 56 f4 3d
       -0.025039244 -0.17527121 0.11071605 0.11930467

encoder.layers.0.linear1.bias f4 [128]
000000 09 47 05 be 51 5b d3 3d 95 d6 54 be 82 ba 06 bb
       -0.13015379 0.103201516 -0.20784982 -0.0020557945
000010 02 9d a3 bc 3e 4f 1f bd a1 fb 4a bd 6a 7d c4 bd
       -0.019972328 -0.03889393 -0.04955638 -0.09594233
000020 f9 f6 41 be 4b 17 f5 3c 56 08 45 be 8c 17 15 be
       -0.18941869 0.029918334 -0.19241461 -0.14559764
000030 9e e5 38 bd 3f d6 a5 bd 38 15 30 ba 1e 92 ae bd
       -0.045140855 -0.08097505 -0.0006717029 -0.085239634
000040 31 d3 89 3b 1d 4e 2a be aa fd 30 bd 05 b9 1a be
       0.004206084 -0.1663136 -0.043210663 -0.15109642
000050 50 a2 98 bd ef 39 8b 3d ee f7 dd 3d 1e d1 3d be
       -0.07452834 0.06798159 0.108383045 -0.18536803
000060 7c df d3 3d 35 f1 83 bd 53 d5 38 3d c4 fc d4 3c
       0.10345361 -0.06442491 0.045125317 0.025999434
000070 89 10 cc 3d df 19 fb bc 1b 77 ae 3d 3e 67 9a bd
       0.09964091 -0.030651985 0.08518811 -0.07539223
000080 b9 79 3a bd d1 ce cc bd 18 27 20 be 6b 3b 8f 3d
       -0.04552624 -0.100003846 -0.15639913 0.06993755
000090 41 f5 84 bd 92 a6 a2 bd a6 91 3f be e0 5d 00 3d
       -0.06492091 -0.07941927 -0.18707904 0.031339526
0000a0 09 e1 94 bd 82 1f 2b be 41 ce d8 bc 56 99 df 3d
       -0.072694845 -0.16711238 -0.026465537 0.109179184
0000b0 3a b4 83 b7 c3 ee 52 bd 02 43 32 3c 78 06 9d bd
       -1.5700341e-05 -0.051497232 0.010880234 -0.076672494
0000c0 d4 0b e8 bd fb 38 e5 bd 1e fa fc 3b b3 73 64 bc
       -0.11330381 -0.11192509 0.007720246 -0.0139436005
0000d0 53 86 31 be d5 2a a4 bc e5 b6 0f bd 6f 42 ae bd
       -0.17336397 -0.020039955 -0.03508653 -0.08508765
0000e0 be e0 02 be 8c c4 37 bc f9 1c 02 be 6e 8b 37 be
       -0.12781045 -0.011216294 -0.12706365 -0.17924282
0000f0 c0 f9 1f be 92 21 8f 3d bc f4 4a bd 03 f0 f4 bd
       -0.15622616 0.06988825 -0.049549803 -0.11959841
000100 1a ab 50 bd 02 a3 a6 bb aa f3 a6 3c 72 54 2e 3c
       -0.050944425 -0.00508535 0.02037986 0.0106402505
000110 42 30 db bd a2 5e 44 3d 93 bc 64 3d 75 1c c8 bd
       -0.10702564 0.04794181 0.0558439 -0.09771053
000120 96 ef f4 bb ec 25 01 3d 63 c7 75 3d 1c 7d 33 bd
       -0.00747485 0.031530306 0.060004603 -0.043820485
000130 42 48 29 be 9c eb 9f bd e8 a3 28 bd 50 ba 0e 3d
       -0.1653147 -0.07808611 -0.04117194 0.03484565
000140 fb 30 b7 bd 45 b6 27 be ea 2d 2c 3d 46 28 93 3d
       -0.08944889 -0.16378124 0.042035975 0.07185416
000150 3e ee 41 bc 0b 6a e8 bd 85 c0 28 bd e4 a9 69 3c
       -0.0118365865 -0.11348351 -0.041199226 0.0142616965
000160 af fb ba bd ed 97 40 3d c2 43 30 bd 62 2a 96 bd
       -0.09130036 0.047019888 -0.04303337 -0.07332303
000170 b1 48 c6 3c 29 be 25 be 4c 70 12 be dd f1 84 bc
       0.024204584 -0.16185822 -0.1430065 -0.01622861
000180 58 b3 34 bd 15 98 92 bd b0 6a 45 be 2b ab bd 3d
       -0.044116348 -0.071579136 -0.1927898 0.09261163
000190 43 df 56 bd 05 cd 0b be c0 55 4b 3d df 93 30 be
       -0.052459013 -0.13652427 0.049642324 -0.17243908
0001a0 01 37 37 3e ae af 05 be a0 36 4c bd 48 26 7c bd
       0.17892076 -0.13055298 -0.049856782 -0.061559945
0001b0 7a 28 5d 3d d0 14 09 bd b1 08 34 be 76 a0 9f bc
       0.05399368 -0.033467114 -0.1758144 -0.019485693
0001c0 34 de 32 3d 0f 7c 62 bd 0e 6e 8d bd c4 27 92 bd
       0.04366894 -0.055294093 -0.06905757 -0.07136491
0001d0 01 87 22 be 13 a2 49 bc 60 04 7b 3d dc 50 39 be
       -0.15871812 -0.012306708 0.06128347 -0.18097252
0001e0 61 52 04 be 88 c8 f6 bd 05 ed cd bd 7c 55 c1 bd
       -0.1292205 -0.12049967 -0.100549735 -0.09440133
0001f0 59 7e cb bd 8a d9 18 be 86 16 f3 bd 28 24 d7 3d
       -0.09936208 -0.14926735 -0.118695304 0.10504943

encoder.layers.0.linear2.weight f4 [64, 128]
000000 ee 09 1b bd 88 4e 75 bd 62 49 cf 3d 33 8a f7 bc
       -0.037851267 -0.059889346 0.101214185 -0.030217266
000010 da 24 22 3c c3 39 d1 3d 8f e1 13 bc 29 b8 f9 bb
       0.009896481 0.10216095 -0.009025945 -0.0076208306
000020 a6 68 a5 3d 8b e0 ad bd 7f 3f 9f 3d da b9 5f 3c
       0.08076601 -0.08490094 0.07775783 0.01365515
000030 7a 7d 2c 3e 96 11 b9 3b c2 e7 02 3c 97 0b 45 be
       0.1684474 0.0056478484 0.007989826 -0.19242702
000040 88 76 06 bd c2 60 24 3d c3 80 35 3d 87 ba 90 bd
       -0.032827884 0.040131338 0.04431225 -0.07066827
000050 59 eb 25 bd b1 8e 00 3d be dc 24 3c 80 41 9f bd
       -0.04050765 0.03138608 0.010062395 -0.07776165
000060 57 40 c8 be 7f 13 a2 bd fa 27 3d 3d 94 96 2d bb
       -0.39111587 -0.07913875 0.046180703 -0.0026487457
000070 b9 69 63 bd d9 f9 b7 3d 42 06 68 3b 17 7d 95 3b
       -0.055520747 0.089832015 0.003540412 0.004562031
000080 51 78 69 3d e9 93 97 bb f2 ea 8a bd c0 19 36 bd
       0.05699951 -0.0046257866 -0.067830935 -0.04445815
000090 5a 0f a7 3d 19 a8 e7 3c 15 bf 36 3d 44 8f 84 bc
       0.08157225 0.028278397 0.044615824 -0.016181596
0000a0 0d 7c 4a 3d a4 f3 65 ba 40 96 e4 3d 14 d9 c8 3d
       0.04943471 -0.0008771962 0.111614704 0.09807029
0000b0 8d db 81 3c be e6 9c be 71 1a 8e be 56 d6 26 3c
       0.01585176 -0.30644792 -0.27754548 0.010182938
0000c0 2a b5 03 3e c8 6f 1b 3e 97 a6 b9 3d 9e 8d ae bd
       0.12862077 0.1517936 0.090649776 -0.08523105
0000d0 1b 3c 06 3e e7 b3 8d 3d e3 8c 31 bc 5f 4c 6d 3b
       0.13108866 0.06919079 -0.010836813 0.003620885
0000e0 2f 8b d1 3d 5b 62 05 3d 71 6e 77 3d e5 c1 45 bd
       0.10231625 0.032564502 0.06040806 -0.048280615
0000f0 a7 13 b1 bd 38 39 9c bc 72 3d 3d 3e 09 21 f0 3d
       -0.086463265 -0.019070253 0.18480471 0.11725051
000100 cc 0d af bd b2 5f a1 3d ef 35 0f 3d 72 c2 ee bd
       -0.085475534 0.078795806 0.034963544 -0.11658181
000110 df 46 40 3d 23 14 15 3e b5 33 83 bc 71 b5 37 be
       0.046942588 0.14558463 -0.016015867 -0.17940308
000120 61 ec 59 3d ad 63 02 3d a9 7d 65 bd d4 9a f5 bc
       0.053203944 0.03183334 -0.056028042 -0.029981054
000130 21 a0 19 bd 07 de 94 be 90 58 3b bd 41 9a 12 3c
       -0.037506226 -0.29075643 -0.045738757 0.00894791
000140 b6 5e c6 3d 77 c4 c5 3c be 4a 28 3d c9 94 01 3d
       0.096860334 0.024141533 0.041086905 0.031636033
000150 57 19 02 bd 9d fc 2e be c0 b4 07 bd 79 e7 85 3d
       -0.031762447 -0.17088552 -0.03313136 0.065382905
000160 85 c7 61 bd 7d e5 18 3e 8d 34 f7 bb 72 72 d5 3d
       -0.055121917 0.14931293 -0.0075441063 0.10422219
000170 09 52 b6 bd 88 85 62 3d 57 ca 9c bc bb b7 f4 bc
       -0.08902366 0.055303127 -0.019139452 -0.029872766
000180 e8 9d 04 bd f3 22 a1 be 88 ea af 3d f2 64 75 3d
       -0.032377154 -0.31471977 0.08589655 0.059910722
000190 38 41 0f 3d e8 39 16 3d 45 91 2a 3d df 85 f0 bd
       0.034974307 0.036676317 0.041642446 -0.11744284
0001a0 1f ad 48 3e a7 a7 b2 3d 9f 61 cf 3c d6 ff af 3c
       0.1959729 0.087233834 0.025315104 0.021484297
0001b0 56 5e 93 be 3e 42 a3 b8 a2 21 6d bd 0c 03 a3 3c
       -0.2878291 -7.784784e-05 -0.057893403 0.019898914
0001c0 df 19 03 be 38 7f 12 be 2b f3 b0 3d 20 42 55 3b
       -0.12802838 -0.14306343 0.086401306 0.0032540634
0001d0 d2 55 6b 3d 46 a2 b2 bb 7f 3b 33 3d eb d3 24 3d
       0.05745489 -0.0054514734 0.04375791 0.040241163
0001e0 c8 b3 07 bc 6f 29 96 3c 40 55 9a 3d aa aa 5f 3d
       -0.008282609 0.018330304 0.075357914 0.054606117
0001f0 4d 82 a9 bc 65 3d cc 3d 00 4b 36 bd a5 a1 4f bc
       -0.020692015 0.099726476 -0.04450512 -0.012672816
000200 48 28 4c bb 61 c4 04 3e 32 55 2c 3d ff 27 ad bb
       -0.003115194 0.12965538 0.042073436 -0.005284309
000210 bc 8e 19 3c a7 34 af bd 3e 18 0a 3d 4f 7f 30 3d
       0.009372409 -0.085549645 0.033714525 0.04309016
000220 c5 0e d4 3c 2a 34 b8 3c 5d 61 07 be e3 45 63 bd
       0.025885949 0.022485811 -0.13220735 -0.05548657
000230 ab 34 50 3d 50 90 4f bd 75 bb 12 be a4 6e dc bc
       0.050831478 -0.050674736 -0.14329322 -0.026908226
000240 51 80 5d 3d 1e d4 1e 3d 3f 40 b6 bd 8f bf 8d bc
       0.05407745 0.03877651 -0.08898973 -0.017303256
000250 b0 48 1f 3e 00 d7 50 bd f8 f3 5f bd 43 02 e2 3d
       0.15555072 -0.05098629 -0.054676026 0.11035588
000260 b7 47 ef 3c ee a2 47 be ab 9e 78 bc 38 db 0f bc
       0.029209001 -0.19495746 -0.015174548 -0.008780293
000270 ff ad 54 be 52 8b 8e bc d2 75 03 bd e9 d9 88 3c
       -0.20769499 -0.017400417 -0.032094784 0.01670547
000280 23 c2 ad bb d8 35 7f bc ce 6d ef bd 88 9b 26 bd
       -0.005302684 -0.015576802 -0.116908655 -0.04067567
000290 d6 dd 79 be e7 97 1b be bd a3 85 bc 37 c1 c1 3d
       -0.2440103 -0.15194665 -0.016313428 0.09460681
0002a0 7b 76 a8 bd 6c 68 4b 3d ce a9 82 3d 76 73 34 bf
       -0.08225723 0.04966013 0.06380044 -0.7048868
0002b0 69 2d df bd 8b 25 0d be 8c 3e fa bd 1f 57 1e be
       -0.10897333 -0.13783853 -0.12218961 -0.15462922
0002c0 c3 31 91 bc cf 3d 9d 3d 1b 33 d7 3d 63 3c 79 be
       -0.017723924 0.07677805 0.105077945 -0.24339442
0002d0 58 8e d4 3d 0c b0 40 bc 0a b8 35 bd b4 4d 8d 3d
       0.103787124 -0.011760723 -0.044364966 0.06899586
0002e0 a7 2e 12 3e 0b 59 d9 3e b5 44 bb 3c ed 27 db 3d
       0.14275609 0.42450747 0.02285991 0.107009746
0002f0 3a f4 d0 bd c4 69 e0 bd 2b c4 4d bd e4 32 5b 3d
       -0.102028325 -0.10957673 -0.05023591 0.05351533
000300 89 92 19 bd fc b0 6b 3d 61 30 fe 3d f8 e3 2b 3d
       -0.037493262 0.057541832 0.12411571 0.041965455
000310 d8 ce b2 3c 3c 52 80 3b 19 dc 1e bc ed ac d0 3d
       0.021827146 0.003916053 -0.00969603 0.10189233
000320 e9 29 5f 3d 06 55 22 3d 60 36 fb bd 16 fa 89 3d
       0.054483328 0.039631866 -0.122662306 0.06737153
000330 bf 93 e4 bc 0d be 6f 3d 2f 34 89 bd ef 52 7d bd
       -0.027902482 0.058530856 -0.06699406 -0.06184667
000340 87 85 07 3e d3 9d ea bc d8 89 8a 3b 54 a0 8c bd
       0.1323453 -0.02863971 0.004227858 -0.06866518
000350 9b 55 a9 bd 0b 67 ac bc b8 f8 a3 3d a0 bc b2 3d
       -0.08268281 -0.021045228 0.08006424 0.087273836
000360 ab 13 8c 3d cb f5 08 3d 5a d6 b8 3d 63 a5 75 3e
       0.06839689 0.03343753 0.09025259 0.23988871
000370 16 34 b1 3c 53 8a cc 3d f9 ed 0d be bb 64 05 be
       0.021631282 0.09987321 -0.1386031 -0.13026707
000380 b9 51 fa be 1a 97 b9 be 04 74 3c 3e 64 c5 cc 3d
       -0.48890474 -0.36248094 0.18403631 0.09998587
000390 d4 41 ce 3c 04 66 0c 3b 18 2b 91 3d 1e 44 a9 3e
       0.025177874 0.002142311 0.070882976 0.33059782
0003a0 eb 28 81 3e be 4b 3c bd e9 b9 be be 27 cb 60 bd
       0.2522653 -0.04597067 -0.37251213 -0.05488124
0003b0 2d 0d b2 3d aa 91 38 3e db b2 9b 3d 51 8d 6e 3d
       0.08693919 0.18024316 0.07602473 0.05824024
0003c0 d9 38 85 3c b7 8f 48 bf dc fb 0d 3c a7 bc 0e 3d
       0.016262459 -0.7834429 0.008666005 0.03484788
0003d0 b1 32 43 be f5 93 cb bc 13 0a 50 bd 22 11 98 bd
       -0.19062306 -0.024850825 -0.050790858 -0.07425143
0003e0 21 f2 19 3e 5c 71 df bd e5 21 8f bc 2f f0 f5 bc
       0.15033771 -0.109102935 -0.017472217 -0.030021755
0003f0 2a 9c af 3c c4 69 85 bd a3 66 0e bd d2 f5 e8 bd
       0.02143677 -0.06514314 -0.03476585 -0.113750115

encoder.layers.0.linear2.bias f4 [64]
000000 0f 53 34 bd 01 ef 4d bd c7 f0 d2 bd 96 5e 97 bd
       -0.044024523 -0.05027676 -0.10299831 -0.07391088
000010 59 43 83 3c aa 69 b1 bd 5a 75 8b 3d cc d8 ae 3d
       0.016023325 -0.08662732 0.068094924 0.085374445
000020 57 bc 9e 3b 3c 71 b7 3c f7 13 35 bd 70 84 22 3d
       0.004844229 0.022392862 -0.044208493 0.039677083
000030 b9 72 38 bc 0e 4d 35 3d f9 1b 01 be 8a 2e ab bd
       -0.011257821 0.04426294 -0.12608327 -0.08358486
000040 3e 38 57 3d a4 b5 e9 bc 61 61 37 3d 7c 56 3c 3d
       0.05254387 -0.028528996 0.044770602 0.045980915
000050 fc aa b4 3c cf a1 ae bb 07 1f 20 3d c8 af 2f 3d
       0.022054188 -0.0053293477 0.03909209 0.042892247
000060 fc 91 1e 3c a9 df e9 bd 6d 6f 99 bd 13 63 96 bd
       0.00967836 -0.11419613 -0.07491956 -0.07343116
000070 c0 df 52 3d 20 4a 90 3d 0c 44 3c bd 50 8e 25 bd
       0.051482916 0.07045388 -0.045963332 -0.040418923
000080 71 bf ea bb de f9 46 bd 40 02 35 bc 05 31 09 3c
       -0.007163935 -0.048578136 -0.0110479 0.008373504
000090 66 f5 03 3c 33 05 ec bc fa 36 f0 bd 19 5e 88 bc
       0.008054113 -0.028811073 -0.11729236 -0.016646432
0000a0 3e 07 b7 3d 35 c7 a6 3d e1 32 9b 3d 96 b8 f3 3b
       0.08936928 0.081434645 0.07578064 0.007437776
0000b0 7e fa 7a 3d 38 9e 06 bd 90 86 10 3d 85 19 ab bd
       0.061274044 -0.032865733 0.03528458 -0.08354477
0000c0 90 41 25 3b 0a fa a4 3c 4f 72 fc bc 2f 09 c5 bd
       0.002521608 0.02013876 -0.030816225 -0.09620892
0000d0 22 43 62 bc 08 68 80 3b 5b bf 6e bd de 2b 3b 3d
       -0.013809951 0.0039186515 -0.05828796 0.045696132
0000e0 ae 4e 00 bd 85 5a 0e 3d 91 a6 e0 bc bc 4f 9a bd
       -0.031325035 0.034754295 -0.027423175 -0.075347394
0000f0 c4 e8 36 3d 3d 8e 1d bd 1f 1f b6 bd 5e fd 8d 3d
       0.044655576 -0.038465727 -0.08892655 0.069330916

encoder.layers.0.norm1.weight f4 [64]
000000 76 eb 83 3f cd d7 71 3f 39 3d 69 3f 53 f0 48 3f
       1.0306232 0.9446991 0.91109043 0.78491706
000010 8f a7 8c 3f da 84 4a 3f f2 bf 86 3f b8 a1 6f 3f
       1.0988635 0.79108965 1.0527327 0.9360614
000020 6d ba 60 3f 8e f0 71 3f 61 fc 6a 3f c3 db 7c 3f
       0.87784463 0.9450768 0.9179135 0.9877283
000030 5d 3e 8c 3f c0 ee 75 3f f5 95 78 3f 18 ac 7e 3f
       1.0956532 0.9606743 0.97103816 0.99481344
000040 52 f5 79 3f 10 9c 89 3f 1b c1 50 3f 8f 05 60 3f
       0.97639954 1.0750751 0.81544656 0.8750848
000050 9b f3 68 3f 21 8d 74 3f 1d bb 97 3f 39 c8 87 3f
       0.9099671 0.95527846 1.1853977 1.0607978
000060 b9 50 88 3f d5 0e 66 3f 1b c1 99 3f 0a 0f 7b 3f
       1.0649635 0.8986638 1.2012056 0.9806982
000070 f8 7b 68 3f a6 33 6f 3f 02 66 75 3f 1e 90 6b 3f
       0.9081416 0.93438184 0.95858777 0.9201678
000080 8a b9 92 3f bc fc 7a 3f 2f 08 a0 3f 43 01 58 3f
       1.1462872 0.9804189 1.2502497 0.84376925
000090 75 7e 72 3f ce 3c 87 3f 6f fe 94 3f 68 75 91 3f
       0.9472421 1.0565431 1.1640147 1.1363955
0000a0 5c b6 86 3f 7e 89 76 3f 48 3c 89 3f 4d d4 7c 3f
       1.0524402 0.96303546 1.0721521 0.98761445
0000b0 96 26 56 3f 30 98 6c 3f 36 56 79 3f f9 74 99 3f
       0.8365263 0.9241972 0.9739717 1.1988822
0000c0 4c c0 8e 3f 08 49 6f 3f 22 4f 7c 3f 3b f2 6b 3f
       1.1152434 0.9347081 0.9855825 0.9216649
0000d0 b2 9e 88 3f 4d 7f 82 3f 44 a4 8f 3f 35 2d 92 3f
       1.067343 1.0195099 1.1222005 1.1420046
0000e0 63 c9 80 3f 42 54 77 3f ba 62 84 3f fe 62 52 3f
       1.0061458 0.9661294 1.0342629 0.821823
0000f0 3d 16 4a 3f 1c fc 6a 3f b3 e3 69 3f 09 cf 66 3f
       0.7894018 0.9179094 0.91363066 0.9015966

encoder.layers.0.norm1.bias f4 [64]
000000 7f eb 39 bd 6c 2f 23 be 53 e9 ed bd 13 70 24 be
       -0.045390602 -0.15936059 -0.11616769 -0.16058378
000010 4d 1b 0a bd 50 b0 19 be 36 6c 9a 3d 4a 3b 0f 3e
       -0.033717442 -0.15008664 0.07540171 0.1398746
000020 9e dd 22 be 4b 07 c0 3d e4 32 dc 3d b6 4e 9f 3d
       -0.15904853 0.09376391 0.10751894 0.07778685
000030 9e 88 3c bd 08 84 b4 3d 5b d0 14 be 72 04 e8 bd
       -0.046028726 0.088142455 -0.14532606 -0.11328973
000040 60 01 b3 3d f1 0a cb 3c 52 5f af 3d 2f 45 af 3d
       0.08740497 0.02478549 0.08563103 0.085581176
000050 9d d6 4e 3e 55 9f c1 3d 53 96 50 bc ea 93 cc 3d
       0.20199056 0.09454218 -0.012731153 0.0998915
000060 50 b1 ed bc 14 62 fc bd 91 2b 6d bb fb d4 1d be
       -0.029015213 -0.123233944 -0.0036189298 -0.15413277
000070 22 af 2c 3e b5 66 fa 3d ce 7c de bd 97 00 4c 3c
       0.16863683 0.12226621 -0.10863648 0.0124513125
000080 02 3e bb 3c ba d7 00 3d 82 13 ff 3c be 97 16 be
       0.022856716 0.031455733 0.031137232 -0.14706323
000090 a5 23 ad 3d 1b 7a 7b bc cc 64 78 bd 4a 3c 54 3d
       0.08454064 -0.015348936 -0.060643002 0.05181531
0000a0 ae 7d 4b 3d d1 3c 7d 3d f9 89 9a 3d a9 04 94 bd
       0.049680404 0.061825577 0.075458474 -0.07227451
0000b0 59 58 04 3e 35 87 1c be 87 42 2a 3e c8 e0 c7 bc
       0.12924327 -0.15285952 0.1662694 -0.024399176
0000c0 f7 2c a7 3d a2 11 3b 3e 06 d5 50 3c 8b 28 29 be
       0.08162873 0.18268445 0.012746101 -0.16519372
0000d0 36 82 20 bc dd 9f 03 3d e0 ee cb bc cb a4 12 3d
       -0.00979667 0.03213488 -0.024894178 0.03580169
0000e0 34 3f 17 bd b0 6c b8 bd a2 87 b8 bd 6d 48 c9 bd
       -0.03692551 -0.090051055 -0.09010245 -0.09828267
0000f0 c7 e9 22 3e cb cc 07 be 08 95 4f bd 57 a7 ec 3d
       0.15909491 -0.13261716 -0.050679237 0.11555355

encoder.layers.0.norm2.weight f4 [64]
000000 4f 30 6d 3f 54 ba 86 3f 6a 6e 50 3f c8 89 66 3f
       0.9265184 1.0525613 0.8141848 0.9005399
000010 b5 72 7e 3f 72 cf 66 3f cc 69 78 3f b7 d2 6c 3f
       0.9939378 0.90160286 0.97036433 0.92509025
000020 ad 51 58 3f e8 dc 67 3f 03 8c 6e 3f 5a d4 63 3f
       0.8449963 0.9057145 0.9318239 0.889959
000030 76 af 81 3f d6 81 6c 3f 7b 13 6a 3f aa 37 7d 3f
       1.0131671 0.92385614 0.91435975 0.9891306
000040 53 51 6d 3f 16 ed 6e 3f 8e ca 4d 3f 49 e8 71 3f
       0.92702216 0.93330514 0.803872 0.94495064
000050 cf 2b 7a 3f d3 9a 6a 3f 4f 2d 80 3f a6 59 7a 3f
       0.97723097 0.91642493 1.0013827 0.9779304
000060 f6 dd 7f 3f 8d ac 82 3f a1 87 79 3f 6d 71 57 3f
       0.9994806 1.0208908 0.9747258 0.8415745
000070 85 e2 5b 3f 86 16 71 3f a7 eb 7e 3f 7a 80 7d 3f
       0.85892516 0.94174993 0.99578327 0.99024165
000080 5a 05 81 3f 79 55 57 3f a4 c1 79 3f c1 1f 67 3f
       1.0079758 0.84114796 0.975611 0.9028283
000090 7d 3b 49 3f ff 27 76 3f 83 ec 61 3f 3a 3b 70 3f
       0.78606397 0.9615478 0.88251513 0.9384037
0000a0 b2 8b 83 3f a0 a0 6f 3f da 0e 55 3f 85 08 6e 3f
       1.0277007 0.9360447 0.83225787 0.9298175
0000b0 8d 28 85 3f a5 8d 6a 3f 01 f2 66 3f e3 f3 81 3f
       1.0403 0.9162238 0.9021302 1.0152553
0000c0 0c a9 50 3f 37 9d 7f 3f 50 1a 7a 3f c4 ca 67 3f
       0.81507945 0.99849266 0.976964 0.9054377
0000d0 ce 5c 77 3f 8c 8a 6f 3f 3b 1e 71 3f 14 bc 7a 3f
       0.96625984 0.9357078 0.94186753 0.97943234
0000e0 04 d7 7a 3f 30 fa 7a 3f 56 8e 5a 3f 40 fb 71 3f
       0.9798434 0.98038006 0.8537344 0.94524
0000f0 ed 6c 61 3f 11 ca 80 3f e0 6d 7a 3f 80 4e 79 3f
       0.8805683 1.0061666 0.97823906 0.97385406
