assets/snapshots/P0_baseline_mlp.pth (torch, 52437 bytes, 6 tensors)

net.0.weight f4 [128, 30]
0.17103297 0.09073089 -0.15531592 0.06962954 0.0775932 -0.006277811 -0.14908087 0.028917793
0.6739617 -0.34215295 0.22505192 -0.011963904 0.2184657 -0.15026486 0.1434011 0.02210755
-0.093492776 -0.10009792 -0.060063895 0.063208014 -0.19812116 -0.061885983 -0.31966436 0.2420347
-0.13796075 -0.13100722 0.08849778 -0.31389368 -0.12738025 -0.22405624 -0.07807573 -0.22932912
0.19385505 0.026800964 -0.2175658 -0.052961342 0.10906252 0.052933566 0.27527055 -0.14195852
0.07298844 -0.0715285 0.123593286 0.21951506 0.26834032 -0.028893197 0.0029364484 -0.21053319
-0.09206048 0.0017620114 -0.119422786 -0.13746086 -0.124619484 0.15347494 0.16779456 0.028746262
0.13097711 0.05999697 0.17427647 -0.36768183 0.21499436 0.09211295 -0.05100231 -0.1561891
0.30653322 0.03545667 0.06477515 -0.19979848 -0.35792416 -0.19437882 0.04272264 0.06573507
0.062455866 -0.24117145 -0.36037055 -0.011296297 -0.067141786 -0.09652269 0.07120083 0.13400246
-0.07548507 0.116615444 0.20296839 -0.13680497 0.012978716 -0.053359717 0.29400605 -0.23224325
-0.120954305 0.07544952 0.18626836 0.14915414 -0.12413469 -0.039837003 -0.026744705 0.047160123
0.17589127 -0.2965539 -0.15675488 -0.13300641 -0.2008705 0.37092665 0.13433559 -0.0067381235
-0.13701229 -0.14326452 -0.233604 -0.2457373 -0.038685326 0.094267935 0.026460132 0.22902845
0.3774074 -0.2529315 -0.14808245 0.09592276 0.09556873 -0.14322303 -0.12325 -0.52714574
0.17999217 0.0041727517 -0.0632157 -0.3678451 -0.1628614 -0.035080176 -0.014732327 -0.41074163
0.14092758 -0.03838566 0.025601478 0.30653688 -0.13915575 0.102920525 -0.074428804 -0.23198807
-0.29310283 -0.32287258 -0.16740294 0.13922298 0.14590532 -0.17343189 0.30492246 -0.18017584
-0.32492715 -0.017453913 0.12304124 0.039163973 0.11001751 -0.46519223 0.022306629 -0.16348302
-0.0062735016 -0.12681486 0.28190088 -0.19948718 0.053424083 0.052856524 -0.013205941 -0.17882875
0.08398492 0.0936001 -0.023763392 -0.18004814 0.07596464 0.03226634 -0.10355442 0.18502906
-0.024095679 -0.13512596 -0.252525 -0.08659759 -0.0725296 0.017729515 0.006435221 -0.022710191
-0.0150040835 -0.20020594 0.044107817 -0.15809406 0.15378831 0.3012815 0.10427013 -0.19867136
0.3532905 0.1451798 0.09283157 -0.18601362 -0.1707792 -0.05656181 -0.020531705 -0.05317345
-0.020989517 0.09086366 0.010345825 0.0027688926 -0.2070189 -0.13539034 -0.37074524 0.005863068
-0.14356178 -0.012290356 -0.05250907 0.15919845 -0.0458977 -0.2059483 -0.018130744 -0.3491985
-0.15206288 0.044437833 -0.06112259 0.12986809 -0.36672008 -0.0042968416 -0.082897425 0.33824456
-0.05287143 -0.04893836 0.005861744 0.004663213 -0.25029293 0.21586937 -0.20213918 0.054502204
-0.3031437 0.07984438 -0.023401467 -0.025880076 -0.16010946 -0.1711226 -0.3220671 0.1622397
-0.051043056 0.023643266 0.034064256 -0.15791555 0.0057528336 -0.30034027 -0.15300113 -0.028231341
0.058246627 -0.14942315 -0.05681718 -0.3616391 -0.15283646 -0.23978029 -0.2870537 -0.06945511
-0.016147984 0.03031809 -0.41879937 0.087458774 0.03975724 0.044670273 -0.31892738 -0.173386
00000000: 4423 2f3e 1ed1 b93d 230b 1fbe ef99 8e3d
00000010: 2fe9 9e3d 18b6 cdbb a8a8 18be 02e5 ec3c
00000020: c188 2c3f ac2e afbe 0374 663e 4004 44bc
00000030: 79b5 5f3e 08df 19be bdd7 123e e51a b53c
00000040: 2479 bfbd 2300 cdbd 8f05 76bd 3473 813d
00000050: 46e0 4abe 287c 7dbd 0cab a3be f2d7 773e
00000060: 9545 0dbe c226 06be 533e b53d acb6 a0be
00000070: f86f 02be 006f 65be 2be6 9fbd 41d5 6abe
00000080: f081 463e b28d db3c 92c9 5ebe feed 58bd
00000090: 2c5c df3d ded0 583d 43f0 8c3e 935d 11be
000000a0: f77a 953d 897d 92bd 7a1e fd3d 8ec8 603e
000000b0: e763 893e 6db1 ecbc 6e71 403b 0396 57be
000000c0: 348a bcbd 4bf3 e63a ef93 f4bd 8ac2 0cbe
000000d0: 8038 ffbd 8928 1d3e 56d2 2b3e 487d eb3c
000000e0: dd1e 063e 62bf 753d 8875 323e cb40 bcbe
000000f0: 7b27 5c3e b7a5 bc3d cce7 50bd 09f0 1fbe
00000100: ecf1 9c3e 033b 113d d5a8 843d f997 4cbe
00000110: d641 b7be 3e0b 47be effd 2e3d 1ca0 863d
00000120: b9d1 7f3d a6f5 76be 7d82 b8be 1b14 39bc
00000130: a281 89bd b0ad c5bd bed1 913d f137 093e
00000140: eb97 9abd 14d4 ee3d f2d6 4f3e 9a16 0cbe
00000150: aea4 543c b88f 5abd f687 963e 2dd1 6dbe
00000160: e4b6 f7bd 4785 9a3d 22bd 3e3e ddbb 183e
00000170: 543a febd 202c 23bd b617 dbbc f92a 413d
00000180: d71c 343e ead5 97be 5a84 20be d532 08be
00000190: ffb0 4dbe 19ea bd3e 458f 093e 7acb dcbb
000001a0: f34c 0cbe efb3 12be e335 6fbe 8fa2 7bbe
000001b0: 8174 1ebd 8c0f c13d ebc2 d83c 6f86 6a3e
000001c0: 8b3b c13e 3d80 81be eda2 17be 2773 c43d
000001d0: 8ab9 c33d 0fa9 12be 7f6a fcbd 06f3 06bf
000001e0: de4f 383e 94bb 883b 3c77 81bd 3156 bcbe
000001f0: 24c5 26be 3bb0 0fbd dc5f 71bc ba4c d2be
00000200: 524f 103e 483a 1dbd 31ba d13c 67f2 9c3e
00000210: d87e 0ebe ffc7 d23d 216e 98bd 488e 6dbe
00000220: 9311 96be 8e4f a5be ad6b 2bbe 7890 0e3e
00000230: 3468 153e 2198 31be cc1e 9c3e 0480 38be
00000240: da5c a6be 82fb 8ebc 0cfd fb3d 676a 203d
00000250: dc50 e13d ad2d eebe 64bc b63c 1868 27be
00000260: f291 cdbb c1db 01be 5055 903e 5e46 4cbe
00000270: 36d3 5a3d 1580 583d bb5d 58bc e21e 37be
00000280: 4900 ac3d 69b1 bf3d 72ab c2bc 8a5e 38be
00000290: 5993 9b3d b629 043d 5714 d4bd 4278 3d3e
000002a0: 4d64 c5bc 765e 0abe f54a 81be 145a b1bd
000002b0: 668a 94bd 7d3d 913c 8cde d23b b90a babc
000002c0: b0d3 75bc c902 4dbe 66aa 343d 69e3 21be
000002d0: af7a 1d3e 9241 9a3e 948b d53d 8170 4bbe
000002e0: 7ee2 b43e 03aa 143e 7a1e be3d 5b7a 3ebe
000002f0: bee0 2ebe 5bad 67bd 1b32 a8bc 67cc 59bd
00000300: 35f2 abbc ba16 ba3d 8981 293c 4f76 353b
00000310: c3fc 53be c4a3 0abe 52d2 bdbe fb1e c03b
00000320: dc01 13be 7d5d 49bc c013 57bd eb04 233e
00000330: 3aff 3bbd 1ce4 52be ed86 94bc 25ca b2be
00000340: 5fb6 1bbe 7204 363d ae5b 7abd 24fc 043e
00000350: bcc2 bbbe 85cc 8cbb 20c6 a9bd 642e ad3e
00000360: b68f 58bd 9773 48bd df13 c03b decd 983b
00000370: 6526 80be dc0c 5d3e 93fd 4ebe b43d 5f3d
00000380: a735 9bbe 7385 a33d 6fb4 bfbc 7402 d4bc
00000390: bcf3 23be c33a 2fbe fbe5 a4be 2a22 263e
000003a0: 8612 51bd 86af c13c f686 0b3d 9db4 21be
000003b0: 4482 bc3b 33c6 99be 54ac 1cbe 6a45 e7bc
000003c0: 0494 6e3d 6202 19be 22b9 68bd c328 b9be
000003d0: 2981 1cbe f788 75be b4f8 92be 7b3e 8ebd
000003e0: c748 84bc a55d f83c df6c d6be 961d b33d
000003f0: 7dd8 223d 2df8 363d 734a a3be 198c 31be

net.0.bias f4 [128]
-0.36119902 -0.1350042 0.23542632 -0.00193303 0.115835845 0.17268361 -0.25349897 0.096263625
0.014363204 -0.004289843 -0.036252894 0.36100408 0.10412252 0.25098836 -0.15558256 -0.18777402
-0.2639303 -0.27393347 0.21761762 -0.012472234 -0.16325675 -0.25664228 0.31961754 0.09001618
-0.030073881 0.21424374 0.16343042 0.12704536 -0.3208282 -0.21204223 -0.19665056 0.016693681
-0.2728857 0.28562787 0.032443456 -0.16067497 -0.035435352 0.00752226 0.25667283 0.043173913
-0.0069903815 -0.23706982 0.13243291 0.50327563 -0.17346549 0.13301113 -0.22163758 0.24028721
-0.113466986 0.10456651 -0.05021829 -0.28227106 0.10121831 0.3570605 0.16123803 -0.5374977
0.013934481 0.08921911 -0.4170694 -0.0034841932 0.3454285 -0.2640462 -0.13999009 -0.33905607
0.07051319 -0.34998155 0.039349776 -0.58656037 -0.021817671 0.04351943 -0.06522043 -0.22510493
0.0012040341 -0.31151095 -0.11453507 -0.17477807 -0.06886772 -0.25823212 -0.03553553 0.14348184
-0.35798848 0.054435857 0.32347068 0.2241902 -0.078799345 0.0655289 -0.3135939 0.029920626
0.14716904 0.23354371 -0.1077416 0.17500839 0.03220957 -0.09718339 0.23630922 0.17651089
-0.16429247 -0.28616947 0.019233327 -0.2990388 0.068024814 0.3026248 0.1391177 -0.09058116
0.17220193 0.18776204 0.1330321 0.23802587 0.3733116 -0.45307156 0.18738951 0.046146505
-0.25274345 -0.2544655 0.02997411 0.009022603 0.06856914 -0.015267519 -0.13643138 -0.31646225
0.052436933 -0.10101311 -0.2121089 0.17219764 -0.09328922 -0.017447835 0.3845855 0.13514309
00000000: 14ef b8be 8a3e 0abe 9913 713e b95d fdba
00000010: 583b ed3d f9d3 303e 9eca 81be dd25 c53d
00000020: a553 6b3c d091 8cbb ea7d 14bd 87d5 b83e
00000030: 303e d53d 8c81 803e 0951 1fbe d547 40be
00000040: df21 87be 0241 8cbe 27d7 5e3e 5758 4cbc
00000050: c72c 27be 9e66 83be e9a4 a33e 675a b83d
00000060: 805d f6bc b662 5b3e 4e5a 273e 2e18 023e
00000070: 9843 a4be 9921 59be c45e 49be 30c1 883c
00000080: adb7 8bbe d13d 923e 6ee3 043d fb87 24be
00000090: a924 11bd 4a7d f63b 9f6a 833e 21d7 303d
000000a0: 920f e5bb 6ec2 72be 7e9c 073e acd6 003f
000000b0: f0a0 31be 1234 083e f6f4 62be da0d 763e
000000c0: 6161 e8bd f726 d63d b2b1 4dbd d585 90be
000000d0: 8c4b cf3d a2d0 b63e 951b 253e 7399 09bf
000000e0: 734d 643c 82b8 b63d 1f8a d5be 1057 64bb
000000f0: 01dc b03e 1031 87be 9059 0fbe c298 adbe
00000100: 3869 903d c830 b3be 3b2d 213d d228 16bf
00000110: f9ba b2bc 6e41 323d 4a92 85bd e881 66be
00000120: aed0 9d3a 5d7e 9fbe 5d91 eabd 06f9 32be
00000130: 850a 8dbd 0037 84be b48d 11bd e7ec 123e
00000140: 444a b7be 22f8 5e3d f39d a53e 1e92 653e
00000150: 8d61 a1bd 0434 863d 618f a0be 1a1c f53c
00000160: 7bb3 163e 1526 6f3e a1a7 dcbd 6635 333e
00000170: 2fee 033d 1608 c7bd 0bfb 713e 45bf 343e
00000180: 493c 28be ce84 92be 368f 9d3c 9d1b 99be
00000190: 9850 8b3d a3f1 9a3e df74 0e3e 9d82 b9bd
000001a0: b455 303e b144 403e 9139 083e 0ebd 733e
000001b0: b322 bf3e fff8 e7be 09e3 3f3e 1e04 3d3d
000001c0: 9767 81be 4d49 82be 448c f53c 8ad3 133c
000001d0: fa6d 8c3d 9e24 7abc abb4 0bbe 5707 a2be
000001e0: 1cc8 563d f6df cebd 1333 59be 9454 303e
000001f0: 6b0e bfbd c3ee 8ebc 64e8 c43e f362 0a3e

net.3.weight f4 [64, 128]
-0.36591372 -0.03665646 -0.017238759 -0.13667428 -0.08214295 0.087456234 0.06324126 0.21120997
0.09403036 0.1349103 0.004859575 0.01808717 0.008500045 -0.06050884 -0.08316979 -0.07266488
-0.05316353 -0.043462336 -0.0907597 0.02340007 0.084046684 -0.070292585 -0.027991697 0.13385049
0.096869476 -0.14035209 -0.03563056 -0.0822105 -0.2530427 -0.0799627 -0.06529548 -0.071676515
-0.039277427 0.028466325 0.008936623 0.15919083 -0.21010607 -0.01847811 0.14034012 -0.22885674
-0.010570835 -0.1550669 0.07904441 0.027711203 -0.34433034 -0.018063752 0.1454176 -0.029854115
0.086946435 -0.07985837 0.2010419 -0.3099205 -0.07734579 0.04815088 -0.07991261 -0.055812858
-0.0060891556 0.028951142 -0.1900863 -0.10460738 -0.034780458 0.046222907 -0.60038203 0.11826462
0.018696401 -0.27156812 -0.117360674 -0.1542994 0.25339654 0.036851756 0.006822646 -0.31254187
0.07938717 0.1917137 0.07311256 0.06714073 0.14827594 0.11772644 0.13619632 0.014651518
-0.14928375 0.22664905 0.0737184 0.063511916 -0.08113969 -0.02870683 -0.00016599732 0.13761942
0.109611504 -0.05264946 -0.05682339 -0.057822853 0.09987717 0.03724793 0.1128861 0.18367659
0.10901704 -0.19034927 0.051312577 -0.54405624 0.061857365 0.10351712 0.16336963 -0.067326546
0.0055217696 -0.053438775 0.038056992 -0.07905442 0.04910547 -0.80138165 0.09518584 0.12976958
-0.2579464 0.07156865 0.17294997 0.13303816 0.07235408 -0.06831069 -0.04154325 -0.31308502
0.12861073 0.03345895 -0.2919488 0.14696866 -0.007502439 0.07582855 -0.08098846 0.06731991
0.27286065 0.013500929 -0.06484023 -0.20069554 -0.32136756 -0.021871855 -0.22478543 0.07046756
-0.3613494 -0.32187203 -0.013916668 -0.32911992 0.03454445 -0.3619369 -0.26020786 0.37293106
0.32490212 0.44820693 -0.38986373 0.19595115 0.14334443 0.5791115 -0.018892944 -0.027398098
0.14555526 -0.18484932 -0.18142582 -0.22184257 0.012230859 0.4145805 0.31792814 -0.015558487
0.1519336 -0.37256286 -0.28662205 -0.057271346 0.27840495 0.09604328 -0.43816242 -0.42483473
-0.06779782 0.7168764 0.08667874 -0.572788 0.062474594 -0.41519195 -0.115346216 -0.19446184
0.113184884 -0.04165544 0.082849145 0.40778553 -0.14871767 -0.27062246 -0.21073472 -0.14808482
0.053206712 -0.2739361 0.40169495 -0.06479646 -0.3948439 0.078287095 0.13647836 0.41528422
-0.21038304 0.29855222 -0.3168679 0.16149305 0.09038742 0.09653122 0.14667508 0.079817675
0.0960245 0.31210646 0.03529106 -0.21056831 0.106309816 0.3024312 -0.073754445 -0.027189936
0.41506776 0.049234595 -0.12646532 -0.11024862 -0.015589949 -0.2321614 0.5012244 -0.06016546
-0.1076211 -0.1938095 0.07404512 -0.1031274 -0.15443134 0.18871494 0.023414923 0.1564195
0.24406035 0.40575323 -0.095949836 0.10616942 -0.2647705 0.06439141 0.025930448 -0.24478242
0.03654825 -0.2888054 -0.00761534 -0.013871241 -0.44110805 0.024926506 0.054121293 -0.111365974
0.2211706 0.14670062 0.051882923 0.13342972 -0.20941015 0.14496826 -0.13785568 0.42386028
0.10432006 -0.05109848 0.27167988 -0.18548776 -0.069372706 -0.0031976118 -0.20010526 0.048844814
00000000: 0b59 bbbe 1625 16bd 4c38 8dbc 58f4 0bbe
00000010: 903a a8bd 411c b33d a284 813d 6d47 583e
00000020: fd92 c03d ed25 0a3e 123d 9f3b 8b2b 943c
00000030: c643 0b3c 1ed8 77bd ec54 aabd 53d1 94bd
00000040: 00c2 59bd 9005 32bd 39e0 b9bd 81b1 bf3c
00000050: ab20 ac3d 8ff5 8fbd d84e e5bc 1a10 093e
00000060: 8163 c63d 75b8 0fbe 5af1 11bd fb5d a8bd
00000070: d08e 81be 7cc3 a3bd a3b9 85bd 23cb 92bd
00000080: 5ee1 20bd 3632 e93c ea6a 123c ec02 233e
00000090: 0c26 57be 685f 97bc 52b5 0f3e 6c59 6abe
000000a0: 4c31 2dbc dcc9 1ebe 09e2 a13d 9b02 e33c
000000b0: 114c b0be 6ffa 93bc 5ae8 143e 9e90 f4bc
000000c0: f910 b23d c98c a3bd eedd 4d3e e6ad 9ebe
000000d0: 7867 9ebd db39 453d 39a9 a3bd 069c 64bd
000000e0: 8a87 c7bb f22a ed3c fca5 42be 653c d6bd
000000f0: f475 0ebd 3b54 3d3d a3b2 19bf b934 f23d
00000100: 3229 993c fa0a 8bbe cb5a f0bd a900 1ebe
00000110: 31bd 813e def1 163d 8190 df3b 7d05 a0be
00000120: be95 a23d 9950 443e 0abc 953d 1481 893d
00000130: a6d5 173e 8f1a f13d 0c77 0b3e ec0c 703c
00000140: d7dd 18be b016 683e acf9 963d 8912 823d
00000150: 912c a6bd 962a ebbc 910f 2eb9 1bec 0c3e
00000160: ff7b e03d f6a6 57bd a5bf 68bd a8d7 6cbd
00000170: 678c cc3d 4991 183d d430 e73d b715 3c3e
00000180: 5344 df3d ebea 42be 232d 523d 4547 0bbf
00000190: 265e 7d3d c900 d43d 5e4a 273e 80e2 89bd
000001a0: f6ef b43b 9ee2 5abd a6e1 1b3d 49e7 a1bd
000001b0: d122 493d 5927 4dbf cbf0 c23d 51e2 043e
000001c0: 8d11 84be 9692 923d cc19 313e 283b 083e
000001d0: 602e 943d 7ae6 8bbd 4129 2abd ae4c a0be
000001e0: 88b2 033e 410c 093d 507a 95be f47e 163e
000001f0: 05d7 f5bb 004c 9b3d 47dd a5bd 05df 893d
00000200: 64b4 8b3e 0033 5d3c f4ca 84bd 2283 4dbe
00000210: 4a8a a4be 9b2c b3bc 272e 66be 4c51 903d
00000220: ca02 b9be 69cc a4be bc02 64bc 6882 a8be
00000230: 7b7e 0d3d cb4f b9be f739 85be d2f0 be3e
00000240: 9259 a63e 617b e53e 389c c7be 6ba7 483e
00000250: e2c8 123e a740 143f 60c5 9abc fa71 e0bc
00000260: 700c 153e 2449 3dbe b1c7 39be b32a 63be
00000270: f163 483c e543 d43e 7ac7 a23e 06e9 7ebc
00000280: 7b94 1b3e 8fc0 bebe 20c0 92be 5c95 6abd
00000290: 188b 8e3e 57b2 c43d d356 e0be f083 d9be
000002a0: 95d9 8abd 3685 373f a084 b13d 3ca2 12bf
000002b0: 5ce5 7f3d 0a94 d4be a33a ecbd 0121 47be
000002c0: 7acd e73d e59e 2abd d0ac a93d 44c9 d03e
000002d0: 7249 18be 078f 8abe d8ca 57be 8ca3 17be
000002e0: 48ef 593d 5a41 8cbe f6aa cd3e 02b4 84bd
000002f0: fb28 cabe fc54 a03d fcc0 0b3e 22a0 d43e
00000300: a76e 57be d6db 983e 823c a2be 6f5e 253e
00000310: 0a1d b93d 29b2 c53d fe31 163e 7377 a33d
00000320: 7ea8 c43d 6bcc 9f3e 5c8d 103d 389f 57be
00000330: f6b8 d93d 43d8 9a3e 920c 97bd 6ebd debc
00000340: c383 d43e 37aa 493d 2080 01be 07ca e1bd
00000350: fc6c 7fbc b8bb 6dbe 3e50 003f 0f70 76bd
00000360: 7468 dcbd ff75 46be f8a4 973d 7534 d3bd
00000370: 4023 1ebe 7d3e 413e a7d0 bf3c 6f2c 203e
00000380: f5ea 793e e3be cf3e 5981 c4bd 5a6f d93d
00000390: 0090 87be a5df 833d 176c d43c 3ea8 7abe
000003a0: 9eb3 153d 4dde 93be 1a8a f9bb 3444 63bc
000003b0: ead8 e1be ac32 cc3c 4aae 5d3d d813 e4bd
000003c0: 8c7a 623e b038 163e 3083 543d cda1 083e
000003d0: 9d6f 56be 8f72 143e 0a2a 0dbe 3704 d93e
000003e0: c1a5 d53d a44c 51bd a019 8b3e 81f0 3dbe
000003f0: 4713 8ebd 068f 51bb 65e8 4cbe 8011 483d

net.3.bias f4 [64]
0.21766432 -0.06201901 -0.13319077 -0.02731234 0.24157612 -0.08796631 -0.023882661 -0.025142338
-0.027233375 0.20847903 0.23361157 0.30203158 0.034719974 -0.08588404 0.22031094 0.28113443
0.18856569 0.003897973 0.24497485 0.25160074 0.121754356 -0.09673753 0.092409335 0.18532383
0.024610199 0.18669866 -0.022774762 0.27942464 0.17297615 0.2347167 0.17582865 0.011790417
-0.011697109 -0.04386516 -0.008207074 0.04974772 0.2426635 0.24363087 0.07379296 0.27024797
0.16906284 -0.05207699 0.04876872 0.1182713 0.059232235 0.06913917 0.28684607 0.034597397
0.25445423 0.23077661 0.0019006112 0.131143 0.20387642 0.25381002 0.041282926 0.23154882
0.16341239 0.12316611 0.017256714 0.11292011 0.094870955 0.19910939 0.19726238 0.17799412
00000000: 65e3 5e3e a507 7ebd 2963 08be 21be dfbc
00000010: bb5f 773e ae27 b4bd 92a5 c3bc 4ef7 cdbc
00000020: 8718 dfbc 877b 553e df37 6f3e e2a3 9a3e
00000030: 8836 0e3d f9e3 afbd 3199 613e daf0 8f3e
00000040: 5d17 413e 2375 7f3b b0da 7a3e d0d1 803e
00000050: 595a f93d 531e c6bd 1b41 bd3d 88c5 3d3e
00000060: 549b c93c ef2d 3f3e 2392 babc bf10 8f3e
00000070: a920 313e 9359 703e 6d0c 343e 982c 413c
00000080: 3ba5 3fbc f4ab 33bd f776 06bc 44c4 4b3d
00000090: c87c 783e 5f7a 793e c320 973d f15d 8a3e
000000a0: cf1e 2d3e af4e 55bd b6c1 473d 3938 f23d
000000b0: 809d 723d d698 8d3d 7ddd 923e 00b6 0d3d
000000c0: d347 823e b450 6c3e ee1d f93a 5a4a 063e
000000d0: fbc4 503e 63f3 813e 4918 293d 221b 6d3e
000000e0: 9455 273e 833e fc3d f45d 8d3c a942 e73d
000000f0: b44b c23d 55e3 4b3e 26ff 493e 1744 363e

net.6.weight f4 [2, 64]
-0.21261396 0.8287292 0.3460542 0.8755958 -0.6017719 0.3898584 -0.7519934 0.854636
0.32205027 -0.41754988 -0.3735249 -0.3369869 0.62553364 0.6347674 -0.20962821 -0.2724039
-0.11883062 1.0168849 -0.48423246 -0.43521366 -0.200126 0.50346804 0.8669993 -0.32697734
0.541624 -0.32216966 0.6070504 -0.122347474 -0.7555289 -0.41587222 0.85548717 0.8479867
0.5426727 0.61233413 0.7459354 0.57677424 -0.16866979 -0.12862578 0.6630527 -0.1729277
-0.3966356 0.7865343 1.1662025 0.6207977 0.9029801 0.6678732 -0.76241094 0.90984017
-0.8246901 -0.8320283 0.7480539 0.7993904 -0.4702604 -0.7713704 0.83461857 -0.34941813
-0.33344865 0.9333856 0.6254806 -0.19444187 0.7155634 -0.38722754 -0.30416217 -0.94138914
0.1751388 -0.69258434 -0.467719 -0.8872772 0.39995357 -0.5912961 0.8974927 -0.9357906
-0.39648104 0.28519654 0.23348382 0.46468937 -0.55713975 -0.7027664 0.04531515 0.1660831
0.16899522 -0.94733906 0.28363958 0.32255378 0.19107199 -0.6984605 -0.82339436 0.38920632
-0.6215274 0.42121375 -0.71364284 0.17411296 0.8355896 0.3298177 -0.8921523 -0.89530474
-0.45545754 -0.6391366 -0.75152004 -0.6264561 0.16532756 0.1893276 -0.68155843 0.13257974
0.23344573 -0.60957587 -1.1644008 -0.75414765 -0.92502654 -0.6001944 0.7021045 -1.0482832
0.6758865 0.6633866 -0.67410684 -0.7627648 0.39486036 0.8259124 -0.9639304 0.32934192
0.41999704 -0.87776387 -0.6967152 0.19521846 -0.7638727 0.44722477 0.34234363 0.8844324
00000000: 79b7 59be 9927 543f 042e b13e 0c27 603f
00000010: b90d 1abf 859b c73e a482 40bf 6dc9 5a3f
00000020: c6e3 a43e 19c9 d5be a83e bfbe 8c89 acbe
00000030: f922 203f 1e80 223f c7a8 56be 8678 8bbe
00000040: 785d f3bd 4929 823f 51ed f7be 53d4 debe
00000050: d5ed 4cbe 48e3 003f abf3 5d3f 9369 a7be
00000060: dfa7 0a3f 6cf3 a4be a867 1b3f 5091 fabd
00000070: 586a 41bf 34ed d4be 3501 5b3f a815 593f
00000080: 99ec 0a3f eec1 1c3f 9ff5 3e3f 7aa7 133f
00000090: c6b7 2cbe 7ab6 03be d2bd 293f f613 31be
000000a0: d213 cbbe 505a 493f 2046 953f 99ec 1e3f
000000b0: b429 673f bdf9 2a3f 5d2d 43bf 49eb 683f
000000c0: e41e 53bf cfff 54bf 7680 3f3f d9a4 4c3f
000000d0: f9c5 f0be 8878 45bf 90a9 553f efe6 b2be
000000e0: c8b9 aabe 5cf2 6e3f 7f1f 203f c51b 47be
000000f0: 2a2f 373f b042 c6be 25bb 9bbe e1fe 70bf
00000100: 9657 333e 354d 31bf dd78 efbe 9924 63bf
00000110: b7c6 cc3e 2e5f 17bf 15c2 653f f98f 6fbf
00000120: 90ff cabe 4805 923e 6216 6f3e c4eb ed3e
00000130: b6a0 0ebf 80e8 33bf 619c 393d b011 2a3e
00000140: 150d 2d3e d084 72bf 3539 913e c525 a53e
00000150: 60a8 433e 4fce 32bf f9c9 52bf 0d46 c73e
00000160: 6b1c 1fbf 54a9 d73e 4cb1 36bf ab4a 323e
00000170: 33e9 553f dedd a83e 1864 64bf b132 65bf
00000180: bb31 e9be 759e 23bf 9e63 40bf 6d5f 20bf
00000190: a14b 293e 18df 413e 9d7a 2ebf fcc2 073e
000001a0: 660c 6f3e 2a0d 1cbf 160b 95bf d20f 41bf
000001b0: 8ace 6cbf 57a6 19bf 1fbd 333f 252e 86bf
000001c0: e606 2d3f b4d3 293f 4492 2cbf 8e44 43bf
000001d0: 232b ca3e ff6e 533f 25c4 76bf 819f a83e
000001e0: da09 d73e 22b5 60bf ed5b 32bf 59e7 473e
000001f0: 298d 43bf a5fa e43e aa47 af3e 296a 623f

net.6.bias f4 [2]
-0.3603345 0.5265504
00000000: c37d b8be 02cc 063f
