assets/snapshots/P0_baseline_mlp.pth (torch, 52437 bytes, 6 tensors)

net.0.weight f4 [128, 30]
000000 e6 d8 e1 3d 82 0a 87 bd 41 97 4a 3e 6f 80 bb 3d
       0.11027698 -0.06593801 0.19784261 0.09155356
000010 b4 07 e8 3d ec bf 17 bb 7e e6 05 be 55 21 c2 bc
       0.11329594 -0.0023155166 -0.13076207 -0.023697535
000020 ab 18 30 3e 3e 34 fe 3c 13 57 bf bc 06 07 22 bc
       0.1719691 0.03103077 -0.02335695 -0.00988937
000030 13 b2 4f be e4 be 43 3a 0b 0d 58 be 8e b9 1d bd
       -0.20282774 0.00074671046 -0.21098725 -0.038507037
000040 9c 25 03 be 6a 80 62 be 50 fc 93 bd fe e6 27 3c
       -0.12807316 -0.22119299 -0.07225859 0.010247944
000050 a1 85 8b bd f4 e1 10 3d c0 9c 04 be 81 b7 e3 bd
       -0.06812597 0.035371736 -0.1295042 -0.11118985
000060 52 66 47 bc 76 fb 71 be 61 55 d2 3c 1c f4 f2 bd
       -0.012170391 -0.23631081 0.025675477 -0.118629664
000070 c0 ad 62 3c c4 a3 07 3e f5 57 ca bd 5f a7 da bd
       0.013835371 0.13246065 -0.09880058 -0.10676455
000080 e8 15 46 3e 35 14 e3 bc 89 a0 09 3e 8b c3 85 3d
       0.19344294 -0.027719596 0.13440146 0.065314375
000090 34 b4 f4 bd d4 52 68 3d 01 96 be 3d fa c7 b6 3d
       -0.119484335 0.056719616 0.09305955 0.08924861
0000a0 66 ce 68 3d af be 38 bd 96 8f 33 3d 3a de 2d bd
       0.056837462 -0.045103725 0.043838106 -0.04244826
0000b0 33 5e 45 be 40 25 53 be d7 8c 01 be 2f 84 5f be
       -0.19274215 -0.20619678 -0.12651382 -0.21827768
0000c0 1c 91 3e be e2 53 7a be 2a 52 97 3a e9 05 04 3d
       -0.18610042 -0.24446061 0.0011544873 0.0322322
0000d0 21 6b 35 3d 7c bb 4d 3d 06 c6 c6 3d 9c 43 05 3e
       0.04429162 0.050227627 0.09705739 0.13014072
0000e0 cf b4 da bc 63 b6 23 be 1b f6 c9 3a 3f 81 8a bc
       -0.026697544 -0.15987544 0.0015408428 -0.016907332
0000f0 f9 0d 0f 3d 23 a7 6e bc 5e 4e 8b 3d 04 35 0b be
       0.034925435 -0.014566216 0.06802057 -0.13594443
000100 66 14 f8 3d 80 67 be 3a 62 55 f4 3d 12 fb 04 be
       0.12113266 0.0014526695 0.11930348 -0.129864
000110 4a 47 fe bc ad 69 48 be 4c ee cc bd e6 8e 2d 3e
       -0.031039853 -0.19571562 -0.10006389 0.16949043
000120 8d 06 34 3d c4 84 aa bd 2a 44 2d 3d f5 f5 fd 3d
       0.04395156 -0.08326104 0.042301334 0.12400428
000130 7f fe 9e 3c 30 e0 9e 3c 83 f8 21 3e 24 7d 0e be
       0.019408463 0.01939401 0.15817456 -0.13914925
000140 9c 9b 51 3e 62 91 c7 bd 01 c4 7b 3d f9 2f 47 3e
       0.20469517 -0.097445264 0.06146622 0.19451894
000150 ac 75 f3 bd dd c5 01 3d f7 7c 01 3e fb 67 1c bd
       -0.118876785 0.031682838 0.12645327 -0.0381851
000160 4f 3c c9 bd 8b 38 a8 bd a0 60 25 bd 1e 82 3c 3e
       -0.09825956 -0.0821391 -0.040375352 0.18409011
000170 ff 20 74 bd cc 3a 09 be 0f ec 50 be 61 23 06 bd
       -0.05960178 -0.13401335 -0.20402549 -0.032748584
000180 b8 f8 31 3e 5f f0 ad 3d fa 7d 1d be 36 b2 00 bd
       0.17380035 0.08493113 -0.15380087 -0.031419955
000190 cf 57 11 3d 2e ac fc 3d f5 73 67 3e fd f9 52 be
       0.03548413 0.12337528 0.22602828 -0.20603175
0001a0 d5 fa 9f bd 08 77 03 3c 44 b0 03 3e 71 b2 ee bd
       -0.07811514 0.008023985 0.12860209 -0.11655129
0001b0 d2 db 17 3e fc 87 23 3d 64 8c b4 bd 0d d5 dc 3c
       0.14829949 0.039924607 -0.0881584 0.02695706
0001c0 89 85 a0 3b 17 26 93 3d aa 34 88 3d 4f 2b 81 bd
       0.004898731 0.071849994 0.0665067 -0.063070886
0001d0 6f 0f 1b be 27 7a 2b 3e 4c 83 b4 3d 60 11 0b be
       -0.15142606 0.16745816 0.088141054 -0.13580847
0001e0 67 8f 9c bd 2d b5 2d 3e 29 3e af 3b 24 ed 38 3e
       -0.07644539 0.16963644 0.0053479862 0.18059212
0001f0 a8 45 f6 3d 95 40 3a 3c cf 4e 3c bb 6a b1 67 3e
       0.120250046 0.011367937 -0.0028733497 0.22626272
000200 a6 a6 17 3c 24 1e 39 3c 99 ea 4c 3e 14 dd 13 be
       0.009256041 0.01129869 0.20011367 -0.14439803
000210 de 78 25 3e b8 e6 2b 3d fe f0 01 3e b0 1e 1a be
       0.16159388 0.041968077 0.12689587 -0.15050769
000220 56 16 1a 3e 10 2c 76 3d d4 6c 81 3c 06 dd 94 3d
       0.15047583 0.060100615 0.015798964 0.072687194
000230 46 e7 32 be 94 54 40 bd e1 db 8b 3d d9 32 e0 bd
       -0.17471036 -0.04695566 0.06829048 -0.109471984
000240 1f 3f ac bd b7 5d 10 3e 6b 0d a8 3d ef db 40 3e
       -0.08410477 0.1409825 0.08205684 0.18833898
000250 48 f5 2f 3c d4 af af 3d 21 00 d9 3c 35 6c d6 3d
       0.010739632 0.085784584 0.02648932 0.104698576
000260 85 59 df bd 04 df d9 3d 90 57 13 3e 35 be d2 3d
       -0.10905746 0.1063824 0.14388871 0.10290185
000270 2e 5d 10 3e 94 87 ec bd 1c ed 51 3c 87 f3 9e bc
       0.14098045 -0.11549297 0.012812879 -0.019403232
000280 1c d4 d1 3c bb 70 a4 3c ab 3d 0d 3e c1 05 57 bd
       0.025613837 0.020073285 0.13793056 -0.05249572
000290 47 bf a5 bd e9 cc 1b 3c 56 7a d3 3d bb 76 21 3e
       -0.08093124 0.009509304 0.10326068 0.15767948
0002a0 ae 03 ee bd 64 55 3d bc 15 ad 9b 3c 5c 23 07 3e
       -0.116217956 -0.011556003 0.01900343 0.13197082
0002b0 4d 71 07 3d 61 75 d9 3d d8 e0 0a 3d f5 2c 3d be
       0.033067036 0.106180914 0.033905834 -0.18474181
0002c0 37 79 a2 3d d0 a4 5c 3d 8a 9e b1 bd 72 f6 ca 3d
       0.07933276 0.053868115 -0.08672817 0.09910287
0002d0 fc a4 12 3d c1 3e f4 3d d7 2f 42 3e df f5 22 be
       0.035801873 0.11926032 0.18963562 -0.15914105
0002e0 15 07 52 3e 84 0e 12 3e 8c 49 c6 3d d3 45 93 bd
       0.20510514 0.1426335 0.09681997 -0.07191052
0002f0 4b c1 2e 3e aa dd 50 be 3a e3 45 3d 7d 0f 48 3c
       0.17065923 -0.20397058 0.048312403 0.012210724
000300 a9 f8 64 be fd e1 e0 3c 04 9c fa 3d 93 75 13 be
       -0.22360481 0.02745151 0.12236789 -0.1440032
000310 e9 25 81 bc 96 0a 9e 3d f1 93 25 3e ba e6 6b bc
       -0.015765147 0.07716863 0.16169716 -0.014398271
000320 71 d1 b9 3d bf 7e 34 3e b8 5b 07 3e ab b1 5a be
       0.09073151 0.17626475 0.13218582 -0.21356837
000330 27 ac 73 bd bc 15 0c 3e 71 05 25 3c 15 33 4a 3e
       -0.05949035 0.13680166 0.010072098 0.19746049
000340 80 d7 cb bd 50 d4 0d be a1 73 b9 3d 9b 60 4e 3d
       -0.09953213 -0.13850522 0.090552576 0.0503851
000350 52 5d 9f 3d 32 56 e1 bd 1f 8a 48 3e bb 0e 8c 3d
       0.07781471 -0.110027686 0.19583939 0.06838747
000360 73 51 a3 bd f1 33 d0 3d 2a d5 59 3d 8b 74 d4 3c
       -0.079745196 0.10166157 0.053181805 0.025934478
000370 71 e5 48 be 3e 07 1e be 06 7c ec 3d f2 34 07 3d
       -0.19618775 -0.1543245 0.11547093 0.033009477
000380 b9 db 9b 3c 72 99 d3 3d 41 46 f0 3d 3d e8 19 be
       0.01902567 0.10332002 0.1173215 -0.15029998
000390 67 b8 05 be ee cb 33 3e 87 b0 34 3e f2 b4 00 bd
       -0.13058625 0.17558262 0.17645465 -0.031422563
0003a0 19 82 ab 3d 62 91 a7 3d f1 c1 06 be ca 5a 89 bd
       0.083744235 0.081820264 -0.1315992 -0.0670677
0003b0 3a fd a6 3b a2 4b 19 be 30 88 fb 3d 15 a3 e7 3c
       0.005096105 -0.14970258 0.12281835 0.028276006
0003c0 d7 5c f3 3d 96 0e 12 be 19 55 f8 3d 26 92 15 3e
       0.11882942 -0.14263377 0.12125606 0.14606532
0003d0 24 8a 2b 3e b4 bb e3 bd ca df 9f 3d b1 6e f9 bd
       0.16751915 -0.11119786 0.07806356 -0.12179316
0003e0 bf a9 a8 bd ae 51 3e be a0 53 37 be 8a 46 92 3c
       -0.082355015 -0.18585846 -0.17902994 0.017855901
0003f0 39 5b c7 3b 2d 27 44 3d c4 c2 10 bd 2d c0 9a bc
       0.0060838726 0.047888923 -0.035341993 -0.018890465

net.0.bias f4 [128]
000000 88 21 3d 3e 10 f3 bb bd 1d 35 0b bc 3c 59 27 3e
       0.18469822 -0.0917722 -0.00849655 0.16342634
000010 d5 c0 bd 3d 6d b8 c3 3d de f7 f3 bb 7a 55 09 bd
       0.092652954 0.09556661 -0.0074453196 -0.033528782
000020 31 eb de 3d 2b c8 bc bb 13 c9 38 bd 06 cb fa 3c
       0.10884703 -0.0057611666 -0.045113634 0.030614387
000030 b3 d4 00 be 45 26 8d bd a7 32 c4 bc 21 b4 06 be
       -0.12581138 -0.06892065 -0.023949934 -0.13154651
000040 59 cb fc 3d 62 74 83 3c 29 8d 5f 3e f8 d0 59 3e
       0.12343473 0.016046707 0.21831192 0.21271122
000050 82 b8 43 3e bb 04 d0 3c 37 c9 07 3e 25 12 48 3d
       0.19113353 0.02539288 0.13260351 0.04884543
000060 bd 39 78 3c 3d 57 eb 3c b6 44 ab bd 5f fd c2 3d
       0.015150485 0.028728122 -0.08362715 0.09520983
000070 a6 ce 00 3e 8b b8 f5 3d 86 5f 1b 3d 35 86 da bd
       0.1257883 0.119980894 0.037932895 -0.10670129
000080 6a 7e f4 bd 54 49 02 3b f7 92 12 be 03 f8 34 bd
       -0.11938174 0.0019880133 -0.14313875 -0.044181835
000090 23 30 a5 3d 22 b2 de bd e3 67 12 bd 07 1f 8c 3b
       0.08065822 -0.1087382 -0.035743605 0.0042761597
0000a0 33 bb e7 bc cf a7 c1 3d 7c f5 0e bb 73 cf 99 bd
       -0.028287506 0.09455835 -0.00218138 -0.07510271
0000b0 d7 b8 8d bd 11 6e 47 be 11 d5 a6 3d bb 84 22 3e
       -0.06920021 -0.19475581 0.08146108 0.15870945
0000c0 31 73 54 3e dc aa 9c bd a6 88 90 bd 45 d6 c2 3d
       0.20747067 -0.07649776 -0.070573136 0.09513525
0000d0 25 a3 03 be 6b 93 2e be 9d 9f ac 3d 41 b9 cb 3d
       -0.12855203 -0.17048423 0.08428881 0.09947444
0000e0 9a c3 5d bd 93 a6 ed bc 97 3e 18 3b 62 7e d4 3d
       -0.05414162 -0.029010093 0.0023230666 0.10375668
0000f0 e2 b6 c0 3d c5 0f 54 3e 63 f4 f5 3d b1 9a b9 bd
       0.09409882 0.2070914 0.12009504 -0.09062708
000100 e7 5a c6 3d 6c 56 1b be 06 fe cd bd d3 ea 0b 3e
       0.09685307 -0.15169686 -0.10058217 0.13663797
000110 1e 02 ad bd 94 f1 71 3d 8b 3f 18 3e 58 63 38 3c
       -0.084476694 0.059068277 0.1486799 0.011254154
000120 fe 38 a9 bd e5 dc ed 3d 1b 62 5d 3d 86 94 d5 3d
       -0.082628235 0.11614398 0.05404864 0.10428719
000130 95 41 b8 bd 55 c8 9c 3d 6a 98 ac 3c 4c 8e 5d 3c
       -0.08996884 0.07655398 0.02106877 0.013522696
000140 d9 85 e3 3d c9 56 ea 3d c2 8f de 3d 34 f9 b6 bd
       0.11109514 0.11442334 0.108672634 -0.089342505
000150 d2 53 33 3d c7 fc d6 bd d2 d0 e6 3d 42 02 f2 bd
       0.04378111 -0.10497432 0.11270298 -0.11816837
000160 34 24 9b 3d 15 1a fa bd 89 2c bb 3d bb f4 d6 3d
       0.075752646 -0.12212006 0.09139354 0.104958974
000170 2e ce b5 3d 54 6b 05 be 56 c0 6b bd c7 b1 9e bd
       0.08877216 -0.13029224 -0.057556473 -0.07748752
000180 5f ff 00 3e df a4 9f 3c 95 2a ae bd 61 1a 90 3d
       0.12597416 0.019487796 -0.08504216 0.070362814
000190 47 20 4a 3d 67 0a 83 3d 72 9f 43 bd 38 14 98 3d
       0.04934719 0.063984685 -0.04775948 0.074257314
0001a0 3e c4 48 3e 65 47 fe bc c8 aa ac bd 68 3c db 3d
       0.1960611 -0.031039903 -0.084310114 0.10704881
0001b0 99 57 05 3e 0a 79 89 3d 91 25 1f 3e ed a3 21 3e
       0.13021697 0.067125395 0.15541674 0.15785189
0001c0 63 aa 27 3e b6 42 1b 39 06 bf 36 3e 81 6d 4b bd
       0.16373591 0.00014806804 0.17846307 -0.049664978
0001d0 81 0a cb bd 75 67 ab bc 49 0f c3 bd 8c 74 02 be
       -0.09914113 -0.020923356 -0.095244 -0.12739772
0001e0 27 d6 00 be ec 4d 5d bd f1 a1 1d 3e c5 3d e0 3d
       -0.12581693 -0.05402939 0.15393807 0.109492816
0001f0 ba a7 2e 3c f1 c9 ab 3b 16 5d f4 3d 09 28 69 3d
       0.010660106 0.005242579 0.11931817 0.056922946

net.3.weight f4 [64, 128]
000000 05 7b 42 3d 6d 27 51 bb 75 79 cf 3d a8 3f 06 be
       0.0474806 -0.0031914369 0.10130588 -0.1311022
000010 d7 ca 80 bd 20 90 f9 bc 10 06 9c 3d 37 52 33 3b
       -0.06288689 -0.030464232 0.07618344 0.0027362236
000020 de 93 47 bc 2c 99 a5 bb 5e a4 8f bb bb b3 40 3d
       -0.01218125 -0.00505366 -0.004383608 0.047046404
000030 f3 07 d4 3c fd 74 47 3d 5d 60 bd 3d 64 de e9 bc
       0.025882697 0.048695553 0.092468955 -0.028548427
000040 97 db 85 bd e0 81 0e 3c 9a 1d d8 3d 78 96 fa bb
       -0.06536024 0.008697957 0.10552521 -0.007647332
000050 db 8d f8 3d 4e 81 c9 bc 20 a7 3e bd f1 4b 7c 3d
       0.12136432 -0.02459779 -0.0465461 0.06159586
000060 3b 7a e7 bc 78 3f 5a ba 3a cf 58 3d 59 00 1c bc
       -0.028256526 -0.00083254976 0.052932 -0.009521567
000070 fa cf 31 bb 63 7d 43 3d 19 ee 98 3c f1 30 c9 3c
       -0.002713202 0.047727 0.018668221 0.02455947
000080 8a ae 87 3d 16 89 fa bd b5 7a 4d 3d de 79 3d 39
       0.066250876 -0.12233178 0.05016585 0.00018069844
000090 98 69 75 3d 0c 44 76 bc 0a af cd bd 67 37 85 3d
       0.059915155 -0.015030872 -0.10043152 0.06504708
0000a0 50 b8 05 3e 2b 58 ae 3b bb 97 9f 3d 53 b1 3e bd
       0.13058591 0.005320569 0.07792612 -0.04655583
0000b0 7d 86 b7 3a a0 80 81 bc 69 e5 2c bd 1b 8f 09 be
       0.0014001873 -0.015808403 -0.04221097 -0.13433497
0000c0 d6 c1 78 bc 5c b7 6d 3b 15 06 34 3d 1a 35 3f 3d
       -0.015182933 0.003627262 0.043951113 0.0466815
0000d0 d9 49 90 3c 8e 4c 84 3c 1c 66 04 bd cb 67 33 3d
       0.017613338 0.016149785 -0.03232394 0.043800157
0000e0 19 c7 f0 3c a3 da 06 3e eb 10 5d bd ee 9a ed 3d
       0.029391812 0.13169341 -0.053971212 0.11601816
0000f0 da 87 1f 3c 12 51 64 bd ae 23 93 3c ec 02 0f 3b
       0.009736979 -0.055741377 0.01796135 0.002182181
000100 e1 b4 4a bc 87 0a 82 3d 29 e5 6c 3d f1 9b 53 3d
       -0.012372226 0.06349664 0.05783573 0.05166239
000110 fc 93 c6 bc e8 2e fd 3c a3 60 49 bd 9a c8 f3 bd
       -0.024240486 0.030906156 -0.049164426 -0.11903496
000120 8e 96 07 be 61 3b e7 bb 8d 0c 00 3e ff 85 e2 bc
       -0.13241026 -0.007056639 0.12504788 -0.027651785
000130 79 6f d8 3d 2a 9f 8b bc 92 54 a8 3d 86 df b5 3d
       0.10568137 -0.017043669 0.082192555 0.08880524
000140 8d 3b 28 bd d3 f8 40 3d e6 39 8e 3c a9 df 08 bd
       -0.041072417 0.047112297 0.017361593 -0.033416424
000150 2e 22 f9 3d cd cb 79 bc d2 1a 8d 3d 02 9c 82 bd
       0.121647224 -0.015246344 0.06889881 -0.063774124
000160 98 22 48 bd 35 23 61 3d f3 fd 4c bd 49 3c 06 3d
       -0.048861116 0.054965217 -0.050046872 0.032772336
000170 10 1b b4 3b 92 50 d2 3c c1 0c 99 3d fd 90 8c 3d
       0.00549639 0.025673185 0.07473136 0.06863592
000180 0b 1f e0 3b a4 af cc 3c 83 0e f3 3c e2 02 f2 3d
       0.006839638 0.024986096 0.029670006 0.11816956
000190 35 e2 25 bc 6c 0f 82 bb ce 96 77 3c 74 a6 a3 3c
       -0.010124733 -0.0039691236 0.015111638 0.019976832
0001a0 df c2 66 bc dd f3 fd 3d b9 fe d4 bb e4 3f d4 3d
       -0.014084547 0.12400029 -0.006500092 0.10363749
0001b0 2a 2d a7 bd 4f 17 cb bb 19 42 96 3d 09 70 e4 3d
       -0.08162911 -0.006197847 0.07336826 0.111541815
0001c0 99 8b 8b 3d 73 37 69 3d 97 64 a8 bd 66 1c f3 bd
       0.068137355 0.056937646 -0.08222311 -0.11870651
0001d0 2c 55 d8 3d eb 43 b6 3d 82 42 83 3d 19 89 8c ba
       0.1056312 0.08899673 0.0640917 -0.0010722011
0001e0 6f 12 9b bd cb 1e ab bc dc ab 74 bd a0 bf 8f bc
       -0.07571875 -0.020888707 -0.05973421 -0.017547429
0001f0 66 46 b5 3a ff 10 a6 3c 6f 11 3c 3d ab c1 a4 bd
       0.0013830184 0.020271776 0.045915063 -0.08044752
000200 f0 49 b7 3d b4 59 6f 3d d7 63 b7 3d 37 19 43 3c
       0.08949649 0.058435157 0.0895459 0.011907867
000210 94 d3 42 bd 0c aa 78 3d 41 14 fe 3c b3 38 bd bc
       -0.047565058 0.060709044 0.031015517 -0.023098325
000220 eb ee 06 3e 0c 30 d7 bb 73 c7 02 3d a9 4e 93 bd
       0.13177077 -0.006567007 0.03192849 -0.071927376
000230 be fd 7d 3b bc 24 95 bd 41 3e a8 3d a9 c2 8d 3d
       0.0038755978 -0.07282397 0.08214999 0.06921894
000240 54 4d d2 bd f0 a6 79 bc 56 54 98 3b 31 2c 2d 3d
       -0.102686554 -0.015237555 0.0046487255 0.042278472
000250 da e4 a0 bc cb 55 ed 3d f7 38 bc bc 6e 97 ed 3d
       -0.019640375 0.11588629 -0.022976382 0.116011485
000260 51 34 e4 bd df 37 83 3d 74 77 be 3d 6b 2c 03 3e
       -0.11142791 0.06407141 0.093001276 0.12809913
000270 3b 84 75 bd 42 52 77 bc 79 31 9a 3d 04 29 2c 3d
       -0.059940558 -0.015095295 0.075289674 0.042031303
000280 6e 22 b4 3d f4 65 90 bc 92 07 bc 3c e7 40 d8 3a
       0.087956294 -0.01762674 0.022952829 0.0016498835
000290 d7 3c a1 3d c4 87 86 3c af ad f6 bd 63 e2 c8 3d
       0.078729324 0.01642216 -0.12044846 0.09808805
0002a0 11 df 49 3d b9 e4 61 3c a4 b9 a1 3c 00 a1 a1 3c
       0.049285 0.013787442 0.01974184 0.019730091
0002b0 6f 05 e2 bd af 2d 84 bd 6e c0 32 bb 6b d2 e1 bd
       -0.110361926 -0.06454026 -0.0027275342 -0.11026462
0002c0 4d 09 41 bc e8 47 cd 3d 56 05 9f 3c 75 c0 b9 3d
       -0.011782003 0.10023481 0.019411724 0.090699114
0002d0 9f e0 48 3d 65 98 33 bc 8b d1 04 3e 5f 1c 98 3d
       0.04904234 -0.010961627 0.1297056 0.07427286
0002e0 6c 23 82 3d 91 13 67 bc 6d b5 1f 3c 98 ae 38 bb
       0.063544124 -0.014103786 0.009747845 -0.0028180238
0002f0 68 53 0b 3d c2 63 3c bd 5f 8b 00 3d e8 d5 de bc
       0.03401509 -0.045993574 0.031382915 -0.027201608
000300 2e d7 a8 3d f4 19 31 bd 8c 3b c6 3d 2f 0f 04 bd
       0.08244167 -0.04323764 0.096793264 -0.032241043
000310 37 6e dd 3c e2 4a 6f 3d 97 16 25 3d ba b9 ce bd
       0.027030094 0.058421023 0.040304746 -0.10094018
000320 ad 4b 02 be 20 ae 6c 3d a9 2c dd ba eb c5 ee bc
       -0.1272418 0.057783246 -0.0016874272 -0.029147109
000330 ea 95 ee 3d 7e 01 69 3d 6d 98 e9 3d 00 95 d7 3d
       0.116496876 0.05688619 0.11406026 0.10526466
000340 c6 3a 34 bd d8 0a 8e bc ab 89 8a bd 17 11 71 bc
       -0.044001363 -0.017339155 -0.06764539 -0.014713547
000350 5e 45 39 3d e3 9f dd bc 58 55 1d bb e9 36 97 3c
       0.04523217 -0.027053779 -0.0024007168 0.0184588
000360 32 1c 49 3d e5 d0 e9 3c 87 54 be bd 09 d6 a5 bc
       0.049099155 0.028541991 -0.09293466 -0.020243661
000370 dc 2e ae 3c eb f7 f2 3c dc b1 dc 3d c2 15 13 bd
       0.021262579 0.029659232 0.107761115 -0.03590942
000380 0c 2b 06 bd 43 fe 8f 3b e3 b3 02 3e 4e d9 73 ba
       -0.032755896 0.004394324 0.12763934 -0.0009302095
000390 6f 17 6e bc f2 af 45 bd 71 e8 00 3d 03 b8 3a 3d
       -0.014531954 -0.048263498 0.031471673 0.045585644
0003a0 e3 91 b3 bd 54 57 e8 bc 74 9b f1 3d e4 b7 f1 3d
       -0.0876806 -0.028361954 0.117972285 0.118026525
0003b0 c0 14 98 3c 10 10 bc 3d 18 0d 62 bd be 94 06 bd
       0.018564582 0.09182751 -0.05518827 -0.032856695
0003c0 99 5a aa 3d e0 91 fe 3d 5f c5 19 3d 30 a6 a1 bd
       0.083180614 0.12430167 0.037541743 -0.07893026
0003d0 90 d5 6f bd ea 30 db 3c d2 79 19 bd 1c 7b 7f bd
       -0.05855328 0.026756722 -0.037469693 -0.062373266
0003e0 c3 a7 f5 bd 86 57 62 3d 7b 21 f5 bc 0c 27 17 3d
       -0.11994889 0.05525925 -0.029923191 0.036902472
0003f0 53 b3 6d 3d 1e 58 84 3c 78 d8 6e 3d 5e 17 41 3d
       0.058032345 0.016155299 0.05831191 0.047141425

net.3.bias f4 [64]
000000 92 c4 2c bc e1 1a 7f bc 25 33 ca bc 7e 66 14 3c
       -0.010544913 -0.015570373 -0.02468259 0.009057639
000010 ca fa c2 3d f4 1c 16 3c d7 72 e4 bc 8b be bb 3d
       0.095204905 0.009162176 -0.027886791 0.091672026
000020 92 2a c9 3d 88 1e c9 3d 60 5a ef 3d 74 f4 07 bd
       0.09822573 0.098202765 0.116871595 -0.033192113
000030 34 91 e9 3d dc a0 81 3d c8 59 88 3d f3 cc 1a 3d
       0.114046484 0.063295096 0.066577494 0.03779311
000040 61 d3 a5 3d 56 6e b0 3d be dc 9a 3d 78 f7 58 bd
       0.08096958 0.08614795 0.075616345 -0.05297038
000050 29 40 a5 3c 37 bc 53 3c f0 90 08 3c f3 cb c8 3c
       0.020172196 0.012923292 0.008335337 0.024511313
000060 f4 0c 71 3d 54 c0 5c 3c d5 52 24 bd 5c f0 62 3d
       0.058850244 0.013473589 -0.040118057 0.055405006
000070 56 a5 86 3d bf 67 a0 3c f1 e1 3d bc b1 1e 6f 3d
       0.06574504 0.01958072 -0.011589513 0.05837888
000080 3e d8 dd 3d 86 6a 33 3c ac 81 8c bd 9d 1a 0a 3d
       0.108322605 0.01095069 -0.068606704 0.033716787
000090 f1 9f cc 3d c2 19 8e 3d 06 77 ad 3d 67 b5 95 3d
       0.09991444 0.06938507 0.084699675 0.073099904
0000a0 6a b2 a6 3d 9d 58 7f 3d 2b 0d 9f 3d 11 90 35 3d
       0.081394985 0.062340368 0.077661835 0.044326846
0000b0 9b 8b b2 bc e1 bb 7f 3d aa ff 37 3d b0 65 72 3b
       -0.021795085 0.062435035 0.044921555 0.003698688
0000c0 5a 90 b9 3d 5f 6c ea 3d a7 08 f5 3d 56 14 80 3d
       0.09060736 0.114464514 0.11964541 0.06253879
0000d0 08 fc 1b 3d 66 ba 0c 3d 30 06 e8 3d 90 24 a4 3d
       0.038082153 0.03435745 0.11329305 0.08014786
0000e0 59 1b fd 3c d4 75 59 3d 6b 1c 9c 3c 9f c3 53 3d
       0.03089683 0.053090885 0.01905652 0.05170023
0000f0 aa de d3 3c 67 99 b6 bd 58 57 62 3d 4a c0 19 bd
       0.02586301 -0.08915978 0.05525908 -0.037536897

net.6.weight f4 [2, 64]
000000 c6 a4 85 bd 15 0d d9 bb 52 38 20 be 09 00 18 3e
       -0.06525569 -0.006623874 -0.15646484 0.14843763
000010 ae 13 ce bd c2 03 34 3e b5 34 e3 bd d5 c5 18 be
       -0.10062347 0.17579558 -0.110940374 -0.14919217
000020 dc 13 10 be cc 69 45 bc 9e e6 f0 3b bc 32 d3 3d
       -0.14070076 -0.01204915 0.0073517105 0.10312411
000030 09 32 aa 3b 0f 18 1f bd 2d 59 23 be 8e 6a bf 3d
       0.005193953 -0.038841303 -0.15951987 0.093464956
000040 79 a5 aa 3d ef 72 86 3d 95 88 06 3e e8 b7 26 be
       0.08332343 0.065648906 0.1313804 -0.16281092
000050 fe d2 96 3d f2 78 19 3e 08 69 e2 bd 90 f7 3e bd
       0.07364462 0.14987543 -0.11055189 -0.046622813
000060 4e 2f e1 bd 31 63 b3 3d e1 94 63 bd 84 a9 84 bd
       -0.10995351 0.08759154 -0.055561904 -0.06477645
000070 26 cf d7 3d b0 10 aa bd f4 64 16 bb 12 c2 14 be
       0.10537557 -0.08303964 -0.0022948356 -0.14527157
000080 90 91 a1 3d 5d 4f 3a bd b8 b0 df bd 59 1d d8 3d
       0.07889092 -0.045485843 -0.10922378 0.105524726
000090 7d bf 6f b9 ab 7e b5 bc 5f cd db bc 80 3c f0 3d
       -0.00022864151 -0.022155127 -0.026831327 0.117302895
0000a0 6c 8d 02 3e b0 4b 14 be 86 8f 25 be 04 18 25 be
       0.1274926 -0.14481997 -0.16168031 -0.16122442
0000b0 6b a9 32 3e e6 fa 2b be 86 7d ef 3d e7 51 cc 3c
       0.1744744 -0.16794929 0.116938636 0.024941398
0000c0 c0 7f 2f bd 6c 43 81 bd 11 8e ec 3d 77 bd 36 be
       -0.04284644 -0.06311688 0.115505345 -0.17845713
0000d0 e9 82 a6 3b 75 d8 09 be 3a 17 e8 bd ed a4 b4 3c
       0.0050815237 -0.13461478 -0.11332555 0.022051299
0000e0 9e 74 4f be 08 76 d1 bd ef 28 0a bd e4 ef cd bd
       -0.2025933 -0.10227591 -0.033730444 -0.10055521
0000f0 1b 60 53 bd 54 3d cd 3b e4 c7 b9 3d 41 96 84 3d
       -0.051605325 0.0062634144 0.09071329 0.06473971
000100 65 91 1d 3e 8e f0 f6 3d 03 bc 44 bc 1b 0c 10 3c
       0.15387495 0.12057601 -0.012007716 0.008791949
000110 ed e6 23 3e ff a7 01 be c5 af 23 3c e2 f4 04 3e
       0.1600606 -0.12661742 0.009990637 0.1298404
000120 37 0c 16 bd ce 9f 2d be 36 ea fe 3d 6c ed 1a be
       -0.036632743 -0.16955492 0.12447016 -0.15129632
000130 df d4 13 3e e5 5a 15 3e 3f 6b b6 3d bd eb 6e bd
       0.14436673 0.14585455 0.08907174 -0.058330286
000140 75 38 2f be 5a 1b df bd 69 81 96 3b b4 7e bd 3c
       -0.1711138 -0.10893889 0.0045930636 0.023131706
000150 95 0f b4 bd 52 b3 a3 bd 3c 5d de 3d 76 f8 ba 3d
       -0.087920345 -0.07993187 0.10857627 0.091294214
000160 00 38 48 3c c0 0a b0 bd 4c 5c ad 3d e8 e8 a4 3d
       0.012220383 -0.085958004 0.0846487 0.08052236
000170 ec b8 86 bd 5a 02 62 3e 77 6a ff bd 59 39 ce 3d
       -0.0657824 0.2207121 -0.124714784 0.10069532
000180 95 4b e9 bd aa fb 13 3e ee a4 14 3e e5 69 f8 bc
       -0.11391369 0.14451471 0.1451604 -0.030323932
000190 54 f1 d4 bd 07 79 05 3e 3e 34 21 be cc ea b1 bd
       -0.10397592 0.1303445 -0.15742585 -0.08687362
0001a0 d3 45 0b be 6c ed df bc 01 3a 92 bc e6 14 5a bc
       -0.13600855 -0.027334891 -0.017849924 -0.013310647
0001b0 f0 ca 2e 3d 9f ad c8 bc 36 1f 12 bd 37 5f 1a 3e
       0.042674005 -0.024496851 -0.035674296 0.15075384
0001c0 48 06 28 be 59 17 25 3d 0b a0 b1 bd a2 e8 3a 3d
       -0.16408646 0.04030547 -0.08673104 0.045632012
0001d0 86 4c 67 3c af be f1 3d 4d ea a6 3d 4d 29 29 be
       0.014117366 0.11803948 0.08150158 -0.16519661
0001e0 0c e8 f9 39 6c c0 58 3c b0 f8 1e 3e 05 41 e7 3c
       0.0004766587 0.013229471 0.15524554 0.028229246
0001f0 a0 c1 d1 3d 8c 94 49 3c e7 89 8f bd 25 0d ea bd
       0.10242009 0.012303483 -0.07008725 -0.11428288

net.6.bias f4 [2]
000000 c8 41 73 bd 5f 95 b5 bd
       -0.059388906 -0.08866381
