assets/snapshots/P0_baseline_transformer.pth (torch, 297603 bytes, 32 tensors)

input_proj.weight f4 [64, 1]
000000 19 a8 49 3f d3 5a 44 3f fa b8 ea be 35 99 b3 3e
       0.7877212 0.76701087 -0.4584425 0.35077825
000010 c2 dc 8b be b6 56 a2 bd 7a 55 85 3e 93 26 5b 3f
       -0.27316862 -0.07926695 0.26041776 0.85605735
000020 74 b9 6e bf 18 a1 1f 3e 27 90 55 bf 0a 5d 5c 3d
       -0.9325173 0.15588796 -0.83423084 0.053799666
000030 bf ed 11 3f bb 7d a7 3e 71 b9 0c 3f 7f 5c 48 3f
       0.57003397 0.32713112 0.5497046 0.7826614
000040 69 07 03 bf 67 84 64 3e f1 4c 58 bc be 04 02 bf
       -0.5118318 0.22316132 -0.013201938 -0.50788486
000050 06 26 41 bf a9 47 9c 3d a7 7b e6 be f0 43 00 bf
       -0.75448644 0.076308556 -0.45016214 -0.50103664
000060 23 73 40 bf fc 99 3a be de 73 a2 3e 4f e6 b1 be
       -0.75175685 -0.18222803 0.31729025 -0.34746024
000070 52 c6 ca 3c cc f4 3f 3f d0 bd 40 3d 1c 85 70 3e
       0.02475277 0.74982905 0.04705602 0.23488277
000080 29 a9 e6 3c 9c 59 67 3f 65 3b 21 be a2 ec 46 bf
       0.028156834 0.9037111 -0.15745313 -0.77704823
000090 6e ea 7e be 26 48 83 3e 7d 26 5c bf ce 26 5b bf
       -0.24894115 0.25640982 -0.8599623 -0.85606086
0000a0 9d cf 59 3f 68 91 e5 3e 56 6b 0f bf fa d5 1f bf
       0.8508242 0.448375 -0.56023157 -0.6243588
0000b0 40 0e 7a bf 4c d1 0f 3e 2e 71 80 be 38 77 b2 be
       -0.97677994 0.14044684 -0.2508635 -0.34856582
0000c0 ee bf 2e bf 42 32 70 bf 6c 7a 91 3e ce cf 46 be
       -0.6826161 -0.9382669 0.28413713 -0.19415209
0000d0 8d 81 f6 be 8f 6d fd 3d f4 7b 8f 3e 67 55 e0 3c
       -0.48145714 0.12374412 0.28024256 0.027384473
0000e0 b9 7b e7 3e ce 91 15 bf 96 e7 a9 be 30 03 5c bf
       0.4521158 -0.58425605 -0.331845 -0.85942364
0000f0 36 53 7a 3f 18 a4 c2 be db ce 85 3e f6 8c f5 3d
       0.9778322 -0.3801582 0.2613438 0.11989777

input_proj.bias f4 [64]
000000 dc a2 08 3f 54 a2 1f 3f b9 e1 37 be 24 fd 25 bf
       0.53373504 0.6235707 -0.179572 -0.64839387
000010 d5 d7 6e 3d a8 97 12 bf 1a 6e 6b 3f 96 a0 c7 bd
       0.058311302 -0.5726266 0.91964877 -0.09747426
000020 93 c3 70 3e c1 3f 40 3f 4c 2a 28 3e 45 44 6a bf
       0.23512106 0.7509728 0.16422385 -0.9151042
000030 b7 6f bf 3e 87 c7 21 be 16 8f bc 3e 7c 3f 16 bf
       0.3738992 -0.1579877 0.36827916 -0.5869062
000040 5b 27 dd 3e c1 00 e7 3e c7 c8 ed 3e bd af 5b bf
       0.43194088 0.45117763 0.46442243 -0.8581503
000050 c5 a5 f4 be 1c fd 8b 3e 0c 80 26 3f d7 5b e7 3e
       -0.47782722 0.27341545 0.65039134 0.45187256
000060 1b ad 3e 3f 7f 23 08 3f 5b 1e 0c 3f a3 34 07 3f
       0.7448289 0.5317916 0.5473382 0.5281469
000070 a4 ac 2e bf 0b f3 3b 3f 00 8d 6a 3f 3c 75 cb be
       -0.6823218 0.7341773 0.916214 -0.3973788
000080 9d 1f 5b 3e 14 83 2a be 32 98 1e be 2a 5b ce 3e
       0.21398778 -0.16651565 -0.15487745 0.40303928
000090 1e ac 5b bf d2 f9 69 3f db 12 fa bc b1 b5 37 bf
       -0.85809505 0.9139682 -0.03052657 -0.71761614
0000a0 20 90 54 bf a0 9e 05 3f d8 50 45 bf c6 ef 75 3f
       -0.8303242 0.5219517 -0.7707648 0.9606899
0000b0 b4 4b 76 bd bb b3 69 bf a7 bf fe be b5 6c 2e bf
       -0.06013079 -0.9128987 -0.49755594 -0.68134624
0000c0 d7 da 6e be a0 b0 51 3f 97 79 df 3d da 5f 82 3f
       -0.23325668 0.81910133 0.10911863 1.0185502
0000d0 8b 4b a5 3e 9c b9 0d 3f 01 5e f2 3e e6 92 71 bf
       0.32284197 0.5536134 0.47337344 -0.94364774
0000e0 75 6e 89 3e c4 c1 67 bf 95 62 e7 bc 68 62 51 3f
       0.26842085 -0.9053004 -0.02824525 0.8179078
0000f0 0b 10 70 3f 85 8e 6c bf 5e e7 99 bd 9d a2 4b 3e
       0.9377448 -0.9240497 -0.07514833 0.19886251

encoder.layers.0.self_attn.in_proj_weight f4 [192, 64]
000000 c3 0b 19 3c ba 5b b7 3d 91 92 f5 3c c9 4b 2d 3d
       0.009341183 0.08953042 0.029977115 0.042308602
000010 65 b1 8e bd 2b 74 38 bc 24 90 e8 bd 8d 0c 84 bd
       -0.06967429 -0.011258165 -0.11355618 -0.06447706
000020 e7 db 56 bd 5e d4 c0 3c 6c dd 42 bc e9 6b ba bd
       -0.05245581 0.023538765 -0.011893611 -0.091026135
000030 8e d1 64 3c ef 64 a5 bd c2 f2 db bd 62 1d d7 bd
       0.013965977 -0.08075892 -0.10739662 -0.10503651
000040 cb 78 12 bd 5f cd 63 3c f9 22 98 3d da c6 92 3d
       -0.03575973 0.013903945 0.074285455 0.07166834
000050 90 a5 22 3b 37 1a e1 3d 0b d0 e4 3d 51 02 42 3d
       0.0024817921 0.10991328 0.111724935 0.04736549
000060 72 a8 9c 3d 1e 04 a2 bd bb de c4 3d d2 35 e5 3d
       0.07649316 -0.079109415 0.09612795 0.11191906
000070 49 70 d1 bd 8f 96 f4 3d 46 7b c3 bb f5 c0 f9 3c
       -0.10226495 0.11942779 -0.005965623 0.030487517
000080 c5 59 7a bd a2 4a 20 3d 1a f2 95 bc ac eb b9 bd
       -0.061120767 0.039133675 -0.01830392 -0.09078154
000090 fe 66 87 bd fa 36 65 3b d2 5c 00 3d 93 57 4b bd
       -0.06611441 0.0034975396 0.03133852 -0.049644064
0000a0 db 22 08 3e be 82 6e 3b 89 dd e9 3d c7 2d f8 3d
       0.13294546 0.0036393846 0.114192076 0.12118106
0000b0 5f e8 c8 3d 26 63 ad 3c c8 fc 61 bd 51 90 d7 3d
       0.09809946 0.021165442 -0.05517271 0.10525573
0000c0 98 35 93 3c 70 60 a4 bd 9d 8a b4 bc 16 a0 0e be
       0.017969891 -0.080262065 -0.022038752 -0.13928255
0000d0 22 56 d1 3d 49 27 92 bd 6f 0a 3f 3c f5 4e 93 3d
       0.10221507 -0.07136399 0.011660202 0.07192794
0000e0 9a 06 10 3d cc 72 ad bc 68 86 a6 bc d2 77 ff bd
       0.035162546 -0.021172903 -0.020327762 -0.12474026
0000f0 2f 62 dd bd 20 29 db bd 57 1a 7e 3d 07 0e 01 3e
       -0.10809743 -0.10701203 0.06203684 0.12603007
000100 00 2a 11 be c9 ef 17 be 51 b1 bd bc b3 4f d4 bd
       -0.14176178 -0.14837565 -0.02315584 -0.10366764
000110 81 8d ef 3d 90 98 0f be 81 e0 c8 3d 54 16 5e 3d
       0.116969116 -0.14023042 0.09808446 0.054220513
000120 4f c3 01 3e 15 74 b8 bc 9b 20 05 3e e6 6a ff bd
       0.1267216 -0.02251629 0.13000719 -0.12471561
000130 68 a7 cc 3c 40 70 18 be 7e de cf bd 54 66 75 bd
       0.02498217 -0.1488657 -0.10149859 -0.05991204
000140 7c e1 c0 3d 58 cc 04 3e 48 17 7f 3d 6f 73 f9 bc
       0.09418008 0.12968576 0.062278062 -0.03045055
000150 5d 00 88 bd e1 77 02 3e 39 17 a5 bd 31 bb a4 bd
       -0.06640694 0.12741043 -0.0806107 -0.080435164
000160 73 a3 10 3e 53 aa 7e 3d f3 35 8d bd e8 da e8 3d
       0.14124851 0.062174153 -0.068950556 0.11369878
000170 b5 eb 8a bd 68 ab 01 3d 61 23 03 bd 7e 6c 85 3d
       -0.06783239 0.031657606 -0.03201616 0.06514834
000180 d6 98 9d bd 15 27 ac 3d 57 b8 9e bd 70 8f 48 3d
       -0.07695167 0.08405892 -0.07750004 0.048964918
000190 ff 32 b3 bd 64 d9 5d 3d 0f f5 ab bc 3b 37 be 3c
       -0.08749961 0.054162398 -0.020990876 0.023219695
0001a0 15 56 08 3e 83 11 7f 3d 2b f7 9d bd 7a 6f c9 bc
       0.13314088 0.06227256 -0.07713159 -0.024589289
0001b0 ea a6 5f 3c 61 14 77 3d a2 b1 a9 bd 02 b6 78 bc
       0.013650635 0.06032217 -0.08285834 -0.015180113
0001c0 72 46 60 bd fe eb ea bd 09 9d d3 3d 42 69 0c 3e
       -0.054754682 -0.11470793 0.103326865 0.13712028
0001d0 72 64 2a bd bf b6 80 3d 0c e5 0e 3e 6f 9c 89 3b
       -0.0415997 0.06284856 0.13954562 0.0041995565
0001e0 5b 62 93 bd e8 1d f1 bc b3 24 25 3e f4 9a 07 be
       -0.07196494 -0.029433206 0.16127281 -0.13242704
0001f0 0f 75 43 3d fb 98 fc 3c 7f 38 be 3d 19 3c c5 3d
       0.047719058 0.030834666 0.092881195 0.09630603
000200 02 65 a7 3d 3b 8a b5 3d 6b 52 a9 bd ca d9 1e bd
       0.081735626 0.08864256 -0.08267673 -0.03878192
000210 db 74 14 be fd 0f 9a bd 13 37 06 be e0 f5 b1 3d
       -0.14497702 -0.07522581 -0.13106947 0.08689475
000220 79 6c 30 3d 4c f0 1c be 86 c4 03 3e fa fe fb 3c
       0.043072198 -0.15326041 0.12867936 0.03076123
000230 66 e9 d0 3b 25 af 32 bd a5 ec a3 3d 97 28 98 3d
       0.0063754795 -0.043624062 0.08004121 0.07429617
000240 23 37 6f bd f3 9b 12 be 45 e2 85 3d 43 20 6f bd
       -0.05840219 -0.14317302 0.06537298 -0.058380377
000250 9d e5 1d bd 67 61 f6 3d e2 66 bc bd 3e df 29 3d
       -0.038549054 0.12030297 -0.09199311 0.041472666
000260 78 76 19 3d 94 96 70 3c 49 da 80 bc d6 3b 55 3c
       0.037466496 0.014684338 -0.015729086 0.013014754
000270 f2 56 a0 3d 8b 3e c7 bc 25 c3 81 3d 0d aa 0a 3e
       0.078290835 -0.024321815 0.06336049 0.13541432
000280 ae a8 b1 bd b6 56 42 3d 58 9b 6f bd 98 a0 d2 3d
       -0.08674751 0.047445975 -0.058497757 0.10284537
000290 f0 11 5a bd ee b5 a9 bd 74 db c2 3d d8 1e ac 3c
       -0.053239763 -0.082866535 0.095145136 0.021010801
0002a0 87 ef ef 3d 39 be 76 bd b9 5e 92 3c 6d cd 62 3d
       0.11715608 -0.060240004 0.017867433 0.05537169
0002b0 c8 5d eb bb 76 63 47 3c 92 53 2d 3d 7f 29 11 3e
       -0.0071828105 0.012169709 0.042316027 0.14175986
0002c0 d8 80 19 3d 8e 4c ac bd d8 60 9b bc c7 d6 07 3e
       0.03747639 -0.08413039 -0.018967077 0.13265525
0002d0 1d 2d 4e 3a 09 72 0e be 90 d0 e4 3d d7 df bd bd
       0.0007864999 -0.13910688 0.11172593 -0.0927121
0002e0 d2 59 e9 bd 72 ab 23 bd ea bc e2 bd d3 4b a3 3d
       -0.11394085 -0.039958425 -0.11071189 0.07973447
0002f0 22 87 13 be 90 82 07 be 6e 14 cb bd 01 14 04 3e
       -0.14407018 -0.132334 -0.09916006 0.12898256
000300 89 ad fc bd 4f a9 1d bc b7 31 10 be f9 87 57 3b
       -0.12337787 -0.009622886 -0.14081465 0.0032887443
000310 b0 11 b6 bd 4b f2 1e 3c ee 34 ab 3c 69 52 15 be
       -0.088900924 0.009701322 0.020899262 -0.14582218
000320 a3 9f 1d be f0 b2 b7 bd 9a 53 a5 bd a7 9a 9e bd
       -0.15392928 -0.089696765 -0.08072586 -0.07744341
000330 e8 c8 a8 3d 04 8a d4 3d f0 31 91 bd 6b be 0d bd
       0.08241445 0.10377887 -0.07089603 -0.034605425
000340 71 a5 b3 3d 58 e7 c2 bd 33 53 96 3d 4d 9e 04 3e
       0.0877179 -0.095167816 0.07340088 0.12951012
000350 17 40 39 bd e8 d2 d4 3d 91 48 cd bd ab 08 ae 3b
       -0.045227136 0.1039179 -0.100236066 0.005311092
000360 74 52 eb 3b 21 da f5 3d 33 b9 69 3c 15 bd cc bd
       0.00718146 0.120044954 0.014265346 -0.09997002
000370 4e c4 14 3e a2 4e 0b be 13 dc ac 3d d1 21 4f 3d
       0.1452801 -0.13604215 0.08440413 0.05056936
000380 04 66 0f 3e 80 4b 8c bd fc 8c 12 3e 83 d7 dc bc
       0.1400376 -0.06850338 0.14311594 -0.026958233
000390 2a 0e b1 bd a4 54 19 3e db b2 68 bd c0 52 8e 3c
       -0.0864528 0.14973694 -0.056811195 0.017373443
0003a0 52 94 45 bd 05 be 9d bd bb e0 17 3e 85 d6 3b 3d
       -0.048237152 -0.07702259 0.14831822 0.04585888
0003b0 16 13 a9 bd ec 35 f6 3c bf c3 6c 3d 8d 21 b3 bd
       -0.082555935 0.030055009 0.057803866 -0.08746634
0003c0 cf 83 c9 3d b3 5b 03 3e 43 3a b6 bd 63 be ad 3d
       0.098395936 0.12827949 -0.08897831 0.08483579
0003d0 74 f6 15 be 49 ba ff bd 6d c9 14 3d 78 c5 65 3d
       -0.14644796 -0.12486703 0.036324907 0.056096524
0003e0 48 26 b2 bd 35 18 01 3e c4 58 99 3d 9d f9 5d bd
       -0.08698708 0.1260689 0.07487634 -0.054193128
0003f0 18 54 0e 3e 86 19 1a be fc 59 f8 bd 5b 4c fb bd
       0.13899267 -0.15048799 -0.12126538 -0.12270423

encoder.layers.0.self_attn.in_proj_bias f4 [192]
000000 1f 72 e4 b9 84 6a bf 3b 66 bd ab ba af 05 a6 bb
       -0.00043572576 0.005841555 -0.001310271 -0.0050665955
000010 60 71 04 bd 79 d3 eb 3b 15 33 89 3a ff 6e 11 bb
       -0.032334685 0.0071968404 0.0010467494 -0.0022191403
000020 8e 36 96 bb 03 36 8a 3b 30 d1 74 3c ed fe 09 3a
       -0.00458414 0.0042178645 0.014942452 0.0005264122
000030 e0 a8 09 bb 25 9c 8c 3c 31 a1 96 3b 7b dc 97 bb
       -0.0021005198 0.0171643 0.004596852 -0.0046344376
000040 7a 67 d0 3b 05 a3 e2 3c 94 64 77 bb 66 e3 22 bb
       0.0063599916 0.027665624 -0.0037749158 -0.0024854778
000050 24 66 87 bb e7 8d 0d 3c d7 c8 05 3b 86 a6 74 bc
       -0.004132049 0.008639789 0.00204139 -0.01493228
000060 bf 4c 66 3d f4 4b 05 bd 57 eb 2f 3c 2d 95 d6 bc
       0.056225535 -0.032543138 0.010737262 -0.02619418
000070 a4 5a ee bc 04 fe 25 bc 81 72 16 3d 08 6d 7b bc
       -0.029095955 -0.010131363 0.036730293 -0.015345819
000080 db 44 6b 3c 98 a1 37 3c bf 71 fb 3a 66 86 72 ba
       0.014359678 0.011207961 0.0019183679 -0.00092515943
000090 d3 dd 14 3b ed b6 2f 3b de 0e 68 3c 4e 67 9d bc
       0.0022715225 0.0026811913 0.014163701 -0.019214299
0000a0 1d 82 ad bb 4a 58 80 3b e9 b1 58 3c 6d 45 a6 3a
       -0.0052950517 0.003916775 0.013226011 0.0012685485
0000b0 a7 6f 52 3c b3 82 ad bb bd e0 66 3c 03 e0 b8 3b
       0.012844003 -0.0052951216 0.014091668 0.0056419387
0000c0 1f c7 ab bb 8c 4b 11 3c 97 2a 8c 3c eb 64 ba bc
       -0.005242243 0.008868109 0.017110152 -0.0227532
0000d0 92 62 48 bc 5f 86 32 bc 89 e5 f6 3c d6 85 c6 bb
       -0.012230532 -0.010896294 0.030138748 -0.006058435
0000e0 44 7c f1 ba 4e 36 36 3d da c9 49 bd 04 27 56 3c
       -0.0018423875 0.044485383 -0.049264766 0.0130708255
0000f0 f5 82 20 bd b7 f0 1f bc a4 04 39 bc 7c 3b 1a bc
       -0.03918739 -0.009761981 -0.01129261 -0.009413596
000100 3d c1 21 3a cb d2 18 3b ad f0 1c 3a 2d a0 07 3a
       0.00061704573 0.0023319002 0.0005986791 0.00051737094
000110 ed 7e bc ba fd 95 8b b9 6f c3 65 37 e8 1e f9 39
       -0.0014381089 -0.00026623896 1.3694967e-05 0.00047516008
000120 c4 9d 2b ba 92 05 c7 3b 2c 6a 4f 3b d5 44 68 3a
       -0.0006546641 0.006073662 0.0031648977 0.00088603544
000130 a5 e1 a8 bb f5 ed d0 bb d1 07 06 3b b5 3a 23 3b
       -0.005153852 -0.006376023 0.0020451436 0.0024906818
000140 be 17 93 bb 55 4d 80 ba d3 07 1c bb ec 7c 53 3b
       -0.0044889143 -0.0009788672 -0.0023808375 0.0032270504
000150 57 e1 0d 3b 76 ff 8e 3b db cf 2b ba d1 93 08 3a
       0.0021649206 0.0043639494 -0.0006554105 0.00052100146
000160 1f f9 40 3c c9 f8 5d bc cd 6c a4 3b e8 bc ae bb
       0.011778145 -0.013548085 0.005017853 -0.005332578
000170 00 ae 25 bc 12 6f 7c ba 8b 82 dc 3b c8 a9 1c bb
       -0.010112286 -0.0009629588 0.006729429 -0.0023904908
000180 cf 6b 4f ba 5c 82 86 3b 7f 95 ab ba cb ef 8c b9
       -0.0007912488 0.0041048955 -0.0013090818 -0.0002688154
000190 44 6a 27 3b 71 5b b2 ba 06 7a b6 3b 04 98 97 3a
       0.0025545517 -0.0013607574 0.0055687455 0.001156569
0001a0 1e cc 08 3b b4 ba 96 ba 1d 24 3d ba 85 22 c9 39
       0.0020873616 -0.0011499734 -0.0007215159 0.00038363427
0001b0 8e 08 dd 3a 9d c9 80 ba 38 30 82 3a b6 97 b2 ba
       0.0016863511 -0.000982571 0.0009932583 -0.0013625536
0001c0 92 fc cb 3b 16 2a d3 3b ea 6d 49 3c dc 86 a1 bb
       0.006225177 0.006444226 0.012294272 -0.0049294066
0001d0 da 1f bc 3b 99 25 67 3a ba e9 32 3c 46 2e a5 bb
       0.0057411017 0.0008817553 0.010919983 -0.0050409166
0001e0 1c f5 1e 3c db a1 91 3c c3 a8 aa bc 40 f7 35 3c
       0.009701993 0.017777374 -0.020832425 0.011106312
0001f0 af dd be bc 2f 01 6c bc a4 26 4d b9 85 ab 6d bc
       -0.023299066 -0.014404579 -0.00019564718 -0.0145062255
000200 86 49 15 3c 8c 46 11 bc 39 f2 e0 bb 93 f8 b4 3b
       0.009111768 -0.008866917 -0.0068648127 0.0055227964
000210 be fd 48 3c 36 d6 a8 ba e0 0c b8 3a 19 79 73 bc
       0.012267528 -0.0012881223 0.0014041923 -0.014860415
000220 e3 2d 31 3b 60 24 9b bb bf ab 9a 3b bf 3c 92 3b
       0.0027035407 -0.004734561 0.0047201808 0.004462808
000230 c7 45 90 3c 39 9e 08 bc 6e 1e c3 bb 8b d3 6e bb
       0.017611397 -0.0083385045 -0.0059545552 -0.0036442007
000240 cb 8c 26 bc ca d1 ee bb 45 af a4 3b 27 5b 8b 3b
       -0.010165404 -0.0072881924 0.0050257766 0.0042528096
000250 1b ea 5a bb 58 db 16 3b 31 18 3e 38 3c 86 39 bc
       -0.0033403698 0.0023018923 4.532206e-05 -0.011323508
000260 18 32 a1 3b 48 1b e0 bb 90 17 0c bb 33 97 98 bb
       0.0049193017 -0.0068391897 -0.002137635 -0.004656696
000270 47 e6 de 3b 93 77 2d bb e9 fe 18 bc d8 ef 30 ba
       0.0068023535 -0.0026468977 -0.009338119 -0.00067496067
000280 f7 0f 7f bc 61 89 80 3c 70 db 99 b9 4b d4 13 bc
       -0.015567771 0.015690507 -0.00029345928 -0.009022783
000290 42 b0 06 3c 1a df e5 3b a4 6b d5 ba b9 02 50 3a
       0.008220734 0.007015121 -0.001628269 0.0007934976
0002a0 fd 35 56 bc f0 ba cf 3a 86 64 98 3b 6b 6b 44 3a
       -0.013074395 0.0015848558 0.004650655 0.0007492813
0002b0 d0 c3 e9 bb 84 35 0a 3b 56 cb 6f 3b 7d 35 89 3b
       -0.0071339384 0.0021089027 0.0036589704 0.0041872845
0002c0 6e ac e2 3b 31 31 09 bb 78 b0 42 3b 15 cc f1 bb
       0.006917528 -0.0020933861 0.0029707234 -0.007379065
0002d0 df 20 a7 bb 36 15 07 3c c7 5d 89 3a 68 81 d6 3b
       -0.005100354 0.008244803 0.0010480218 0.006546188
0002e0 a6 88 8f ba 13 79 bd bb 21 18 98 bb 3c 70 09 3c
       -0.0010950759 -0.0057822554 -0.0046415483 0.008388575
0002f0 c8 b0 87 bb 84 44 52 bb 07 35 a4 3a 8e c1 96 3b
       -0.004140947 -0.0032084296 0.001252801 0.0046007102

encoder.layers.0.self_attn.out_proj.weight f4 [64, 64]
000000 40 07 8e bd be 56 93 3c 04 e0 9e 3d bb 08 ce bd
       -0.069349766 0.017985698 0.07757571 -0.10060259
000010 c8 c7 6a bd 79 1e 00 be a3 09 f1 3c fd 32 39 ba
       -0.057319432 -0.12511624 0.02942354 -0.0007064788
000020 b2 f9 0a 3b 7c 94 84 3d f2 32 26 bd 99 4a a1 3c
       0.002120596 0.06473634 -0.04057593 0.019688891
000030 7e 83 c6 3d 4d fc 07 3e ac 84 8f bd 80 f1 9b 3c
       0.09693049 0.13279839 -0.07007727 0.019036055
000040 95 e1 0a bd 6a 75 c4 3b 0a 08 93 3b a2 30 7b bd
       -0.033906538 0.005995442 0.0044870423 -0.061325677
000050 32 fe 20 bd 83 fc 90 3d fb c6 29 3d 66 4e 2a bd
       -0.03930492 0.07079413 0.04144953 -0.041578673
000060 e0 3c 37 3d f2 0d d6 bc d1 61 04 bd 09 cf 7d 3c
       0.04473579 -0.026129697 -0.032319847 0.015491256
000070 ba 68 a7 bd eb e9 d5 bd 42 7d c3 3d 7d 09 96 3d
       -0.08174272 -0.10445007 0.095453754 0.073260285
000080 36 65 6b bb 2c d5 d6 3d 10 21 7a 3c dd 75 f2 3d
       -0.003591848 0.10489878 0.015266672 0.11838887
000090 2a d3 86 3d 86 63 44 3d ab a1 cd 3c f9 f8 4f 3d
       0.06583245 0.047946475 0.025101503 0.05077455
0000a0 93 04 01 be d6 3c cb 3d d6 03 94 bd 7d b2 3a 3c
       -0.12599401 0.09923713 -0.07227294 0.011395094
0000b0 00 05 bb bd f2 ca 15 bd 06 f9 08 bd ff 8c c2 bc
       -0.09131813 -0.036570497 -0.033440612 -0.023748873
0000c0 74 26 a0 bd e3 34 3f bd 30 46 9b 3d 89 73 8e bd
       -0.07819834 -0.046681296 0.075817466 -0.0695563
0000d0 30 c5 a2 3d b5 69 c8 3b 7b 1b d0 3c 0a 1c 07 3e
       0.07947767 0.006116117 0.025403729 0.1319429
0000e0 81 a1 55 3d a9 1d ca 3d de 99 ab bd 73 8d 0d be
       0.052155975 0.098689385 -0.08378957 -0.1382349
0000f0 c8 70 95 bd 33 2d d8 bd 93 6d 27 3d 7c ac 48 bd
       -0.07296902 -0.10555496 0.040875982 -0.04899262
000100 03 41 77 bd 0b 7c 49 bb 31 6c 49 3c 03 de 81 bd
       -0.060364734 -0.0030744101 0.012293861 -0.063411735
000110 28 40 ac bb 5e e9 83 bd 11 9b 56 bd 58 88 30 bd
       -0.0052566715 -0.06440996 -0.052393977 -0.043098778
000120 cb 27 e1 3c 42 21 be 3c a3 c3 b7 bd dc dc 7b bd
       0.027484795 0.023209218 -0.089728616 -0.061489925
000130 a2 54 d7 3c b5 96 a6 3d 8a 89 7d bd a0 05 76 3c
       0.026285473 0.08134214 -0.061898746 0.01501599
000140 ac 6e a0 3d b8 f8 ca 3d c6 3a c4 3d 19 17 92 bd
       0.07833609 0.099107206 0.09581523 -0.07133312
000150 e5 a1 c4 bd 4a 16 31 3c 95 b1 3d be c4 80 1c be
       -0.096011914 0.010808537 -0.18524773 -0.15283495
000160 04 79 f8 bd bb 78 51 bc d7 46 a8 bb e3 eb f3 3d
       -0.12132457 -0.012785132 -0.005135398 0.11910226
000170 41 f7 d9 3c 71 ea a1 3b b9 45 9c bc ca f4 cc 3d
       0.026607158 0.0049412777 -0.019076215 0.10007627
000180 00 cd bb 3d b9 93 04 3e 90 8c 1d bd ff d4 f7 bc
       0.0916996 0.12946977 -0.03846413 -0.030252932
000190 66 5c 19 3e 2e 1c 25 bd eb 86 01 be d3 fb 1a 3d
       0.14976653 -0.040310077 -0.12649123 0.037837815
0001a0 13 c0 cb bd 87 43 11 be d4 d3 05 3b d4 d8 f7 bc
       -0.099487446 -0.14185916 0.002042045 -0.030254759
0001b0 29 44 a4 bc 0e 24 7c 3d 00 3c c2 3c 62 68 00 3d
       -0.020052033 0.061557822 0.02371025 0.031349547
0001c0 08 30 18 3c fd 9c 09 3e 0d 35 d7 3d 62 f3 c9 bd
       0.009288795 0.13438793 0.105081655 -0.09860875
0001d0 e6 ea 2a 3d cd b7 b5 bd d0 28 97 3d 42 ab 85 bd
       0.041727923 -0.08872948 0.07380831 -0.065268055
0001e0 e8 cf c7 bd 13 7c 20 be 27 54 1c 3d 9c d2 6e bc
       -0.09756452 -0.1567233 0.03816619 -0.01457658
0001f0 e0 b7 10 3e 21 73 83 3d b8 f5 d0 bd 1e 7f b4 3d
       0.14132643 0.064184435 -0.10203117 0.08813308
000200 8e a3 a8 3a 7b 65 e1 bd 6c 45 d9 3d 3d 14 db bc
       0.0012866126 -0.11005684 0.10608944 -0.026743049
000210 fd 2e 06 be 2f 57 a9 bc 52 ad f7 bc 73 0d ba 3d
       -0.13103862 -0.020671455 -0.030234013 0.090845965
000220 cc 04 0f 3d a9 f3 88 3d 91 e0 4c bd 27 58 f9 3c
       0.034916684 0.066870995 -0.05001885 0.030437542
000230 3b e3 af bd 87 34 26 3d bd db dd bd 77 1e dd bd
       -0.08588263 0.040577438 -0.108329274 -0.10796826
000240 5a 5d 9e bc 31 9f 7a 3d 48 4b 8e bd c6 c0 60 3d
       -0.019331623 0.061186973 -0.069479525 0.054871343
000250 8b 1c 99 3d 21 6d 1a bd cc 36 fc 3d 5c 86 1e 3d
       0.07476147 -0.03770173 0.12315139 0.038702354
000260 e0 d9 0a bd d5 ee f1 3d a9 2a b7 bd 31 da 7d bd
       -0.033899188 0.11813132 -0.08943684 -0.06197566
000270 69 d0 00 bd 3a 4c 8b bc 74 06 3f 3d ac 13 09 3e
       -0.031448755 -0.017004121 0.046637014 0.1338641
000280 ee 55 29 bc ea 9e 97 3c 83 df 0d 3e 89 38 44 3d
       -0.010335429 0.018508393 0.13854794 0.04790548
000290 6a 52 99 3d c4 29 12 3c 19 b3 2b 3d bb de 8c 3d
       0.07486422 0.0089210905 0.041918848 0.0687842
0002a0 30 98 f3 bd aa 20 7b bd 7c a8 8e bd 83 97 8e 3d
       -0.11894262 -0.061310448 -0.069657296 0.06962492
0002b0 da 3e 02 be bb 1c f9 3d 7f 86 93 bd 56 35 92 3d
       -0.12719288 0.12163683 -0.072033875 0.07139079
0002c0 50 28 20 3d 12 2a 19 3d 21 d7 98 3d a2 f3 af 3c
       0.039100945 0.037393637 0.074629076 0.021478478
0002d0 2b ec ee 3d db 49 e9 bd ff 19 10 bd 49 c6 5f bd
       0.11666139 -0.1139104 -0.03518104 -0.05463246
0002e0 e7 b7 e7 bd 2f 16 9a bd 77 7e 26 bd 05 ae 72 3d
       -0.113143735 -0.075237624 -0.04064795 0.05924799
0002f0 96 c8 f9 bd 90 e2 92 3d e0 78 f0 bc d8 b7 52 3d
       -0.12196462 0.071721196 -0.029354513 0.05144486
000300 69 16 14 be 81 4a 98 bd df 24 a2 3d 15 91 01 3d
       -0.14461674 -0.074360855 0.07917189 0.0316325
000310 41 93 0e 3d 96 05 83 bd f7 b2 aa bd 21 56 c9 3d
       0.0348084 -0.0639755 -0.08334916 0.09830881
000320 dd 1a 48 bd 1e 9a dc bd 8b b9 2e 3d 8c 0b 35 bd
       -0.048853744 -0.10771583 0.042657416 -0.044200465
000330 b1 9f a9 3d 48 24 33 bd 66 2a 09 bd d4 c7 65 3c
       0.08282412 -0.043735772 -0.0334877 0.0140246935
000340 da d1 10 bb 42 7b 6c bd ae ec 99 3c b0 6a 18 3e
       -0.0022097738 -0.057734735 0.018789615 0.14884448
000350 68 69 54 3c 19 93 16 3c cb 56 87 3d 13 c8 a2 3c
       0.012964584 0.009190344 0.06608351 0.019870793
000360 ec d7 fb 3d cc f6 ab bd 41 21 4f 3d bc 5b 8e 3d
       0.12297043 -0.08396682 0.050568823 0.06951091
000370 56 ea 22 bd 07 12 98 bd 56 2e ef bd b5 97 3b 3d
       -0.03977426 -0.074253134 -0.1167876 0.045798976
000380 eb f6 a4 bd 86 e8 74 bd 70 6f 56 3d 95 3e e9 3c
       -0.08054908 -0.059792064 0.05235237 0.028472224
000390 11 08 98 bd 3f 6e 40 3d ef 27 c8 bc f6 51 7c bc
       -0.074234135 0.04698014 -0.024433104 -0.0154004
0003a0 2a 16 47 bd cc e4 84 bd d3 ec ba bd c4 bd dc 3b
       -0.04860512 -0.06488952 -0.09127202 0.006736489
0003b0 61 6a 98 bb 8e 5f f9 3d 6a ce 73 3d 5a b1 dd bd
       -0.004651353 0.12176429 0.059523024 -0.10824843
0003c0 98 d2 db bc a0 25 c5 bd a7 ee c5 bd e2 3f ba 3d
       -0.026833817 -0.09626317 -0.0966466 0.09094216
0003d0 9f d4 b1 3d 8f c0 93 3d 77 38 11 be f3 54 d2 3d
       0.086831324 0.07214462 -0.14181696 0.10270109
0003e0 99 b2 8e 3d 37 99 07 3e 07 99 b0 bd bc 3b 9b 3d
       0.069676585 0.1324204 -0.08622938 0.07579753
0003f0 7e c0 9d bb 49 9a 9b 3d f4 11 bf 3b 79 dc b7 3d
       -0.0048142066 0.07597787 0.0058309976 0.08977599

encoder.layers.0.self_attn.out_proj.bias f4 [64]
000000 0e 91 85 bb 47 f5 cd 3b ef d6 26 3b 3a 3d 3c 3c
       -0.0040761298 0.006285343 0.00254577 0.011489207
000010 53 54 34 3b 61 e8 f5 3b bc 1e 74 bc c2 ec 8a 3c
       0.0027516081 0.0075045084 -0.014899906 0.016958598
000020 19 26 a9 bc b8 f1 97 bc 64 11 9f bb 3d 77 70 3c
       -0.02064805 -0.018547878 -0.004854368 0.014676866
000030 7b 6b b6 bb ba 96 c6 bb 03 26 c2 bb a4 ab d3 3b
       -0.005567012 -0.0060604485 -0.0059249415 0.00645967
000040 df da d9 bb a0 ba 3a 3c 11 70 9c bb 6d 15 71 3c
       -0.006648406 0.011397034 -0.0047741015 0.014714581
000050 18 1d ed 3b 55 72 1c bc a1 f4 06 3b a4 93 c3 3a
       0.0072361343 -0.009548743 0.0020592588 0.001492132
000060 b0 d5 c4 bc e5 52 7a bc d5 d2 7b bb 3a ea 3d bc
       -0.024027675 -0.015278553 -0.0038425226 -0.0115914885
000070 ce ae 08 3c 6e e0 65 bc 6d 33 2b bc b0 f1 dd 3a
       0.008342458 -0.014030559 -0.010449273 0.001693299
000080 72 2b 80 3b 65 bd 0a 3c 6d 6b 05 bc 7b 6a e1 3b
       0.003911429 0.008468007 -0.008143288 0.0068791485
000090 30 50 8c 3c 99 74 52 bb 8f 82 4a bc 08 0e 41 3c
       0.01712808 -0.0032112955 -0.012360229 0.0117831305
0000a0 96 f8 2e 3c 65 24 8c 3b 3e 17 5a 3c de ab be bc
       0.010679385 0.0042767995 0.013311205 -0.023275312
0000b0 b9 bf 1e bb 82 f2 c5 3c 15 a4 81 3b ef c9 fe 3b
       -0.0024223162 0.024163488 0.0039563277 0.007775537
0000c0 a0 1a df 3b 0e 61 5a bc 5c 1a 5f 3b de 25 0c bc
       0.006808594 -0.013328804 0.003404281 -0.00855395
0000d0 29 a8 95 bc 49 3b 23 bc b4 aa ac 3a 5b 87 10 3c
       -0.018268662 -0.009962865 0.0013173432 0.008821334
0000e0 10 99 f5 bb 7f b9 4c 3c f0 52 22 3c f6 bd f1 bc
       -0.007495053 0.012495398 0.009907469 -0.029509526
0000f0 06 54 70 bc 10 c7 68 3b 99 65 6e 3a 49 2c 07 bc
       -0.01466847 0.003551904 0.0009094119 -0.0082503045

encoder.layers.0.linear1.weight f4 [128, 64]
000000 56 03 c1 bc 59 d6 9c bd cd fa c0 bd 1e e8 c8 bd
       -0.023561161 -0.07658071 -0.094228365 -0.09809898
000010 da 06 d3 bd 12 d5 ba 3d 1d 46 88 3d 84 de 55 3b
       -0.10304041 0.09122671 0.06653998 0.003263385
000020 85 fb dd 3d ab 3b 1f 3d 0d 09 a7 bd 12 e6 77 3d
       0.10838989 0.038875263 -0.08156023 0.060522147
000030 95 9f 16 3d 9e 0e 35 3d 5f 6b 89 3d b3 c2 e6 bd
       0.036773283 0.044203393 0.067099325 -0.11267605
000040 d0 ba f0 bd 0e 23 b6 3c be 6e 15 3d dc e3 eb 3d
       -0.11754382 0.022233512 0.036482565 0.1151807
000050 1d f2 91 3c 09 67 9e bc ce be 00 bc 1d 72 52 bd
       0.017815644 -0.01933624 -0.007857991 -0.05137836
000060 22 a1 88 bc af 54 bf bd 3d 58 80 bd 84 fd 3e 3d
       -0.016678397 -0.09342324 -0.0626683 0.04662849
000070 d4 07 3f bc 24 0c 56 3b a2 1e 0b 3e bd 4e 0a be
       -0.011659581 0.0032661045 0.13585904 -0.13506599
000080 b2 5b 80 bd 2d da 20 3d fe 2b e9 3c 4d e4 2a 3d
       -0.062674895 0.03927057 0.02846336 0.04172163
000090 91 2f 8e 3c c7 e5 d4 3d 35 b5 38 bc 65 1f 39 3d
       0.017356666 0.10395389 -0.011273672 0.045195956
0000a0 69 73 dd bd d6 af c7 bd c6 80 65 3c 61 ac 01 be
       -0.10813028 -0.09750335 0.014007753 -0.12663414
0000b0 da 67 c7 3c 6e 89 cb bd 2e 75 a9 3b 76 d8 cb bd
       0.024341512 -0.09938322 0.0051714396 -0.09953396
0000c0 56 fe a8 3d f2 78 92 3d f4 df b3 3d 00 c7 bf 3d
       0.08251636 0.07151975 0.0878295 0.09364128
0000d0 ee b3 58 bd c8 8d 80 bd 46 22 07 3d 21 7e d8 3d
       -0.05290597 -0.062770426 0.03299167 0.10570932
0000e0 04 07 37 bd 94 94 ed bc f3 3b 27 bd 53 6f 8b bc
       -0.044684425 -0.029001512 -0.040828656 -0.017020857
0000f0 2a 62 70 bd 64 72 70 bd b8 7d 13 be b9 e9 08 be
       -0.058687367 -0.05870284 -0.14403427 -0.13370408
000100 54 6e 53 bd 59 8f fa 3d e4 17 36 bd 6b 16 69 3d
       -0.05161889 0.12234373 -0.044456378 0.056906145
000110 da e3 0d bd 6e 07 9b bd e4 3c 2c 3d 52 d7 5a 3d
       -0.034641124 -0.075697765 0.042050257 0.053428
000120 70 86 32 3c f9 cc bd 3d 31 74 c8 bd be c1 4b bc
       0.01089631 0.09267611 -0.09787787 -0.012436328
000130 4d 99 99 bd 2f ea a1 3d c2 0e 05 bd 20 e5 fe 3d
       -0.07499943 0.07905995 -0.032484777 0.12446046
000140 84 51 7a bd 8b 96 92 3d 8e da f9 3d e3 b8 b5 bd
       -0.061112896 0.0715762 0.12199889 -0.08873155
000150 b6 56 eb bd f8 9a 27 bd 69 3f eb bc 00 a9 56 bc
       -0.11491148 -0.040919274 -0.02871676 -0.013101816
000160 a0 01 c7 3c 88 79 36 3d c3 f2 7f bd e2 2a 90 3d
       0.024292767 0.044549495 -0.062487375 0.07039429
000170 b7 b2 bb 3c e3 6f ad bd 3d e2 2e 3d 7d 59 e4 bc
       0.022912366 -0.08468606 0.042696226 -0.027874703
000180 f3 75 b5 bd a0 e2 21 bd 5d 8a ce 3d 8f ad 42 bd
       -0.08860388 -0.039522767 0.100849845 -0.0475288
000190 0b ef 06 bd fb d1 b6 3d c7 1b 01 be a1 39 b5 3c
       -0.032942813 0.08926769 -0.12608252 0.022122206
0001a0 d4 76 8f 3d 26 42 fc bd 36 3f ef bd d2 46 1d bd
       0.070050865 -0.12317304 -0.116819784 -0.038397618
0001b0 bf f6 25 bd 8a f9 98 3d 31 9d f3 3a 33 53 6e bb
       -0.04051852 0.07469471 0.0018586275 -0.0036365509
0001c0 ca 35 cb bd 34 43 b4 bd fb c5 dc bd ae 9f dc bd
       -0.09922369 -0.088018805 -0.10779949 -0.10772644
0001d0 dc 8f 12 bd 97 d3 66 3d 00 14 51 3d 36 f6 29 bb
       -0.035781726 0.05635413 0.051044464 -0.0025934107
0001e0 e7 4d dc 3d e7 f2 8c bd c9 22 92 bd a1 67 0d be
       0.10757046 -0.068822674 -0.07135541 -0.13809063
0001f0 d6 22 02 3e 27 9b 8c bd a9 88 82 3d f1 32 26 bd
       0.12708601 -0.068655305 0.06373722 -0.040575925
000200 1f da 44 3d 01 88 5d bd 71 2d 00 bd e0 ac ba bd
       0.04805958 -0.05408478 -0.031293336 -0.091150045
000210 f2 2c 14 bd e9 59 0d 3e ee 80 e8 3d b8 d1 0a 3e
       -0.036175676 0.13803829 0.113527164 0.13556564
000220 a7 b9 79 bd 64 68 c5 bc 47 b4 01 3d 40 58 06 3e
       -0.060968067 -0.024097629 0.031666066 0.13119602
000230 f0 dd 51 bb 1c b6 df 3c 70 4a 67 ba 22 ea 78 bc
       -0.0032023154 0.027308516 -0.0008823043 -0.01519254
000240 30 11 92 3d da ea d7 3c 20 58 02 3e 6f 3b a3 bd
       0.071321845 0.026357103 0.1272893 -0.079703204
000250 18 0c b7 3b 18 27 eb 3d d3 75 9d bc 71 90 78 bd
       0.0055861585 0.11482066 -0.019221222 -0.060684625
000260 fd 28 8e 3d 20 71 c6 3c 43 db ab bd d2 34 9b 3d
       0.06941412 0.024223864 -0.0839143 0.07578434
000270 66 4d 22 bd 4b 70 51 bd 48 3a 7c bd bb 57 e0 3d
       -0.039624594 -0.05113248 -0.06157902 0.10954233
000280 7b 8f a4 bd 3f ee 8b 3c fb 74 97 3d 88 29 04 be
       -0.08035179 0.017081378 0.07395359 -0.12906468
000290 bd 9e d5 3d 40 12 dd bd 0f df c4 bd 1a 22 97 bd
       0.104306675 -0.107944965 -0.096128576 -0.07379551
0002a0 71 d3 f0 bc d0 15 5e bc e3 86 e0 bc 7e ec 57 3d
       -0.029397698 -0.013555005 -0.027408069 0.05271577
0002b0 b3 88 66 3c df 20 11 bd c5 de 9e 3c fa d0 0c bc
       0.014070678 -0.03543174 0.019393334 -0.008594746
0002c0 55 3a d4 bd 23 a8 84 3d ad 83 3e 3c c3 36 0f be
       -0.103626885 0.06477382 0.011628074 -0.13985734
0002d0 7b f9 fa bd d4 ae ce 3d f6 61 be bd 89 b2 94 bd
       -0.12254616 0.100919396 -0.09296028 -0.072606154
0002e0 02 96 08 3e fe d2 95 3d d6 b6 b3 3d c5 b4 2e be
       0.13338473 0.07315634 0.087751076 -0.17061146
0002f0 5c ca 3f 3c 8f 98 c3 3d 10 c9 a6 3b 35 41 1e 3d
       0.011705961 0.095505826 0.0050898865 0.038636405
000300 6f 3c 3e bd 22 b3 eb bc 1f 71 84 bd e8 dd 51 3d
       -0.046444353 -0.02877194 -0.06466889 0.051237017
000310 b6 88 ac bd 82 8f 97 3d 47 61 3a bd 37 02 0b 3d
       -0.08424513 0.07400419 -0.045502927 0.03393766
000320 b2 e1 aa bd 3c ea 52 3d c9 10 56 3d df b7 8b bc
       -0.08343829 0.051492915 0.0522621 -0.01705545
000330 25 f8 0f 3c 77 d1 3d bd 3c 5f 5b 3d 30 17 b6 3c
       0.00878719 -0.04634234 0.05355762 0.022227854
000340 ea b5 d3 bd 27 68 a3 3c 81 b9 01 be bc d4 1d be
       -0.10337432 0.019947125 -0.1266842 -0.15413183
000350 7d 01 86 3d 9d fa ff 3d d4 15 c6 bc ce 7e c1 bd
       0.065432526 0.124989726 -0.02418033 -0.09448014
000360 6c 50 11 bd 89 b4 1c 3d 6f ca 53 bd 22 6c b3 3d
       -0.035477087 0.03825811 -0.051706728 0.08760859
000370 b5 d3 c4 3c 4f 40 82 bc 39 13 aa bb da 32 af bd
       0.024026731 -0.015899805 -0.00519028 -0.08554621
000380 00 ba 03 3e 80 d4 d7 3d 82 95 8a bd 44 71 ba 3d
       0.12863922 0.10538578 -0.067667976 0.09103635
000390 2b 7b 00 be 21 62 40 3d 2d 8a 05 be 54 36 89 3d
       -0.12546985 0.046968583 -0.13040991 0.066998154
0003a0 58 7f f1 bb 92 df 12 3e c4 c3 ed bd 59 79 8d bd
       -0.007369917 0.14343098 -0.11609605 -0.06907911
0003b0 42 a9 e9 bd b4 59 02 be b8 b1 1e bd fe 80 6e bd
       -0.114092365 -0.12729532 -0.038743705 -0.058228485
0003c0 e5 ac ba 3c f7 5e d8 bd d4 53 2a 3d 7c ca 0b 3e
       0.02278752 -0.10564988 0.04158385 0.1365146
0003d0 a4 f1 d6 3c c2 a6 bc 3d 46 04 f4 bd dd de 39 bd
       0.02623827 0.09211494 -0.119148776 -0.045378555
0003e0 67 cd 6c 3c 36 f2 04 be 46 42 af 3c 3a 6a a5 3d
       0.014453269 -0.12983021 0.021393906 0.08076902
0003f0 d6 c4 7b 3b 1e 96 36 3d cf 2e ba 3c 20 c8 ed 3c
       0.0038416884 0.044576757 0.022727398 0.029026091

encoder.layers.0.linear1.bias f4 [128]
000000 91 bb af bd 72 91 a5 3d 68 e8 e9 bd 77 dc b4 bc
       -0.08580697 0.08084382 -0.11421281 -0.022077782
000010 9f db c7 3d f5 e8 ce 3d 8f c7 ee bd 9a 48 b8 3d
       0.09758686 0.10103027 -0.116591565 0.08998223
000020 d0 6c 8b bd ab 65 04 be 33 9d 7e bc 15 d5 df 3d
       -0.06807864 -0.12929408 -0.015540409 0.10929314
000030 44 f7 9a bc 1c 27 bd bc 42 0a 05 bd 6a f5 34 3d
       -0.018916734 -0.023089938 -0.032480486 0.044179358
000040 b2 ef af 3d 23 1d af 3d be 86 dd bd 07 b1 c1 bd
       0.0859064 0.08550479 -0.10816716 -0.094575934
000050 60 f8 d9 bc cc c5 95 bd cc df 00 be ae 40 2c 3d
       -0.026607692 -0.073131174 -0.12585372 0.04205387
000060 f0 1a 19 3d 1e 8b d2 bd db 1d 8b bc c0 b0 65 bd
       0.037379205 -0.10280441 -0.01698201 -0.056076765
000070 cd 37 21 bd fe b4 9e 3d a4 58 22 3d cc e1 e7 bd
       -0.039359856 0.07749365 0.039635316 -0.11322364
000080 4b 8b 56 bc c9 71 2d 3d 5b 73 92 3b 1b 7e d7 bc
       -0.0130947335 0.042344842 0.004469318 -0.026305249
000090 e5 dc 0d be d2 4c f4 bc c7 3a 06 3d e0 72 e2 bb
       -0.13853796 -0.029821787 0.0327709 -0.006910667
0000a0 5f 52 d6 bd ae b4 a3 3d b8 71 be 3b b5 11 fd 3c
       -0.1046493 0.07993446 0.005811896 0.030892232
0000b0 98 34 d6 3d 84 6c f2 3d e0 d3 09 bd c3 8c a2 3d
       0.1045925 0.11837104 -0.033649325 0.079370044
0000c0 36 c0 fe 3d 99 13 bc 3d cb d0 a3 bb 7d bb 2f 3d
       0.12439005 0.091834255 -0.0049992553 0.042903412
0000d0 2b 8c c8 3d 11 5a 95 bd 11 48 b9 bd c6 47 54 bd
       0.0979236 -0.072925694 -0.09046949 -0.05182626
0000e0 b5 dd e7 bd d8 c9 16 3d de ca 33 3d 3e c7 8b bd
       -0.11321584 0.036813587 0.04389464 -0.06825112
0000f0 71 19 42 bd 66 5d da bd a6 c7 f3 3d 86 18 fb 3c
       -0.047387544 -0.106623456 0.11903314 0.030651342
000100 4e 1f f3 bd 18 0f 0b be 7f 24 ab 3d 34 71 ca bd
       -0.11871205 -0.13579977 0.083565705 -0.09884873
000110 e0 54 9b 3d a0 9f a1 3d a9 b8 f6 3c af 7a 9e 3d
       0.07584548 0.07891774 0.03011735 0.07738244
000120 db 22 e2 3d da 80 c3 bd 40 44 b0 3d 8a bd 90 bd
       0.110418044 -0.09546061 0.08606768 -0.07067402
000130 3d 4a 94 3d 5a 3a f6 3d 0a 3a 03 be 5b db b3 3c
       0.07240722 0.120228484 -0.12815109 0.021955183
000140 c6 89 fa 3d 35 b4 a8 3d 5d f0 8e 3d 0d 50 e2 bb
       0.122333094 0.08237497 0.069794394 -0.0069065155
000150 fe c2 9b bd 84 9c 37 bc 3d 48 5c 3d 54 fe ba 3d
       -0.07605551 -0.01120675 0.05377983 0.091305405
000160 b4 45 d7 bd 0d 2a 30 3d 58 d0 d6 bd 9d b5 5a 3d
       -0.10511342 0.043008853 -0.10488957 0.053395856
000170 be 94 cf bd 27 df 95 bc 53 a3 b5 bd ff ec 8e bd
       -0.10135792 -0.018294884 -0.08869042 -0.06978797
000180 c8 dc fd bb b4 4c c9 bd 80 e1 bb bd fa 2d c2 3b
       -0.0077472664 -0.09829083 -0.0917387 0.005925891
000190 bf f6 9e 3d b9 25 93 3d ca 4f ee 3d 85 48 92 bd
       0.07761907 0.071849294 0.11636312 -0.07142738
0001a0 7c f4 93 3c 2f ee df 3c 30 50 af bd c6 0f 3a 3d
       0.018060915 0.027335254 -0.085602164 0.0454252
0001b0 c2 59 ae 3d ef 94 c4 3d 63 03 a2 bd f5 52 b0 bd
       0.08513214 0.09598719 -0.07910802 -0.08609573
0001c0 02 bc c9 bc b9 3a 0f 3d 1d 04 a3 bd 69 91 d7 3d
       -0.024625782 0.03496811 -0.07959769 0.10525782
0001d0 4d 2a ba bd 22 ce 90 3d 55 a2 9f 3d fb 8b 76 3d
       -0.090900995 0.07070567 0.07794634 0.06019209
0001e0 f3 5b bd bd cc 55 cb bd 01 62 a0 bd 0b 9e f3 3d
       -0.092460535 -0.09928474 -0.07831193 0.11895379
0001f0 4d 7b a0 3c 56 be 8c 3d 4b ba 2d 3c f8 b6 99 3d
       0.019590044 0.06872241 0.010603498 0.07505602

encoder.layers.0.linear2.weight f4 [64, 128]
000000 62 00 ac 3c 74 14 c9 3d d3 cd 0c bd 72 f4 11 bc
       0.020996276 0.09818354 -0.034375977 -0.008908378
000010 7d d4 7f bd 88 73 99 bd 1a 0d 88 3d 66 18 4f 3d
       -0.062458504 -0.07492739 0.06643124 0.050560378
000020 c3 0a a2 3d 48 78 08 bd bd 7d 40 3d 10 b4 6b bd
       0.07912209 -0.033317834 0.046994913 -0.057544768
000030 b2 ba c5 3d 3a 9b af 3d 4f d7 cb bd 64 cf 03 bc
       0.0965475 0.08574529 -0.09953176 -0.008045051
000040 7c 69 96 3d 21 5b 90 3d 89 8d 1d 3d 8d 51 c5 bc
       0.07344338 0.070486315 0.038465057 -0.024086738
000050 be ff 6b 3d bf e6 17 bd 9e 0c 9b bd 32 72 38 3d
       0.05761694 -0.03708529 -0.07570766 0.04503078
000060 58 e3 9b 3d 19 4b 56 bc 8b 94 98 3d a5 20 c3 bc
       0.07611722 -0.013079428 0.07450207 -0.023819277
000070 0a 3d 1b bd 05 56 08 bc c0 48 82 bd 80 97 c4 bc
       -0.03790001 -0.00832129 -0.06361532 -0.023998022
000080 3d 8a 19 bc 87 ed c3 bc 07 7c 2e 3d 8f 70 26 3d
       -0.0093713375 -0.023916973 0.04259875 0.040634688
000090 46 0a 97 3d f7 5c 8a 3d 13 fe cb bc 44 27 8f bd
       0.073750064 0.06756013 -0.024901425 -0.06989911
0000a0 36 c9 78 bc 49 4c 63 bb d5 22 8b bd 35 06 80 bd
       -0.015184691 -0.003468292 -0.06793753 -0.06251184
0000b0 77 ba 7f 3d 73 98 01 3d 10 38 38 bc d8 56 40 bc
       0.062433686 0.031639528 -0.011243835 -0.011739455
0000c0 99 f0 f0 3c 78 e5 89 3d b1 68 b8 3d 92 6f e6 3d
       0.0294116 0.06733221 0.09004343 0.11251749
0000d0 09 4e 06 bc cc c8 bd 3d b9 8c cc bc 5e 20 80 3d
       -0.008197316 0.092668146 -0.024969446 0.062561736
0000e0 d0 d1 03 3d 96 93 2c bd b3 3f bc 3d ac a8 77 3d
       0.032182515 -0.042132936 0.09191837 0.060463592
0000f0 68 9a 49 bd 3b 23 ad 3d ad bc 57 3d d7 7c 88 3d
       -0.04921952 0.08453985 0.05267017 0.06664436
000100 bf 53 b7 3d cc 66 65 bc 70 bf a1 3d 3c 1c 2a bb
       0.0895152 -0.0140015595 0.07897842 -0.002595677
000110 b3 29 a3 3d d1 49 8d 3d 1f 58 bd bd 7d c2 8d 3c
       0.07966938 0.06898845 -0.092453234 0.017304653
000120 45 36 47 bc cf 59 99 3c b5 39 80 3d a2 12 4c bd
       -0.012158935 0.018719582 0.06261007 -0.049822457
000130 42 9e 9c bd 1a 78 48 3d 3a 51 3a 3d 8c d5 9a 3c
       -0.07647373 0.048942663 0.04548762 0.018900655
000140 35 b0 73 3d 63 4d f5 3c 31 2a 34 3d 91 36 76 bd
       0.059494216 0.029944127 0.04398555 -0.060110632
000150 91 8c 21 bd 6a ce 25 bc 8d 85 98 bd ac 31 75 bd
       -0.039440695 -0.010120014 -0.07447348 -0.059861824
000160 33 2b b2 bb 21 18 7c bc e5 f2 01 3d 5c 97 e4 3b
       -0.0054372787 -0.015386612 0.031725783 0.0069760513
000170 b4 23 95 bb 9e d0 bb 3c cc b3 c3 bc 04 df 4f 3d
       -0.0045513753 0.022926625 -0.023889445 0.050749794
000180 01 23 90 bd 41 63 20 bd 16 d9 cd 3d 3b d8 aa bd
       -0.070379265 -0.039157156 0.100511715 -0.08342024
000190 01 f9 a8 bd c4 0d 5b 3d 4c 3b a9 3d 23 0e 2f 3d
       -0.08250619 0.053479925 0.08263263 0.04273809
0001a0 aa dd 84 3d 50 55 05 bd 9f e4 91 ba 24 53 83 bd
       0.064875916 -0.032552063 -0.0011130756 -0.06412342
0001b0 75 95 3f 3c 50 df ba 3d cf a0 58 3d 3b 52 f0 bc
       0.011693348 0.09124625 0.052887734 -0.029336086
0001c0 9f dc 54 bc 01 8e cb bc 19 58 d1 3d 11 ad 83 3d
       -0.012992053 -0.024847986 0.102218814 0.06429494
0001d0 e9 6d 8b bd 42 a3 e4 bc 63 99 02 3d 8b c2 20 bc
       -0.06808073 -0.027909879 0.031884562 -0.009812008
0001e0 04 fe bb bc 23 e9 75 bd fa 5a 26 3d a1 98 c0 bc
       -0.022948273 -0.06003679 0.040614106 -0.02351028
0001f0 a5 0b f6 bd 7e c8 52 3d 02 84 0b 3c 96 4a 99 3d
       -0.1201394 0.051460735 0.00851536 0.07484929
000200 e9 f5 03 3d 5f e2 87 3b c7 2d 7e 3d 0c 77 08 be
       0.03221694 0.0041468586 0.062055375 -0.13326663
000210 df 60 cd bd be 4e cc 3c 0c 91 2d 3c 51 8e bd 3d
       -0.10028242 0.024939891 0.010593664 0.0925566
000220 77 dc a6 bd 87 fe c2 3c bf d3 53 3d e1 d7 e9 bc
       -0.08147519 0.023803009 0.05171561 -0.028545322
000230 be 36 e8 3c ae ae 8d 3d 78 77 e1 bd c9 05 2a 3d
       0.028346416 0.06918083 -0.11009115 0.041509423
000240 4f b7 64 bc 0c 94 b0 bd ab a6 14 3d 71 3c 84 bd
       -0.01395972 -0.08621988 0.03629176 -0.06456841
000250 8c 3b 2e 3d 00 1e ae bd e4 92 3f bd 2d 9a be 3c
       0.042537257 -0.08501816 -0.046770945 0.023266876
000260 d1 43 64 bd 50 27 3e 3d 64 15 68 3c 8f 61 fe 3b
       -0.055728737 0.04642421 0.014165256 0.0077630947
000270 07 d0 15 bc 83 85 f9 3c 69 74 7a bc 7e ad ae 3d
       -0.009143836 0.030459171 -0.015286543 0.08529185
000280 36 86 0b bd 16 26 87 3c 96 c1 7a bd e1 7e d8 bc
       -0.03406354 0.016497653 -0.061219774 -0.026427688
000290 c2 8b ed bc 7b 24 81 3d 1b 06 de bd a9 33 32 3d
       -0.028997306 0.06305786 -0.10841008 0.0435063
0002a0 52 1d 3e 3b 31 ca 73 bd 1c f4 8f bd f8 86 aa bd
       0.0029009175 -0.059518997 -0.07028982 -0.083265245
0002b0 80 c9 01 bd ff dd 8e 3d 99 c6 b2 bd 73 f7 bd bc
       -0.031686306 0.06975936 -0.08729286 -0.023189282
0002c0 43 84 9c 3c da a6 d4 3b 38 f6 a6 bc 3a e2 da bc
       0.019106036 0.006489617 -0.020381078 -0.026719201
0002d0 7f ce 52 bd bb 23 40 3d 86 77 e2 3c 19 30 35 3d
       -0.05146646 0.046909075 0.027644884 0.044235323
0002e0 d4 74 71 3d a5 ee 08 3d 2e 12 0a bc ee e2 87 bc
       0.058949307 0.033430714 -0.008427186 -0.0165877
0002f0 00 76 8d 3c e8 a2 07 bb e0 92 89 3d c1 fa c6 bc
       0.01726818 -0.0020696465 0.06717467 -0.02428949
000300 e2 f6 c0 bd fe 47 b2 bd ba 9e 36 bd 8e 3a 2a 3c
       -0.09422089 -0.08705138 -0.044584967 0.010389937
000310 a2 20 43 bd ba 4a 0a 3e 89 d7 f4 3c 47 11 39 3d
       -0.047638543 0.13505068 0.029887931 0.045182493
000320 f0 1f 26 3d 03 a1 c8 bd 1e 6e 38 bc e4 18 4f 3d
       0.0405578 -0.097963355 -0.011256723 0.050560847
000330 09 93 5e 3c f1 f3 d2 bd 0c 65 94 3d 5e 3d 20 3c
       0.013584861 -0.103004344 0.07245836 0.009780256
000340 69 e4 4b 3d 36 d7 8a 3d 43 5b 05 bd f7 88 02 3e
       0.049778376 0.067793295 -0.032557737 0.1274756
000350 5f 4b 21 3d 61 7d 1e bc 32 c3 88 3d 4d a0 86 bd
       0.03937852 -0.009673447 0.066778556 -0.06573544
000360 91 52 b6 bd 04 70 2d bd 11 ef cb 3c 22 61 ac 3d
       -0.08902467 -0.042343155 0.02489427 0.08416964
000370 02 ed 34 3d 40 88 9a 3d b8 ab ab 3b 95 34 06 ba
       0.04417134 0.07545519 0.0052389763 -0.00051195297
000380 36 6d a2 bc 7f 0d fa bc 5b 64 c3 3c 85 c2 57 bd
       -0.019827466 -0.030524014 0.023851564 -0.052675743
000390 e8 13 48 3d 71 86 05 3e 63 ed 02 bd 89 9d 0c 3d
       0.04884711 0.13039567 -0.03196467 0.034329925
0003a0 0f 63 06 3c 95 f4 ce bd 94 b8 a3 3d 63 3b 76 3d
       0.008202328 -0.10105244 0.0799419 0.06011523
0003b0 ee 6c 7d bc f7 51 ec 3d 17 c0 01 3e c1 24 a3 bd
       -0.015467865 0.11539071 0.12670933 -0.079659946
0003c0 b7 7f a1 3d 64 82 51 bd dc 5c 79 3d 90 e3 89 3c
       0.07885688 -0.05114974 0.060879573 0.016832143
0003d0 6d 65 70 3d 03 a8 81 3d 22 91 c7 3d 4e 90 b7 3c
       0.058690477 0.06330874 0.09744479 0.022407677
0003e0 48 50 d5 bd 6c a1 af bd f6 d5 f6 bc 54 34 8f 3d
       -0.10415703 -0.08575711 -0.030131321 0.06992403
0003f0 76 6d ca 3d 0e fe 1d bd 3a fc 1b 3c 64 b7 70 bc
       0.09884159 -0.038572364 0.009520585 -0.014692161

encoder.layers.0.linear2.bias f4 [64]
000000 c4 51 a7 bd 27 4f 51 3d f6 5e 93 3b 23 be 92 bd
       -0.081698924 0.051100876 0.004497404 -0.07165172
000010 a3 49 31 bd 7d d2 b2 3d ed 75 29 3d 9a 98 90 3d
       -0.043283116 0.08731554 0.04137223 0.070603564
000020 47 e5 42 bd 1e 3c 3d 3d be 30 c9 bd be d1 8b bd
       -0.047581937 0.04619991 -0.0982375 -0.068271145
000030 9a 3a 8f bc 48 e1 81 bd 28 76 a4 3d 92 a0 86 3d
       -0.017483998 -0.06341797 0.08030349 0.06573595
000040 28 cc 8e bb 02 bd e0 bc b5 83 87 3c 6e 3a 04 bd
       -0.0043578334 -0.027433876 0.016542295 -0.032282285
000050 96 46 af bc e4 61 9b 3d 6f 74 63 3d 6b 08 a2 3d
       -0.021395963 0.075870305 0.05553096 0.07911762
000060 77 9d dc bd 50 95 6d 3d 3e 02 ce bb 7b 82 a9 3d
       -0.107722215 0.058003724 -0.0062868884 0.0827684
000070 03 7f 81 3d 24 f2 b5 bd 1f 0b 8a bd 59 82 33 3b
       0.06323054 -0.08884075 -0.067404024 0.0027390926
000080 39 98 21 bc 84 a2 1a 3c 94 14 e1 3c af 43 9b 3c
       -0.009862953 0.009438161 0.027475633 0.018953172
000090 72 35 8b 3d 08 ef c1 3c f9 09 5b 3d 56 94 82 bd
       0.06797303 0.02367355 0.053476308 -0.06375949
0000a0 9c 3f 34 bd a4 86 5c 3d 47 63 60 bd ff 16 93 bc
       -0.044005975 0.05383934 -0.05478218 -0.017955301
0000b0 71 d4 81 3c 4a 3a 3e 3d 45 52 49 3c 6c c4 84 bd
       0.01584837 0.046442308 0.012287681 -0.06482777
0000c0 57 6b 8d bd 12 de 8c bc 8e 1d 7d 3d a0 21 22 3c
       -0.06905239 -0.017195735 0.061795764 0.009895712
0000d0 40 c6 ec bc ad 28 58 bd e0 e5 bf bc a7 ab 3e 3d
       -0.028903127 -0.052773166 -0.023425043 0.04655042
0000e0 d9 bf 81 3d e1 40 f8 3a b2 13 96 bd 91 1f 7e bc
       0.0633542 0.0018940234 -0.07327975 -0.015510456
0000f0 82 19 20 3d a3 05 92 bd e1 7c 02 3d da b1 b1 3d
       0.039086826 -0.07129981 0.031857375 0.086765006

encoder.layers.0.norm1.weight f4 [64]
000000 24 bf 81 3f ea 7b 7e 3f 79 8e 82 3f 9b 03 7f 3f
       1.0136456 0.9940783 1.0199729 0.99614877
000010 c8 e7 80 3f ab 99 7a 3f 2b ac 80 3f 2e 38 7e 3f
       1.0070734 0.9789073 1.0052541 0.99304473
000020 6b d9 7e 3f ca 4e 7e 3f 73 d1 82 3f fa 34 7d 3f
       0.99550503 0.9933897 1.0220169 0.9890896
000030 d7 29 84 3f fd d5 80 3f 09 b4 81 3f 1a be 7f 3f
       1.0325269 1.0065304 1.0133067 0.99899447
000040 cf 96 7e 3f 5b f7 82 3f 1d 17 7c 3f ff ac 7c 3f
       0.99448866 1.0231737 0.9847277 0.9870147
000050 7c da 82 3f 8a 1f 7d 3f 22 6e 80 3f 95 8b 80 3f
       1.0222926 0.9887625 1.003361 1.0042597
000060 ac 36 79 3f 1a 6b 7c 3f 62 b1 84 3f 80 88 7e 3f
       0.9734905 0.98600924 1.0366633 0.9942703
000070 a7 83 80 3f a8 d6 81 3f 07 fd 7f 3f e8 ff 7f 3f
       1.0040177 1.0143633 0.99995464 0.99999857
000080 bd 9d 86 3f 5f b9 80 3f 72 6d 80 3f f7 f8 81 3f
       1.0516888 1.0056571 1.00334 1.0154103
000090 96 5e 80 3f 9a 68 81 3f 59 60 7b 3f a5 af 81 3f
       1.0028865 1.0110047 0.9819389 1.0131727
0000a0 0c 16 77 3f de be 82 3f 47 5b 80 3f 03 9a 79 3f
       0.96518016 1.0214498 1.0027856 0.9750063
0000b0 4c df 81 3f dd 08 79 3f 45 dc 80 3f b0 82 80 3f
       1.014627 0.9727915 1.0067221 1.0039883
0000c0 68 f5 84 3f 45 8a 7a 3f a0 7a 82 3f 61 67 80 3f
       1.0387392 0.9786723 1.0193672 1.0031549
0000d0 53 1c 7c 3f 41 a2 80 3f 03 0e 82 3f a0 31 7d 3f
       0.9848072 1.0049516 1.0160526 0.98903847
0000e0 b0 39 85 3f 29 70 80 3f 31 28 85 3f a8 7f 79 3f
       1.040823 1.0034229 1.040289 0.9746041
0000f0 6d b8 81 3f 69 be 80 3f 6f cf 8a 3f 5e 13 82 3f
       1.0134407 1.0058109 1.0844554 1.016216

encoder.layers.0.norm1.bias f4 [64]
000000 e7 52 40 3b 4d 5c 09 3c 08 0b 05 3c 26 12 aa 3c
       0.0029346289 0.008383823 0.008120306 0.020760607
000010 7b 05 65 3a 3f ae 54 3c 69 59 6d bc c7 7f bd 3c
       0.00087364734 0.012980997 -0.014486649 0.023132218
000020 a3 50 9c bc da 09 bd bc 42 ec 48 bc 15 06 ee 3c
       -0.01908142 -0.023075987 -0.0122633595 0.029055635
000030 d6 f1 a7 3c ab 92 ce 3b bc b2 bb bb b0 25 1e 3c
       0.020501059 0.0063041053 -0.005728094 0.00965254
000040 89 f4 2c bc aa 12 46 3c 01 ae 10 bc f6 1f c5 3c
       -0.010556349 0.012089411 -0.008830548 0.024063092
000050 3d e2 c2 3a 47 cd fc bb 8a b6 ce ba 18 88 4a bb
       0.001486845 -0.0077149007 -0.0015770954 -0.0030903872
000060 42 5e 41 bd 5c 01 9f bc d0 08 39 ba a0 12 27 bc
       -0.047209032 -0.019409828 -0.0007058503 -0.010197312
000070 af a9 25 3c 02 45 d0 bb 8b 39 63 bc ea 71 5d 3b
       0.0101112565 -0.0063558826 -0.0138687 0.0033789822
000080 9e b9 b2 3b 67 f6 b8 3c 3d 4b 97 bb 49 84 bf 3a
       0.005454256 0.022578431 -0.0046171234 0.0014611568
000090 f9 cd d1 3c 29 91 34 bc c1 3f 34 bc 8f e1 60 3c
       0.02561091 -0.011020937 -0.011001528 0.013725652
0000a0 e2 8a c9 3c c6 82 8c 3b 21 fd 8b 3c d5 e5 db bc
       0.024602357 0.0042880503 0.017088475 -0.02684299
0000b0 3c 4f c4 bb a9 16 f9 3c 81 17 16 3b e9 ef 21 3c
       -0.005990891 0.030406313 0.0022902193 0.009883859
0000c0 95 39 da 3b df 1e 83 bc e7 c8 95 3b 20 e5 74 bc
       0.0066596963 -0.016005931 0.0045710686 -0.014947206
0000d0 14 00 96 bc 60 49 21 bc 4d e8 07 bb 87 f6 33 3c
       -0.018310584 -0.009844154 -0.0020737827 0.01098407
0000e0 17 56 7e 3b 7e 6a 77 3c ea e4 2a 3c e4 fc 12 bd
       0.0038808638 0.015101073 0.010430554 -0.035885707
0000f0 80 f1 45 bc 8b 72 74 3c 46 6c 2d 3c f1 2d 2d 3a
       -0.012081504 0.014919887 0.010584896 0.0006606272

encoder.layers.0.norm2.weight f4 [64]
000000 fe eb 81 3f 9c 07 81 3f 2e 38 83 3f c9 4e 7f 3f
       1.0150144 1.0080447 1.025152 0.9972959
000010 c2 52 81 3f 4f 73 7d 3f 08 8c 80 3f dc 86 7f 3f
       1.0103381 0.9900407 1.0042734 0.99815154
000020 ac 3e 80 3f fe 80 80 3f c3 8a 83 3f 06 c6 81 3f
       1.0019126 1.0039365 1.0276722 1.0138557
000030 d1 c3 82 3f 2e 1a 7b 3f dd 38 80 3f 52 8d 81 3f
       1.0216008 0.9808682 1.0017353 1.0121253
000040 76 8e 80 3f 44 e8 7f 3f f7 16 7e 3f a9 22 82 3f
       1.0043476 0.99963784 0.9925379 1.0166827
000050 2f 9b 81 3f c1 d0 77 3f b7 5e 81 3f 78 ca 7c 3f
       1.0125483 0.9680291 1.010703 0.9874644
000060 aa cd 7d 3f 85 2d 7c 3f c8 c4 82 3f 77 3a 80 3f
       0.99141943 0.9850696 1.0216303 1.0017842
000070 de 44 82 3f 13 71 82 3f 26 13 80 3f 88 a2 80 3f
       1.0177267 1.0190758 1.0005844 1.0049601
000080 be f8 82 3f 44 34 81 3f 85 e2 7b 3f 2c dc 81 3f
       1.023216 1.0094075 0.98392516 1.0145316
000090 71 a5 84 3f c3 75 83 3f b2 e6 7b 3f 8e ac 83 3f
       1.0362989 1.0270313 0.9839889 1.0287035
0000a0 91 d2 7f 3f e3 fd 82 3f f3 e3 7f 3f 5b e7 7d 3f
       0.99930674 1.023373 0.999572 0.99181145
0000b0 66 35 86 3f 9b be 77 3f b0 a8 81 3f 9c 7d 83 3f
       1.0485046 0.96775216 1.0129604 1.0272708
0000c0 e6 91 84 3f b8 b2 7d 3f db b4 80 3f 61 43 81 3f
       1.0357025 0.9910083 1.0055193 1.0098687
0000d0 71 d4 7b 3f 45 b1 81 3f 11 08 81 3f 29 d1 7f 3f
       0.98371035 1.0132223 1.0080587 0.9992853
0000e0 81 14 84 3f 9d fb 81 3f db 25 82 3f cd 43 7d 3f
       1.0318757 1.0154911 1.0167803 0.9893158
0000f0 d1 39 83 3f 5f ed 80 3f ba fb 83 3f 76 d0 81 3f
       1.0252019 1.007244 1.0311196 1.0141742
