assets/snapshots/P1_robust_with_winsorize_lstm.pth (torch, 222297 bytes, 12 tensors)

lstm.weight_ih_l0 f4 [256, 1]
00000000: 02f4 a2bc aedc 24be 2419 51bc f257 1bbe
00000010: b1c4 23be 548a 3a3e 4264 a8be d280 1dbe
00000020: 5a5e 723e 8e8a 8cbd c474 c5be c645 d0bc
00000030: 869a 4abe 655c 59be a2e2 febc bf08 b63d
00000040: d880 ea3c 68cd 1a3e 1261 2cbe aa78 cbbd
00000050: 1268 84bd a375 ddbc 73fb c63c d792 17bd
00000060: 2d06 cdbd 1c0e 5ebe 7718 71bc 0d4a a13d
00000070: 740d 333e 4cb7 0e3d eac4 de3c 5e97 d5be
00000080: 32b8 63bd 6422 a0be 45b2 383d 300a c73e
00000090: f797 883e 4558 a8bc 0fa8 703e 72ea 8f3e
000000a0: c4bc 5fbe b12f e63b 1b54 db3d 583f e73c
000000b0: df49 8cbe bbce a5be 3da5 b53e cd1a c6bd
000000c0: 18f2 503d 8cc0 913d 192f b93d 8ee2 4cbd
000000d0: ab2a 973d 5e13 f8bc 622e 14be f240 febd
000000e0: ba05 06bd e6ea b63e b47a c9bd c072 04bd
000000f0: 4037 4f3e cfc5 5cbb 0b54 923e d0ed 3e3c
00000100: 677c b0bd cccd 0f3e bd90 0d3e ee2e 803e
00000110: a06f a83d 46e5 babe a547 3b3e a85f 7b3d
00000120: 4943 373d 83e2 ca3b fa19 2c3e e941 a9be
00000130: 4383 ccbe 30d1 c6be dd4c 333c 8466 cfbd
00000140: c6bd d7bd bf79 ba3e 7bed 733e f59a 433e
00000150: 5fb2 ab3d 9a1c 0bbd bf4c 34be 9152 663e
00000160: 640b 9e3b cc43 4b3e 594d 543b 9657 14be
00000170: 2a0c 923e abe4 ccbd b0c7 a9bd 0e5b cb3e
00000180: 21ce aabe 9ce1 183d 22f2 e93b 548c 873e
00000190: 00c2 24be de25 3d3e 65d8 46bd 831e e9bd
000001a0: c7e3 9b3e 3a04 653e 27de 033e d874 4d3e
000001b0: 9437 823d 3bb3 133e 836c a63e 850a 8f3e
000001c0: 0aac 833d 5b5f dabd 8564 a1bd e6e6 bebd
000001d0: f304 b33d b631 99bd 221a 5b3d d235 593d
000001e0: e7c2 89be 96f8 80be 43c2 423e 1802 ffbd
000001f0: 1dd5 d73e 5dc4 9b3d a655 6d3d de9d 0fbe
00000200: 4b5a 83bd 19e8 4ebe 6cc9 583e d448 703e
00000210: 2685 863e a397 753d 63b1 83be 193a 10be
00000220: ec00 89bc c11e 7d3e 61f1 843d c8b5 103d
00000230: deea 173d 3f72 aabd f854 863e f1cc 9bbc
00000240: 7e5f 423e ca5a 9e3d ceea 6f3e 16c6 863e
00000250: e826 40be e4d1 bcbd 7a8c 633d 0a82 9dbe
00000260: 684f 81be 4be1 5bbe 7eb0 423c e408 aebe
00000270: 3eca c43e 2d6d ccbd b18f 1fbe bce4 a83e
00000280: 7323 17be 2fea 7e3e ecca 12be 63de e5bc
00000290: 76d9 1ebe 6592 763e 8025 d4be 5c7e 9d3e
000002a0: b251 6dbe d946 bebd 9749 47be 619e 943e
000002b0: 12b9 8e3e 8204 c0bd e2c1 d83e 425b 9d3e
000002c0: 6d27 223e 92c4 0cbe 9f78 083d 57fc 14be
000002d0: 238f 873d a83e 8fbd eb26 0f3e fff9 393e
000002e0: 70c5 a23c ad34 c3be f54e 28be ed75 86bd
000002f0: 4de6 6d3d e90d aebe 7b8f 9e3e b382 923d
00000300: 7539 55bd 4fc7 1bbc b150 32bd d736 f63d
00000310: aad4 33be 7d26 563d adb3 92be c965 c13d
00000320: d699 c93d 84ef 9bbd 2a90 383e 2d51 60be
00000330: a49d b5be 7a97 bbbe 80df 903d dfa9 38be
00000340: d902 c4bd 4ece 4d3e 057d 333e 5262 0ebe
00000350: 8cee 7c3c 0fa2 093d c169 2dbd e2fe 33be
00000360: f606 1f3d 50f3 2d3d b2a7 363d 9de9 8fbc
00000370: 8920 5c3e c70c 18be 4008 e5bd 22fa 63be
00000380: 5692 97bd 1fc5 5cbe 7c9e 723d ce5d 143e
00000390: c24c 733e 8dd5 c53c 8d88 46be a140 eebd
000003a0: 98e5 0cbe 0b13 3e3e 4412 1d3d cc6e 4fbe
000003b0: bc1a 6bbe 700d 063e 94c4 723e 5b78 90bc
000003c0: ee91 3f3d 68fa 063e 54d0 6c3d f874 edbd
000003d0: 3f84 18bd c4ca 7fbc 1ddd ccbd 8487 c93d
000003e0: ac54 57be 9333 b73e 1f3d 09be d309 fcbd
000003f0: 8d53 a13e ac2f 8d3e 3fe3 3b3d fb4d 05bd
-0.019891743 -0.16099808 -0.012762342 -0.15170267 -0.15993 0.1821683 -0.3288899 -0.15381172
0.23668805 -0.06862365 -0.38565648 -0.025423896 -0.19785509 -0.21226652 -0.031113926 0.08888387
0.02862589 0.15117419 -0.16833904 -0.09935124 -0.06465162 -0.027033633 0.024289822 -0.03700527
-0.100109436 -0.2168507 -0.0147153055 0.07875452 0.174856 0.034842774 0.027193505 -0.41717046
-0.055595584 -0.31276238 0.045091886 0.3887496 0.2667844 -0.020549903 0.2350161 0.28108555
-0.21849352 0.007024728 0.10709401 0.028228447 -0.2740011 -0.32384285 0.3547763 -0.096730806
0.05101213 0.071168035 0.09042186 -0.050020747 0.07381185 -0.030282672 -0.14470819 -0.12414731
-0.032720305 0.35726088 -0.09837857 -0.032335997 0.2023592 -0.003368724 0.28579745 0.011653379
-0.08617478 0.14043349 0.13824745 0.25035805 0.08224416 -0.36503047 0.18289049 0.06137052
0.044741903 0.006191553 0.16806784 -0.33058098 -0.39943895 -0.38831472 0.010943619 -0.10126975
-0.10534243 0.3642101 0.2382106 0.1910208 0.08383631 -0.033962823 -0.17607401 0.22492434
0.004823135 0.19850081 0.0032394736 -0.14486536 0.28524905 -0.100045525 -0.082900405 0.39717907
-0.3336039 0.037324533 0.00713946 0.2647425 -0.1608963 0.18471476 -0.048546214 -0.11382773
0.30447218 0.22364894 0.12877713 0.20064104 0.06358257 0.1442384 0.32504663 0.27937713
0.06429298 -0.10662719 -0.07880501 -0.09321384 0.08741178 -0.07480185 0.05349172 0.053029843
-0.2690651 -0.25189656 0.19019417 -0.12451571 0.4215478 0.07605813 0.05794301 -0.14025065
-0.064137064 -0.20205726 0.21170586 0.23465282 0.2627346 0.059959065 -0.25721273 -0.14084662
-0.016724072 0.24718763 0.06491352 0.03532961 0.03708922 -0.08322572 0.262367 -0.019018622
0.1898174 0.077321604 0.23429415 0.26323003 -0.18764842 -0.09219721 0.05555389 -0.30763274
-0.25255895 -0.21472661 0.011882899 -0.33991158 0.3843555 -0.09981761 -0.15582158 0.3298701
-0.14759617 0.24894021 -0.14335221 -0.028060144 -0.15512642 0.24079283 -0.4143486 0.30760467
-0.23175696 -0.09290857 -0.19461666 0.29027084 0.27875572 -0.0937586 0.4233542 0.30733687
0.15835352 -0.1374686 0.03331816 -0.14549385 0.06619098 -0.069943726 0.1397969 0.18161772
0.019869536 -0.38126126 -0.1643637 -0.06565461 0.05808096 -0.33994988 0.30968842 0.07153835
-0.05205675 -0.009507968 -0.043533985 0.120221786 -0.17561594 0.0522828 -0.28652707 0.09443242
0.09843795 -0.07614043 0.18023744 -0.21905966 -0.35471833 -0.36639005 0.07073879 -0.1803355
-0.09570856 0.2009823 0.1752816 -0.13904694 0.015437733 0.033601817 -0.042337183 -0.17577699
0.038824998 0.04246837 0.04459352 -0.01756745 0.21496786 -0.14848624 -0.11183214 -0.22263387
-0.07400958 -0.2155957 0.059233174 0.14488909 0.2375975 0.02414968 -0.19388027 -0.11633421
-0.13759458 0.18561952 0.038347498 -0.2025711 -0.22959417 0.13091063 0.23707801 -0.017635515
0.04677003 0.1318146 0.057815865 -0.11594576 -0.037235495 -0.015612308 -0.100031115 0.09840301
-0.21028394 0.35781536 -0.13402222 -0.12306561 0.31509057 0.27575433 0.045871016 -0.03254507

lstm.weight_hh_l0 f4 [256, 64]
00000000: 54ab e6bd e906 22be 3dcd 8c3a cb11 583d
00000010: 5080 823d d5f2 45bd 29f0 3fbe 327a 37bc
00000020: b9f4 d83d e6b1 643b a3da 6bba ae9f 83bd
00000030: 3a38 ad3c 9cdf e0bd 1ce4 63bd 8491 b1bd
00000040: 8fe9 f93c 62aa 2ebd 8f5c adbd 7bad 863c
00000050: d019 86bd 13a1 0c3a 7c8c 953d b715 073d
00000060: 0643 75be bca4 04be ce86 94bd 9287 4ebd
00000070: 70eb 5dbd d278 bbbd 6b38 98bc 274b 2b3c
00000080: 16ea c1bd 4cb5 aebd 0755 cabd f2e7 bcbd
00000090: ebcf 8bbd 8d50 b8bd 3552 e63d 15aa ccbc
000000a0: 0e7f bbbb 25c7 2abe 0ad3 18bd 46be d53d
000000b0: 4fd0 a73d 77e3 c2bd 5387 b53d 0ed7 483e
000000c0: c64d d8bc 10f3 9e3d 83dd 63bd 2b1e ac3d
000000d0: 7ce6 c73d 255a 0bbd 65a2 86bd b835 3c3d
000000e0: b962 ee3d 5820 34bc 2438 b7bd c3c0 43bd
000000f0: 5837 2e3e e92a 733e b887 c63d 7dd5 5f3d
00000100: dcbf 68bc 89e1 7abc e582 dd3d e9e2 3bbe
00000110: 870c 4dbe c155 c2bc 71cc 373e 0f0b 5dbd
00000120: 1118 19be da05 1abd 4529 9a3d 22fe d63d
00000130: 12cc d33d 265c e1bc 83e2 b9bd 8612 b03c
00000140: 9533 b3bb 4b1b 183d f871 d13c b6b5 8cbd
00000150: 18af 1f3e 3340 023e f8b7 d0bc f349 303e
00000160: 616a 623d 66fa a7bd 81ae 54bd 87f3 04bd
00000170: b184 42bd 7e7b b9bd 30cf 2abc 639c 343d
00000180: a0c1 223e c282 dcbc c290 283d 7c22 b2bd
00000190: 7319 383d 5fbc f1bd ba82 993d 9c0b 1ebe
000001a0: 3aba 01bd ec05 0ebe dfad 6d3d 9cf2 f8bd
000001b0: c517 ce3d bef3 bf3d 8530 0abe d29b b1bd
000001c0: c289 91bd 25d6 2b3e 9c60 2c3e 1d50 2ebc
000001d0: 3d41 61bd 601f 153d 2289 d23d ab83 86bd
000001e0: 94ca 2dbe 0bf0 46bc 5f6a b0bd e718 843e
000001f0: 0f8c 0c3d 8ec8 8a3e 516b 8fbd d26c 183e
00000200: d80d 103e b15e 0fbe 07d0 b1bd 55e8 363d
00000210: ad46 953d 8f8c b73c e90b b6bd 9f6f 8cbd
00000220: 737d afbc c3f5 303e d37d 3a3d 0b31 743d
00000230: 45fd f9bb 97da f0bd c331 51bd ecfc e8bd
00000240: 034c dc3d cc40 0fbd f008 e23d a114 4c3d
00000250: d5c4 07be 6653 cfbd 15d5 db3d 7b72 83be
00000260: 246e e0be 5a6d 973c a4fc d13c 8a99 e53c
00000270: c9eb f33d 3b87 cfbc fd46 35bd 7362 a83d
00000280: b31a db3c 4450 023d da41 65bd 0779 77bd
00000290: ebff 53be cbd4 593e 77bf 5abe 5c31 553e
000002a0: c883 cfbd 36a4 6cbd cf44 4abd 5fed 213e
000002b0: 8a49 f93d 11ac 70be f4d0 2a3e 64eb 0f3e
000002c0: 00a4 36bd c9e7 2d3d 92b8 bfbc 42f7 0a3e
000002d0: 383c 86bc 0560 87bc 29c8 e0bc 218f c23e
000002e0: be47 1cbd 2cb3 5cbe b04c d0bd 714d 03bb
000002f0: 302c 053d d169 31be ef8c aa3c 1853 383b
00000300: 6ca9 5b3d 4013 d93d f913 453e 4007 bd3d
00000310: 7baf 20bd a526 973b 2a1c aebc d928 e6bd
00000320: dcc1 7cbd 81eb 02be 6a16 3f3e 9b9e 1f3d
00000330: fec1 5cbe bc8a adbd 8408 6f3c ba47 e7bd
00000340: f559 95bd 9e8a 5a3c 8560 193e 7dfa ce3c
00000350: e9dd bebd 1767 4e3d 2831 16be 9e1c 75bc
00000360: bff3 3d3d d24b f93d 4663 2ebd c792 92bc
00000370: 5240 c23d 3a94 6e3d 7d05 27bc ab8e 80ba
00000380: d289 6a3e 9b76 c23d d9ea 7c3e 004e f63d
00000390: 8eae ec3d c896 733d e8b8 a13c c2ad 73bd
000003a0: 0cc6 14bd 9497 263d 328c 05be c913 00be
000003b0: b841 e5bd 3042 6cbe 38a6 e73b f26d d5bd
000003c0: eca9 b8bd df6b 5e3d 12db 7f3c e9e3 a9bd
000003d0: 4da4 0dbe ed91 d1bc 5cc1 5cbd 8871 06bd
000003e0: a770 0abe 8179 153e bc02 033e 5871 1a3e
000003f0: fa72 00be b5c5 f23d 1bfc a2bd 2a22 87bd
-0.11263147 -0.15822949 0.0010742318 0.052751344 0.0637213 -0.048327286 -0.18743958 -0.011198567
0.10593552 0.0034896075 -0.0008997118 -0.06426941 0.021144975 -0.1098015 -0.055637464 -0.08670333
0.030506877 -0.04264296 -0.0846492 0.016440144 -0.06547892 0.0005364578 0.07302186 0.032979693
-0.23951349 -0.12953466 -0.072522745 -0.05042226 -0.05417961 -0.09153904 -0.01858159 0.010454929
-0.094684765 -0.085306734 -0.09879499 -0.092239276 -0.068267666 -0.08999739 0.112461485 -0.024983445
-0.005721933 -0.1667753 -0.037310638 0.104366824 0.081940286 -0.09516042 0.08863702 0.19613287
-0.026404273 0.07761204 -0.055631172 0.084041916 0.09760758 -0.034021515 -0.06573943 0.045949668
0.116399236 -0.0109940395 -0.08946255 -0.047791254 0.170133 0.23746838 0.09693855 0.054646958
-0.014205899 -0.015312561 0.10815982 -0.18348278 -0.2002431 -0.023722531 0.17949082 -0.053965624
-0.14950587 -0.037603237 0.07527403 0.10497691 0.10341658 -0.02750976 -0.09076407 0.021493208
-0.0054687955 0.037135404 0.02556704 -0.06870596 0.15594137 0.12719803 -0.025478348 0.1721571
0.055277232 -0.082020566 -0.051924232 -0.03245881 -0.047489826 -0.090567574 -0.010425374 0.044094454
0.15894175 -0.026917819 0.041153677 -0.086979836 0.044946145 -0.11803507 0.07495637 -0.15434116
-0.03167174 -0.13869447 0.058027145 -0.12155649 0.100631274 0.09372662 -0.13495071 -0.086722985
-0.07106353 0.16780908 0.16833729 -0.010639218 -0.054993857 0.036406875 0.10280062 -0.065680824
-0.16971809 -0.012142192 -0.08614039 0.2580025 0.034313258 0.27106136 -0.07002891 0.14885262
0.14067781 -0.14000966 -0.08682256 0.044655163 0.07288871 0.02240589 -0.088889904 -0.068572275
-0.021422124 0.1728125 0.04553015 0.059617084 -0.007629069 -0.11760443 -0.051072847 -0.11376366
0.107566856 -0.034973904 0.11036861 0.04982436 -0.13258679 -0.10123329 0.107340015 -0.2567328
-0.4383403 0.01848476 0.025633164 0.028027315 0.11910207 -0.025333038 -0.044257153 0.08221903
0.02674613 0.03181483 -0.055971004 -0.060418155 -0.20703094 0.2127258 -0.213621 0.2081961
-0.10132557 -0.05777379 -0.049382027 0.15813206 0.121722296 -0.23503138 0.16681272 0.14054638
-0.044589996 0.042457376 -0.02340344 0.13570884 -0.016386136 -0.016525278 -0.027439194 0.37999824
-0.038154356 -0.21552724 -0.10170877 -0.0020035172 0.032512844 -0.17325522 0.020819155 0.00281257
0.05362837 0.10599375 0.192459 0.092298985 -0.03922985 0.004612761 -0.021253664 -0.1123826
-0.061708316 -0.1278515 0.18660894 0.038969617 -0.21558377 -0.08473727 0.014589433 -0.11292978
-0.072925486 0.013338713 0.14978226 0.025265926 -0.0931967 0.050391283 -0.14667189 -0.014960436
0.046375033 0.12172665 -0.042575143 -0.017892255 0.094849244 0.05824683 -0.01019418 -0.0009808143
0.22904137 0.094952784 0.24698962 0.12026596 0.11556731 0.059469968 0.01974149 -0.05949188
-0.036321685 0.0406719 -0.13041762 -0.12507547 -0.111941755 -0.23072124 0.0070693754 -0.10421361
-0.09016785 0.054302093 0.015616195 -0.082954235 -0.13832207 -0.025582278 -0.05389534 -0.032823116
-0.13519536 0.14597131 0.12794012 0.150823 -0.1254386 0.11854116 -0.079582416 -0.06598313

lstm.bias_ih_l0 f4 [256]
00000000: 3cdb 8ebd c147 d1bd a78c 2dbe ba84 8b3d
00000010: 5d78 3abd 5e09 0abd 199f 5a3d b825 51bd
00000020: cfaa cbbd ffb1 87bd fe9f 533d ff5d 22be
00000030: 630a ea3d 04be 2dbe 6ea4 463d 8784 95bc
00000040: 8cd3 c9bc d040 c3bc 700e b9bd 5fc6 043e
00000050: 8f5d 533c 0680 ca3d 5fe3 6bbe a530 8a3d
00000060: 63a9 8b3e f1b8 823d 7f6f 83be 73be 63bd
00000070: f4c6 39bc 389a 98bc 7079 8a3d 3539 ba3d
00000080: 9886 93bd ae08 febd d2a5 f0bb f3b9 c2bd
00000090: 6568 153d 1fa1 a9bd f70f ed3d 016d 1e3d
000000a0: 6bc7 4ebd 3315 d0bd b3b9 a03b 525c 1fbb
000000b0: 9281 593d 6a82 4c3d d136 4c3c f2a9 f0bd
000000c0: 5cb3 223c 4769 643d f8a4 e5bd b522 e4bd
000000d0: 9418 9bbd b303 27be b163 95bd 7048 46be
000000e0: 5cfb 90be c310 cebd de63 f1bd c223 d3bc
000000f0: dfed ac3d 6273 203e 6e85 88bd f0c5 19be
00000100: e664 e63d a2f3 c13d ce2c 913d ae42 a53d
00000110: e84f 143d a8bd 543d 9113 eabb 404c e43d
00000120: c591 cd3c 68ae 2c3e 724d 883d 1c18 a8bc
00000130: 3a9e 273e 7b2f f3bd 7ec7 e03d f9d1 d13d
00000140: ddaf 9e3d fa4e 8fbd b130 b03c d703 53bd
00000150: 55fa 7cbd 247a 493e 1653 88be 681e 8fbd
00000160: 5074 93bd d891 2b3e 1748 b5bd e384 473d
00000170: 418b 123e 6036 4f3e 9f43 0aba 8c28 1e3e
00000180: e458 67bd 13bd bd3d 763f 493d b336 263e
00000190: 2802 1cbe b6ee 043e 38d1 08bc 7c00 12bc
000001a0: 152c 503c 7c12 cebb a62a e13d 28a3 9bb9
000001b0: 7cd3 4ebd bcc0 903d 2915 123a b9db 00bd
000001c0: f38e 0f3c 5457 e5bd 9e07 053e d8b2 923d
000001d0: 4c34 763e adea 88be 74fb f93d ca76 ccbd
000001e0: 98e9 e2bd f398 ad3c 08ca 123c aad7 a43d
000001f0: e143 1e3e 7c9b 95bd 224a 203e a190 023d
00000200: 906c ec3d f05b 40bd 1e38 8bbd 4f01 3e3d
00000210: 892d b0bc 7348 6abd eff5 2f3d fce6 aebd
00000220: c158 083c 21b4 063d ffff a8ba 9478 4c3d
00000230: 5f1b e9bc b4f0 29bd 740f 833c bc22 8fbc
00000240: 2928 b73d 88b8 5f3c 49eb 48bd 886e 3f3d
00000250: c976 e33c 59e3 903c c849 20bc 72e2 04be
00000260: 68cf a5bd 9a7f 2ebd c14c 053d 9dcb e43c
00000270: 9a6f f43c fa84 ffbd 0fa1 1a3d 66d6 023d
00000280: 4c06 b0bc 93a1 be3c b1b8 41bc 5178 e73d
00000290: 72cd 123d 94f3 8fbd 80e0 2b3d c549 ba3c
000002a0: b964 16bd 5c40 643c 28b0 6dbc cf48 aa3d
000002b0: a018 dc3d c5c4 0fbc 6af6 05bd a020 88bc
000002c0: fca3 de3c 8e0c aa3a 8ce9 c4bd 008d 2abd
000002d0: ad71 15be 3d62 c23b 2d18 9d3d 0db1 cfbc
000002e0: 141e 3f3d ef0a 6b3d e11d 31bd 6f9d 133e
000002f0: 3984 8abd 7a81 ea3c 80c5 09bd 451e 7cbd
00000300: c82e 8c3d afe8 07bd 4d29 59bd 9cd9 86bc
00000310: 6a6d d5ba cf88 423d 5f71 373d 43f7 ccbd
00000320: 9a5a 033e a54b 81bd ef9a 17be be4b 8e3d
00000330: 0c88 553d 0d12 09be 20ab 2b3d 392c abbc
00000340: a12d 1b3d 7c51 c5bd 7248 44bc 2258 b93d
00000350: b3f6 4fbd a9ab 87bb d724 4dbe bef8 ee3c
00000360: 014a f43d 1dbf 4c3d 1eec 45be abe3 debd
00000370: fcda b6bc 5cb9 363c 7bf5 48bb 2ff1 ec3d
00000380: 41e7 babd 0f37 c63d 6a89 b03c e1d7 74bd
00000390: 699f 9dbd 0e21 a9bb 4099 4f3b dfb9 ca3c
000003a0: 058e a93d e4c5 b7bc 0ca1 95bd 7c3a bebd
000003b0: 739c c5bd b038 343c 8d6d 0a3e 1759 0c3d
000003c0: 1c8b 3dbd 4166 0bbe 689f 21bd 349f 4ebd
000003d0: 4b58 b53d d383 b6bd 1dca 16be 36d0 24be
000003e0: cbe2 86be d989 0d3e 08ee d0bd cce2 a93c
000003f0: deba bdbd 4dd5 023d b07e 98bd 4ca0 82bd
-0.069754094 -0.10218764 -0.16948186 0.06812425 -0.045524944 -0.03370034 0.053374384 -0.051061362
-0.099446885 -0.06625747 0.051666252 -0.15856169 0.11427762 -0.16967016 0.048496656 -0.01825167
-0.024637006 -0.023834616 -0.09035957 0.12966298 0.012900724 0.098877 -0.23035954 0.067475595
0.2727767 0.06382931 -0.25671002 -0.05560155 -0.011338938 -0.018628225 0.067614436 0.090929426
-0.07203406 -0.12403999 -0.007343986 -0.09508123 0.03647651 -0.082826845 0.11575311 0.038678173
-0.05048315 -0.101602934 0.0049049496 -0.0024316502 0.053102084 0.04992906 0.012464241 -0.117511645
0.009930458 0.055764463 -0.11213106 -0.11139432 -0.07573047 -0.16310005 -0.07294405 -0.1936357
-0.28316772 -0.10061791 -0.11786626 -0.025773887 0.08443808 0.15669015 -0.06666075 -0.15016913
0.112497136 0.094702974 0.07088624 0.08069359 0.036209017 0.051938683 -0.007143446 0.11147356
0.025093922 0.16863406 0.066553965 -0.020519309 0.16368952 -0.118742906 0.1097555 0.10245127
0.07748387 -0.069974855 0.021507593 -0.051517334 -0.061762173 0.19675499 -0.2662589 -0.069882214
-0.07199919 0.16754854 -0.08851641 0.048710715 0.14310934 0.20235586 -0.00052743586 0.15445155
-0.056481257 0.09264579 0.049132787 0.16231804 -0.15235198 0.12981686 -0.008350663 -0.008911248
0.0127058225 -0.0062888246 0.10994463 -0.00029685465 -0.050494656 0.07068011 0.0005572611 -0.031459544
0.008762109 -0.11198297 0.12991187 0.07163018 0.24043387 -0.26741543 0.12206164 -0.09983595
-0.11079711 0.021191096 0.008959301 0.08048947 0.15455581 -0.07305047 0.1565328 0.03187621
0.11544144 -0.04696268 -0.06797813 0.046387967 -0.021506088 -0.057198 0.04295915 -0.085401505
0.008321942 0.032886628 -0.0012893676 0.04991968 -0.028455434 -0.041489318 0.01599858 -0.017472617
0.08943207 0.0136548355 -0.04905251 0.04673627 0.027766602 0.017686533 -0.009783216 -0.12977007
-0.080962 -0.04260216 0.0325439 0.027929122 0.029838372 -0.12476535 0.037751254 0.031942748
-0.021487378 0.023270404 -0.011823819 0.113022454 0.03584046 -0.07028881 0.041962147 0.022740254
-0.03671715 0.01393136 -0.014507331 0.083146684 0.10746884 -0.008774941 -0.032705702 -0.01661712
0.027177803 0.0012973712 -0.09614858 -0.041638374 -0.14594145 0.005932121 0.07670627 -0.02535298
0.046659544 0.057383474 -0.043241385 0.14415525 -0.06763501 0.028626192 -0.033635616 -0.061552305
0.0684486 -0.03318089 -0.053017903 -0.016461186 -0.0016283218 0.047493752 0.044785853 -0.10008099
0.1282753 -0.06313256 -0.14805196 0.069480404 0.052131698 -0.13385792 0.041911244 -0.02089511
0.037885312 -0.096346825 -0.011980163 0.09050013 -0.05077238 -0.0041403365 -0.20033585 0.029171344
0.119281776 0.049986947 -0.19328353 -0.10883268 -0.022321217 0.011152592 -0.0030663896 0.115694396
-0.091261394 0.0967847 0.0215499 -0.05977619 -0.07696421 -0.005161411 0.0031677037 0.024746833
0.08279041 -0.022433229 -0.07306108 -0.09288499 -0.09648981 0.0109998435 0.13518353 0.03426465
-0.046275243 -0.13613226 -0.039458662 -0.050444797 0.08854731 -0.08911862 -0.14725538 -0.16095051
-0.26344904 0.13822116 -0.10201651 0.020738028 -0.09264158 0.0319417 -0.07446039 -0.063782305

lstm.bias_hh_l0 f4 [256]
00000000: b6e5 5ebc 4cda e13b 9e88 05bc b681 7ebb
00000010: 7cee aabd 4296 35bd 9adc 71bc c5f8 be3d
00000020: 0062 dc3c b582 bd3c d215 ad3d 5162 19be
00000030: a688 bfbd 5e10 c2bd 3be9 08bd 0c3c 75bb
00000040: ba8f b43b a591 77bc 6ce9 79b8 dfd4 023e
00000050: 0d61 3a3d f111 cb3c 565f 89be a921 623d
00000060: 7fcb 353e a33e 25bd 98ac 08be 114e 823d
00000070: c96a b6bb 4a2c 283e 7819 57bd 3ab1 ed3c
00000080: 8a0e e6bd 6ef6 21bd 01f4 7b3d 7996 acbd
00000090: d68c 70bd f492 a9bb a9ae cf3d 4d0d 3d3d
000000a0: 93e5 d5bd c919 06be 679b 4b3d f422 a33c
000000b0: 24ae afbc aaae 80bc ca42 b73d 2977 f2bd
000000c0: ed71 dabc 8773 2fbc 548c 2abe d993 3bbe
000000d0: 7712 1a3d 30bd 98be 4ba1 aabd 6127 aebd
000000e0: 794d 13be 678a fb3c cb9f 553c 9393 063e
000000f0: da9e 033e e755 123d 1b17 aabc 67e3 1abe
00000100: 5c01 21bc f4fb d13d 5caa 54bc 376d 08bd
00000110: 6427 e1bc 40c5 c6ba fe0c 25bb 2e73 173e
00000120: 1b12 8d3d 5960 ff3d ce96 153d 8be2 0b3d
00000130: 17a8 453d 8760 18be f82a 453d 776a 603d
00000140: 0b2b fe3d 9ee7 babd e6d5 8abd 5b7e ec3d
00000150: 0bd3 5fbd 829b a33d 094e 32be d3f1 18bc
00000160: c90c 3abc e94f 1a3d 8eb4 6fbe f9ca d7bb
00000170: d5aa 5a3d 8ac6 603e 25ea e33d 901a f73d
00000180: 749f b9bd fd28 be3d 6265 05bd a312 6a3d
00000190: a475 15be a479 193e c81d 94bd f62d f23c
000001a0: 1287 7d3c bbf5 5e3e b302 c23d 63d0 b33d
000001b0: af93 45bc c4eb fb3c a227 fd3d b9fb 783d
000001c0: b91c 14bd 972a 893c 11e0 3b3b e1da 153e
000001d0: 7701 1b3d c48a 87be bbe4 d93d 3a64 33be
000001e0: 51cb 40be 0ecd c23d a968 9fbc 2d76 023e
000001f0: bd0d 7c3d b5b6 853d d533 113e dcae a33d
00000200: d3cd dbbc d249 c4bd 8e13 a23d 62b9 dc3d
00000210: 2d8c 913d eee6 5abc 489b d6bd 6015 68bd
00000220: ba15 a13d 41f8 c7ba 03d0 443d dbc4 603d
00000230: dcef bcbd 8519 3dbd 51ee 87bd 9560 5ebc
00000240: 3db1 82bd 4e39 64bd 83ae e83d 7793 aa3d
00000250: 9df9 69bd 8bd3 1fbd 5795 ca3c d76c 653d
00000260: 2962 59bb 2dd4 c9bb d0f3 6fbd 9717 81bd
00000270: 76cb 1dbd 27ad 203d 0c3e 103d 3da8 8f3d
00000280: 3803 c8bd a1c0 753d 58e5 573d 6c4b 1dbc
00000290: 4032 7cbd 17e8 073e d5a7 5c3d 99cd 55bd
000002a0: 2166 90bd 040a edbc eda0 62bd c930 1a3d
000002b0: 631e 123d 370f d3bd 917b 1c3d 4e19 143d
000002c0: 1793 90bc e239 653d ecef 8d3d 4ee8 00bd
000002d0: ac03 72bc 074f 62bd c50a 13bd 0ba0 cb3d
000002e0: bb90 68bd 6804 673c c66a 2ebd 5dd7 c1bc
000002f0: 1a15 dc3c e283 e13a b596 943d cd7a 12bd
00000300: 7b87 f9bd 4dfa 413d ee0f bcbd d2a9 1abd
00000310: b7bd d63d 5f3a a73d 76fd ff3d fb13 7dbd
00000320: 7fbc 953d 6c47 87bd 4a43 7b3c ae58 2fbe
00000330: d574 c63d 837d 53be 6930 903d a96f 7cbc
00000340: c2c4 07bd 3f2f 5d3d 057d 61bc 3749 4b3d
00000350: f81c d9bd abf2 ae3d 6a80 28be 70f7 b23c
00000360: 1587 003e 5207 f03d af1c bdbd 70e0 fbbd
00000370: ac82 613c b290 61bd cb98 1abe 376d e8bc
00000380: f4cb 4a3b cf50 ecbc b2bf ea3c bedd bebd
00000390: 2d14 583d 8622 c03d 2f98 be3d 9992 84bc
000003a0: 9aef f5bd ed1b 02bd fec9 da3c 7b3a 05be
000003b0: ff92 623d 0e26 08be 03a7 1d3e 7a63 02be
000003c0: f8fd febd f509 31bd df41 40bd d9b0 3dbe
000003d0: d306 6c3d d904 06be 936c bebd fee5 6cbe
000003e0: b401 f8bd e2b3 e5bc 68d2 20be 41c3 a03d
000003f0: 881c 8a3d 7a93 173d 756c f3bc 7aaa 02be
-0.013604572 0.006892478 -0.008150248 -0.0038834638 -0.083462685 -0.04433275 -0.014762068 0.09324793
0.026902199 0.023133615 0.084514275 -0.14978911 -0.093522355 -0.09475778 -0.03342555 -0.0037419824
0.0055102976 -0.015110408 -5.9583617e-05 0.12776516 0.04550271 0.024788829 -0.26830548 0.055207882
0.17753409 -0.04034294 -0.1334709 0.06362546 -0.005566929 0.16423145 -0.052514523 0.029015172
-0.11233242 -0.039541654 0.061511997 -0.08427138 -0.05872806 -0.005174989 0.10140736 0.046155263
-0.104441784 -0.13095774 0.04970875 0.019914128 -0.021445341 -0.015708286 0.08948286 -0.11839134
-0.026665652 -0.010708696 -0.16655093 -0.18318118 0.037615266 -0.2983184 -0.083315454 -0.08503605
-0.14385022 0.030705644 0.013038586 0.13142233 0.12853566 0.035726454 -0.02076297 -0.1512581
-0.009826984 0.10253134 -0.01298007 -0.03330728 -0.027484603 -0.0015164986 -0.0025184746 0.14790031
0.06888219 0.12469549 0.03652077 0.034151595 0.048256006 -0.14880572 0.04813668 0.054789033
0.124105535 -0.09126209 -0.06779079 0.11547538 -0.054644626 0.07988645 -0.1741258 -0.009334999
-0.011355587 0.037673865 -0.2340872 -0.0065854755 0.053385574 0.21950737 0.11128644 0.12065613
-0.090636164 0.09285162 -0.03256739 0.05714668 -0.14595658 0.14987808 -0.07232243 0.029562932
0.015474098 0.21773426 0.09473171 0.08779981 -0.012059136 0.03075207 0.12361075 0.060786936
-0.036160205 0.016743941 0.002866749 0.14634277 0.037843194 -0.26473057 0.1063933 -0.17518702
-0.18827559 0.09511767 -0.019459086 0.12740393 0.06153654 0.06528989 0.14179929 0.07992336
-0.026831543 -0.095843926 0.07913886 0.107775465 0.071068145 -0.013360722 -0.10478836 -0.05666101
0.07865472 -0.001525648 0.048049938 0.054875236 -0.09225437 -0.046166915 -0.06637252 -0.013572832
-0.06381462 -0.055718713 0.113614105 0.08328908 -0.057122815 -0.039020102 0.024729414 0.056012
-0.003317008 -0.0061593265 -0.058582127 -0.063033275 -0.038524114 0.03922763 0.035215423 0.07014511
-0.09766239 0.05999816 0.052708954 -0.0096005015 -0.06157136 0.13272129 0.053870995 -0.052198026
-0.070507295 -0.02893544 -0.055329252 0.03764418 0.03567351 -0.103056364 0.03820378 0.036156945
-0.017648263 0.055963404 0.06930527 -0.031471543 -0.014771383 -0.055251148 -0.035898943 0.09942635
-0.05677865 0.014100172 -0.042582296 -0.023662264 0.02686553 0.0017205442 0.072553076 -0.035761643
-0.12184044 0.047357846 -0.09182726 -0.03775961 0.10485404 0.0816543 0.12499516 -0.061786633
0.073113434 -0.066054195 0.015335867 -0.17123672 0.09690253 -0.20653348 0.070404835 -0.015407481
-0.033146627 0.054000136 -0.013762717 0.04963037 -0.106012285 0.08542379 -0.16455236 0.021846503
0.1255153 0.11720146 -0.092339866 -0.122986674 0.013764065 -0.055069633 -0.15097348 -0.02837239
0.003094432 -0.028847126 0.02865586 -0.09319638 0.052753616 0.09381585 0.093063705 -0.016183184
-0.12008591 -0.031764913 0.026707646 -0.1301059 0.055315968 -0.13295767 0.15395741 -0.1273326
-0.124507844 -0.043222386 -0.04693782 -0.18524493 0.057623696 -0.13087787 -0.09298053 -0.2313461
-0.121097 -0.028039876 -0.15705264 0.07849742 0.06743723 0.03700588 -0.029714802 -0.12760344

lstm.weight_ih_l1 f4 [256, 64]
00000000: 66dc 3f3d 6469 2d3e 4f85 333d 32cd 9cbd
00000010: ab23 04be 3505 babd b21f c2bc 3e1b 4abd
00000020: cc7f f1bd edad ddbc c0fb 9d3d 49bd c73d
00000030: 9b2a 11be 5d0f 013d b0d7 5abe 52fa f9bd
00000040: d0b4 83bd 291c 47be 4329 9f3d 8349 69be
00000050: 2644 b73d 4136 e4bd 4af6 cf3d 7bf5 76bc
00000060: d6fb 553d e899 643d 31e2 9a3d 5a7a 583e
00000070: 1bfd 88bd 166f 53bd 9914 373e 82d8 2bbe
00000080: d5ed 5a3e 73bb 21be d4c0 963d eb20 243c
00000090: 19af ee3d 54d3 413c 4077 d73d 99c2 2f3d
000000a0: ab79 5c3e c512 763e 809e 92bd a35a 90bd
000000b0: 2be4 87be b485 a3bd b77c a93c 0e5c abbb
000000c0: 9904 61bc 75bb 423d abc5 b23a bdd6 8dbd
000000d0: 25e2 dfbd ef07 1c3c 0951 bf3d 4e32 97bd
000000e0: 9c11 d83d 2302 243e a363 023e 0254 e13c
000000f0: 8835 b6bd c889 243e 0f54 e9bd 0860 f33b
00000100: 7b4d e13c df7b 7ebd 88d3 863d b8c1 b63c
00000110: 4e2b 433e d456 133e 3de8 ab39 b6d6 b7be
00000120: 0a3d 1dbe 97ab 1a3c 2855 9cbc 4251 f73d
00000130: 4ad9 173b 3ebd 50bd cdb2 8c3e 56fa 6c3e
00000140: d165 dc3b 39ac d43d ca8f 573e 801c ab3d
00000150: f680 0ebe 2af4 af3d 7433 683d 76fb 50be
00000160: a5e3 7cbe 66bf 8a3d 0a5e 363e d9c8 32be
00000170: 6304 ce3e bb5d 62be e278 01be e9c8 463e
00000180: 5210 eebc 7483 54bd 94f1 5d3d 32e6 aa3d
00000190: 2f36 f73d 3092 6f3e 2e2f c7be 05d5 923e
000001a0: aa9e 34be e3b6 a6bc 1af1 13be fb64 393e
000001b0: e7e3 2d3e 9db4 04be c035 f43d 7ca0 853e
000001c0: 1c14 1f3d cead 6ebe 959a 263d 28e2 17be
000001d0: fe77 9bbc 4a20 d7bd 362c 9b3e 965c 963d
000001e0: e457 e5bd 6624 ccbe 6154 1c3b 1c80 bc3d
000001f0: 0c7a 27bd 7a78 11be 3428 6d3e 740b 103d
00000200: de5e babd 3e8b 593e bb64 643e 010d 81bd
00000210: 89d4 cbbd 04a1 bb3d 37e7 3e3c 65f3 9ebd
00000220: 3c36 d3bd c641 643e 23fb 5b3c 2de7 9fbc
00000230: a03b 8f3e 0233 843e 6a45 253e 8efa 5c3d
00000240: 3fd4 533d 429d 983e 0bb8 823d 6168 883c
00000250: 1cda 243e 1e5f 4b3e 2428 7e3b 7a63 0d3d
00000260: d649 40bd 1838 ed3a 99dd e9bd f2ac 3ebe
00000270: 054a a13e 7db5 7f3d d3ea 59bd 1d98 62be
00000280: 5a43 cc3d 0ee8 f1bd dec6 13be b2ce babc
00000290: 709e aebb 09c7 903c 6d9f 3abe cdad 273e
000002a0: a73f 683d ba13 39be 3861 3c3d 2046 62bd
000002b0: 11ea 80bd 1e3e 3a3e 0d07 7d3e e725 693e
000002c0: b306 363d 25cf f8bd bfb5 423d dadd 16be
000002d0: 13cc bf3d 9d45 86ba 5a8d 1bbd c08c 5f3c
000002e0: e7d0 1fbe fb58 90be 6c53 17bd eaca 97bc
000002f0: fd8e 753e a4d6 43be ea82 143e 9e97 063e
00000300: 65ae 133d 5d53 693d 642f 87bd da47 17bc
00000310: 92f2 b73d 579f a5bd d12b 87bd f4cd 543e
00000320: e850 e43d 71ee 17bd 2789 123e abd5 1bbe
00000330: ddd9 dc3c 03db d73d faf5 95bc 8e92 633d
00000340: c932 143e ed7a 80bd 2d40 49be 4180 3f3d
00000350: 2e5d 23be cc00 edbc 45dd a93d 0bf9 51bd
00000360: 72da 4d3c fc9a 893d 968d dabd 2d03 df3d
00000370: fc57 b1bc e563 4bbd e984 fd3d f6f8 44be
00000380: 20d8 983c 66f4 cc3c 45c2 453d 63ae 663c
00000390: 099b 23be 5f18 843d e14c 173d 8dfc 243e
000003a0: 47f5 f33d c7d0 a13d fbb0 bf3d 7e3c 01bd
000003b0: 2de6 a5bd 6b00 983c 38d2 a2bd 8d2a a0bd
000003c0: 8a68 06be 13b8 0cbe 91eb 0fbd c73b 6fbd
000003d0: 59aa e43c c80e 14bd 45ca ce3d cd52 01be
000003e0: b195 9f3d 03c8 19bd 1efe 76bc 7e1d 2abe
000003f0: f01f ff3d 08d9 f5bd b6a2 31bc bd01 a03d
0.046841048 0.16934735 0.043828305 -0.076563254 -0.12904231 -0.090830244 -0.023696754 -0.049342386
-0.117919534 -0.027060473 0.07714033 0.097529 -0.14176409 0.031508792 -0.21371341 -0.12205948
-0.064309716 -0.19444336 0.07771542 -0.22781949 0.08948545 -0.111431606 0.10154398 -0.015073176
0.052242123 0.05581084 0.07562674 0.21140423 -0.06688901 -0.05161961 0.17878951 -0.1678181
0.21379788 -0.15794162 0.07360998 0.010017614 0.11654491 0.01183017 0.10520792 0.042910192
0.21530788 0.24030598 -0.07159138 -0.070485376 -0.26541266 -0.07984486 0.020689351 -0.0052294796
-0.013734006 0.047542054 0.0013639232 -0.06925724 -0.109318055 0.009523376 0.09341628 -0.07382642
0.10550234 0.1601644 0.12733321 0.027505878 -0.08896929 0.16068184 -0.11392986 0.0074272193
0.027502766 -0.06212985 0.06583315 0.02230917 0.19059488 0.14388591 0.00032788693 -0.35906
-0.15355316 0.009440324 -0.019083574 0.120760456 0.0023170286 -0.050961725 0.27480164 0.2314237
0.0067260046 0.10384411 0.21050945 0.08355045 -0.13916382 0.085914925 0.056689695 -0.20408425
-0.24696214 0.067747876 0.1780931 -0.1745943 0.40237722 -0.22106068 -0.1264377 0.19412579
-0.029060517 -0.051883176 0.054185465 0.083446875 0.120708816 0.2339561 -0.38903183 0.28678146
-0.1763865 -0.020350879 -0.14447442 0.18104927 0.16981469 -0.12959523 0.119243145 0.26099002
0.038837537 -0.23308489 0.040674765 -0.14832366 -0.018978115 -0.105042055 0.30307168 0.07341878
-0.111984044 -0.3987152 0.0023854005 0.092041224 -0.040887877 -0.14206114 0.23159868 0.035167173
-0.09100126 0.21244523 0.2230405 -0.063013084 -0.09952647 0.09161571 0.011651806 -0.077612676
-0.10313079 0.22290716 0.013426575 -0.019519413 0.27975178 0.25820166 0.1613976 0.053949885
0.051716086 0.29807478 0.0638276 0.016651334 0.16098827 0.19860503 0.003878125 0.034518696
-0.046945415 0.0018098382 -0.114192195 -0.18620661 0.31501785 0.06242894 -0.05320246 -0.22128339
0.09973784 -0.11811839 -0.1443133 -0.022803638 -0.005328946 0.017673032 -0.18224879 0.16374893
0.05670133 -0.18073931 0.045991153 -0.055242658 -0.062946446 0.18187758 0.24709721 0.22768365
0.044439983 -0.12148885 0.047536608 -0.14733067 0.09365096 -0.0010244135 -0.0379766 0.013644397
-0.15607034 -0.28192887 -0.03694479 -0.018529374 0.23980327 -0.19124848 0.14503065 0.13143775
0.036054987 0.056964267 -0.06600836 -0.009233439 0.089818135 -0.08087032 -0.06600154 0.2078169
0.11148244 -0.03709263 0.14310132 -0.15218227 0.026959354 0.1053982 -0.018305767 0.055559687
0.14472498 -0.06273446 -0.19653387 0.04675317 -0.15953514 -0.028931044 0.08294157 -0.051262897
0.012564288 0.06719014 -0.106715366 0.108892776 -0.0216484 -0.049655814 0.12378866 -0.19235596
0.018657744 0.025018882 0.048280973 0.014079663 -0.1597711 0.06449961 0.03693855 0.16111965
0.11912017 0.07901149 0.09359928 -0.03155183 -0.08100543 0.018554887 -0.07950252 -0.07820616
-0.13125816 -0.13742094 -0.035136763 -0.058406617 0.02791326 -0.03614691 0.100971736 -0.12629242
0.07792223 -0.03754426 -0.015075235 -0.16612813 0.124572635 -0.12004286 -0.010842016 0.078128316

lstm.weight_hh_l1 f4 [256, 64]
00000000: 0665 febd edd7 9a3d a8e5 1cbd 03e2 91bd
00000010: 19dc 013d a1ff 053e 2d35 e9bc fa1f fd3c
00000020: d0c3 803d f826 8d3d e3f2 4cbd 824d 74bd
00000030: aae2 6e3d 95e0 4ebd d739 54be e232 e93d
00000040: d427 ed3d 63cc b4bd e4cb 92bd 27a8 bb3d
00000050: 05e7 94bd ffc7 22be e6fb b63d f9e8 ba3d
00000060: cdf6 0d3d 17df 01be efab 91bd a025 12be
00000070: e8bf e0bc f892 02bd 873d 8bbd 9d3d b03d
00000080: 1095 fcbd 693a 923c 98f8 0d3e 16ee b73d
00000090: 959b 3a3d d3e5 943d e04b 4b3d 0c72 cd3d
000000a0: e35d 98ba 019f 223e b5c0 27be f27b 793d
000000b0: e58d 4f3d 5aa6 dbbd a2e8 a13d 48a8 51bd
000000c0: 59bb 69bd ebc8 673d b4e5 e23d 3d6e f5bd
000000d0: e3ee 813c 5966 87bc f242 373d b960 c3bd
000000e0: fb3b e13d 4183 213e 39e5 c6bd 5c4b 22be
000000f0: f662 333d 7b4a 823d 0e6b 05bd d7b6 91bd
00000100: b382 dd3d 21ea 343e 9c3a e83d 59ff 943a
00000110: 38d0 d0bd f7ee 61be 71f1 2abd 8a28 e1bd
00000120: 9a73 593e 5a61 92bd 5bbd cfbd 6cbc d53d
00000130: 3c8a 043e 3336 c33d 53b9 90be 71de 9dbd
00000140: 73f1 14be 0319 b8bd 393b e5bd 645b adbd
00000150: 17e8 82be ca36 85bb 419d 43bc b125 843d
00000160: ad2c 483d 9ce4 fe3d f811 b4bc f1c6 04bd
00000170: a1ec 1bbb c83c 9abd 241d da3d 4d7d 12be
00000180: 93c7 8e3b 5341 ab3d f62a 41be dcfb 283e
00000190: fbdf 96bd 903f 80bc 9c52 863e 3f49 1cbe
000001a0: fe8b 85bc 10ba 203d 19bc ef3d a11b 693d
000001b0: 58e4 dbbc 4e2f 323e ea6a a93d 9deb b13d
000001c0: b8ac 2e3d 6c95 753e c6ee 283d 0bc9 1a3e
000001d0: 315b a93d 3d91 873c 6c76 ad3d 179d 01be
000001e0: 6d8e d2bd 471e bcbd 0897 a0bd 762f 493e
000001f0: dd88 51be a893 253e 3c80 0a3e cfee 0dbe
00000200: f085 bdbd 858f 7b3d 86e6 b1bc ad27 0f3e
00000210: 19f2 c8bd e9ae b6ba c213 94bd 5d23 4c3d
00000220: bfb0 ee3b ec83 fd3d 7ed0 b73d 8a93 03be
00000230: fc93 4fbe 4c2c 7ebd 8718 363e 16d4 3f3e
00000240: 25a2 013e 5bdb 623d 89c4 91bd 1ec8 1f3b
00000250: 0cd7 203d 9b3d 563d 4081 d1bc a37c 5c3d
00000260: 9990 89bd cb84 9ebb b707 2b3e 5c0c 763c
00000270: 8d3a f13d 1f33 3f3d 39b8 27bc 33e9 403b
00000280: 2e06 e9bc 8985 d9bd 31cd 1f3d a794 c0bd
00000290: deb5 c83d a7fd 42be 2954 c83b 9538 49bc
000002a0: 22c6 30be fa20 bc3e 2e61 d63d 9530 723d
000002b0: 16ee 423d 764d 813d b712 fb3d ddf6 20be
000002c0: 527e 37bb 41f4 8dbd 897a 4a3a 4b84 6f3c
000002d0: f975 fe3d 7a16 7dbd 31c4 81bd df14 56bc
000002e0: 8c0a 9bbd 5c2b 88bd c96a 22bd 4c32 cd3d
000002f0: 6039 7b3e dd43 46bd 8774 0bbe 22b4 d83c
00000300: e417 3ebe d5c0 f23d eefd a5bd 49b3 c23d
00000310: f849 9f3d 76a0 f13c 9c78 6fbd 4da4 25bd
00000320: 6e2a 75be fecc 47bd 8b7f a43d da36 093d
00000330: 1b9f b53c 743f 93bd f9d6 f43d 7021 a83d
00000340: a016 233e 3ba8 2dbd 2328 da3c a57e 0dbd
00000350: 5672 f1bb 8d00 34be adbd d93d 74be 9abd
00000360: 93e9 a6bd 48b5 dabc 7620 40bd e83f fdbc
00000370: 3113 2fbe 305d 453d d3a1 9b3d d9d2 d93d
00000380: d20f dcbd dd97 c0bd bdd4 793e 5ca4 e3bd
00000390: 4556 2d3d 228c ecbd c0ec 653d 0f79 50bd
000003a0: bbc6 90be d273 ea3d aed7 793d 58ed c2bd
000003b0: cbe6 d63d dae5 c23d 527a 37be 32f6 36be
000003c0: 7e83 febb 05bc fcbd b240 093e 3db3 3abe
000003d0: 5fdf bf3d cfe3 f6bc cfe6 d73d 97ed 4b3d
000003e0: ecf9 d03d cbdb 18bc 6974 82be 8da4 d3bd
000003f0: e8ac 353e fe4b 01be 1363 23be 126f 203e
-0.124216124 0.07560716 -0.038304955 -0.071231864 0.031704042 0.13085796 -0.028467739 0.030899037
0.06287348 0.06892198 -0.050036322 -0.05964423 0.058321632 -0.050507147 -0.20725189 0.11386658
0.11579862 -0.08828046 -0.07167795 0.09162932 -0.07270626 -0.15896605 0.089347646 0.09126467
0.034659196 -0.12682758 -0.07112872 -0.14272165 -0.027435258 -0.03187844 -0.06798845 0.08605502
-0.12333119 0.017850118 0.13864362 0.08980958 0.04555853 0.07270398 0.049632907 0.10031518
-0.001162466 0.15880968 -0.16382106 0.06090922 0.05067243 -0.107250884 0.07905699 -0.051185876
-0.057063434 0.056588095 0.11078969 -0.11983917 0.01586098 -0.016528295 0.04474158 -0.09539933
0.109977685 0.15772726 -0.097116895 -0.1584906 0.04379555 0.06361862 -0.0325728 -0.07114952
0.108159445 0.17667438 0.11339304 0.0011367603 -0.101959646 -0.22063814 -0.041734163 -0.1099406
0.21235505 -0.071474746 -0.101435386 0.10436329 0.12943357 0.09531822 -0.2826639 -0.07708443
-0.1454523 -0.089891456 -0.111929365 -0.08464697 -0.25567695 -0.0040653693 -0.011939348 0.064525016
0.04887073 0.124459475 -0.021981224 -0.032416288 -0.0023792165 -0.07531124 0.106500894 -0.14305611
0.004357287 0.08362069 -0.18864045 0.16502327 -0.0736694 -0.015655309 0.262349 -0.15262316
-0.016302105 0.039239943 0.11705799 0.056911115 -0.026842281 0.17400858 0.08272345 0.08687518
0.042645186 0.23982781 0.041243337 0.15115754 0.082693465 0.016548747 0.08469853 -0.12657581
-0.10281072 -0.091854624 -0.07841307 0.19647011 -0.20462365 0.16169608 0.1352548 -0.1386063
-0.09254062 0.061416168 -0.021716367 0.13979979 -0.098118015 -0.0013937625 -0.07230331 0.049838413
0.0072842534 0.12378678 0.089753136 -0.1284925 -0.20271295 -0.062053964 0.17782794 0.18733248
0.1265951 0.055384975 -0.07117564 0.0024380754 0.039267585 0.052304845 -0.025574327 0.0538298
-0.06717033 -0.0048376075 0.16702162 0.015017595 0.11778746 0.046679612 -0.010236793 0.0029435873
-0.02844533 -0.10621173 0.039014045 -0.09403353 0.098003134 -0.19042073 0.0061135483 -0.012281557
-0.17263082 0.3674391 0.10467754 0.059128363 0.047590338 0.063136026 0.12259429 -0.15719171
-0.0027998877 -0.06931353 0.00077239476 0.014618943 0.12424845 -0.061789013 -0.06336249 -0.0130664995
-0.07570371 -0.06648895 -0.03965262 0.10019359 0.24533606 -0.048404563 -0.1361867 0.026453082
-0.18563801 0.11853186 -0.08105074 0.09506852 0.0777778 0.029495459 -0.05846463 -0.040439893
-0.23941967 -0.04877948 0.080321394 0.033499576 0.022170594 -0.07189837 0.11955065 0.08209503
0.159266 -0.042396765 0.026630467 -0.034544606 -0.0073683662 -0.17578335 0.10631881 -0.07555857
-0.081500195 -0.02669777 -0.046905957 -0.030914262 -0.17097165 0.048184574 0.07599225 0.10635919
-0.10745205 -0.094039656 0.2439756 -0.111153334 0.0423186 -0.11550166 0.056133986 -0.0508967
-0.2827662 0.11447872 0.060996704 -0.09517926 0.10493239 0.09516497 -0.17917755 -0.17867354
-0.00776714 -0.123405494 0.13403586 -0.18232436 0.093687765 -0.030137924 0.1054207 0.04978713
0.10203919 -0.0093297465 -0.2547944 -0.1033412 0.1774174 -0.12626645 -0.15955763 0.1566737

lstm.bias_ih_l1 f4 [256]
00000000: dd60 f43b d2be 933d f7cb 5e3d 5c4e 42bd
00000010: 09d1 eabd 1aec b03d cca5 6fbd 6c45 2abe
00000020: aa34 c8bd aed6 14be 1735 80be 1233 0abd
00000030: ed75 8cbe dc67 bebd 81e9 23bd 8b53 c8bd
00000040: 840f c8bd da5e 02be e935 76bd d74c c2bd
00000050: 2259 8cbb c9f7 a83d 1b34 293c bdf1 eabd
00000060: ef33 96be 3343 c33c 18cc 93be 06da bd3d
00000070: 3631 1c3d 0cc9 24be 1228 6cbe 08d1 383d
00000080: e838 b7bd ff9a 95bd 0118 22bd 5cc9 8fbe
00000090: 7a4c 70bd a48e a3bd d140 e93d 6d85 28be
000000a0: c32c 74be 980c 94be a480 afbd 5c6b 66be
000000b0: 0db9 893a 462b f9bd 20f3 0ebd 4595 72be
000000c0: d6e7 ee3d 4c9c 3c3c c76e 06be c319 bb3d
000000d0: ebd6 0dbe 6f54 063d 97f5 cabd f423 15be
000000e0: 10f4 c73c 5f8a 8abd f6b8 9fbe e362 05be
000000f0: 6d57 a1be bba6 febd 57ea 12be 2f0b 8d3c
00000100: 36cd 2abe d627 683e 1982 193d 622a c43d
00000110: 5721 443e 33d1 d13d 8188 25be 71b1 99bd
00000120: 60e1 293e 460e 16bd 6370 a2bd b061 163d
00000130: 66d8 0cbd 9f45 bd3a 0812 fdbd c214 c4bd
00000140: 9a2b 8abc 7b0d 803d d8e9 b83a 769d 71bc
00000150: 2b52 2cbe d9fe e13d d77f 8a3c 9fd6 02be
00000160: 7eeb 8ebd 5cdc 933d 3b25 30be 1029 34bd
00000170: b0d6 003e 434e 11bd 3fcd f8bb 49c6 2d3e
00000180: 34d7 f03d 338b 43bd dbb9 8c3d 1731 c5bd
00000190: 7399 14bd 06d9 003e b5a7 b93d fe98 a93d
000001a0: c198 d03d 1ba6 8bbd 47cf 403e 1b80 1abe
000001b0: eb88 75bd ddef 75bd 1cb8 07bd f2b5 a43c
000001c0: 2f86 cebb ef1f 8b3d 8cde 203d a2c7 673e
000001d0: 476e d83d 661d 4d3d 5e94 1bbe 2e6d eabd
000001e0: 2ecb 8abd f414 c53d 845f 413d da65 f23d
000001f0: 2289 7bbc 0fa7 02be 2a8a bdbc e660 243d
00000200: 5fd0 c13d 39b0 8abd 302f e6bc d28a 9e3d
00000210: 6a21 533c e9da 15be 04d5 9fbd 6e04 0dbe
00000220: 4697 61bc 8a01 c1bd bffa 64bd 499e c43c
00000230: 8693 4bbd 144e 203e afa5 dfbc c9e9 cebd
00000240: f325 a6bd 1e92 ffbc 0f1c 06bd 7c0b d8bd
00000250: 3f89 8d3c dd71 a63d 7825 873c 60d0 06be
00000260: 384d 913c f2e7 973d b5e4 e8bb d43e 9dbd
00000270: faec 2bbd 70cd d8bc eb4f 4e3c c99e 17be
00000280: f2c2 01bd ce6c cc3d d28a d6bd 3ebd 9a3d
00000290: 01f7 a5bd 7744 dd3d 95b7 2b3e 782c 0dbe
000002a0: fb5e ca3d 02ba d2bd 05e9 323e e072 823d
000002b0: 39bd 9a3d d9dc f33d 956e aabc 6f45 8f3d
000002c0: 49f2 b7bd fcd4 c93d 2e6e 00be efc5 fb3d
000002d0: b9a7 0ebe 9ca8 163e ce85 833d 431e 77bd
000002e0: dfe7 f73d 49e6 81bd 61be c43c 29c9 393e
000002f0: 0619 8abd 19f6 e83d e0d3 d73d 4acb ccbc
00000300: d573 32be c268 e73d 061b 88bd 234f 1abe
00000310: ed67 9abd dac6 69bc 11c4 58be 8c41 a5bd
00000320: f285 ba3b 53ce 11be 3996 49bd 6292 d43d
00000330: c1a5 21be 3f42 e4bd e63a 41be 602c 8eb9
00000340: 2da2 71be 3f27 6ebd 7ec5 89bc f631 333c
00000350: 4542 20be 6730 ab3c a0f9 0cbe dbe7 aabc
00000360: 2cb0 67be 9a1c c9bd fdd8 70be 1adc 623d
00000370: 7946 dc3d 5ad4 c0bd a0c0 aebc 39c5 cb3b
00000380: 52ca 563c 14ea d7bd 3e55 623d 2c1f 26bd
00000390: 7369 3cbd 23b6 cfbd 4433 52bd b5b1 e9bd
000003a0: fc9b 69bd 1f24 0dbe 957a afbd a679 25be
000003b0: 9af3 2dbd 1a8d 4a3d ddb3 d8bc 57e3 1dbe
000003c0: 2204 063e d313 3fbd 289f f3bb 7007 d43c
000003d0: 6811 0fbd 0d0d b3bc 7ee4 11be 732d b3bd
000003e0: 2e9a 3fbb f028 35bd 1ba0 03be e504 db3c
000003f0: 7a6b 43bd 808f 30bd 8c4a bebd b93b bfbd
0.007457836 0.072141305 0.054393735 -0.04743801 -0.114656515 0.08638783 -0.058507726 -0.16628045
-0.0977567 -0.14535019 -0.25040504 -0.03374011 -0.2743372 -0.09297153 -0.04001761 -0.097815596
-0.09768584 -0.12731495 -0.060110006 -0.09487312 -0.0042830864 0.08250386 0.010327364 -0.11471889
-0.29336497 0.023835754 -0.2886665 0.092701 0.03813287 -0.16092318 -0.2306216 0.045121223
-0.08946401 -0.07304954 -0.039573673 -0.28083313 -0.058666684 -0.07986191 0.11389316 -0.16457148
-0.238452 -0.28915858 -0.08569458 -0.22501892 0.001050742 -0.12166457 -0.03489983 -0.23689754
0.11665313 0.011511873 -0.13128196 0.09135773 -0.13851516 0.032795366 -0.09910124 -0.14564496
0.02440837 -0.067646734 -0.31195801 -0.13026004 -0.31512013 -0.12434145 -0.14347206 0.017217247
-0.16679844 0.22671446 0.037477586 0.095783964 0.19153343 0.1024498 -0.16165353 -0.075045474
0.1658988 -0.036634706 -0.07931592 0.036714256 -0.03438606 0.0014440304 -0.12356955 -0.09574272
-0.016866494 0.06252571 0.0014107777 -0.014747014 -0.1682822 0.110349365 0.016906662 -0.12777184
-0.0697851 0.072197646 -0.17201702 -0.043984473 0.12581897 -0.035475027 -0.0075928266 0.16970171
0.11759797 -0.047740173 0.068713866 -0.09628504 -0.036279153 0.12582788 0.09065191 0.08281134
0.101853855 -0.068187915 0.1882907 -0.15087931 -0.05994503 -0.060043205 -0.033134565 0.02010629
-0.006302617 0.067932 0.039274737 0.22634748 0.10567909 0.050076865 -0.15193316 -0.114466056
-0.06777035 0.09623137 0.04721023 0.11835833 -0.015352519 -0.1275904 -0.02313717 0.040131472
0.09463572 -0.06771893 -0.028098673 0.077413216 0.0128863845 -0.14634289 -0.078043014 -0.13771221
-0.013768977 -0.09424122 -0.055903193 0.024001257 -0.049701236 0.15654784 -0.027300684 -0.10103185
-0.08112707 -0.031197604 -0.032741603 -0.105490655 0.017277358 0.081271864 0.016497359 -0.13165426
0.017737016 0.07417287 -0.007107342 -0.07677999 -0.041974045 -0.026465148 0.012592296 -0.14806665
-0.031680055 0.0998169 -0.104756966 0.07555626 -0.08103753 0.10804074 0.1676925 -0.13786495
0.09881397 -0.102893844 0.17471702 0.06369567 0.075556226 0.11907358 -0.020804683 0.06995665
-0.08981759 0.09855077 -0.1254203 0.12293612 -0.13931169 0.14712757 0.064220056 -0.060331594
0.12104773 -0.063427515 0.024016561 0.18143143 -0.06743054 0.113750644 0.10538459 -0.02499928
-0.17426999 0.11299278 -0.06645779 -0.15069251 -0.075393535 -0.014268601 -0.21168543 -0.08069143
0.005692237 -0.14238863 -0.04921553 0.10379483 -0.15785886 -0.11145448 -0.18870124 -0.00027117413
-0.23597021 -0.058142897 -0.016817804 0.010937205 -0.1565028 0.020897103 -0.137671 -0.02086251
-0.22625798 -0.098199084 -0.23520274 0.055385686 0.10755629 -0.09415503 -0.021332085 0.006218579
0.01310976 -0.10542694 0.055257075 -0.04055707 -0.045999 -0.10142162 -0.051318422 -0.11410848
-0.057033524 -0.1378331 -0.085683025 -0.16159686 -0.042468645 0.04945097 -0.026452953 -0.15418755
0.13087514 -0.046649765 -0.0074347444 0.025882453 -0.03492871 -0.021856809 -0.14247319 -0.08748903
-0.0029236185 -0.044228494 -0.12854044 0.026735732 -0.04770992 -0.043105602 -0.092915624 -0.09337563

lstm.bias_hh_l1 f4 [256]
00000000: 7a70 00bd f8c8 c0bb 7dfc 493e 55a6 cebd
00000010: 1212 00be 82d1 86bd 3c34 eebd 84b4 56bd
00000020: 3615 c3bd 1777 32be 2890 68bd 09ec ce3d
00000030: 70c1 01be 8a92 413d 24ab abbd 2593 46be
00000040: 8efb c1bb ee88 643c 51f1 bebd 3695 1dbe
00000050: 744a 1cbc 66b7 023e 1943 53bc 6861 b5bd
00000060: 476f a6be 9de0 03be 9fa0 6bbd 11ac 9d3d
00000070: f51e 113d d66d 0cbe 404a c9bc 2f0e 0ebc
00000080: dfcf 0cbd 9df1 4c3a b7a2 ffbd 4db7 c6bd
00000090: 782e aebd d0fe 2abe 206b f23b 37b4 52be
000000a0: 403c 69be 9390 01be ba75 44bd e53b 55be
000000b0: 2bab 4abe 8675 dabd fd5a 5dbe cfd1 16be
000000c0: d5e9 253d d1fd 2abe 8656 5fbe 6d31 3e3e
000000d0: 6268 3bbd 8456 0fbc 1702 50bd 37e3 3abe
000000e0: 415d 0fbd f6b5 ffbc 93ac 44be 941f aabc
000000f0: f58b 9cbe 32b2 15be 061d a2bd edeb 82bd
00000100: cb88 76bd 5438 473e b1a4 f03d ec38 013e
00000110: 7634 3a3e 432d c6bc 54a5 73bd 5c15 c1bd
00000120: 810d ad3d b6d7 bfbd 2535 c0bc 7290 483d
00000130: 50b1 26bb 0cf3 243e 940a 2c3d 8945 27bd
00000140: 5356 9b3d c84c 453c a977 14bd 2999 ed3c
00000150: d367 c0bd cf01 403d 1b10 51bd f7b8 2b3d
00000160: 1a8a f4bd 27e3 b33d 476e 81be 6656 86bd
00000170: e14f 103e 011f 4dbe e1fb d7bd 2efd aa3d
00000180: 3a4d 633d 9d7f 993c c262 113e e646 9c3b
00000190: b274 24bd e98d d6bc bdbd 503e b599 a1bc
000001a0: 9f2b 553d ea7d 49bd 8981 533e 4856 b2bd
000001b0: efe7 05be 580c 07be 65fa a7bd 95e1 c1bd
000001c0: aa8e a83d fcd2 c5bd 27ef f3bc d77b 6e3e
000001d0: d76c b0bd 1892 17bd cb0a c13c 4399 ca3d
000001e0: ae7b b23d 0ac5 a8bc 88bc 16bd b27f b03c
000001f0: 54dc 46bc 1290 353d ec3f b9bc 7951 a5bd
00000200: 413f 053e d36a c2bd e496 e93d acd6 1a3e
00000210: d22a 20be 6532 c8bd 4e7a 9fbd 0499 f8bc
00000220: d9dd 133e 57f0 fbbd 9596 e93c 85c6 f2bb
00000230: 3ce5 0f3e 7bba 123e 93d0 333d 68cd 1fbe
00000240: eac4 96bd 5b03 01be 4848 9abd 6900 80bd
00000250: 3953 493d 307c 653c b54e c5bd 0513 6abd
00000260: f2e0 893b 3a6e bb3c d5a6 dabd f3e1 11bd
00000270: 81b6 1c3e 28e6 44bc 97aa 253e 6699 cabc
00000280: cec2 523e 731c d33d 5381 37be a4eb b53d
00000290: b96f c4bd fe73 eabc d852 363e 24fe 98bd
000002a0: 53b0 0c3e 8ed7 35be f4de b5bb e354 cbbd
000002b0: 0711 f7bd abfd 2b3e 4441 b5bd 50c3 b13d
000002c0: 0416 f3bd 1f75 843d 2575 24be 0175 91bc
000002d0: 70a7 2abe a23a b23d 04b3 483c ea95 0fbe
000002e0: 3d45 9e3d 9870 5cbd 1018 983c de23 ce3c
000002f0: 46ff c93c e6a4 36bc 4751 cf3d 8ee3 03be
00000300: 87d4 05be 5313 a63d 4a7e 833c 440b 953d
00000310: d74d 8cbd 0d43 01bd 10d7 e4bd c276 e9bc
00000320: 2be4 05bd ed97 23be b10e eabd 3e5e e73c
00000330: f8c7 08bd 2f63 07be 23cd b4bd af89 acbd
00000340: 7bd3 21be dd77 3dbe 6f7d 503b 2d8b 3ebe
00000350: 3c7a 4abd fef2 7b3d 4e16 063d 716e 42bd
00000360: 0217 81be e300 0fbe ba0c 41be 60e6 a0bd
00000370: 4478 e93d ce4c fbbd cb8a 10be 52e7 9e3b
00000380: 2e62 f7bb 84a0 913d df4b bcbc d684 25bd
00000390: 8748 0fbe 5fb8 a1bd 8c6b eb3c 082b 14bc
000003a0: e326 993c 9de1 17be 7660 18be 052f 51be
000003b0: a408 15bc d8a2 f13c dd2b a2bc e482 4abe
000003c0: f99d 8dbd 6971 09be 7eae 36be 9a46 b1bd
000003d0: 7672 39be 1b8d e1bd 36d6 fdbd ef1a fdbc
000003e0: c0aa 54bd bb08 b13d f124 7bbc dfc6 a6bc
000003f0: b70d 46be ec90 863b 05ec fabd 3066 ddbd
-0.031357266 -0.0058833323 0.19725223 -0.10090319 -0.12506893 -0.06582929 -0.11631057 -0.052418247
-0.0952553 -0.17428242 -0.056778103 0.10103614 -0.12671447 0.04725889 -0.08382252 -0.19392069
-0.0059198802 0.013948662 -0.09323371 -0.1538895 -0.009539235 0.12765273 -0.012894415 -0.088564694
-0.32506773 -0.12878652 -0.057526227 0.07698835 0.035429914 -0.13713774 -0.024571538 -0.008670374
-0.03437793 0.00078179856 -0.12482207 -0.097029306 -0.08504957 -0.16698766 0.007398024 -0.20576559
-0.2277689 -0.12652807 -0.047963835 -0.20823629 -0.19791858 -0.10666947 -0.2161674 -0.14728473
0.040506203 -0.16698386 -0.2181035 0.18573542 -0.045753844 -0.008748654 -0.050783243 -0.18250738
-0.035001043 -0.031214695 -0.19206457 -0.02076701 -0.3057553 -0.14618757 -0.07915692 -0.063926555
-0.06018905 0.19455081 0.117501624 0.1261937 0.18184075 -0.024191504 -0.05948384 -0.09427902
0.08449841 -0.093673155 -0.023462841 0.04896588 -0.0025435276 0.1610834 0.042002276 -0.0408378
0.075848244 0.012042232 -0.03624693 0.029003697 -0.09394803 0.046876725 -0.05104075 0.041924443
-0.11940403 0.0878356 -0.25279447 -0.06559448 0.14092971 -0.20031358 -0.10546089 0.083490714
0.05549357 0.018737609 0.1419783 0.004769194 -0.04015035 -0.026190715 0.2038488 -0.019726614
0.052043553 -0.049192347 0.20654882 -0.08707863 -0.13076757 -0.13188303 -0.08202056 -0.094668545
0.08230336 -0.09659383 -0.029777123 0.23289429 -0.086145096 -0.03700456 0.023564717 0.098925136
0.08714996 -0.020601768 -0.03680089 0.021545265 -0.012137491 0.04432685 -0.022613488 -0.0807218
0.1301241 -0.09493031 0.11405733 0.15120953 -0.15641335 -0.09775237 -0.07787 -0.030346401
0.14440097 -0.123017006 0.028514186 -0.0074089193 0.1405229 0.14328949 0.043900084 -0.156057
-0.07361777 -0.12598936 -0.07533318 -0.06250078 0.049151633 0.014006659 -0.09634153 -0.057147045
0.004207724 0.022879709 -0.10676352 -0.035615873 0.15303995 -0.012017764 0.16178356 -0.02473135
0.20582125 0.10308161 -0.17920427 0.088828355 -0.09591622 -0.028619763 0.1780504 -0.074703485
0.13739137 -0.17758009 -0.0055502597 -0.099283 -0.120637946 0.16795985 -0.08850339 0.08679831
-0.118694335 0.064676516 -0.16060312 -0.017755987 -0.16665435 0.087025896 0.012249712 -0.14022031
0.0772805 -0.053818315 0.018566161 0.025163587 0.024657857 -0.011147713 0.10122924 -0.12879774
-0.13069354 0.081091546 0.01605143 0.07277539 -0.06850784 -0.031558085 -0.111738324 -0.028499011
-0.0326883 -0.15975924 -0.114285834 0.02824318 -0.03339383 -0.1322143 -0.08828189 -0.084246986
-0.1580333 -0.18502755 0.0031813045 -0.18607779 -0.049432978 0.061511032 0.032736115 -0.047468606
-0.25212866 -0.13965182 -0.18852511 -0.078564405 0.11399892 -0.12270509 -0.14115445 0.004849353
-0.0075495457 0.07110694 -0.022985397 -0.040409885 -0.1399251 -0.07896494 0.028737806 -0.009043463
0.0186953 -0.14832158 -0.14880547 -0.20428093 -0.009096298 0.029496595 -0.019796306 -0.19776493
-0.069148965 -0.13422169 -0.17840001 -0.08656044 -0.1811007 -0.11013242 -0.12394373 -0.030896632
-0.051920652 0.08644243 -0.015328632 -0.020358501 -0.1934117 0.0041066315 -0.122520484 -0.10810506
