assets/snapshots/P1_robust_with_winsorize_mlp.pth (torch, 52373 bytes, 6 tensors)

net.0.weight f4 [128, 30]
000000 c5 b4 0b be 77 7f c6 bd db 21 de bd ca d4 9d 3e
       -0.13643177 -0.09692281 -0.10846301 0.30826408
000010 5b 02 50 be f1 7d 16 3e 93 92 81 3e 61 ae e5 bc
       -0.20313399 0.1469648 0.2530714 -0.028037252
000020 65 da b3 3d 9f 41 36 3e 44 ee 2e 3e ae 9d bd bd
       0.0878189 0.1779847 0.17083079 -0.09258591
000030 0d 43 2c 3d a6 8b a0 3d 84 c7 e5 bd d7 12 49 be
       0.042056132 0.07839136 -0.11219695 -0.19636093
000040 2b 25 1d bc 45 c1 70 3d d2 25 9a 3d 31 e1 31 3d
       -0.009591381 0.058778066 0.07526745 0.04342765
000050 d0 6b c4 bc 0d e7 21 be fc 7f 8c 3d 09 cf c0 bd
       -0.02397719 -0.15810795 0.068603486 -0.09414489
000060 98 dd 10 3c b7 e4 80 3e c4 d8 cf 3e f0 c4 72 bd
       0.008841895 0.25174496 0.40595067 -0.059269845
000070 bf c5 f0 bd c9 19 ae 3b 0c 3d f7 bd 8a 37 74 be
       -0.11756467 0.0053131324 -0.12072191 -0.23849311
000080 d9 41 d0 bc 6c 9a 99 be 0f 0e df 3d 46 55 fc bd
       -0.025422024 -0.30000627 0.10891353 -0.12320952
000090 46 16 7e be 4e eb c8 bd 30 8c 93 3c a4 e5 a4 bd
       -0.24813184 -0.09810506 0.018011183 -0.08051613
0000a0 c6 f6 00 be 34 27 df bc 67 24 e4 bd 8c 0c 36 3e
       -0.12594137 -0.027240373 -0.11139756 0.17778224
0000b0 49 8e 0f be 0b dc 6e 3e 69 82 28 be 22 ea d1 be
       -0.14019121 0.23326127 -0.16455998 -0.40998942
0000c0 28 12 80 be c4 a9 e6 3d 10 1a 8d ba f1 52 d3 3d
       -0.25013852 0.11262849 -0.0010765214 0.10318554
0000d0 db a6 47 bd 84 6d 27 be c7 2c c3 3d 38 e6 83 3d
       -0.04874311 -0.1635037 0.09530025 0.06440395
0000e0 be 0e 1d be 97 2f 66 3e 59 cc 60 bd bf b4 d0 bd
       -0.15337655 0.22479092 -0.05488238 -0.101907246
0000f0 71 3a 59 3c 31 5b 06 be 13 22 5d be 7e 31 3e bd
       0.013258562 -0.13120724 -0.2159503 -0.04643392
000100 87 3c 81 be 5b 5b 03 3e 81 f4 a1 3d 20 45 5c bd
       -0.2524149 0.12827818 0.079079635 -0.05377686
000110 9d 12 13 be 90 a0 78 3e f9 b9 d9 3d 38 58 2f 3e
       -0.14362569 0.2428 0.106311746 0.17123497
000120 54 04 19 3e d0 53 99 3e c2 5c 27 3e f0 88 7a be
       0.14943057 0.29946756 0.16343978 -0.244663
000130 ae 51 a2 bc ae e1 21 be 48 9d 1f 3d 46 f6 f0 bd
       -0.019814339 -0.15808746 0.038968354 -0.11765723
000140 c2 f9 ed 3d 8a 31 21 be 32 10 e3 bd d3 4c 9e 3d
       0.11619903 -0.15741554 -0.110870734 0.07729497
000150 60 15 fe bd 94 68 38 be ed ec 4a be 25 9e df bc
       -0.12406421 -0.18008643 -0.19816943 -0.027297089
000160 7c 9a 56 3d 31 58 9d 3d dc ef 8f bd 90 78 b9 bd
       0.05239342 0.07682837 -0.070281714 -0.090561986
000170 9f b7 8f bd 7b e0 80 bc f2 e6 e9 3c 14 a8 e9 bd
       -0.07017445 -0.01573204 0.028552506 -0.114090115
000180 26 05 14 3d d1 a5 bb 3c 60 0f 72 3d 18 a8 62 3d
       0.036137722 0.022906216 0.059096694 0.055336088
000190 8e 72 23 be a2 b2 ef 3c 6e a3 64 be 6a 59 48 be
       -0.15961668 0.029259983 -0.22327968 -0.19565359
0001a0 e3 9a f3 bd aa bc 48 3e 11 ae c6 bd 54 57 67 3a
       -0.11894777 0.1960322 -0.09701169 0.00088249636
0001b0 20 de 3a 3e 2a 7b 02 be ff bd 0b be 43 15 e0 3d
       0.18248796 -0.12742296 -0.13646697 0.10941555
0001c0 7a b8 57 3d 81 b9 19 be 52 09 e8 bb b3 9e 7b bd
       0.052666165 -0.1501217 -0.007081189 -0.061430644
0001d0 50 38 63 bd e8 87 b7 bd 48 7e df bd 89 69 b6 3d
       -0.055473626 -0.08961469 -0.10912758 0.08906848
0001e0 7b f1 55 3e 28 9a a9 3e 10 92 46 be e0 16 3c be
       0.20892899 0.33125424 -0.19391656 -0.18368101
0001f0 b3 e5 27 bd 98 16 fc 3c 81 e9 f5 bd 51 8d 8e be
       -0.040990543 0.030772492 -0.12007428 -0.2784219
000200 bc 35 5a 3e 26 1f 65 3e 3f f6 05 3e 35 89 2f 3d
       0.2130956 0.22375163 0.13082217 0.04285546
000210 50 1e 73 3c e4 06 77 be 40 00 92 3e ba f0 d2 3d
       0.01483877 -0.24123722 0.28515816 0.10299821
000220 cf d3 9b 3d d8 ac 08 3d 97 0e 22 3e 54 c5 24 be
       0.07608759 0.03336796 0.15825878 -0.160909
000230 00 56 05 3d 50 46 3d bd aa 67 70 bd 66 2b 2d 3d
       0.03255272 -0.046209633 -0.05869261 0.042277716
000240 2f 6c cc 3d fb 34 d5 3d f2 7d 4b be 03 03 80 3d
       0.09981572 0.10410496 -0.19872263 0.062505744
000250 9a 69 ba 3d 6a 2d 3d 3d 2c 96 7f bd 33 18 c1 3d
       0.09102173 0.04618589 -0.062399074 0.09428444
000260 31 e1 c5 bd 2c 95 a2 bd 89 64 92 bd 9f f2 c1 3d
       -0.096620925 -0.079386085 -0.07148082 0.094701044
000270 65 12 b1 bc 71 ae 28 3d 58 76 74 3d 0b 69 cd 3d
       -0.021615217 0.041181985 0.059683174 0.10029801
000280 ab 87 d1 bd af ee 20 3e da 91 04 3e 15 15 5a 3e
       -0.10230955 0.1571605 0.12946263 0.21297105
000290 6a 10 47 3d 53 7c 4a bd 92 c3 de 3d 51 28 1b 3e
       0.048599638 -0.04943497 0.10877146 0.15152098
0002a0 b8 11 d0 bd df 9b 85 bc 2a 7c c8 bd 65 0a be bd
       -0.101596296 -0.016309677 -0.097893074 -0.09279326
0002b0 e3 b0 4e bd db 4e 16 3e c2 de 85 bd 6f 4f 96 3d
       -0.05046166 0.14678518 -0.06536628 0.073393695
0002c0 1c 9a 29 3e de 2e 0f 3e 63 7f de bd 0b 05 18 bd
       0.16562694 0.13982722 -0.10864141 -0.037114184
0002d0 57 42 37 be 6d 91 68 3e 5e 11 d3 bd f2 a3 23 3e
       -0.178964 0.22711726 -0.10306047 0.15980509
0002e0 f7 b1 eb bc 1a a8 94 be c8 0a cd bd 89 37 a1 bd
       -0.028771384 -0.290345 -0.10011822 -0.078719206
0002f0 88 00 23 3d f9 8e a1 3d ad a7 24 bc 2f 44 5b 3d
       0.03979543 0.07888598 -0.010049743 0.05353182
000300 55 4d 72 bc 84 01 5f be 3f cb 80 3e 7f 62 ba 3c
       -0.014788945 -0.21777922 0.25155064 0.022752045
000310 35 05 45 3e 8b c0 0e be 55 5b 01 3e 98 d5 91 bd
       0.19240268 -0.13940637 0.12632497 -0.07120818
000320 02 72 a1 bd 81 ed 07 3e 9d 8c 7a bd 52 33 db 3d
       -0.078830734 0.13274194 -0.061169256 0.10703148
000330 ac 03 c1 bd 82 c7 99 3e 45 19 d1 3c 4f 5c 85 bc
       -0.094245285 0.30035025 0.025524745 -0.016279368
000340 a3 6b 04 be 32 98 c4 3d 21 83 e5 3d 32 4d da bd
       -0.12931685 0.095993415 0.112066515 -0.10659255
000350 e9 2e 87 3d 47 fd b0 3c fa 6f ad bd 13 c7 69 3e
       0.06600744 0.021605147 -0.084686235 0.22829847
000360 76 1a 7a 3d 29 7e 19 3e 80 3b 82 3d 8b 89 1d be
       0.06106039 0.14989533 0.06359005 -0.153845
000370 ed 1c cc 3d 75 6d 54 be 29 03 a8 bc 9a 61 fa 3d
       0.09966455 -0.2074488 -0.02050932 0.12225647
000380 a6 cd 5e 3d 8e bf 22 3e cf 82 18 3e c0 48 4e bd
       0.05439534 0.15893385 0.1489365 -0.05036235
000390 be 08 92 3d 40 be f5 3d da aa 20 bd b3 1a f9 3d
       0.07130574 0.11999178 -0.039225437 0.121632956
0003a0 c5 26 e5 3d 09 59 2e be fd 47 00 bc d8 34 03 be
       0.11189035 -0.17026152 -0.007829663 -0.12813127
0003b0 8c 87 f4 3d d3 02 77 3c fe 12 97 3d 36 79 c2 3c
       0.11939916 0.015076357 0.07376669 0.023739439
0003c0 01 41 93 bb 85 53 2f bd 2d 2b 6a 3d 23 7b 78 bd
       -0.004493833 -0.04280426 0.057170082 -0.060664307
0003d0 b1 61 21 3e cb 0f 9a bd 89 48 86 3d ce 0d fe bd
       0.15759923 -0.075225435 0.06556804 -0.12404977
0003e0 ff 4e b1 b9 c4 1e 86 bc d0 83 d1 3d d6 43 2a 3e
       -0.00033818927 -0.016372092 0.10230219 0.1662744
0003f0 f6 38 66 be ce 49 09 bd 66 3e a3 bc 58 fb ee 3d
       -0.22482666 -0.03351765 -0.019927215 0.11669034

net.0.bias f4 [128]
000000 8d 03 35 bc 42 4a 59 be 1e 45 45 be 85 45 aa 3d
       -0.01104821 -0.21219733 -0.19264647 0.08314041
000010 16 16 22 3d c1 c0 1c 3e 05 41 a7 bd 90 a0 5a be
       0.039571844 0.15307905 -0.08166698 -0.21350312
000020 17 91 c1 bd 98 82 16 3e b4 e8 53 be 50 33 02 3e
       -0.09451502 0.14698255 -0.20694238 0.12714887
000030 94 f5 2e be 67 0d 05 3e 9a 75 35 be 85 93 d0 bb
       -0.17085868 0.12993394 -0.17720643 -0.006365242
000040 38 59 a4 be fc 7f d9 3d 47 6d 63 be b4 ed 14 be
       -0.32099319 0.10620114 -0.22209655 -0.14543802
000050 da 0e 29 be 8d a3 b8 3d 02 ab ce bd 2e 9d 5d bd
       -0.16509572 0.0901557 -0.10091211 -0.054104976
000060 e1 01 09 bc bd e5 28 be 6d 9c 05 3e 62 98 46 bd
       -0.008362264 -0.16493888 0.13047953 -0.048485167
000070 b2 dc 95 3d 07 34 51 3e ce a4 2f 3e ca ab 1a 3e
       0.07317485 0.20430003 0.17152712 0.15104595
000080 1f 0e ae 3c d6 d6 a0 3d 8b 3b 6a bc 1c 3a 79 3d
       0.021246968 0.07853477 -0.014296423 0.060846433
000090 30 d6 83 3b 53 79 84 39 dd 08 5d be c9 6a 30 be
       0.004023336 0.00025267396 -0.21585412 -0.17228235
0000a0 05 91 74 3d 39 e2 dc bd 1c 42 e2 3c a6 ea 2d 3e
       0.059708614 -0.10785336 0.027619414 0.16984043
0000b0 e5 a9 27 3e 18 d1 5d bd 5c 99 f5 bc 98 6f de bd
       0.16373403 -0.054154485 -0.029980354 -0.108611286
0000c0 3a 4d 8b be 02 3f 51 be a0 af c7 bd 02 aa 45 be
       -0.27207357 -0.20434192 -0.09750295 -0.19303134
0000d0 71 ef 72 3e dd 8b e6 3d 86 0e 10 3d 8c 0f 1e 3e
       0.23724152 0.112571456 0.0351701 0.15435618
0000e0 65 a4 20 be e6 4f af be a3 c5 43 3d 1e 49 ff 3d
       -0.15687712 -0.34240645 0.047795903 0.12465118
0000f0 d3 40 95 3d 51 8a 8e bd ca 72 4a be 3e b7 44 3e
       0.07287755 -0.069599755 -0.19770351 0.19210526
000100 d9 34 8c 3d d9 22 ed bd 0c 36 c8 3d 26 55 37 be
       0.068460174 -0.11578912 0.097759336 -0.17903575
000110 b0 27 ee bd 95 70 c1 3c 13 75 1e 3e 64 a5 47 be
       -0.116286635 0.023613254 0.15474348 -0.19496685
000120 57 34 fa bc e4 2e 6c 3e c8 7b 9a bd 13 bf 19 bc
       -0.030542536 0.23064762 -0.07543141 -0.009383935
000130 28 ea 67 bd ff 75 02 be 96 8d 15 3e d8 c7 26 be
       -0.056619793 -0.12740324 0.14604792 -0.16287172
000140 27 cd 9b be b9 0b 32 be cc 19 3d 3d 61 44 dd 3d
       -0.30429956 -0.17387284 0.04616718 0.10804058
000150 09 d5 8e 3c 40 87 8a be 22 14 99 bd 35 b2 00 3e
       0.017435567 -0.27056313 -0.07474543 0.1256798
000160 74 a0 01 3d e5 78 04 3e ba 51 f3 bd e4 ce bb bd
       0.03164716 0.12936743 -0.118808225 -0.09170321
000170 3c d6 20 3e 9d 4d 10 3e 29 c7 2a 3e 37 8a 04 3e
       0.15706724 0.14092107 0.16677536 0.1294335
000180 8b a4 89 be 45 f8 04 3e bb f1 c8 bd e0 a9 b4 bd
       -0.2688335 0.12985332 -0.098117314 -0.088214636
000190 c1 58 8b bd d7 46 13 bd 09 20 e5 bd f7 ad 26 be
       -0.06804038 -0.03595623 -0.11187751 -0.162773
0001a0 66 8c 39 be 48 4a fc bd 42 d4 4f bd d7 fa 12 bd
       -0.18119964 -0.123188555 -0.050739534 -0.03588375
0001b0 75 56 73 be a0 b4 00 3e 47 eb 93 bc 90 89 ef 3d
       -0.2376345 0.12568903 -0.018056525 0.1169616
0001c0 f0 4a 40 3e 76 b2 19 3c 21 59 74 bd fb 28 ac 3b
       0.18778586 0.009380927 -0.059655312 0.0052539087
0001d0 98 87 60 be f6 49 8b ba d2 0b 2f 3e d9 35 df 3d
       -0.21926725 -0.00106269 0.17094353 0.108989425
0001e0 43 33 b8 bd e1 d1 85 bd e5 59 9d bd d9 1b 96 3d
       -0.089941524 -0.06534172 -0.07683162 0.0732953
0001f0 5b 7e 1b 3e a3 4c 9b be b9 61 39 bd d3 e6 9a 3d
       0.1518492 -0.30331907 -0.04525921 0.075635575

net.3.weight f4 [64, 128]
000000 43 b2 b0 3c eb 05 07 bd 7a ea 60 3e 67 80 78 bd
       0.021569377 -0.03296463 0.21964446 -0.06066933
000010 60 2b 9e 3d 1b 74 ba 3b 09 0b 9b 3d fb 61 71 3d
       0.07723117 0.0056901104 0.07570464 0.058931332
000020 1f 8d 90 3c 78 28 5d bd 9c 83 57 bb cf bd b8 3d
       0.017645417 -0.053993672 -0.0032884842 0.09020578
000030 5a 8d 61 3e f3 3e 4b 3e 80 a3 f7 bd 70 fa 4c 3b
       0.22026578 0.19848232 -0.12091732 0.0031277202
000040 76 1e 4e bd 80 d8 76 3e 87 2a 30 be 60 1c b7 bc
       -0.05032202 0.24106026 -0.17203723 -0.022352397
000050 d4 3a 9c 3d 4f 3f 42 3d 56 38 20 3d 84 d2 90 3e
       0.07628408 0.047423657 0.039116226 0.2828561
000060 77 8b 89 3d 43 10 99 bd 08 43 8c 3e 1d 29 17 3e
       0.06716054 -0.07473805 0.2739489 0.14761777
000070 0b b1 61 3d ff 53 7b 3e a9 15 d7 3e 6f b8 0b 3e
       0.055100482 0.2454376 0.42008713 0.13644575
000080 27 c7 2a 3e 97 38 f8 bd b8 0c 24 3d d1 5f 52 3d
       0.16677533 -0.12120169 0.040051192 0.05136091
000090 fd 5f ae 3d 4f a5 6a bd 42 ca 3f 3e 60 41 b4 bd
       0.08514402 -0.057286557 0.18729499 -0.08801532
0000a0 91 34 d8 bc 46 07 7d bc b1 12 91 3e f3 59 8f 3e
       -0.026392253 -0.015443629 0.28334573 0.27998313
0000b0 d3 b6 b1 3d 41 c8 e9 3c ee cf 0e be cc f7 35 3d
       0.08677449 0.028537871 -0.13946506 0.04442577
0000c0 30 7b c3 3b 46 4d 95 3d d1 e9 e9 3d bb cf 8e 3d
       0.005965613 0.07290129 0.1142155 0.06973215
0000d0 bc 83 00 3c 63 ec 10 3e 5d 08 b3 bb 69 32 95 bd
       0.007843908 0.14152674 -0.0054636435 -0.072850056
0000e0 3a 98 c9 3d 36 61 12 3e ed 28 4d 3d 58 0b 3d 3c
       0.09843488 0.14294896 0.050087858 0.011538349
0000f0 34 b1 c5 3d 2e d0 65 3d 53 d9 28 be 84 63 ae 3e
       0.096529394 0.05610674 -0.16489153 0.340603
000100 a9 39 83 3a be fb 9a bc 06 5b c4 3c e2 17 27 bd
       0.0010011691 -0.018918868 0.023969185 -0.04079426
000110 40 30 e9 3d a5 0c e5 bd 52 12 96 3e cc 75 d1 bd
       0.11386156 -0.111840524 0.29310852 -0.10227546
000120 95 4c ce bc a2 ed 56 bd 30 b6 c9 bd f6 29 0b 3f
       -0.025183002 -0.052472718 -0.09849203 0.543609
000130 2e 36 33 3d 47 a3 9f 3e a0 64 f5 3d 47 90 55 3e
       0.04375284 0.31179258 0.11982083 0.20855819
000140 a1 1a 5d 3e b8 45 e7 3c a6 70 4f 3c f1 86 ae bd
       0.2159219 0.028231487 0.012661135 -0.08521832
000150 f2 c0 5a 3e a0 b8 3b 3e 91 b0 90 3e 88 70 65 3d
       0.21362665 0.18332148 0.2825971 0.05601552
000160 22 59 3a 3e a4 38 7e bd b0 68 18 3e 62 d2 98 3c
       0.18198064 -0.062065735 0.14883685 0.018655006
000170 86 ac 2c 3d 7a e3 80 3d 89 8e 83 3e 35 40 a1 bc
       0.04215672 0.06293388 0.25694683 -0.019683937
000180 00 2c 8a bb bb fe 84 3d 9b 7c c0 3c a6 85 42 3d
       -0.004216671 0.064938985 0.023496917 0.04749074
000190 65 32 8a 3e 4a cb 43 bd ee 51 ef bd bc 60 18 3e
       0.26991573 -0.047801293 -0.11685549 0.14880651
0001a0 20 4f 6f 3e a1 e6 2c 3e 1b fb 22 bd 12 6d 32 bd
       0.23370028 0.16884853 -0.039790254 -0.04356105
0001b0 b8 17 97 3d a4 89 21 3e fc 1b 9b 3c ce fd f6 3d
       0.07377571 0.15775162 0.018934242 0.12060128
0001c0 94 3c 86 bd e3 74 1c be 55 4b 65 3c d2 83 f1 bd
       -0.06554523 -0.15278964 0.013995011 -0.11792721
0001d0 ba 19 37 3e 4c a7 f7 3d d4 76 76 3d ae f6 87 3d
       0.17880908 0.12092456 0.060171917 0.06638847
0001e0 8d 86 08 3c f0 06 e4 3d ec 41 80 3d 09 7f 47 3e
       0.008332861 0.11134136 0.062625736 0.19482054
0001f0 cf 77 5d bc a5 0a 98 bd 1b 4f e4 bb 0c 0e c5 3d
       -0.013517334 -0.07423905 -0.006967438 0.0962182
000200 0f bf 40 bd a1 44 37 be ae a6 e4 3d 72 da 87 bd
       -0.047057208 -0.17897274 0.11164604 -0.06633462
000210 7f 5f 07 3d 13 07 68 bd f3 03 49 3d 60 54 4a 3d
       0.033050057 -0.05664737 0.049076032 0.049396873
000220 04 8c 98 3c d1 13 84 3d c2 b8 c5 bd a4 87 d2 bc
       0.018621452 0.06449092 -0.096543804 -0.025699444
000230 52 53 21 3e c8 c1 cb 3d 27 86 aa bd 4f 3e 44 bd
       0.1575444 0.0994907 -0.08326369 -0.047910985
000240 81 00 4c bd 9a f2 d8 3d 69 9a ce bd dc 51 58 bd
       -0.049805168 0.105931476 -0.10088045 -0.052812442
000250 fb ac 39 bd a1 ad 26 3e ca 2e 97 bd b6 48 b8 3d
       -0.045330983 0.16277172 -0.07381971 0.089982435
000260 fa 43 87 3d 40 7c 6a bd b2 bb ce 3c b9 b8 e0 3c
       0.066047624 -0.0572474 0.025235984 0.027431833
000270 a7 7d d4 3d 54 a4 f9 3b b5 d9 40 3e 0d 00 b2 3d
       0.10375529 0.0076184664 0.18833049 0.08691416
000280 c3 01 68 3e ad df 2d bd ea 22 e5 3c 34 7e cc bc
       0.22656922 -0.042449642 0.02797075 -0.024962522
000290 9d 0e 4f bd 23 88 11 bd 0e 8c 5e bc 72 00 c7 bd
       -0.050551046 -0.03553022 -0.013583196 -0.09716882
0002a0 02 18 c4 bd c9 be c9 bd a6 07 28 3e 90 0c ec 3d
       -0.095748916 -0.098508425 0.16409168 0.115258336
0002b0 02 19 83 3d 11 0a a4 3d e0 7e 16 be fd a1 8c bd
       0.06401254 0.080097325 -0.14696836 -0.06866834
0002c0 26 f2 bd bd 32 fb ef bc d9 2a fc 3d 50 ff fc 3d
       -0.09274702 -0.029294584 0.1231286 0.123533845
0002d0 24 15 bf 3d 0f f7 c7 3c e8 b2 e6 bd 2e 53 02 bd
       0.09330204 0.024409799 -0.112645924 -0.031817608
0002e0 bc 9f 86 3c 78 98 7d 3d ca 5a ee 3d de 7f a3 bd
       0.01643359 0.061912984 0.116384104 -0.07983373
0002f0 f2 59 f7 bc 4a 32 f6 bc e0 98 0f 3c 3f df 29 3e
       -0.030194256 -0.030053277 0.008764476 0.16589068
000300 11 13 ca bb ef 49 1e 3c a8 67 6d bc 2e e9 9a 3d
       -0.0061668237 0.009661182 -0.014490046 0.07564007
000310 c6 82 66 3e e6 de cd bd 37 28 87 3e fa d3 e2 bd
       0.22510824 -0.1005228 0.2639787 -0.110755876
000320 02 a8 67 bd da d3 17 3e c9 fc d9 bd 20 1b 6f 3e
       -0.05655671 0.14826909 -0.10643918 0.23350191
000330 3c 33 f8 3d 72 84 60 3e d3 5c 2a 3d bc 87 8e 3d
       0.12119147 0.21925524 0.04159243 0.06959483
000340 a4 16 96 bd 38 66 c3 bc a4 0e ee 3d 4d c7 d6 bd
       -0.07328537 -0.023852453 0.11623886 -0.10487232
000350 87 0b 9c 3c 19 75 f5 3d 96 81 2a bd 5b 03 0c 3e
       0.019048465 0.11985225 -0.04162749 0.13673155
000360 d7 ed 06 bc 59 dd c3 ba 72 ce d3 3d 27 1c 60 3d
       -0.008235416 -0.0014943286 0.10342111 0.05471435
000370 23 3b a7 3d ca f7 30 bc 4d 9d ce 3b 5b 56 0c 3d
       0.08165576 -0.010801265 0.006305373 0.034262042
000380 0f f6 d9 bc 79 12 cd 3d f7 e2 fe bd 72 19 40 3e
       -0.026606588 0.10013289 -0.12445634 0.18759707
000390 63 45 25 3d fc 75 13 bd 8d b4 4a bd a2 14 b5 bd
       0.040349375 -0.03600119 -0.049488593 -0.08841826
0003a0 56 53 7e 3d 74 9e 89 3d 10 7a fe 3d 24 a7 89 bc
       0.062091194 0.06719676 0.12425625 -0.016803332
0003b0 f4 96 85 bc c2 29 02 3e d5 f1 77 bc 3b df 7e 3d
       -0.016307332 0.12711242 -0.015133341 0.062224608
0003c0 0e cd 45 3d 98 5c cc 3c 16 c9 92 bd c0 5f ce bc
       0.04829126 0.024946496 -0.0716726 -0.025192142
0003d0 9d 66 01 be 0a db c2 3d 26 b7 fa 3d 1e 65 a8 3c
       -0.126368 0.09514435 0.12241964 0.020556029
0003e0 0a 10 56 bc 2e b8 0b be 9e aa 09 bd a4 f7 35 3e
       -0.013065347 -0.13644478 -0.03360998 0.17770249
0003f0 4c f7 29 3e 61 b9 fb bd 65 80 d5 3d 65 66 21 3c
       0.16598243 -0.122912176 0.1042488 0.009851073

net.3.bias f4 [64]
000000 a4 fc 56 be e2 24 c3 3d 76 08 c7 bc 4e ca 20 3e
       -0.20994812 0.09528519 -0.024296027 0.15702173
000010 23 ea 75 3d 38 ec 9a 3c ae 48 85 3d 55 c7 b3 bd
       0.060037743 0.018911466 0.06508003 -0.08778254
000020 21 37 17 3d 0a f1 9e 3b 5d 62 90 3d f3 51 98 bd
       0.03691781 0.0048505114 0.07050011 -0.074375056
000030 be c2 25 bd 26 36 05 bd 24 f5 24 3e 29 d2 21 bd
       -0.040468924 -0.032522343 0.16109139 -0.039507065
000040 19 c4 0e 3c 02 f7 5b 3d bc ea a6 bc db 53 99 3d
       0.0087137455 0.053702362 -0.020375602 0.07486697
000050 ff 8c 8c bc cd 3a 41 bd e8 91 1e 3b c8 d7 a7 3d
       -0.017157076 -0.047175217 0.0024195854 0.08195454
000060 78 02 bf 3d a7 4c 4a bd 66 4d 2c bd bb a5 9e bd
       0.09326643 -0.049389508 -0.042066 -0.07746454
000070 1f b0 f7 bd c2 e9 bc 3d 07 2b 36 3d 53 49 46 bc
       -0.12094139 0.09224273 0.044474628 -0.012102443
000080 64 82 3d 3d 6b dc ed bb bb c9 81 3c e0 6e 89 3d
       0.04626693 -0.007258942 0.015843263 0.06710601
000090 1e a6 07 3d 89 36 4c bd b6 a0 9f bd d4 15 a9 3d
       0.033117406 -0.049856696 -0.07794325 0.082561165
0000a0 c7 65 dc 3b 86 e6 70 3d c2 ed 0b 3e 0f 95 f2 3d
       0.006726 0.058813594 0.13664916 0.11844837
0000b0 af 87 95 bc b8 6c f3 3b a3 1f 00 3e 40 24 6d ba
       -0.018253176 0.007428732 0.12512068 -0.0009046234
0000c0 13 3f 80 3c a1 04 d3 3c 4f eb 13 3d 6b e7 e8 3d
       0.015655076 0.025759043 0.03611308 0.113722645
0000d0 dd 18 93 3c 68 5a cd 3d 8f 7f 9a 3c 79 b1 41 bd
       0.017956192 0.10027009 0.018859653 -0.04728839
0000e0 10 cf 92 3d d6 52 de 3d 19 5a 52 bd f8 e4 d6 3d
       0.071684 0.108556435 -0.051355455 0.10492891
0000f0 ed a9 8d bd 25 f5 d7 3b 3c 99 35 bd 23 8e c6 bc
       -0.069171764 0.006590503 -0.04433559 -0.024237698

net.6.weight f4 [2, 64]
000000 9a 09 90 bc 72 cc 59 3e b9 46 a8 bd 08 ac 43 be
       -0.017582703 0.21269396 -0.08216614 -0.19108593
000010 7d ed 99 3d db b3 64 be 46 81 c7 bd 45 f2 a8 3c
       0.075160004 -0.22334234 -0.09741454 0.020623336
000020 11 e8 f9 bd 5b 95 5f 3e 13 3c 8e be 1b 32 84 bc
       -0.12202466 0.21834318 -0.27780208 -0.016137173
000030 12 09 c3 3d a3 d4 15 3e 6f 38 33 be 58 f2 36 be
       0.095232144 0.14631896 -0.17501996 -0.17865884
000040 94 1e 1f be 2f c7 cb 3b 30 13 e0 bd 3c 6b c9 3d
       -0.15539008 0.006218813 -0.1094116 0.098349065
000050 0a 98 40 3c 55 2f 90 bd 65 cb d6 3d 0e b4 aa 3d
       0.011754999 -0.07040278 0.10488013 0.08335124
000060 e2 04 f5 bd 17 ff 85 bd 7b ad 9d bd 1f 5a 84 3d
       -0.11963822 -0.06542795 -0.076991044 0.06462502
000070 9d 87 08 3a 5a 92 14 be 4e 84 44 be ce 14 15 be
       0.0005208196 -0.14508954 -0.19191095 -0.14558718
000080 06 11 19 3e 6d 51 5d 3e 52 e6 0f bc ca 04 ff 3c
       0.149479 0.21613093 -0.00878294 0.031130213
000090 d8 08 b2 3d 04 6a 01 3e 32 a2 3a be 3f ab 9d 3d
       0.08693093 0.12638098 -0.18225935 0.07698678
0000a0 4c 14 a3 3e 81 3e 74 be 8c 4b 24 be 16 7e 44 3c
       0.31851423 -0.23851968 -0.16044444 0.011992952
0000b0 b7 b8 69 3e d0 47 bf bd c7 42 39 3e 1d 16 fe 3d
       0.2282437 -0.09339869 0.1809188 0.124065615
0000c0 d1 13 8a bd 45 21 56 3e 36 93 ff bd 2f d6 13 be
       -0.06742061 0.20911129 -0.1247925 -0.14437173
0000d0 63 77 79 3d fe 4d 3e 3e 32 e6 33 3e bf a0 32 bd
       0.06090487 0.18584439 0.17568281 -0.04361033
0000e0 69 9a a8 3c bf d2 49 3d 48 53 50 3e 3a 00 70 be
       0.020581441 0.04927325 0.2034427 -0.23437586
0000f0 c0 f0 8e bd 5a 70 6a 3e 4a fd 6f bd 28 f5 3c 3e
       -0.06979513 0.22894421 -0.058591165 0.18452895
000100 0b d3 83 bd 58 2c 38 be 86 be 5f bd bb f6 31 3e
       -0.064367376 -0.17985666 -0.054625057 0.17379276
000110 7e 25 46 be e9 32 b0 3d fe 5c e1 3d 15 62 79 3d
       -0.1935024 0.0860346 0.11004065 0.060884554
000120 0b 53 b9 bd 7c 72 7c be 00 7a a1 3d 9a 83 0d be
       -0.09049042 -0.24653047 0.07884598 -0.13819733
000130 64 99 92 bd c2 bb fa bd 97 22 59 3e 35 68 25 3e
       -0.07158163 -0.12242843 0.21204601 0.16153033
000140 b8 60 c3 3b bb 63 5b 3c 30 4c 63 3e c7 95 58 be
       0.0059624575 0.013390477 0.22197032 -0.21150886
000150 c7 be d5 bd e1 b3 bd 3d 15 7a 2f be 4a 37 b8 bd
       -0.104367785 0.09262825 -0.17136414 -0.089949206
000160 62 78 3b 3e e7 75 07 3c dd 4b 51 bd 15 5a 1d bd
       0.18307641 0.008267856 -0.05109774 -0.038415987
000170 c2 61 a9 bd 66 b7 e3 3d cd c2 8d 3e d8 60 87 3b
       -0.08270599 0.11118965 0.27687684 0.0041314177
000180 62 75 7f be 0e 1c 24 be 7c 27 97 bd d7 13 3c be
       -0.24947122 -0.16026327 -0.07380578 -0.18366943
000190 ad 45 35 be fc 87 09 be fa c8 09 3e 31 84 ea bd
       -0.1770236 -0.1343078 0.13455573 -0.11450995
0001a0 79 aa 80 be 34 87 9d 3d 96 b5 2e 3e 29 89 1c be
       -0.2513006 0.076918036 0.17061457 -0.15286697
0001b0 1f e0 5d be 1d 52 58 bd 85 0d 2e bd 30 a0 9f bd
       -0.21667527 -0.052812684 -0.042493362 -0.07794225
0001c0 63 c7 fb 3d 65 38 27 be c8 3d 05 3e 6a 30 68 3e
       0.122938894 -0.16330107 0.13011849 0.22674718
0001d0 fd 35 06 be 84 74 06 be ec 29 4f be 2b b5 e6 3c
       -0.13106532 -0.13130385 -0.20230836 0.02816256
0001e0 a2 94 77 bd 39 56 12 be a3 4c 91 bd 89 e3 d0 3d
       -0.06044448 -0.14290704 -0.070946954 0.10199649
0001f0 19 3e 41 3d 4a 58 96 bd 09 fc bc 3d 7c 75 44 be
       0.04717836 -0.073410586 0.092277594 -0.19185442

net.6.bias f4 [2]
000000 25 69 cd bd 28 b6 96 bd
       -0.1002982 -0.07358962
