assets/snapshots/P1_robust_with_winsorize_transformer.pth (torch, 297667 bytes, 32 tensors)

input_proj.weight f4 [64, 1]
0.40091985 -0.32171398 0.057960752 0.17029339 -0.68389446 -0.6401778 0.51383317 0.77990097
-0.14456084 0.40861934 0.3262121 0.51548004 0.517778 -0.37594017 0.47436786 -0.6519606
-0.4614941 -0.6358666 0.647498 0.5849189 0.21939003 -0.78831136 -0.22643195 -0.32977733
-0.15597482 0.80136216 -0.9953358 -0.48513967 0.14738914 -0.18188618 -0.7268548 -0.27375916
-0.6008299 0.8781343 -0.12654522 0.14219068 0.41877395 -0.93844795 0.22177164 -0.28458023
-0.9635693 1.0021865 -0.24660519 0.5068761 -0.5417423 0.08695074 -0.89002323 0.89768136
-0.68119913 -0.8908891 -0.31482294 0.2894616 -0.11269327 0.002280477 -0.88081896 0.2263475
0.6778943 0.4698294 0.8431463 0.2522245 0.66652983 -0.9495272 0.71448535 -0.25243884
00000000: 5e45 cd3e b2b7 a4be 4168 6d3d 6461 2e3e
00000010: b513 2fbf b1e2 23bf 928a 033f 97a7 473f
00000020: c207 14be 8e36 d13e 4605 a73e 80f6 033f
00000030: 198d 043f 3b7b c0be 58e0 f23e e4e6 26bf
00000040: f448 ecbe 27c8 22bf 6ec2 253f 3fbd 153f
00000050: c8a7 603e c6ce 49bf c7dd 67be 93d8 a8be
00000060: ddb7 1fbe 1226 4d3f 54ce 7ebf 3a64 f8be
00000070: 2eed 163e 5f40 3abe 2813 3abf 292a 8cbe
00000080: fdcf 19bf 69cd 603f 1295 01be 6f9a 113e
00000090: 8a69 d63e 203e 70bf 1b18 633e 80b4 91be
000000a0: 7aac 76bf a647 803f 1286 7cbe a2c2 013f
000000b0: a0af 0abf 3b13 b23d 90d8 63bf 72ce 653f
000000c0: 1163 2ebf 4f11 64bf 7930 a1be 5034 943e
000000d0: bbcb e6bd 0e74 153b 5a7d 61bf a4c7 673e
000000e0: 7b8a 2d3f 7b8d f03e 70d8 573f 9223 813e
000000f0: b3a1 2a3f 3714 73bf 83e8 363f aa3f 81be

input_proj.bias f4 [64]
0.17882803 -0.121902674 0.8530954 -0.3858553 0.5517758 -0.20512882 -0.5028132 -0.495298
0.46958193 0.83369106 0.6192029 -0.24264087 0.60887957 0.1197256 0.077641055 -0.79901224
0.09526603 0.041504886 -0.40281639 0.7812616 0.22123611 0.04916389 -0.4160044 0.38325217
-0.8745319 -0.8039149 -0.95507413 -0.9928408 0.886225 -0.0816428 -0.07895127 0.76420003
-0.092385 -0.20459594 -0.22060621 -0.010922104 0.58297664 0.5300956 0.90545356 0.9549678
-0.6469626 0.6961892 0.47111842 0.9012967 -0.6485945 -0.17918664 -0.32848895 0.843831
-0.98325926 0.0608602 0.6914905 -0.016682554 0.70171523 0.8542104 -0.16363508 0.4664238
0.53839165 0.24843201 0.91437596 -0.5801779 -0.027349984 -0.14217748 0.17532875 0.19813345
00000000: b21e 373e 1ca8 f9bd 7664 5a3f d38e c5be
00000010: 2e41 0d3f 4a0d 52be 5eb8 00bf b397 fdbe
00000020: 0b6d f03e c76c 553f 1584 1e3f d976 78be
00000030: 88df 1b3f b232 f53d 4602 9f3d 118c 4cbf
00000040: d61a c33d 0701 2a3d f33d cebe c300 483f
00000050: b88b 623e 1360 493d 87fe d4be a139 c43e
00000060: 53e1 5fbf 5ecd 4dbf bd7f 74bf d12a 7ebf
00000070: a4df 623f 5734 a7bd 34b1 a1bd 9da2 433f
00000080: 5934 bdbd 9981 51be 98e6 61be a0f2 32bc
00000090: f53d 153f 58b4 073f cecb 673f c578 743f
000000a0: 579f 25bf 7539 323f 6f36 f13e 61bb 663f
000000b0: 4a0a 26bf b47c 37be b42f a8be 4f05 583f
000000c0: e1b6 7bbf 8c48 793d 8505 313f daa9 88bc
000000d0: 9ca3 333f 88ad 5a3f f48f 27be 1acf ee3e
000000e0: 09d4 093f f664 7e3e 8b14 6a3f 8a86 14bf
000000f0: 130d e0bc f996 11be 6189 333e 7fe3 4a3e

encoder.layers.0.self_attn.in_proj_weight f4 [192, 64]
0.056738958 -0.2053915 0.13559555 -0.19070053 0.15295717 -0.104520336 -0.023194917 -0.16217059
0.1404234 0.020037133 -0.0016211827 -0.16056262 0.049210653 -0.0950386 0.08256532 -0.123844884
-0.14826411 0.022392137 0.055384595 0.10977374 -0.0775263 0.02918249 -0.04082322 0.022657413
-0.06309112 -0.14806631 0.0707671 -0.182839 -0.016189627 -0.08783547 -0.05701331 -0.010026734
-0.011387826 -0.15892255 0.08631253 -0.04684226 0.1522509 -0.020330472 0.03565828 0.18600376
-0.0009277244 0.12699442 0.076703675 -0.09992328 -0.04179628 -0.14971958 -0.104329154 0.0027637582
0.077269495 0.07756812 0.01472267 -0.00046822478 0.04344791 0.0826932 0.073184855 0.15801615
0.14805004 0.11630216 0.1841373 -0.10712075 -0.068409696 0.029460995 0.110421345 0.09052178
0.111213855 0.083976224 0.072329484 -0.033885323 0.042283766 -0.011552399 0.09220091 0.0044194907
0.034465402 0.08931628 0.0020852855 -0.1022818 -0.08619492 0.05582814 0.022100106 0.17907901
0.15515502 0.089001656 -0.07480536 0.08009787 -0.026958374 0.08606826 -0.036872655 -0.06323178
0.11000244 0.08655651 -0.053898398 0.0234722 -0.12505804 0.17659004 0.124900654 -0.09673005
0.053012826 0.119983055 0.15886815 -0.11389311 0.08181433 0.07598694 -0.12593521 0.09821579
-0.08494632 -0.15099245 0.011920477 -0.06745956 0.16875833 -0.09420562 0.009009436 -0.08887384
0.14084005 0.004116479 -0.032122135 -0.111847535 -0.14236951 0.05036014 0.016641447 0.028639019
-0.19772941 -0.08204723 0.055701602 0.15791969 -0.117440276 -0.087364815 -0.07134623 -0.07825401
0.10810856 -0.114820875 0.04715748 -0.13608968 0.06086739 0.102183215 -0.019474264 -0.12644376
0.09512997 -0.08455422 -0.061297458 0.033014014 -0.15826966 0.007490003 -0.0031656674 0.1310149
-0.1326523 0.040127523 -0.038611144 -0.0059217555 0.036860324 -0.075055934 0.012494781 -0.037777927
-0.05339397 0.121867545 -0.111777864 -0.08390463 -0.14257754 -0.020398688 -0.10201063 0.10386371
-0.08720405 -0.12562595 0.10026062 0.105001524 0.07811103 -0.12792519 -0.039499067 0.11080638
-0.05347701 0.08800579 -0.001622526 -0.15722711 -0.13031308 0.059583127 -0.022092808 -0.06992006
-0.1422071 -0.13254055 -0.069150195 -0.045678988 -0.01812211 -0.13017847 -0.033449095 0.046064965
-0.00041454646 -0.023108246 0.08161637 -0.040556848 0.026793672 0.11537152 -0.07224224 -0.12339941
0.10892103 0.012570379 0.04054559 -0.14826648 -0.14220767 -0.09942708 0.007014016 0.046075758
-0.022299947 -0.0092604635 0.14402056 0.11979528 0.04985199 0.09070854 -0.12291429 -0.13398284
0.06637067 0.07203575 -0.09871608 0.032642636 -0.06766496 -0.12703532 -0.10617471 -0.029860571
-0.006461168 -0.018098028 0.04910634 -0.03702803 -0.030443009 -0.0854184 0.07579291 -0.04638725
0.10940088 0.027986031 -0.020439096 0.005796859 0.057122204 0.0015353364 -0.09833105 0.10779912
-0.10735146 0.14031175 0.12840764 -0.06035501 -0.12117816 -0.029581198 -0.12011534 -0.13894518
-0.14918754 0.030740252 0.11661081 0.061320998 -0.06695694 -0.12953082 0.021328494 0.090742074
0.076099105 0.0883663 -0.0107738245 -0.0068129757 0.05438731 0.03428297 -0.058734447 -0.14276117
00000000: 1c67 683d 2652 52be 8fd9 0a3e 0047 43be
00000010: cea0 1c3e c20e d6bd 4403 bebc 0c10 26be
00000020: 27cb 0f3e ea24 a43c dd7d d4ba 876a 24be
00000030: 1c91 493d 99a3 c2bd 0218 a93d 63a2 fdbd
00000040: 8cd2 17be b76f b73c f5da 623d 0ed1 e03d
00000050: 1cc6 9ebd 1e10 ef3c 4036 27bd 0a9c b93c
00000060: eb35 81bd b29e 17be 57ee 903d 263a 3bbe
00000070: 1ca0 84bc 15e3 b3bd ca86 69bd 2c47 24bc
00000080: 0194 3abc 98bc 22be a0c4 b03d abdd 3fbd
00000090: a9e7 1b3e 178c a6bc 6b0e 123d c577 3e3e
000000a0: 8832 73ba d30a 023e d116 9d3d 94a4 ccbd
000000b0: 9332 2bbd 1750 19be 86aa d5bd 2b20 353b
000000c0: 783f 9e3d 09dc 9e3d 5b37 713c 117c f5b9
000000d0: 70f6 313d 0d5b a93d f1e1 953d fcce 213e
000000e0: 6e9a 173e d42f ee3d 7d8e 3c3e 2062 dbbd
000000f0: 621a 8cbd 2f58 f13c 9624 e23d 7c63 b93d
00000100: 17c4 e33d bafb ab3d 7b21 943d 56cb 0abd
00000110: be31 2d3d 4646 3dbc d5d3 bc3d 60d1 903b
00000120: 982b 0d3d 74eb b63d 49a9 083b 1f79 d1bd
00000130: f686 b0bd 0cac 643d 480b b53c 7d60 373e
00000140: f5e0 1e3e 8046 b63d 8d33 99bd 5a0a a43d
00000150: cfd7 dcbc 8e44 b03d c807 17bd aa7f 81bd
00000160: f648 e13d 8a44 b13d 91c4 5cbd c548 c03c
00000170: 370f 00be 05d4 343e eacb ff3d 681a c6bd
00000180: fa23 593d adb9 f53d 55ae 223e ca40 e9bd
00000190: 458e a73d 0a9f 9b3d 29f5 00be 5c25 c93d
000001a0: 56f8 adbd c49d 1abe 1b4e 433c 3d28 8abd
000001b0: fcce 2c3e e0ee c0bd 509c 133c 7d03 b6bd
000001c0: 6038 103e 87e3 863b 8092 03bd 5210 e5bd
000001d0: 50c9 11be 6f46 4e3d a553 883c 609c ea3c
000001e0: 9479 4abe 6108 a8bd 5d27 643d b3b5 213e
000001f0: 8784 f0bd 53ec b2bd f91d 92bd a343 a0bd
00000200: 0568 dd3d 3527 ebbd 3428 413d 185b 0bbe
00000210: 1650 793d 6f45 d13d 7e88 9fbc 797a 01be
00000220: 80d3 c23d c32a adbd 0b13 7bbd b439 073d
00000230: 7111 22be b36e f53b 1677 4fbb c528 063e
00000240: 01d6 07be c25c 243d b826 1ebd 490b c2bb
00000250: dafa 163d edb6 99bd e9b6 4c3c 07bd 1abd
00000260: a3b3 5abd b195 f93d cbeb e4bd 31d6 abbd
00000270: d9ff 11be 261b a7bc f3ea d0bd 7fb6 d43d
00000280: 0998 b2bd 17a4 00be 7155 cd3d 0a0b d73d
00000290: adf8 9f3d d2fe 02be c6c9 21bd 75ee e23d
000002a0: b60a 5bbd 613c b43d f0aa d4ba 2500 21be
000002b0: cb70 05be 700d 743d fafb b4bc 4032 8fbd
000002c0: bd9e 11be b6b8 07be 9e9e 8dbd e419 3bbd
000002d0: d274 94bc 814d 05be eb01 09bd 9eae 3c3d
000002e0: 7c57 d9b9 814d bdbc 7c26 a73d f01e 26bd
000002f0: 677e db3c e747 ec3d bdf3 93bd d4b8 fcbd
00000300: fd11 df3d fef3 4d3c 2213 263d 2bd3 17be
00000310: e39e 11be 6da0 cbbd d5d5 e53b efb9 3c3d
00000320: 61ae b6bc 33b9 17bc 207a 133e 3a57 f53d
00000330: 9a31 4c3d 66c5 b93d 7dba fbbd cc32 09be
00000340: 59ed 873d 7b87 933d a82b cabd 49b4 053d
00000350: ed93 8abd 8c15 02be 2072 d9bd 289e f4bc
00000360: 35b8 d3bb 5142 94bc bb23 493d b4aa 17bd
00000370: 9e63 f9bc d8ef aebd 5039 9b3d 8f00 3ebd
00000380: 920d e03d f642 e53c e46f a7bc 94f3 bd3b
00000390: f9f8 693d 573d c93a ca61 c9bd c9c5 dc3d
000003a0: 15db dbbd e2ad 0f3e 4b7d 033e d136 77bd
000003b0: 412c f8bd 4554 f2bc 08ff f5bd a547 0ebe
000003c0: 9ec4 18be fbd2 fb3c a6d1 ee3d ba2b 7b3d
000003d0: b820 89bd baa3 04be 18b9 ae3c fbd6 b93d
000003e0: d9d9 9b3d 64f9 b43d b284 30bc 623f dfbb
000003f0: 3ac5 5e3d 4d6c 0c3d 8893 70bd fc2f 12be

encoder.layers.0.self_attn.in_proj_bias f4 [192]
0.04415234 -0.032896973 0.0013823847 0.0075517716 -0.009389988 0.0046590385 0.017585635 -0.008210173
-0.0119212195 -0.017039867 0.015447361 0.021843923 -0.012314232 0.01828593 0.015962621 -0.011182529
0.008173988 -0.008894653 -0.008717446 0.008385287 -0.0114717465 -0.01120102 -0.011139652 0.0022260796
0.0042445003 -0.003785832 0.007949434 0.01560383 -0.0062623997 -0.010740274 0.0057647163 0.014309538
0.012936713 -0.00059441105 0.008023156 -0.003088023 -0.0034192898 -0.0027229476 -0.0016047716 0.03177088
-0.013283923 0.001292957 0.01969753 0.043802746 0.038523853 -0.0016072524 0.049401842 -0.0036221545
0.034392636 -0.010830405 0.017662188 0.01152234 0.022265494 0.013408798 -0.00069790223 0.023383275
-0.007525773 0.012790388 -0.016316658 0.010132279 0.00251106 0.00720612 0.014645117 -0.005841996
0.012820269 -0.003214842 0.0016035731 0.003668469 -0.003337251 0.0017745937 0.0053701256 -0.004874762
0.0101460405 0.010095028 -0.009311316 -0.0151713295 0.01366327 0.0055149077 -0.008315243 0.007132583
0.004917358 -0.0014470958 -0.0021492776 0.003446952 -0.0055936254 -0.0017403604 -0.006422652 0.007178572
0.0032533547 0.003802511 0.00092523906 0.0029659523 -0.0028034414 0.0003997882 0.0033610333 0.006517994
-0.00013763254 0.00035405403 -0.00019809444 -0.0005820955 -0.0007297314 0.00151647 0.0011847564 7.4603904e-06
-0.0029158762 -0.00176558 0.0040377122 0.011341623 0.0086728865 -0.00070423615 0.008797105 -0.0017875639
0.009193977 0.0033650752 0.0038133387 0.002307095 0.0045705354 0.0018016441 0.0026117875 0.0027622872
0.0002526167 -0.00035725717 2.995639e-05 0.0027448493 -0.0006400739 0.0019849523 -0.00044448278 -0.0003151464
-0.0032905664 0.008164518 -0.0045373784 -0.003393284 0.005550301 0.007276743 0.009221573 0.007530243
-0.013551729 -0.010684756 0.0044660475 0.001871136 -0.0036891182 0.00079893053 0.003577499 -0.005194696
0.00042138415 0.0040229047 -0.00093010935 -0.0009913868 0.010877236 0.0059047043 -0.0055149263 0.011815544
0.00048432677 -0.00046923922 0.0035490303 0.0022525599 0.014358601 -0.0029252402 0.0027733478 -0.019124638
0.006854846 -0.015078245 0.019322943 -0.019549409 0.007584314 0.013202272 -0.0039153304 0.013179585
-0.005896253 0.0023656075 -0.0136186 0.007755818 0.0033623918 0.0022065092 0.021460682 0.001497341
-0.009932192 0.008757703 -0.00866013 -0.0038078562 0.0061486755 -0.016396683 -0.0062082224 -0.008677772
-0.0034119384 0.003947912 -0.0013132954 0.0039800066 -0.0041174935 0.009828839 0.0039257333 -0.0013082955
00000000: 16d9 343d fabe 06bd 2231 b53a da74 f73b
00000010: 77d8 19bc d9aa 983b c00f 903c f683 06bc
00000020: 3851 43bc 3197 8bbc ee16 7d3c 07f2 b23c
00000030: a2c1 49bc 60cc 953c 0bc4 823c ed36 37bc
00000040: 31ec 053c e1ba 11bc 9ed3 0ebc 7162 093c
00000050: fef3 3bbc 7c84 37bc 1683 36bc 6be3 113b
00000060: 7315 8b3b b91b 78bb 583e 023c 35a7 7f3c
00000070: d134 cdbb f9f7 2fbc f2e5 bc3b 8d72 6a3c
00000080: 82f4 533c 40d2 1bba 8e73 033c 6e60 4abb
00000090: 2a16 60bb 7b73 32bb 3357 d2ba 2f22 023d
000000a0: d0a4 59bc 7078 a93a b75c a13c 826a 333d
000000b0: 30cb 1d3d 71aa d2ba 9659 4a3d ab61 6dbb
000000c0: 4bdf 0c3d 0372 31bc 4bb0 903c 32c8 3c3c
000000d0: 2066 b63c 93b0 5b3c 6df3 36ba 488e bf3c
000000e0: c29a f6bb c78e 513c 83aa 85bc dc01 263c
000000f0: 9990 243b 5121 ec3b 13f2 6f3c 376e bfbb
00000100: 1b0c 523c 19b0 52bb fc2e d23a b26a 703b
00000110: c8b5 5abb 7c99 e83a e1f7 af3b 78bc 9fbb
00000120: 943b 263c 9e65 253c 7d8e 18bc 2b91 78bc
00000130: e8db 5f3c 66b6 b43b a83c 08bc 71b8 e93b
00000140: ca21 a13b 7aac bdba e5da 0cbb 42e6 613b
00000150: bb4a b7bb ce1c e4ba 1c75 d2bb 3a3a eb3b
00000160: 3c36 553b 8c33 793b be8b 723a 6c60 423b
00000170: f1b9 37bb aa9a d139 c844 5c3b e694 d53b
00000180: 7451 10b9 54a0 b939 92b7 4fb9 c597 18ba
00000190: 724b 3fba 4ac4 c63a d449 9b3a 4454 fa36
000001a0: 4918 3fbb 096b e7ba c94e 843b 37d2 393c
000001b0: b918 0e3c 7d9c 38ba bc21 103c b14c eaba
000001c0: 56a2 163c 9888 5c3b 35e9 793b a232 173b
000001d0: 6ec4 953b 2525 ec3a 862a 2b3b 7d07 353b
000001e0: a471 8439 3f4e bbb9 dc4a fb37 eee2 333b
000001f0: a2ca 27ba f915 023b 7809 e9b9 3c3a a5b9
00000200: 8ba6 57bb 78c4 053c 4aae 94bb dc61 5ebb
00000210: 4ddf b53b bf71 ee3b 1516 173c 42c0 f63b
00000220: 1208 5ebc 1d0f 2fbc ec57 923b e840 f53a
00000230: 22c5 71bb 526f 513a 7974 6a3b 4538 aabb
00000240: 39ed dc39 92d2 833b 95d2 73ba 6cf1 81ba
00000250: 6f36 323c 407c c13b 8eb6 b4bb fc95 413c
00000260: 3ded fd39 3904 f6b9 d996 683b af9f 133b
00000270: 5640 6b3c 63b5 3fbb 0ec1 353b 46ab 9cbc
00000280: 9e9e e03b be0a 77bc 264b 9e3c 1526 a0bc
00000290: d685 f83b 584e 583c 2c4c 80bb 30ef 573c
000002a0: 5b35 c1bb 4f08 1b3b 8c20 5fbc 8424 fe3b
000002b0: 935b 5c3b 159b 103b 50ce af3c 6d42 c43a
000002c0: a2ba 22bc 787c 0f3c 38e3 0dbc 3a8d 79bb
000002d0: d47a c93b 5652 86bc 586e cbbb 372d 0ebc
000002e0: d49a 5fbb 7c5d 813b e222 acba b76a 823b
000002f0: 0aec 86bb 2409 213c 70a3 803b 1d7b abba

encoder.layers.0.self_attn.out_proj.weight f4 [64, 64]
0.10584796 -0.11096118 -0.026198003 -0.045923043 -0.04550823 -0.067210026 0.118449345 0.0029344386
0.13259685 -0.12692371 0.117544755 -0.003678355 -0.028794898 0.02711535 0.015553208 -0.024658877
0.055561785 0.106937334 -0.01894511 0.011043538 0.06825016 -0.09583859 -0.07448332 -0.04351174
0.08927319 -0.051591527 0.069318995 -0.02494512 -0.06239728 -0.023555309 0.11845424 -0.072244726
-0.045404155 0.041887585 -0.08383645 -0.101040296 -0.111200675 0.029350819 0.011275487 0.04873259
0.048100088 0.11241167 -0.09057762 0.12498505 0.021276904 -0.00045645243 0.011410366 0.12322369
0.000387693 -0.17313558 0.028483022 0.0009817218 0.013011477 0.10222694 0.1138625 0.09398151
0.11289559 0.08473417 0.08722962 -0.043926187 -0.030336978 0.06904541 0.13329984 0.08571617
-0.030045148 0.052345075 -0.1457175 -0.070596345 0.13226964 0.050738957 -0.106633075 0.11104825
0.045657333 0.089159064 0.10436503 -0.07985475 -0.06665344 -0.106831245 -0.124399506 -0.038974326
-0.041468747 -0.08717578 -0.07703444 0.014427521 0.05457334 -0.111164115 -0.042667672 -0.035609514
-0.110985026 0.0031970097 -0.10877807 0.09455519 0.0038955663 0.09851612 -0.11032002 -0.030226406
0.0059554456 -0.045618188 -0.02787079 -0.08434996 0.074544154 0.050145518 -0.02119953 0.015492222
-0.034158852 0.010566217 -0.057246402 -0.026704106 -0.07138927 0.06508115 -0.042613056 0.10544274
0.04421781 -0.058961216 -0.12645055 -0.04608576 0.068652034 0.018898055 0.039525412 0.0910398
-0.043262128 0.04682435 -0.11454118 -0.10462616 -0.06247763 -0.023283502 0.11252365 0.018079089
-0.13926926 -0.09661543 -0.03485462 -0.029122416 0.05829411 0.06841169 -0.07045441 -0.05626421
-0.0666352 0.013161309 0.041921664 0.10250473 -0.14433834 -0.013249509 0.07440295 -0.027872069
-0.032910757 0.08223782 0.08639289 0.066795655 -0.119665325 -0.066573575 0.11763379 -0.048485428
-0.014159214 -0.11886701 0.0022803468 0.05182403 -0.10819895 0.055008076 0.1077613 0.07658309
0.009018291 0.061062757 -0.09935187 -0.011791231 0.059001144 -0.07351083 -0.08223582 -0.12349011
0.096032925 -0.08647755 -0.05324323 -0.025273858 0.066102415 0.05614652 0.07151135 -0.08344703
0.11346272 -0.032191083 -0.13230154 0.029580284 -0.04273044 -0.08551429 -0.11876934 0.0058269743
-0.13296203 0.095099606 -0.14162998 -0.12912777 -0.08693621 0.0904807 0.017172154 -0.09808787
-0.089130685 0.09557648 -0.08811169 0.09977333 -0.085682206 -0.039853096 0.10662374 0.06274739
0.110213 -0.09728171 -0.07296014 -0.044553205 -0.007540009 -0.01921216 0.121032156 -0.07873487
-0.06560628 -0.06567975 -0.10080468 0.06353552 -0.0036632477 -0.04843561 0.0879217 0.054385185
0.04817894 0.07646412 -0.03965547 0.121155046 0.03491921 -0.03612551 -0.09487492 0.030266784
-0.0796228 -0.012535625 0.02976094 0.005197259 -0.061334927 -0.062122684 0.02114255 0.07471035
0.09115946 0.08001786 0.073032975 0.08854777 0.112690076 -0.11605741 -0.081922114 0.0452061
0.08555216 -0.09070992 0.14461386 0.009666336 0.026427202 0.05813233 -0.026494682 0.055706665
-0.0922604 -0.07489347 -0.096590854 0.06935337 -0.04785165 -0.064671785 0.069394946 0.047229826
00000000: d1c6 d83d 9d3f e3bd 329d d6bc cd19 3cbd
00000010: d666 3abd 69a5 89bd 9295 f23d b64f 403b
00000020: 78c7 073e 4af8 01be 4ebb f03d 8e10 71bb
00000030: 47e3 ebbc 0321 de3c e2d2 7e3c 6a01 cabc
00000040: c194 633d f601 db3d c632 9bbc f5ef 343c
00000050: bdc6 8b3d 0647 c4bd b68a 98bd 5e39 32bd
00000060: ddd4 b63d a351 53bd 1ef7 8d3d b559 ccbc
00000070: 4a94 7fbd 10f7 c0bc 2398 f23d 0bf5 93bd
00000080: b5f9 39bd 5192 2b3d 72b2 abbd 37ee cebd
00000090: 2ebd e3bd 2171 f03c d2bc 383c d39b 473d
000000a0: 9904 453d 1738 e63d c280 b9bd 29f8 ff3d
000000b0: e74c ae3c 0250 efb9 8bf2 3a3c b45c fc3d
000000c0: 4643 cb39 744a 31be 3a55 e93c 1ead 803a
000000d0: 172e 553c 5c5c d13d be30 e93d 6179 c03d
000000e0: ce35 e73d 1c89 ad3d 71a5 b23d f2eb 33bd
000000f0: 4185 f8bc ae67 8d3d c17f 083e f68b af3d
00000100: 3e21 f6bc ca67 563d f836 15be d194 90bd
00000110: b171 073e a7d3 4f3d 7162 dabd 446d e33d
00000120: 2f03 3b3d 0799 b63d 55bd d53d e38a a3bd
00000130: 9981 88bd 57ca dabd 2bc5 febd 8ba3 1fbd
00000140: 22db 29bd 3789 b2bd 3cc4 9dbd 6961 6c3c
00000150: 4b88 5f3d 03aa e3bd 4cc4 2ebd 48db 11bd
00000160: 1e4c e3bd ec84 513b 09c7 debd 27a6 c13d
00000170: c24c 7f3b d2c2 c93d 76ef e1bd 5e9d f7bc
00000180: e625 c33b 23da 3abd 4851 e4bc acbf acbd
00000190: 9baa 983d 6365 4d3d a3aa adbc 17d3 7d3c
000001a0: 27ea 0bbd ed1d 2d3c 347b 6abd 92c2 dabc
000001b0: 8a34 92bd 4449 853d 078b 2ebd 5df2 d73d
000001c0: bc1d 353d 5181 71bd 417c 01be 6cc4 3cbd
000001d0: 7099 8c3d 18d0 9a3c 66e5 213d 1373 ba3d
000001e0: a133 31bd e4ca 3f3d 9194 eabd 3d46 d6bd
000001f0: 8be8 7fbd 0bbd bebc cd72 e63d 991a 943c
00000200: 9a9c 0ebe 50de c5bd b8c3 0ebd 2292 eebc
00000210: cec5 6e3d 6e1b 8c3d 674a 90bd 4d75 66bd
00000220: 0978 88bd 88a2 573c 0db6 2b3d 00ee d13d
00000230: 6ecd 13be 7814 59bc 9360 983d f753 e4bc
00000240: 6ecd 06bd 4d6c a83d c1ee b03d 29cc 883d
00000250: 1813 f5bd ba57 88bd fce9 f03d a898 46bd
00000260: 0cfc 67bc 8c70 f3bd df71 153b 6f45 543d
00000270: 6997 ddbd 2650 613d f5b1 dc3d 98d7 9c3d
00000280: 74c1 133c f11c 7a3d fe78 cbbd 0230 41bc
00000290: 2fab 713d d98c 96bd 416b a8bd 62e8 fcbd
000002a0: e9ac c43d 241b b1bd 9315 5abd 1f0b cfbc
000002b0: b460 873d e5f9 653d 8b74 923d 47e6 aabd
000002c0: 245f e83d ccda 03bd 0e7a 07be 5a52 f23c
000002d0: 1d06 2fbd 1e22 afbd 573d f3bd 34f0 be3b
000002e0: 3327 08be 95c3 c23d 7307 11be 123a 04be
000002f0: 9d0b b2bd f24d b93d 9eac 8c3c 4be2 c8bd
00000300: 268a b6bd 9abd c33d e773 b4bd f655 cc3d
00000310: 277a afbd 003d 23bd 8c5d da3d b481 803d
00000320: 5ab7 e13d a23b c7bd 206c 95bd 6c7d 36bd
00000330: 2e12 f7bb d262 9dbc b5df f73d bf3f a1bd
00000340: 965c 86bd 1b83 86bd af72 cebd e91e 823d
00000350: 1913 70bb 6b64 46bd 4b10 b43d 00c3 5e3d
00000360: 4857 453d 3899 9c3d c66d 22bd 2320 f83d
00000370: 7207 0f3d 58f8 13bd c84d c2bd 0cf2 f73c
00000380: 4711 a3bd 3962 4dbc 37cd f33c c54d aa3b
00000390: 553a 7bbd 5b74 7ebd 2433 ad3c bd01 993d
000003a0: d0b1 ba3d 67e0 a33d 5092 953d 8958 b53d
000003b0: 0eca e63d 82af edbd c8c6 a7bd 082a 393d
000003c0: f935 af3d 1fc6 b9bd a815 143e 8d5f 1e3c
000003d0: dc7d d83c 2b1c 6e3d 600b d9bc ac2c 643d
000003e0: 05f3 bcbd bf61 99bd 6dd1 c5bd 2409 8e3d
000003f0: 1700 44bd a472 84bd f01e 8e3d 1074 413d

encoder.layers.0.self_attn.out_proj.bias f4 [64]
-0.0032724405 0.0028184943 -0.0033448227 -0.00421182 -0.0052175745 0.002670546 0.013742887 0.0068173422
-0.009396295 0.009050225 -0.017936427 0.007713369 0.012643194 0.011976457 -0.0023679584 0.01225454
-0.0052581504 -0.0014572707 0.007660961 -0.0039151195 0.011872355 0.00299257 0.0056873844 0.0031042728
0.005495496 0.0013078632 0.0032419192 0.011608413 -0.00033981242 -0.0009257433 -0.01060123 0.0027140027
0.0021948076 0.007394506 -0.00914042 0.0037760094 -0.012566056 -0.004733195 -0.011121498 -0.024315152
0.010651063 -0.015914889 -0.006592443 -0.0033844681 0.006345738 0.009023372 -0.0014674417 4.1151634e-05
0.0017910282 -0.0002844646 -0.011424247 -0.0028836848 -0.008450407 -0.004564651 -0.002589467 -0.0035029373
0.0011278022 -0.0070404722 -0.0150068225 0.00352228 0.010213426 0.002120555 -0.0011354832 -0.0025851657
00000000: 7176 56bb 7db6 383b d034 5bbb 4f03 8abb
00000010: 30f8 aabb 5404 2f3b d929 613c 0364 df3b
00000020: ebf2 19bc 6547 143c 6aef 92bc 6ec0 fc3b
00000030: 6625 4f3c e738 443c c02f 1bbb 44c7 483c
00000040: 904c acbb e401 bfba cc08 fb3b 674a 80bb
00000050: 4484 423c fe1e 443b 3d5d ba3b 0e71 4b3b
00000060: 9013 b43b 9b6c ab3a 6176 543b 3731 3e3c
00000070: da28 b2b9 95ad 72ba c8b0 2dbc 69dd 313b
00000080: c3d6 0f3b 9d4d f23b b3c1 15bc ed76 773b
00000090: dce1 4dbc eb18 9bbb f236 36bc 9230 c7bc
000000a0: cc81 2e3c f15f 82bc 6c05 d8bb f4cd 5dbb
000000b0: e9ef cf3b c4d6 133c 2c57 c0ba 3b9a 2c38
000000c0: efc0 ea3a 3124 95b9 c42c 3bbc 34fc 3cbb
000000d0: 9373 0abc 1193 95bb 0cb4 29bb 8991 65bb
000000e0: c3d2 933a c3b3 e6bb 2ddf 75bc 0dd6 663b
000000f0: 3756 273c 02f9 0a3b 7ed4 94ba e26b 29bb

encoder.layers.0.linear1.weight f4 [128, 64]
0.12863132 0.07954402 0.00066432194 0.0049648318 0.028778216 -0.0071473457 0.16689357 0.11402101
-0.06778142 -0.061694812 0.09139247 0.06799016 0.0396083 -0.046187017 0.07393637 -0.03636195
0.04400789 0.012358748 0.10405685 -0.073992774 0.07813479 -0.14006184 -0.07802838 0.017238902
0.0042565935 0.16538717 0.023512531 0.045249503 -0.0030865849 -0.020782888 -0.11227702 -0.17733471
-0.013057111 0.13806212 -0.012169136 0.092823364 -0.0873784 -0.09322219 0.07984676 -0.16047682
0.09071747 0.091978915 -0.15650992 -0.06040333 0.095256105 0.09393594 -0.038136475 -0.0036494073
0.01280975 0.0831901 -0.14855507 0.122891486 -0.15746929 -0.06769912 0.068543226 -0.11601081
0.11699634 0.04438679 0.11902846 0.11389859 0.042424735 -0.078052156 -0.0572448 -0.101816304
0.08045816 -0.019768301 0.005759856 0.042462427 -0.16895357 -0.05013675 0.14513023 0.21290414
0.05213312 -0.15040672 0.07349404 -0.0822223 -0.023896376 -0.06747626 0.019420542 0.07768814
0.028927665 -0.09797923 -0.03832546 0.087680645 -0.14751334 -0.014426618 -0.088451296 -0.07108945
0.032853536 0.15431349 -0.10146731 0.117845915 -0.03686328 -0.078579135 -0.06431723 -0.06651307
-0.1039586 0.18446012 0.14744377 -0.026111566 -0.09705941 0.058379084 -0.08507858 -0.13467409
0.10533207 0.02510045 -0.14668685 0.012736431 -0.07667176 0.056408495 0.015547937 -0.02509508
-0.067272864 -0.06743877 -0.119479835 0.0031663687 0.07158807 -0.055315275 -0.12902208 0.07938987
-0.054744355 -0.030722244 -0.10860667 0.16795285 -0.0069129905 -0.14643821 0.05232183 0.086052954
-0.03638076 -0.06508092 0.030725572 -0.121794485 0.081434265 0.07258173 -0.058425102 0.095964484
0.006767629 -0.12088125 -0.0342497 -0.098317035 0.046842754 -0.024153322 -0.03378173 -0.09105015
0.07881777 -0.0978824 0.010289145 -0.042443804 -0.03411652 -0.10833268 0.026048224 -0.09594526
0.018961804 0.056676872 0.032254655 0.05803149 0.11346135 0.0035440612 -0.014440845 0.1235118
-0.044991057 0.06543762 -0.0075563216 -0.04523028 -0.11399481 -0.066813 0.013636668 0.053509735
-0.061675783 -0.013071525 0.095791616 0.048241537 -0.0012481187 0.02014261 -0.04146778 0.023001429
-0.1235808 0.06738001 0.010876821 0.08114477 0.006450014 -0.07128993 0.08612936 0.013938938
0.08676935 0.09275307 0.051111665 -0.021472896 0.014559753 -0.12644875 0.032619756 -0.013753273
0.0026848807 0.057379678 -0.102347046 0.19920969 -0.055585098 -0.030698413 0.04836188 0.10776996
-0.12985525 -0.055307366 -0.09251976 0.09010199 0.06891909 -0.07174721 0.11238879 0.0045636706
-0.062171914 -0.06706558 0.022145044 0.10976205 -0.03959481 -0.12039346 0.037939 0.020841038
0.03355127 0.02015867 -0.022310173 -0.040082652 -0.023185918 -0.13266651 -0.06472142 -0.094664656
-0.0036954083 0.2018847 0.122727856 -0.008942776 -0.11330345 -0.099413134 -0.13059603 -0.015382313
0.036901742 -0.051963203 -0.112196214 -0.037249748 -0.05360428 0.06384701 -0.044563897 0.09095079
0.09983868 -0.021862 -0.1105768 0.135609 -0.08070342 -0.05781614 -0.09329491 -0.083041385
0.0820003 -0.07437881 0.06348093 0.0773874 0.17244673 -0.055437993 0.11188805 -0.114362165
00000000: eeb7 033e fae7 a23d e425 2e3a 07b0 a23b
00000010: 4bc0 eb3c 4834 eabb 26e6 2a3e d983 e93d
00000020: fcd0 8abd b3b3 7cbd fa2b bb3d 6d3e 8b3d
00000030: 503c 223d 992e 3dbd f46b 973d 45f0 14bd
00000040: 9e41 343d 597c 4a3c c21b d53d 8689 97bd
00000050: 2205 a03d 5f6c 0fbe 58cd 9fbd 9938 8d3c
00000060: e57a 8b3b 415b 293e 5a9d c03c 8b57 393d
00000070: 4d48 4abb e040 aabc 7ff1 e5bd 3b97 35be
00000080: 7eed 55bc 2860 0d3e 0e61 47bc 2d1a be3d
00000090: 72f3 b2bd 47eb bebd b386 a33d 0954 24be
000000a0: 15ca b93d 715f bc3d 2344 20be 7b69 77bd
000000b0: a215 c33d 7c61 c03d fe34 1cbd e52a 6fbb
000000c0: fcdf 513c 925f aa3d d21e 18be 88ae fb3d
000000d0: a13f 21be d6a5 8abd 6460 8c3d 1397 edbd
000000e0: c79b ef3d ecce 353d 31c5 f33d aa43 e93d
000000f0: 8fc5 2d3d cfd9 9fbd 8679 6abd 1185 d0bd
00000100: 3fc7 a43d 22f1 a1bc 2dbd bc3b 15ed 2d3d
00000110: 2a02 2dbe 315c 4dbd 059d 143e 8b03 5a3e
00000120: 8a89 553d 3804 1abe 0b84 963d 2a64 a8bd
00000130: 55c2 c3bc fe30 8abd d417 9f3c f61a 9f3d
00000140: b6f9 ec3c 56a9 c8bd 28fb 1cbd e991 b33d
00000150: bd0d 17be 9f5d 6cbc f425 b5bd 5897 91bd
00000160: 6e91 063d 5b04 1e3e 18ce cfbd 3359 f13d
00000170: f3fd 16bd 19ee a0bd c0b8 83bd 0138 88bd
00000180: 3fe8 d4bd 1de3 3c3e 80fb 163e ece7 d5bc
00000190: 15c7 c6bd e81e 6f3d ae3d aebd 01e8 09be
000001a0: 57b8 d73d 759f cd3c 1435 16be 77ac 503c
000001b0: 1506 9dbd 980c 673d c6bc 7e3c 3294 cdbc
000001c0: 5bc6 89bd 561d 8abd d8b1 f4bd da82 4f3b
000001d0: c49c 923d 4592 62bd 5d1e 04be 2897 a23d
000001e0: 9e3b 60bd 37ad fbbc 2c6d debd d5fb 2b3e
000001f0: 5e86 e2bb e6f3 15be 6a4f 563d 883c b03d
00000200: fe03 15bd 2549 85bd 32b4 fb3c 636f f9bd
00000210: 02c7 a63d bba5 943d 294f 6fbd 0789 c43d
00000220: fdc2 dd3b 9790 f7bd 6a49 0cbd 715a c9bd
00000230: 30de 3f3d 30dd c5bc b65e 0abd 8078 babd
00000240: 366b a13d 9176 c8bd cd93 283c 8ed9 2dbd
00000250: c4bd 0bbd 86dd ddbd 1663 d53c f37e c4bd
00000260: c955 9b3c 0226 683d 751d 043d 6db2 6d3d
00000270: 6d5e e83d 7b43 683b 4b99 6cbc c1f3 fc3d
00000280: 8b48 38bd 2904 863d 059b f7bb 6343 39bd
00000290: 1c76 e9bd 41d5 88bd 556c 5f3c 062d 5b3d
000002a0: bf9f 7cbd f329 56bc 652e c43d eb98 453d
000002b0: ea97 a3ba 1d02 a53c 1eda 29bd 7e6d bc3c
000002c0: ee17 fdbd 88fe 893d b234 323c 3b2f a63d
000002d0: a45a d33b 7400 92bd 9764 b03d 2560 643c
000002e0: 21b4 b13d 52f5 bd3d 775a 513d ede7 afbc
000002f0: 088c 6e3c c87b 01be 4b9c 053d 6855 61bc
00000300: d3f4 2f3b f406 6b3d 549b d1bd a0fd 4b3e
00000310: 33ad 63bd 3d7b fbbc 1b17 463d 7fb6 dc3d
00000320: c6f8 04be fa89 62bd 007b bdbd 6487 b83d
00000330: 7425 8d3d 34f0 92bd 182c e63d d88a 953b
00000340: faa7 7ebd ae59 89bd 8669 b53c edca e03d
00000350: 2b2e 22bd d990 f6bd ed65 1b3d d3ba aa3c
00000360: 0e6d 093d cc23 a53c d3c3 b6bc b52d 24bd
00000370: 65f0 bdbc bbd9 07be aa8c 84bd 8bdf c1bd
00000380: aa2e 72bb ddba 4e3e be58 fb3d b984 12bc
00000390: a40b e8bd 1d99 cbbd f7ba 05be 1906 7cbc
000003a0: 4826 173d 5ed7 54bd 21c7 e5bd 3193 18bd
000003b0: 2990 5bbd 39c2 823d a288 36bd 6844 ba3d
000003c0: 3978 cc3d f017 b3bc 1776 e2bd 16dd 0a3e
000003d0: d647 a5bd 9ed0 6cbd 6711 bfbd 9a11 aabd
000003e0: c6ef a73d eb53 98bd 4a02 823d 497d 9e3d
000003f0: e095 303e f312 63bd 9025 e53d b636 eabd

encoder.layers.0.linear1.bias f4 [128]
-0.075310625 0.10026189 -0.013116063 -0.06260948 0.10045509 0.14104432 -0.09682855 0.12035484
-0.08449914 -0.0019011791 0.12680821 -0.013098313 0.029169051 -0.020143794 -0.034127582 -0.043142166
-0.09307626 -0.037391804 0.0008789511 0.064803965 -0.071189314 -0.037066314 0.03911421 0.05849358
0.11814524 -0.043550316 -0.022695694 0.10282131 -0.0015828911 -0.046104994 0.006860231 0.120094135
-0.019167187 -0.060607806 -0.10949516 -0.031651095 -0.14221326 -0.017555432 -0.039675243 -0.045137737
-0.07499977 -0.113150135 0.011759155 0.10876627 -0.05574808 -0.005149275 0.04257715 -0.064666934
-0.06517449 -0.05364872 -0.10952984 0.12218685 0.059191506 -0.091155715 0.06395434 0.09997573
0.012893523 0.11455261 0.07698022 -0.018270303 -0.06941164 -0.052228235 -0.108410835 -0.08496921
-0.029693695 0.07809374 0.063580714 -0.11374593 -0.023287602 -0.07503612 -0.107927084 -0.0031584674
0.021896025 -0.13700862 -0.07430247 0.08024247 -0.007444114 0.007962208 0.020521417 0.04150226
0.08609369 -0.00035190137 0.017307866 -0.01012493 0.107994415 0.12739843 -0.100757875 -0.0630377
-0.089933574 -0.024497895 0.090531945 -0.11174006 0.11385281 0.10275566 0.091688976 0.12004492
-0.08067352 -0.07458716 -0.059992634 -0.066944815 -0.09440175 0.01341788 -0.08573031 0.05475894
0.046352554 0.07401401 0.024486877 -0.09462994 0.011886011 0.012388559 0.0847415 -0.082656175
-0.06641156 0.13192987 -0.10547539 -0.101705626 -0.06322437 0.09679696 0.1279156 0.051638823
0.05952989 0.0046438077 -0.09412637 -0.04033879 0.100400135 -0.007451973 0.0452611 0.06678518
00000000: 753c 9abd 1b56 cd3d c1e4 56bc 6639 80bd
00000010: 66bb cd3d ec6d 103e 0c4e c6bd 997c f63d
00000020: e30d adbd fc30 f9ba 03da 013e 4e9a 56bc
00000030: eff3 ee3c 9904 a5bc 5dc9 0bbd d7b5 30bd
00000040: c49e bebd 2628 19bd 6969 663a f1b7 843d
00000050: b4cb 91bd d9d2 17bd 3936 203d f796 6f3d
00000060: 22f6 f13d d161 32bd 52ec b9bc fb93 d23d
00000070: 0379 cfba 97d8 3cbd cacb e03b eaf3 f53d
00000080: 8104 9dbc e43f 78bd 003f e0bd 94a4 01bd
00000090: 5aa0 11be 69d0 8fbc 8282 22bd 59e2 38bd
000000a0: 7b99 99bd 42bb e7bd 79a9 403c dac0 de3d
000000b0: 1958 64bd 40bb a8bb 6165 2e3d 1970 84bd
000000c0: 347a 85bd c3be 5bbd 2e51 e0bd 193d fa3d
000000d0: cb72 723d d9af babd 7efa 823d 13c0 cc3d
000000e0: 5b3f 533c 8f9a ea3d cea7 9d3d 9aab 95bc
000000f0: b127 8ebd 46ed 55bd 8006 debd 5604 aebd
00000100: 3140 f3bc 9cef 9f3d 9b36 823d a0f3 e8bd
00000110: a4c5 bebc 8aac 99bd e008 ddbd 4afe 4ebb
00000120: 4b5f b33c fd4b 0cbe e52b 98bd 2a56 a43d
00000130: c1ed f3bb ec73 023c 881c a83c 46fe 293d
00000140: e351 b03d 677f b8b9 3ac9 8d3c 09e3 25bc
00000150: 2d2c dd3d bc74 023e 255a cebd e919 81bd
00000160: 182f b8bd cfaf c8bc d068 b93d f9d7 e4bd
00000170: a92b e93d 8f71 d23d 6ec7 bb3d 1cda f53d
00000180: 2938 a5bd 27c1 98bd d6ba 75bd 5d1a 89bd
00000190: b455 c1bd abd6 5b3c 5f93 afbd e94a 603d
000001a0: 2ddc 3d3d a894 973d b498 c83c 58cd c1bd
000001b0: 8bbd 423c 62f9 4a3c f48c ad3d a447 a9bd
000001c0: c902 88bd a018 073e 7b03 d8bd 0a4b d0bd
000001d0: c77b 81bd 7c3d c63d 4ffc 023e 3b83 533d
000001e0: 9dd5 733d 152b 983b 54c5 c0bd 493a 25bd
000001f0: 969e cd3d ae2f f4bb b463 393d abc6 883d

encoder.layers.0.linear2.weight f4 [64, 128]
-0.05584688 0.032281306 -0.00031003228 -0.094236195 0.04250585 -0.084617294 0.01620904 -0.016063482
-0.06997612 0.058320183 0.028802605 0.014322757 -0.083007745 -0.045769878 -0.03120816 -0.0026979267
-0.02803791 -0.0006669389 0.06068413 0.05223783 0.03089797 0.016875941 -0.036390923 -0.054598495
-0.09142468 0.05852977 -0.016016856 0.04322617 -0.083113246 -0.08466088 -0.063813984 0.015081412
-0.008748866 -0.01179461 0.021838656 -0.008491209 -0.026064903 0.054712564 -0.13995495 -0.07007286
0.029236134 -0.02292592 -0.074079596 0.07210707 0.032947067 0.068704866 -0.1074341 -0.056912895
0.05056963 0.08292966 0.016379813 0.04523813 -0.0112893265 0.09693837 -0.11335166 0.0017629763
0.03140754 0.044179015 -0.06608664 0.094112374 -0.03286665 -0.031203115 -0.07813923 -0.08804897
-0.07598573 -0.03526707 0.05197822 0.053878456 0.07908758 -0.010753056 0.037542477 -0.046125237
0.057235703 -0.09517661 0.038436916 -0.075079724 -0.06286026 0.016465517 0.06462138 0.02049189
-0.015102998 0.04503246 -0.078992814 0.07304281 -0.007222236 -0.07304122 -0.037678722 0.081752196
-0.09478103 0.069265105 0.028502835 0.048551317 0.013440474 0.060584363 0.046573438 -0.03511242
-0.109823436 -0.04638937 0.012417987 0.044787265 -0.023385206 0.022459364 -0.062387962 -0.057245746
-0.018375155 -0.032133996 0.026768291 -0.012976059 0.032384124 -0.06661064 -0.028164355 -0.06027831
-0.05590487 -0.12291852 0.07652515 -0.028458595 -0.037809346 0.021706285 -0.05135957 7.282177e-05
0.07336122 -0.085893735 0.010334349 0.07461391 0.04349618 0.0063636336 -0.02100657 0.018463228
0.007588926 -0.031235483 -0.015394978 -0.045130733 -0.08235236 0.04361661 0.0030889385 0.06467656
-0.06262657 -0.022560516 -0.08243825 -0.052714583 0.10222537 -0.038902137 -0.06272274 0.034581356
0.03938945 -0.056033533 0.019463187 -0.011886987 0.083240196 -0.02840661 0.009888707 0.08012816
0.09043203 -0.02076561 0.007908102 0.04939234 -0.034290444 0.049382214 0.028709859 -0.08739103
0.07030535 -0.05500815 0.030472456 0.074989855 -0.0059766024 -0.005696785 0.019351106 0.0026741282
0.0043863775 0.022384116 0.06721729 0.08073224 -0.021232933 -0.062677935 0.023141686 -0.012749896
-0.013900269 0.061945483 -0.027509745 -0.024720283 0.049160648 -0.026181553 -0.024518272 -0.006246577
-0.082161374 -0.05936246 0.04738612 0.01141603 0.003541563 0.06373282 -0.05778968 -0.0841321
-0.0015682797 0.11267843 -0.020219646 0.06219122 -0.005294241 -0.038841724 -0.07741231 0.010045089
0.030702125 0.025059339 -0.0041953474 0.06264797 0.052131217 -0.091545135 -0.012451857 0.030685335
0.024016503 -0.048740968 -0.07178267 0.046820246 0.045722574 -0.0032141055 0.060729153 0.04719573
0.07153765 0.058016434 0.006735113 -0.001510919 -0.021458719 0.07421892 0.044079978 0.05240512
-0.038745347 0.0062942007 -0.06951886 -0.025065044 -0.04241148 0.031623196 -0.068875305 0.016567543
-0.004282799 0.07384461 -0.023846509 0.07052265 0.056326047 0.06301474 0.041607823 0.032289647
0.04761581 0.030294973 -0.03825306 -0.03757236 -0.035006136 -0.014554998 0.051105358 -0.015378137
4.849022e-05 -0.01797881 0.07886198 -0.07737398 -0.030544097 0.05204673 -0.037504 0.054497335
00000000: b3bf 64bd 6739 043d d48b a2b9 e8fe c0bd
00000010: 9d1a 2e3d d54b adbd d2c8 843c 9097 83bc
00000020: a44f 8fbd 25e1 6e3d 71f3 eb3c ffa9 6a3c
00000030: f7ff a9bd 3279 3bbd 41a8 ffbc b3cf 30bb
00000040: c2af e5bc 83d5 2eba ec8f 783d 56f7 553d
00000050: bd1d fd3c 6a3f 8a3c a60e 15bd aca2 5fbd
00000060: dd3c bbbd e9bc 6f3d c835 83bc ed0d 313d
00000070: 4737 aabd af62 adbd e8b0 82bd 0718 773c
00000080: 6757 0fbc 2e3e 41bc fbe6 b23c b61e 0bbc
00000090: 1086 d5bc 481a 603d 5a50 0fbe 5c82 8fbd
000000a0: 9e80 ef3c 24cf bbbc 0bb7 97bd dfac 933d
000000b0: 81f3 063d 23b5 8c3d 6906 dcbd 7f1d 69bd
000000c0: 1a22 4f3d 07d7 a93d f52e 863c 9e4b 393d
000000d0: def6 38bc a087 c63d ea24 e8bd ab13 e73a
000000e0: 31a5 003d 0ef5 343d 6f58 87bd fdbd c03d
000000f0: 2e9f 06bd ad9d ffbc 7607 a0bd 0553 b4bd
00000100: 689e 9bbd 3474 10bd 1de7 543d a8af 5c3d
00000110: abf8 a13d 962d 30bc 24c6 193d d1ed 3cbd
00000120: fc6f 6a3d f4eb c2bd 0770 1d3d 66c3 99bd
00000130: e1bc 80bd b1e2 863c 3758 843d 9cde a73c
00000140: 9172 77bc f573 383d fcc6 a1bd 7897 953d
00000150: 82a8 ecbb a396 95bd 0155 1abd b26d a73d
00000160: 8f1c c2bd ddda 8d3d c77e e93c bfdd 463d
00000170: 6f35 5c3c 4f27 783d cac3 3e3d 0ad2 0fbd
00000180: 1ceb e0bd c802 3ebd d074 4b3c da72 373d
00000190: 5592 bfbc b3fc b73c 858a 7fbd 847a 6abd
000001a0: 7e87 96bc f09e 03bd 2d49 db3c 8999 54bc
000001b0: 37a5 043d 296b 88bd efb8 e6bc 64e6 76bd
000001c0: 81fc 64bd b4bc fbbd 38b9 9c3d 0022 e9bc
000001d0: f9dd 1abd 61d1 b13c 6a5e 52bd e4b7 9838
000001e0: 683e 963d 0ee9 afbd 6751 293c 2dcf 983d
000001f0: 0d29 323d 0786 d03b f815 acbc 3240 973c
00000200: 86ac f83b 8ee1 ffbc 383b 7cbc 01db 38bd
00000210: 5ba8 a8bd 55a7 323d ca6f 4a3b 2575 843d
00000220: 5c42 80bd d5d0 b8bc 63d5 a8bd 3feb 57bd
00000230: 895b d13d d957 1fbd c874 80bd 2ea5 0d3d
00000240: d556 213d 6b83 65bd 4371 9f3c a3c1 42bc
00000250: d679 aa3d fbb4 e8bc 3e04 223c 3c1a a43d
00000260: 6e34 b93d a41c aabc fc90 013c 9f4f 4a3d
00000270: 2374 0cbd 0145 4a3d f030 eb3c 11fa b2bd
00000280: 40fc 8f3d 3a50 61bd 5fa1 f93c 4894 993d
00000290: 60d7 c3bb 19ac babb 3686 9e3c 6d40 2f3b
000002a0: 9abb 8f3b e55e b73c 38a9 893d f256 a53d
000002b0: b0f0 adbc 4a5d 80bd a293 bd3c f1e4 50bc
000002c0: f4bd 63bc 8cba 7d3d 1e5c e1bc 3182 cabc
000002d0: ad5c 493d b27a d6bc 8bda c8bc 16b0 ccbb
000002e0: 3944 a8bd 0d26 73bd f317 423d 4d0a 3b3c
000002f0: 9119 683b 5a86 823d dfb4 6cbd 734d acbd
00000300: bc8e cdba f3c3 e63d aca3 a5bc 38bc 7e3d
00000310: 507b adbb 8018 1fbd 588a 9ebd 2894 243c
00000320: 0683 fb3c 3e49 cd3c 2079 89bb 944d 803d
00000330: 8b87 553d 047c bbbd e002 4cbc d05f fb3c
00000340: 42be c43c 9ca4 47bd cb02 93bd 96c6 3f3d
00000350: 9847 3b3d bea3 52bb 22bf 783d 4f50 413d
00000360: 5582 923d a4a2 6d3d 39b2 dc3b 070a c6ba
00000370: 32ca afbc 1700 983d 358d 343d c0a6 563d
00000380: 71b3 1ebd 953f ce3b e75f 8ebd 3555 cdbc
00000390: a9b7 2dbd 5387 013d 7f0e 8dbd a8b8 873c
000003a0: b956 8cbb d83b 973d c159 c3bc 2e6e 903d
000003b0: 24b6 663d df0d 813d f76c 2a3d 2642 043d
000003c0: cc08 433d 2a2d f83c 3eaf 1cbd 7ae5 19bd
000003d0: 9862 0fbd 1678 6ebc da53 513d 95f4 7bbc
000003e0: fa61 4b38 4c48 93bc 6482 a13d 4076 9ebd
000003f0: 9d37 fabc f42e 553d cb9d 19bd 9938 5f3d

encoder.layers.0.linear2.bias f4 [64]
-0.04655108 -0.0728161 0.06176949 0.029836642 -0.0010234173 0.0008473221 -0.032639623 -0.06245713
-0.037742738 -0.032220714 -0.05970161 0.08344458 0.0641204 0.06612543 0.028133398 -0.051906534
-0.0037994024 -0.057788227 0.0054823235 -0.07559 -0.076515906 -0.008565634 0.08715463 0.0136439875
-0.07255458 -0.04506492 0.054175857 0.045370843 -0.04135088 -0.060891014 0.01647434 0.064226456
-0.06054501 0.07944511 -0.014798611 -0.06774585 -0.004553403 0.043577705 -0.010983047 0.07601572
0.021400103 -0.08127595 0.016300976 -0.06470962 0.032235373 -0.016967451 0.038444676 0.05235733
0.012929694 0.025881479 0.022558194 0.07787336 0.07891917 -0.08801213 0.026524052 -0.025546165
-0.08535586 -0.060868267 -0.03481261 0.039465558 -0.0750095 -0.08093163 0.081847966 -0.09772791
00000000: 58ac 3ebd 9c20 95bd 0102 7d3d f96b f43c
00000010: 3024 86ba d31e 5e3a 20b1 05bd 0cd3 7fbd
00000020: 2198 1abd def9 03bd ad89 74bd fee4 aa3d
00000030: 8e51 833d c56c 873d 0378 e63c f29b 54bd
00000040: 65ff 78bb 59b3 6cbd 10a5 b33b eece 9abd
00000050: 5fb4 9cbd df56 0cbc 207e b23d 088b 5f3c
00000060: 7f97 94bd fe95 38bd 81e7 5d3d c7d6 393d
00000070: 8a5f 29bd db68 79bd 32f5 863c 2989 833d
00000080: 0bfe 77bd 1eb4 a23d e075 72bc 56be 8abd
00000090: b634 95bb 897e 323d 3df2 33bc 21ae 9b3d
000000a0: 454f af3c 0174 a6bd a089 853c 7a86 84bd
000000b0: 3d09 043d 53ff 8abc 2a78 1d3d a474 563d
000000c0: 11d7 533c 6505 d43c f6cb b83c 117c 9f3d
000000d0: 60a0 a13d b43f b4bd f848 d93c 3146 d1bc
000000e0: 0ecf aebd 0151 79bd ab97 0ebd a3a6 213d
000000f0: 959e 99bd 7cbf a5bd e89f a73d 9225 c8bd

encoder.layers.0.norm1.weight f4 [64]
1.0119799 1.0710812 0.9975331 1.003209 0.98846 1.041356 0.9985268 0.98983645
1.0063144 1.0145415 0.99855256 0.9938741 1.0046633 1.0296253 0.99111396 0.9993703
1.0121132 1.0144293 0.99785066 1.0111128 1.0512671 1.0054542 0.99247617 1.0080162
1.0045775 0.9952963 0.9981078 0.9802004 0.99543905 1.0041062 0.9874366 1.0099744
1.0057374 0.99799955 1.005244 1.0043275 0.9976626 0.9910561 1.0010406 0.9901563
0.99135363 1.0209725 0.9955834 0.994717 1.0019051 0.9969107 1.002674 0.9863507
1.008722 1.0150732 0.9919701 1.0136883 1.0009632 1.0009923 1.006193 1.0067619
1.0073278 1.0473682 1.0104724 0.98494893 0.992054 1.0114888 1.0345213 1.0481644
00000000: 8f88 813f 3019 893f 545e 7f3f 2769 803f
00000010: b70b 7d3f 274b 853f 749f 7f3f ec65 7d3f
00000020: e9ce 803f 7fdc 813f 24a1 7f3f 886e 7e3f
00000030: cf98 803f c3ca 833f a5b9 7d3f bbd6 7f3f
00000040: ed8c 813f d2d8 813f 2473 7f3f 256c 813f
00000050: ec8f 863f b9b2 803f eb12 7e3f ad06 813f
00000060: ff95 803f bdcb 7e3f fe83 7f3f 6aee 7a3f
00000070: 18d5 7e3f 8d86 803f a5c8 7c3f d746 813f
00000080: 01bc 803f e67c 7f3f d6ab 803f ce8d 803f
00000090: d166 7f3f dab5 7d3f 1922 803f e27a 7d3f
000000a0: 5ac9 7d3f 3aaf 823f 8ede 7e3f c6a5 7e3f
000000b0: 6d3e 803f 8a35 7f3f 9f57 803f 7b81 7c3f
000000c0: cd1d 813f ebed 813f c1f1 7d3f 8ac0 813f
000000d0: 901f 803f 8420 803f efca 803f 93dd 803f
000000e0: 1ef0 803f 2910 863f 2957 813f 9d25 7c3f
000000f0: 40f7 7d3f 7778 813f 326b 843f 402a 863f

encoder.layers.0.norm1.bias f4 [64]
-0.0025465111 0.0069230804 -0.006274488 0.00026684458 -0.027061611 0.0040159808 0.020180855 0.012646305
-0.0065008546 0.008760367 -0.010009114 0.011201951 0.010593484 0.0074449936 0.004303305 0.014854552
-0.004489822 -0.0071699456 0.018562302 -0.010819973 0.011725627 -0.01230342 0.0108265 0.0022419076
0.017990075 0.011071565 0.016682705 0.01822048 -0.00074132177 0.0041242577 -0.014413954 -0.0114771025
-0.0046613766 0.0047794124 -0.005414949 0.005423885 -0.01967663 -0.0130717885 -0.013206607 -0.027098479
0.008618656 -0.00646622 -0.008464839 -0.0072630537 0.013041275 0.010577604 0.001019234 -0.011530928
0.0066676987 -0.010472353 -0.018917507 -0.0036761272 -0.009872176 -0.009263118 -0.007871625 -0.0071826116
-0.0058770943 -0.0055843308 -0.013130117 0.009545808 0.0051168096 0.003734312 -0.00061558885 -0.012060023
00000000: 5ee3 26bb 02db e23b 389a cdbb 46e7 8b39
00000010: 50b0 ddbc 7d98 833b 5252 a53c 7332 4f3c
00000020: 1f05 d5bb a487 0f3c 44fd 23bc 6388 373c
00000030: 4b90 2d3c 22f5 f33b bd02 8d3b 8260 733c
00000040: 5b1f 93bb ddf1 eabb f80f 983c 4246 31bc
00000050: d81c 403c 4994 49bc a261 313c f8ec 123b
00000060: ec5f 933c 8265 353c 2baa 883c 1e43 953c
00000070: 4355 42ba c824 873b 8128 6cbc 750a 3cbc
00000080: 76be 98bb 9e9c 9c3b e26f b1bb d8ba b13b
00000090: e230 a1bc 0e2b 56bc 8660 58bc a1fd ddbc
000000a0: 4335 0d3c 96e2 d3bb 1cb0 0abc e9fe edbb
000000b0: 12ab 553c b04d 2d3c d197 853a 38ec 3cbc
000000c0: b67c da3b 3b94 2bbc e3f8 9abc 2eeb 70bb
000000d0: e8be 21bc 55c4 17bc fdf7 00bc 1d5c ebbb
000000e0: a494 c0bb c3fc b6bb b41f 57bc 0566 1c3c
000000f0: e9aa a73b 5cbb 743b 785f 21ba 6797 45bc

encoder.layers.0.norm2.weight f4 [64]
1.0060668 1.0032268 0.9981744 1.0039397 0.9999146 1.0344874 0.99944645 0.9914326
1.0088726 1.0072843 1.0043795 1.0436223 1.0149574 0.980198 1.010306 1.0144374
1.0112141 1.0438569 1.0138543 0.99319446 0.9909803 1.0047535 1.0049601 1.0087125
1.0002221 1.0044677 1.0227103 0.98621136 1.0045143 1.0225887 1.0008311 1.0059371
1.012905 0.99745244 1.0046529 0.98651165 0.99806565 0.9989743 1.0012825 1.0032134
0.99648196 1.0217967 0.99928623 1.0038294 1.0007511 0.991957 1.0018951 0.9994701
1.014265 1.0123587 1.0189703 1.0063611 1.0303154 1.0012548 1.0405945 1.0149937
1.0189447 1.0263005 1.0058813 0.9859905 0.9961153 0.9946161 1.0468119 1.013213
00000000: ccc6 803f bc69 803f 5c88 7f3f 1981 803f
00000010: 67fa 7f3f 156a 843f b9db 7f3f 87ce 7d3f
00000020: bd22 813f b1ee 803f 828f 803f 6a95 853f
00000030: 20ea 813f 42ee 7a3f b551 813f 16d9 813f
00000040: 776f 813f 1a9d 853f fac5 813f fe41 7e3f
00000050: e3b0 7d3f c39b 803f 88a2 803f 7e1d 813f
00000060: 4707 803f 6692 803f 2ce8 823f 5978 7c3f
00000070: ed93 803f 30e4 823f 3c1b 803f 8cc2 803f
00000080: dfa6 813f 0b59 7f3f 7798 803f 078c 7c3f
00000090: 3b81 7f3f c8bc 7f3f 062a 803f 4c69 803f
000000a0: 7119 7f3f 3cca 823f 39d1 7f3f 7b7d 803f
000000b0: 9d18 803f e5f0 7d3f 193e 803f 46dd 7f3f
000000c0: 6fd3 813f f894 813f 9e6d 823f 71d0 803f
000000d0: 60e1 833f 1e29 803f 3332 853f 50eb 813f
000000e0: c86c 823f d15d 833f b8c0 803f e069 7c3f
000000f0: 6a01 7f3f 299f 7e3f effd 853f f7b0 813f

encoder.layers.0.norm2.bias f4 [64]
-0.0021363588 0.004873496 -0.0017666989 -3.4018245e-05 0.0023520335 -0.0005531906 0.0050283363 0.0074213073
0.0012104383 0.0076839854 0.0033682396 0.0065431236 0.008792765 0.0032733341 0.0058535105 0.0055759056
-0.012060442 -0.0077139395 0.022032464 -0.0026165391 0.009102891 -0.015416489 0.0050251847 0.0005991787
0.014943705 0.0026716846 -0.0045722784 0.002484047 0.0012185312 0.0052615176 -0.0096709775 -0.0075461636
0.012525223 -0.008349567 -0.0013222184 0.0026651546 0.01465977 -0.0018474434 -0.006345791 -0.0072991713
0.007691151 0.003037162 0.0065693664 -0.0042412095 0.0062545324 0.013876032 -0.0007879105 -0.009635957
0.0024092733 -0.0019447971 0.0020091285 8.591214e-05 -0.0096627325 -0.0063602165 -0.008309433 -0.0054431153
-0.0030297025 0.0019587488 -0.006448395 0.009153876 0.0021820567 0.0027535304 0.0018411925 -0.012707061
00000000: 2702 0cbb d9b1 9f3b 9490 e7ba d0ae 0eb8
00000010: 9324 1a3b fe03 11ba bec4 a43b 702e f33b
00000020: 92a7 9e3a f1c9 fb3b afbd 5c3b b367 d63b
00000030: 880f 103c 6f85 563b cece bf3b 16b6 b63b
00000040: 2999 45bc 37c5 fcbb 6d7d b43c 3e7a 2bbb
00000050: 4b24 153c 7195 7cbc 4eaa a43b 3412 1d3a
00000060: 71d6 743c 6e17 2f3b 0dd3 95bb 65cb 223b
00000070: 1fb7 9f3a cf68 ac3b 0573 1ebc cf45 f7bb
00000080: 9836 4d3c 9fcc 08bc 4a4e adba e0a9 2e3b
00000090: 882f 703c ea25 f2ba 5af0 cfbb e32d efbb
000000a0: 0d06 fc3b 1f0b 473b d743 d73b d8f9 8abb
000000b0: d2f2 cc3b 4c58 633c c78b 4eba 22e0 1dbc
000000c0: e6e4 1d3b 90e8 feba 95ab 033b bb2b b438
000000d0: 7050 1ebc 5d69 d0bb 4a24 08bc 295c b2bb
000000e0: f98d 46bb 5a5e 003b 0f4d d3bb 24fa 153c
000000f0: d600 0f3b 9374 343b 2b54 f13a 4731 50bc
