assets/snapshots/P1_robust_with_winsorize_transformer.pth (torch, 296457 bytes, 30 tensors)

input_proj.weight f4 [64, 1]
00000000: f1c9 fa3e 1251 a23f 5b15 19bc d119 9f3d
00000010: f044 283d c64c 883f 08fc 1cbf 5d76 3ebf
00000020: db3f 203f 6c15 5d3f c056 96be 3885 ddbe
00000030: e13f b6be 79c2 323f f002 b2bf 74b3 a7be
00000040: 8ce7 72bf 0a24 31bf 1067 38bf 835c 3e3f
00000050: 33d7 b8be c9f4 94bf 10dd 53be 3248 9abf
00000060: 1ac0 b9be 4888 a7be e5e0 0a3f 2f3d 633f
00000070: 2e00 a8bf 3082 44be 912a 363f a237 abbe
00000080: 12c7 4ebd a634 72bf b38b aebe 43bb 1cbf
00000090: 9ca0 cfbe 5831 013f 0de8 0e3f 0c5f 6b3f
000000a0: 9483 5c3f d483 1f3e 8f63 34bf b70f 82bf
000000b0: 4a97 df3c d31e 75be b48a 5d3f f2b5 f63e
000000c0: 7ff7 8a3f b377 1f3e 987c 8dbf fb86 013c
000000d0: ec27 aa3d 6a6a 0bbf d752 07be fae1 3e3f
000000e0: 3b1b 843f 2ef1 7bbf ba01 853f 3345 773f
000000f0: c17c 36bb fc33 943f e201 71bf 5f01 87be
0.48982194 1.2680991 -0.00934347 0.07768596 0.04108137 1.0648429 -0.6132207 -0.7439936
0.62597436 0.8636081 -0.2936306 -0.432657 -0.3559561 0.6982799 -1.3907146 -0.327541
-0.9488456 -0.69195616 -0.7203226 0.7435991 -0.36101684 -1.1637203 -0.20689797 -1.2053282
-0.36279374 -0.32721162 0.5424941 0.88765234 -1.3125055 -0.19190288 0.711587 -0.33440882
-0.050482817 -0.94611585 -0.34090957 -0.6122324 -0.40552223 0.5046592 0.5582283 0.91941905
0.8613827 0.15577632 -0.70464414 -1.0161046 0.02729382 -0.2393754 0.8653977 0.48185688
1.085678 0.15573005 -1.1053648 0.007905717 0.08308396 -0.5445925 -0.13215195 0.7456356
1.032081 -0.98414886 1.0391152 0.96589965 -0.0027845355 1.1578364 -0.941435 -0.26368234

input_proj.bias f4 [64]
00000000: dcbf 113f 339a fb3d b805 f83e fe4c 11be
00000010: 0ff4 f63e 2a91 b8be 5204 083f cbf3 15bf
00000020: 52ec 6e3d 1667 63bf 2b38 913d 30b2 16bf
00000030: 61bd 50bf b866 47bf 0d19 5d3c 44e9 0c3e
00000040: 3f51 3abf 3c0b 623e 4dde 223e 789c ac3e
00000050: 1677 ccbe 1f16 6d3f 3334 99be 902b f8be
00000060: 538a a73e 388c 4f3f 2f2d 133f 3e7c 1e3d
00000070: 62b1 ff3e ab5e 013f c3e8 2abe e99c b4be
00000080: 77c5 50bd 0a3c 0abf 9776 103e 99b1 353f
00000090: a50a 00bc 24d3 1c3d 7ce9 f33e 6eac 5b3f
000000a0: 6c6d 803a 7ede 173e 83e9 3ebf f0d7 38bf
000000b0: f4cd 12bf dd8f 483d edd0 643e b7ab 16bf
000000c0: 2d79 35bf 74a7 7b3c 4e1a 28bd 9045 4f3c
000000d0: da6c 51bf c408 a4be 3137 d1be c639 08bf
000000e0: 0777 383f 3ab9 54bf b1e3 06be b9b2 39bf
000000f0: 7e7f 353f f66f 4f3f e19c dfbe bb81 45bf
0.5693338 0.122852705 0.48441863 -0.14189526 0.48233077 -0.3604825 0.5313159 -0.58575124
0.05833084 -0.8882917 0.07090791 -0.5886564 -0.8153897 -0.7789111 0.013494742 0.13760859
-0.7278022 0.22074598 0.15905114 0.33713126 -0.39934605 0.9261188 -0.29922637 -0.48470736
0.3272272 0.8107333 0.5749082 0.038692705 0.4994002 0.50535077 -0.16690354 -0.35275963
-0.050969567 -0.5399786 0.14107738 0.7097412 -0.007815038 0.038287297 0.47639072 0.8580998
0.0009798235 0.14830968 -0.7457506 -0.72204494 -0.5734551 0.048965324 0.22345324 -0.58855766
-0.70888025 0.015359748 -0.04104071 0.012650862 -0.8180672 -0.32037938 -0.4086242 -0.53213155
0.7205662 -0.83095133 -0.13172795 -0.72538334 0.7089766 0.81030214 -0.43674377 -0.7715108

encoder.layers.0.self_attn.in_proj_weight f4 [192, 64]
00000000: fede 5c3d 62ad dcbd 23e9 953c c327 07be
00000010: 6727 8e3d e87e c3bd 950f 7c3d 7b72 0a3d
00000020: be26 11be 2fb3 15be 29b5 c9bd 8546 0fbe
00000030: d138 113c ed19 583d 6102 7c3d 2ffd d1bc
00000040: e62c 473c 8c7a 063e e3fe 61bd 639a 083e
00000050: d6f7 e73d bb4e 10be e9ac 1f3d 8b6e 563d
00000060: 7966 eabd bd54 95bc 96d6 11bd abfd 093e
00000070: c907 fbbd 42e5 313c be29 063e 323c 8b3d
00000080: 0749 9bbd 8226 4bbb 4e7c 0f3e eda4 65bd
00000090: 3022 15be d0ad 133e 0f8d 80bc 0091 1e3e
000000a0: d2e9 6cbd ae62 22bc 6a46 cc3c 408f 073e
000000b0: 6730 9abd 819e b43d 262a 163e 39a3 03be
000000c0: e59c 5f3d d8d2 fabd 0500 fb3d 299c dabd
000000d0: c28a 5dbd aab4 65bd 76b9 fb3c bd2a 173e
000000e0: 0655 c43d f4ee 193d 588b dcbd 4c5c 85bd
000000f0: 1b2f f0bd 72e9 79bc 0fd7 e83a 1fb9 573d
00000100: 39a3 883d 31b2 893d 2de7 04be dc0b ea3d
00000110: 80fb 0fbd 48f7 c53d 4ff9 00be 7592 a7bd
00000120: c7ba 0abd b43e 52b9 d326 f9bd 19be 9fbd
00000130: b87a 88bd 4a4a b7bd 45f6 7d3d 9847 133e
00000140: 9a5a 903d 8f2e 013e eed0 a3bc 855e 0dbe
00000150: 7003 cebd 9f74 dabc 5e6a 893d a96f 4b3d
00000160: acb0 1e3c 4e78 613c 3e01 bd3d 5a28 563d
00000170: 6f8b 9f3d 4095 693c 5dc6 363d 6120 d23b
00000180: a49b 2e3e 8554 d03c 50c3 2a3c 1654 ea3d
00000190: 357e 8e3d 0cdd c93d f95b 5c39 07ea 713d
000001a0: cd73 70bd 205b 963b 653c 99bd 08b9 183c
000001b0: a977 603d d1e4 aabd 93d1 4a3d 4a32 ed3d
000001c0: c366 edbd b629 a43d d43b bd3c 9282 debd
000001d0: 1da0 3d3d 6df8 acbd d418 ab3d 1829 f6bd
000001e0: 62cd 8fbc 7a5f 41bd 66a9 f83d 81f3 e43d
000001f0: f468 0dbe ade3 08be 1a1e bc3c 8b7d 72bd
00000200: 089b 97bd f69e 5bbd 0af1 fc3c b5ae b43d
00000210: 0800 103e 91d4 813d f315 203e a895 28bd
00000220: 9ea8 02bc 5341 073c 6910 733d 3ed4 8fbb
00000230: fd32 b93d 1188 8abd 32bc e6bd 551d e33c
00000240: 2b08 72bd 4b19 b6bd 3701 223d f0da 07be
00000250: cbc8 b6bd 249b 123e cb2d ba3d 97ef 83bd
00000260: a523 84bc d53f 4ebd 6bb7 edbd 0be6 4cbd
00000270: 62a1 093e 2507 133e 650d 1a3d 3ac4 923d
00000280: 07a2 3bbc c516 473d 3053 7c3d 82a7 923c
00000290: 3981 dfbd dffc f8bd b12e b33d 0edd d63d
000002a0: 0440 f3bc 9b14 813c 4507 febc 64be bcbd
000002b0: 2b40 58bc d37e 943d 1bdb fcbd b031 8bbd
000002c0: e2b6 5d3d 186a ccbd 25ac 1b3e 1c0e c9bd
000002d0: 16cb 10bd ca24 c6bd 05f4 89bc dcfa 0ebe
000002e0: 2f46 e3bd 5ea2 c939 c145 d4bc 1b98 86bd
000002f0: 21fe 15be 5ce5 4abb 3db5 3d3a 011d 99bd
00000300: f7ec cdbd 4f15 b33d a547 f1bc 3d38 e0bd
00000310: de74 c2bb dfe6 97bc 0abe 173d 1614 b83d
00000320: 9f2c 91bd 5a4e c63d 2db7 e4bd 8dbe fd3d
00000330: d506 19bd 227e cfbd b3c5 b6bd 9d85 14be
00000340: 6918 54bd bf14 75bc a82a 5dbd 81d6 04be
00000350: 0502 11bd fddb b43d c8e5 d2bd 50ed 003e
00000360: cd8f 4e3b 1983 15be f4d9 c1bb 104b 033d
00000370: 89bd cbbd 763b 85bd 0698 0bbe fd65 84bc
00000380: e374 b23d 7dc0 e7bd d635 f13d 929d fe3c
00000390: 7164 c7bd 69ce c93d 2a40 073e 6478 b23d
000003a0: 6aa3 8e3a 38c6 9abd a622 e3bd bcd4 8ebc
000003b0: 2482 3d3d 9985 393d b0f7 19be c88c c53c
000003c0: 199e ba3d 54d4 02be c971 673d 9c92 123e
000003d0: 1e5a 11be 98c7 8abd 9485 70bc ef74 a5bd
000003e0: a9aa ddbd 7a00 1abe 407c 91bd 0e92 c93c
000003f0: 24e5 163d 30ae a5bc 84a8 1f3e 7dbc b03d
0.0539236 -0.10775258 0.018299645 -0.13198762 0.06941109 -0.0954569 0.061538298 0.033800583
-0.14174935 -0.14619134 -0.09849007 -0.13991745 0.008863644 0.0527591 0.061525706 -0.025633423
0.012156701 0.13132685 -0.05517472 0.13340144 0.11326568 -0.14092533 0.03898326 0.052351516
-0.11445326 -0.018228883 -0.035605036 0.13475673 -0.12257344 0.010857882 0.13101861 0.06798591
-0.07582288 -0.0030998294 0.14012262 -0.05606549 -0.14563823 0.14421773 -0.015692262 0.15485
-0.057840176 -0.009911222 0.02493592 0.1323824 -0.07528763 0.08819295 0.14664516 -0.12855233
0.054592986 -0.122472465 0.12255863 -0.106743164 -0.054087408 -0.056080498 0.030728083 0.14762397
0.095865294 0.0375814 -0.10768765 -0.06511745 -0.11727735 -0.015253412 0.0017764288 0.05266678
0.06671757 0.067234404 -0.12978812 0.11428043 -0.03515196 0.09666306 -0.12595104 -0.08182231
-0.03386953 -0.0002005052 -0.12165608 -0.0779993 -0.06664032 -0.089497164 0.06200244 0.1438278
0.07048531 0.12615417 -0.019997086 -0.13805588 -0.100592494 -0.026666937 0.06709741 0.049667034
0.009685677 0.013761593 0.092287526 0.052284576 0.07790267 0.014256775 0.044622768 0.0064125513
0.1705156 0.025430927 0.010422543 0.11441819 0.06957666 0.098566145 0.00021015097 0.059061076
-0.058704186 0.0045884997 -0.074822225 0.009321459 0.054801617 -0.083444245 0.04951627 0.115818575
-0.11591866 0.08015768 0.023099817 -0.10864748 0.046295274 -0.08445821 0.08354345 -0.12019557
-0.017553989 -0.047210194 0.12141685 0.11179257 -0.13809568 -0.13368101 0.022963572 -0.05920176
-0.07402617 -0.053618394 0.030876655 0.08822385 0.14062512 0.06339372 0.15633373 -0.04115835
-0.007974772 0.008255321 0.05934182 -0.004389315 0.09042928 -0.06764234 -0.11266364 0.027723948
-0.05908982 -0.08891543 0.03955194 -0.13267112 -0.08925017 0.14316994 0.090907656 -0.064421825
-0.016130278 -0.050353844 -0.1160725 -0.050024074 0.13440469 0.14358194 0.03761043 0.071663335
-0.011452205 0.0486057 0.06160277 0.01790214 -0.10913319 -0.12157606 0.0874914 0.104913816
-0.029693611 0.015756896 -0.031009326 -0.09216002 -0.013198893 0.07250752 -0.123464786 -0.067965865
0.05412949 -0.09981173 0.15202387 -0.09817144 -0.035349928 -0.09674986 -0.01683999 -0.13962883
-0.11097371 0.0003845868 -0.025912168 -0.065719806 -0.14647724 -0.0030959463 0.00072367844 -0.07476235
-0.10054963 0.08744299 -0.029453108 -0.109482266 -0.005934342 -0.018542705 0.03704647 0.08988206
-0.07088589 0.09682913 -0.111677505 0.1238986 -0.03736003 -0.1013148 -0.08924427 -0.14504094
-0.05178109 -0.01495856 -0.05399576 -0.12972452 -0.035402317 0.08831022 -0.102977335 0.12590528
0.0031518817 -0.14600791 -0.0059158746 0.032054007 -0.0994826 -0.06505482 -0.13632211 -0.016161913
0.087137006 -0.11316011 0.117778465 0.031080995 -0.097359546 0.09853823 0.1320807 0.08714369
0.0010882441 -0.075573385 -0.11090593 -0.017435424 0.04626669 0.045293424 -0.15035892 0.024114981
0.09112186 -0.12776309 0.056505 0.1431374 -0.14194533 -0.06776351 -0.014680285 -0.08078944
-0.108235665 -0.15039244 -0.07103777 0.024605777 0.03683962 -0.02022466 0.15591627 0.08629701

encoder.layers.0.self_attn.in_proj_bias f4 [192]
00000000: 37ef 003c 391d 49bc 7164 e33a 1319 ea3a
00000010: 406e 54bc f145 fa3b 0a56 91b8 85d3 9abb
00000020: 7879 9c3b ebe1 f1bb 62a7 8a3c ddf9 c03c
00000030: b1a2 8e3b f2b3 59bc 2e63 ccbb b006 b8bb
00000040: 98e6 f73b 00dd 7e3c 5418 7bbc ab98 92bc
00000050: 8b24 26bb e658 21bb 111a e6ba fc43 4e3b
00000060: 76b4 9bbc af0c 1ebc e7f1 c4ba 8063 9ebb
00000070: 190d d9bc 6146 4ebb 1718 7b3c 3d86 04bb
00000080: d87e b13b 82de 043d f6de ad3b 62fc 743c
00000090: 2543 0a3c 8188 a53b a07c a13b a90d 0c3c
000000a0: e2b5 88bd 5044 a03d 1f1a 49bd 472f aa3c
000000b0: 3f89 f93b 55a5 fb3c 0848 643a 8a28 0c3d
000000c0: 4ba1 36bc 2749 f3bb 4fd1 67bc 58e1 ebba
000000d0: c2d2 44bd d1c6 c33a a412 89bb 244a 44bc
000000e0: 6be9 1dbd 7bc0 fb3b a17e b03c 68f3 24ba
000000f0: a16f 093c 9d6e 29bd b82a 83ba e0c4 b73a
00000100: c02d 6439 f4d8 d3b9 2526 f4bb 8f76 2e3a
00000110: f22a 7c3a c457 9db9 3ad4 8cb9 1216 003a
00000120: c829 f138 e235 4a3a 2c2d 07bb 06e9 b7bb
00000130: b3c5 883b c8ab ce3a c7ca 4dbb b474 3bbb
00000140: a059 ae3a 1698 bbba 1687 4339 51de d4bb
00000150: 9b07 3bba 6f9c 5eba 56d3 c4bb 8552 f8b9
00000160: 7e3c a63a 02d7 97bc f821 153b c9c7 85ba
00000170: 4d89 36b9 395d 7239 65b3 ebb8 1192 bb39
00000180: 5a53 3539 550c 5f39 0f81 a839 b1f7 043a
00000190: b060 9ab9 4a89 fe39 87e0 08b9 7012 a43b
000001a0: 2fa3 b73d 184c c0bd 1de5 993d f5f3 beba
000001b0: f246 ee39 8fff 0f3d 20a2 91bd 0632 e33a
000001c0: 6fdb efbc 1ce4 6039 a985 33ba 3099 a6b9
000001d0: c0f3 c1b9 246b 6ab9 6510 af37 e513 b0b8
000001e0: 3ac2 8fba d141 08ba 2460 57bb 34b1 9039
000001f0: f65c 1a3a 065b c3b9 5652 5d3a e5da 7db9
00000200: 83b2 bcbb 00e5 3d3c 44ec af3c 9437 e239
00000210: a9e1 193a a452 823c 1aac efbb 79f7 4c3c
00000220: 3c76 59bc ac7d 023a 6896 563c df35 21bb
00000230: a797 353c d55c ab3c 9f02 983a 206b 3b3c
00000240: 1a9f 993c b54e ae3c 95c1 ce3c 672a acbc
00000250: c83a bc3b 5de5 10bc 7fff d5bc 4a47 303c
00000260: 4382 afbc b754 753b 60d9 04bc 08b1 ad3b
00000270: e7ff 113c 9aca 64bc 7bca 83bc 693c 6fbc
00000280: c26d 753b a7bd 5bbb a30e 093c b0e4 e03b
00000290: 1631 903b 130d 3cbb d6ab ffbb ec32 953b
000002a0: 8acd e03c 6d10 73bb 17a1 203c 6a6b a8bb
000002b0: 0722 f23c d7d4 13bc 7acf 05bd bb54 9a3c
000002c0: 33f9 97bc 1d57 e93c ab54 0bbc 2d76 a2bb
000002d0: 3bf3 a93c b16b 623c e6b3 1abc 8107 58bc
000002e0: 3657 05bd 8123 05bc 6161 7dba 04e1 443c
000002f0: eb25 0b3c 6848 0bba 1cb6 00bc 811e 003d
0.007869533 -0.012275034 0.001734866 0.0017860256 -0.012965739 0.007637732 -6.930165e-05 -0.004724922
0.0047752224 -0.007381668 0.016925517 0.023556644 0.0043528904 -0.013287531 -0.006237409 -0.0056160316
0.0075653307 0.01555562 -0.0153256245 -0.017895063 -0.002535137 -0.0024619638 -0.0017555376 0.0031473627
-0.019006949 -0.009646579 -0.0015025706 -0.0048336387 -0.026495503 -0.0031475055 0.015325568 -0.0020221614
0.0054167323 0.032438762 0.00530612 0.014952751 0.00843886 0.005051673 0.0049281865 0.008548179
-0.066753164 0.078255296 -0.049097177 0.020774497 0.007615238 0.030718485 0.0008708243 0.03421835
-0.011146854 -0.007424492 -0.014149024 -0.0017996235 -0.048052557 0.0014936571 -0.0041831303 -0.011980567
-0.038552683 0.0076828576 0.021544756 -0.0006292374 0.008388431 -0.041365255 -0.0010007238 0.0014020465
0.00021760818 -0.000404067 -0.0074508362 0.000665524 0.00096194365 -0.00030010764 -0.00026861002 0.0004886101
0.00011499558 0.00077137176 -0.002062629 -0.0056124954 0.004173958 0.0015767748 -0.0031401382 -0.0028603496
0.0013301857 -0.0014312293 0.00018646973 -0.0064962287 -0.0007134617 -0.00084919384 -0.0060066385 -0.00047363728
0.0012682823 -0.01853514 0.0022755843 -0.0010206635 -0.00017408021 0.00023113647 -0.00011239088 0.00035776247
0.00017292556 0.00021271531 0.00032139613 0.0005072309 -0.00029445207 0.00048548944 -0.00013053614 0.0050070807
0.08966672 -0.09389514 0.07514403 -0.0014568554 0.00045447756 0.03515583 -0.07111001 0.0017333634
-0.029279439 0.00021447282 -0.0006848225 -0.0003177612 -0.00036993437 -0.00022355892 2.086926e-05 -8.3960396e-05
-0.0010967918 -0.00051977957 -0.00328637 0.00027597847 0.0005888486 -0.00037261116 0.000844275 -0.00024209505
-0.005758585 0.011590242 0.021474965 0.00043147488 0.0005870113 0.015908547 -0.0073142173 0.012510174
-0.013272818 0.0004977833 0.013097383 -0.002459876 0.01108352 0.02091829 0.0011597461 0.011439115
0.018752623 0.021277765 0.025238791 -0.021016313 0.005744312 -0.008843747 -0.026122807 0.010759184
-0.021424418 0.0037434527 -0.008108467 0.005300645 0.0089111095 -0.01396432 -0.016087761 -0.014601805
0.0037449454 -0.003352979 0.008365306 0.006863199 0.0044003827 -0.0028694316 -0.007802467 0.0045531895
0.027441759 -0.0037088648 0.009804032 -0.005139758 0.029557241 -0.009022913 -0.03266857 0.01883923
-0.018551445 0.028483922 -0.008504073 -0.0049579353 0.020745864 0.013819621 -0.009442305 -0.013185383
-0.032553874 -0.008126141 -0.00096656947 0.0120165385 0.008492927 -0.00053132186 -0.007855918 0.03127909

encoder.layers.0.self_attn.out_proj.weight f4 [64, 64]
00000000: 7f52 8a3c c05f 6c3c ae32 f53d 9eb5 68bd
00000010: 4e6b 0d3b ba53 bebd ff42 dabc 143e 57bd
00000020: e10a 3b3d e647 623c 4917 24bd b8bc edbb
00000030: 8f93 2dbe 3784 333d 7bf1 163d 87f0 f1bc
00000040: 0f72 a1bc 3388 c03b c3f6 f0bc 2d69 1f3e
00000050: 73cc b43c 17e5 77bd 01d3 a6bd 369f 8a3d
00000060: 7089 0ebc 3591 2abc f682 0d3c b149 26be
00000070: 25ba 843c c2b1 d6bd 8a45 8abd ccc5 88bc
00000080: 4660 32bd 4f7d 143d cef7 c73c cbfe 86bd
00000090: b0b3 ce3d 40dd b3bc 625c a43c d64c c7ba
000000a0: 7adb e43d 1d32 d1bc 3ea1 36bd 9c86 c8bc
000000b0: fabf c03c aca8 65bd 5f2f 073c ef19 44bd
000000c0: 153f e83c c0c6 f83c 7e42 a63d a354 05bd
000000d0: 3401 53bd b680 5ebc 9027 143c 5078 0dba
000000e0: 61a1 533d b48e 03bd 9319 323d a7fb 36bd
000000f0: 3ea6 e73d 8692 e0bc 9ca7 75bd dcac c2bd
00000100: f776 71bc e6c7 08bd 5989 4fbd b9fe c6bc
00000110: 9989 56bc 04fd 8639 3045 8b3c 5138 ba3c
00000120: 846d b9bb f64d f93b da76 ddbd d1a4 ea3c
00000130: 40c5 803d 4037 c1ba 8acd a63c 5c72 28bd
00000140: 94a7 2bbc 0349 e43b 884b d23b 0cfb a6bc
00000150: 8eb1 27bc 25e4 44bb 0191 413d 6aec babb
00000160: f2bc db3c df86 29bd a338 87bd 9f03 5bbc
00000170: 7653 08bc e3b3 1bbd 3794 48b9 e865 4a3b
00000180: 9df1 28bd 84b2 77bb 63e8 973d 64b9 533d
00000190: cf81 483d 19da 8d3b 2ddd 33bd 18b0 953c
000001a0: 8681 8bbd c4ac 863b f1ed d0b8 cfc5 a23c
000001b0: 17f2 833d fdd9 abbc eda5 26bc 30b3 dfbb
000001c0: 0b2b dabb 34ce 903c e99a 803d f628 113d
000001d0: ad11 c3bb 8203 f23a 3c21 ebbb 8063 dc3c
000001e0: 5eaf 35bd 66f8 853c c057 103d 4b84 ed3b
000001f0: c286 aebc 44dc 4e3d 364b edbc 47ab 2a3c
00000200: ecd4 de3c 158d 8f3d 11b4 12be 348d e43c
00000210: d24e ce3c cdc5 333d ea06 44bd 3896 75bb
00000220: cb08 063d d96a 00bd eb45 263d beaf 3f3e
00000230: 7346 d03d 1e67 98bc 9090 c2bc 5d3c ab3d
00000240: 0082 383c 0901 04bd e97f 62bd ebc9 b33d
00000250: 2103 c83b 2f05 f23a abbb 583d 88cf bcbc
00000260: a9e4 9dbd 9ebf f53c f4cb 43bd 7b29 863d
00000270: d9dd a43b 4e88 1c3c 9358 f53a 3b12 aebd
00000280: a3ea f83d 637f cbbc 7690 9ebd 5327 d4bc
00000290: 724d 1a3c 4fce 103b 247f 353d 573b debc
000002a0: ac1f 1ebc d975 10bd 25e4 ad3a a5ba 44bd
000002b0: 9ca9 d13d 3065 8bbc 97a3 adbd 6fad 5d3d
000002c0: 4d45 86bc a9fe 64bc 98a4 8abd 03fc 8bbd
000002d0: abe4 4d3d dfbb 82bc cd03 30bd 19d0 723c
000002e0: 7c2d 0abd 8853 853d c444 e0bd d1e7 c5bc
000002f0: a131 d23c 571e 033c e189 debc 1483 803d
00000300: 9157 9b3c b80c 98bc 5977 2e3d 80ab 863d
00000310: ac13 a3bc c44d 07bb 42d4 b3bd df09 bebc
00000320: 75fe 5e3d 992c 623b 7b4e 92bc 955f 82bc
00000330: 12d2 ab3c fb63 243c bee6 83bd d1be 413d
00000340: 9f7c cd3c 3c23 66bd a68d 763c 9a87 2ebd
00000350: a41e f2bd d0b8 553d cf2c c0bc f3ad 453c
00000360: f124 2d3c 01d0 d8b9 42b9 6dbd 1563 183e
00000370: e242 433c 2e32 5c3d b742 4d3d bc43 233d
00000380: 8152 8dbc 318a 6dbd 053e 0fbd b441 123c
00000390: fda4 d9bc a56d 093d b12d 9e3d ec78 69bc
000003a0: 66fd 243e c5dd 42bd 6bf5 44bc 2816 18bd
000003b0: 5ce3 443e 8d55 383c 0873 16be 8eaa 583c
000003c0: d12d b5bd 1ef0 0ebd 301d 933d d18f 46bc
000003d0: 076c 5cbd 5240 563d a85c f33c 7396 58bd
000003e0: db84 653d 5dbf 9bbc c3fe 82bc d9af d53c
000003f0: 7e71 14bd 4d1b e83c cd97 223d 3166 72bd
0.01688504 0.014427125 0.11972557 -0.05681383 0.002157885 -0.09293313 -0.026643274 -0.052549437
0.04566467 0.013811087 -0.04006127 -0.007255163 -0.1695082 0.04382726 0.036851387 -0.029533638
-0.019707708 0.005875611 -0.02941454 0.15567465 0.022070145 -0.06052121 -0.081457146 0.06768648
-0.00869976 -0.010410597 0.008637181 -0.16239049 0.016202042 -0.10483123 -0.06751545 -0.01669588
-0.043548845 0.036252316 0.024410155 -0.06591567 0.100928664 -0.021956086 0.020063583 -0.0015205394
0.11174674 -0.025536591 -0.044587366 -0.02447825 0.023529042 -0.05606906 0.00825104 -0.047876295
0.028350392 0.030368209 0.08118151 -0.03255142 -0.05151482 -0.013580492 0.009042636 -0.0005396651
0.051667575 -0.032118514 0.04348142 -0.044673588 0.11311005 -0.027413618 -0.059974298 -0.095056266
-0.014737836 -0.033393763 -0.050668094 -0.024291383 -0.013094329 0.00025746983 0.017000765 0.022731932
-0.0056588072 0.0076081706 -0.10813685 0.028643044 0.062876225 -0.0014741197 0.02036168 -0.041124687
-0.010476965 0.0069667115 0.0064176954 -0.02038338 -0.010235203 -0.0030043211 0.047257427 -0.0057044523
0.026823495 -0.04138839 -0.066025995 -0.013367563 -0.00832068 -0.03801335 -0.000191287 0.0030883495
-0.041246045 -0.0037795613 0.07417371 0.051690474 0.04895192 0.004328978 -0.0439121 0.018272445
-0.06811814 0.0041099507 -9.962533e-05 0.019869713 0.06442659 -0.020977968 -0.010171396 -0.0068267807
-0.006657963 0.01767645 0.06279547 0.035439454 -0.005953035 0.001846418 -0.0071755927 0.026902914
-0.044356696 0.016353797 0.035239935 0.0072484366 -0.021304492 0.05050303 -0.028966527 0.010416812
0.027201138 0.07009331 -0.14326502 0.027899362 0.025184069 0.04388981 -0.047858156 -0.003747357
0.03272323 -0.031351898 0.040594023 0.18719384 0.10169687 -0.018603858 -0.023750573 0.08361123
0.011261463 -0.03222755 -0.055297766 0.08778747 0.0061038886 0.001846468 0.05291335 -0.023048177
-0.07709629 0.029998597 -0.047801927 0.065508805 0.005031329 0.009553982 0.0018718414 -0.08499571
0.121541284 -0.024841016 -0.077423975 -0.025897657 0.009417878 0.0022095626 0.044310704 -0.027127905
-0.009651106 -0.03526864 0.0013266845 -0.04802956 0.102374285 -0.017016023 -0.08478468 0.054120477
-0.016390467 -0.013976731 -0.06769675 -0.06835177 0.050266903 -0.015958725 -0.042972375 0.014820122
-0.033734784 0.06510073 -0.10950616 -0.02415839 0.02565843 0.008002839 -0.027165355 0.06275001
0.018962653 -0.018560752 0.042594288 0.0657568 -0.019906841 -0.0020645717 -0.08780719 -0.023198066
0.054441888 0.0034511446 -0.017859688 -0.015914718 0.020974193 0.010033603 -0.06440495 0.047301117
0.025083838 -0.056185946 0.01504842 -0.04260979 -0.118222505 0.052178204 -0.023458866 0.0120653985
0.01056789 -0.00041353705 -0.058038004 0.14881547 0.011917802 0.053758793 0.050112452 0.03985952
-0.017251255 -0.057993118 -0.034971256 0.008926798 -0.02656793 0.03355183 0.07723559 -0.014250021
0.16112289 -0.047574777 -0.012021403 -0.037130505 0.19227356 0.011250866 -0.14692318 0.013224257
-0.088466294 -0.034896962 0.071833014 -0.012119249 -0.05381396 0.052307434 0.029707268 -0.052877855
0.056034904 -0.019012148 -0.01599062 0.026084827 -0.036241047 0.02833333 0.03969555 -0.05917949

encoder.layers.0.self_attn.out_proj.bias f4 [64]
00000000: d6dd 12bc 3129 ecbc 1076 a1bd 8731 bcbd
00000010: d855 45bd 8949 78bc 9006 26bd d881 3b3d
00000020: 8bc7 d73c 88bd 163c b264 93bb 18b8 ab3c
00000030: 9e86 733c d516 5abc 5480 37bc fc32 0ebc
00000040: a7b0 4a3c 53b4 643d 211b a9bb e33d 8e3c
00000050: d2d5 d93d 0ae5 d63c 10c8 1a3c 1bc3 85bc
00000060: 3f7b 9dba 1e66 4dbd 6ba1 d9bc b3c7 09bb
00000070: 0758 013c 6481 35bc c9ef 853b ab7d bfba
00000080: dcb9 49bd 5d36 8c3c 7d4d 133d b7fa 443d
00000090: bfd8 783d 084b 403b 6f0c 72bd 5236 2e3c
000000a0: 2eef 19bd 8a34 64bd 8e4c 863d 5b83 583c
000000b0: 61b6 233d f8c3 91bc 3ba5 063d 865e 13bd
000000c0: f991 c83c 2fe1 99bd 41fa d43c 128b 40bc
000000d0: ce8b 07bd 5d36 c0bb 57e3 893d 9cba 58bb
000000e0: ca88 663d 7526 3a3d 4532 353c 3947 873c
000000f0: b3a9 623d aff5 303c 3696 88bb 3ac8 e73b
-0.008964023 -0.028828235 -0.07883847 -0.09189134 -0.04817757 -0.015154251 -0.040533602 0.045778126
0.026340267 0.009200461 -0.004498088 0.020961806 0.014863638 -0.013311108 -0.011200029 -0.008679148
0.012371219 0.055836033 -0.0051607047 0.017363494 0.10636486 0.026232261 0.009447113 -0.016328385
-0.001201488 -0.050146215 -0.026566228 -0.002102357 0.0078945225 -0.011078212 0.0040874225 -0.0014609596
-0.049249515 0.017115766 0.03596257 0.048090663 0.06075358 0.0029341597 -0.05909389 0.010633068
-0.037581615 -0.055714168 0.065575704 0.013214911 0.039968852 -0.01779364 0.03287242 -0.035978816
0.024483668 -0.075136535 0.025998237 -0.011751907 -0.033092313 -0.0058658556 0.06732815 -0.0033070212
0.056282796 0.04544683 0.0110593485 0.016513454 0.05533762 0.010800763 -0.004168297 0.0070734294

encoder.layers.0.linear1.weight f4 [128, 64]
00000000: d61a e2bc efdb 43ba f95d 413d 3493 00bd
00000010: baa3 27be 45f4 2bbd e92b af3d 0baa f1bc
00000020: 9dca 5a3d 9f41 74bd fe7e 103c 1229 053e
00000030: b8ce 79bc b3f9 9dbd fb60 c7bd 67e0 e33d
00000040: a220 583d cfa0 ca3d b93e 253e 2628 6c3d
00000050: e741 4ebd 08e1 83bd 35df 563d 500b c83c
00000060: 8874 11bd 5a71 af3c e3e4 4c3d f3bc 5f3d
00000070: d201 6d3d 4fd7 02bd 337c 603d fa26 70bd
00000080: 505c 113e 40a8 3dbd a375 1bbc 4fbe 273c
00000090: a59c 34bd 671e 9cbd a807 86bd 816c eb3d
000000a0: acd8 7d3d 777e 28be 0b57 0ebd b28d d03d
000000b0: 8626 f13b 1056 25bb 4a07 c0bc f95d 4cbd
000000c0: 5a9b e33c 27f4 193b 1b5e 48bd dd06 f23d
000000d0: c747 dc3d 6faf 23bd 2b58 9dbd 0104 1abd
000000e0: bf86 93bd 14dc dbbc 4f19 d13d 95bd 973d
000000f0: 24f0 b5bd dc66 3f3c 282a acbc af37 a0bd
00000100: 1ae3 85bd f33f 153b e4b7 4bbd c610 0c3e
00000110: 6cd9 ee3d 7d0f 8e3c 1a20 eb3d 0385 b0bd
00000120: c9b1 2b3d caef 023d b146 4f3e b769 0dbe
00000130: dcd5 9abd 0481 503d 6e2b 96bd e745 8b3a
00000140: 8927 163e e35b 953d d829 80be a583 db3c
00000150: d10f 28be c50e 63bd 9f50 d73d 9b1f 00bd
00000160: b308 093d c031 db3d c8b8 d5bd be36 a6bd
00000170: 03f2 b7bd 07ef 013c cc52 b8bc ed65 fa3d
00000180: b0e0 823e 7740 0cbe 6879 923d b1d7 ce3c
00000190: 2287 71bd 083e 02be 5630 03be 01f0 bfbd
000001a0: dfe8 71bb b572 323e 0e11 8c3d b62d a23d
000001b0: ef63 36bc 77bc 043e 9da4 75bc 24a5 8c3d
000001c0: 0d1a 783b fb80 c73e 814a 323d 7239 643d
000001d0: ab6e 5cbd c073 5abd 4060 233c d02e a93b
000001e0: 77d5 adbd 6c40 a03d 0a4f c03b e189 6dbd
000001f0: 73f5 34be 4672 8e3d 1962 1e39 bbbc 353d
00000200: b281 13be 9a3c 523d 0b65 71bc 19f1 3d3e
00000210: 7d68 97bd 8634 603d 7f17 ef3b e5a8 a63d
00000220: a9ac f7bb f110 553e 5350 ee3c 03a0 53bb
00000230: 6625 223d fe36 023e c0f8 05be b115 2ebd
00000240: c0fd 5f3c 4ec9 c1bd fbbd 21be 93e6 db3d
00000250: c477 2a3d a341 1dbe f993 dd3d 39c6 0ebd
00000260: b91b 943d 35d7 043d 351d 64bd b6ca 033d
00000270: b744 80be 8d8f eabd 29c4 e93d 72ae 8c3d
00000280: d963 093e a809 b4bd ecbc 7cbd 655c 30be
00000290: d1fc 5cbd fe00 0fbc 5752 23be c9a4 a9bd
000002a0: 1ad2 003d f187 ebbc 394f 3a3d 37ca 103e
000002b0: 3010 1e3e 35fb e8bc 3c7f cabd 40db 37bd
000002c0: bd64 223e 10d8 fdbd 2506 19be 8c46 803d
000002d0: 0ba3 db3c d8f1 32bd e8be ad3d c61a 043e
000002e0: 6fa6 80bd 6e1f 13bd 651a 36bd 16cf 1e3e
000002f0: 6ca6 01be f307 27be 5830 13bd e552 3bbd
00000300: 8016 0fbe f3b2 6a3d 84c1 f23d b869 753e
00000310: 7e0c a6bc 0892 37bd 2c83 163e 5f58 bbbd
00000320: 956f c73c 7559 52bd b51a 78bc 397b ef3c
00000330: a26c f43d a459 4c3d c9f9 58bd 8664 0b3d
00000340: 4ef8 57bd 8760 c03c dbda 28bc 7272 87bc
00000350: 319b 31be 3794 8abd 6f70 d03d b5f7 a03d
00000360: 3844 51be fd22 20ba 0cef d8bd 36b1 ca3c
00000370: 8b70 c53d f414 873d 56a6 bbbd 5251 ef3d
00000380: 7091 503e 244b cb3d 5c4c 013d 08c3 07be
00000390: a79e 37be d296 5abe 982f f2bd cbac be3d
000003a0: e84f 8b3b 4d0c 9c3d 86db b0bd 541d 003e
000003b0: fb3b 10be 5458 ef3d acdb 9a3d 2682 f23d
000003c0: ab6e c2bd a04d af3e 6c49 0abe 9133 bebb
000003d0: 4aa6 70bc 1a51 89ba 8e4f eaba 7994 153e
000003e0: 91f3 aa3c 7e0b f9bd 6467 bc3d 3a31 75bd
000003f0: 11fb ddbc 5048 c2bd 9c7f 70bd b982 a8bd
-0.027600687 -0.00074714323 0.04720876 -0.031390384 -0.1637105 -0.041981 0.08553297 -0.029500028
0.053415883 -0.059632894 0.00881934 0.13003948 -0.0152470395 -0.07713642 -0.097352944 0.11126786
0.052765496 0.09893953 0.16137208 0.057655476 -0.050355818 -0.06439406 0.05245896 0.024419457
-0.035511523 0.021416355 0.05002297 0.054623555 0.057863064 -0.031943616 0.054805946 -0.05863092
0.1419537 -0.046303034 -0.009488496 0.010238244 -0.0440947 -0.07622986 -0.06544429 0.11495305
0.061974213 -0.16454493 -0.03475098 0.10183276 0.0073593287 -0.00252283 -0.023440976 -0.049894307
0.027784038 0.0023491473 -0.04891787 0.11817715 0.10755878 -0.03996223 -0.07682832 -0.037601475
-0.07203435 -0.02683834 0.10209905 0.07409207 -0.08883694 0.011682238 -0.021016195 -0.07823121
-0.06537457 0.0022773712 -0.04973592 0.13678274 0.11662564 0.01734137 0.11480732 -0.0861912
0.041917596 0.031966962 0.2024181 -0.13809858 -0.07560322 0.05090429 -0.07332502 0.0010625691
0.14663519 0.072929166 -0.25031924 0.026796171 -0.16412283 -0.055434007 0.10513424 -0.03128014
0.03345556 0.107028484 -0.10435635 -0.0811591 -0.08981707 0.007930524 -0.022500418 0.12226472
0.25562048 -0.13696466 0.07152063 0.025249334 -0.058966763 -0.12718976 -0.12811407 -0.09371949
-0.0036912484 0.1742657 0.068391904 0.07918875 -0.011132224 0.12962519 -0.01499286 0.068674356
0.0037857324 0.38965592 0.043528084 0.055718847 -0.05381648 -0.053333044 0.009971678 0.005163051
-0.08487981 0.078247875 0.005868797 -0.05799282 -0.17671756 0.0695539 0.00015104598 0.04436944
-0.14404944 0.051327325 -0.014733563 0.18549003 -0.073929764 0.05473759 0.007296502 0.08137683
-0.0075584245 0.20807244 0.029091036 -0.003229142 0.039586447 0.1271629 -0.13083172 -0.042501155
0.013671339 -0.09462224 -0.15795128 0.10737338 0.041618124 -0.1535707 0.10819239 -0.03485701
0.0723185 0.0324318 -0.055691916 0.032175742 -0.25052425 -0.114531614 0.11414368 0.0686921
0.13416995 -0.08790904 -0.061703607 -0.17222746 -0.053952042 -0.008728264 -0.15949379 -0.082833834
0.03145037 -0.028751345 0.04548571 0.14139639 0.15435863 -0.028440097 -0.09887549 -0.044886827
0.15858741 -0.12394726 -0.1494375 0.06263456 0.026811143 -0.04368767 0.08483678 0.12900838
-0.06281745 -0.035918646 -0.044458766 0.15508685 -0.12661141 -0.16311626 -0.035934776 -0.04573335
-0.13973427 0.057299566 0.118533164 0.2396611 -0.020269629 -0.044817 0.14698476 -0.09147715
0.024345199 -0.051354844 -0.015143086 0.029233562 0.119347826 0.049890175 -0.05297259 0.034031413
-0.052727036 0.023483528 -0.010306085 -0.016534064 -0.17344357 -0.06766551 0.10177695 0.07859746
-0.2043618 -0.0006108729 -0.105924696 0.024742704 0.096406065 0.06595793 -0.091625854 0.116854325
0.2036798 0.09926441 0.031566963 -0.13257992 -0.17931615 -0.21346596 -0.11825484 0.093103014
0.004251469 0.07619534 -0.08635621 0.12511188 -0.1408538 0.11686769 0.0756143 0.1184123
-0.094937645 0.3423891 -0.1350457 -0.005804487 -0.014688084 -0.0010476441 -0.0017876492 0.14607419
0.020868095 -0.12160395 0.09199408 -0.0598614 -0.027097257 -0.09486449 -0.058715448 -0.08228058

encoder.layers.0.linear1.bias f4 [128]
00000000: a2c1 313d 3fb8 1fbd b721 0abd 525e 15be
00000010: 747c 65be b894 52bd 66f8 13be ea73 083b
00000020: bf65 ca3c 8656 dbbd 52c4 ebbd 58bb c83d
00000030: e64e 08be 8d76 d63c 79a0 fe3c da7b 153d
00000040: 8d82 b53b 2fa2 253d 2722 4bbd b6df 3abd
00000050: db30 323d 4c1a 9d3c 1148 273d 477e ffbb
00000060: 7094 9fbd 0ed1 1abe a13f d93d 6047 563d
00000070: 690a 613d 4ddd 15be 2271 12be 8986 883d
00000080: 6f40 03be e1fa 76bd 1aa7 7bbd e72b 8fbb
00000090: d111 83bc 3b22 c3bd 439e 14be 121d 143d
000000a0: b69a 833d 7baf f8bd 947c 153d 4d46 393d
000000b0: 334e e0bc 894b e3bd f6f0 07be 10db 22bd
000000c0: b52e b73d b630 943d feef 1bbe 2a8e e3bd
000000d0: d17b 4bbd 20b9 3f3d 4977 0ebb a62c 13be
000000e0: 06ac 24bb c793 2ebe 3e1b 4c3d 5793 7bbc
000000f0: c4f7 ec3c 3ead c03c ac42 513b bfff c63c
00000100: 17e9 13be ee54 bfbd 9d19 8cbc 0d79 34be
00000110: e3a0 2d3d 3146 dfbd 3256 a93c 6f42 41be
00000120: 2d7e 203d ebe2 71bd 5b56 e7bd e27e a1bd
00000130: 6d44 7dbd a9d5 4a3c 9129 b33c 2936 e6bc
00000140: 3d1b 433b bd91 3cbd 4f93 9c3c e157 43ba
00000150: 85d2 31be 2a18 12be 3f1f 20bb e622 27be
00000160: 2c1f c1bc f9d5 b2bd 94b7 afbc 93f2 98bd
00000170: 6118 43be 9568 f1bd 5f62 00be e89d 983c
00000180: d53a 193d f197 1cbe 1269 53bd f79b 653d
00000190: 9e81 82bc e5a9 bbbd a97c e9bc 32cd dc3c
000001a0: 10a9 973d 1d1d 31be 4773 2fbc 1815 43bd
000001b0: 9323 e93d 9056 09be 1ce4 393d a59e c8bd
000001c0: 8921 293d 9303 bb3d 3c7a a33d a9ae 1b3c
000001d0: 2506 1cba b7c2 f83c 1eb5 623c 91d0 05be
000001e0: 6016 d6bd db1c 12be 2e3a d8bd 895e 243e
000001f0: f86c 39bd 533d 50bc b2d3 27bd 73a1 5f3d
0.043397553 -0.03899407 -0.03372356 -0.14586762 -0.22410756 -0.05141136 -0.14450225 0.0020821043
0.02470672 -0.107098624 -0.115120545 0.09801358 -0.13311347 0.026179576 0.031082379 0.036495067
0.0055392445 0.040437873 -0.049593117 -0.045623504 0.043503623 0.019177578 0.040840212 -0.007797036
-0.07791984 -0.1511881 0.106078394 0.052314162 0.05494157 -0.14635201 -0.14300969 0.066662855
-0.12817548 -0.06029785 -0.061438657 -0.0043692472 -0.015999706 -0.09528013 -0.14513497 0.036160536
0.06425993 -0.12142845 0.03649576 0.04523306 -0.027381038 -0.110983916 -0.13275513 -0.039759696
0.089444555 0.072358534 -0.15228269 -0.111111 -0.049678627 0.04680741 -0.002173858 -0.14372501
-0.0025126948 -0.1704856 0.049830668 -0.015354953 0.028926738 0.023520108 0.0031930609 0.024291871
-0.14444385 -0.09342371 -0.017102057 -0.17624302 0.04238976 -0.1090206 0.020670984 -0.18872999
0.03918283 -0.059054296 -0.11295768 -0.07885529 -0.061832834 0.012380042 0.021870406 -0.028101997
0.0029770874 -0.046037424 0.019113211 -0.00074517546 -0.17365463 -0.1426703 -0.0024432687 -0.16321906
-0.023574434 -0.08732218 -0.021449842 -0.07468142 -0.19052269 -0.117875256 -0.12537526 0.018629983
0.037409622 -0.15292336 -0.051613875 0.056056943 -0.015930947 -0.09163264 -0.028501825 0.026953313
0.07405293 -0.17296262 -0.010708637 -0.04762754 0.11383738 -0.13411927 0.045383558 -0.09795884
0.041291747 0.09131541 0.07982299 0.009502091 -0.00059518433 0.030366285 0.013837127 -0.13067843
-0.104534864 -0.1426882 -0.10557972 0.16051687 -0.045269936 -0.012709933 -0.040973373 0.05459733

encoder.layers.0.linear2.weight f4 [64, 128]
00000000: d878 e53c 672c 84bc f28a 8a3d 9b9a 6d3c
00000010: 45d3 823d bc1b 293c 3396 50bd e45e 013d
00000020: 3b55 b2bd 4fad 52bc 2837 adbd 8273 7c3e
00000030: ec39 aabd 810c 32bd 419c 5a3d adc1 89bd
00000040: 4e04 073d 2764 8dbb 6830 e6bd 9981 7e3d
00000050: f152 54bd 9419 033e e2c4 63bd 6390 17be
00000060: 3b00 7f3b f164 983b 77f2 a6bd 9f4f ed3d
00000070: 0bfa bbbc a6d4 ac3c 4b60 84bc 99b9 bbba
00000080: 0d87 ec3b eaab ddbd f8c3 b13c e767 8bbc
00000090: ffb6 ee3b 773c 9c3d d01e 083e 100a 233e
000000a0: 4016 24bd 4b95 b4bb 993b c03d cf6c 73bb
000000b0: 5337 03be 04b7 b63b b7c2 9fbc b7ea 923d
000000c0: 1d27 bbbd 9b11 a13c 7a82 a33b 2da0 97bd
000000d0: 3e69 aebd 136f 773c 6346 74bd bbb8 7d3d
000000e0: a931 ce3d 7ee8 373d 0a1b 11bd 3e05 88bd
000000f0: 6b47 923c 38e2 a7bc 25dd 8d3d 1a31 ae3c
00000100: e446 043d e374 d4bc f7e6 53bd 7a37 103d
00000110: 2a05 93bc d4c8 5ebd 5c30 803d 9479 233e
00000120: c195 98bd 3a4c 063d 92a6 303d af38 a83d
00000130: a9b6 b5bd 586a 843d 34e4 083d 12a4 a93d
00000140: 70ed 94bd 0361 a73d ea22 76bb 1556 06bd
00000150: b04b cabd beed 653d 7ce9 f53d 3e37 17be
00000160: c2a0 9abd 3ff8 7b3c 5ab0 91bd 4143 b13d
00000170: 2ff0 b73d 2bcd 06bc 7822 6abd 7116 a93d
00000180: bb59 a93d cf99 ef3c f02c 943d 4036 08bd
00000190: 3f6a a53c 3ad2 aabc 906c 153d 2ac0 e9bd
000001a0: 4bd0 5dbc 0404 e43d 9d06 973c bb7a 12bd
000001b0: d04d 2b3e 4c28 f73d aa90 d6bc 7c1d 4a3d
000001c0: e05c 48bc 6c75 9a3d 0043 b4bd b96e 9c3d
000001d0: d957 b73d 65f8 1bbd c75b f6bd 0e4d 85bd
000001e0: c8e4 09bb 1bcb 3f3e 0ab1 b93c a0c5 8b3b
000001f0: f080 d8bd 5c1b 9a3d 7d6f 813d 74b6 a9bd
00000200: 27a1 82bd 26c6 f0bc 7a6c dfbb 2e90 ad3d
00000210: d76b 3c3d 32bc 8bbd fae8 3cbe b6c8 f2bb
00000220: ec48 1bbe b55a bb3d 2fe1 b33d f246 c93d
00000230: 95a0 a7bd f529 21be 815a c93d afc3 90bd
00000240: 197c 073d 96d3 1bbd a550 2fbe 3141 ef3c
00000250: 542b 0dbd 65ab fb3d 1b51 0f3d 3548 a0bd
00000260: d04e 713d fc43 7bbd 2c77 c23d 5455 17bd
00000270: c870 763c acd5 55bd d936 ec3d 2ee1 873c
00000280: 2660 cdbd b23e e9bd 8317 9a3c d321 163d
00000290: 24c7 b63d c1fa 0ebe 0fe3 b93d 74b9 21bd
000002a0: 765a 0dbd e9f7 92bd 682e 37bc d905 dabd
000002b0: 81df 24be 7c02 413d ef1a 5b3b 7390 623d
000002c0: 8380 ba3c cfb5 60bd b924 01bc ae7b f4bd
000002d0: fd6a 3abe c3da 4fbd ba7c a4bb 5a2c e53c
000002e0: ac29 0dbd ccbf 8ebd c69a 8bbd bd29 6bbd
000002f0: 01e8 7b3c dab2 36be f5d2 ae3d 41fc 32bd
00000300: 1952 283d c057 cdbd e58d 8f3d 7c9d 0bbe
00000310: 610c 79bd fa7e 55bd 0116 20bd 22d5 303d
00000320: b4b7 d8bb f2b2 a4bd c554 603c a8fc 4dbc
00000330: 9c7e 163e 5a23 d53c 0fd4 98ba 8914 20bc
00000340: d58a d93b 35a7 5e3e 47ca 99bc a3ee 473d
00000350: d46b 6bbd 2c71 93bc 64ba 003e a003 423e
00000360: cbeb 05be 8c4e 893d 07a6 2cbc 1046 8ebc
00000370: f095 82bd 4713 463d 884b 8ebd f4b2 21bd
00000380: da29 0f3e 861c f2bb 9a84 e83a ee5f b13c
00000390: 11e5 fe3c 0721 e1bd ce4d 123c 9252 fb3c
000003a0: a2a7 263d 2bb9 d1bd 6820 ae3d 2e9c 06be
000003b0: 4717 183e 4cf4 7f3d 0ac6 a2bd 6851 d9bc
000003c0: 84e0 adbd 907c 9b3d 5eba edbc d02c a5bd
000003d0: 21de 47bd 7f51 463d c9d1 67bd a389 1fbe
000003e0: 6aa5 653d 1214 833d 4e4c d73d c739 82bd
000003f0: c16e 3b3d 511b 34bd 5701 4b3e f1a9 c43e
0.028011724 -0.016134454 0.06764783 0.014502193 0.06387953 0.010321554 -0.05092449 0.031584635
-0.08707663 -0.012858703 -0.08457786 0.24653438 -0.08311829 -0.043468956 0.05337167 -0.06726394
0.03296309 -0.0043149176 -0.112397015 0.062135313 -0.05183691 0.12802726 -0.055607684 -0.14801173
0.003891005 0.004650705 -0.08151715 0.11587452 -0.022946378 0.021097492 -0.016159197 -0.001432228
0.0072182477 -0.10823806 0.02169989 -0.017017318 0.0072849984 0.0762872 0.13293004 0.15921807
-0.04006028 -0.005510961 0.09386367 -0.0037143712 -0.12814073 0.0055760164 -0.019502027 0.071736746
-0.0913832 0.019661715 0.0049899193 -0.07403598 -0.08516167 0.015102166 -0.05963744 0.06194375
0.10068066 0.044899456 -0.035426177 -0.06641625 0.01785632 -0.020493612 0.069269456 0.021263648
0.03229417 -0.025934642 -0.051733937 0.035209157 -0.017946798 -0.054390743 0.06259224 0.15964347
-0.07450438 0.03278754 0.043127604 0.082139365 -0.0887273 0.06465596 0.033420756 0.08283247
-0.0727185 0.081728004 -0.0037557431 -0.032796938 -0.098777175 0.05613493 0.12007424 -0.14767167
-0.07550193 0.015379011 -0.071137145 0.08655406 0.08981358 -0.008227627 -0.05716178 0.082562335
0.08269068 0.029248146 0.07235134 -0.03325486 0.020192264 -0.020852197 0.036480486 -0.114136055
-0.01353843 0.111335784 0.01843577 -0.035761576 0.16728902 0.12068233 -0.026192028 0.049344525
-0.012229174 0.07541928 -0.08801842 0.07638306 0.089523025 -0.038078684 -0.12029224 -0.06508838
-0.0021040905 0.18729822 0.022667427 0.004265502 -0.10571468 0.0752475 0.06320093 -0.08286753
-0.063783936 -0.02939136 -0.0068183513 0.08474766 0.04600128 -0.06823005 -0.18448249 -0.0074091805
-0.15164536 0.0914816 0.08783185 0.09827985 -0.081849255 -0.15738662 0.098317154 -0.07068574
0.033077333 -0.03804358 -0.17120607 0.02920589 -0.03446515 0.1228855 0.034989458 -0.078262724
0.058913052 -0.06134413 0.094953865 -0.03694661 0.015041538 -0.052205727 0.11533899 0.016586866
-0.100281045 -0.11388911 0.01881004 0.03665335 0.08924702 -0.13962843 0.09076511 -0.039483503
-0.0345101 -0.07176191 -0.011180498 -0.106456466 -0.16100885 0.04712151 0.0033432802 0.05531354
0.022766357 -0.054860886 -0.0078822905 -0.119376525 -0.18204875 -0.050745737 -0.0050197514 0.02797525
-0.03446357 -0.06970176 -0.0681663 -0.05741285 0.015375138 -0.17841664 0.085363306 -0.0436976
0.04109392 -0.100265026 0.07009486 -0.13634294 -0.06080282 -0.052123047 -0.039083485 0.04317201
-0.006613696 -0.080419436 0.013692086 -0.012572445 0.14696735 0.026017834 -0.0011659878 -0.009770521
0.0066388645 0.21743472 -0.018773211 0.048811566 -0.05747588 -0.0179983 0.12571102 0.18946695
-0.13078229 0.06704435 -0.010537631 -0.017367393 -0.063762546 0.048358228 -0.06948 -0.039477304
0.13980809 -0.007388654 0.0017739714 0.021652188 0.031115087 -0.109926276 0.008929683 0.030679021
0.04068721 -0.10240396 0.08502275 -0.13145515 0.1485263 0.06248884 -0.07947929 -0.026528075
-0.084900886 0.07592118 -0.02901953 -0.08065188 -0.048795823 0.048417564 -0.05659655 -0.15579848
0.056065954 0.064003125 0.10512601 -0.063586764 0.04575992 -0.043971363 0.1982473 0.38410905

encoder.layers.0.linear2.bias f4 [64]
00000000: ba54 80bb 696a 43bb 0460 b6bd 5b37 853d
00000010: 053a 21bd e626 823d f8c0 953c a87c 8e3c
00000020: 95f6 06be 15df 9abc 34cb c83c 94dd 043d
00000030: 3ae6 573c 11bf 303d 3a5b 453d 74b6 d8bd
00000040: 8276 933d 6dd6 0abd c479 20bd 26a9 75bd
00000050: 3787 b4bb 9fc4 2ebc 49c5 2f3e c1ef 28bd
00000060: 78de bcbd 01ff b83b d224 49bd 2d90 73bd
00000070: 9522 89bc ca94 febc be0e 4c3d 1d6a b3bc
00000080: 2251 053c 78fe 72ba e929 5abd cb0f 20bd
00000090: 1caf b9bd 847c 0cbd 5168 76bd a066 b6bc
000000a0: b328 7fbd cd1f 9f3c d8b5 423d 713c 1d3d
000000b0: edfa 4e3c 62c6 ffbc d4fa 3bbc db13 7e3d
000000c0: 9c91 413d fb89 173d b951 afbc a729 243b
000000d0: a61d d9ba 5573 873d 33b9 ca3d 2888 273d
000000e0: e7b7 00bb 15a2 7d3d 29bd e83c e457 54bb
000000f0: a81d e6bc a1c4 44bd b30d 2b3d 7142 8d3d
-0.00391635 -0.0029818064 -0.08905032 0.06504699 -0.039361972 0.063550755 0.018280491 0.017393425
-0.13180001 -0.018905202 0.024510957 0.032437876 0.013177449 0.043150965 0.048182704 -0.10581675
0.07200338 -0.0338959 -0.039178625 -0.059975766 -0.005509283 -0.010666995 0.17165102 -0.041244272
-0.0922212 0.005645633 -0.04910738 -0.05946367 -0.016740123 -0.031076808 0.049818747 -0.021901185
0.008137019 -0.0009269486 -0.053262625 -0.03907756 -0.090666026 -0.034298435 -0.060158078 -0.022265732
-0.062294673 0.019424343 0.0475367 0.03838772 0.012633068 -0.031222526 -0.011473376 0.062030654
0.047258005 0.036996823 -0.021401273 0.002504924 -0.0016564622 0.06613795 0.09898605 0.040901333
-0.0019640864 0.06192215 0.028410511 -0.003240102 -0.028090313 -0.048039082 0.04176111 0.06897438

encoder.layers.0.norm1.weight f4 [64]
00000000: a891 643f 423a b03f 2173 583f c002 6e3f
00000010: 326b 593f 2c28 9d3f a47a 793f 030b 643f
00000020: 3614 8d3f 71ab 7b3f 2a54 7d3f b4f1 793f
00000030: 371f 653f 971f 893f 6448 ae3f e227 663f
00000040: fbd1 6c3f a929 9b3f 4b42 813f 0ebd 763f
00000050: fb11 3b3f 8711 8d3f d014 3c3f e23c 993f
00000060: 6f7d 6b3f dfdc 5d3f 9760 583f 8e40 8b3f
00000070: c89d 993f fd40 713f f4ae 923f 689a 5f3f
00000080: deb2 6d3f 9a4e 7e3f 6846 723f 3c19 873f
00000090: cf69 803f e810 7f3f 2998 4b3f f327 7a3f
000000a0: 4c19 943f 9902 5a3f 9dfe 4a3f 9401 813f
000000b0: c2ff 5f3f 8264 6f3f bebb 8a3f 2e29 843f
000000c0: 596f 8b3f ddce 673f 5485 ac3f b5b9 593f
000000d0: 0baf 613f de4c 6b3f df4f 4f3f 8141 813f
000000e0: 2dfe 793f 7e60 633f 7473 953f bcee 8a3f
000000f0: 08e0 683f a9b1 733f cc1c 873f 7691 5e3f
0.89284754 1.3767779 0.8455067 0.92972946 0.8492919 1.2277884 0.9745276 0.890793
1.1021793 0.98308474 0.9895655 0.97634435 0.89500755 1.0712765 1.3615842 0.89904606
0.92507905 1.2122089 1.0098356 0.96382225 0.7307431 1.1020974 0.7346926 1.1971705
0.9198827 0.8666515 0.84522384 1.0879076 1.2001276 0.9423979 1.1459641 0.8734498
0.92851055 0.99338686 0.9463868 1.0554576 1.003229 0.9963517 0.7952905 0.9771721
1.157022 0.85160214 0.7929476 1.0078607 0.8749963 0.9351274 1.0838544 1.0325067
1.0893356 0.90550023 1.3478189 0.8504899 0.8815772 0.91914165 0.8098125 1.0098115
0.97653466 0.8881911 1.1675858 1.0854106 0.90966845 0.9519296 1.0555663 0.86940706

encoder.layers.0.norm1.bias f4 [64]
00000000: c687 08be e76a a0bd 4a21 21be 0932 79bc
00000010: 02c6 1bbe 6661 403d ae54 41be 27c9 273e
00000020: 6165 c2bc d0b6 cc3d 6e91 613c bf39 5e3d
00000030: b08a f63d 83f7 133e 9b5a 233c da26 cdbd
00000040: cdb6 5d3e e805 49bd 2628 9cbd 86fc 06be
00000050: 182b 613e 46f9 abbd 948a 213e 1da9 843d
00000060: 33e5 67bd 31ba 4bbe 530b 2dbe c787 c2bd
00000070: ba93 e1bd b1e2 b8bd 45b0 f53c d9da c23d
00000080: 2f06 4ebd 75fe 223e 7c8b c6bc a01d 07be
00000090: f416 0c3d 402b b4bc 67f5 87be 52db c5bd
000000a0: 6123 c2bc 05a3 94bd c437 7c3e dd0c 523e
000000b0: 1cb8 033e d866 8cbd c337 83bd b49b fe3d
000000c0: 0b8f fb3d 3e0b b0bd 0dc7 9d3d d3c6 02bd
000000d0: 7971 293e 9b85 a13d c1b8 f43d ea80 4a3d
000000e0: 6891 45be d82b 3f3e 338b 27bd a5da 203e
000000f0: 982b 2abe 64c2 66be 0065 f33d 605b 263e
-0.13333043 -0.0783289 -0.15735355 -0.015209683 -0.15212253 0.046967886 -0.18879959 0.16385327
-0.023729982 0.09995806 0.013767583 0.05425429 0.12038171 0.14449887 0.0099703325 -0.10017176
0.21651764 -0.0490779 -0.07624845 -0.13182268 0.21989095 -0.083971545 0.1577552 0.06477568
-0.056615066 -0.19895245 -0.16898851 -0.09498554 -0.11014505 -0.09027613 0.029991278 0.09514398
-0.050298866 0.1591738 -0.024236433 -0.13194895 0.034201577 -0.02199328 -0.26554415 -0.09660973
-0.02369851 -0.07257656 0.24630648 0.2051272 0.12863201 -0.068555534 -0.0640712 0.12432042
0.12283143 -0.08595894 0.077039815 -0.031927895 0.16547193 0.07886811 0.119493015 0.04943935
-0.1929375 0.18669069 -0.040904235 0.15708406 -0.16618192 -0.22535092 0.118844986 0.16245794

encoder.layers.0.norm2.weight f4 [64]
00000000: 5974 6a3f 78ce 7a3f a5dd 833f e662 5f3f
00000010: d8d8 763f 0631 813f 0a9b 763f 5e80 783f
00000020: 260d 593f 292f 7e3f de53 823f 1de5 843f
00000030: 18d8 7a3f efee 7e3f d1e7 7c3f 1c32 793f
00000040: 4325 523f c993 6b3f faba 8e3f 4f5a 693f
00000050: aaa6 393f 1dd9 843f 3209 5c3f 4930 763f
00000060: 997a 593f 5962 873f 6b38 653f 4ded 763f
00000070: eb39 783f 5a69 823f 63dd 6a3f 9ffd 703f
00000080: 4e82 733f 8c7c 5d3f e2cf 663f c327 843f
00000090: 9dce 5c3f 74b3 7c3f ed63 5c3f de06 7a3f
000000a0: aa6f 7a3f 8dcb 693f 89bc 673f aff9 6c3f
000000b0: 2d02 6c3f 1f1b 563f f327 4d3f 9787 823f
000000c0: 4e49 833f 6e31 703f 4899 763f e9fc 6c3f
000000d0: 545b 673f 3d5a 7c3f 277a 673f 8a5c 813f
000000e0: 1ee0 763f 3dcc 6b3f a3a8 843f 53d8 703f
000000f0: eb9f 6c3f 01e5 763f ad04 593f a885 723f
0.9158378 0.97971296 1.0302016 0.8726028 0.9642463 1.0093086 0.9633032 0.9707087
0.8478569 0.9929071 1.0181844 1.038242 0.9798598 0.99583334 0.98791224 0.97342086
0.82088107 0.9202238 1.1150811 0.91153425 0.72519934 1.0378758 0.8595153 0.9616743
0.84952694 1.0576888 0.8953921 0.9645584 0.96963376 1.0188401 0.9174406 0.94136995
0.95120704 0.8651817 0.90160954 1.0324634 0.86252767 0.98711324 0.86089975 0.9766673
0.97826636 0.9132622 0.90522057 0.92568487 0.9219082 0.83635134 0.8013908 1.0197629
1.0256746 0.93825424 0.9632764 0.9257341 0.9037373 0.9857519 0.90420765 1.0106366
0.96435726 0.9210852 1.0363964 0.94080085 0.92431515 0.9644318 0.8477276 0.94735193

encoder.layers.0.norm2.bias f4 [64]
00000000: f695 dabd 698c 8dbd 0f27 bebd 3811 363d
00000010: 7a78 dfbd 572a d03d ba7d edbd 3a14 c93d
00000020: fb24 06bd 5a10 ad3d 96f8 8b3c f07f 893d
00000030: bbcf b43d d630 423e c8a8 843b 3e0e 33bd
00000040: ba82 a93d 14cf 95bd f6aa cfbc 2882 dcbd
00000050: ce00 a83d 07f6 04be 06e8 b53d 6a4d 783d
00000060: 67be 6cbd e25d 46be c321 c2bd ef55 e7bb
00000070: 469b 93bd c435 02be a948 393c 1ccd dd3d
00000080: 335b 8e3c f044 bb3d 8306 92bd 2c29 38be
00000090: 84c2 57bd 19a1 36bd c67a dfbd 1acc f5bd
000000a0: 2f92 403c 4e3a 12bb fe02 f43d e8e7 783d
000000b0: 862a ed3d 3911 fa3a a6cc 81bd 8333 853d
000000c0: c2cf e23d 22b5 9a3c f2a1 94bc 349e 9ebd
000000d0: abec c53d 34d6 823d b7cd b93d 7289 763d
000000e0: 4e14 10be a8c2 503e 738b d53a ca73 a53d
000000f0: 1a39 74be 3cbb 05be 7b14 633d 318e 143e
-0.10673134 -0.06911547 -0.092847936 0.044450015 -0.10911651 0.10164326 -0.11596246 0.09818311
-0.03275011 0.084503844 0.017086308 0.06713855 0.08828684 0.18963942 0.0040484406 -0.043714754
0.08276887 -0.07314888 -0.025350075 -0.10767013 0.082032785 -0.12984477 0.088821456 0.060620703
-0.05779877 -0.19371751 -0.09479096 -0.0070598046 -0.072073504 -0.12715822 0.011308827 0.10830137
0.017377472 0.09144008 -0.07130148 -0.17984456 -0.05267574 -0.04458723 -0.10912089 -0.1200182
0.011753603 -0.0022312584 0.11914633 0.060768038 0.11580376 0.0019078619 -0.06337862 0.06503966
0.11074783 0.018885199 -0.018143628 -0.077450186 0.096642815 0.06388512 0.0907244 0.06018967
-0.14070246 0.20386755 0.001629217 0.08078726 -0.23849908 -0.13059705 0.055439454 0.14507367
