assets/snapshots/P1_robust_with_winsorize_transformer.pth (torch, 297603 bytes, 32 tensors)

input_proj.weight f4 [64, 1]
-0.32515478 0.5132098 -0.7453663 -0.25300348 -0.29957488 -0.668 -0.42088437 -0.6421272
-0.007976739 -0.9951897 0.8004995 0.92309356 0.057628863 -0.16397125 0.6701648 -0.038697176
-0.9993905 -0.3493289 -0.31730568 -0.029988984 -0.68000317 -0.34501916 0.97269344 -0.8445525
0.8984034 0.3325894 -0.91779697 -0.7902069 -0.1977254 -0.86664397 0.22680853 -0.6754814
0.5179132 -0.43339738 -0.2882757 0.18028079 -0.56271344 0.22153033 0.3325803 -0.66335964
-0.94748944 0.3882633 0.07240649 -0.92119765 -0.25294504 0.6878496 -0.5450637 0.6145821
-0.6917655 0.556308 0.45297024 -0.55874133 0.7985016 -0.75473005 0.94533074 0.80798864
-0.66117805 0.5345341 -0.3318881 0.913237 0.92123413 -0.2733043 -0.08908715 0.1621447
00000000: b07a a6be b861 033f 53d0 3ebf ac89 81be
00000010: e161 99be 0c02 2bbf 287e d7be 7362 24bf
00000020: deb0 02bc c1c4 7ebf 89ed 4c3f dc4f 6c3f
00000030: 3e0c 6c3d 14e8 27be ec8f 2b3f ee80 1ebd
00000040: 0ed8 7fbf 3ddb b2be e475 a2be 75ab f5bc
00000050: b014 2ebf 5aa6 b0be 7002 793f 9834 58bf
00000060: c4fd 653f 2849 aa3e bef4 6abf 004b 4abf
00000070: 8778 4abe 61dc 5dbf 7f40 683e 59ec 2cbf
00000080: f695 043f 43e6 ddbe df98 93be 879b 383e
00000090: fd0d 10bf d9d8 623e f747 aa3e f0d1 29bf
000000a0: ab8e 72bf 72ca c63e db49 943d 9cd3 6bbf
000000b0: 0382 81be e916 303f 4b89 0bbf 4155 1d3f
000000c0: 8b17 31bf 336a 0e3f b7eb e73e ac09 0fbf
000000d0: 9a6a 4c3f fd35 41bf 3201 723f 58d8 4e3f
000000e0: f742 29bf 3ad7 083f 3ded a9be e6c9 693f
000000f0: 00d6 6b3f 8bee 8bbe 5373 b6bd 4309 263e

input_proj.bias f4 [64]
-0.3349546 0.51966727 -0.85302657 -0.44850212 -0.92598015 0.8673587 0.05852251 -0.67154264
0.05103259 -0.5128707 -0.04262936 0.20856062 -0.630932 0.79113704 -0.31371462 0.6927077
0.3524017 -0.16559653 0.08836557 -0.38764945 0.871635 0.8805154 0.52171683 -0.0044571487
-0.30096158 -0.6953585 -0.11376034 0.457042 0.60861546 0.52716696 0.17556241 -0.08483463
-0.64787006 -0.80065197 0.21179193 0.070354074 0.8178947 0.86712873 0.083386384 0.97503006
-0.49441567 -0.9858309 0.1552034 -0.7027537 -0.37543797 0.6952011 0.38431057 -0.9569947
-0.9946523 0.49667406 0.9137344 0.87379944 -0.3024142 -0.48759973 -0.13977613 0.7930143
-0.08291171 0.8568913 0.43721014 -0.9690576 0.55408156 -0.99235636 0.8464756 -0.76751494
00000000: 2b7f abbe ea08 053f f35f 5abf 12a2 e5be
00000010: 090d 6dbf 380b 5e3f 4db5 6f3d 38ea 2bbf
00000020: 8d07 513d 7f4b 03bf 209c 2ebd ea90 553e
00000030: c284 21bf f587 4a3f 349f a0be 4b55 313f
00000040: ff6d b43e 2392 29be 02f9 b43d fd79 c6be
00000050: 7923 5f3f 7569 613f 3c8f 053f 460d 92bb
00000060: a317 9abe 0403 32bf 2efb e8bd 6901 ea3e
00000070: 39ce 1b3f 6af4 063f a2c6 333e c7bd adbd
00000080: d0da 25bf 87f7 4cbf fcdf 583e cc15 903d
00000090: 8c61 513f 26fc 5d3f 7bc6 aa3d 929b 793f
000000a0: 0d24 fdbe 6a5f 7cbf a4ed 1e3e abe7 33bf
000000b0: 6839 c0be b3f8 313f 5bc4 c43e 9bfd 74bf
000000c0: 88a1 7ebf 104c fe3e 7fea 693f 52b1 5f3f
000000d0: 09d6 9abe aca6 f9be 7921 0fbe fc02 4b3f
000000e0: 9dcd a9bd 3a5d 5b3f 02da df3e 2914 78bf
000000f0: 4ad8 0d3f 110b 7ebf a0b2 583f dc7b 44bf

encoder.layers.0.self_attn.in_proj_weight f4 [192, 64]
0.07822613 -0.031078871 0.08657691 0.13627908 0.0172651 0.015863102 -0.14922965 0.059047975
0.056149792 -0.07630283 0.13850698 0.13991977 -0.1229092 0.0009383356 -0.12938362 0.0959342
0.002992128 -0.070462085 0.01627144 -0.09867227 -0.10878595 -0.1485128 0.07030862 -0.11550791
-0.11328198 -0.0006737153 -0.06405922 0.05637648 -0.09334915 -0.013272713 0.019797 -0.08222431
-0.1065078 0.105660185 -0.13990983 0.001297179 0.13095112 0.13700564 0.08597568 -0.1258026
0.047136124 0.025118195 0.1282635 -0.054339383 0.07016331 -0.0323589 -0.051279835 0.057646014
-0.10139735 0.116857916 0.093033075 -0.08880609 0.14036539 -0.11188126 0.093108326 0.035840247
-0.10256793 0.10241248 0.052439705 0.029067898 -0.05507722 -0.1414327 -0.011627613 -0.12763757
0.09526811 -0.062674925 0.007150242 0.14004473 -0.039139066 0.093719795 0.14025593 -0.07582672
-0.15699625 -0.10409422 0.075026184 -0.11529398 -0.027878704 0.09814132 0.00948342 0.032561596
-0.06403434 0.10623803 -0.047639046 -0.11720394 -0.11589131 0.06779053 -0.15109691 0.07179986
-0.038185045 0.04201493 -0.021530341 0.11309212 0.095551975 -0.10564652 0.03852085 -0.03927187
0.15470622 0.14011584 -0.122539505 0.1358823 -0.09661509 -0.117811486 -0.069427915 -0.027074322
-0.14658086 -0.012414232 0.13319598 0.04850136 -0.107027605 -0.094063416 -0.013089191 0.056586925
-0.017968971 0.14222157 0.0015956718 0.02513611 -0.08324386 0.10149504 -0.12625489 0.08305801
0.029361418 -0.06113516 -0.096118644 0.09315365 -0.13700615 -0.1042535 -0.08946323 -0.12043591
0.08505045 0.0155519815 0.13486432 0.12345161 -0.14352489 -0.14347346 0.05081945 0.03522881
0.047315005 0.008421547 0.078685276 -0.072383836 0.13191837 0.0009607668 0.0070678303 -0.022131678
-0.04571768 0.117729366 0.05106111 0.09318071 0.11969543 0.12523508 -0.109150745 -0.013553813
0.04456535 0.06035094 -0.036515165 0.123344876 0.102314346 0.032324284 0.03719195 0.08415228
0.08054139 0.114997625 0.123224124 0.0588193 0.058498092 0.15231892 -0.100387506 -0.12786019
0.020535568 0.120431915 0.049820304 0.050951887 -0.045258306 0.15448107 -0.05626536 0.01195626
-0.06441353 0.049700875 -0.07630254 -0.07058957 -0.083701625 0.098500796 0.018237868 0.15863812
0.08365217 0.09559175 -0.11646545 -0.12372341 0.06019352 -0.03846283 -0.060661204 0.096645385
-0.056462556 0.04362237 -0.071094595 0.077591844 -0.044744246 -0.06448438 0.13492171 0.10915882
-0.12881462 0.11548345 0.045410804 -0.01939297 -0.036223207 0.122889385 -0.08639715 0.035752878
-0.15087274 -0.02599846 0.106637046 -0.05588327 -0.13802183 -0.09654428 -0.009296355 -0.12689407
0.068623744 -0.13993154 0.109085016 0.08266467 0.024553828 0.056238655 0.14947736 0.0571864
0.03016685 0.06328411 -0.14485429 -0.15384819 -0.038837828 -0.041567765 0.14958349 0.07185667
-0.017782046 -0.00022490633 0.09706374 0.1279554 -0.10592798 -0.02224087 -0.035861537 -0.051942
-0.10964022 0.11608196 -0.009501175 0.046652623 -0.013376226 -0.097135104 -0.01694005 0.13771345
0.030063763 -0.086297445 0.03990279 0.05730106 0.107044145 0.04916084 0.07963269 0.057827234
00000000: 0535 a03d 1e99 febc 3c4f b13d be8c 0b3e
00000010: 8a6f 8d3c 56f3 813c a8cf 18be 4adc 713d
00000020: 53fd 653d a844 9cbd c6d4 0d3e 2147 0f3e
00000030: d2b7 fbbd a3fa 753a 247d 04be 2679 c43d
00000040: 9417 443b 6d4e 90bd af4b 853c b014 cabd
00000050: 2bcb debd bd13 18be f7fd 8f3d 698f ecbd
00000060: 6200 e8bd 459c 30ba 7b31 83bd 06eb 663d
00000070: d72d bfbd cb75 59bc 512d a23c 3865 a8bd
00000080: c320 dabd 5e64 d83d 8644 0fbe 1b06 aa3a
00000090: 0d18 063e 354b 0c3e 0414 b03d 66d2 00be
000000a0: cf11 413d acc4 cd3c 8257 033e f992 5ebd
000000b0: c8b1 8f3d c48a 04bd ce0a 52bd 3a1e 6c3d
000000c0: 6aa9 cfbd 3453 ef3d 2088 be3d f8df b5bd
000000d0: f2bb 0f3e 0122 e5bd 94af be3d 39cd 123d
000000e0: 230f d2bd a2bd d13d 04cb 563d cd1f ee3c
000000f0: a798 61bd bcd3 10be be81 3ebc 6cb3 02be
00000100: ed1b c33d b65b 80bd 944c ea3b e367 0f3e
00000110: 4950 20bd 2af0 bf3d 409f 0f3e 0a4b 9bbd
00000120: a0c3 20be 5a2f d5bd 54a7 993d 401f ecbd
00000130: e161 e4bc 51fe c83d 5960 1b3c 4f5f 053d
00000140: 7024 83bd 5393 d93d 2921 43bd 9f08 f0bd
00000150: 6c58 edbd c3d5 8a3d 26b9 1abe ce0b 933d
00000160: ec67 1cbd d917 2c3d 6660 b0bc d79c e73d
00000170: c1b0 c33d 345d d8bd 0ac8 1d3d 8adb 20bd
00000180: 4f6b 1e3e 877a 0f3e fef5 fabd bb24 0b3e
00000190: 22de c5bd 2647 f1bd 3930 8ebd f8ca ddbc
000001a0: 4b19 16be 1065 4bbc 8764 083e 5da9 463d
000001b0: 4a31 dbbd 52a4 c0bd 0c74 56bc b1c7 673d
000001c0: aa33 93bc 88a2 113e dc25 d13a 3eea cd3c
000001d0: c27b aabd a2dc cf3d f648 01be 511a aa3d
000001e0: 5b87 f03c dd68 7abd dad9 c4bd 57c7 be3d
000001f0: 574b 0cbe dc82 d5bd 7f38 b7bd 1aa7 f6bd
00000200: ee2e ae3d bdcd 7e3c df19 0a3e 33d4 fc3d
00000210: 30f8 12be b5ea 12be 0e28 503d 164c 103d
00000220: 61cd 413d 87fa 093c bf25 a13d fa3d 94bd
00000230: 9c15 073e f8db 7b3a 4299 e73b 7e4d b5bc
00000240: 7642 3bbd 181c f13d 7425 513d 87d5 be3d
00000250: e122 f53d a03d 003e 6d8a dfbd d010 5ebc
00000260: 288a 363d 8c32 773d ed90 15bd 3d9c fc3d
00000270: 2f8a d13d 7866 043d 9656 183d 0858 ac3d
00000280: e2f2 a43d e083 eb3d ee5c fc3d 82ec 703d
00000290: b29b 6f3d 7ef9 1b3e f797 cdbd c8ed 02be
000002a0: 353a a83c 02a5 f63d 6010 4c3d edb2 503d
000002b0: c660 39bd 4930 1e3e 8276 66bd 30e4 433c
000002c0: 3eeb 83bd 2593 4b3d 8244 9cbd 4491 90bd
000002d0: c26b abbd c9ba c93d 9567 953c 0872 223e
000002e0: d451 ab3d 9cc5 c33d 7085 eebd b362 fdbd
000002f0: 7b8d 763d 338b 1dbd e277 78bd 04ee c53d
00000300: 4845 67bd 5fad 323d 0b9a 91bd 79e8 9e3d
00000310: be45 37bd 6310 84bd eb28 0a3e a98e df3d
00000320: fbe7 03be 9682 ec3d ae00 3a3d 01de 9ebc
00000330: c95e 14bd 6ead fb3d fdf0 b0bd 9c71 123d
00000340: 627e 1abe b9fa d4bc 8664 da3d dbe5 64bd
00000350: 9855 0dbe 02b9 c5bd bd4f 18bc 85f0 01be
00000360: 9b8a 8c3d 374a 0fbe f767 df3d 184c a93d
00000370: 1c25 c93c 815a 663d 9810 193e 493c 6a3d
00000380: 7820 f73c 199b 813d af54 14be 618a 1dbe
00000390: 6a14 1fbd f642 2abd 6a2c 193e 9729 933d
000003a0: a7ab 91bc d5d4 6bb9 5bc9 c63d be06 033e
000003b0: c5f0 d8bd 7c32 b6bc 8ce3 12bd 22c1 54bd
000003c0: 0d8b e0bd 61bc ed3d d1aa 1bbc d216 3f3d
000003d0: f527 5bbc c5ee c6bd dcc5 8abc c104 0d3e
000003e0: 4848 f63c b7bc b0bd 1c71 233d 84b4 6a3d
000003f0: f639 db3d e15c 493d 7716 a33d 40dc 6c3d

encoder.layers.0.self_attn.in_proj_bias f4 [192]
-0.007018183 0.004022034 0.0081008505 -0.009165488 0.0045721275 0.0019717137 0.013607846 -0.004405324
-0.005676902 -0.007309426 0.01267546 -0.0092954915 0.013851991 -0.019045554 -0.0106515465 0.011646376
-0.041368082 -0.0022852924 0.019827962 -0.0036280279 -0.015380097 0.006398471 -0.021402739 0.0021755684
0.016695159 -0.032308016 -0.018175218 -0.01965299 0.008036807 0.023563415 0.02822857 -0.020756891
-0.0063905227 0.008055489 -0.011041404 0.0045635914 -0.0018565796 0.004305163 -0.0026013944 -0.008511321
0.0143188825 0.0073346924 -0.0195941 0.0008683779 -0.00042620028 0.0006858832 0.0018172761 -0.0047114426
-0.00867539 0.014694617 0.014695087 -0.0061422368 0.014472651 0.015586118 -0.0031273062 -0.0011501451
-0.023039728 -0.010058756 -0.02890828 -0.0155025385 0.012638049 0.010786429 -0.03651417 -0.011576272
-0.0014422174 0.0014690141 0.0012732894 -0.0013274293 0.0015383803 -0.00046241548 0.0011283136 0.00084110774
-0.00030147692 0.00030846632 0.0016564113 0.0027340804 -0.002148376 -0.00079215906 -0.00086390367 -0.0012057434
-0.0019358783 0.00053681317 0.00085915404 -0.001744046 -0.0007260175 -3.4356934e-05 -0.001961535 0.0006426473
-0.00073810143 0.00018967409 0.00033136588 -0.0004495821 0.0012002754 -0.00062580727 -0.0014188808 -0.00028924522
-0.00052054034 0.00023418436 1.1886009e-05 0.00065240986 -0.0010345224 0.00065156334 -0.0015805749 -2.3812423e-05
0.0024653254 0.0050448137 0.000556649 0.0054579633 -0.0005064929 -0.00026356796 -5.7336903e-05 -0.0008215231
0.000642336 -0.001262884 -0.004053682 0.0010156371 -0.0006402165 -0.0035956015 5.623982e-05 -0.00068162096
0.0006400211 -0.002144124 -0.0005917398 -0.00025428965 0.00074858556 -0.00060121523 0.0005546668 0.0002926158
-0.0015413424 -0.0006788467 -0.012026974 0.00872335 0.016360069 0.0040518637 -0.0024338008 0.02459114
-0.0014573224 -0.010577422 -0.010833717 0.014698622 0.007337043 -0.0058724685 -0.0028605158 0.010544581
0.009115384 -0.0077852956 0.0005682796 0.0051547983 0.020986479 0.0072326413 -0.01486709 0.014490063
0.0037929744 0.0038792454 0.010620574 0.020790346 0.0021142617 -0.00249022 0.017043747 -0.0051405434
-0.009003536 0.0078333765 0.0038000073 0.0070567206 -0.00062211073 0.0003286472 -0.0063904226 0.0025703416
-0.016500667 0.0012618629 -0.0015426503 0.013272706 -0.001396408 0.008104588 0.0024599996 0.009480966
0.0054783374 0.011310755 0.0040165237 0.016896643 0.0146559775 -0.0017782161 -0.0073824623 0.0138255535
0.013624684 -0.0042649736 0.007340746 0.0033213804 -0.004054414 0.009776653 0.018892083 -0.014529674
00000000: c9f8 e5bb 44cb 833b 6eb9 043c d82a 16bc
00000010: c9d1 953b de37 013b 71f3 5e3c 895a 90bb
00000020: 4e05 babb e983 efbb bcac 4f3c 1e4c 18bc
00000030: 76f3 623c 6c05 9cbc d383 2ebc 71d0 3e3c
00000040: 9471 29bd d8c4 15bb 406e a23c 35c4 6dbb
00000050: cdfc 7bbc 44aa d13b cc54 afbc fb93 0e3b
00000060: 49c4 883c 6955 04bd 32e4 94bc 4fff a0bc
00000070: d0ac 033c 1008 c13c 9a3f e73c 5b0a aabc
00000080: 9767 d1bb 2bfb 033c 01e7 34bc 2e8a 953b
00000090: 7958 f3ba 5312 8d3b 287c 2abb 1173 0bbc
000000a0: bf99 6a3c dc57 f03b ce83 a0bc dba3 633a
000000b0: a273 dfb9 d8cc 333a ab31 ee3a 7262 9abb
000000c0: 3923 0ebc b1c1 703c aac3 703c d144 c9bb
000000d0: b31e 6d3c eb5c 7f3c 7ef3 4cbb 77c0 96ba
000000e0: d0bd bcbc 7bcd 24bc 0fd1 ecbc 5cfe 7dbc
000000f0: d20f 4f3c 90b9 303c e28f 15bd 67aa 3dbc
00000100: c908 bdba ef8b c03a 81e4 a63a 23fd adba
00000110: 7aa3 c93a 5b70 f2b9 ece3 933a c97d 5c3a
00000120: 8c0f 9eb9 a6b9 a139 f11b d93a 422e 333b
00000130: c5cb 0cbb e5a8 4fba 9877 62ba 090a 9eba
00000140: 4cbd fdba ecb8 0c3a da38 613a 7998 e4ba
00000150: 3652 3eba 7a1a 10b8 198d 00bb 5577 283a
00000160: 267d 41ba 40e3 4639 2dbb ad39 e3b5 ebb9
00000170: 8f52 9d3a 370d 24ba bdf9 b9ba d6a5 97b9
00000180: df74 08ba 638f 7539 056a 4737 7c06 2b3a
00000190: d098 87ba adcd 2a3a 4b2b cfba cac0 c7b7
000001a0: 4c91 213b f74e a53b 15ec 113a b7d8 b23b
000001b0: 2ac6 04ba 7e2f 8ab9 087d 70b8 7b5b 57ba
000001c0: 7062 283a 5b87 a5ba c0d4 84bb 201f 853a
000001d0: 34d4 27ba 2fa4 6bbb 0ce3 6b38 cfae 32ba
000001e0: 17c7 273a 6e84 0cbb fc1e 1bba 2e52 85b9
000001f0: ba3c 443a df9a 1dba 0f67 113a 3a6a 9939
00000200: de06 caba a2f4 31ba c90c 45bc 62ec 0e3c
00000210: 8d05 863c 7fc5 843b 6780 1fbb 5c73 c93c
00000220: a003 bfba ec4c 2dbc e77f 31bc 7dd2 703c
00000230: 946b f03b d66d c0bb 7e77 3bbb 2ec3 2c3c
00000240: b158 153c cb1b ffbb 99f8 143a 95e9 a83b
00000250: d6eb ab3c cbff ec3b 1895 73bc bb67 6d3c
00000260: 8d93 783b f03a 7e3b ea01 2e3c 8450 aa3c
00000270: 6d8f 0a3b f532 23bb 549f 8b3c 0172 a8bb
00000280: 9183 13bc 9057 003c 8b09 793b 103c e73b
00000290: 2515 23ba 484e ac39 c066 d1bb 2d73 283b
000002a0: 682c 87bc 1865 a53a c132 caba c475 593c
000002b0: ad07 b7ba 1bc9 043c f237 213b 0e56 1b3c
000002c0: a083 b33b bf50 393c 0b9d 833b d46a 8a3c
000002d0: a01f 703c 0813 e9ba 95e8 f1bb 9384 623c
000002e0: 113a 5f3c 31c1 8bbb a48a f03b 84ab 593b
000002f0: e4da 84bb 412e 203c 92c3 9a3c df0d 6ebc

encoder.layers.0.self_attn.out_proj.weight f4 [64, 64]
0.08837515 0.047173414 -0.04460498 -0.02072692 0.1317928 -0.073687434 0.10272804 -0.03574374
-0.06903654 0.03959446 -0.048073985 0.026032634 -0.0867341 0.12500958 0.07006814 0.12487379
0.15090418 -0.07394069 0.093806036 0.026375195 0.08645319 0.108391196 -0.030349974 0.0052486463
0.07050777 -0.12520356 0.10928501 0.022909138 -0.09999567 -0.15140101 0.04918859 0.048518408
-0.016791016 -0.12562962 0.019637588 0.04635779 -0.062072042 0.0137837855 -0.14311063 -0.028078217
-0.06501996 0.082345486 -0.047398154 -0.039096702 -0.101756684 0.027101558 0.018320361 -0.025932472
-0.049122408 0.077054046 -0.02086461 -0.09453904 0.014447412 0.02398155 -0.08329255 -0.028600737
0.04852863 0.065093964 0.13124725 -0.1052344 -0.058237653 0.09771783 0.04967085 0.12367447
-0.010724461 0.02734996 0.019543283 -0.070053555 -0.053935952 -0.06807098 -0.0016371935 0.11391187
0.058300886 0.004483578 0.041811265 0.021332385 0.11143959 0.030225085 -0.054115176 -0.12141775
0.011230395 0.12134411 -0.13114984 -0.07967093 -0.16728789 -0.09026483 0.077748545 -0.07721587
0.017620021 -0.021077044 0.028241437 0.065815374 0.0026417584 0.0024552837 -0.039133396 -0.0867874
0.16242914 0.09120491 -0.010229211 -0.026507763 -0.07102635 0.05461762 0.08085077 -0.04145201
0.05729481 0.03081147 -0.1050643 -0.04998939 0.15046358 -0.05273396 -0.1028704 -0.11555492
0.0069761006 -0.0924458 0.017598223 -0.05584889 -0.09016804 0.08404526 0.076034606 0.039050072
-0.09748598 0.03998009 -0.10060868 0.030465234 0.03999774 0.051264737 -0.0733874 -0.1115612
-0.1296434 -0.048807994 0.015083 0.10602591 -0.11254273 -0.0814492 -0.06688202 -0.04784619
0.0021132936 -0.12133363 0.11902319 0.13603002 -0.13320823 -0.08639184 0.027743403 0.11499673
0.09930355 -0.1194603 0.022157228 0.12838121 0.0077706175 -0.10044644 0.12091876 -0.04161246
-0.13761823 0.056229338 0.09608866 -0.15953243 0.025273938 -0.09684557 -0.08790723 0.13354664
0.031878196 -0.041159574 -0.06091791 0.11755621 -0.0905839 -0.09345673 -0.14146483 -0.009848473
0.004752309 0.024810137 0.08324724 0.1237625 0.009676528 0.061528385 -0.048406694 0.099947564
-0.06892485 -0.028134072 -0.097220734 -0.050489597 -0.00884022 0.11721421 0.0814202 0.12374218
0.03866181 0.062280588 0.10042447 -0.0749568 -0.0650128 -0.07207873 0.059530016 0.0055203657
-0.040135156 -0.104728125 -0.037891854 -0.0484298 -0.13227198 -0.044420507 -0.0005053576 0.04636363
-0.041297156 0.054294042 -0.071817294 0.033838887 0.06677262 0.0769297 0.08202404 0.02628428
-0.060635034 0.13304013 -0.1469957 0.059845295 0.06277256 0.027084805 -0.059136406 -0.11127381
-0.051574163 0.0210447 -0.04760853 -0.109961525 -0.08740058 0.10001885 -0.035048757 0.004240226
0.1195961 -0.05546683 -0.11200702 0.026615039 -0.08876341 -0.025415853 0.029047856 -0.13302958
-0.019281648 -0.04013631 0.08889794 0.022016011 -0.08226317 0.099110775 -0.028077751 -0.094328694
-0.028405184 -0.07978837 0.062694885 -0.060569033 0.064313404 -0.011862807 0.015874097 -0.094229296
-0.087635405 0.019192122 0.0054515246 0.058067206 0.057027813 0.08309812 -0.03798749 -0.02204145
00000000: 08fe b43d e938 413d b6b3 36bd 80cb a9bc
00000010: b1f4 063e 70e9 96bd 1463 d23d 0768 12bd
00000020: 0863 8dbd cd2d 223d 3ae9 44bd 6442 d53c
00000030: a6a1 b1bd 8302 003e e37f 8f3d d4bd ff3d
00000040: a086 1a3e 376e 97bd 611d c03d cb10 d83c
00000050: 5f0e b13d 34fc dd3d 82a0 f8bc d6fc ab3b
00000060: 6166 903d 5d35 00be d2d0 df3d f2ab bb3c
00000070: 88ca ccbd de08 1bbe fa79 493d 3dbb 463d
00000080: 508d 89bc 0da5 00be 02df a03c aae1 3d3d
00000090: 413f 7ebd 63d5 613c 988b 12be 4a04 e6bc
000000a0: 2f29 85bd c0a4 a83d 9124 42bd dd23 20bd
000000b0: cf65 d0bd 1604 de3c 9514 963c 5670 d4bc
000000c0: 9434 49bd 83ce 9d3d 42ec aabc af9d c1bd
000000d0: d7b4 6c3c f574 c43c 4995 aabd 184c eabc
000000e0: f5c5 463d fc4f 853d ae65 063e 2285 d7bd
000000f0: 9b8a 6ebd 4920 c83d a973 4b3d 0a49 fd3d
00000100: a6b5 2fbc 060d e03c 3c19 a03c 3d78 8fbd
00000110: f2eb 5cbd cc68 8bbd 1997 d6ba a04a e93d
00000120: e9cc 6e3d faea 923b 4a42 2b3d 41c1 ae3c
00000130: 713a e43d 999a f73c e0a7 5dbd dfa9 f8bd
00000140: b1ff 373c 4383 f83d 254c 06be 832a a3bd
00000150: 844d 2bbe c4dc b8bd a13a 9f3d 5b23 9ebd
00000160: dd57 903c c4a9 acbc 965a e73c 36ca 863d
00000170: 5a21 2d3b d3e8 203b 574a 20bd 98bd b1bd
00000180: d353 263e a4c9 ba3d 6c98 27bc cf26 d9bc
00000190: 4376 91bd bab6 5f3d 1795 a53d 95c9 29bd
000001a0: f6ad 6a3d 5668 fc3c f42b d7bd adc1 4cbd
000001b0: 2013 1a3e 91ff 57bd b7ad d2bd 0fa8 ecbd
000001c0: c697 e43b 3954 bdbd 262a 903c cec1 64bd
000001d0: 05aa b8bd ec1f ac3d 08b8 9b3d f8f2 1f3d
000001e0: bba6 c7bd 2ac2 233d ec0b cebd 3a92 f93c
000001f0: acd4 233d f9fa 513d 224c 96bd 337a e4bd
00000200: 3dc1 04be e4ea 47bd b01e 773c 1d24 d93d
00000210: ce7c e6bd d7ce a6bd 71f9 88bd 5efa 43bd
00000220: 2f7f 0a3b c47d f8bd 6ec2 f33d 744b 0b3e
00000230: bd67 08be 34ee b0bd 2246 e33c 6883 eb3d
00000240: a95f cb3d 9aa7 f4bd 1383 b53c 5d76 033e
00000250: aaa0 fe3b ddb6 cdbd 41a4 f73d d471 2abd
00000260: cbeb 0cbe bc50 663d 22ca c43d 785c 23be
00000270: 4a0b cf3c f856 c6bd b508 b4bd 73c0 083e
00000280: b692 023d f196 28bd 0f85 79bd 4fc1 f03d
00000290: 0d84 b9bd 3e66 bfbd 28dc 10be 7d5b 21bc
000002a0: 42b9 9b3b a13e cb3c 877d aa3d 3277 fd3d
000002b0: 4d8a 1e3c 3005 7c3d 1946 46bd 4fb1 cc3d
000002c0: 7928 8dbd 6d79 e6bc aa1b c7bd 2ece 4ebd
000002d0: 92d6 10bc 010e f03d a2bf a63d 8a6c fd3d
000002e0: d95b 1e3d ee19 7f3d 58ab cd3d f382 99bd
000002f0: 6e25 85bd 039e 93bd bfd5 733d 2fe4 b43b
00000300: c364 24bd b37b d6bd 7d34 1bbd 535e 46bd
00000310: 4e72 07be 47f2 35bd f979 04ba cae7 3d3d
00000320: 3527 29bd 6e63 5e3d f214 93bd a59a 0a3d
00000330: 15c0 883d 528d 9d3d 38fc a73d 2152 d73c
00000340: 715c 78bd ac3b 083e 0a86 16be 5720 753d
00000350: e68e 803d f4e0 dd3c 0439 72bd 86e3 e3bd
00000360: 6e3f 53bd ef65 ac3c 2901 43bd 8233 e1bd
00000370: 13ff b2bd afd6 cc3d 498f 0fbd 98f1 8a3b
00000380: cdee f43d 3031 63bd f063 e5bd c807 da3c
00000390: 97c9 b5bd e834 d0bc c5f5 ed3c e838 08be
000003a0: 8cf4 9dbc f965 24bd 2010 b63d ec5a b43c
000003b0: 9879 a8bd 97fa ca3d 5003 e6bc 672f c1bd
000003c0: fdb1 e8bc 1668 a3bd 2d66 803d 3c17 78bd
000003d0: bfb6 833d 385c 42bc 650a 823c 4afb c0bd
000003e0: 317a b3bd cc38 9d3c b4a2 b23b e1d7 6d3d
000003f0: ff95 693d 592f aa3d c598 1bbd 4590 b4bc

encoder.layers.0.self_attn.out_proj.bias f4 [64]
0.0043055466 -0.01017558 0.0018386749 0.0034712686 0.006239513 -0.01775431 -0.003544667 0.008672694
0.0037851476 -0.001895966 -0.00036761307 0.0058498424 0.00327903 -0.0117464345 0.0031528263 0.0012711687
-0.0018233638 0.0059033157 -0.01380102 -0.0018551555 -0.00060153863 -0.025376685 9.3463714e-05 -0.007314954
0.002775908 0.01624369 0.0012523452 -0.007049926 -0.022298232 0.00042716315 -0.0018997086 -0.007831548
0.013589323 0.0071028825 -0.008335167 -0.00096237066 -0.009017586 -0.0077179256 -0.0068937074 -0.01714108
0.0077831815 0.006253397 0.012202269 0.0025336845 0.007956995 -0.0041421694 -0.00037598956 0.007921713
0.01503368 0.0022092573 -0.008374308 -0.0036153498 0.018758954 0.0039773462 0.0015223391 -0.018704513
-0.01465302 -0.0064658374 0.0030400103 -0.0095940875 0.0029358906 0.008597245 -0.0069907196 0.0068599936
00000000: 8b15 8d3b 7ab7 26bc b1ff f03a 397e 633b
00000010: d474 cc3b 7d71 91bc a54d 68bb ea17 0e3c
00000020: 3d10 783b 1082 f8ba 31bc c0b9 09b0 bf3b
00000030: ffe4 563b 1e74 40bc a69f 4e3b 589d a63a
00000040: f0fd eeba 9a70 c13b ac1d 62bc b028 f3ba
00000050: 93b0 1dba c4e2 cfbc f301 c438 48b2 efbb
00000060: 02ec 353b 7d11 853c bb25 a43a 1103 e7bb
00000070: c8aa b6bc def4 df39 a5ff f8ba e54f 00bc
00000080: c0a5 5e3c 4cbf e83b 3990 08bc 9a47 7cba
00000090: 7fbe 13bc a7e6 fcbb 9ce4 e1bb 736b 8cbc
000000a0: 0f0a ff3b 4ce9 cc3b 07ec 473c 2c0c 263b
000000b0: 0e5e 023c 09bb 87bb 7720 c5b9 13ca 013c
000000c0: d34f 763c 30c9 103b 6534 09bc 81ef 6cbb
000000d0: 61ac 993c 6654 823b 3989 c73a 353a 99bc
000000e0: 3813 70bc 60df d3bb e93a 473b 8530 1dbc
000000f0: 1268 403b 76db 0c3c 6812 e5bb ccc9 e03b

encoder.layers.0.linear1.weight f4 [128, 64]
-0.08107137 0.06354925 0.19119984 -0.07467544 -0.013116307 -0.105277315 0.08914259 0.12935616
-0.057963654 -0.02244905 -0.1214639 -0.12799145 0.1309886 -0.09851827 0.121217184 -0.06653169
-0.0021846679 0.17883866 -0.1810432 -0.04826152 0.09257054 -0.08144054 -0.04620027 0.07671867
-0.066769846 0.12267766 -0.03706756 -0.0027659095 -0.12625276 0.10048049 -0.08165554 -0.048179336
0.03907991 -0.07403284 0.09660273 -0.028212702 -0.052620318 0.061514262 -0.009427514 0.054600146
0.15230347 -0.047389336 0.04051442 0.1576069 -0.0068280036 -0.16612051 0.031906277 0.11808483
0.036676925 -0.15448822 -0.14746524 0.07169813 0.012607371 0.063799955 -0.019597527 0.008809558
0.16053642 0.019324405 -0.116386965 -0.09810709 0.02472906 0.027113887 0.052760623 -0.0040110108
0.0603206 -0.19888137 0.01883877 -0.049280696 0.1142191 -0.11079575 0.04663925 -0.041035715
0.055947617 -0.025703011 -0.02654134 0.04884077 -0.057112485 -0.060685422 -0.008797699 0.11971825
-0.079424664 -0.011115792 -0.15225424 0.06617444 -0.00676169 -0.13587135 -0.16009733 -0.010805519
0.08425095 0.13292369 0.07241386 0.14609718 -0.061785165 -0.023265086 -0.04319335 0.02336675
0.010207314 -0.047153648 0.01633632 0.045892134 0.037466127 0.021811007 -0.0626573 -0.023077942
0.042040348 -0.029848678 -0.12199176 0.043860476 0.1288897 -0.009834639 0.10388329 -0.040263977
0.095216766 -0.080363505 -0.12438793 -0.07946382 0.04741283 -0.005307083 -0.034456316 -0.13538963
-0.017827503 -0.12761207 0.083148435 0.0016376342 0.049364474 0.056666072 0.0939098 -0.06990823
0.0597347 -0.095276594 0.01867211 -0.10018175 0.012671775 -0.04507979 -0.113695025 -0.026244558
-0.058098465 0.044752106 -0.113922 0.1227149 0.110622816 0.07566969 -0.001846505 0.05226129
0.08539095 -0.086383194 -0.08268571 -0.09903274 -0.05108289 0.10371516 -0.013250024 0.058912475
0.07270588 0.05761319 -0.13309205 0.059922945 -0.07468563 0.007957779 -0.09835952 0.096496575
-0.0435182 0.08813586 0.011217292 0.038224686 0.09839875 -0.09211167 0.0443768 -0.04903563
0.10433592 -0.06537962 0.116849296 -0.03872849 0.049965773 0.055869233 0.053128824 -0.11056624
0.067412905 0.08967583 0.0499538 0.119410545 0.013566074 0.06400341 4.2615866e-05 0.13389002
-0.012509693 -0.025638321 -0.07651864 0.014565793 0.08737349 0.046529345 -0.08660669 0.10962244
-0.0028067084 0.052717734 0.10061022 -0.0760005 -0.11056096 0.07818141 -0.07844098 0.089265294
0.094100125 -0.015401723 -0.046239454 0.12952775 -0.05081071 0.046747357 -0.089273706 -0.08833792
-0.047702476 0.007435965 -0.09691024 0.023590565 0.07264404 -0.029316338 0.0602217 -0.10576615
-0.0012320944 0.0035083364 0.014801319 0.049068727 0.1234832 0.0018023287 -0.09564006 -0.11131679
-0.007850659 0.08018285 -0.07258282 -0.004735935 -0.043006968 0.09422937 0.1102448 0.108516626
-0.03456723 -0.04992051 -0.06433034 -0.015042919 -0.038647614 0.027694324 -0.10918973 -0.010870578
0.022350822 -0.11153199 -0.044834852 0.09217127 0.0779322 0.0054649524 0.115524694 0.029462213
-0.09462459 0.1124658 0.087401435 -0.105118476 -0.062339008 0.07819832 0.09479332 -0.057631522
00000000: bf08 a6bd 1c26 823d e4c9 433e 70ef 98bd
00000010: c7e5 56bc a29b d7bd 6490 b63d f175 043e
00000020: 4c6b 6dbd 12e7 b7bc 11c2 f8bd 3110 03be
00000030: e021 063e f2c3 c9bd b740 f83d c441 88bd
00000040: a52c 0fbb 7b21 373e 6363 39be dfad 45bd
00000050: a095 bd3d 4cca a6bd 7f3c 3dbd ae1e 9d3d
00000060: a1be 88bd 6d3e fb3d 27d4 17bd 4344 35bb
00000070: 6748 01be b7c8 cd3d 053b a7bd b257 45bd
00000080: 4112 203d 889e 97bd a7d7 c53d 531e e7bc
00000090: 6788 57bd 61f6 7b3d dc75 1abc 67a4 5f3d
000000a0: 71f5 1b3e 521b 42bd 73f2 253d b463 213e
000000b0: 72bd dfbb 7f1b 2abe 28b0 023d 76d6 f13d
000000c0: 8b3a 163d 2932 1ebe 2101 17be 78d6 923d
000000d0: 268f 4e3c 8da9 823d fe8a a0bc f755 103c
000000e0: a963 243e 374e 9e3c 4a5c eebd 5fec c8bd
000000f0: 9994 ca3c f11d de3c 861b 583d cc6e 83bb
00000100: bc12 773d 8fa7 4bbe c453 9a3c 8eda 49bd
00000110: b4eb e93d e2e8 e2bd cc08 3f3d 1115 28bd
00000120: 5429 653d 1f8f d2bc 396d d9bc 420d 483d
00000130: c8ee 69bd 4791 78bd 3924 10bc d82e f53d
00000140: 66a9 a2bd 031f 36bc 89e8 1bbe 7786 873d
00000150: 2b91 ddbb dc21 0bbe 8ef0 23be a209 31bc
00000160: c38b ac3d 261d 083e b84d 943d 809a 153e
00000170: 7112 7dbd 6c96 bebc 83eb 30bd a06b bf3c
00000180: 943c 273c 2f24 41bd bfd3 853c 64f9 3b3d
00000190: 1576 193d ffac b23c 7852 80bd f40d bdbc
000001a0: 8032 2c3d 3785 f4bc d1d6 f9bd 0ba7 333d
000001b0: a9fb 033e 7721 21bc c3c0 d43d d7eb 24bd
000001c0: 0201 c33d 9f95 a4bd 19bf febd edbd a2bd
000001d0: f533 423d 0ae7 adbb 1122 0dbd 94a3 0abe
000001e0: fc0a 92bc bdac 02be ba49 aa3d e3a5 d63a
000001f0: 6732 4a3d af1a 683d c853 c03d 0c2c 8fbd
00000200: 5fac 743d 6020 c3bd 41f6 983c 172c cdbd
00000210: 479d 4f3c 96a5 38bd f0d8 e8bd d4fe d6bc
00000220: a8f8 6dbd fc4d 373d f04f e9bd f351 fb3d
00000230: 378e e23d b6f8 9a3d 6d06 f2ba ef0f 563d
00000240: 73e1 ae3d ace9 b0bd 2057 a9bd add1 cabd
00000250: 4b3c 51bd 9d68 d43d a116 59bc 354e 713d
00000260: d2e6 943d cffb 6b3d 4849 08be c371 753d
00000270: c8f4 98bd 5861 023c b770 c9bd ff9f c53d
00000280: 2440 32bd 9380 b43d bcc8 373c 7d91 1c3d
00000290: 4985 c93d 0ba5 bcbd 73c4 353d 96d9 48bd
000002a0: 12ae d53d c0e5 85bd af4e ef3d c4a1 1ebd
000002b0: e9a8 4c3d 23d7 643d 9c9d 593d 8e70 e2bd
000002c0: c70f 8a3d f6a7 b73d 5b9c 4c3d 848d f43d
000002d0: 3d44 5e3c 3814 833d 70be 3238 771a 093e
000002e0: 75f5 4cbc 7507 d2bc ceb5 9cbd 5da5 6e3c
000002f0: dff0 b23d 8e95 3e3d d95e b1bd bb81 e03d
00000300: c1f0 37bb 8dee 573d bb0c ce3d 26a6 9bbd
00000310: c96d e2bd 931d a03d aaa5 a0bd b9d0 b63d
00000320: 91b7 c03d 8257 7cbc 9565 3dbd eca2 043e
00000330: e41e 50bd 287a 3f3d 22d5 b6bd 83ea b4bd
00000340: ac63 43bd 65a9 f33b e078 c6bd 0041 c13c
00000350: 66c6 943d d128 f0bc 08ab 763d ec9b d8bd
00000360: 3a7e a1ba 1eec 653b 3b81 723c 4afc 483d
00000370: c3e4 fc3d 1e3c ec3a f0de c3bd 0ffa e3bd
00000380: 0da0 00bc e836 a43d 4da6 94bd e72f 9bbb
00000390: 1328 30bd 54fb c03d 07c8 e13d f73d de3d
000003a0: 5e96 0dbd 7379 4cbd a0bf 83bd 9376 76bc
000003b0: f64c 1ebd 35df e23c dd9e dfbd 821a 32bc
000003c0: 1219 b73c e26a e4bd c0a4 37bd 4ac4 bc3d
000003d0: eb9a 9f3d 5813 b33b 3698 ec3d bd5a f13c
000003e0: 89ca c1bd 7854 e63d 86ff b23d 5b48 d7bd
000003f0: 3057 7fbd 7126 a03d 0023 c23d 080f 6cbd

encoder.layers.0.linear1.bias f4 [128]
0.09912515 -0.09989933 -0.13553607 -0.05542894 0.022942178 -0.07608459 -0.0795879 -0.09025424
-0.055701658 -0.030101847 -0.013713425 0.02930552 0.027381947 0.0148991 0.0034888284 -0.07396493
-0.04303455 -0.08072894 0.058594007 0.0013706657 0.017144691 -0.003955067 -0.03289175 -0.03599656
0.0089493105 0.07743345 0.07300671 -0.056138024 -0.14097948 0.0423577 -0.02755431 -0.0106601445
0.07201008 0.11032951 -0.022898184 -0.017988661 -0.037094735 -0.010939694 -0.04321695 0.019497918
-0.077656455 -0.11710585 0.06628814 0.08115428 -0.056381572 -0.01911584 0.06486018 -0.06253924
-0.06361964 -0.049822852 0.10460897 0.08672341 0.0881581 -0.1441646 -0.054713037 -0.11474778
0.028418308 0.10810348 -0.06310046 0.050788563 -0.10617175 -2.370708e-05 -0.05107666 0.0027281272
-0.022663327 0.039365284 -0.09054088 0.058370993 -0.079699665 0.025084542 0.11759801 0.0038978946
-0.09328605 0.034496818 0.053016055 -0.054877866 -0.07878021 0.04432593 -0.1027552 -0.047269654
-0.08452529 0.011048864 0.055908468 -0.06502789 -0.027357422 0.06846465 0.0031191693 0.022791961
-0.022964817 -0.075676985 -0.047581878 -0.07198335 0.07225298 0.02245158 0.09180597 0.01714266
0.09160654 -0.019059686 -0.09421676 0.02780408 -0.044535756 0.0645498 0.047375623 -0.10810331
0.08929672 -0.112822734 0.09021142 0.09840227 0.018392583 -0.013736626 0.004753334 -0.044466533
-0.09824799 0.09306531 0.038532604 0.10930423 0.119926594 -0.07418495 0.034899 0.041439172
0.09870118 0.0550688 -0.03250661 0.02354725 0.06588384 -0.0567253 -0.10051931 -0.10110088
00000000: 2002 cb3d 0598 ccbd f8c9 0abe 7509 63bd
00000010: 3cf1 bb3c 3dd2 9bbd fbfe a2bd 37d7 b8bd
00000020: 6c27 64bd 2698 f6bc 46ae 60bc 2112 f03c
00000030: 1b50 e03c 5b1b 743c d4a4 643b ed7a 97bd
00000040: ff44 30bd 3755 a5bd 4500 703d e9a7 b33a
00000050: 0673 8c3c 8299 81bb 80b9 06bd 2171 13bd
00000060: 21a0 123c 6e95 9e3d 8b84 953d fcf0 65bd
00000070: ed5c 10be 457f 2d3d 94b9 e1bc e3a7 2ebc
00000080: 057a 933d 70f4 e13d f994 bbbc f55c 93bc
00000090: a6f0 17bd 673c 33bc 4204 31bd 19ba 9f3c
000000a0: 590a 9fbd 31d5 efbd 14c2 873d 3734 a63d
000000b0: 5df0 66bd d298 9cbc 6ad5 843d 9314 80bd
000000c0: 044b 82bd 0c13 4cbd 3a3d d63d 0b9c b13d
000000d0: 3c8c b43d e39f 13be c71a 60bd e200 ebbd
000000e0: 83cd e83c 5b65 dd3d d03a 81bd ab07 503d
000000f0: 9370 d9bd 91de c6b7 c335 51bd 61ca 323b
00000100: 71a8 b9bc 7e3d 213d 7f6d b9bd 6c16 6f3d
00000110: 9439 a3bd 197e cd3c 3ad7 f03d d273 7f3b
00000120: c20c bfbd 894c 0d3d 5d27 593d 9dc7 60bd
00000130: 8557 a1bd 1b8f 353d 5171 d2bd d39d 41bd
00000140: 981b adbd 4b06 353c 4700 653d 582d 85bd
00000150: ac1c e0bc 3237 8c3d fa6a 4c3b 35b6 ba3c
00000160: b620 bcbc 89fc 9abd 37e5 42bd 026c 93bd
00000170: 5ff9 933d 60ec b73c c504 bc3d c46e 8c3c
00000180: 369c bb3d 0f23 9cbc b7f4 c0bd 62c5 e33c
00000190: 206b 36bd af32 843d f10c 423d 4565 ddbd
000001a0: 33e1 b63d 9b0f e7bd c4c0 b83d 2187 c93d
000001b0: 0bac 963c 960f 61bc dbc1 9b3b 8a22 36bd
000001c0: 3e36 c9bd 0699 be3d 5dd4 1d3d e5da df3d
000001d0: 139c f53d 47ee 97bd 41f2 0e3d 1fbc 293d
000001e0: d823 ca3d d28f 613d a725 05bd 2ae6 c03c
000001f0: 1bee 863d ca58 68bd 11dd cdbd fa0d cfbd

encoder.layers.0.linear2.weight f4 [64, 128]
0.020220142 0.032543235 -0.07512069 -0.02303674 0.00813444 -0.04537446 0.013463604 0.10462952
-0.03490144 -0.071587436 -0.1224724 -0.064477436 -0.013883477 -0.020893032 -0.03735584 -0.013551904
0.011723716 0.062832125 -0.052326653 0.04814547 0.03859498 0.059698205 -0.040248655 -0.06149996
0.041117582 0.026062258 -0.048715677 0.0048063197 -0.011124237 -0.040043797 -0.028310077 0.0916785
-0.021063538 -0.00959514 -0.03623373 -0.06832313 0.069561616 0.08133618 0.023225231 0.04518402
-0.0036519198 0.03268831 0.009600227 0.08993196 -0.0132131735 -0.083982736 0.070307344 0.11667118
0.040530816 0.052660067 -0.035768572 0.03484695 -0.011951828 -0.04023759 -0.033705264 -0.052633423
-0.06670404 0.037594825 0.026471134 0.016213603 0.06206091 0.05497492 0.04937471 0.07899661
-0.03452901 0.008919869 0.06440955 -0.0912609 -0.06835509 0.031476587 -0.018462325 -0.052410394
-0.018009413 -0.06864374 -0.0060460926 -0.004754391 0.038566772 0.005393606 -0.075229004 -0.020735232
-0.020975139 -0.015977802 0.101034656 0.022576476 -0.007764759 -0.034521166 -0.06560621 -0.05452828
-0.07303377 0.03761576 0.027269285 -0.08320282 0.05890086 0.07702719 0.06487405 -0.016226863
0.074344 -0.083568126 -0.001562027 -0.061546963 0.021270791 0.06573541 -0.036482498 -0.064799964
-0.07949253 -0.031111348 0.036525737 -0.048513573 0.15954503 -0.06111731 0.006375031 -0.08117578
-0.007852459 -0.03886542 0.04726664 -0.017883819 0.06622737 0.05236997 -0.064878784 0.051611707
-0.027557114 0.05071468 -0.013351393 -0.04077844 -0.044278592 -0.029150195 -0.01271979 0.08812447
0.06508448 0.0014348355 -0.015643187 0.016796287 0.019827724 -0.029636577 -0.031845573 -0.0887592
-0.015971266 -0.045641564 0.050050363 -0.019474983 0.040047582 -0.045429938 0.0042943987 -0.11299273
0.077753104 -0.048516743 0.02966232 -0.052729823 -0.021215009 -0.04442843 -0.035993237 0.022726448
0.042963285 0.009030124 -0.10508996 -0.008086115 -0.0019308216 -0.011716344 -0.06755833 -0.03344903
0.028589042 -0.039676603 -0.058206923 -0.06399496 -0.017357258 0.06757682 -0.023160802 -0.06429378
-0.088044345 -0.049580973 -0.061014738 0.012114001 0.046594292 -0.099688984 -0.00015145312 -0.04180896
-0.04013786 -0.045550644 -0.023701627 0.024937768 0.070778444 0.040100724 -0.03560117 -0.023913668
0.033149876 0.055250537 -0.057512593 -0.044163566 0.00965746 0.0035397022 -0.0511315 -0.04627811
0.030844964 -0.052795846 -0.06693763 0.07701922 0.0013388825 0.0010570709 -0.08519481 -0.0784442
-0.022501616 -0.044168588 0.007732373 0.05767892 -0.07008828 0.060699984 -0.124085255 0.024702586
0.061755836 -0.03381745 -0.07843836 -0.035830732 -0.11196082 -0.0864189 0.082413204 0.013004478
0.016096994 0.0285907 -0.0040945974 0.07732249 -0.10908688 -0.13954842 -0.0872353 -0.06916982
-0.0035543286 -0.014840167 -0.07273057 -0.08345756 0.0121878125 -0.03259144 0.009996761 -0.09325658
-0.035565484 -0.027601885 -0.066916145 0.03379316 0.0328837 -0.10584506 0.036014996 -0.046165295
0.032190777 -0.005756671 -0.042672787 -0.046938363 0.017380333 0.011606098 0.0114706475 0.0787849
-0.011501912 -0.004774611 -0.03203374 -0.01399233 -0.040554374 -0.042094193 -0.018338522 0.018742612
00000000: b6a4 a53c 0e4c 053d e0d8 99bd 8cb7 bcbc
00000010: 5046 053c 92da 39bd 7396 5c3c 0048 d63d
00000020: d0f4 0ebd 6f9c 92bd cfd2 fabd bf0c 84bd
00000030: 8677 63bc dd27 abbc 7002 19bd ce08 5ebc
00000040: d414 403c 21ae 803d 7954 56bd 2f34 453d
00000050: c515 1e3d 1b86 743d c6db 24bd 62e7 7bbd
00000060: e96a 283d 8480 d53c 178a 47bd 557e 9d3b
00000070: 6f42 36bc f704 24bd 89ea e7bc f0c1 bb3d
00000080: 718d acbc ef34 1dbc d269 14bd ffec 8bbd
00000090: 5276 8e3d 9593 a63d d742 be3c e112 393d
000000a0: 0c55 6fbb 2de4 053d 454a 1d3c 3f2e b83d
000000b0: 117c 58bc 24ff abbd 4cfd 8f3d 4df1 ee3d
000000c0: a403 263d 15b2 573d 1182 12bd adbb 0e3d
000000d0: 9ad1 43bc 2cd0 24bd 880e 0abd 2596 57bd
000000e0: 219c 88bd 08fd 193d fed9 d83c 64d2 843c
000000f0: 9533 7e3d 622d 613d 233d 4a3d fac8 a13d
00000100: 4b6e 0dbd a424 123c 27e9 833d ffe6 babd
00000110: c1fd 8bbd 98ed 003d 4d3e 97bc 48ac 56bd
00000120: 7a88 93bc 1795 8cbd 4d1e c6bb b9ca 9bbb
00000130: 31f8 1d3d d9bc b03b aa11 9abd efdc a9bc
00000140: 0ed4 abbc e1e3 82bc 42eb ce3d 4df2 b83c
00000150: 856f febb 1166 0dbd 8c5c 86bd 0c59 5fbd
00000160: bb92 95bd fc12 1a3d d663 df3c 3d66 aabd
00000170: 0742 713d 6ec0 9d3d b0dc 843d 33ee 84bc
00000180: ab41 983d c425 abbd eebc ccba ab18 7cbd
00000190: 1540 ae3c 49a0 863d ac6e 15bd d8b5 84bd
000001a0: fbcc a2bd 3add febc 039c 153d 2bb6 46bd
000001b0: c65f 233e 2556 7abd a3e5 d03b 7d3f a6bd
000001c0: 9aa7 00bc 5931 1fbd aa9a 413d 1681 92bc
000001d0: 37a2 873d e581 563d 2bdf 84bd cc66 533d
000001e0: 75bf e1bc 32ba 4f3d cdbf 5abc 4b07 27bd
000001f0: 785d 35bd 64cc eebc ab66 50bc 9a7a b43d
00000200: 034b 853d 1711 bc3a 2426 80bc 5e98 893c
00000210: c06d a23c 68c8 f2bc 8170 02bd 62c7 b5bd
00000220: 2cd6 82bc a6f2 3abd 9c01 4d3d 008a 9fbc
00000230: ef08 243d be14 3abd 07b8 8c3b bc68 e7bd
00000240: 053d 9f3d 7eb9 46bd 65fe f23c 3afb 57bd
00000250: 19cb adbc 96fa 35bd a56d 13bd d12c ba3c
00000260: 45fa 2f3d 16f3 133c 6839 d7bd a07b 04bc
00000270: 9f13 fdba e9f5 3fbc 065c 8abd da01 09bd
00000280: 9133 ea3c ef83 22bd 626a 6ebd ca0f 83bd
00000290: cf30 8ebc b765 8a3d b9bb bdbc 75ac 83bd
000002a0: 9850 b4bd 6b15 4bbd 97ea 79bd ce79 463c
000002b0: a8d9 3e3d bd29 ccbd 63cf 1eb9 df3f 2bbd
000002c0: 9967 24bd 5093 3abd ea29 c2bc 4a4a cc3c
000002d0: 4af4 903d a840 243d 88d2 11bd 99e6 c3bc
000002e0: 2ac8 073d 634e 623d 5392 6bbd dbe4 34bd
000002f0: 533a 1e3c 59fa 673b 446f 51bd 1e8e 3dbd
00000300: 94ae fc3c 7540 58bd 9916 89bd 41bc 9d3d
00000310: 717d af3a 6a8d 8a3a 9e7a aebd 5aa7 a0bd
00000320: 4f55 b8bc 1fea 34bd d95f fd3b bb40 6c3d
00000330: 728a 8fbd 8ca0 783d 6920 febd 145d ca3c
00000340: b0f3 7c3d 2b84 0abd 4aa4 a0bd 3fc3 12bd
00000350: b74b e5bd 64fc b0bd 41c8 a83d bc10 553c
00000360: d8dd 833c 0b37 ea3c f92b 86bb 415b 9e3d
00000370: f168 dfbd c8e5 0ebe 6ca8 b2bd e8a8 8dbd
00000380: bdef 68bb 2c24 73bc c4f3 94bd cceb aabd
00000390: 64af 473c 9a7e 05bd 74c9 233c 4efd bebd
000003a0: 1dad 11bd 591d e2bc 550b 89bd b26a 0a3d
000003b0: 0fb1 063d 4bc5 d8bd 7684 133d d217 3dbd
000003c0: 7ada 033d 75a2 bcbb a9c9 2ebd 7142 40bd
000003d0: 3361 8e3c 8127 3e3c 62ef 3b3c fa59 a13d
000003e0: 8472 3cbc 5774 9cbb d035 03bd 1640 65bc
000003f0: 581c 26bd f66a 2cbd ab3a 96bc 1b8a 993c

encoder.layers.0.linear2.bias f4 [64]
0.0863685 -0.05983193 -0.053038333 -0.07114513 -0.05216094 -0.08336297 0.011962961 0.031924114
-0.027662098 0.075463265 -0.031998232 -0.031468213 -0.061334055 -0.0901323 0.06572087 0.009818687
0.06543871 -0.0064178505 -0.061065197 0.009354053 0.00058521016 -0.028358893 -0.0085523715 0.06477421
0.0011941813 0.017822955 -0.0060448423 0.07139052 0.023201229 0.0059960727 -0.024853416 0.015238086
-0.04281539 -0.06919074 -0.027204309 -0.023157757 0.0019424971 0.04527346 -0.010430139 -0.007868465
-0.021578373 -0.05723781 0.00373124 -0.027473424 0.0049234303 -0.018701142 -0.04491396 -0.024986
0.030035915 0.045710392 -0.08175385 -0.083435744 -0.06555902 0.069489606 0.009931505 -0.10762781
-0.067831375 0.025381861 -0.07510032 0.07638299 -0.047967672 -0.0072315163 -0.06935929 0.025252832
00000000: f8e1 b03d 5312 75bd b93e 59bd 8ab4 91bd
00000010: b6a6 55bd 34ba aabd 4c00 443c dcc2 023d
00000020: a09b e2bc 7c8c 9a3d 9410 03bd d0e4 00bd
00000030: 6b39 7bbd 4997 b8bd aa98 863d 8fde 203c
00000040: bb04 863d d54c d2bb 801f 7abd be41 193c
00000050: ca68 193a e950 e8bc 3f1f 0cbc 57a8 843d
00000060: 1386 9c3a 7201 923c d013 c6bb 3135 923d
00000070: 8110 be3c b47a c43b 6499 cbbc 2aa9 793c
00000080: 315f 2fbd e0b3 8dbd 92db debc 56b5 bdbc
00000090: 639b fe3a aa70 393d 2ce3 2abc bcea 00bc
000000a0: 21c5 b0bc 3272 6abd d287 743b f20f e1bc
000000b0: ba54 a13b 2333 99bc b3f7 37bd 71af ccbc
000000c0: e10d f63c d23a 3b3d 906e a7bd 5ce0 aabd
000000d0: cf43 86bd 9150 8e3d c0b7 223c f86b dcbd
000000e0: 2deb 8abd 9fed cf3c 32ce 99bd af6e 9c3d
000000f0: c079 44bd 5bf6 ecbb 3e0c 8ebd 07df ce3c

encoder.layers.0.norm1.weight f4 [64]
0.9951142 1.0113499 1.0281893 0.99369216 0.9917056 0.9973948 1.0333918 1.027949
1.0132377 0.9899082 1.03187 1.0132167 1.001343 0.98605984 1.0052887 1.0079459
1.0114201 1.0198525 1.0493658 1.0024931 1.0092406 0.9968659 1.0281787 1.006222
1.0129274 0.9997347 1.0404576 1.0170442 0.9892338 0.9872177 1.0579588 1.0024983
0.99239516 0.99783105 0.97822046 1.005782 1.0094373 1.0076709 1.0054313 0.9856933
1.0095356 1.004822 0.99726707 1.0259962 1.00686 1.0170139 0.98996246 1.0026244
0.9917109 0.9956078 1.0067558 1.0007191 0.9976863 0.985528 0.99363726 0.9861528
0.993698 1.026043 0.9993567 1.0114864 1.0205859 0.994025 0.9822474 0.9760622
00000000: cebf 7e3f ea73 813f b59b 833f 9c62 7e3f
00000010: 6be0 7d3f 4455 7f3f 2f46 843f d593 833f
00000020: c6b1 813f a06a 7d3f 5114 843f 16b1 813f
00000030: 022c 803f 6b6e 7c3f 4dad 803f 5f04 813f
00000040: 3776 813f 878a 823f 9e51 863f b251 803f
00000050: cc2e 813f 9b32 7f3f 5c9b 833f e2cb 803f
00000060: 9ba7 813f 9dee 7f3f b72d 853f 812e 823f
00000070: 6d3e 7d3f 4dba 7c3f 326b 873f dd51 803f
00000080: 9c0d 7e3f db71 7f3f a86c 7a3f 77bd 803f
00000090: 3e35 813f 5cfb 803f f9b1 803f 6556 7c3f
000000a0: 7638 813f 029e 803f e54c 7f3f d853 833f
000000b0: cae0 803f 832d 823f 2e6e 7d3f ff55 803f
000000c0: c4e0 7d3f 27e0 7e3f 60dd 803f 9017 803f
000000d0: 5f68 7f3f 904b 7c3f 035f 7e3f 8374 7c3f
000000e0: fe62 7e3f 6155 833f d7d5 7f3f 6378 813f
000000f0: 8fa2 823f 6c78 7e3f 9174 7b3f 36df 793f

encoder.layers.0.norm1.bias f4 [64]
0.01510565 -0.013357932 0.017590381 0.0031898124 0.00753193 -0.021165213 -0.00391501 0.014231707
-0.00064036716 0.002754427 0.0028473947 0.006435878 0.010514119 -0.028381383 0.008980722 -0.005392534
-0.0074088057 0.0031707129 -0.008521402 0.0019504 -0.013904099 -0.023642538 0.0019866456 -0.006835923
0.013109971 0.023395136 0.0007581637 -0.0148478495 -0.027750645 -0.0074407733 -0.004905769 -0.00790877
0.031110372 0.023264665 -0.0069763903 0.0030021886 -0.01699123 -0.011467249 -0.0028853181 -0.03758497
0.0067134607 0.019215748 0.0060391845 0.014031707 0.01574459 -0.00766227 -0.01267363 0.010669889
0.019569997 -0.004189405 -0.010670551 -0.026637383 0.02606685 0.0026556288 0.0058675413 -0.023209104
-0.011683765 -0.020156194 0.004742915 0.008309839 -0.0026053407 0.014544489 -0.023268187 0.012986478
00000000: b07d 773c 3adb 5abc b419 903c 2c0c 513b
00000010: 69ce f63b ab62 adbc 7c49 80bb 1b2c 693c
00000020: 50de 27ba 9e83 343b 5b9b 3a3b 0fe4 d23b
00000030: 6943 2c3c 1380 e8bc e123 133c dbb3 b0bb
00000040: 91c5 f2bb bccb 4f3b 5a9d 0bbc 90a4 ff3a
00000050: 05ce 63bc ffad c1bc 6232 023b e1ff dfbb
00000060: 34cb 563c 28a7 bf3c 81bf 463a 6544 73bc
00000070: 5255 e3bc bbd1 f3bb 93c0 a0bb c993 01bc
00000080: 2edb fe3c 8a95 be3c 349a e4bb 5ec0 443b
00000090: 3131 8bbc 21e1 3bbc 9b17 3dbb b3f2 19bd
000000a0: 97fc db3b 586a 9d3c 5ae4 c53b 3fe5 653c
000000b0: ccfa 803c c813 fbbb 0fa5 4fbc c2d0 2e3c
000000c0: 4251 a03c 4747 89bb 89d3 2ebc a436 dabc
000000d0: 268a d53c 0f0a 2e3b 8144 c03b 0521 bebc
000000e0: 436d 3fbc 9a1e a5bc 746a 9b3b fe25 083c
000000f0: 5dbe 2abb 024c 6e3c ed9c bebc 3dc5 543c

encoder.layers.0.norm2.weight f4 [64]
0.9890882 1.0037398 1.0068296 0.99663645 1.0003846 0.99470913 1.0129979 1.0274756
1.0159606 0.99378186 1.015526 1.0123454 0.9997135 0.97294843 0.9914353 1.0054442
1.0053569 1.0675131 1.0132862 1.0228457 1.009255 1.001378 1.0357165 1.0298253
1.0199957 1.0139024 1.0185083 1.0203009 0.98652554 0.98798007 1.0090013 0.9919578
1.0078477 1.0190713 0.9949186 0.9811149 1.0360718 1.0124226 1.0046587 0.9885699
1.0032442 1.0070459 1.0258433 1.0067756 1.0074693 1.0306125 1.0317619 1.0105394
0.9949673 0.9986494 1.0176443 1.0199841 1.0025623 0.99189866 0.99084085 0.9923101
1.0444841 1.0070764 1.0060883 1.0110407 1.0118221 1.000494 0.9942645 0.9974718
00000000: e234 7d3f 8c7a 803f cbdf 803f 9123 7f3f
00000010: 9a0c 803f 42a5 7e3f eaa9 813f 5284 833f
00000020: ff0a 823f 7d68 7e3f c2fc 813f 8994 813f
00000030: 39ed 7f3f 2613 793f b4ce 7d3f 65b2 803f
00000040: 89af 803f 45a4 883f 5db3 813f 9cec 823f
00000050: 452f 813f 282d 803f 5c92 843f 51d1 833f
00000060: 388f 823f 8ec7 813f 7b5e 823f 3899 823f
00000070: f08c 7c3f 43ec 7c3f f426 813f f2f0 7d3f
00000080: 2701 813f ee70 823f fcb2 7e3f 592a 7b3f
00000090: 009e 843f 1097 813f a898 803f eb12 7d3f
000000a0: 4e6a 803f e1e6 803f d54e 833f 06de 803f
000000b0: c1f4 803f 1ceb 833f c610 843f 5b59 813f
000000c0: 2db6 7e3f 7da7 7f3f 2b42 823f d78e 823f
000000d0: f653 803f 12ed 7d3f bfa7 7d3f 0908 7e3f
000000e0: a8b1 853f e1e7 803f 80c7 803f c869 813f
000000f0: 6383 813f 3010 803f 1e88 7e3f 505a 7f3f

encoder.layers.0.norm2.bias f4 [64]
0.011288392 -0.008703812 0.0061667785 0.004725005 0.0011525215 -0.0139173865 -0.0072735474 0.008896903
-0.0036729055 0.007705466 0.0031984798 0.008898852 0.006659745 -0.012703209 0.0050522317 -0.002491407
-0.006875177 0.0037483904 -0.0039424696 0.0042837164 -0.0040266565 -0.004405863 0.009184447 -0.018099252
0.010407868 0.018857822 -0.0011006345 -0.013096647 -0.020202 -0.0033985148 0.0012945641 -0.0016198005
0.009685676 -0.003864511 0.0033557073 0.005718291 -0.013279978 -0.0060009235 -0.00614726 -0.018042661
0.004888374 0.02931952 0.005278843 0.00876643 0.012491804 -0.0047392882 0.002896102 0.0013612447
0.015645051 0.0018816331 -0.0048856284 -0.008549513 0.0053100763 0.0025075113 0.008053634 -0.015850147
-0.008795964 -0.010164275 0.008373177 0.002780162 0.0019019385 0.01082816 -0.022671795 0.020409817
00000000: f3f2 383c 6f9a 0ebc b012 ca3b 37d4 9a3b
00000010: 3410 973a c005 64bc f056 eebb 51c4 113c
00000020: 21b5 70bb 227e fc3b 969d 513b 7ecc 113c
00000030: fd39 da3b 1f21 50bc 318d a53b e046 23bb
00000040: 2a49 e1bb 8ea7 753b d52f 81bb 6b5e 8c3b
00000050: 0bf2 83bb 0f5f 90bb 5d7a 163c e244 94bc
00000060: c385 2a3c b87b 9a3c 2a43 90ba 5293 56bc
00000070: aa7e a5bc 9eb9 5ebb 5dae a93a 7c4f d4ba
00000080: abb0 1e3c bc43 7dbb 6deb 5b3b 8060 bb3b
00000090: 4494 59bc 65a3 c4bb f46e c9bb 34ce 93bc
000000a0: a72e a03b 7d2f f03c 25fa ac3b 13a1 0f3c
000000b0: 6caa 4c3c 084c 9bbb 87cc 3d3b cb6b b23a
000000c0: 0d2a 803c 21a1 f63a 9f17 a0bb 4213 0cbc
000000d0: 2600 ae3b 0f55 243b 64f3 033c 2bd8 81bc
000000e0: f21c 10bc 0f88 26bc a62f 093c 6133 363b
000000f0: 774a f93a 9868 313c 33ba b9bc 7d32 a73c
