assets/snapshots/P1_robust_with_winsorize_mlp.pth (torch, 52437 bytes, 6 tensors)

net.0.weight f4 [128, 30]
00000000: abfd 6c3e 8521 ee3d fdc1 933d c076 043e
00000010: e3ab cb3d a14f 4b3e 5e16 babd b97b 4abe
00000020: afd0 213e ba15 943d 75c2 2ebe f6de 8bbd
00000030: 2f07 74bc a795 133c 3d7d 67be f9db 12be
00000040: 1e25 17be afef 033e 74e2 503c be94 59be
00000050: c857 09be 140f 943d 9ff3 9a3d 4ee4 083c
00000060: f6bb 25be 063c 1ebe 576c b53d 044d f33d
00000070: 65cb 013e 5212 97bd fbf5 4abe 519f 843e
00000080: 3883 9abd 72d0 213e e65a 20be 25eb 1abe
00000090: e6e2 3b3c 3678 de3d 8613 3a3e dbe8 1b3e
000000a0: 25aa b73d 6c3e 4abe 2d3a 3cbd ffec 8cbd
000000b0: 4ec6 823d 9ab7 b2bc fe85 43bd ee9c 503e
000000c0: 43d0 903d 0c9f 913d 5086 5f3d b522 52bd
000000d0: 685b 67bd 3ed3 6bbe 3bf3 113e c30d 893d
000000e0: 8d5b bdbc cb44 61bc 40ea 76bd a0ab 463d
000000f0: bf44 813d 330d 7d3d ed1b ee3c 2069 093e
00000100: fbd6 da3d 09e4 81bc cf2f c93c 47d6 cdbd
00000110: ab21 5fbd 25bc ad3d 2679 bfbb 02f4 0fbe
00000120: 4f12 16ba d667 59be d664 e8bd 5414 2d3e
00000130: 4419 a1bd cd8c 903d ad0d fc3d c444 203e
00000140: ecd5 3fbe c572 7b3d e2e9 4bbe f963 943d
00000150: 7c8a 463e aa5f 3f3d 6b14 40be 337f 2b3d
00000160: f9e1 1c3e ea52 02be 9824 06be c90e 453e
00000170: 0c24 2d3d 4c52 103e 230f 2f3d 512c cabd
00000180: 074c d03c 9da4 04be b0a2 f03d c4d5 023e
00000190: 6525 133e 2445 0bbe d071 14bc 833a 353d
000001a0: e98c 743e ffc1 3abb 4b5a f63d c409 883e
000001b0: c52f 36be 1ee5 cf3d 28ef 27be 8381 143d
000001c0: 1585 07be e516 d03d 45fb d2bc 02db 653d
000001d0: 0794 b83d 5e6f dfbd 26db 113e 3d13 113d
000001e0: d36e 6fbe 22dd 2cbd 3e7e 243c 88b6 00be
000001f0: bb09 3abe 1134 c23c 1e4f 013e 0d8b 3fbd
00000200: d5e4 f63d daba edbc 5da5 18be c077 4abb
00000210: 7e83 1cbe 7098 52be dd94 30be 85f5 66bc
00000220: 0379 3a3d 2659 763d 9476 483e 9ef2 acbd
00000230: fecf ecbd b565 c93d f30b 7e3d 42c1 0abe
00000240: d32c 02be 9aca 01b9 7b87 d0bd e91f 073e
00000250: e4ee d2bd e6a1 c3bd 9e08 4e3e e3c1 8e3c
00000260: 7dff 2d3d 9d73 03be c113 393d 2f2e f73d
00000270: 83b4 01be c09c 3f3e ee66 79bc 065e 19be
00000280: 746d 3dbd 359a 933c 81c0 023e 6ddf 5fbc
00000290: 0798 05bb 5d66 aebc c5bd da3d b460 ae3d
000002a0: 31be 893d fc52 da3d 3d1b a63b aad0 cdbd
000002b0: 3e6d a23d 849b 853d 7089 90bd bdfe 263e
000002c0: 1eed 2c3e 5186 44bd ae9a 1a3b 3035 5bbe
000002d0: ad60 933a 4992 16be b77b 64be ba17 223e
000002e0: 7fdb 143d 96f3 e7bc 72da 543e 6161 b73d
000002f0: ea5e 3fbd 1017 f8bc 160c 263e d1d1 62be
00000300: c0ba 893e 5323 cdbd bed3 303e 6c69 013e
00000310: adbd a0bd 588b 023e 1b54 04bd 20af 9c3d
00000320: 5f69 8cbd e21c 3abe fbea 2f3e ffe4 5ebd
00000330: 3909 1abe dfd7 b03d 423b 36be a5b5 203d
00000340: 99be e4bd d175 5bbd 5be2 4a3d 8281 7e3e
00000350: 47af 0d3e 1a01 593d ce27 bcbd 4065 543e
00000360: a7e5 42be cb1f 873d 7937 e4bd 2381 643d
00000370: 816e 57bd a34b 413e 8f39 13be 0bfc d13d
00000380: b1fa 44be f447 f63d 9b17 953c 4819 72bc
00000390: e4e4 733e f10a eebc c8df d8bd e59d 313e
000003a0: 7711 80bd 79a7 f8bd 7471 4cbe d1af 4e3e
000003b0: b2ef e73d 8e50 253e a850 afbb 4e9d 29be
000003c0: e4a8 253d 4a07 393e 00a9 4abe 5650 503e
000003d0: 20c3 08bd e420 8f3d 93e2 293d 7c5e 433d
000003e0: aaab 8d3c 614f 333e 527b ed3d daa4 ff3c
000003f0: 9a42 813e aaf0 723e 2883 413e 635c 2ebe
0.23143642 0.11627487 0.07214735 0.12935925 0.09944894 0.19854595 -0.090862975 -0.19773759
0.15802263 0.072307065 -0.17066367 -0.06829636 -0.014894291 0.009007848 -0.22606368 -0.14341725
-0.14760253 0.12884401 0.012749303 -0.21248147 -0.13412392 0.072294384 0.07565998 0.008355213
-0.16184983 -0.15452585 0.08858555 0.11879924 0.12675245 -0.07376541 -0.19820397 0.259028
-0.07544559 0.15802172 -0.15659675 -0.15128763 0.011467671 0.10862772 0.1817151 0.15225546
0.08967999 -0.19750375 -0.04595392 -0.06881141 0.0638548 -0.021816064 -0.047735207 0.20372364
0.07070973 0.07110414 0.05457145 -0.05130263 -0.056483656 -0.23029801 0.14252941 0.06692078
-0.023114944 -0.013749312 -0.060281992 0.048503518 0.063119404 0.061780166 0.02906605 0.13419008
0.106855355 -0.015855806 0.02455893 -0.10050636 -0.054475468 0.08483151 -0.0058432994 -0.14057925
-0.0005724774 -0.21231017 -0.11347358 0.16902286 -0.07866147 0.070581056 0.12307296 0.15651232
-0.18733948 0.06138875 -0.19913438 0.07245631 0.19388765 0.04672209 -0.18757789 0.041869354
0.15320577 -0.12726942 -0.13099897 0.19243921 0.042270705 0.14093894 0.042739045 -0.09871734
0.025426878 -0.1295342 0.1174978 0.12776858 0.14369734 -0.13600594 -0.009060338 0.044245254
0.23881878 -0.0028496978 0.12028941 0.2656995 -0.1779166 0.101511225 -0.16399825 0.036256324
-0.1323436 0.10160617 -0.02575458 0.056117065 0.09012609 -0.109099135 0.14243755 0.035418738
-0.2338212 -0.042203076 0.010039864 -0.1256963 -0.18167774 0.023706468 0.12627837 -0.04676347
0.12055365 -0.029019762 -0.14906831 -0.003089413 -0.15284535 -0.20565963 -0.17244287 -0.014096622
0.045525562 0.060143612 0.19576484 -0.08444713 -0.11563109 0.09833852 0.062023114 -0.13550285
-0.12712412 -0.00012377874 -0.10182091 0.13195767 -0.10299471 -0.09552364 0.20120475 0.017426437
0.04247998 -0.12837072 0.045184854 0.12069356 -0.12666516 0.18712139 -0.015222294 -0.14977273
-0.04624696 0.018017868 0.12768747 -0.013664109 -0.0020384805 -0.021289045 0.10680727 0.085145384
0.06725729 0.10660359 0.005069165 -0.10049565 0.079309925 0.06523803 -0.07057464 0.16308112
0.16887328 -0.047979657 0.0023590731 -0.21407008 0.0011244022 -0.14704241 -0.22312818 0.15829363
0.03634214 -0.028314393 0.20786455 0.089541204 -0.046721376 -0.030284435 0.16215548 -0.22150351
0.2690029 -0.10016503 0.17268273 0.12637872 -0.07848678 0.12748468 -0.03230677 0.0765059
-0.068560354 -0.1817508 0.17179482 -0.054417606 -0.1504258 0.08634924 -0.17796043 0.03923573
-0.11169166 -0.053579155 0.049532276 0.24854091 0.13836394 0.052979566 -0.0918728 0.20741749
-0.19032918 0.06597861 -0.11143393 0.055787217 -0.05259562 0.1887651 -0.14377426 0.102531515
-0.19236256 0.12025443 0.018199733 -0.014776535 0.23817784 -0.029057952 -0.10589558 0.17345388
-0.06253331 -0.12141318 -0.19965154 0.20184256 0.11325015 0.1614401 -0.005350191 -0.16563913
0.04044427 0.18069187 -0.19791031 0.20343146 -0.03338921 0.06988695 0.041475844 0.04769753
0.01729377 0.1751075 0.11595787 0.031206537 0.25246125 0.23724619 0.18897688 -0.1702743

net.0.bias f4 [128]
00000000: 03eb 033e 9987 183e d5d6 dfbd 40b4 163e
00000010: 2dc2 033e c068 21bd 1096 1a3d 6e81 d9bd
00000020: c66d 4b3e 67c2 a2bd ee11 a43d 1b8c 853d
00000030: 6810 723e 364c 0cbe 756b 113e e7c5 1b3e
00000040: a02e b7bd 9d64 9c3d 6723 5d3e d4ef 80bd
00000050: cecd f6bd 4978 053d deea 07bb 18aa 853d
00000060: db1d 20be 73e9 5c3d c8de e53b c2ad 953c
00000070: e40d 6a3e 60f9 1b3e e629 26bd 8321 2a3d
00000080: 1d63 cbbc 83d7 22bd e55b 293d 4c07 343d
00000090: 4a3d 673e a6cf bf3c 08d6 673d dcc6 dabd
000000a0: eb78 b53d b357 a5ba 1e5c 393d 3477 e23c
000000b0: 99db f63d 0241 633e 138e c8bc 6035 713d
000000c0: 5925 653c d94a debd 816f ed3d d817 623d
000000d0: 2717 0cbe 0e8a 05be 15e1 bcbd 07a4 143b
000000e0: 37ea 91bc 0e59 1c3e 35ad 133e d20b 8f3d
000000f0: b3c2 1e3d 0ff6 6abd aa84 be3d efaa 12be
00000100: 2f49 9a3d 58b4 133e a74f 103d a84e 003d
00000110: 0dcc 07bd 940b d7bd e005 c7bc 837c 803d
00000120: 6c09 b3bd 97df babd f83a fc3d e1a4 923d
00000130: ff58 d93d 1e75 2e3e 37b9 023d d1af 153e
00000140: 07d4 cb3d 9836 853d e070 3abe 5d4d 4e3d
00000150: f752 de3b 40ca b3bd 103d 3bba 5006 e93d
00000160: 09fe a13b 7a73 95bd 8d2e 08be 792b bd3d
00000170: 3f71 353e 1240 bb3c 672f a33d b91a 1a3e
00000180: 1c1a be3d 357a 253e 6437 db3d 1888 103e
00000190: f9cc f63c d088 89bb 37e1 2d3d c593 6b3e
000001a0: aeb5 69bc 0b5f 303e 96e0 643d fd6a 96bd
000001b0: 81c0 a4bd ec54 15be d2f0 013e 9179 ef3d
000001c0: 187e eebc 65e7 ca3d 274d 573e 0d6b f83d
000001d0: 68a1 453c 7389 11be 87a8 aebd 77b3 e53d
000001e0: f2f7 f7bc 47b4 863d 7af8 9a3d e387 dcbc
000001f0: fbd9 5e3e c440 b3bd 1f18 0a3d 2991 1f3c
0.12882619 0.14895476 -0.10929648 0.14717197 0.12867041 -0.039406538 0.037740767 -0.1062039
0.19866094 -0.079472356 0.08011232 0.065208636 0.23639071 -0.13700947 0.14201148 0.15212213
-0.0894444 0.07636378 0.21595536 -0.062957436 -0.12050973 0.032585416 -0.0020739357 0.065265834
-0.15636389 0.053933572 0.007015083 0.01827133 0.22856861 0.15231848 -0.0405673 0.041535866
-0.024827534 -0.03975631 0.041347403 0.04395227 0.22581974 0.023414444 0.0566006 -0.10682461
0.08860954 -0.0012614637 0.045253865 0.027644731 0.12053604 0.22192767 -0.024481809 0.058888793
0.013985955 -0.1085412 0.11593533 0.05519852 -0.13680707 -0.13040945 -0.092226185 0.0022680776
-0.017811878 0.15268347 0.14421542 0.069846764 0.0387599 -0.057363566 0.093026474 -0.14323018
0.0753349 0.14424264 0.035232212 0.031325012 -0.033153582 -0.10500255 -0.024294794 0.06273749
-0.087420315 -0.09124678 0.12315935 0.071603544 0.10612678 0.17036864 0.031914916 0.1461785
0.099525504 0.065045536 -0.18207121 0.050366748 0.0067847925 -0.087788105 -0.0007142583 0.11378157
0.0049436134 -0.07297416 -0.13299008 0.092368074 0.17718981 0.0228577 0.07968026 0.15049256
0.09282324 0.161599 0.10703924 0.14114416 0.030127035 -0.0041972175 0.04245111 0.23005588
-0.014264507 0.17223756 0.055878244 -0.07344625 -0.0804453 -0.14583176 0.12689522 0.11693109
-0.02911286 0.09907416 0.21025525 0.12129793 0.012062408 -0.14212589 -0.08528238 0.11215871
-0.030269597 0.06577354 0.075669244 -0.026920265 0.2176284 -0.087525874 0.03371441 0.009739199

net.3.weight f4 [64, 128]
00000000: 39b3 94bc a36e b3ba 2b4b d93b b6e4 153e
00000010: 97ec fa3d 5fc9 70bc f061 0e3c f7ce 1bbd
00000020: 0a69 9f3d e157 7cbb f646 4ebc 7239 b33d
00000030: e7fa 9f3d 7656 08bd 2ef0 f03d 0eb6 c23d
00000040: de87 7cbc 20fa 833d cc77 16bd c512 c23d
00000050: 4a6f e1bc 2ad8 353c 336a 103d 0ac6 ab3c
00000060: 0769 9c3c e808 a8bc a92f 633d 6066 9bbd
00000070: 021a 34bc 6451 63bd f3c3 adbd 92de 013d
00000080: 249f d13c 8716 253d e63e c5bd 8582 073d
00000090: 95d8 cf3d 8f54 b2bc 2485 0f3e 78cd 28bd
000000a0: 090f 973d 5749 46bc a62c 45bd 8a5f 1cbd
000000b0: 8880 01bd 88f1 933a 46e2 213d ee63 f13d
000000c0: 04cd 6d3d a2f3 a73d 7377 97bc 9874 b8bd
000000d0: 168a 09be ab84 2b3d 69c5 eabd e366 d4bc
000000e0: c069 eb3c 0dcc d93b bbb6 8a3d 90d4 673d
000000f0: 6095 99bd e446 6cbd f28e a23d 409f a3bd
00000100: 22c9 ff3d 170b 6c3d b254 1d3c c54d 95bd
00000110: f08e 38bd ff05 bbbd 8ab2 efbd 0523 cdbb
00000120: b372 a63d 5fec 973d 9b8c 1fbc 95ec b13d
00000130: 9353 81bd d51a e63a c24d 52bc 8862 4a3d
00000140: ba43 32bd 467c 093e 6934 87bb 9cb7 8a3d
00000150: b16e 8f3c 87a9 3ebc 1fc7 d43c 5e5c 83bd
00000160: 14c0 aebd 296f e4bd 3198 98bd 9d84 9b3d
00000170: 8417 d83c 4987 4abd bbfa cf3d 2b57 f4ba
00000180: 66dc 3e3c ec90 eebc e028 e03d 0126 a6bc
00000190: c165 d4bd 4dad e53c dd0e 3e3d 9aed 533d
000001a0: fd72 ee3d 26ce 69bc c2e1 0ebc c830 0d3c
000001b0: 4a10 64bd f83e 88bd 2969 f1bc ba85 ca3d
000001c0: 92aa 023e abd0 febc 9274 f73d b6c5 703d
000001d0: c020 573b 1ece 343d 2400 463d b72c 31bd
000001e0: 9753 81bd a054 4abd fde8 a33d 324a 8b3d
000001f0: bef0 c13d 7566 69bc 7f3b 703d cb7e 103d
00000200: e740 593d cc9d dabc 7f45 0a3c 4f2f c43c
00000210: ef5c f43d d465 aa3c 8fe2 85bd 381f 9e3d
00000220: 95c9 dabc d9bd 26b9 79bd 56bc f9bc a5bd
00000230: 1fb2 92bd a198 083e b328 24bc 63de 8d3d
00000240: 9912 643d 4bb0 1f3d 104e 10bd e8b7 053d
00000250: e3c3 03bd 1aac 25bc 613d e1bc d5cb 693d
00000260: 922d 0c3c 4f0d d8bc 9cab 843d 892f b83d
00000270: 0927 1dbd f5f7 823c 4f5f 713d 2f81 3fbd
00000280: ce37 8a3b a81d 113d ad28 c43c d1c2 9abd
00000290: d3c8 47bd 8185 c33d e35f a3bc 61b2 2a3d
000002a0: c1ca 72bd 354d 89bd 86b2 a0bb 4c76 db3d
000002b0: 9864 593d ea16 883d 40f9 8abc 52f4 c43c
000002c0: 958d 263d 013f 633d dcd2 f2bc f00c a2bb
000002d0: 3372 66bc e3fe 7cbd 3b1d c0bb e0e7 aa3d
000002e0: afd7 3d3d fd09 ccbc 4c82 d1bd cfb4 1e3d
000002f0: f7e3 7c3d 31cd 59bc 4562 bf3c bf91 a63d
00000300: 2f32 923c 76ba 333c 5a35 973c c0e0 b33d
00000310: 548e f1bb 942f 7d3d dbb9 ba3a 3e57 37bc
00000320: 6f2d 473b 71e9 1cbe c4b2 b8bd b753 23bd
00000330: 48b5 63bc d04e 98bd 2ea2 893d e890 f73c
00000340: 5bed d23b ca80 353d 7794 ca3c 8388 f33b
00000350: a857 ae3d 3910 d93c e093 1abd 8db4 9d3c
00000360: ada1 2b3d 0d86 ab3d f245 5cbd b511 ec3c
00000370: 0112 813d 6254 ad3c 616f ddbd 9e9d c73d
00000380: b620 af3d 8402 ab3d 6a0a 133d 5604 333d
00000390: 02bf a9bc 4f07 a73c 81d8 2c3d 45b0 c4bc
000003a0: bd9b b73c 536b 9fbd e87c b3bc a3c5 913c
000003b0: 5de8 b83d 7e21 b43d b24a 41bd 74b6 8b3c
000003c0: dd4f 83bc 8f3c ad3d a540 183d 88cc e03c
000003d0: 7983 c43b 6faa 2a3d 6fa3 dbbd 8d3b bebc
000003e0: 1ca5 e7bb de13 833c 0fd4 ca3d b106 283d
000003f0: 9cb3 79bd af38 42bc aeff 9e3c 8eb5 b0bd
-0.018151866 -0.0013689589 0.006631275 0.14638028 0.12252157 -0.014696448 0.008690342 -0.038039174
0.077837065 -0.0038504528 -0.012590161 0.08751191 0.07811528 -0.03328558 0.11764561 0.095073804
-0.015413253 0.06444192 -0.03673534 0.09476236 -0.027518887 0.011098901 0.03525753 0.020968456
0.01909305 -0.02051206 0.055465374 -0.07587886 -0.010992529 -0.055497542 -0.0848464 0.0317064
0.02558858 0.040304687 -0.096311375 0.033083457 0.101487316 -0.021768836 0.14015633 -0.041211575
0.073759146 -0.0121024465 -0.048138283 -0.03817705 -0.031616718 0.0011287192 0.03952243 0.11786638
0.058056846 0.08200766 -0.018489575 -0.090066135 -0.13431582 0.04187457 -0.11463434 -0.025927966
0.028736949 0.006646639 0.06773134 0.0565992 -0.07499194 -0.057684794 0.07937421 -0.07989359
0.12489535 0.057627764 0.0096027125 -0.07290224 -0.04505819 -0.09132003 -0.117039755 -0.006260278
0.08127346 0.07418131 -0.009738113 0.086877026 -0.06314769 0.0017555604 -0.012835922 0.049410373
-0.04352162 0.13426313 -0.004126121 0.06773302 0.017508836 -0.011637098 0.025973855 -0.06414102
-0.0853273 -0.111540146 -0.07450903 0.07593653 0.0263784 -0.049445424 0.10155245 -0.0018641701
0.011649227 -0.029121839 0.10945296 -0.020281794 -0.103709705 0.028036738 0.046400893 0.051740266
0.11643026 -0.014270341 -0.008720817 0.008617587 -0.055679597 -0.06652635 -0.02946909 0.098887876
0.1276038 -0.03110536 0.12082781 0.0587823 0.0032825917 0.04414188 0.048339978 -0.043255534
-0.063147716 -0.04939711 0.08003423 0.06801261 0.09469746 -0.014245619 0.05865049 0.03527717
0.05304041 -0.026686572 0.008439421 0.02394834 0.11931788 0.020800509 -0.06537353 0.07720798
-0.02670745 -0.00015901717 -0.013106697 -0.08092684 -0.0716288 0.13339473 -0.010019469 0.069271825
0.0556818 0.038986485 -0.035230696 0.03264609 -0.032169234 -0.010111833 -0.027495088 0.057079155
0.008555787 -0.026373534 0.064780444 0.089934416 -0.038367305 0.015987376 0.058928784 -0.04675406
0.004218078 0.035428673 0.023945177 -0.075566895 -0.048775505 0.09546948 -0.019943183 0.04167402
-0.059275392 -0.06704179 -0.004904094 0.10715923 0.05307445 0.066449955 -0.016964555 0.024042282
0.040662367 0.055480007 -0.029641561 -0.00494539 -0.014065313 -0.061766516 -0.0058628595 0.08345008
0.04634827 -0.024907107 -0.1022993 0.03874665 0.06174084 -0.01329355 0.023362288 0.081332676
0.017846195 0.010969749 0.018458057 0.08783102 -0.007371703 0.061812952 0.0014246063 -0.011190234
0.003039207 -0.15323426 -0.09018472 -0.03987476 -0.013898201 -0.07436907 0.067203864 0.030220464
0.0064369864 0.044312276 0.024728997 0.007432045 0.08512813 0.026496993 -0.03773868 0.019251132
0.041902233 0.083751775 -0.053777643 0.028817037 0.06302262 0.0211584 -0.108122595 0.0974686
0.08551161 0.08350089 0.035898603 0.043705307 -0.020720962 0.020389227 0.04219866 -0.024009833
0.022413129 -0.07784142 -0.021910146 0.017794436 0.09028695 0.08795451 -0.047190376 0.017054774
-0.016029293 0.08458816 0.037171025 0.027441278 0.005997118 0.041666444 -0.10724532 -0.023221755
-0.007069243 0.016000684 0.09903728 0.041022006 -0.060962304 -0.011854335 0.019409027 -0.08628379

net.3.bias f4 [64]
00000000: 4123 953d b805 62ba 7aa4 c33d 51f9 b4bc
00000010: d2f6 31bd 1823 7d3d 7cb6 983d e103 a2bc
00000020: 4416 643c ad14 08bc 04b9 ae3d 7d6a 983b
00000030: 3cf5 0fbc f778 843d 83c7 443d c257 963d
00000040: 7740 043e 9d30 c4bd 9ac5 0abd 0d82 653d
00000050: 943a ce3d 51a9 903d 3e5d 443c 56ad 31bd
00000060: 7e27 b53d cbe6 923d 7eb1 5d3d 2b68 643d
00000070: 1aa7 8a3d cf39 863d 22e7 033e dedd c93d
00000080: 0e67 83bc bc6c 2a3d 3a61 cd3d 3086 d83d
00000090: 9247 a53b 3116 ca3d b5f1 843d 0da0 f13c
000000a0: 6145 cdbc 179e e73d 28d9 44bd 82a0 2d3d
000000b0: 6d6b acbc dc2b 6b3d f7e0 983d 4a6a 0b3e
000000c0: d14a a1bd 7c22 eabc 9d58 60bd f9b0 13bd
000000d0: ba7d da3d fac7 813d e029 5d3d 4d08 6fbc
000000e0: 24bf 403d 463b 46bc ea66 ea3d fba6 98bb
000000f0: 048a dcbb 89c5 05bd 8f13 a73d 4cfe c33b
0.07282115 -0.0008622068 0.09552856 -0.02209154 -0.043448277 0.061801046 0.07456681 -0.01977724
0.013921324 -0.008305711 0.08531383 0.0046513663 -0.008786496 0.06468385 0.04804183 0.07340957
0.12915216 -0.09579585 -0.033879854 0.05603223 0.10069767 0.070635445 0.011985121 -0.043378197
0.08845423 0.071729265 0.054124348 0.055763405 0.06770153 0.06553995 0.12881139 0.09856771
-0.016040351 0.041607603 0.1002831 0.10572469 0.0050439322 0.09867514 0.064914145 0.029495263
-0.025057497 0.1130945 -0.04805866 0.0423894 -0.021047318 0.057414874 0.07464784 0.13614765
-0.07875598 -0.028580897 -0.05477201 -0.036057446 0.10668512 0.063369706 0.053995013 -0.014589381
0.047057286 -0.012099093 0.114454105 -0.0046585775 -0.00673032 -0.032659087 0.081580274 0.0059812423

net.6.weight f4 [2, 64]
00000000: d95e 4c3d 272b ffbd e4a5 7fbd 3f3a 113e
00000010: e69b cf3d df19 3a3e 47a4 2b3e a6ae 7c3d
00000020: 7d3a b7bd a838 1ebe cc65 c83d 9590 003a
00000030: fa1a bb3d fc1b 0a3e fe96 cc3c d17f c6bd
00000040: 2407 af3d d78e 7e3c 8e91 043e 8b94 0b3d
00000050: 46ba 0fbe 682a 6c3d 5692 8c3d 9581 0bbd
00000060: dd63 95bd 44ef ec3d 56b3 c0bc cc31 15be
00000070: 5175 37be eeb9 34bd 9770 283e d4f3 59bd
00000080: 6de3 2bbe 365f 163e 81b5 1abe 79f7 903d
00000090: 853f a8bd db72 d73d 1fd9 2cbd 7468 233e
000000a0: a24d 083e 3809 f0ba 0e20 13be 0470 c3bd
000000b0: 2fba 18be a299 a2bd 04e6 1a3e 9dad 39bb
000000c0: a91c ac3d 6062 033e c9c2 0dbe 24e2 083e
000000d0: 1059 043d fa3e cd3d 13a7 c1bd 9928 523d
000000e0: af49 b1bd 9d61 b8bd d874 58bd c9dc 0fbe
000000f0: df0b 063d fe21 21be e993 fa3d 93e7 da3d
00000100: 6040 23be 427a 9d3d 040e c33c 3b48 1fbe
00000110: 65c1 25be 26e8 40be 242c 0abb dbbe 08be
00000120: ed8e b33d dad6 003d 5f7c aebd e726 2fbe
00000130: 7345 4abe d3c5 dd3c d92f 0abe ee8e f43d
00000140: 0a98 a0bd 3bfc 50bd 0ab3 9fbd e25c 1c3e
00000150: 81f1 cb3d 1ded 273e b9a6 22be afd3 c23d
00000160: 1a14 f63d 69aa 54bd 60dc c23d dce3 043e
00000170: cf06 aa3c 1837 843d f9e6 01be ba1e 34be
00000180: a631 2a3d 7ab6 0dbd cf4d 303d 3efb 9abd
00000190: c06d abbd bb80 b4bd f0e9 1c3e 7919 e6bc
000001a0: d500 94bd 9872 e2bd 9708 d93d 3c81 1f3e
000001b0: dea3 ed3d 1a37 0e3d 4f14 24be e4d1 30be
000001c0: bb0f 2ebd 1993 46bd 71f5 013e ae5b 00be
000001d0: ac90 16be b470 aebd 0adc cd3c 175d 01be
000001e0: 0c82 913d 0888 283e d1fc 1bbe a29a 323c
000001f0: 2a67 edbd 9da5 a0bc 8b03 7ebc 0cd2 31be
0.04989514 -0.124594025 -0.062414065 0.14182375 0.10137157 0.18173932 0.16761886 0.061689995
-0.08946703 -0.154513 0.09785041 0.0004904357 0.09136005 0.13487238 0.024974342 -0.09692348
0.08546284 0.015536985 0.1294615 0.03407721 -0.14035901 0.05765763 0.06863849 -0.034059126
-0.07294438 0.11569074 -0.023523014 -0.14569777 -0.17915846 -0.04412263 0.164492 -0.05321105
-0.16785975 0.14684758 -0.15108301 0.07078452 -0.082152404 0.10519954 -0.04219925 0.15957814
0.13310865 -0.0018313294 -0.14367697 -0.0954285 -0.14914773 -0.079394594 0.15126806 -0.0028332241
0.08403904 0.12830496 -0.13843836 0.13367516 0.0323115 0.100217775 -0.09455695 0.05130825
-0.08656632 -0.09002993 -0.052845806 -0.14049067 0.032726165 -0.15735623 0.12235243 0.106887005
-0.15942526 0.076893345 0.023810394 -0.15554897 -0.16187055 -0.18838558 -0.0021083439 -0.13354056
0.08767495 0.0314549 -0.08519816 -0.17104684 -0.19753055 0.027071869 -0.13494815 0.11941324
-0.07841499 -0.051021796 -0.07797821 0.15269807 0.099581726 0.16399045 -0.15883912 0.09513032
0.12015553 -0.05192033 0.095146894 0.12977546 0.0207552 0.06455821 -0.12685765 -0.17589846
0.041551255 -0.03459785 0.043042954 -0.07567452 -0.083705425 -0.08813616 0.15323615 -0.028088318
-0.07226721 -0.11057013 0.105973415 0.15576643 0.11603521 0.034720518 -0.16023372 -0.17267567
-0.04249547 -0.048480127 0.12691285 -0.12534973 -0.14703625 -0.0851759 0.025129337 -0.12633167
0.071048826 0.16458142 -0.1523316 0.010901125 -0.115919426 -0.01961022 -0.015503774 -0.17365283

net.6.bias f4 [2]
00000000: f861 cb3c 6972 803c
0.024826989 0.015679555
