assets/snapshots/P1_robust_with_winsorize_mlp.pth (torch, 52437 bytes, 6 tensors)

net.0.weight f4 [128, 30]
-0.1133978 -0.060167026 0.039087486 -0.05488989 0.05341421 -0.124363974 -0.133012 0.075056225
-0.19064803 -0.120290324 0.0057562743 -0.16850577 -0.08168025 0.20960514 0.13813724 0.09728136
0.0701566 0.2017845 -0.07975948 0.09984779 0.026983872 -0.044865813 -0.09317064 -0.081128314
-0.08396727 -0.066422254 0.12548359 0.03141764 -0.051894397 0.107062496 0.08363624 -0.057086617
-0.057221748 0.06410733 -0.0742416 -0.20125802 -0.11300132 -0.21914132 -0.093328476 -0.23230161
-0.124242224 -0.027557703 -0.077099286 -0.17005666 -0.10312142 -0.0009861761 0.017916178 -0.17711574
0.14825918 0.1731185 0.06433848 0.062332824 -0.07683021 0.029070484 0.02540366 -0.19861852
0.06419582 0.19187951 -0.074802004 -0.20048866 0.030752115 0.17507984 0.006766297 -0.036514886
0.006402473 0.08464342 0.21613745 -0.08674613 -0.09921185 0.12502189 -0.032163795 0.06973856
0.17982909 -0.040937737 0.02550481 -0.14000806 0.08001316 0.21220496 0.11046221 -0.15478465
-0.1408412 -0.0062637907 0.19673279 0.040105324 0.20386319 -0.15936987 -0.006820928 -0.050158445
-0.05374096 0.10854899 -0.0640264 -0.2200353 0.08446322 -0.062389057 -0.11129332 -0.018784251
0.07769309 0.12183109 0.14957525 -0.015198459 -0.07129264 0.009849677 0.1364536 -0.038953163
-0.13124982 -0.07703034 -0.09486914 -0.104248576 -0.066821754 0.19735657 0.098558 -0.091819085
0.03428624 -0.027274365 -0.10073008 -0.2052925 -0.02517651 0.047007594 0.18521197 -0.1908604
-0.12197121 -0.1401874 -0.0943606 -0.13150321 0.030911548 0.0526267 0.056295875 -0.00922051
-0.1716674 -0.010463686 0.21011075 -0.015184921 -0.13718756 -0.098478526 0.07543311 -0.025696274
-0.06227659 0.105366364 -0.10101341 -0.12993832 -0.061560273 0.11801159 -0.120642446 -0.079822816
0.025284665 0.11504136 -0.18616377 -0.18449736 -0.010635613 0.1466631 0.13262767 0.0673941
-0.08495833 -0.120999895 0.20917226 -0.034773234 -0.034174476 0.056936715 0.1558377 -0.061751716
-0.20723027 0.15806735 -0.011819505 -0.16894108 -0.12207855 0.12536627 -0.06770865 -0.12081353
-0.14923805 0.0057620513 -0.048659727 0.029344521 0.06955001 0.17634909 -0.07184498 -0.11242198
-0.0694393 0.085749395 -0.13549332 0.030018875 0.038496505 0.08326524 -0.1807986 0.21308106
-0.17815843 0.06352699 -0.09445452 -0.09166127 0.16058543 0.19294451 -0.12681136 -0.09332656
0.08149646 0.05250141 0.103326544 -0.018009111 0.1782094 0.06832681 0.027554747 0.07671246
0.15385693 -0.06811705 -0.0020316036 0.020396244 0.040099233 0.086445294 -0.20412575 0.14224648
0.15374844 0.06923583 -0.085696936 0.10018423 0.121698394 -0.028247008 0.13103159 0.00036128995
0.13205346 -0.010558273 -0.12845524 0.00888913 0.14332208 0.07869548 -0.11882895 -0.005624538
0.10273114 -0.13774829 -0.1499569 -0.009060582 -0.15189275 0.021296132 -0.116198175 0.14253625
0.13310178 -0.12147773 -0.016837714 -0.048778012 0.08368158 -0.0136276465 0.065690234 -0.16280429
-0.18535835 -0.06895605 -0.2116289 0.17478181 0.07645156 0.21757945 -0.09862327 0.07973877
-0.044876583 -0.04259751 0.25407362 -0.109070994 0.135578 0.1126871 0.12966852 -0.18219584
00000000: 1b3d e8bd b371 76bd 331a 203d 39d4 60bd
00000010: dcc8 5a3d 8ab2 febd 4c34 08be 14b7 993d
00000020: 3d39 43be c65a f6bd 219f bc3b c78c 2cbe
00000030: fa47 a7bd bba2 563e d973 0d3e 733b c73d
00000040: 43ae 8f3d 99a0 4e3e f058 a3bd 007d cc3d
00000050: 480d dd3c 37c5 37bd 40d0 bebd 9a26 a6bd
00000060: 08f7 abbd 6408 88bd c57e 003e c9af 003d
00000070: 388f 54bd 9543 db3d 7a49 ab3d a8d3 69bd
00000080: 5a61 6abd b44a 833d fb0b 98bd 9516 4ebe
00000090: 3c6d e7bd 9566 60be 0023 bfbd 79e0 6dbe
000000a0: b572 febd b1c0 e1bc 3be6 9dbd 5523 2ebe
000000b0: 5331 d3bd 9442 81ba f3c4 923c d45d 35be
000000c0: 41d1 173e fa45 313e e5c3 833d b450 7f3d
000000d0: 2859 9dbd 3925 ee3c 561b d03c a762 4bbe
000000e0: 1979 833d 107c 443e cb31 99bd e64c 4dbe
000000f0: dceb fb3c 2148 333e d0b7 dd3b a290 15bd
00000100: d6cb d13b 8859 ad3d 2353 5d3e f4a7 b1bd
00000110: 952f cbbd bd05 003e 2fbe 03bd 17d3 8e3d
00000120: 1e25 383e 54ae 27bd 77ef d03c 465e 0fbe
00000130: f1dd a33d 424c 593e 033a e23d de7f 1ebe
00000140: ad38 10be 7c40 cdbb 5274 493e 7b45 243d
00000150: 83c1 503e db31 23be 1782 dfbb f172 4dbd
00000160: 7b1f 5cbd ef4e de3d 4620 83bd ef50 61be
00000170: 0dfb ac3d ab8b 7fbd c1ed e3bd 6ee1 99bc
00000180: 8e1d 9f3d 9482 f93d 412a 193e f502 79bc
00000190: e001 92bd 8a60 213c 7eba 0b3e 5a8d 1fbd
000001a0: 5a66 06be 15c2 9dbd c04a c2bd 4780 d5bd
000001b0: d8d9 88bd d717 4a3e c7d8 c93d a50b bcbd
000001c0: ba6f 0c3d 7d6e dfbc 924b cebd 3238 52be
000001d0: f83e cebc 098b 403d 35a8 3d3e e970 43be
000001e0: 0bcc f9bd 498d 0fbe 2140 c1bd c7a8 06be
000001f0: 373a fd3c 188f 573d 8196 663d 9f11 17bc
00000200: 94c9 2fbe e16f 2bbc 4627 573e 2dca 78bc
00000210: e57a 0cbe 1caf c9bd ad7c 9a3d fe80 d2bc
00000220: bd15 7fbd 52ca d73d 1ee0 cebd 8d0e 05be
00000230: a026 7cbd 0fb0 f13d 6313 f7bd 257a a3bd
00000240: c921 cf3c ce9a eb3d b7a1 3ebe e0ec 3cbe
00000250: ff40 2ebc da2e 163e 8ccf 073e eb05 8a3d
00000260: a2fe adbd cbce f7bd 4131 563e 616e 0ebd
00000270: 89fa 0bbd 7936 693d eb93 1f3e 5eef 7cbd
00000280: 2c34 54be 68dc 213e 99a6 41bc e4fe 2cbe
00000290: 5204 fabd 0460 003e d5aa 8abd 166d f7bd
000002a0: dcd1 18be 97cf bc3b 6c4f 47bd ec63 f03c
000002b0: 3c70 8e3d db94 343e 7623 93bd 7f3d e6bd
000002c0: 3136 8ebd 619d af3d c3be 0abe 25ea f53c
000002d0: 83ae 1d3d f786 aa3d 4523 39be ec31 5a3e
000002e0: 2a6f 36be 701a 823d 5f71 c1bd e7b8 bbbd
000002f0: 8270 243e 3f93 453e d6da 01be ff21 bfbd
00000300: 9ee7 a63d b80b 573d de9c d33d d887 93bc
00000310: 867c 363e edee 8b3d 7eba e13c 6c1b 9d3d
00000320: ac8c 1d3e f480 8bbd a724 05bb 0616 a73c
00000330: 183f 243d 3b0a b13d 5706 51be 10a9 113e
00000340: 3b70 1d3e 84cb 8d3d e081 afbd 642d cd3d
00000350: 023d f93d 4566 e7bc 252d 063e 846b bd39
00000360: 0639 073e 9bfc 2cbc c589 03be b7a3 113c
00000370: 06c3 123e 192b a13d 985c f3bd 0b4e b8bb
00000380: b464 d23d e30d 0dbe 4d8e 19be d672 14bc
00000390: c689 1bbe 3a75 ae3c 4ff9 edbd 06f5 113e
000003a0: d54b 083e 51c9 f8bd 3fef 89bc 74cb 47bd
000003b0: 4061 ab3d 7e46 5fbc 9a88 863d 2bb6 26be
000003c0: 94ce 3dbe d438 8dbd 3fb5 58be 01fa 323e
000003d0: a392 9c3d 26cd 5e3e fffa c9bd 154e a33d
000003e0: 82d0 37bd ba7a 2ebd f015 823e 9d60 dfbd
000003f0: f6d4 0a3e 7fc8 e63d d3c7 043e 8c91 3abe

net.0.bias f4 [128]
0.062484108 0.05403497 0.23320521 -0.0010762444 -0.021372616 0.13643022 0.113389485 -0.21721676
0.17732853 -0.019719113 -0.07977589 0.07936461 0.10311844 -0.098142505 0.017262103 -0.048141386
0.09006948 0.08462586 0.24882987 0.08474375 -0.09771609 0.09110259 0.0130695915 -0.1002973
0.11591348 -0.12272561 -0.123498745 -0.041171197 0.18713212 0.03501365 0.12235586 0.0054571875
0.044012737 -0.010992651 -0.048083622 0.10064691 0.058058914 0.14489086 0.056890238 -0.080057025
-0.031935696 0.18880378 0.17855234 0.011735144 0.036195595 -0.025582895 -0.15476248 0.13485858
0.064381815 0.11085538 0.13141315 0.1714895 0.11885885 0.03028929 -0.08969745 0.24766786
-0.08420796 -0.011353888 0.034908604 -0.051733535 -0.15472253 -0.11860924 -0.023499899 -0.11415425
-0.07569617 -0.028668446 0.120332174 0.10754724 -0.024426019 -0.110320024 -0.036938593 -0.15000428
0.06449389 0.03200129 -0.011320191 0.21799313 -0.047314167 -0.13398807 0.037656914 0.11183578
0.16303962 -0.050657276 0.14755742 -0.05070305 0.19953072 -0.107155375 0.021763097 0.2009172
0.033111945 0.024231013 0.15179689 0.11109737 -0.11806172 -0.09863108 0.02229779 -0.06717157
0.13277388 0.109462954 -0.011668432 -0.08353556 0.17016923 -0.12567231 -0.024042215 -0.023466092
0.14539362 0.08546187 0.022797484 -0.0052518123 -0.10194707 0.02078601 0.06778589 -0.058603298
0.2143678 0.20312811 -0.058521982 -0.09001528 0.13020325 0.015221891 -0.071358606 0.11591211
0.18791595 0.11676251 0.1766836 0.04923715 0.12307797 -0.11424408 -0.08707061 -0.043602467
00000000: 56ef 7f3d c653 5d3d 59cd 6e3e c510 8dba
00000010: a015 afbc 5db4 0b3e bf38 e83d 126e 5ebe
00000020: 9c95 353e fa89 a1bc 8b61 a3bd ea89 a23d
00000030: c32f d33d f0fe c8bd 4169 8d3c e72f 45bd
00000040: 5976 b83d 5350 ad3d 42cd 7e3e 228e ad3d
00000050: 601f c8bd ff93 ba3d d721 563c ac68 cdbd
00000060: 0c64 ed3d 9157 fbbd e9ec fcbd 21a3 28bd
00000070: 909f 3f3e 796a 0f3d b695 fa3d 35d2 b23b
00000080: b346 343d 851a 34bc 55f3 44bd f81f ce3d
00000090: 2fcf 6d3d 455e 143e bd05 693d f0f4 a3bd
000000a0: 01cf 02bd c755 413e 6dd6 363e c344 403c
000000b0: d541 143d 3893 d1bc 0e7a 1ebe 5e18 0a3e
000000c0: 9dda 833d 2508 e33d 2b91 063e f29a 2f3e
000000d0: 456c f33d 3f21 f83c 4cb3 b7bd a59c 7d3e
000000e0: 3975 acbd a805 3abc 53fc 0e3d 8be6 53bd
000000f0: 956f 1ebe 67e9 f2bd dc82 c0bc b4c9 e9bd
00000100: 9806 9bbd 17da eabc b770 f63d ba41 dc3d
00000110: 1319 c8bc 77ef e1bd ec4c 17bd b99a 19be
00000120: 5f15 843d c913 033d 5378 39bc 9739 5f3e
00000130: 80cc 41bd 2b34 09be 233e 1a3d 280a e53d
00000140: dcf3 263e 017e 4fbd 4b19 173e 00ae 4fbd
00000150: c851 4c3e 4774 dbbd 8648 b23c 3dbd 4d3e
00000160: 64a0 073d 1e80 c63c a570 1b3e 0587 e33d
00000170: 58ca f1bd 17ff c9bd dba9 b63c 4091 89bd
00000180: e0f5 073e 1d2e e03d f32c 3fbc b114 abbd
00000190: d840 2e3e 3eb0 00be 2ef4 c4bc f63b c0bc
000001a0: 11e2 143e a206 af3d cac1 ba3c 6517 acbb
000001b0: a0c9 d0bd 6c47 aa3c 54d3 8a3d 030a 70bd
000001c0: 3c83 5b3e d100 503e bfb4 6fbd ee59 b8bd
000001d0: 0054 053e 3d65 793c 7624 92bd 5463 ed3d
000001e0: 0a6d 403e 2f21 ef3d 8cec 343e e5ac 493d
000001f0: 4e10 fc3d cdf8 e9bd 1352 b2bd 8098 32bd

net.3.weight f4 [64, 128]
-0.024952726 -0.07203099 0.11168155 0.042052418 -0.018539706 0.050142024 0.09755736 -0.03727061
0.14425357 0.05756455 -0.01698569 0.12138723 0.0399218 0.053795204 0.029402312 0.050347835
-0.03801535 -0.009218937 -0.0018948091 0.030870495 0.009397303 -0.028014986 -0.03007975 0.026820375
-0.014820337 0.089039825 -0.0048478427 0.039568737 0.026122713 0.048980255 0.020049445 0.004904009
0.02608507 0.080102906 -0.010516887 0.037444357 0.12195098 -0.039286975 -0.11659798 0.04087781
-0.0658679 0.038147092 -0.045794237 0.03742083 0.0852404 -0.039883357 -0.04461451 0.05559679
0.13763002 -0.011603681 -0.09954487 -0.041859075 -0.02903044 -0.054576926 -0.030725814 -0.0016547581
0.08814082 0.0064679226 0.118429214 0.10544925 -0.042190675 -0.046510164 -0.008195319 -0.00938805
-0.041150954 0.0054772384 -0.027284091 -0.097333975 -0.090130925 0.12431246 0.12178729 0.0193851
0.037204664 0.055074967 -0.07521607 0.07330456 0.037267435 0.041984025 0.093282156 -0.025195368
0.0020462333 -0.04065848 0.06474129 0.0314105 -0.0033614438 -0.0066873687 0.0126907835 0.06033004
0.122523494 0.025551273 0.038191486 0.030134875 -0.015802493 0.077386625 -0.07966047 -0.009251026
0.05828239 -0.041610762 0.0402073 0.0051956433 0.117029026 0.042559806 -0.0558487 0.08057009
-0.086665735 0.14677447 0.042948548 0.0044554127 -0.11729868 -0.01187854 -0.053845275 -0.007007812
0.09247623 0.077440314 0.027143896 -0.09739931 0.047881 -0.04370772 0.016443303 0.012826928
0.01514634 0.13883932 -0.0011685814 0.1127545 0.040072776 0.0054480503 0.031990014 0.077168174
-0.015992621 0.06423132 -0.09291023 0.046165496 -0.02378557 -0.053235337 0.024075985 0.06183424
-0.09341993 -0.0495086 -0.0211182 -0.08533996 -0.087676235 0.07120869 0.074674696 -0.027059818
-0.02310746 -0.07163849 -0.09416065 0.017113978 0.047374457 -0.086527705 0.04902485 0.061073747
-0.039208632 -0.016015368 0.049139902 -0.078371994 0.033120204 0.078020655 -0.022740113 0.06983438
-0.045731306 -0.0606365 -0.08842642 -0.09632798 -0.06871406 0.006384241 -0.08518803 0.057190634
0.018381754 0.011895904 0.07519381 -0.025403546 -0.006571913 0.044787697 -0.0864418 0.053712722
0.04310604 -0.05410754 -0.039394964 0.044527348 0.007431665 0.04896611 0.06366421 0.05005109
0.0023709536 0.032003563 -0.057831623 0.057888057 0.060675345 -0.06100953 -0.014274572 -0.06829286
0.011946091 -0.06744419 0.0142084835 -0.064096786 -0.038055148 -0.02922395 0.032592975 -0.09428244
-0.007542478 0.084031396 0.05885347 -0.0062972275 0.059554085 -0.076118335 0.05266148 -0.042676445
0.04600235 -0.035587203 0.073115215 0.033937868 -0.06519921 0.061534945 0.07158165 0.029489314
0.027608452 0.041440777 0.019517368 -0.040159374 0.03192133 0.040769562 -0.016942143 -0.014237515
0.06954024 -0.036265764 -0.08350335 -0.013959749 -0.09735993 -0.0821886 0.040115047 0.001924351
-0.0012375144 -0.03555341 0.051650055 0.059737753 -0.061985355 -0.0057006855 -0.03178507 -0.097668685
0.0181845 -0.0017801091 -0.08393103 -0.06580137 -0.07861698 -0.08926331 0.094129294 -0.048345234
0.07359146 -0.05868397 -0.025212435 -0.082821846 -0.026176631 0.042949945 -0.07544623 -0.09124183
00000000: a969 ccbc fc84 93bd 4cb9 e43d 283f 2c3d
00000010: 95e0 97bc b961 4d3d 27cc c73d 11a9 18bd
00000020: 35b7 133e cec8 6b3d 9325 8bbc de99 f83d
00000030: 0b85 233d 5c58 5c3d 1edd f03c 8839 4e3d
00000040: fcb5 1bbd 060b 17bc 3e5b f8ba 1fe4 fc3c
00000050: 25f7 193c af7f e5bc cf69 f6bc 67b6 db3c
00000060: 00d1 72bc 835a b63d a7da 9ebb d412 223d
00000070: 4dff d53c 859f 483d bc3e a43c cfb1 a03b
00000080: 5bb0 d53c fe0c a43d 054f 2cbc 415f 193d
00000090: 6fc1 f93d 61eb 20bd ecca eebd 7e6f 273d
000000a0: c0e5 86bd 2040 1c3d bd92 3bbd 9646 193d
000000b0: 8592 ae3d bb5c 23bd b4bd 36bd 76b9 633d
000000c0: e2ee 0c3e 5e1d 3ebc 2ede cbbd 6c74 2bbd
000000d0: 3fd1 edbc 0e8c 5fbd b4b4 fbbc 78e4 d8ba
000000e0: 2d83 b43d def0 d33b 048b f23d c7f5 d73d
000000f0: 21d0 2cbd 7181 3ebd a945 06bc 56d0 19bc
00000100: e78d 28bd 687a b33b e382 dfbc 0957 c7bd
00000110: 9096 b8bd 8897 fe3d 9d6b f93d 80cd 9e3c
00000120: eb63 183d 4a96 613d e20a 9abd b320 963d
00000130: bda5 183d 71f7 2b3d b70a bf3d 8466 cebc
00000140: 191a 063b 8289 26bd 1597 843d 4ca8 003d
00000150: ab4b 5cbb b721 dbbb 01ed 4f3c a21c 773d
00000160: 99ed fa3d e750 d13c ad6e 1c3d 6add f63c
00000170: 3b74 81bc e17c 9e3d 0725 a3bd 9e91 17bc
00000180: 84b9 6e3d 0c70 2abd 69b0 243d 3740 aa3b
00000190: eaac ef3d 3153 2e3d 9bc1 64bd ee01 a53d
000001a0: ce7d b1bd 0c4c 163e d1ea 2f3d b6fe 913b
000001b0: 4a3a f0bd 359e 42bc dd8c 5cbd caa1 e5bb
000001c0: 2d64 bd3d 0799 9e3d e05c de3c 4a79 c7bd
000001d0: de1e 443d de06 33bd 1bb4 863c 0928 523c
000001e0: 5b28 783c e52b 0e3e 162b 99ba d5eb e63d
000001f0: 5a23 243d 8f85 b23b f607 033d 590a 9e3d
00000200: f502 83bc b68b 833d b847 bebd 0818 3d3d
00000210: f5d9 c2bc 4c0d 5abd 003b c53c e645 7d3d
00000220: f352 bfbd 88c9 4abd 1300 adbc b8c6 aebd
00000230: 998f b3bd ddd5 913d 0cef 983d 8dac ddbc
00000240: db4b bdbc 33b7 92bd 4dd7 c0bd 9d32 8c3c
00000250: b80b 423d 7035 b1bd 48ce 483d 7728 7a3d
00000260: 3b99 20bd a932 83bc ec46 493d 7f81 a0bd
00000270: 0da9 073d 4bc9 9f3d 7949 babc 5405 8f3d
00000280: c050 3bbd fb5d 78bd e918 b5bd 9b47 c5bd
00000290: f5b9 8cbd e532 d13b 1077 aebd ba40 6a3d
000002a0: 5595 963c 0ae7 423c 36ff 993d 191b d0bc
000002b0: 3459 d7bb 4e73 373d 6608 b1bd df01 5c3d
000002c0: f68f 303d de9f 5dbd 9d5c 21bd 4f62 363d
000002d0: 5385 f33b b090 483d 6262 823d 5f02 4d3d
000002e0: 0062 1b3b 2b16 033d dae0 6cbd 071c 6d3d
000002f0: b686 783d 21e5 79bd e5df 69bc 21dd 8bbd
00000300: 8ab9 433c 2e20 8abd b3ca 683c 2d45 83bd
00000310: b7df 1bbd 1167 efbc 3680 053d 2717 c1bd
00000320: e426 f7bb a718 ac3d 5610 713d f958 cebb
00000330: fcee 733d eee3 9bbd 90b3 573d 7fcd 2ebd
00000340: f66c 3c3d e3c3 11bd 6ebd 953d 6f02 0b3d
00000350: 2a87 85bd 110c 7c3d 6699 923d 9393 f13c
00000360: 1f2b e23c cebd 293d e3e2 9f3c 287e 24bd
00000370: f1bf 023d fcfd 263d 40ca 8abc 7744 69bc
00000380: 1d6b 8e3d 698b 14bd ce03 abbd 6eb7 64bc
00000390: a564 c7bd 7f52 a8bd ad4f 243d 813a fc3a
000003a0: 1834 a2ba 74a0 11bd 028f 533d 93af 743d
000003b0: 5be4 7dbd d1cc babb 1031 02bd 8506 c8bd
000003c0: a9f7 943c 8d52 e9ba 08e4 abbd dec2 86bd
000003d0: f001 a1bd afcf b6bd dcc6 c03d a705 46bd
000003e0: 1fb7 963d 9a5e 70bd 4f8a cebc 809e a9bd
000003f0: 6070 d6bc 48ec 2f3d 8e83 9abd ffdc babd

net.3.bias f4 [64]
0.045663573 -0.011317317 -0.013336378 0.026217252 0.003820743 0.073012635 0.10533801 0.01018232
0.08898188 0.04468099 -0.025665663 0.028196448 -0.03108952 0.044370353 0.10898703 -0.032694325
0.108214416 -0.021271754 -0.02460628 -0.04045466 0.0023544447 -0.0010804142 0.01738166 0.013113035
0.024862995 0.0876235 0.1337011 0.025512025 0.10069876 0.0740232 -0.008855945 0.08169472
0.103290565 0.1113799 0.055495452 0.10353805 -0.043489926 0.08248121 0.10371495 0.04791308
-0.014615765 -0.014701502 -0.07662852 0.06373685 0.064277306 0.03040495 0.034926817 0.015352977
0.0175466 0.104340814 0.11095626 -0.027574891 -0.0036846132 -0.012044996 0.030522346 0.04269794
0.010342004 0.062368933 0.07568844 0.13632126 0.018646127 0.13257115 0.065872304 0.030229565
00000000: ba09 3b3d 456c 39bc d380 5abc 90c5 d63c
00000010: 6e65 7a3b a687 953d 74bb d73d bfd3 263c
00000020: 223c b63d 6a03 373d cc40 d2bc 3dfc e63c
00000030: 73af febc b0bd 353d 9834 df3d 7cea 05bd
00000040: 859f dd3d 1a42 aebc 1c93 c9bc c9b3 25bd
00000050: 074d 1a3b af9c 8dba fc63 8e3c 0ed8 563c
00000060: 7bad cb3c f373 b33d f1e8 083e 98fe d03c
00000070: 273b ce3d 7a99 973d 8718 11bc 904f a73d
00000080: 018a d33d 251b e43d 334f 633d c20b d43d
00000090: 7e22 32bd e9eb a83d 8168 d43d 8140 443d
000000a0: f676 6fbc 92de 70bc 6aef 9cbd 7788 823d
000000b0: d2a3 833d cd13 f93c 6c0f 0f3d 0e8b 7b3c
000000c0: e3bd 8f3c a3b0 d53d 093d e33d bde4 e1bc
000000d0: 8d79 71bb 6058 45bc 000a fa3c 09e4 2e3d
000000e0: 8271 293c 9176 7f3d 8a02 9b3d cd97 0b3e
000000f0: c3bf 983c bbc0 073e 0fe8 863d fea3 f73c

net.6.weight f4 [2, 64]
0.141246 -0.07577117 -0.08921609 -0.11773434 0.14161022 0.014504803 -0.009596861 -0.07739097
0.10788829 0.041503347 0.15249588 -0.1636733 0.12638582 0.034839425 0.028625466 0.090419605
-0.14392225 0.04952582 -0.09970185 -0.08508776 -0.09393801 -0.06758936 -0.04119473 -0.081070036
0.02573883 0.12840445 0.08784307 -0.084761895 -0.014886244 -0.03094377 0.11075657 -0.11536959
-0.1847714 0.1860941 0.14052865 0.1279881 -0.12121289 0.10788642 0.070837356 -0.10571485
-0.009416044 0.020514263 -0.07860189 0.06529252 -0.18042564 0.033450883 0.014628128 -0.105424166
-0.034878176 -0.1728209 0.008882882 -0.10753604 0.008234125 -0.116511755 -0.15588748 0.11922505
0.1006656 0.083958216 0.14324562 0.081584826 -0.019805182 0.06579477 0.07828903 0.14050168
-0.12935764 -0.060188957 0.097041965 0.017639915 -0.13061197 0.12584539 -0.16822116 0.06845023
-0.1610073 0.16140509 -0.11079925 0.040600028 -0.092658356 0.15981373 -0.115484826 -0.1224873
0.16441312 0.06929564 -0.020298827 0.19232793 0.020504123 0.04028488 0.15621729 0.08857743
0.1642336 -0.09436929 -0.048255563 0.093710594 -0.17474692 0.06584125 -0.105067216 0.14832634
0.0048807357 -0.14452623 -0.007189232 0.008942748 0.055577956 -0.14482625 -0.13492458 0.1401558
-0.14278452 -0.12827365 0.07258013 -0.09855889 0.16653723 -0.12738697 0.12895805 0.024932738
-0.17773034 0.0431043 -0.17598657 0.11475664 -0.1734972 0.096566744 0.032331724 0.0065526776
-0.08762016 -0.14800018 -0.09378827 -0.12377065 -0.034040637 -0.11145031 -0.15348114 -0.13429864
00000000: cba2 103e ea2d 9bbd edb6 b6bd b41e f1bd
00000010: 4502 113e 8ea5 6d3c 273c 1dbc 287f 9ebd
00000020: 89f4 dc3d 6aff 293d e127 1c3e f999 27be
00000030: 496b 013e c9b3 0e3d f47f ea3c ea2d b93d
00000040: 5b60 13be 96db 4a3d 7c30 ccbd 7e42 aebd
00000050: 9262 c0bd 4a6c 8abd cebb 28bd 0c08 a6bd
00000060: 3dda d23c 757c 033e 11e7 b33d a597 adbd
00000070: 6fe5 73bc ca7d fdbc 57d4 e23d e446 ecbd
00000080: b734 3dbe 748f 3e3e bee6 0f3e 500f 033e
00000090: 773e f8bd 8ef3 dc3d 2d13 913d 0781 d8bd
000000a0: c045 1abc 870d a83c 07fa a0bd 16b8 853d
000000b0: 80c1 38be cb03 093d d1aa 6f3c a0e8 d7bd
000000c0: 6bdc 0ebd f6f7 30be 8289 113c db3b dcbd
000000d0: 6ce8 063c b79d eebd f8a0 1fbe 432c f43d
000000e0: c429 ce3d 49f2 ab3d fbae 123e f215 a73d
000000f0: 7a3e a2bc 69bf 863d 0056 a03d acdf 0f3e
00000100: 5476 04be b288 76bd f0bd c63d 9581 903c
00000110: 25bf 05be 9ddd 003e 2b42 2cbe a22f 8c3d
00000120: 19df 24be 6047 253e b8ea e2bd 374c 263d
00000130: aac3 bdbd 36a6 233e 4f83 ecbd 9fda fabd
00000140: ea5b 283e dfea 8d3d ba49 a6bc 9df1 443e
00000150: 43f8 a73c c201 253d 6df7 1f3e 1568 b53d
00000160: da2c 283e b044 c1bd a0a7 45bd 57eb bf3d
00000170: dbf0 32be c7d7 863d 7b2d d7bd dce2 173e
00000180: 94ee 9f3b affe 13be a693 ebbb 9b84 123c
00000190: b6a5 633d 554d 14be ab29 0abe 0185 0f3e
000001a0: 1b36 12be 2b5a 03be e4a4 943d 3ed9 c9bd
000001b0: bc88 2a3e bb71 02be 940d 043e be3f cc3c
000001c0: f1fe 35be 228e 303d d335 34be 8705 eb3d
000001d0: 40a9 31be c9c4 c53d 456e 043d d8b7 d63b
000001e0: 3372 b3bd 5c8d 17be 1114 c0bd 777b fdbd
000001f0: 326e 0bbd 0f40 e4bd 292a 1dbe 9585 09be

net.6.bias f4 [2]
-0.047955 0.07294257
00000000: 766c 44bd ea62 953d
