assets/snapshots/P1_robust_with_winsorize_transformer.pth (torch, 296393 bytes, 30 tensors)

input_proj.weight f4 [64, 1]
0	0xbf037803	-0.51355
1	0xbf00635a	-0.501516
2	0x3f1e960a	0.6194769
3	0xbd3dccfc	-0.046338066
4	0x3f6fd8dc	0.93690276
5	0xbf0c9bed	-0.54925424
6	0xbf5df3ef	-0.8670034
7	0xbf2b9ad4	-0.67033124
8	0x3e3310b7	0.17486845
9	0x3e1401d4	0.14453822
10	0x3f79d7ae	0.97594726
11	0x3f3d2373	0.73882216
12	0xbdbd53d5	-0.09244505
13	0xbe3bbe81	-0.1833439
14	0x3c49c185	0.012314205
15	0x3d6c8baa	0.05775038
16	0xbe7d843e	-0.24757478
17	0xbf2924be	-0.6607169
18	0x3e01dfbd	0.12683006
19	0xbf6391a3	-0.888941
20	0xbd5e2f49	-0.054244313
21	0xbd5fda5b	-0.0546516
22	0xbf399406	-0.7249149
23	0x3d8ef261	0.06979824
24	0x3e896ec4	0.2684232
25	0x3f4ede57	0.80808014
26	0x3f6f4161	0.93459135
27	0xbef88ea1	-0.48546317
28	0x3f3e36eb	0.7430255
29	0x3d4d1e96	0.050077997
30	0xbe55f256	-0.20893225
31	0x3f3de063	0.7417051
32	0xbea4de12	-0.32200676
33	0x3e72a257	0.2369474
34	0x3e8210af	0.25403354
35	0x3d325f90	0.043548167
36	0x3e1548d3	0.14578561
37	0xbf70fd17	-0.94136184
38	0x3e5a6e0b	0.2133104
39	0x3f04cce5	0.51875144
40	0x3c5cf4a7	0.013486064
41	0x3c9cb1c6	0.019127738
42	0x3f306327	0.68901294
43	0x3dbc7868	0.09202653
44	0xbd31f79c	-0.04344903
45	0x3f2428d4	0.641248
46	0xbf2c357a	-0.672691
47	0xbe7302eb	-0.23731582
48	0xbebdf404	-0.37100232
49	0xbf332d2b	-0.69990796
50	0xbe48f5e0	-0.19625044
51	0x3f197a9a	0.599527
52	0xbf393c5d	-0.7235773
53	0x3ed8bb9f	0.42330644
54	0x3ea55cea	0.3229745
55	0xbf5d5c44	-0.8646891
56	0x3f02a8e5	0.5103896
57	0x3eff192e	0.49823898
58	0x3a997bc4	0.0011709859
59	0xbe4626bc	-0.19350713
60	0x3d0a3be0	0.033748507
61	0xbde1372c	-0.10996851
62	0xbf4529a2	-0.7701665
63	0xbd85439d	-0.06507037

input_proj.bias f4 [64]
0	0xbf837c72	-1.0272353
1	0xbed690de	-0.419074
2	0xbea707e9	-0.32623222
3	0x3f07465c	0.52841735
4	0x3e4ac624	0.19802147
5	0x3ea20868	0.31647038
6	0x3f31eb27	0.6949944
7	0xbf54f463	-0.83185405
8	0xbf4efdab	-0.80855817
9	0x3e1ca761	0.15298225
10	0x3f33afb4	0.70189977
11	0xbedc1495	-0.42984453
12	0xbf30f159	-0.6911827
13	0xbcb2e5da	-0.021838117
14	0xbd40acfe	-0.04703998
15	0xbf578246	-0.84183156
16	0x3f582514	0.84431577
17	0xbf50c50b	-0.81550664
18	0xbf07b16c	-0.530051
19	0xbf18d0b8	-0.5969348
20	0xbebe1e6d	-0.37132588
21	0x3e5eed41	0.21770193
22	0x3f1d2d13	0.613969
23	0xbe70f470	-0.23530746
24	0x3f10bac5	0.5653499
25	0xbe9773d7	-0.29580566
26	0x3f218b70	0.6310339
27	0xbd7237bf	-0.059135195
28	0xbefc23d5	-0.49246088
29	0x3e0e16c7	0.13875876
30	0x3f53abd2	0.8268405
31	0xbee785a7	-0.45219156
32	0xbf17949e	-0.59211147
33	0x3f448a99	0.76773983
34	0xbf3a3f7f	-0.7275314
35	0x3f58ae7c	0.8464124
36	0x3e7ab16b	0.24481742
37	0xbf824204	-1.0176396
38	0x3f53a511	0.82673746
39	0x3d94b336	0.07260744
40	0xbe6bcbba	-0.23026934
41	0xbf7607ff	-0.9610595
42	0xbee0aeca	-0.43883353
43	0xbf406b69	-0.75163895
44	0xbf3b9b45	-0.732838
45	0xbe8f65af	-0.28007266
46	0xbf3fd87b	-0.749397
47	0xbf1f2e9f	-0.62180513
48	0x3ef13732	0.47112423
49	0x3f66d9af	0.9017591
50	0xbf105205	-0.5637515
51	0x3e9b10c9	0.30286244
52	0x3e0b1e63	0.1358581
53	0x3f3f9f14	0.7485211
54	0xbecac4a6	-0.39603156
55	0xbf0f9f49	-0.56102425
56	0x3e959688	0.2921641
57	0xbf458f3e	-0.77171695
58	0xbf6e7cf3	-0.9315941
59	0x3ee64f3b	0.44982323
60	0x3e582e81	0.2111149
61	0xbe1f05ee	-0.15529606
62	0x3cd08420	0.025453627
63	0x3f4e03d8	0.80474615

encoder.layers.0.self_attn.in_proj_weight f4 [192, 64]
0	0x3d814cdc	0.06313488
1	0xbdb597e4	-0.088668615
2	0x3db51f99	0.088439174
3	0x3b3351c4	0.0027361969
4	0x3e18d56c	0.14925164
5	0xbde0ee8a	-0.10982998
6	0xbd6edd8a	-0.058316745
7	0x3e036b58	0.12833917
8	0x3db745ba	0.08948846
9	0x3cbc076c	0.022952758
10	0xbba0816b	-0.0048982403
11	0xbdb65d7f	-0.08904552
12	0x3e108098	0.14111555
13	0xbc92454e	-0.017855313
14	0x3d22ba8e	0.039728694
15	0x3dad435d	0.08460114
16	0xbe388048	-0.18017685
17	0x3df3ebd6	0.119102165
18	0x3cfb849c	0.030702882
19	0xbd3a76be	-0.045523398
20	0xbdc9a960	-0.09846759
21	0x3d982e74	0.07430735
22	0xbe33d7c0	-0.17562771
23	0x3db815fd	0.08988569
24	0xbdcb55ca	-0.09928472
25	0xbca39ef2	-0.019973252
26	0x3d476bc6	0.048686765
27	0xbd043035	-0.032272536
28	0xbd869efd	-0.06573293
29	0x3e184947	0.14871703
30	0x3b9136e0	0.0044315904
31	0x3e28b71e	0.16476104
32	0xbde26bb8	-0.11055702
33	0xbd3c1d74	-0.045926526
34	0x3e3ff71c	0.18746608
35	0x3d49be6a	0.04925386
36	0x3dc4e94a	0.09614809
37	0x3cde4ec5	0.02713717
38	0xbe0585ad	-0.13039275
39	0xbc5445ae	-0.012956066
40	0xbcdc0133	-0.02685604
41	0x3d6b4ead	0.057448078
42	0xbd8d878d	-0.0691062
43	0x3ddee71b	0.108839236
44	0xbdc74a5c	-0.0973098
45	0xbd534e84	-0.05158855
46	0xbe1a8f12	-0.1509364
47	0xbda8fb0e	-0.0825101
48	0xbc93d8fa	-0.018047798
49	0x3c55db43	0.013052764
50	0xbd02c33b	-0.031924468
51	0x3e1a1309	0.15046324
52	0xbc847243	-0.016167765
53	0xbdc01bd3	-0.09380307
54	0xbd0b3e5a	-0.03399501
55	0x3d7c2d95	0.061566908
56	0xbdcf15ab	-0.10111555
57	0xbcf37a17	-0.029721303
58	0x3d8bd68f	0.06828033
59	0xbe2affa7	-0.16699086
60	0xbc914675	-0.017733792
61	0xbdd5039f	-0.10401081
62	0xbda34966	-0.07972984
63	0xbdddf37b	-0.10837456
64	0x3e0183b6	0.126479
65	0x3b87267a	0.00412446
66	0xbcdf794d	-0.02727952
67	0xbdf588aa	-0.11988957
68	0xbda108b5	-0.07862989
69	0xbd6f4691	-0.058416907
70	0x3e06f4c1	0.13179304
71	0xbdd8be8e	-0.105832204
72	0xbd9d9801	-0.07695008
73	0x3d9b1f1e	0.075742945
74	0xbdda5dac	-0.10662398
75	0x3d2c1a93	0.04201753
76	0x3e0b879e	0.13625953
77	0x3de0247a	0.10944457
78	0x3d3cb458	0.046070427
79	0x3e1148b6	0.14187893
80	0xbe021f25	-0.12707193
81	0xbdc697b4	-0.09696904
82	0xbc3b6dfd	-0.0114397975
83	0x3d202e89	0.03910688
84	0xbd6146f0	-0.054999292
85	0xbcef06b0	-0.029177994
86	0x3dcc6118	0.09979457
87	0x3e1f2570	0.15541625
88	0xbe15a1a8	-0.14612448
89	0x3d110999	0.035409544
90	0xbd048979	-0.032357667
91	0xbb5589b5	-0.00325833
92	0xbdfafce6	-0.12255268
93	0xbdfde6c6	-0.12397532
94	0x3df272bc	0.1183829
95	0x3d49499a	0.049142458
96	0xbbbbb408	-0.0057282485
97	0x3d8a5f65	0.06756476
98	0x3d34c3ff	0.04413223
99	0xbd96d194	-0.073641926
100	0xbddd7471	-0.10813225
101	0x3d858a34	0.06520501
102	0xbd9cccc5	-0.07656244
103	0xbcafc4e4	-0.02145619
104	0xbdca3627	-0.0987361
105	0xbd5bd9f6	-0.05367466
106	0x3e0d9460	0.13826132
107	0x3df82fbb	0.12118479
108	0xbb34b593	-0.0027574047
109	0x3e1e36e8	0.15450633
110	0x3d126d0a	0.03574852
111	0x3d1c9c41	0.038234953
112	0xbd59605e	-0.05307042
113	0xbdbfafde	-0.09359716
114	0x3b919b29	0.0044435454
115	0x3e2105e3	0.15724902
116	0x3d8797f2	0.06620778
117	0xbd1051fa	-0.03523443
118	0x3d234781	0.039863113
119	0xbdcb93dc	-0.09940311
120	0xbe0dcd51	-0.13847853
121	0xbda246b5	-0.079236425
122	0x3dd5dffb	0.104431115
123	0x3c1aadc5	0.009440844
124	0xbd649ec8	-0.055815488
125	0x3cc11760	0.023570716
126	0xbd31c9d6	-0.043405376
127	0x3dc2fb73	0.095206164
128	0xbda8b82b	-0.08238252
129	0xbd2d2de3	-0.04228009
130	0x3d54d723	0.051962983
131	0xbda1ae2f	-0.07894551
132	0x3df382b0	0.11890161
133	0x3d46c48c	0.048527285
134	0xbd67e68c	-0.05661635
135	0xbd95ba0e	-0.07310878
136	0x3d9da554	0.076975495
137	0x3df28e4a	0.11843546
138	0x3e00ec94	0.12590247
139	0x3dc2594e	0.0948969
140	0x3e3f0564	0.186544
141	0xbe03abff	-0.1285858
142	0x3dc59541	0.096476085
143	0xbc73864c	-0.014863562
144	0xbe47725c	-0.19477218
145	0xbd25132b	-0.040301483
146	0x3c59143b	0.013249452
147	0x3dfc3fc3	0.12316849
148	0xbd0f4b84	-0.034984127
149	0xbd0a9832	-0.03383655
150	0xbdb059c3	-0.08610871
151	0xbd5aa1ba	-0.05337689
152	0xbde53e42	-0.11193515
153	0xbd7a55d7	-0.06111702
154	0xbdcce5bb	-0.10004755
155	0xbda8c96f	-0.082415454
156	0x3e3a7416	0.18208346
157	0x3d65d2b9	0.056109164
158	0x3dd3bc64	0.10338667
159	0x3e08b005	0.13348396
160	0xbd9cac25	-0.076500215
161	0xbdf1cdb9	-0.118068166
162	0x3db01cf5	0.08599273
163	0xbe4418dc	-0.19150108
164	0x3d3c63b3	0.045993518
165	0x3dfa93cb	0.122352205
166	0x3988527f	0.00026001406
167	0x3e0c19ba	0.13681689
168	0xbdc8c01e	-0.098022684
169	0x3dab0ae0	0.083516836
170	0x3c2efedf	0.010680883
171	0x3e183fad	0.1486804
172	0x3e169539	0.14705361
173	0xbd928ea3	-0.07156112
174	0xbdc01608	-0.09379202
175	0x3e19375c	0.14962524
176	0x3cd1b483	0.02559877
177	0xbe3199f5	-0.17343886
178	0x3ddecf6b	0.108794056
179	0x3d5c22c6	0.0537441
180	0xbe07a6f8	-0.13247287
181	0x3c7e1eea	0.0155103
182	0x3e20873b	0.15676586
183	0xbdd80780	-0.105483055
184	0x3e14f484	0.145464
185	0x3df6f929	0.12059242
186	0xbc873078	-0.016502604
187	0xbda4c809	-0.08045966
188	0x3d5f0dd4	0.054456547
189	0xbd34d2c1	-0.044146303
190	0x3c5f15a3	0.013615998
191	0xbe0ce066	-0.13757476
192	0x3e0dd773	0.13851719
193	0x3d924264	0.07141569
194	0x3d8ffd4f	0.07030737
195	0xbe3cf6b9	-0.18453492
196	0x3df36d63	0.11886098
197	0xbdfe2a5e	-0.12410425
198	0xbd072b2c	-0.033000156
199	0x3e25c0d0	0.16186833
200	0x3dce7271	0.10080422
201	0xbd9adef5	-0.07562057
202	0x3dda103a	0.10647626
203	0xbc90f6f6	-0.017695885
204	0x3da1e3ea	0.07904799
205	0x3a414828	0.0007373118
206	0x3e24ea94	0.1610511
207	0x3c0963c2	0.0083856005
208	0x3dc51d92	0.09624781
209	0x3d821101	0.063508995
210	0x3d796345	0.060885686
211	0xbd97b9c6	-0.0740848
212	0x3dc01742	0.09379436
213	0xbe27f5af	-0.16402315
214	0xbd749a2d	-0.059717346
215	0xbc290aac	-0.010317486
216	0xbe36fe6b	-0.1787049
217	0x3dc35b26	0.095388696
218	0x3d4f2c05	0.05057909
219	0x3dcb323f	0.09921693
220	0x3d869648	0.065716326
221	0xbcb4f8ec	-0.022091351
222	0x3db9e5dd	0.09077046
223	0x3e421d64	0.18956524
224	0xbd9e0e79	-0.07717604
225	0xbe0643ac	-0.13111752
226	0x3e4be56b	0.19911735
227	0xbdcb02cb	-0.09912642
228	0x3d4c12b3	0.04982252
229	0xbe101850	-0.14071774
230	0xbd3d6f9e	-0.046249025
231	0xbcb4e34e	-0.022081044
232	0x3d92e3c0	0.07172346
233	0x3e3b3d46	0.18285093
234	0x3ca1bb3e	0.019742604
235	0xbd31f0cd	-0.043442536
236	0x3e2f770a	0.17135254
237	0x3e268fe9	0.16265835
238	0xbd3f0e8d	-0.046644736
239	0xbbb31e9e	-0.0054662963
240	0xbdb2089c	-0.08693048
241	0xbd8d611d	-0.069032885
242	0xbc2c07e5	-0.010499929
243	0xbda7f938	-0.082018316
244	0xbdbe5b87	-0.09294801
245	0xbd3e4718	-0.04645452
246	0xbd9933a4	-0.07480553
247	0xbdaf5d1e	-0.085626826
248	0x3e19323f	0.14960574
249	0xb92dbf71	-0.00016569883
250	0x3e23488d	0.15945645
251	0x3d696944	0.056985155
252	0x3c250901	0.0100729475
253	0xbe090443	-0.13380532
254	0xbd9826da	-0.07429285
255	0xbdb5fd1f	-0.0888617

encoder.layers.0.self_attn.in_proj_bias f4 [192]
0	0xbcc9105d	-0.024543935
1	0xbc5f36b4	-0.013623882
2	0xbd20a643	-0.03922106
3	0xbd325a1d	-0.04354297
4	0x3cf54208	0.029938713
5	0x3bf09a10	0.0073425844
6	0x3c4b110d	0.012394202
7	0x3c41a81d	0.0118198665
8	0xbd55fa1b	-0.052240472
9	0xbd8571a2	-0.06515814
10	0xbd1e8c91	-0.038708273
11	0xbd87ebcc	-0.066367716
12	0x3d504235	0.05084439
13	0x3d1e3dec	0.038633272
14	0x3d1d58a9	0.03841463
15	0x3d3c0720	0.045905232
16	0xbb61b298	-0.0034438726
17	0xbc2fb0c3	-0.010723296
18	0x3b3bfa71	0.002868321
19	0xbb8b5153	-0.004251638
20	0x3c1f15d9	0.009709799
21	0xbcc1a15f	-0.023636518
22	0xbb07d98c	-0.0020729033
23	0xbbd860ad	-0.0066033215
24	0x3ca0d0d2	0.019630823
25	0x3c30c717	0.010789654
26	0x3a9e7f77	0.0012092431
27	0xbb731d8f	-0.0037096476
28	0xbc94c811	-0.018161805
29	0xbc8a9c71	-0.0169203
30	0xba1563a6	-0.00056987477
31	0xbc3850f6	-0.011249771
32	0x3cdc49eb	0.026890716
33	0x3b15cad6	0.0022856495
34	0x3c06bfcf	0.008224442
35	0xbb9ac05f	-0.0047226395
36	0x3c82049f	0.015871344
37	0xbccb721e	-0.024834689
38	0x3c53a304	0.012917284
39	0xbcc4a957	-0.024006529
40	0x3ca77823	0.020443028
41	0xbc08fb53	-0.008360702
42	0xbd3ca999	-0.04606018
43	0xbbc8f7c9	-0.006133054
44	0x3d287d8a	0.04113535
45	0x3d067cd8	0.032833904
46	0x3c9385ee	0.018008199
47	0xbba2ee81	-0.0049722795
48	0xbca43aa7	-0.020047499
49	0x3d888ae6	0.06667118
50	0xbcb59071	-0.022163602
51	0xbcf01bf2	-0.0293102
52	0xbb945575	-0.004526789
53	0xbd850469	-0.06494982
54	0x3ca84348	0.020539895
55	0xbcde4c0d	-0.027135873
56	0xbcc2ecb6	-0.023794513
57	0xbd0a7784	-0.033805385
58	0x3bd9e9af	0.0066501717
59	0x3b4fed43	0.0031727112
60	0xbc28b08f	-0.010296001
61	0xbc0a560e	-0.008443369
62	0x3d13cf4c	0.036086366
63	0x3cccd753	0.025005018
64	0xbc8dac32	-0.017294023
65	0xb9ea9e0b	-0.0004474971
66	0xbb9bb164	-0.004751371
67	0xbb8aff25	-0.0042418414
68	0xbb2be1f8	-0.0026227217
69	0xbb0f392e	-0.002185415
70	0x3b2bbe60	0.0026206002
71	0x3bd62a58	0.0065358095
72	0x3c916934	0.01775036
73	0x3d00ced1	0.031447235
74	0x3cd20de9	0.025641399
75	0x3cd1cc32	0.025610063
76	0xbc85744e	-0.01629081
77	0xbbec4a76	-0.007211025
78	0xbb2cf265	-0.0026389596
79	0xbced36af	-0.02895674
80	0x38896922	6.5522516e-05
81	0x3b1b0101	0.0023651721
82	0x3aa1f9ef	0.0012357811
83	0xb9f7d7c8	-0.0004727228
84	0x3bb0ee04	0.0053994674
85	0xbc7c55ef	-0.015401348
86	0x3a7d6ead	0.0009667676
87	0x3b13712d	0.0022497878
88	0xbb82190a	-0.00397027
89	0x3a4e9a47	0.00078812655
90	0x3c045930	0.008077905
91	0xbbaeddac	-0.005336484
92	0x3b520af6	0.003204999
93	0xbaa92b9c	-0.0012906673
94	0x3bbc98b7	0.0057555097
95	0xbc061774	-0.008184303
96	0xbb15c76e	-0.0022854465
97	0xba94e4e8	-0.0011359723
98	0xbabad598	-0.001425433
99	0x3a84eaea	0.0010140811
100	0xba32644a	-0.00068051054
101	0x3b93f52d	0.004515311
102	0xbb10a47b	-0.0022070694
103	0x3c113621	0.008863003
104	0xbc99c44e	-0.018770363
105	0x3c7263af	0.014794274
106	0x3cd623fe	0.02614021
107	0x3be61ed6	0.007022719
108	0xbcddfbc6	-0.027097594
109	0xbced2d4b	-0.028952261
110	0xbcc17a99	-0.02361803
111	0xbc847b9d	-0.016172225
112	0xbba34102	-0.004982115
113	0x3b92610e	0.004467136
114	0xbc22f057	-0.009944997
115	0xbbb227ec	-0.005436888
116	0xbb2ca663	-0.0026344291
117	0xba5a04e3	-0.0008316768
118	0x3ba4bb93	0.0050272434
119	0x3a891b30	0.0010460373
120	0x3d290343	0.041262876
121	0x3d455609	0.048177753
122	0xbd3b571d	-0.045737375
123	0xbb76519f	-0.003758527
124	0x3bb9dd02	0.005672098
125	0xbc4c1403	-0.012455943
126	0xbd19a872	-0.037514158
127	0xbd1b2148	-0.037873536
128	0x3c496fc7	0.012294716
129	0x3c82f941	0.015987994
130	0x3de8dcaa	0.11370213
131	0xbe0d184e	-0.13778803
132	0xbdfd607a	-0.12371917
133	0x3d527c5c	0.05138813
134	0xbde91914	-0.113817364
135	0x3e02c9f1	0.12772347
136	0x3d03f7e1	0.032218818
137	0x3c27140e	0.0101976525
138	0x3cacb9d1	0.021084698
139	0xbcc0bfec	-0.023529015
140	0xbcc69ef3	-0.024245715
141	0xbd2457aa	-0.040122665
142	0x3bfc29a7	0.007695395
143	0xbc8d8b1b	-0.017278245
144	0xbb4be707	-0.0031113045
145	0xbb360211	-0.0027772228
146	0xbba5132a	-0.005037685
147	0xbca20886	-0.019779455
148	0x3b524a53	0.0032087758
149	0x3c83cdec	0.016089402
150	0x3bdc7b96	0.0067286
151	0x3c483656	0.012219986
152	0xbac11111	-0.0014729818
153	0x3cfc2487	0.030779136
154	0xbd841926	-0.06450109
155	0xbc229a08	-0.009924419
156	0x3d0a21b4	0.033723548
157	0x3c3e86fd	0.011628863
158	0x3cc7c7c1	0.024387242
159	0xbc05dac2	-0.008169832
160	0xbc2a1ee7	-0.010383344
161	0xbbcd265e	-0.0062606772
162	0x3c53711d	0.012905386
163	0xbce1a0c0	-0.027542472
164	0x3b2a7643	0.002601043
165	0xbc96e3cc	-0.018419169
166	0xbb8f4667	-0.0043724063
167	0x3b8fa10f	0.0043832134
168	0x3d6d5de3	0.057950865
169	0xbbf82201	-0.007572413
170	0xbbfae9e0	-0.0076572746
171	0x3d905f98	0.07049483
172	0x3c2a2ae4	0.0103862025
173	0x3d26da18	0.040735334
174	0x3ce09ca1	0.027418436
175	0xbca7bd8e	-0.020476129
176	0xbd88d881	-0.0668192
177	0xbbc10ccb	-0.0058914176
178	0xbde3a8b7	-0.11116164
179	0x3d7d6585	0.061864395
180	0xbdd916fc	-0.10600087
181	0xbddce44b	-0.10785731
182	0xbb66eaa0	-0.0035235062
183	0x3d18f061	0.03733862
184	0x3c971f35	0.018447498
185	0x3bf0a9b8	0.007344451
186	0xbbf4cb95	-0.007470558
187	0xbd009800	-0.03139496
188	0x3c1a37f6	0.009412756
189	0xbd4ccdb7	-0.050000872
190	0xbcf2823b	-0.029603114
191	0xbcbb3275	-0.022851208

encoder.layers.0.self_attn.out_proj.weight f4 [64, 64]
0	0xbd1a5da7	-0.03768697
1	0xbd3de4b0	-0.04636067
2	0xbd1ccfb1	-0.038284007
3	0xbc2e1bab	-0.010626714
4	0x3dd7561a	0.105144694
5	0x3aa05870	0.0012233388
6	0x3da24e60	0.07925105
7	0xbd9a91cd	-0.075473405
8	0xbd779f6a	-0.060454763
9	0x3d4beeeb	0.049788397
10	0xbd05ba15	-0.032648165
11	0x3db344a1	0.08753324
12	0x3de59c22	0.112114206
13	0xbd9aef99	-0.07565231
14	0x3df53fe0	0.11975074
15	0xbdc5549f	-0.09635281
16	0xbd833c37	-0.064079694
17	0x3dc56aac	0.09639487
18	0x3ba2271d	0.0049485103
19	0x3c900e27	0.017584873
20	0x3e0aa717	0.13540302
21	0x3d00a395	0.031406004
22	0x3da68abb	0.081319295
23	0xbd544a8b	-0.051828902
24	0xbd816de1	-0.06319786
25	0xbd3dfcac	-0.046383545
26	0x3d83fba6	0.064444825
27	0x3da37563	0.07981374
28	0x3c805b6a	0.01566859
29	0xbdaef609	-0.08543021
30	0xbd709603	-0.058736812
31	0xbc86ca6a	-0.01645394
32	0xbd223053	-0.039596867
33	0x3da6bbac	0.08141264
34	0xbe0170a9	-0.12640633
35	0xbd6518fb	-0.055932026
36	0xbe133a2e	-0.14377663
37	0x3d61d1fe	0.055131905
38	0xbd35d7ea	-0.044395365
39	0x3cf0dc50	0.029401928
40	0x3d174e68	0.03694001
41	0x3dbbbf76	0.09167378
42	0xbd43e8ae	-0.047829323
43	0x3d9681bf	0.07348966
44	0xbdd18e3b	-0.102322064
45	0x3d0d03dd	0.034427512
46	0x3c180613	0.009278792
47	0xbd4e5851	-0.050377194
48	0xbc6957c3	-0.014242115
49	0xbdd0cb6d	-0.101950504
50	0xbc424509	-0.01185728
51	0x3df136db	0.11778041
52	0xbd710842	-0.058845766
53	0xbdc771b8	-0.09738487
54	0x3d9dbda5	0.077021874
55	0x3d2cd1e3	0.04219235
56	0xbc3a9b0b	-0.011389504
57	0xbdaa55cd	-0.083171465
58	0xbc929e92	-0.017897878
59	0xbc3e35df	-0.011609524
60	0xbd115a53	-0.03548653
61	0x3d637000	0.055526733
62	0xbdbf680e	-0.09346019
63	0x3d1702b5	0.036867816
64	0xbdaddd52	-0.08489479
65	0x3c7bfaca	0.015379617
66	0xbdc18581	-0.09449292
67	0x3d14f317	0.03636464
68	0xbe1b8e90	-0.15191102
69	0x3d4cebf6	0.050029717
70	0xbe11b278	-0.14228237
71	0x3d80b008	0.06283575
72	0x3df6da8c	0.12053403
73	0x3cb40974	0.021977164
74	0x3d954732	0.0728897
75	0x3d948ca4	0.072533876
76	0x3d5de61b	0.054174524
77	0x3d22118e	0.039567523
78	0xbc938d8c	-0.01801183
79	0x3d1f2653	0.03885491
80	0xbdbf11f6	-0.09329598
81	0x3dbaf282	0.09128286
82	0x3d9fb351	0.07797874
83	0xbca0c55e	-0.019625362
84	0x3c8b45a3	0.017000979
85	0x3d58e534	0.05295296
86	0xbdc7c634	-0.09754601
87	0xbd5ee01a	-0.05441294
88	0xbd39a55b	-0.04532371
89	0x3c42ccbe	0.011889635
90	0xbda80b8b	-0.08205327
91	0x3d741a81	0.05959559
92	0x3e136ddd	0.14397378
93	0xbdad82a1	-0.08472181
94	0xbc594b45	-0.013262575
95	0xbd3ddde6	-0.046354197
96	0xbd4f628e	-0.0506311
97	0x3c751055	0.014957507
98	0x3b1378bb	0.002250238
99	0xbdb4737a	-0.08811088
100	0xbd582e61	-0.052778605
101	0xbccba83a	-0.02486049
102	0x3c84381e	0.01614004
103	0xbd02fb71	-0.031978074
104	0x3d26dc03	0.040737163
105	0xbb8eba43	-0.0043557
106	0xbca5bcde	-0.02023166
107	0x3cf58548	0.02997078
108	0xbd666699	-0.05625019
109	0x3dcafa35	0.099110045
110	0x3dea24b2	0.1143278
111	0xb9e776f4	-0.0004414838
112	0x3d92c1bd	0.07165859
113	0x3c8f7e19	0.017516183
114	0x3d2fcc5c	0.0429195
115	0xbdc96a70	-0.098347545
116	0x3dbfd5ce	0.09366952
117	0xbdb8cab3	-0.09023037
118	0x3dcf501a	0.101227
119	0xbd1562d6	-0.03647121
120	0xbcec9512	-0.028879676
121	0xbc959690	-0.01826027
122	0x3d5a8410	0.0533486
123	0x3d966dad	0.07345138
124	0xbcd7a813	-0.026325261
125	0x3d8a2b9e	0.067466006
126	0xbd69753f	-0.05699658
127	0x3d2a834c	0.04162912
128	0x3d3eb575	0.04655977
129	0x3cbddbd2	0.023176108
130	0x3da3cb39	0.07997746
131	0x3cfd8ad7	0.030949993
132	0x3dfdeda6	0.123988435
133	0x3cb8cd4e	0.022558834
134	0xbd8f0bca	-0.069846705
135	0xbc041f40	-0.008064091
136	0xbd1ffd5a	-0.039059974
137	0x3d131910	0.035912573
138	0x3dda465b	0.106579505
139	0x3dc81670	0.097699046
140	0x3c825550	0.01590982
141	0xb8c3f29c	-9.343514e-05
142	0xbd963491	-0.07334245
143	0x3d25fef3	0.04052634
144	0x3bb36a59	0.005475324
145	0x3d97316e	0.07382475
146	0xbdeecadc	-0.11659786
147	0x3ddaad6e	0.1067761
148	0xbd787ff5	-0.060668904
149	0xbcf37a30	-0.02972135
150	0x3d175390	0.036944926
151	0x3d0ed0cb	0.03486709
152	0x3da9bfb3	0.08288517
153	0xbc9d7a6c	-0.019223414
154	0x3c97d943	0.018536216
155	0x3d11808e	0.03552299
156	0x3d21e357	0.03952345
157	0x3cc118ef	0.02357146
158	0xbe082816	-0.13296542
159	0xbd19f59a	-0.03758774
160	0xbda254b0	-0.07926309
161	0x3d1f4dfe	0.03889274
162	0xbc7a7a53	-0.015287953
163	0xbe03ae05	-0.12859352
164	0x3da0f1cd	0.0785862
165	0x3db67551	0.08909095
166	0x3da624a8	0.081124604
167	0xbdeed7d3	-0.11662259
168	0x3bcee278	0.0063136183
169	0x3d9dc226	0.077030465
170	0xbd883708	-0.066511214
171	0xbdb5d38c	-0.0887824
172	0x3d28072f	0.041022476
173	0xbdb9cc63	-0.09072187
174	0x3d441c77	0.04787871
175	0x3d5ec89c	0.054390535
176	0xbe01bebc	-0.12670416
177	0x3dc8f4e7	0.098123364
178	0xbc950e5d	-0.018195326
179	0x3c8306a2	0.015994374
180	0xbcb482b5	-0.022034982
181	0x3ca9970a	0.020701904
182	0xbcb98690	-0.022647172
183	0x3d9c1bbf	0.0762248
184	0x3c527603	0.012845519
185	0x3d4fe897	0.050758924
186	0x3d6645b3	0.056218814
187	0x3d694c40	0.056957483
188	0x3da7b9da	0.08189745
189	0x3d497be0	0.049190402
190	0x3de992b0	0.114049315
191	0x3d828d38	0.063745916
192	0x3d19c5a0	0.037541986
193	0x3dea7121	0.11447359
194	0x3e37f649	0.17965044
195	0xbe2e7f6b	-0.17040794
196	0xbe1ed190	-0.15509629
197	0x3c61f72b	0.01379184
198	0xbe60b28b	-0.21943109
199	0x3e77c347	0.24195586
200	0xbd5f07ea	-0.054450907
201	0xbd257442	-0.040394075
202	0x3cb83c34	0.022489645
203	0xbcc2d7a3	-0.023784464
204	0xbd8a7085	-0.06759743
205	0xbdadc93d	-0.08485649
206	0xbce30a77	-0.027714951
207	0x3d9076da	0.07053919
208	0x3c34aa39	0.011026912
209	0xbd735f14	-0.059416845
210	0xbddf52d0	-0.10904467
211	0x3de00700	0.10938835
212	0xbd932cac	-0.07186255
213	0x3cdbaa9e	0.026814755
214	0x3db7f363	0.08981969
215	0xbd2f7072	-0.042831846
216	0xbd39c6f9	-0.04535577
217	0x3e144165	0.14478071
218	0xbd4e7b7c	-0.050410733
219	0xbd1f4714	-0.038886145
220	0x3e0bd38f	0.13654922
221	0x3dd03afe	0.10167502
222	0x3cff8284	0.031190164
223	0x3dbe2c18	0.09285754
224	0x3d4319b2	0.047631927
225	0x3c9a4aad	0.018834436
226	0x3db6b7dd	0.08921788
227	0x3d0b3f02	0.033995636
228	0x3d5f698d	0.05454402
229	0x3d378a58	0.04480967
230	0xbdf3f86e	-0.119126186
231	0xbd39153a	-0.04518626
232	0x3cabc053	0.02096573
233	0x3c70ee0b	0.014705191
234	0xbdb4970f	-0.08817875
235	0xbc68b250	-0.014202669
236	0xbd652360	-0.05594194
237	0xbc655b48	-0.013998814
238	0x3dd5fc48	0.104485095
239	0x3c836fcc	0.01604452
240	0xbd4e84e7	-0.050419714
241	0xbd632b43	-0.05546118
242	0xbd90bd14	-0.07067314
243	0x3dba66a6	0.0910161
244	0xbe2644b7	-0.1623715
245	0xbdaa535b	-0.0831668
246	0xbdeb9e6e	-0.115048274
247	0x3c3a21e9	0.011360624
248	0xbdd7ba88	-0.10533625
249	0xbd481be1	-0.048854712
250	0x3cf23eed	0.029571021
251	0x3db8bfd9	0.09020967
252	0xbd8624a2	-0.06549956
253	0x3d9675a2	0.073466554
254	0xbd538492	-0.0516401
255	0xbdbe2948	-0.092852175

encoder.layers.0.self_attn.out_proj.bias f4 [64]
0	0xbd628602	-0.05530358
1	0x3d210258	0.039308876
2	0xbd04e7e0	-0.032447696
3	0x3d8bddca	0.06829412
4	0x3c966d9d	0.018362815
5	0x3d708602	0.05872155
6	0x3d54eff4	0.05198665
7	0xbd1ad46e	-0.037800245
8	0xbcaa1f06	-0.020766746
9	0xbd01b392	-0.031665392
10	0xbcb4afa1	-0.022056403
11	0xbd476d60	-0.048688293
12	0xbceb1dbc	-0.028700702
13	0xbca8f78a	-0.020625848
14	0x3c3604a5	0.011109506
15	0xbca10e22	-0.01966006
16	0x39956eab	0.0002850195
17	0xbd419c16	-0.047267996
18	0xbcf64840	-0.030063748
19	0x3cb2d3f0	0.021829575
20	0x3c92e00d	0.017929101
21	0x3cd2f6c8	0.02575244
22	0x3d892599	0.06696624
23	0xbdaf6e58	-0.08565968
24	0x3d2b1a2a	0.041773
25	0xbda0bd1f	-0.07848572
26	0xbce14ec8	-0.027503386
27	0xbd4e1fac	-0.050323173
28	0xbd7ae376	-0.06125208
29	0xbce85ce8	-0.028364614
30	0x3d5f6e90	0.0545488
31	0xbdc15b26	-0.09441213
32	0x3d4026fd	0.046912182
33	0x3d2983fa	0.04138563
34	0xbd5af53f	-0.05345654
35	0x3d922c80	0.07137394
36	0xbcdfc654	-0.02731625
37	0xbd222394	-0.03958471
38	0x3d90dc42	0.07073261
39	0xbd0abefe	-0.03387355
40	0x3ccbcdf9	0.024878489
41	0xbc55d1cd	-0.013050509
42	0xbd0fb1e2	-0.03508175
43	0xbcb0b20a	-0.02156927
44	0xbd1e6577	-0.038670983
45	0xbd46e8c5	-0.04856183
46	0x3cc9050a	0.024538536
47	0xbd59a9fc	-0.053140625
48	0x3da14c42	0.07875873
49	0x3db5b895	0.08873097
50	0xbd43f75b	-0.04784332
51	0xbc88574b	-0.016643187
52	0x3b898345	0.0041965568
53	0x3d6ad840	0.05733514
54	0x3d1ec0dd	0.038758148
55	0x3d9f3fde	0.077758536
56	0x3d186a58	0.037210792
57	0xbd4d7c19	-0.050167177
58	0xbd80bffb	-0.06286617
59	0x3d7fa67d	0.062414635
60	0x3b7bd48e	0.0038426253
61	0x3c72e2eb	0.014824609
62	0x3d2572f5	0.040392835
63	0x3dab921b	0.08377477

encoder.layers.0.linear1.weight f4 [128, 64]
0	0xbd199dfe	-0.03750419
1	0x3def01a8	0.11670238
2	0x3da8c8c7	0.0824142
3	0x3e232c8c	0.15934962
4	0x3db82b3d	0.08992622
5	0x3e012d74	0.12614995
6	0xbde7f3f3	-0.113258265
7	0x3d9137da	0.07090731
8	0xbd442e4b	-0.04789571
9	0x3d09b5fe	0.033620827
10	0xbd2c97e7	-0.042137053
11	0xbc56adb2	-0.013102936
12	0x3daa19a2	0.0830567
13	0xbd99303b	-0.07479902
14	0xbd29a775	-0.041419465
15	0x3ddf94ed	0.10917077
16	0x3d89a911	0.067217
17	0x3cbe3b5e	0.023221668
18	0xbd056266	-0.032564543
19	0x3d447694	0.047964647
20	0x3d9221d2	0.07135357
21	0xbdb25110	-0.08706868
22	0xbc36d665	-0.011159514
23	0x3dae287e	0.08503817
24	0x3ddf9f40	0.109190464
25	0x3cc2a1cc	0.023758791
26	0x3dc95fa3	0.098326944
27	0xbd1480b7	-0.036255565
28	0xbd6b0199	-0.05737457
29	0xbe09a2d7	-0.13441025
30	0xbd6f66d5	-0.058447678
31	0x3c68e768	0.014215328
32	0x3c8dfd27	0.017332627
33	0xbc41d217	-0.0118298745
34	0x3df32f8c	0.11874303
35	0x3cd3be3c	0.025847547
36	0x3d7e7e4b	0.06213216
37	0xbdeaf2f7	-0.11472123
38	0x3db5f44d	0.08884487
39	0xbce02510	-0.027361423
40	0x3d6c0b0c	0.057627723
41	0x3d102cbd	0.035198916
42	0xbda413e0	-0.08011603
43	0x3d14537c	0.03621243
44	0xbd249b25	-0.04018702
45	0x3db006c6	0.08595042
46	0x3d481f2a	0.048857845
47	0x3d70339f	0.05864298
48	0xbe149c94	-0.14512855
49	0xbdd9b9da	-0.106311515
50	0x3d21bdb4	0.039487556
51	0x3d99aa7a	0.07503219
52	0x3d7f7096	0.06236323
53	0x3d84686e	0.06465231
54	0x3d308b6f	0.043101724
55	0x3d96472d	0.073377945
56	0xbd644a34	-0.055734828
57	0xbdf31ba3	-0.11870506
58	0xbdd2e342	-0.10297252
59	0x3d220bba	0.039561965
60	0xbda64486	-0.081185386
61	0x3c3a86d1	0.011384682
62	0x3d9f0160	0.07763934
63	0x3dace8e9	0.084428616
64	0xbe0c276b	-0.13686912
65	0x3df518f4	0.1196765
66	0x3c8b48c0	0.017002463
67	0xbc8715ec	-0.016489945
68	0x3e06fb1b	0.13181727
69	0x3db14e51	0.08657516
70	0x3d2d6cdc	0.042340145
71	0xbe0f3a2f	-0.13987039
72	0x3c6d79cb	0.01449437
73	0xbdf500be	-0.11963032
74	0xbc3ce815	-0.011529942
75	0xbc6bc6ae	-0.014390631
76	0xbda61f79	-0.08111472
77	0xbe062536	-0.13100132
78	0x3e28e130	0.16492152
79	0xbd8cddbf	-0.06878232
80	0xbd2c8e26	-0.04212775
81	0xbde211e4	-0.110385686
82	0x3d84751c	0.06467649
83	0xbde163a7	-0.11005335
84	0x3de8c4f1	0.113656886
85	0x3d46cef4	0.04853721
86	0xbb809379	-0.00392383
87	0xbda0e2a8	-0.07855731
88	0x3db92c52	0.090416566
89	0x3d281599	0.041036222
90	0x3cc9c144	0.024628289
91	0xbe00481e	-0.1252751
92	0x3d1f850e	0.03894525
93	0x3c612849	0.013742515
94	0xbd5a3853	-0.05327637
95	0x3d7d240f	0.061801966
96	0x3d0c3099	0.034226034
97	0x3de4ae23	0.111660264
98	0xbddbd278	-0.10733503
99	0x3e070f73	0.13189487
100	0xbd45c490	-0.04828316
101	0x3c9c287c	0.019062273
102	0x3d1d8604	0.038457885
103	0xbe097a00	-0.13425446
104	0x3ca77a40	0.020444036
105	0xbd252830	-0.04032153
106	0x3ce69613	0.028147733
107	0xbd37c2ff	-0.044863697
108	0xbd44dfe1	-0.04806507
109	0xbcf44439	-0.029817687
110	0xbe44a475	-0.1920336
111	0xbdcbc01a	-0.0994875
112	0x3dca83ad	0.098883964
113	0xbc13714f	-0.008999183
114	0xbd98ae59	-0.07455129
115	0xbd473dca	-0.04864291
116	0xbd48355b	-0.04887901
117	0xbe0401f1	-0.12891366
118	0xbcad3aa0	-0.021146119
119	0xbd847098	-0.06466788
120	0xbbbafdf0	-0.0057065412
121	0xbc521e38	-0.0128245875
122	0xbc9394ef	-0.018015353
123	0xbd77b669	-0.060476694
124	0xbdae58d3	-0.085130356
125	0xbc019d0f	-0.007910981
126	0xbd96831c	-0.07349226
127	0x3dfabc66	0.122429654
128	0xbc4497a5	-0.0119990455
129	0xbdad3b0d	-0.08458529
130	0x3dd8944c	0.105751604
131	0x3dbda53a	0.0926003
132	0x3c5acb7b	0.013354178
133	0x3ca76095	0.020431796
134	0xbd803ee9	-0.06261999
135	0xbd9d2290	-0.07672608
136	0x3da13ef2	0.07873334
137	0xbe455bfc	-0.1927337
138	0xbde0c104	-0.10974315
139	0xbd231699	-0.039816473
140	0x3dd380a3	0.1032727
141	0xbd086804	-0.033302322
142	0x3d7a25ae	0.06107109
143	0x3e4494e5	0.19197424
144	0x3e09dd13	0.1346324
145	0xbd60fad4	-0.05492671
146	0x3d43eb80	0.047832012
147	0x3dfbf7fc	0.12303159
148	0xbca63b2a	-0.020291883
149	0x3cc1dfe2	0.023666326
150	0xbde6c3fd	-0.112678505
151	0xbdac082e	-0.08399998
152	0xbdb03696	-0.086041614
153	0xbcafe647	-0.02147211
154	0xbe02b96f	-0.1276605
155	0xbd4429d3	-0.04789145
156	0xbcc65e44	-0.024214871
157	0xbd1cc3be	-0.03827261
158	0x3de2a916	0.11067407
159	0x3d3ce05d	0.046112407
160	0xbe004153	-0.12524919
161	0x3dd76ecd	0.105191804
162	0x3dc5f45f	0.09665751
163	0xbe3aae98	-0.18230665
164	0xbd42e912	-0.047585554
165	0xbb3b156b	-0.0028546702
166	0x3db5b0f1	0.088716395
167	0xbe1ae992	-0.15128163
168	0x3d3e7fe8	0.0465087
169	0x3cc2c026	0.023773264
170	0xbcc88f69	-0.024482446
171	0x3d20f726	0.0392982
172	0x3e678524	0.22609383
173	0x3dbbae13	0.091640614
174	0x3da554e2	0.08072831
175	0xbdec6b82	-0.11543943
176	0xbca943b3	-0.020662164
177	0xbe16b2ee	-0.14716694
178	0x3e596451	0.21229674
179	0xbdce5b52	-0.10076012
180	0x3da3284a	0.07966669
181	0xbdc0ffbe	-0.09423779
182	0x3db7b7af	0.08970582
183	0xbd11a67c	-0.035559162
184	0x3e11bd30	0.14232326
185	0x3c9c502d	0.0190812
186	0xbd399f9c	-0.04531823
187	0xbe12ec6d	-0.14348002
188	0xbd649be0	-0.055812716
189	0xbe4e113a	-0.20123759
190	0x3dd702b6	0.10498564
191	0xbe0f76e5	-0.14010198
192	0xbd0a7c59	-0.033809993
193	0xbaa64b64	-0.0012687263
194	0xb9fdd7e7	-0.0004841678
195	0x3d531ee6	0.05154314
196	0xbda636bf	-0.08115911
197	0x3c95d1a3	0.01828844
198	0x3cb00d42	0.021490697
199	0x3d957cc0	0.07299185
200	0x3dd8f49d	0.10593531
201	0xbd94ac24	-0.07259396
202	0xbd54df08	-0.05197051
203	0xbcbcfe5b	-0.023070505
204	0xbd0097eb	-0.03139488
205	0x3daf3419	0.08554859
206	0x3c807d37	0.015684707
207	0xbd7c8a8a	-0.06165556
208	0x3d6107f4	0.054939225
209	0x3d4d77b3	0.050162982
210	0xbb21d894	-0.002469574
211	0x3dadd7de	0.08488439
212	0xbbf0c364	-0.007347511
213	0xbd8d3e15	-0.06896607
214	0x3948d1ca	0.00019151639
215	0xbce3784f	-0.027767329
216	0xbdaebf24	-0.08532551
217	0x3c1ffd14	0.009764928
218	0xbdb08f65	-0.086211
219	0xbd3acf09	-0.0456076
220	0x3dcc6cc3	0.09981682
221	0x3c9ad480	0.018900156
222	0xbdc5e18d	-0.09662161
223	0xbcd2d72b	-0.025737366
224	0xbd7cbcf1	-0.061703626
225	0x3dbc1fe5	0.09185771
226	0x3ce678c1	0.028133752
227	0x3d5f0251	0.05444557
228	0xbd4820ea	-0.048859514
229	0xbd27e475	-0.040989358
230	0xbe2db850	-0.16964841
231	0xbd78de95	-0.060759146
232	0x3dcba2c4	0.099431545
233	0xbd03b8e8	-0.032158762
234	0xbd97d664	-0.07413939
235	0x3d8db9af	0.06920182
236	0xbd128e1f	-0.03578007
237	0x3da0d92b	0.078539215
238	0xbd9fbab2	-0.07799281
239	0x3c13099d	0.00897446
240	0x3de30656	0.11085193
241	0x3dd826c4	0.10554269
242	0xbd1ac2bc	-0.03778337
243	0xbd1c2f9e	-0.03813135
244	0xbcc9646d	-0.02458402
245	0xbcfc2503	-0.030779367
246	0xbe10ba81	-0.14133646
247	0xbddfda40	-0.109303
248	0xbc912797	-0.017719073
249	0xbd0d9c8e	-0.03457313
250	0x3e1bc44f	0.15211605
251	0x3dcf14c8	0.101113856
252	0x3d7166b9	0.058935855
253	0x3c37a48a	0.011208663
254	0xbde5ebf9	-0.11226649
255	0xbdfddbeb	-0.12395462

encoder.layers.0.linear1.bias f4 [128]
0	0x3d031e06	0.032011054
1	0xbde57341	-0.112036236
2	0xbde5b1ce	-0.11215554
3	0xbdf70f7b	-0.120634995
4	0xbe1114f5	-0.1416815
5	0xbe263eef	-0.16234945
6	0xbd947f69	-0.07250864
7	0xbe112b36	-0.1417664
8	0xbe0399aa	-0.12851587
9	0xbdc28ee0	-0.094999075
10	0xbdee13e4	-0.116248876
11	0xbe2091b7	-0.15680586
12	0xbdbd0a7a	-0.09230514
13	0xbdafe0ce	-0.085878
14	0x3d766d46	0.060162805
15	0xbd558ff7	-0.05213925
16	0xbde8f87d	-0.113755204
17	0xbce0471b	-0.027377656
18	0xbdf9b144	-0.12192014
19	0xbd9cc2e9	-0.07654364
20	0xbda18bb0	-0.078879714
21	0xbe123dc8	-0.1428138
22	0x3d1f5566	0.0388998
23	0xbe3571a9	-0.17719139
24	0xba1cfb7a	-0.00059884007
25	0xbbcbea10	-0.006222971
26	0xbdc42da9	-0.095790215
27	0xbd8b4c56	-0.06801669
28	0x3dcfb6c3	0.10142281
29	0x3d33910f	0.04383951
30	0xbd4c4ff4	-0.049880937
31	0xbd738510	-0.05945307
32	0xbdabc766	-0.083876416
33	0xbbd775c7	-0.0065753195
34	0xbd43893c	-0.0477383
35	0x3bb84a99	0.005624127
36	0x3dbde0f8	0.09271425
37	0xbe458a7c	-0.19291109
38	0x3d86647a	0.06562133
39	0xbd8c2d7b	-0.06844612
40	0x3bb45804	0.0055036563
41	0xbd35f029	-0.044418488
42	0xbdd4979d	-0.103804804
43	0xbbd085a3	-0.006363587
44	0xbb4a509d	-0.0030870803
45	0xbdd9f89f	-0.10643124
46	0xbd870cbe	-0.06594227
47	0xbd949b40	-0.07256174
48	0xbc3e6fa7	-0.0116233
49	0xbcf57061	-0.029960813
50	0x3d18f42c	0.037342235
51	0x3d1e7d5d	0.038693774
52	0x3c09389b	0.008375312
53	0xbe138630	-0.14406657
54	0xbd237bdc	-0.039913043
55	0xbe022075	-0.12707694
56	0x3d036781	0.03208113
57	0x3abb3a78	0.0014284393
58	0x3d9a7110	0.07541096
59	0xbd72ef99	-0.05931053
60	0x3d245b19	0.04012594
61	0xbdb3a4ad	-0.08771644
62	0x3d065855	0.032799084
63	0xbdef7b87	-0.11693483
64	0x3d25843f	0.040409323
65	0xbe36a4f6	-0.17836365
66	0xbd91ec56	-0.07125156
67	0xbd8ed9e2	-0.069751516
68	0xbe0a1244	-0.1348353
69	0x3a502ac4	0.0007940943
70	0xbe1457d9	-0.14486636
71	0xbd63ef84	-0.05564834
72	0x3d394258	0.045229286
73	0xbdd46798	-0.103713214
74	0x3ce8f7dd	0.028438503
75	0x3acccebd	0.0015625578
76	0x3e050d61	0.12993385
77	0xbdd809b1	-0.105487235
78	0x3cc7e1e0	0.024399698
79	0x3d7f5afd	0.062342633
80	0xbcf1443c	-0.029451482
81	0xbe21483d	-0.15750213
82	0x3c84f793	0.016231334
83	0x3d98803a	0.07446332
84	0x3dab4991	0.08363641
85	0xbe10b6cc	-0.14132231
86	0x3c84f328	0.016229227
87	0x3d440b80	0.04786253
88	0xbcbdbdc9	-0.023161786
89	0xbd984d90	-0.07436669
90	0xbe0bfa18	-0.13669622
91	0xbdafaa6f	-0.085774295
92	0xbd9743c3	-0.073859714
93	0x3d453590	0.048146784
94	0xbdbe60e7	-0.092958264
95	0xbde74cbc	-0.11293933
96	0x3c9a9193	0.018868243
97	0x3d61e66e	0.055151395
98	0x3d89ab65	0.06722144
99	0x3cb93fbe	0.022613402
100	0xbe0c2d1c	-0.13689083
101	0x3d2da383	0.042392265
102	0xbd0b87ad	-0.034064937
103	0xbd946cca	-0.07247312
104	0x3df4764d	0.119366266
105	0x3d8b9e8d	0.068173505
106	0xbd5949ed	-0.053049017
107	0x3d86a997	0.065753154
108	0xbe09f500	-0.13472366
109	0xbd794ffc	-0.060867295
110	0x3d43d956	0.04781469
111	0x3d3c6782	0.04599715
112	0xbda1e758	-0.079054534
113	0x3cf311d7	0.029671593
114	0xbdb74198	-0.08948058
115	0xbd9d96a4	-0.07694748
116	0x3d742e5a	0.059614517
117	0xbe2a0a08	-0.16605389
118	0xbe18a3ef	-0.14906286
119	0x3d3cb84c	0.046074197
120	0xbe2b519a	-0.16730347
121	0xbdbec609	-0.09315116
122	0xbe148a63	-0.14505915
123	0xbe1eeb0e	-0.15519354
124	0xbe10fa9e	-0.14158103
125	0x3c7e9fbe	0.015541015
126	0x3ceadf65	0.028670976
127	0xbe12402b	-0.1428229

encoder.layers.0.linear2.weight f4 [64, 128]
0	0x3da60778	0.08106893
1	0x3bb734d3	0.005591014
2	0xbcd131b3	-0.025536394
3	0xbcb3b0fb	-0.021934977
4	0x3e33bb3b	0.17551892
5	0x3d21b700	0.039481163
6	0x3d75a841	0.059974913
7	0x3d38d84d	0.045128155
8	0xbdb73456	-0.08945529
9	0xbd40e93a	-0.047097422
10	0x3dac2e83	0.08407309
11	0x3b30b11d	0.0026961036
12	0x3d617ffa	0.05505369
13	0xbd1c9d29	-0.038235817
14	0x3cecb7db	0.028896263
15	0x3d368d95	0.044568617
16	0x3d956eda	0.07296534
17	0xbdb333ce	-0.08750115
18	0xbd096bb8	-0.033549994
19	0xbc9d3029	-0.019188004
20	0x3d1b0c6b	0.03785364
21	0x3c967370	0.018365592
22	0x3d34e082	0.04415942
23	0xbd1bf08c	-0.0380712
24	0x3c4c950d	0.012486708
25	0x3cea0080	0.028564692
26	0xbd256dfc	-0.040388092
27	0xbd8a2c91	-0.067467816
28	0x3d924a18	0.071430385
29	0xbd02ee12	-0.031965323
30	0xbc6ea1a8	-0.014564909
31	0xbd0f4658	-0.034979194
32	0x3d948aec	0.0725306
33	0x3d54b9ca	0.051934995
34	0xbd7d1914	-0.061791494
35	0x3cc5a890	0.024128228
36	0x3d4857f3	0.048912
37	0xbc7bd509	-0.015370616
38	0x3ba57b0d	0.005050069
39	0x3db20aa3	0.08693435
40	0xbc748f6b	-0.014926772
41	0xbcf373db	-0.02971833
42	0x3da5a0ae	0.08087288
43	0x3e15da1a	0.1463398
44	0xbd95617a	-0.07293983
45	0x3caabbc4	0.020841487
46	0x3dd15465	0.10221175
47	0x3d77f730	0.06053847
48	0x3ce94cf7	0.028479083
49	0xbc4d591f	-0.012533455
50	0x3cc510c6	0.02405585
51	0xbc1a4248	-0.009415217
52	0xbd86d4ea	-0.06583579
53	0x3d987299	0.07443733
54	0x3e0f6bfc	0.14006037
55	0xbdbea711	-0.09309209
56	0x3c2621cb	0.010139893
57	0x3d8360de	0.0641496
58	0xbc6f1244	-0.014591757
59	0x3b32741b	0.0027229849
60	0x3af9e175	0.0019064384
61	0xbd198ab6	-0.0374858
62	0x3d97dc29	0.07415039
63	0x3dfa8910	0.12233174
64	0x3d632894	0.05545862
65	0x3cfcadf1	0.03084466
66	0x3de481e5	0.11157588
67	0x3d59892f	0.053109344
68	0x3c96b1bb	0.018395295
69	0x3d904987	0.07045274
70	0xbcc72636	-0.024310213
71	0xbda237d2	-0.07920803
72	0x3dc5dd41	0.096613415
73	0x3df254d1	0.11832584
74	0x3da90fa0	0.08254933
75	0xbcfa5fb2	-0.03056321
76	0xbad83650	-0.0016495679
77	0xbe191915	-0.14950974
78	0xbc2c1dcf	-0.010505154
79	0xbc9760d4	-0.018478788
80	0x3c51d862	0.012807937
81	0xbd07304c	-0.033005044
82	0xbd6818fa	-0.056664445
83	0xbbc610c3	-0.0060444786
84	0x3c0e48ac	0.0086843185
85	0x3c125681	0.008931757
86	0xbd8bec56	-0.06832187
87	0xbda1b64b	-0.07896098
88	0x3cdfdd94	0.027327336
89	0xbdd94fe3	-0.1061094
90	0xbcd27af1	-0.025693389
91	0xbd3bac22	-0.045818456
92	0x3d667c49	0.05627087
93	0x3cd9917d	0.026558632
94	0xbd14cc0d	-0.03632741
95	0xbdadc0b0	-0.08484018
96	0x3e033d85	0.12816437
97	0xbdf3ace9	-0.11898214
98	0x3c9c83db	0.019105842
99	0x3d04f7a7	0.032462742
100	0x3d19a809	0.037513766
101	0xbae0db9b	-0.0017155291
102	0xbb4239c4	-0.0029636482
103	0xbe20c1ff	-0.15699004
104	0x3d526521	0.051365975
105	0x3de26766	0.11054878
106	0x3d9b6fbd	0.07589672
107	0x3b2950db	0.0025835547
108	0x3c3fac64	0.011698816
109	0xbd4bb8c6	-0.04973676
110	0xbdf91552	-0.1216227
111	0x3d1e968e	0.0387178
112	0xbd143e8d	-0.036192466
113	0xbd94e535	-0.0727028
114	0xbd871ffc	-0.065978974
115	0xbd059b0e	-0.032618575
116	0x3e27976e	0.1636636
117	0xbc939f9a	-0.01802044
118	0x3d69e67e	0.05710458
119	0xbdd0ef93	-0.10201945
120	0xbd05335b	-0.03251968
121	0x3cde93ca	0.02717008
122	0x3debeed4	0.11520162
123	0xbc81bf43	-0.015838271
124	0x3d44b96c	0.048028395
125	0x3d67f5e4	0.056630984
126	0xbd1b68a4	-0.03794159
127	0xbd320893	-0.04346521
128	0x3c35d889	0.011098989
129	0x3d45e044	0.04830958
130	0xbd9509d5	-0.07277266
131	0x3c1462ef	0.009056791
132	0x3c926b0c	0.01787331
133	0x3d0b228d	0.033968497
134	0xbb7bd9bd	-0.0038429343
135	0x3b0c8039	0.0021438731
136	0xbde1bd85	-0.11022476
137	0x3d7b63f4	0.06137462
138	0x3d93d1ee	0.07217775
139	0x3a445bed	0.00074905046
140	0x3b98e0ab	0.0046654544
141	0xbdb81caf	-0.08989846
142	0x3b31fbcd	0.0027158142
143	0x3dd962d2	0.106145516
144	0xbd930f39	-0.07180638
145	0x3c83cf8e	0.01609018
146	0x3d7a6df5	0.06114002
147	0xbdb583c8	-0.08863026
148	0xbca72420	-0.020402968
149	0x3cf1df2a	0.029525358
150	0xbce183b1	-0.027528616
151	0x3c42b24e	0.011883331
152	0xbbb6df3e	-0.0055808118
153	0xbc4acd75	-0.012378086
154	0x3d5fd042	0.05464197
155	0xbd871344	-0.065954715
156	0x3c2c5f37	0.010520748
157	0xbd953bc3	-0.07286789
158	0x3db4278d	0.08796606
159	0x3dc8447c	0.09778687
160	0xbcd6b7f5	-0.026210764
161	0x3cde1574	0.027109839
162	0x3d8a83a7	0.06763392
163	0x3db31f4c	0.08746204
164	0x3e01e9dc	0.12686867
165	0xbd1a773b	-0.037711363
166	0xbd3ae5b2	-0.04562921
167	0xbdad7857	-0.08470219
168	0x3d3536c3	0.044241678
169	0xbd315382	-0.04329253
170	0xbd1d7709	-0.0384436
171	0xbd31ca3d	-0.04340576
172	0xbcd1c0a5	-0.025604555
173	0x3db67a76	0.08910076
174	0x3d6ce539	0.05783579
175	0x3ce2d0bc	0.027687423
176	0x3ca6672c	0.020312868
177	0x3ca594a2	0.020212475
178	0x3e01f2a5	0.12690218
179	0x3c44e797	0.012018106
180	0x3c949901	0.018139364
181	0x3b1193cc	0.0022213338
182	0x3c90d84d	0.017681265
183	0xbc50a93f	-0.012735664
184	0xbdbccbba	-0.09218545
185	0xbd4e8b5a	-0.050425865
186	0xbd2f07ec	-0.042732164
187	0xbcefcb1e	-0.029271659
188	0xbd6603b6	-0.056155883
189	0xbd5c9747	-0.053855207
190	0x3c7e2006	0.015510565
191	0x3cb3980f	0.021923093
192	0xbb92af06	-0.004476431
193	0xbd77e87d	-0.060524452
194	0xbce8c136	-0.028412443
195	0xbd68cf84	-0.056838527
196	0xbe2d0718	-0.16897237
197	0x3cf59b1d	0.02998119
198	0xbd97f57b	-0.074198686
199	0x3d31bb36	0.04339143
200	0x3caa9654	0.020823635
201	0x3ce3bd0c	0.027800106
202	0xbcce23d9	-0.025163578
203	0x3d7bc8b5	0.061470706
204	0x3bffc503	0.007805468
205	0x3d3ce022	0.046112187
206	0xbca8e713	-0.020617997
207	0xbe10da02	-0.14145663
208	0xbc3530bf	-0.011058985
209	0xbd296120	-0.04135239
210	0xbc243967	-0.010023451
211	0x3d2ac4d3	0.041691612
212	0x3c9ac807	0.018894209
213	0xbd97c479	-0.07410521
214	0xbcd7aaab	-0.026326498
215	0x3cc6125b	0.024178674
216	0xbd8401b3	-0.064456366
217	0x3cb86b7b	0.022512188
218	0xbcca7733	-0.024715042
219	0xbc56408d	-0.013076914
220	0xbd1f95cf	-0.038961228
221	0xbd2df01a	-0.042465307
222	0xbd4b8eb9	-0.049696658
223	0xbd2b3088	-0.04179433
224	0xbdeed0c5	-0.116609134
225	0xbcaac144	-0.02084411
226	0x3cf247d5	0.029575268
227	0xbc0f98d2	-0.008764463
228	0x3d99c984	0.07509139
229	0x3d6b9ad6	0.05752071
230	0xbca3617c	-0.019943945
231	0xbdd82881	-0.105546005
232	0xbd0c5e7d	-0.0342698
233	0xbd915dea	-0.07097991
234	0x3d6ada8a	0.05733732
235	0x3d158ee3	0.03651322
236	0x3d5b9a06	0.053613685
237	0xbd2d2295	-0.042269308
238	0x3dcb33e9	0.099220105
239	0xbc8ab96f	-0.016934125
240	0x3dca4551	0.09876502
241	0xbdafbd78	-0.0858106
242	0xbc9cc812	-0.01913837
243	0x3d9d2f43	0.0767503
244	0x3d472a13	0.04862411
245	0x3d69a513	0.057042193
246	0x3d9542e3	0.07288148
247	0x3de67fa2	0.11254813
248	0x3d645a81	0.055750374
249	0xbdb5fa94	-0.088856846
250	0x3b1b7977	0.0023723522
251	0x3d47d80b	0.04879002
252	0x3db28031	0.08715857
253	0xbdabc047	-0.08386283
254	0xbd20e69e	-0.039282434
255	0x3d646ee1	0.055769805

encoder.layers.0.linear2.bias f4 [64]
0	0xbc85b141	-0.016319873
1	0x3d6bbbb0	0.05755204
2	0x3d814bf9	0.06313319
3	0x3db7d5a7	0.08976298
4	0xbc900ad0	-0.01758328
5	0xbd8dd414	-0.06925216
6	0xbd65dd5a	-0.0561193
7	0xbd2b65f0	-0.041845262
8	0x3c42ec1c	0.011897113
9	0x3d2258f4	0.039635614
10	0xbd947d2f	-0.072504394
11	0x3d98cb51	0.074606545
12	0x3d8829d8	0.06648606
13	0xbdcd5d35	-0.100275435
14	0xbd4c0b21	-0.0498153
15	0xbadffe8a	-0.0017089408
16	0xbc06d3c8	-0.0082292035
17	0xbd8da0e4	-0.06915453
18	0x3b9a2fe3	0.0047054156
19	0xbbc0546f	-0.0058694403
20	0xbd472681	-0.048620705
21	0xbd696c31	-0.056987945
22	0x3d744bf1	0.059642736
23	0xbdba29c1	-0.09089995
24	0x3dbd38e0	0.09239364
25	0x3d8ae80f	0.06782543
26	0xbd71717e	-0.058946125
27	0xbdc46d5e	-0.09591173
28	0x3d43fe11	0.04784972
29	0xbd6326cf	-0.055456933
30	0x3cf3132c	0.029672228
31	0x3d44584c	0.04793577
32	0x3cb62269	0.022233205
33	0xbd1669bf	-0.03672194
34	0x3c606614	0.013696212
35	0xbd03c4bc	-0.032170042
36	0xbd8778a2	-0.06614806
37	0xbe110ba6	-0.141646
38	0x3d30b012	0.043136664
39	0xbdb8a9d8	-0.0901677
40	0x3c156d4c	0.009120297
41	0x3d8949ee	0.06703554
42	0xbd8deb72	-0.06929673
43	0x3d2a79a7	0.041619923
44	0x3dbf738b	0.0934821
45	0xbbb5fc94	-0.0055537913
46	0xbd5602ee	-0.052248888
47	0xbce8f1d8	-0.028435633
48	0xbdb54ac6	-0.088521525
49	0xbd300aa1	-0.042978887
50	0xbd77cdb4	-0.06049891
51	0x3c4548c2	0.012041273
52	0x3c74379f	0.014905839
53	0xbd0425bd	-0.032262553
54	0xbd275140	-0.04084897
55	0x3c627672	0.013822185
56	0xbd75e514	-0.06003292
57	0x3dbbf0ad	0.09176765
58	0x3c30fae2	0.010802003
59	0x3da098c1	0.078416355
60	0x3d2607b5	0.040534694
61	0xbd0d5063	-0.03450049
62	0x3db08522	0.08619143
63	0xbcf52dde	-0.029929098

encoder.layers.0.norm1.weight f4 [64]
0	0x3f7519e4	0.9574263
1	0x3f6ba384	0.9204638
2	0x3f7fa511	0.99861246
3	0x3f8b672f	1.0890864
4	0x3f865cf2	1.0497115
5	0x3f810d89	1.0082256
6	0x3f886b49	1.0657741
7	0x3f906b2c	1.1282706
8	0x3f83b18b	1.0288557
9	0x3f73017a	0.9492413
10	0x3f792177	0.9731669
11	0x3f849817	1.0358914
12	0x3f711a12	0.94180405
13	0x3f750837	0.9571566
14	0x3f7ad314	0.9797833
15	0x3f8153df	1.010372
16	0x3f80a1bb	1.0049356
17	0x3f814b97	1.0101193
18	0x3f626f4d	0.8845108
19	0x3f84b11c	1.036655
20	0x3f7fbf98	0.99901724
21	0x3f6d552c	0.92708087
22	0x3f82be1a	1.0214264
23	0x3f6ea338	0.932178
24	0x3f809666	1.0045898
25	0x3f81f1c1	1.0151902
26	0x3f854e2a	1.0414479
27	0x3f868567	1.0509461
28	0x3f866a86	1.0501258
29	0x3f63fc49	0.8905683
30	0x3f7841ba	0.9697529
31	0x3f881ede	1.063442
32	0x3f79da25	0.9759849
33	0x3f857d4f	1.0428866
34	0x3f7cdfe8	0.98779154
35	0x3f86eda2	1.054127
36	0x3f6ed82c	0.932986
37	0x3f89f68e	1.0778368
38	0x3f7750cc	0.9660766
39	0x3f6e0bbf	0.92986673
40	0x3f6575c1	0.89632803
41	0x3f713614	0.9422314
42	0x3f8490ca	1.0356686
43	0x3f7ef7e6	0.99597013
44	0x3f82f16c	1.0229926
45	0x3f7e7aa4	0.99405885
46	0x3f833fee	1.0253885
47	0x3f7572e3	0.9587843
48	0x3f85e4a4	1.04604
49	0x3f891550	1.0709629
50	0x3f64a3e0	0.89312553
51	0x3f80ea72	1.0071547
52	0x3f842e0f	1.0326556
53	0x3f85540f	1.0416278
54	0x3f706897	0.9390959
55	0x3f76c3b7	0.9639239
56	0x3f775472	0.9661323
57	0x3f793efb	0.97361726
58	0x3f83727e	1.0269315
59	0x3f83bf07	1.0292672
60	0x3f589beb	0.8461291
61	0x3f62514a	0.8840529
62	0x3f808e0a	1.0043347
63	0x3f80a7f6	1.0051258

encoder.layers.0.norm1.bias f4 [64]
0	0xbc893c7e	-0.016752478
1	0xbc978776	-0.01849721
2	0xbc84becc	-0.01620426
3	0x3cadb176	0.021202784
4	0x3ccb4699	0.024813937
5	0xbbc266e1	-0.0059326743
6	0xba3e1bd6	-0.00072520727
7	0xbc2b3608	-0.010449894
8	0x3a409f8d	0.00073479937
9	0xbbc49426	-0.005999106
10	0x3a0bed95	0.00053378317
11	0x3c378045	0.011200015
12	0x3c26ff36	0.010192683
13	0xbd0fd03a	-0.03511069
14	0x3cbf7ae7	0.023374034
15	0x3b9f885a	0.0048685493
16	0xbc9bb920	-0.019009173
17	0xbd10a17d	-0.035310257
18	0x3d505925	0.050866265
19	0x3c6f6962	0.014612528
20	0x3b8210e8	0.0039693005
21	0xbb4d09a1	-0.0031286257
22	0xbcaef0b7	-0.021355016
23	0xbd007b42	-0.031367548
24	0x3bfc8019	0.0077057
25	0x3bef1fc3	0.0072974875
26	0xbc487435	-0.012234737
27	0xbd1420b4	-0.036164
28	0xbc5963bb	-0.0132684065
29	0xbcb47ef3	-0.02203319
30	0xbcc133f1	-0.023584338
31	0xbc01fb18	-0.007933401
32	0x3cf67f23	0.03008992
33	0x3c53eb3b	0.012934501
34	0x3a5ae8b5	0.0008350716
35	0xbc89d137	-0.016823394
36	0xbd611af3	-0.05495734
37	0xbcff1505	-0.031137953
38	0x3c8c597d	0.017132515
39	0xbb731ead	-0.0037097142
40	0xbbd715a6	-0.00656386
41	0x3d0f6ad1	0.035013977
42	0x3a35e49c	0.00069386675
43	0x3b6a7166	0.0035773157
44	0x3c8737b1	0.016506048
45	0x3c942802	0.018085483
46	0xbcd0120c	-0.02539923
47	0xbaa50dc1	-0.00125926
48	0xbca00231	-0.019532295
49	0xbc5a88a9	-0.013338246
50	0xbcad31b2	-0.02114186
51	0xba90a959	-0.0011036798
52	0xbcbcf5ef	-0.023066489
53	0xbc14f7af	-0.0090922555
54	0x3d08615f	0.033295985
55	0x3d1e6db9	0.03867886
56	0x3d5dc327	0.05414119
57	0x3d4a4452	0.04938156
58	0x3afcfa8b	0.0019300742
59	0x3c2cbe91	0.010543481
60	0xbcf18be9	-0.02948566
61	0x3b25f69d	0.0025323995
62	0xbbadce26	-0.005304116
63	0x3b6c2cd4	0.0036037462

encoder.layers.0.norm2.weight f4 [64]
0	0x3f6f5927	0.9349541
1	0x3f5fa188	0.8735585
2	0x3f7ab775	0.97936183
3	0x3f84f8a1	1.0388376
4	0x3f87555c	1.0572925
5	0x3f601bc8	0.8754239
6	0x3f75eb9c	0.96062636
7	0x3f8c720f	1.0972308
8	0x3f8510a9	1.0395709
9	0x3f74a525	0.9556449
10	0x3f746761	0.95470244
11	0x3f753fa2	0.9580022
12	0x3f778202	0.9668275
13	0x3f6cac95	0.9245084
14	0x3f7ce0a7	0.9878029
15	0x3f79a4cc	0.97517085
16	0x3f6ebd6d	0.9325779
17	0x3f811b0c	1.0086379
18	0x3f5d1314	0.86357236
19	0x3f865f6e	1.0497873
20	0x3f78b9ca	0.9715849
21	0x3f568fdf	0.8381328
22	0x3f81d90c	1.0144362
23	0x3f7faf0d	0.9987648
24	0x3f7dcbb6	0.99138963
25	0x3f7d5d38	0.98970366
26	0x3f83f8af	1.0310267
27	0x3f86bb8b	1.0525984
28	0x3f83a829	1.0285693
29	0x3f5fd77c	0.8743818
30	0x3f79be99	0.97556454
31	0x3f741d1a	0.95356905
32	0x3f79212c	0.9731624
33	0x3f86492f	1.0491084
34	0x3f70dd24	0.94087434
35	0x3f7c1971	0.9847632
36	0x3f7aca4e	0.9796494
37	0x3f867fb6	1.0507724
38	0x3f63b342	0.889454
39	0x3f5e3232	0.8679534
40	0x3f6ca921	0.9244557
41	0x3f6d48f1	0.92689425
42	0x3f82ed0c	1.0228591
43	0x3f69d58c	0.9134147
44	0x3f856e81	1.0424348
45	0x3f669a82	0.9007951
46	0x3f833b4d	1.0252472
47	0x3f609621	0.8772908
48	0x3f8011d9	1.0005447
49	0x3f86608f	1.0498217
50	0x3f72717a	0.947044
51	0x3f7e2431	0.99273974
52	0x3f87d5eb	1.0612158
53	0x3f82233b	1.0167001
54	0x3f7c7006	0.98608434
55	0x3f6bcd70	0.9211035
56	0x3f767641	0.9627419
57	0x3f65c4e7	0.89753574
58	0x3f82c0c9	1.0215083
59	0x3f67ad7a	0.9049908
60	0x3f4dd539	0.80403477
61	0x3f50157b	0.81282777
62	0x3f81482a	1.0100148
63	0x3f715912	0.94276536

encoder.layers.0.norm2.bias f4 [64]
0	0x3b888403	0.0041661276
1	0xbcf84202	-0.030304912
2	0xbcd16e06	-0.025565159
3	0x3cd052bf	0.025430081
4	0xbc1c0d9c	-0.009524729
5	0x3a885784	0.0010402058
6	0x3c304f3c	0.010761078
7	0x3b6ebc48	0.0036428142
8	0xbbd8b0ad	-0.0066128583
9	0xbcfec302	-0.031098846
10	0xbd183368	-0.0371584
11	0x3b52c180	0.0032158792
12	0xbbf70b07	-0.0075391564
13	0xbc5e2f97	-0.013561151
14	0x3d07c533	0.03314705
15	0x3c9750af	0.01847109
16	0xbccdae03	-0.02510739
17	0xbc580959	-0.013185822
18	0x3c902a24	0.01759822
19	0x3ce9891b	0.02850776
20	0x3ccd0465	0.02502651
21	0x3b713159	0.0036803095
22	0x3d17c767	0.0370554
23	0xbd3a8332	-0.045535274
24	0xbb55d62c	-0.0032628877
25	0xbcaf84d3	-0.02142564
26	0xbd118efd	-0.035536755
27	0xbcb05ff4	-0.021530129
28	0xbd206526	-0.039158963
29	0xbce99360	-0.028512657
30	0xbd021114	-0.03175457
31	0xbd04c257	-0.0324119
32	0x3cf4efab	0.029899439
33	0x3caf9f2c	0.021438204
34	0xbd270ee4	-0.040785685
35	0xbb8e9c7b	-0.00435215
36	0xbd87f9b6	-0.066394255
37	0xbbcd7fca	-0.006271337
38	0x3cd71af1	0.026257964
39	0xbd095d1e	-0.03353607
40	0x3a42b054	0.00074267876
41	0x3d112ac6	0.035441183
42	0xbc1daf60	-0.009624332
43	0x3d60789a	0.054802515
44	0x3d797da8	0.06091085
45	0xbc2a1839	-0.010381752
46	0xba8d4d6f	-0.0010780523
47	0x3ce20176	0.027588587
48	0xbbd976dd	-0.006636484
49	0x3c87b0e3	0.016563838
50	0xbc91509c	-0.017738633
51	0xbd03688b	-0.03208212
52	0x3c3a5e23	0.011374983
53	0xbce06595	-0.027392188
54	0x3cf58b8c	0.029973768
55	0x3c8a93f4	0.016916253
56	0x3ccf025b	0.025269678
57	0x3d8d47b0	0.06898439
58	0xbd337703	-0.04381467
59	0xbc9e5739	-0.0193287
60	0xbcf3bc66	-0.029752921
61	0x3cc0f2cb	0.023553273
62	0x3cb5a7ea	0.022174794
63	0x3c146f53	0.009059745
