assets/snapshots/P2_minmax_global_mlp.pth (torch, 52373 bytes, 6 tensors)

net.0.weight f4 [128, 30]
0	0x3c6c2471	0.014412985
1	0x3c79a200	0.015236378
2	0x3e0496a8	0.12948096
3	0xbd122ad2	-0.035685368
4	0xbd4fec24	-0.05076231
5	0xbd337c26	-0.04381957
6	0x3ceeed01	0.029165747
7	0xbe369e43	-0.1783381
8	0x3d99aa35	0.075031675
9	0x3cc38a03	0.02386952
10	0xbbefbdb0	-0.0073163137
11	0xbe7f61eb	-0.24939696
12	0x3e6298c2	0.22128585
13	0x3e48168d	0.19539852
14	0x3e17467c	0.14772981
15	0x3d77bf3c	0.06048511
16	0x3cc2346f	0.023706643
17	0x3d7fb107	0.062424686
18	0xbe2e42f4	-0.17017728
19	0x3ddeead6	0.10884635
20	0x3d993752	0.07481255
21	0x3dc5c2a7	0.096562676
22	0xbdb34074	-0.08752528
23	0xbd09ec7d	-0.0336728
24	0xbde85805	-0.113449134
25	0xbe026e23	-0.12737326
26	0xbdd4ab15	-0.10384194
27	0xbe364cf2	-0.1780279
28	0x3d4cd981	0.050012115
29	0xbdf5a7ed	-0.1199492
30	0x3e5013d1	0.2032006
31	0xbdefb307	-0.11704069
32	0xbd3886d9	-0.045050476
33	0x3c33a300	0.010964155
34	0x3ecad699	0.3961685
35	0xbd31279d	-0.04325067
36	0xbc874dff	-0.016516684
37	0x3da5396c	0.08067593
38	0xbd39138c	-0.045184657
39	0xbdc192ce	-0.09451829
40	0x3de0ca82	0.10976125
41	0x3ea22a38	0.31672835
42	0xbdd44dd0	-0.10366404
43	0x3d88b5a7	0.066752724
44	0xbe81b520	-0.253335
45	0x3d0fa136	0.035065852
46	0xbe0e82de	-0.1391711
47	0xbda44fc4	-0.080230266
48	0xbd9e4745	-0.07728437
49	0x3dd21582	0.102580085
50	0xbe08ed46	-0.13371763
51	0x3d4d210f	0.050080355
52	0x3d7f5dc0	0.062345266
53	0xbcf14e36	-0.02945624
54	0xbbac0fd6	-0.005250911
55	0x3d421a7d	0.047388542
56	0x3e2dbc00	0.16966248
57	0x3e36b46c	0.17842263
58	0xbd247de7	-0.040159132
59	0x3d04da38	0.032434672
60	0x3d8bd503	0.06827738
61	0x3d344861	0.04401434
62	0xbd630f5b	-0.055434566
63	0xbce10d0f	-0.027472047
64	0x3db067f7	0.0861358
65	0x3e00339c	0.12519687
66	0x3e001236	0.12506947
67	0xbe115630	-0.14193034
68	0x3d8f8fbe	0.070098385
69	0xbc14914e	-0.009067846
70	0xbe53058c	-0.20607585
71	0xbe0ab084	-0.13543898
72	0xbe1a5034	-0.15069658
73	0xbcd4ac0d	-0.025960946
74	0xbe53ec59	-0.20695628
75	0x3cba7dac	0.022765003
76	0x3d9b0309	0.07568938
77	0x3db13a19	0.086536594
78	0xbd5bdcfc	-0.053677544
79	0x3e095fee	0.134155
80	0xbcb11cd8	-0.0216202
81	0xbe44a08f	-0.19201873
82	0xbe109dd4	-0.14122707
83	0xbd85f8e3	-0.06541612
84	0xbe09d57e	-0.13460347
85	0x3be464f6	0.0069700433
86	0x3e0691ae	0.1314151
87	0x3d9a0fa8	0.075225174
88	0xbded1804	-0.11576846
89	0xbdda8eb3	-0.10671749
90	0xbcd1f415	-0.025629083
91	0xbdf65b60	-0.12029147
92	0x3d4552d8	0.04817471
93	0xbe0e501a	-0.13897744
94	0x3ec980b8	0.39356017
95	0x3e494f5e	0.19659182
96	0x3c59002e	0.013244672
97	0x3d9b5d6e	0.0758618
98	0x3e52323a	0.20526972
99	0x3e1b6c92	0.15178135
100	0xbc6b57b8	-0.0143641755
101	0x3ea27644	0.31730855
102	0xbe647f11	-0.22314097
103	0xbe422369	-0.1895882
104	0xbe1a6510	-0.15077615
105	0x3b93e3f3	0.0045132576
106	0xbe04cc39	-0.1296853
107	0xbdde5057	-0.10855167
108	0x3de405f4	0.11133948
109	0xbdb78378	-0.089606225
110	0xbcb11b38	-0.021619424
111	0x3e2aa934	0.16666108
112	0x3e50152a	0.20320573
113	0x3e0535f8	0.13008869
114	0xbe1c1f12	-0.15246227
115	0xbc9078ef	-0.01763579
116	0xbc626c54	-0.013819773
117	0xbc459a9f	-0.01206079
118	0x3cef5133	0.029213523
119	0x3d822a81	0.06355763
120	0x3dd02cb7	0.10164779
121	0xbe40b555	-0.18819173
122	0xbd72b854	-0.05925782
123	0x3d4a763a	0.049429156
124	0xbe2a3d9c	-0.16625065
125	0x3dc9eb52	0.09859337
126	0xbe340902	-0.17581561
127	0x3dbe44cd	0.092904665
128	0x3df741ac	0.12073073
129	0x3d2b36f5	0.041800458
130	0x3c417788	0.011808284
131	0xbcc3490f	-0.023838548
132	0x3e70230b	0.23450868
133	0xbdcc37f1	-0.099716075
134	0xbc11be5f	-0.008895486
135	0xbe0ccdb1	-0.1375034
136	0x3e28cd7a	0.16484633
137	0xbcf9e459	-0.030504392
138	0x3d845e7f	0.06463336
139	0xbd2d93f6	-0.042377435
140	0x3dffa106	0.12481885
141	0xbe10b208	-0.14130414
142	0x3b1df15a	0.0024100156
143	0xbd3b1fa3	-0.045684468
144	0xbcfeca14	-0.031102218
145	0xbbcb2c80	-0.006200373
146	0xbe28e8bb	-0.1649503
147	0xbe15dfcb	-0.14636151
148	0xba0572b0	-0.0005090637
149	0x3dd8eb53	0.105917595
150	0xbe499c48	-0.19688523
151	0xbc1fbb1a	-0.009749198
152	0xbba98147	-0.0051728818
153	0x3e32e7fe	0.1747131
154	0xbe2b561c	-0.16732067
155	0xbe0fe9bf	-0.14054011
156	0xbe3271c7	-0.17426215
157	0xbde41cfd	-0.111383416
158	0x3d7750a8	0.060379654
159	0xbd49f5be	-0.049306624
160	0x3e576cee	0.21037647
161	0x3d035a9f	0.032068845
162	0x3e59d609	0.21273054
163	0x3d43cd9d	0.04780351
164	0x3eb390d3	0.3507143
165	0xbc8a7b4c	-0.016904496
166	0xbd75641f	-0.059909936
167	0xbdc482c6	-0.095952556
168	0x3defc0d4	0.11706701
169	0x3e24b46f	0.16084455
170	0xbdc3c188	-0.095583975
171	0x3dd0015c	0.10156509
172	0x3d3b8d92	0.04578931
173	0x3d4c5281	0.04988337
174	0x3e486750	0.1957066
175	0xbdbee1f9	-0.093204446
176	0x3cd4f0c3	0.02599371
177	0xbe50da36	-0.20395741
178	0xbde8445c	-0.113411635
179	0xbe42efcc	-0.19036788
180	0xbe144eb6	-0.14483151
181	0xbd140a05	-0.036142368
182	0x3c93df58	0.018050835
183	0xbe37856a	-0.17921987
184	0x3e09e7a1	0.13467266
185	0xbe208ebb	-0.15679447
186	0xbda198a7	-0.07890444
187	0xbdf24dd1	-0.118312486
188	0x3e0e3ef6	0.13891205
189	0x3afeadf9	0.001943051
190	0x3e21a7dd	0.15786691
191	0xbd888e7f	-0.06667804
192	0xbdd732b0	-0.10507715
193	0xbde3d673	-0.11124887
194	0xbe0ffcc5	-0.14061268
195	0x3ccbc553	0.024874365
196	0x3d8d60f2	0.069032565
197	0xbdd73cd2	-0.105096474
198	0x3dbbf420	0.091774225
199	0xbd952cf9	-0.072839685
200	0x3c89cb1d	0.016820485
201	0xbe0fd262	-0.14045098
202	0x3dfd4e81	0.12368489
203	0x3d755787	0.059897926
204	0xbe0039c2	-0.12522033
205	0x3e2bb0d0	0.16766667
206	0xbe321321	-0.1739011
207	0x3c850475	0.016237477
208	0xbdf464ec	-0.11933312
209	0xbe355e6f	-0.17711805
210	0xbde576f8	-0.11204332
211	0x3e0851d7	0.1331247
212	0x3df39096	0.11892812
213	0x3e33c8a1	0.17557003
214	0x3e23c741	0.15993978
215	0xbbbd4646	-0.0057761995
216	0xbe14434c	-0.14478797
217	0xbcb7b560	-0.022425354
218	0xbe3a6a03	-0.18204503
219	0xbe261f9f	-0.16223
220	0xbdfea8e5	-0.12434558
221	0xbcbab1f3	-0.02278993
222	0x3cb2b72c	0.021815859
223	0xbdb008e0	-0.08595443
224	0x3c930f6f	0.017951695
225	0xbe21d1e0	-0.15802717
226	0xbe1b091f	-0.15140198
227	0xbe0a63f0	-0.13514686
228	0x3d4bb4fc	0.049733147
229	0xbd7c2352	-0.06155712
230	0x3b810b28	0.0039380975
231	0x3c889f8e	0.016677644
232	0x3e31547a	0.17317382
233	0xbdf59548	-0.11991364
234	0x3e0104c5	0.12599476
235	0xbe384fea	-0.17999235
236	0x3d2c0a59	0.042002056
237	0x3e11f8a9	0.14255013
238	0xbdd51d72	-0.10406007
239	0x3c9cc220	0.019135535
240	0xbd94064e	-0.07227765
241	0xbe324f87	-0.1741315
242	0x3d9e4beb	0.07729324
243	0xbe0882ee	-0.13331196
244	0x3eb203e9	0.34768608
245	0xbd9add2f	-0.07561719
246	0x3ac1b4e0	0.0014778636
247	0xbe3c8365	-0.18409498
248	0x3e006c2b	0.12541263
249	0xbc9b372b	-0.018947205
250	0xbdbde3e0	-0.09271979
251	0x3df3ee26	0.119106576
252	0xbd1155cc	-0.035482213
253	0x3c580d8f	0.013186826
254	0xbd772ffe	-0.060348503
255	0x3de0ffb2	0.1098627

net.0.bias f4 [128]
0	0xbe516e28	-0.20452178
1	0x3dec7278	0.11545271
2	0x3e05ec7a	0.1307849
3	0x3cf6d1e2	0.030129377
4	0x3d7429ea	0.059610285
5	0xbe53d1b7	-0.20685469
6	0xbc8ad80b	-0.01694872
7	0xbcca3868	-0.0246851
8	0x3e3d7213	0.18500547
9	0x3d09b586	0.03362038
10	0xbbde47ef	-0.0067834775
11	0xbda51e2a	-0.08062394
12	0xbd070ba7	-0.032970097
13	0x3c9c1ab1	0.019055696
14	0xbdc69d13	-0.09697928
15	0x3d0dfc2c	0.034664318
16	0xbe0a175b	-0.13485472
17	0x3e18d369	0.14924397
18	0x3d2f584b	0.042808812
19	0x3cc8fafe	0.024533745
20	0x3d3d4f53	0.046218228
21	0xbe2ceb1f	-0.16886567
22	0xbe1b441b	-0.15162699
23	0x3d5391bd	0.05165266
24	0xbe1fea4c	-0.15616721
25	0xbdd5ed7d	-0.10445688
26	0xbe4d39e9	-0.20041622
27	0xbd42da30	-0.04757136
28	0x3d314342	0.043277033
29	0xbe0cdc33	-0.13755874
30	0x3debefc0	0.11520338
31	0x3e00bb78	0.12571514
32	0xbdb88df1	-0.09011448
33	0xbe2039a1	-0.15646984
34	0xbcaa20d8	-0.020767614
35	0x3e1fe18b	0.15613382
36	0x3de01279	0.109410234
37	0x3e302d87	0.17204867
38	0xbc307314	-0.010769624
39	0xbd891aaa	-0.06694539
40	0xbe3195b2	-0.1734226
41	0xbdab2ed3	-0.083585404
42	0x3e00e9f5	0.12589248
43	0x3e04991f	0.12949036
44	0xbe01ef2f	-0.12688898
45	0x3da3faa4	0.0800679
46	0xbca3c73f	-0.019992469
47	0xbe428cc0	-0.18999004
48	0x3e38f508	0.18062222
49	0x3dfc8517	0.123300724
50	0x3d09ccd6	0.033642612
51	0x3d558f43	0.05213858
52	0x3ba6330e	0.005072004
53	0x3e09bb1d	0.13450284
54	0x3da9f789	0.08299167
55	0xbdf23aa9	-0.11827595
56	0xbe3de9a9	-0.18546166
57	0x3e29db9b	0.16587679
58	0x3de2dd77	0.11077397
59	0xbc84f312	-0.016229186
60	0xbd8bb0ee	-0.06820856
61	0xbccff550	-0.025385529
62	0xbd0a3110	-0.033738196
63	0x3dd78408	0.1052323
64	0xbd4d1f51	-0.050078694
65	0x3dea8f1c	0.11453077
66	0x3e04938a	0.12946907
67	0xbe39344c	-0.18086356
68	0xbda902e0	-0.082525015
69	0xbe10cf62	-0.1414161
70	0xbce0d959	-0.02744739
71	0x3deb0ec6	0.11477427
72	0x3d6cf77f	0.05785322
73	0x3d026218	0.03183183
74	0x3d76c80c	0.060249373
75	0xbdcff489	-0.10154063
76	0x3e127608	0.14302838
77	0x3d899276	0.06717388
78	0xbdb24975	-0.08705417
79	0x3e42876a	0.18996969
80	0xbe02f330	-0.12788081
81	0xbe13901f	-0.14410447
82	0xbd2e6223	-0.04257406
83	0xbc9a2ce3	-0.018820232
84	0x3d956f5a	0.07296629
85	0x3e2c90ef	0.16852163
86	0x3d928128	0.07153541
87	0x3dd4f948	0.10399109
88	0xbc2fb8e3	-0.010725233
89	0xbe3fda1a	-0.18735543
90	0xbe1cf00c	-0.15325946
91	0xbdde6545	-0.108591594
92	0x3ce992ed	0.028512442
93	0x3cdca213	0.026932752
94	0xbdabaaf5	-0.08382217
95	0x3c500009	0.012695321
96	0x3d922b01	0.071371086
97	0x3e0ea5e0	0.13930464
98	0x3e13fc25	0.14451654
99	0x3df7f748	0.12107712
100	0xbd27dd4b	-0.040982526
101	0x3e1f1b42	0.15537742
102	0x3dcdd134	0.10049668
103	0x3db9adc7	0.090663485
104	0xbc05b633	-0.008161115
105	0x3e17eb1d	0.14835782
106	0xbce0cef1	-0.027442427
107	0x3da06662	0.07832028
108	0x3dce21d7	0.10065048
109	0x3d2be6ee	0.04196828
110	0xbe1a75c7	-0.15083991
111	0x3d224381	0.039615158
112	0xbd743c86	-0.059628032
113	0x3ded8b22	0.11598803
114	0x3dce41c2	0.10071136
115	0xbd5989b4	-0.05310984
116	0xbd62eb2e	-0.055400066
117	0x3c21096b	0.009828906
118	0x3cebc93c	0.02878248
119	0x3e2c5b3f	0.16831683
120	0x3d997f9d	0.074950434
121	0x3e60d9a4	0.21958023
122	0xbc9ca5c8	-0.01912202
123	0xbdb853db	-0.09000369
124	0x3a8afa80	0.0010603219
125	0x3d7b44a2	0.06134475
126	0x3ddf602a	0.10907014
127	0x3e158e77	0.14605127

net.3.weight f4 [64, 128]
0	0xbd484661	-0.048895244
1	0xbe071243	-0.1319056
2	0xbd4a8c47	-0.049450185
3	0xbe435a61	-0.19077446
4	0x3d90584e	0.07048093
5	0x3d2d0c98	0.04224834
6	0xbd12de0d	-0.035856295
7	0xbd3376e7	-0.043814566
8	0x3d238633	0.039922904
9	0x3c594472	0.013260948
10	0xbddb2793	-0.107009076
11	0x3d9759bd	0.07390163
12	0x3e161fb3	0.1466053
13	0x3dd87ee2	0.10571076
14	0x3a8506f8	0.0010149172
15	0x3dfdd860	0.12394786
16	0x3d3e3aa4	0.046442643
17	0xbcf98b9f	-0.030462084
18	0xbd4832c6	-0.048876546
19	0x3c2781da	0.01022383
20	0x3d1fb7bc	0.038993582
21	0x3d82746d	0.06369863
22	0x3daf124a	0.0854841
23	0x3de9ec7f	0.11422061
24	0xbd99cba3	-0.07509544
25	0xbd25c51d	-0.040471185
26	0x3cba8c55	0.022771994
27	0x3c8e31bf	0.017357705
28	0xbd955e47	-0.072933726
29	0xbd23d8cb	-0.04000167
30	0x3cec14ae	0.028818455
31	0x3db788b8	0.08961624
32	0x3db7a2b1	0.08966578
33	0x3d86898b	0.06569203
34	0x3c73a742	0.01487142
35	0xba2faf87	-0.0006701876
36	0x3c477522	0.012173923
37	0xbd1b9628	-0.037984997
38	0xbb71e8ca	-0.0036912435
39	0xbda3ebb1	-0.08003939
40	0xbd016d5e	-0.03159844
41	0x3d6c1605	0.057638187
42	0x3bdf48a7	0.0068140808
43	0x3d4e6ad8	0.050394863
44	0x3bf836de	0.0075749
45	0x3d87c9d5	0.06630293
46	0x3d5d73dc	0.05406557
47	0x3de95562	0.113932386
48	0x3df8f522	0.121561304
49	0x3d936529	0.07197029
50	0x3caafa67	0.020871354
51	0xbaf4d2df	-0.0018678567
52	0x3d090ee4	0.033461466
53	0xbd797a42	-0.06090761
54	0xbc6131d7	-0.013744793
55	0xbd862bc1	-0.06551314
56	0x3d40e4b7	0.04709312
57	0xbe20d9ac	-0.15708035
58	0x3d3b54bd	0.04573511
59	0x3cb00c56	0.021490257
60	0xbdb107b4	-0.086440474
61	0xbc6b2f10	-0.014354482
62	0xbe1a4009	-0.1506349
63	0xbe146493	-0.14491491
64	0x3dcf452e	0.10120617
65	0xbda8c323	-0.082403444
66	0xbe3559ba	-0.17710009
67	0xbd701fe0	-0.05862415
68	0xbd44cfb5	-0.048049647
69	0xbd515b43	-0.051112425
70	0xbd396b3a	-0.045268275
71	0x3cd6ac2f	0.02620515
72	0xbd38ccf0	-0.04511732
73	0xbdae34bd	-0.08506153
74	0x3caf69c4	0.021412738
75	0xbc2c9451	-0.010533408
76	0xbc219caf	-0.009864016
77	0x3e4a389e	0.1974816
78	0x3d961222	0.07327677
79	0xbd12eb07	-0.03586867
80	0x3da752b0	0.08170068
81	0xbce65f99	-0.028121756
82	0x3e0fc297	0.14039074
83	0x3b93a56c	0.004505804
84	0x3d496a4b	0.049173634
85	0x3cc4a935	0.024006465
86	0x3d561046	0.052261613
87	0xbd968604	-0.0734978
88	0xbc490ede	-0.012271611
89	0x3e2a543f	0.166337
90	0xbc99a728	-0.018756464
91	0x3d8ddb20	0.069265604
92	0x3c0af592	0.0084814
93	0xbe19996a	-0.14999929
94	0xbe710e73	-0.23540668
95	0xbc9f0bb2	-0.019414756
96	0x3caee578	0.021349654
97	0x3c0818f8	0.008306734
98	0x3dda4915	0.106584705
99	0xbc3862c2	-0.011254014
100	0x3d4f8852	0.050667115
101	0xbda93bd9	-0.08263368
102	0xbd059252	-0.032610245
103	0x3ba2549c	0.004953934
104	0xbbfcbce3	-0.0077129467
105	0xbea91a4f	-0.33027884
106	0xbd944b96	-0.072409794
107	0x3e20db6b	0.15708701
108	0xbd6985b1	-0.057012264
109	0xbcdc65af	-0.026903955
110	0x3d527d53	0.05138905
111	0x3cc986b5	0.024600366
112	0xbc8bd5f3	-0.017069792
113	0x3dda61f2	0.10663213
114	0x3e154da8	0.14580405
115	0xbc0c9b71	-0.008581982
116	0xbdf56f93	-0.11984172
117	0x3d62c813	0.055366587
118	0x3d6c24a7	0.057652142
119	0xbd8682d8	-0.06567925
120	0xbdb5cbb6	-0.088767454
121	0xbe69f15a	-0.22845975
122	0x3d7f132a	0.062274136
123	0xbb8763b0	-0.0041317567
124	0x3db5bd99	0.088740535
125	0x3c96c52d	0.018404568
126	0x3d8eb44a	0.06967981
127	0xbd968334	-0.07349244
128	0x39c42d7c	0.00037417922
129	0x3d037a71	0.03209919
130	0xbd474456	-0.048649155
131	0xbe1be0f9	-0.15222539
132	0x3c4215e5	0.01184604
133	0x3d0b8f3e	0.034072153
134	0xbda7ba5d	-0.08189843
135	0xbc180e18	-0.009280704
136	0x3d92129b	0.07132455
137	0xbd35d89e	-0.044396035
138	0x3cc98fcf	0.024604706
139	0x3e4961f5	0.19666274
140	0x3e0e538f	0.13899063
141	0x3d1a9fc5	0.037750024
142	0x3da8daa3	0.08244827
143	0x3e178379	0.14796247
144	0x3dae6acd	0.085164644
145	0xbbe5df01	-0.0070151095
146	0x3ca82458	0.020525143
147	0x3da20f2d	0.07913051
148	0xbd2d9696	-0.042379938
149	0xbd72f05b	-0.059311252
150	0x3d081987	0.03322747
151	0x3db21f5f	0.0869739
152	0x3d4adc6e	0.049526624
153	0x3b8e787b	0.0043478585
154	0x3c4bbccc	0.012435149
155	0xbce5e34e	-0.028062489
156	0x3b2e0b5e	0.0026557068
157	0x3da4c7f6	0.08045952
158	0xbb043824	-0.0020175064
159	0xbc205311	-0.00978543
160	0x3d64bbc2	0.055843122
161	0xbd8a6293	-0.06757083
162	0xbc601cbe	-0.013678728
163	0x3cb7ba3f	0.022427676
164	0x3dc11dcd	0.09429512
165	0x3b905c1e	0.0044055125
166	0x3dcad751	0.099043496
167	0x3d975c87	0.07390695
168	0x3d2c4cb6	0.042065345
169	0x3d7b0b5b	0.061290126
170	0x3d4ce7be	0.050025694
171	0x3de286f5	0.11060897
172	0xbdb690ac	-0.08914313
173	0xbd466087	-0.0484319
174	0xbce7ca09	-0.02829458
175	0x3defb13c	0.11703727
176	0x3d358c22	0.044323094
177	0x3e376b75	0.17912085
178	0x3dae4ab2	0.08510341
179	0x3d996096	0.074891254
180	0xbd37be7a	-0.044859387
181	0x3d99a63c	0.0750241
182	0x3d3913b5	0.04518481
183	0x3d4f2a20	0.050577283
184	0x3d247616	0.040151678
185	0xbd8f23c7	-0.06989246
186	0x3b5b217c	0.0033436706
187	0xbc827ecf	-0.015929608
188	0xbd71244d	-0.05887251
189	0x3db9f312	0.09079565
190	0xbbbc4f21	-0.0057467376
191	0xbdd0ea08	-0.10200888
192	0x3e4d7ee2	0.20067933
193	0xbd0db321	-0.03459466
194	0xbd200809	-0.039070163
195	0x3d4e7e5d	0.05041348
196	0xbb064f6c	-0.0020494116
197	0xbd6983c9	-0.057010446
198	0x3c3e599a	0.011618042
199	0x3c2da9d6	0.010599574
200	0xbd6a366c	-0.057180807
201	0xbd44c13f	-0.048035856
202	0xbd09538f	-0.033526953
203	0x3d1f7abe	0.038935415
204	0x3db7f5f2	0.08982457
205	0x3d454d50	0.048169434
206	0xbd8a9207	-0.06766134
207	0xbc891f03	-0.01673842
208	0xbd9ef65d	-0.07761834
209	0xbd1dd4d5	-0.03853305
210	0x3dbd7c3f	0.09252214
211	0xbd7bd84d	-0.061485577
212	0x3d221794	0.039573267
213	0x3db2d1b0	0.08731401
214	0xbc949062	-0.018135253
215	0x3cd960c3	0.026535397
216	0x3cb399e5	0.021923969
217	0x3e7f27f1	0.2491758
218	0xbd954641	-0.072887905
219	0xbcacaf9b	-0.021079829
220	0x3d82c53e	0.06385277
221	0xbe257f6a	-0.16161886
222	0xbe22fdab	-0.15917079
223	0xbda14c36	-0.07875864
224	0xbd71fe49	-0.059080396
225	0x3d8bce99	0.06826515
226	0x3d9eea3a	0.07759519
227	0x3d7e41c2	0.06207443
228	0xbda99799	-0.08280868
229	0xbd064400	-0.032779694
230	0xbdb6b502	-0.08921243
231	0xbd51828c	-0.05114989
232	0x3cdf83d5	0.027284542
233	0xbe6d358c	-0.23164958
234	0x3b86de85	0.004115882
235	0x3d06cfa4	0.032912865
236	0xbc072dad	-0.008250636
237	0xbce605eb	-0.028078994
238	0x3c8e7b7d	0.017392868
239	0x3c39bbcd	0.011336279
240	0x3e20a992	0.15689686
241	0x3d95de4d	0.07317791
242	0xbd50644e	-0.050876908
243	0xbd094ce7	-0.033520605
244	0x3d119c76	0.035549603
245	0x3e47fa03	0.19528966
246	0xbda187a4	-0.078871995
247	0xbe285315	-0.16437943
248	0xbb84737f	-0.0040420885
249	0xbe2d8e63	-0.16948847
250	0x3d853b40	0.06505442
251	0xbd5469e6	-0.051858805
252	0x3d9dd0fa	0.07705875
253	0x3d4ee830	0.0505144
254	0xbbd6b4a6	-0.0065522967
255	0xbc4ef86c	-0.012632471

net.3.bias f4 [64]
0	0x3db8f782	0.09031583
1	0xbcdccc45	-0.026952872
2	0x3d7671a4	0.06016697
3	0x3d21f13b	0.039536696
4	0x3d10e3d8	0.03537354
5	0x3d9ad562	0.07560231
6	0x3de04f26	0.10952596
7	0x3d9b0f3a	0.075712636
8	0x3dd17970	0.102282405
9	0x3da68970	0.08131683
10	0x3c814dcf	0.015784172
11	0x3ddf6666	0.10908203
12	0x3d9569a4	0.0729554
13	0xbd9ed8e3	-0.077562116
14	0xbe01c3f0	-0.126724
15	0x3e06ee19	0.13176765
16	0x3d03064b	0.031988423
17	0x3db35ab2	0.08757533
18	0xbd93afd8	-0.07211274
19	0xbcbb6cf8	-0.022879109
20	0x3c662269	0.01404629
21	0xbd5ebfbc	-0.05438207
22	0x3d8a2bc0	0.06746626
23	0xbdc4cd3e	-0.09609459
24	0x3dc048f7	0.09388917
25	0xbd14f31c	-0.03636466
26	0x3db5cd39	0.08877034
27	0x3dad133f	0.084509365
28	0x3deba036	0.11505167
29	0x3dd1608c	0.10223493
30	0xbd4bb6bf	-0.049734827
31	0xbcaedcdd	-0.02134555
32	0x3d8e2ced	0.06942163
33	0x3d864777	0.065565996
34	0xbdb9761c	-0.09055731
35	0x3d0bbb2e	0.034114055
36	0xbd07d4b2	-0.033161826
37	0x3dae1c79	0.085015245
38	0x3da04ec0	0.0782752
39	0x3dd9558e	0.106120214
40	0x3c015299	0.007893228
41	0x3d279672	0.04091496
42	0xbd8d2167	-0.068911366
43	0x3c489c3c	0.01224428
44	0xbd81ac3a	-0.06331678
45	0xbc3a9aef	-0.011389478
46	0x3d8ce528	0.068796456
47	0x3ca47603	0.020075804
48	0x3c4b4982	0.012407662
49	0x3dcdb6e0	0.10044646
50	0x3d950958	0.07277173
51	0xbdaa98be	-0.083299145
52	0x3d4e5abc	0.0503795
53	0x3d7bf1d9	0.06150994
54	0xbda4c627	-0.08045607
55	0x3dc38b65	0.09548072
56	0x3ca6edf8	0.020377144
57	0x3c27704f	0.010219648
58	0xbcfde17b	-0.030991307
59	0x3d89c13f	0.06726312
60	0xbd183b96	-0.0371662
61	0x3d2444fc	0.04010485
62	0xbdb62ad8	-0.088948905
63	0xbb0ed7cb	-0.0021796103

net.6.weight f4 [2, 64]
0	0x3d8655f0	0.0655936
1	0x3e3344d4	0.17506725
2	0x3e004d6e	0.12529537
3	0x3db630df	0.0889604
4	0xbcf8bcfc	-0.030363552
5	0x3e44529f	0.19172142
6	0x3c1177ae	0.0088786315
7	0xbe6f9acf	-0.23398899
8	0x3d53d52a	0.05171696
9	0x3d6a1527	0.05714908
10	0xbe724771	-0.23660065
11	0x3e17f766	0.14840469
12	0xbe8ff0b4	-0.2811333
13	0x3d47fa78	0.04882285
14	0xbdf34204	-0.11877826
15	0x3dae7b11	0.08519567
16	0x3dc3e450	0.095650315
17	0x3e4ef25e	0.20209643
18	0x3de02e11	0.109462865
19	0xbe2b9655	-0.16756566
20	0x3e821a03	0.2541047
21	0x3d22d711	0.039755885
22	0xbd7b271e	-0.061316602
23	0xbc5ff2f3	-0.013668763
24	0x3de16b31	0.11006773
25	0x3e2fa59e	0.17153022
26	0xbe8915e5	-0.26774517
27	0xbdf9a6f4	-0.12190047
28	0x3cf2cecf	0.02963963
29	0x3dd5c2d2	0.1043755
30	0x3d284350	0.04107982
31	0xbcaa713f	-0.020805953
32	0x3e1019dd	0.14072366
33	0xbeb0ac83	-0.34506616
34	0xbd561456	-0.052265488
35	0x3e0e4eab	0.13897197
36	0xbe796962	-0.24356607
37	0xbe4f3876	-0.20236382
38	0x3df456b1	0.119305976
39	0x3e480cec	0.1953618
40	0x3d59ff55	0.05322202
41	0xbe3b5d22	-0.18297246
42	0x3d8c375c	0.068464965
43	0xbe08470a	-0.13308349
44	0xbd5b4e99	-0.053541753
45	0xbe0d9a2c	-0.13828343
46	0xbe9b1ee0	-0.30296993
47	0x3e17d70e	0.1482813
48	0xbe88895b	-0.26667294
49	0x3bab855e	0.0052344045
50	0x3d5b4770	0.053534925
51	0x3dd5dd5e	0.10442613
52	0xbc91814a	-0.017761845
53	0x3dc76a0c	0.09737024
54	0xbdd6a38e	-0.10480414
55	0x3e2d8055	0.16943486
56	0xbea7f055	-0.32800546
57	0xbe8244a1	-0.25442985
58	0x3cca8d78	0.02472566
59	0x3e21d00f	0.15802024
60	0xbda681ff	-0.081302635
61	0xbe968b08	-0.29402947
62	0x3d95f66c	0.07322392
63	0x3e1719fd	0.14756007
64	0xbdb56c75	-0.08858577
65	0xbd7e28ee	-0.062050752
66	0xbe2ecb45	-0.17069729
67	0xbe3bb9df	-0.18332623
68	0xbcaa1e4e	-0.020766404
69	0xbd87717f	-0.066134445
70	0xbe1d85e3	-0.15383105
71	0x3de7ec97	0.11324423
72	0xbe350307	-0.17676936
73	0xbdbfe9be	-0.09370755
74	0x3e6728af	0.22574113
75	0x3ac6bbbf	0.0015162154
76	0x3e83e2bd	0.25758925
77	0x3d5390d8	0.051651806
78	0xbdb41e6b	-0.08794864
79	0xbe0481c1	-0.12940122
80	0xbe06e222	-0.131722
81	0xbcb1da6e	-0.0217106
82	0x3dac018d	0.08398733
83	0x3dec326b	0.11533054
84	0xbc8f1995	-0.017468253
85	0x3d904472	0.07044305
86	0xbe1f2d6b	-0.1554467
87	0x3d98b63b	0.07456633
88	0xbddcac6d	-0.10775075
89	0xbcbe7907	-0.02325107
90	0x3e6f5a98	0.23374403
91	0x3e916701	0.28398898
92	0xbe2e4300	-0.17017746
93	0xbddb67dc	-0.10713169
94	0x3dd4f3e8	0.10398084
95	0x3dd201bb	0.10254236
96	0xbdaf9f59	-0.08575315
97	0x3e9d0f57	0.30675766
98	0x3daa3036	0.08309977
99	0xbde51c26	-0.111870095
100	0x3e919ae7	0.28438494
101	0x3e63c5c3	0.22243409
102	0xbe33b943	-0.1755114
103	0xbaf5b738	-0.001874662
104	0xbe19d938	-0.15024269
105	0x3e8fb05f	0.28064248
106	0x3dbe156d	0.092814304
107	0x3ea78951	0.32721952
108	0x3de80634	0.11329308
109	0x3e6d6fe5	0.23187216
110	0x3e086d80	0.13323021
111	0xbde57fdf	-0.1120603
112	0x3d12e682	0.03586436
113	0xbe369b51	-0.17832686
114	0xbe683279	-0.22675504
115	0x3dd23653	0.10264268
116	0xbdddc84e	-0.10829221
117	0xbe18fecc	-0.14940947
118	0xbb81f72a	-0.003966232
119	0xbc228ac4	-0.00992078
120	0x3e92112a	0.2852872
121	0x3eb3c7ba	0.35113317
122	0x3de34cb1	0.11098612
123	0xbd8ccbcf	-0.06874811
124	0x3ca5f953	0.020260489
125	0x3e8a2311	0.2697988
126	0x3dbc1f4e	0.091856584
127	0xbe196d9c	-0.14983219

net.6.bias f4 [2]
0	0x3dd92f13	0.10604682
1	0xbd2c186c	-0.042015478
