assets/snapshots/P2_minmax_global_lstm.pth (torch, 222233 bytes, 12 tensors)

lstm.weight_ih_l0 f4 [256, 1]
0	0x3db9d863	0.090744756
1	0xbe3dd8f9	-0.185398
2	0xbe8eec81	-0.27914813
3	0x3d95d0d8	0.073152244
4	0xbeb3caad	-0.35115567
5	0xbe922354	-0.28542578
6	0xbe5ad085	-0.21368606
7	0xbd3202d2	-0.04345972
8	0xbdda97c5	-0.10673479
9	0xbe1be98b	-0.15225808
10	0xbe8f1808	-0.27948022
11	0xbd6b15b1	-0.057393733
12	0xbe6f4a7a	-0.23368254
13	0x3db370b0	0.08761728
14	0x3e074333	0.13209228
15	0xbc5454e2	-0.012959691
16	0xbcc8c7b9	-0.024509298
17	0xbe753607	-0.23946391
18	0xbe734cf1	-0.2375982
19	0xbe572464	-0.21009976
20	0x3d031f4a	0.03201226
21	0xbec7bfcf	-0.39013526
22	0xbea91d13	-0.33029994
23	0x3df707b2	0.12062015
24	0x3deeb14b	0.1165491
25	0xbe0ffe28	-0.14061797
26	0xbdc92fd6	-0.09823577
27	0x3e59a3e2	0.21253923
28	0x3d5d4453	0.054020237
29	0xbe80d055	-0.25158945
30	0x3d4b32eb	0.049609106
31	0xbe5378d0	-0.20651555
32	0xbb5aa51e	-0.0033362578
33	0xbe2a6193	-0.16638784
34	0xbed21612	-0.41032463
35	0xbe33c4b8	-0.17555511
36	0xbe13ed9b	-0.14446108
37	0x3db72fe6	0.08944683
38	0xbd814eff	-0.063138954
39	0xbe0900fa	-0.13379279
40	0xbeb4e011	-0.353272
41	0xbe9028b0	-0.28156042
42	0x3dba3871	0.090927966
43	0x3cad0358	0.021119758
44	0x3d81724a	0.06320627
45	0xbeb2ab9f	-0.34896562
46	0xbed15270	-0.40883207
47	0xbedffcb3	-0.43747482
48	0xbe633cf9	-0.22191228
49	0xbe3548ad	-0.17703505
50	0xbe67cbac	-0.22636288
51	0xbd8372d6	-0.064183876
52	0x3e924730	0.28569937
53	0x3ce34b30	0.027745813
54	0xbdbfb264	-0.09360197
55	0xbe256d31	-0.16154934
56	0x3d229bcf	0.039699372
57	0xbeadacb0	-0.33920813
58	0xbe3a0650	-0.1816647
59	0x3d92cc03	0.071678184
60	0xbdad5549	-0.084635325
61	0x3e00e07a	0.12585631
62	0xbbee8556	-0.0072790785
63	0xbe4a6ec6	-0.19768819
64	0x3dc266f4	0.09492293
65	0xbe2ec4c7	-0.17067252
66	0xbdb7837c	-0.089606255
67	0xbc78948f	-0.015172138
68	0xbcfedb4d	-0.03111043
69	0xbdaaf691	-0.0834781
70	0xbdd0ac02	-0.10189058
71	0x3db4b241	0.08823062
72	0xbc9d8d79	-0.019232498
73	0x3e95cd36	0.29258126
74	0xbe08338c	-0.13300914
75	0x3dc89fe7	0.09796124
76	0xbe1c0e07	-0.15239726
77	0x3de8a049	0.11358697
78	0x3e99316c	0.29920518
79	0xbcf3d3e4	-0.029764123
80	0x3d66d3ef	0.05635446
81	0xbaa4cd36	-0.0012573365
82	0xbd719f6b	-0.058989923
83	0x3c8c66a5	0.017138788
84	0x3dd03f51	0.10168327
85	0xbd85e5c6	-0.065379664
86	0x3d25d84b	0.040489476
87	0xbc7bf28f	-0.015377655
88	0x3c029f76	0.007972589
89	0xbe0009fb	-0.12503807
90	0xbdb63d5b	-0.088984214
91	0x3ec5f154	0.3866068
92	0x3e927b6d	0.2860979
93	0xbd069b92	-0.032863207
94	0x3c88893b	0.016667
95	0xbe673daf	-0.22582124
96	0x3d0ff9f3	0.03515048
97	0x3d602808	0.054725677
98	0xbd734bf3	-0.059398603
99	0xbde731fc	-0.11288831
100	0x3ac77b90	0.001521932
101	0x3e81301b	0.25232014
102	0xbdb62544	-0.088938266
103	0xbd1f0e7b	-0.03883217
104	0xbd59bf20	-0.053160787
105	0xbe01860d	-0.12648793
106	0x3ce9a44a	0.028520722
107	0x3d27650b	0.040867846
108	0x3ce749b3	0.028233385
109	0xbe3106c8	-0.17287743
110	0xbe2143e6	-0.15748557
111	0xbd8b9502	-0.0681553
112	0x3d2b5201	0.041826252
113	0xbdf583e2	-0.11988045
114	0xbe834028	-0.25634885
115	0xbd7e8e74	-0.062147573
116	0x3e5e60e8	0.21716654
117	0x3e295fd4	0.16540462
118	0x3e6bb455	0.2301801
119	0x3dd9c6ea	0.10633643
120	0x3d8b8b49	0.06813676
121	0xbd8dfead	-0.06933341
122	0xbe074b76	-0.1321238
123	0x3d52bd78	0.051450223
124	0xbde21d66	-0.110407636
125	0x3e3ee103	0.18640523
126	0xbd2ec7ff	-0.0426712
127	0xbe1cf1a8	-0.1532656
128	0xbdc225b9	-0.09479851
129	0x3e7294e9	0.23689617
130	0xbe07117a	-0.1319026
131	0xbda8d909	-0.08244521
132	0xbe0690df	-0.13141201
133	0x3e10e6d4	0.14150554
134	0xbe5b8358	-0.21436822
135	0x3e06cdfb	0.13164513
136	0xbd217454	-0.03941758
137	0x3e940d74	0.28916514
138	0x3dfb9096	0.12283437
139	0x3d486807	0.048927333
140	0x3d3ea24e	0.046541505
141	0x3d2f6d57	0.042828884
142	0x3e6df449	0.23237719
143	0x3bfabbdf	0.0076517905
144	0x3d8a48fd	0.06752203
145	0xbe491a75	-0.19638999
146	0x3e44a589	0.19203772
147	0xbdad4ea9	-0.08462269
148	0xbe7e39f1	-0.2482679
149	0x3e65bbfc	0.22434992
150	0xbdba7611	-0.09104551
151	0x3de041e9	0.10950071
152	0x3a2f9e9d	0.00066993554
153	0xbdacbcd5	-0.08434454
154	0xbe11c1cd	-0.14234085
155	0x3ea507fc	0.32232654
156	0xbe326c4a	-0.17424121
157	0xbc6388ad	-0.0138875665
158	0x3d356b96	0.044292055
159	0xbd2edfc2	-0.04269386
160	0xbd90af10	-0.070646405
161	0x3e369579	0.17830457
162	0x3e361cdd	0.17784448
163	0x3e94efd3	0.2908922
164	0xbc85e35d	-0.016343767
165	0x3e43fb1c	0.1913876
166	0xbdc97b7a	-0.098380044
167	0x3cc0ec32	0.023550127
168	0x3d8ee33b	0.069769345
169	0xbe8f783f	-0.28021428
170	0xbda9ae68	-0.082852185
171	0xbdfe9320	-0.124304056
172	0xbe2f22d6	-0.17103133
173	0xbd746e32	-0.059675403
174	0x3e52f1b0	0.20600009
175	0x3deb318f	0.11484062
176	0xbe5bf901	-0.21481706
177	0x3dce76ff	0.100812905
178	0xbdeafd6e	-0.11474119
179	0x3d2c402e	0.042053394
180	0xbe57d843	-0.21078591
181	0x3e166d08	0.1469003
182	0x3e3cc1dc	0.18433326
183	0xbe3c5dc4	-0.18395144
184	0x3e377da4	0.17919022
185	0x3d8f08a9	0.06984074
186	0x3e058326	0.1303831
187	0xbdd818c1	-0.105515964
188	0x3d512c9e	0.05106794
189	0xbe8e86e0	-0.27837276
190	0xbe177900	-0.14792252
191	0xbe93a688	-0.2883799
192	0xbc418a5a	-0.011812771
193	0xbe6413e5	-0.22273214
194	0xbe8c7ebd	-0.27440444
195	0xbd227e33	-0.039671134
196	0xbeac76dc	-0.33684433
197	0xbe32e058	-0.17468393
198	0xbe350f22	-0.17681554
199	0x3c5b9850	0.013403013
200	0xbd3e15c7	-0.046407487
201	0xbd0dacd0	-0.034588635
202	0xbe976fc1	-0.2957745
203	0xbe0d7569	-0.1381432
204	0xbec00b27	-0.3750851
205	0xbdb7d874	-0.08976832
206	0x3e4b17ad	0.1983325
207	0x3c2fbaac	0.010725658
208	0x3c9f8f6e	0.019477572
209	0xbd94b1b7	-0.07260459
210	0xbdc95727	-0.09831076
211	0xbd9edb16	-0.07756631
212	0xbcf4c106	-0.029877197
213	0xbe9eb54f	-0.30997702
214	0xbe5be41d	-0.21473737
215	0x3d03e24d	0.03219824
216	0xbd90234b	-0.070379816
217	0x3b2cacb5	0.0026348059
218	0xbe401cf9	-0.18761052
219	0x3db8dddc	0.09026691
220	0x3d937028	0.071991265
221	0xbe44916e	-0.19196102
222	0xbe7c875a	-0.24661008
223	0xbe94648f	-0.2898297
224	0xbd997d3e	-0.07494591
225	0xbe622d5c	-0.22087616
226	0xbebed2fc	-0.37270343
227	0xbea45432	-0.32095486
228	0x3c5993c3	0.013279858
229	0x3e144362	0.1447883
230	0xbdd12c4d	-0.10213528
231	0xbcae60da	-0.021286417
232	0xbde6d42b	-0.112709366
233	0xbe587ab9	-0.21140565
234	0x3cef58bd	0.029217118
235	0xbd066b83	-0.032817375
236	0x3c2acf85	0.010425453
237	0xbeb01b34	-0.34395754
238	0xbeb8d30d	-0.3609852
239	0xbe63fe95	-0.22265084
240	0xbd98e21a	-0.074650005
241	0xbe0ff4d2	-0.14058235
242	0xbe53f86c	-0.20700234
243	0xbda02d2b	-0.07821115
244	0x3e12dc84	0.14341933
245	0xbe48bba7	-0.19602834
246	0x3dc0d36d	0.09415326
247	0x3c83d998	0.016094968
248	0xbd89c8e0	-0.06727767
249	0xbecbfdc5	-0.39842048
250	0xbe7ef351	-0.24897505
251	0xbd45a9bf	-0.048257586
252	0xbe07dfa6	-0.13268909
253	0x3ddc8648	0.107677996
254	0xbd224855	-0.039619762
255	0xbe903569	-0.2816575

lstm.weight_hh_l0 f4 [256, 64]
0	0x3e245691	0.16048647
1	0xbd143bcf	-0.03618985
2	0xbd6a32cb	-0.057177346
3	0xbc4ba522	-0.012429507
4	0x3e09c495	0.13453896
5	0x3e0a6e2a	0.13518587
6	0x3dc00834	0.093765646
7	0xbe254d0d	-0.16142674
8	0x3c354a67	0.011065102
9	0xbe124c5a	-0.14286938
10	0x3e6b6093	0.22986059
11	0x3c758d44	0.014987294
12	0xbdabb9eb	-0.083850704
13	0xbd821e09	-0.06353385
14	0xbeb7f7e1	-0.35931304
15	0xbdf4d80a	-0.11955269
16	0x3e0bb543	0.13643365
17	0x3a5dcc8a	0.00084609597
18	0xbe04ff23	-0.12987952
19	0xbbaf2be8	-0.00534581
20	0x3cb41190	0.02198103
21	0x3d242cdf	0.040081855
22	0xbda2f107	-0.079561286
23	0x3c166128	0.009178437
24	0x3d6188d7	0.05506214
25	0xbd03c50f	-0.03217035
26	0x38cdb789	9.809348e-05
27	0xbe945280	-0.28969193
28	0x3d9bcfad	0.076079704
29	0x3daff5a6	0.085917756
30	0x3d97e1a4	0.074160844
31	0xbd69c17d	-0.05706929
32	0xbe3e3022	-0.18573049
33	0x3d300143	0.042969953
34	0xbda6c052	-0.08142151
35	0x3b2b4151	0.002613146
36	0xbdbb4a8c	-0.09145078
37	0xbcef8a92	-0.02924088
38	0x3dc9b332	0.09848632
39	0x3e2a8de3	0.16655688
40	0x3d05dc13	0.032680582
41	0x3dbf714d	0.09347782
42	0x3c617038	0.013759665
43	0x3d93e8e0	0.07222152
44	0xbc3a021c	-0.011353042
45	0xbd94169b	-0.07230874
46	0xbc8a1497	-0.016855521
47	0xba453d57	-0.0007524094
48	0xbd71aece	-0.059004597
49	0xbdc94e97	-0.09829443
50	0x3dc34f15	0.09536568
51	0x3d91fcab	0.07128271
52	0x3dbd6196	0.09247129
53	0xbe7da237	-0.24768911
54	0xbd646068	-0.055756003
55	0x3bc1502b	0.0058994493
56	0xbe0a121e	-0.13483474
57	0x3df3ae11	0.11898435
58	0x3dd7a4e2	0.10529496
59	0xbd1af50b	-0.037831347
60	0xbde151a9	-0.110019036
61	0x3e2d4447	0.16920577
62	0x3da35f0b	0.079771124
63	0x3d86139f	0.06546711
64	0x3e50d765	0.20394666
65	0x3d00dd00	0.031460762
66	0x3e1282e5	0.14307745
67	0x3d2e39a7	0.04253545
68	0x3db771b2	0.089572325
69	0xbcfeea82	-0.031117681
70	0x3b87146f	0.004122309
71	0xbd860e7a	-0.0654573
72	0xbcdf918d	-0.027291084
73	0xbe3b1fbe	-0.18273827
74	0xbd0a43ec	-0.03375618
75	0x3b9d7749	0.0048054797
76	0x3d10f39d	0.035388578
77	0xbe34fb2d	-0.17673941
78	0xbd8fe222	-0.07025553
79	0xbc5f4d01	-0.013629199
80	0xbd937bc7	-0.07201343
81	0x3e0265eb	0.12734191
82	0x3b9b3aab	0.0047372184
83	0xbd6f3837	-0.05840322
84	0x3cd8b6cf	0.026454357
85	0xbe56857b	-0.20949356
86	0x3c8119be	0.015759345
87	0x3d107190	0.03526455
88	0xbc861acb	-0.016370198
89	0x3defca63	0.11708524
90	0x3da3386c	0.07969746
91	0xbe578116	-0.21045336
92	0x3e029ffc	0.12756342
93	0x3df3e67a	0.11909194
94	0x3db49c05	0.08818821
95	0x3d32816a	0.04358045
96	0x3d7694c6	0.060200475
97	0xbdc2a976	-0.09504978
98	0x3d822db4	0.063563734
99	0xbdfd5e01	-0.123714454
100	0xbd34d710	-0.044150412
101	0xbe2b2bae	-0.16715881
102	0x3e17eaf7	0.14835726
103	0x3d652e9a	0.055952646
104	0x3bcdf824	0.006285684
105	0x3e03ffa8	0.12890494
106	0x3df1d60f	0.118084066
107	0xbe00c102	-0.12573627
108	0xbd3c853b	-0.046025496
109	0xbcde6501	-0.027147772
110	0x3d78009f	0.060547467
111	0x3b9ecf92	0.0048465217
112	0xbc107a5e	-0.008818237
113	0xbc75a462	-0.014992805
114	0xbd6dcf0a	-0.058058776
115	0xbd137d6b	-0.03600828
116	0x3e2e394a	0.17014042
117	0xbe69dc9b	-0.2283806
118	0xbd5c3745	-0.053763647
119	0xbd554cdd	-0.052075256
120	0xbdc490e9	-0.09597952
121	0x3c2faae1	0.010721893
122	0x3df493cc	0.119422525
123	0xbd2d63f4	-0.04233165
124	0x3df96d33	0.12179031
125	0x3d9b9ffa	0.075988725
126	0x3dab2059	0.08355779
127	0x3d2a770c	0.04161744
128	0x3d8c1289	0.06839473
129	0x3d52d7a5	0.051475186
130	0xbd24445f	-0.040104266
131	0x3d836065	0.0641487
132	0x3d94a231	0.07257498
133	0x3de2d224	0.110752374
134	0xbdb7133e	-0.08939217
135	0xbdf36f8e	-0.11886512
136	0xbe5a151d	-0.21297117
137	0xbdab7bda	-0.08373232
138	0x3e0e6056	0.13903937
139	0xbc362c3b	-0.011118944
140	0xbe1e9b4a	-0.15488926
141	0xbc88fbd9	-0.016721653
142	0xbc149f24	-0.009071145
143	0xbddcb206	-0.10776143
144	0xbe061fdf	-0.13098095
145	0x3bd4db95	0.006495903
146	0x3d98dbe2	0.07463814
147	0x3d5e26c4	0.05423619
148	0xbda7a803	-0.081863426
149	0x3e22db2b	0.15903918
150	0x3d0c933e	0.03432011
151	0x3cd0c769	0.025485711
152	0x3db10a14	0.086445004
153	0x3da32869	0.07966692
154	0xbdfd45da	-0.12366839
155	0x3ce8f3c5	0.02843655
156	0x3d0df6c3	0.03465916
157	0x3e276387	0.1634656
158	0x3db8cc20	0.09023309
159	0xbdc52283	-0.09625723
160	0x3e30ea7a	0.17276946
161	0x3d263951	0.040582005
162	0x3d16d95e	0.03682839
163	0x3d925c89	0.07146556
164	0xbcfa27eb	-0.030536612
165	0xbda40c71	-0.080101855
166	0xbe31f140	-0.17377186
167	0xbcde6f7d	-0.027152771
168	0xbc4bab27	-0.012430943
169	0xbe18dea6	-0.14928684
170	0x3d92435a	0.071417525
171	0xbcb7628f	-0.022385864
172	0xbe22b541	-0.15889455
173	0x3e3f4647	0.18679152
174	0x3e574bce	0.21025011
175	0x3ddad462	0.1068504
176	0x3d124ccb	0.035717767
177	0xbe3b896f	-0.18314146
178	0xbd323af1	-0.043513242
179	0xbeaf8950	-0.3428445
180	0x3dbe32f8	0.09287065
181	0xbe88cc0f	-0.26718184
182	0xbdfb35ee	-0.12266146
183	0x3de99a18	0.11406344
184	0xbbac314d	-0.0052549005
185	0xbd01f7a2	-0.0317303
186	0xbd10b8da	-0.03533254
187	0x392186da	0.00015404393
188	0x3dba8571	0.09107483
189	0x3d9efb3e	0.077627644
190	0x3d6fdaeb	0.058558386
191	0xbd4f31d9	-0.050584648
192	0xbdbab5f2	-0.091167346
193	0x3d9884ee	0.07447229
194	0x3d56a087	0.052399185
195	0x3ddc336d	0.10751996
196	0x3e04588d	0.12924404
197	0x3d86c352	0.06580223
198	0x3d8eb2e3	0.06967714
199	0xbccd9574	-0.025095679
200	0x3cb337da	0.021877218
201	0x3d461ef8	0.048369378
202	0xbbd95487	-0.006632391
203	0xbc0c35b9	-0.00855773
204	0xbddeec40	-0.10884905
205	0xbd3eebae	-0.04661148
206	0xbe32780e	-0.1742861
207	0xbe30245e	-0.17201373
208	0x3c0c7cc3	0.008574667
209	0xbddc6779	-0.10761923
210	0x3d6bb324	0.05754389
211	0xbe49f4d8	-0.19722307
212	0x3d1c0dc4	0.038099065
213	0x3ddf3f2b	0.1090072
214	0x3d17715e	0.03697335
215	0x3d0ca76f	0.034339365
216	0x3d504b01	0.05085278
217	0xbe36998b	-0.1783201
218	0x3da70003	0.08154299
219	0x3cd15de6	0.02555747
220	0x3ca65872	0.020305846
221	0x3d9102a6	0.07080583
222	0x3e18f35c	0.14936584
223	0x3d04a8e6	0.032387637
224	0xbdd0a2cb	-0.101873
225	0x3d928dde	0.07155965
226	0x3e61d35d	0.22053285
227	0x3e1cf173	0.1532648
228	0x3ca3520c	0.019936584
229	0xbe2a5969	-0.1663567
230	0x3cdb2392	0.02675036
231	0xbd7f156a	-0.06227628
232	0x3e020728	0.12698042
233	0xbdfad9a1	-0.12248541
234	0x3e0a83d1	0.13526846
235	0x3e30a6de	0.17251155
236	0xbdce305c	-0.100678176
237	0xbda75c08	-0.081718504
238	0x3d388f22	0.045058377
239	0x3dbd0a5e	0.09230493
240	0x3e0f66a6	0.14004001
241	0x3c96e873	0.018421387
242	0x3e3c7505	0.18404014
243	0xbe0cf515	-0.13765366
244	0x3e4670dc	0.1937899
245	0xbe06da4a	-0.13169208
246	0xbd4ded64	-0.05027522
247	0xbe0064bf	-0.12538432
248	0x3ccb8db5	0.024847845
249	0xbc3a82d8	-0.011383735
250	0xbe30d5a1	-0.17268993
251	0xbdf36cdc	-0.11885998
252	0x3e019a66	0.12656555
253	0x3d70fb3e	0.058833353
254	0x3de46b4f	0.1115328
255	0xbab1b3cf	-0.0013557615

lstm.bias_ih_l0 f4 [256]
0	0x3e1a1cb3	0.1505001
1	0x3c98e625	0.018664429
2	0xbce2cf87	-0.027686847
3	0xbda52910	-0.08064473
4	0xbd7be3dc	-0.0614966
5	0xbd865dfc	-0.06560895
6	0xbd883600	-0.06650925
7	0xbd3a2c11	-0.04545218
8	0xbe3da7cf	-0.18521045
9	0x3c364d92	0.011126893
10	0xbd4eb45e	-0.05046498
11	0xbddbe858	-0.107376754
12	0xbe113d64	-0.14183575
13	0xbe215dfd	-0.1575851
14	0x3e24d8e4	0.16098362
15	0x3dbf7e5e	0.093502745
16	0xbce8b191	-0.028404983
17	0x3d65fef4	0.056151345
18	0x3e1534de	0.14570948
19	0xbe1a8245	-0.15088756
20	0xbd874422	-0.06604792
21	0x3c9aaeff	0.018882273
22	0xbe6afc53	-0.22947817
23	0x3c3905cf	0.011292889
24	0x3e05d412	0.1306918
25	0x3d7b442a	0.061344303
26	0xbdac0ebe	-0.08401249
27	0x3cb7a788	0.022418752
28	0x3d3a98f9	0.045556042
29	0xbdb208a2	-0.08693053
30	0xbcb0f06d	-0.021599019
31	0xbdb30035	-0.08740274
32	0xbe82b24b	-0.25526652
33	0xbdda2acd	-0.10652695
34	0xbdd6157a	-0.10453315
35	0x3cd51980	0.026013136
36	0x3d4ead69	0.050458346
37	0x3aca1768	0.0015418353
38	0x3cc4afdf	0.024009643
39	0xbda08ccd	-0.078393556
40	0xbe817e50	-0.2529168
41	0xbd3331a7	-0.043748524
42	0x3e5ba996	0.2145141
43	0xbd8a7ce6	-0.06762104
44	0xbd95d622	-0.07316233
45	0xbdbb3e0f	-0.09142696
46	0xbdaf65e7	-0.08564358
47	0xbd5f438d	-0.05450778
48	0xbe5c6ceb	-0.21525924
49	0xbe74fb77	-0.23924051
50	0xbe1c92be	-0.15290353
51	0xbda9f30c	-0.08298311
52	0xbbd1e135	-0.0064050206
53	0x3d8e03bd	0.06934307
54	0x3cf4bbab	0.029874643
55	0xbe429c46	-0.19004926
56	0x3cfd2805	0.030902872
57	0xbe94126b	-0.28920302
58	0xbe331838	-0.17489707
59	0xbda33340	-0.079687595
60	0xbdcc5774	-0.09977618
61	0x3df4b981	0.119494446
62	0xbd3dc502	-0.04633046
63	0xbdaafc99	-0.083489604
64	0x3de4df64	0.11175421
65	0xbaf89da6	-0.0018967881
66	0xbe00db9c	-0.12583774
67	0xbe2f4f05	-0.17119987
68	0x3d39ccff	0.045361515
69	0xbd8f7ec5	-0.07006601
70	0xbdb22a6f	-0.086995
71	0x3bd3037c	0.0064396244
72	0xbcddb312	-0.027062926
73	0x3de15177	0.11001866
74	0xbdd67f10	-0.10473454
75	0xbc43b973	-0.01194607
76	0xbd84ed01	-0.064905174
77	0x3dcae82c	0.099075645
78	0x3ea85d87	0.32883856
79	0x3c22acc6	0.009928888
80	0xbd094c39	-0.033519957
81	0xbc296690	-0.010339394
82	0xbc66f9cb	-0.014097641
83	0xbdd9e10d	-0.10638628
84	0x3d2dacc0	0.042401075
85	0xbe08e1e4	-0.1336742
86	0xbd50c0cf	-0.050965127
87	0xbcc59bf1	-0.02412221
88	0xbe0ffa97	-0.14060436
89	0xbda571be	-0.08078335
90	0xbe32bd3c	-0.17455
91	0x3e9a68ea	0.30158168
92	0x3e201c3e	0.15635774
93	0xbd823bd1	-0.06359065
94	0x3d367e33	0.044553947
95	0x3bc88d63	0.0061203702
96	0xbe12c164	-0.14331585
97	0xbd8944eb	-0.06702598
98	0xbd6f7157	-0.0584577
99	0xbc813ded	-0.015776599
100	0x3da3197c	0.07963845
101	0x3e0c88b4	0.13724023
102	0xbd790614	-0.060796812
103	0xbe17c3ef	-0.14820836
104	0xbcabd92b	-0.020977577
105	0x3e0676e5	0.13131292
106	0x3dd4e3ab	0.10394987
107	0xbdb3781f	-0.08763146
108	0xbdeecadc	-0.11659786
109	0xbe43742b	-0.19087283
110	0x3de269e5	0.11055354
111	0x3d3f6dc4	0.04673554
112	0x3c93161b	0.017954877
113	0xbdb30ba7	-0.08742457
114	0xbe095ac9	-0.13413538
115	0x3d88641e	0.06659721
116	0x3d13ad9a	0.03605423
117	0x3e419457	0.18904243
118	0x3d118be5	0.035533804
119	0x3e0ac572	0.13551882
120	0xbd8b78a0	-0.06810117
121	0xbe4fd1ed	-0.20294924
122	0xbd8e176b	-0.069380604
123	0x3e20e717	0.15713154
124	0xbdc2e834	-0.095169455
125	0x3dc2bd68	0.095087826
126	0xbde030d6	-0.10946815
127	0xbd036b0a	-0.032084502
128	0x3de00537	0.10938495
129	0xbe0cf1b4	-0.13764077
130	0x3da48b89	0.08034427
131	0xbd5d5044	-0.054031625
132	0x3d0196fa	0.031638123
133	0xbdddf3b6	-0.108375
134	0x3d4443ac	0.0479161
135	0x3d6060e2	0.054779895
136	0x3dd85f42	0.10565044
137	0xbddd93ce	-0.10819207
138	0xbdfc98bc	-0.12333819
139	0x3cd6ce61	0.026221456
140	0x3d66a571	0.05631012
141	0x3ab1c5de	0.0013562997
142	0xbddd11b8	-0.10794395
143	0x3d700b5b	0.05860458
144	0xbd1457ae	-0.03621643
145	0x3de8cc6c	0.113671154
146	0xbe08d55b	-0.13362639
147	0x3e4bc3f7	0.19898973
148	0x3e166845	0.14688213
149	0xbe31715f	-0.17328404
150	0xbbeed0f5	-0.007288093
151	0xbbbe8274	-0.005813891
152	0xbca1d71f	-0.019755898
153	0x3dce43b1	0.10071505
154	0x3e225039	0.15850915
155	0xbdbee459	-0.093208976
156	0xbb44bd2e	-0.0030019986
157	0xbd9f6fed	-0.0778502
158	0xbdecb102	-0.11557199
159	0x3df5cee6	0.12002353
160	0x3df4139b	0.11917802
161	0xbc8c23d5	-0.01710693
162	0xbe4ade52	-0.19811371
163	0xbe180574	-0.1484583
164	0xbc1e147e	-0.00964844
165	0xbc929e28	-0.01789768
166	0x3d9c2423	0.0762408
167	0xbd8e0f15	-0.069364704
168	0xbd318ea3	-0.04334892
169	0x3e358bb3	0.17729072
170	0x3e06a13f	0.13147448
171	0xbc031bed	-0.0080022635
172	0x3dcff572	0.10154237
173	0xbdaa7a56	-0.08324115
174	0xbdf577db	-0.11985751
175	0xbe4b3e9e	-0.19848105
176	0x3e1d3ee8	0.15356028
177	0xbd2d8c7d	-0.04237031
178	0xbcecc47f	-0.02890229
179	0x3e41c8e5	0.18924291
180	0xbd1b85d4	-0.037969425
181	0xbdc5c3f5	-0.096565165
182	0xbdda33eb	-0.10654434
183	0x3d8c4469	0.06848986
184	0xbe46eec8	-0.19427025
185	0xbd7eeb18	-0.06223592
186	0x3bb409d8	0.0054943375
187	0x3d42b5c3	0.047536623
188	0x3d824eae	0.06362663
189	0x3ddf934f	0.10916769
190	0x3c6c0545	0.014405553
191	0x3d91f30e	0.07126437
192	0x3c8d83e0	0.017274797
193	0xbd34ca4b	-0.044138234
194	0xbdd365fc	-0.10322186
195	0xbe00c9fb	-0.1257705
196	0xbe1b3119	-0.15155448
197	0xbdedbed5	-0.11608664
198	0xbcb17d18	-0.021666095
199	0xbe45b168	-0.19305956
200	0xbde138c5	-0.10997156
201	0xbe2a7de3	-0.16649584
202	0xbd6e70ba	-0.058212973
203	0xbe9f5258	-0.3111751
204	0xbdce773b	-0.10081335
205	0xbe850601	-0.25981143
206	0xbd2f2fb8	-0.042770118
207	0x3c6c1274	0.014408696
208	0xbd5811db	-0.052751403
209	0xba0f0ae7	-0.00054566417
210	0xbdb56761	-0.088576086
211	0xbe13ec82	-0.1444569
212	0xbdc6ff0c	-0.09716615
213	0xbc30216f	-0.010750159
214	0xbe26419b	-0.16235964
215	0xbda34d21	-0.079736955
216	0xbc203afe	-0.00977969
217	0xbd9f6453	-0.07782807
218	0xbe355630	-0.17708659
219	0xbdae4ae2	-0.085103765
220	0xbc7ac054	-0.015304644
221	0xbe57df45	-0.21081264
222	0xbdeb5aa5	-0.114918984
223	0xbe74d3ab	-0.2390887
224	0xbe4cc3d6	-0.1999658
225	0xbd578fda	-0.052627422
226	0x3dcd6d4d	0.10030613
227	0x3e3ac7c9	0.18240274
228	0x3cec4188	0.028839841
229	0x3cfffa5f	0.031247316
230	0xbe7ddd5b	-0.24791472
231	0xbe2f04b3	-0.17091636
232	0xbe43fe37	-0.19139944
233	0x3e35e1ab	0.17761867
234	0xbda3c86c	-0.07997212
235	0xbe67c5fe	-0.22634122
236	0x3d50e90a	0.051003493
237	0xbe48f667	-0.19625245
238	0x3d76979b	0.060203176
239	0xbe2b5acf	-0.1673386
240	0xbc4a5981	-0.012350441
241	0xbdc76df4	-0.09737769
242	0xbe997393	-0.2997099
243	0xbdac9c9b	-0.084283076
244	0xbd490476	-0.04907652
245	0xbd058bc2	-0.032603987
246	0x3c546e43	0.012965742
247	0xbd1477ff	-0.03624725
248	0x3d22cd80	0.03974676
249	0xbdd0b7f9	-0.1019134
250	0xbe6d8a09	-0.23197187
251	0xbdf402ac	-0.11914572
252	0xbe8d6af3	-0.27620658
253	0xbcde03c8	-0.027101412
254	0xbd80081d	-0.062515475
255	0xba3978f2	-0.0007075212

lstm.bias_hh_l0 f4 [256]
0	0xbba4adcb	-0.0050256005
1	0xbb968457	-0.004593413
2	0xbe257c4f	-0.16160701
3	0xbe0c594c	-0.13705939
4	0x3b495abc	0.0030724248
5	0xbd1b4b9d	-0.037913907
6	0x3c852fbc	0.016258113
7	0xbc531c69	-0.0128851915
8	0xbda1f7e1	-0.07908607
9	0xbd672441	-0.05643106
10	0xbd0c2b84	-0.034221187
11	0xbe5d5611	-0.21614863
12	0xbe0bd9fb	-0.13657372
13	0xbe32dd51	-0.17467238
14	0x3e7ea801	0.24868776
15	0xbdb8834c	-0.09009418
16	0xbe1ffb8d	-0.15623303
17	0x3d9128b0	0.07087839
18	0x3e1ba6ea	0.15200391
19	0xbdc7a360	-0.09747958
20	0xbc6bcfd0	-0.014392808
21	0x3d44cfef	0.048049863
22	0xbe29c38c	-0.16578501
23	0xbdab4132	-0.083620444
24	0x3db7caa7	0.089742
25	0xbd07cf3c	-0.03315662
26	0xbe3ca30b	-0.18421571
27	0x3e2e52c6	0.17023763
28	0x3df72da8	0.12069255
29	0xbdbc7313	-0.09201636
30	0xbe0ee88e	-0.139559
31	0xbe072d30	-0.13200831
32	0xbdcc8d31	-0.099878676
33	0x3cd51fe7	0.026016189
34	0xbd85dfe9	-0.06536848
35	0x3daf5a2b	0.0856212
36	0x3ca06810	0.01958087
37	0x3e1c46fa	0.1526145
38	0xbc6287a4	-0.013826285
39	0xbe91e9f5	-0.28498808
40	0xbd83ff2d	-0.06445155
41	0x3c06b7cd	0.008222532
42	0x3cbc5797	0.022990985
43	0xbd6cefd5	-0.05784591
44	0xbd90e47b	-0.07074829
45	0xbe4bce6d	-0.19902964
46	0x3d2e7b90	0.042598307
47	0x3c8d627c	0.017258875
48	0xbe2917a9	-0.16512932
49	0xbdfe1b1d	-0.12407515
50	0xbd9da918	-0.07698268
51	0x3cd528dd	0.026020462
52	0xbb96d963	-0.0046035512
53	0xbd8f7428	-0.07004577
54	0x3e15f564	0.1464439
55	0xbd8a9455	-0.06766573
56	0x3d3c293e	0.04593777
57	0xbe7a5dd3	-0.24449854
58	0xbda4b635	-0.08042566
59	0x3dd70b73	0.10500231
60	0xbe801eb2	-0.2502342
61	0x3d12b6b9	0.03581879
62	0xbe54e4a4	-0.20790344
63	0xbc16b6e6	-0.00919888
64	0x3e112cad	0.14177199
65	0x3d2570ca	0.040390767
66	0xbdb228f2	-0.08699216
67	0xbafd1b14	-0.0019310438
68	0xbdcf94d0	-0.101358056
69	0xbd567fe6	-0.052368067
70	0x3caec19a	0.02133255
71	0x3dcb789b	0.09935113
72	0xbdad0d78	-0.084498346
73	0x3d92d411	0.07169355
74	0xbd54b826	-0.05193343
75	0xbdb41477	-0.08792966
76	0xbd6d1834	-0.05788441
77	0x3d72d295	0.059282858
78	0x3e849928	0.258981
79	0xbd38ef88	-0.04515031
80	0x3dbe7582	0.092997566
81	0xbcd2306d	-0.025657857
82	0x3df02177	0.11725133
83	0xbdcf3256	-0.10117023
84	0xbd9d12f6	-0.07669632
85	0x3cc032b7	0.023461683
86	0xbe02d97e	-0.12778279
87	0x3dce8a7c	0.100850075
88	0x3cf7d6db	0.030253818
89	0xbdab0be4	-0.08351877
90	0xbddc36a1	-0.10752607
91	0x3e89be58	0.26903033
92	0x3dcc9dd6	0.09991042
93	0x3c1c41b3	0.009537148
94	0x3d46b6d9	0.04851422
95	0xbe0ffd6d	-0.14061518
96	0xbd0cc340	-0.034365892
97	0xbd9c0cdc	-0.0761964
98	0xbd9bc50b	-0.07605942
99	0xbc9ceb87	-0.019155277
100	0x3d1556a8	0.036459595
101	0x3e19690e	0.14981481
102	0xbe0a662d	-0.1351554
103	0xbd6af9d1	-0.05736715
104	0xbd8c3741	-0.06846476
105	0xbd69654d	-0.056981374
106	0xb91d7c33	-0.00015018955
107	0x3d33ba7c	0.043879017
108	0xbd76c4e6	-0.06024637
109	0xbe2163ed	-0.15760775
110	0xbdc0fd05	-0.0942326
111	0xbe15e278	-0.14637172
112	0x3ddd5cfc	0.10808751
113	0xbc23eed3	-0.010005671
114	0xbe5620ce	-0.20910951
115	0xbd152b78	-0.03641841
116	0x3e0c4453	0.13697939
117	0xbd16d591	-0.036824767
118	0x3e19fa49	0.15036882
119	0x3d6a9ca2	0.057278283
120	0xbd97ff8a	-0.07421787
121	0xbe09b792	-0.13448933
122	0x3be7cb44	0.0070737917
123	0x3dc26a83	0.09492972
124	0x3dac7f58	0.084227264
125	0x3da28c29	0.0793689
126	0x3dfa1b3d	0.122122265
127	0xbc35dad1	-0.011099533
128	0x3e0322fa	0.12806311
129	0xbe34d1f1	-0.17658211
130	0x3d55f7f5	0.052238423
131	0x3d44d3ab	0.048053425
132	0x3e191a70	0.14951491
133	0xbdc49e03	-0.09600451
134	0x3e5fbbed	0.21849032
135	0xbcc41c52	-0.023939285
136	0xbc501475	-0.01270019
137	0xbe427401	-0.18989564
138	0xbdc64a2d	-0.09682117
139	0x3d4b8e32	0.049696155
140	0xbc4ae894	-0.0123845525
141	0x3d484e22	0.04890264
142	0x3cddf868	0.027095988
143	0xbcfaa14e	-0.030594494
144	0xbda0e2c1	-0.0785575
145	0x3e34be35	0.17650683
146	0xbe4e2008	-0.20129406
147	0xbcc512fc	-0.024056904
148	0xbd81a961	-0.063311346
149	0xbe1613a7	-0.14655934
150	0x3d6b6439	0.057468627
151	0x3d887d39	0.06664509
152	0x3e442738	0.19155586
153	0x3d376486	0.0447736
154	0x3c780920	0.015138894
155	0xbce75a77	-0.02824138
156	0xbdf2bf17	-0.11852854
157	0xbd976562	-0.07392384
158	0x3d272bf0	0.040813386
159	0x3d0855d1	0.033284966
160	0xbcda3c97	-0.02664022
161	0xbe1acb97	-0.15116726
162	0xbd865036	-0.06558268
163	0xbe287517	-0.16450916
164	0xbe29b4f4	-0.16572934
165	0x3e00f45d	0.12593217
166	0xbbd5c030	-0.0065231547
167	0xbca01bf3	-0.019544577
168	0xbdc29e8a	-0.09502895
169	0x3dd2480d	0.10267649
170	0x3d76fc2e	0.06029909
171	0x3d50e957	0.05100378
172	0x3de10800	0.10987854
173	0xbd5e27e9	-0.05423728
174	0xbe372e93	-0.1788886
175	0xbd697148	-0.0569928
176	0xbc900df8	-0.017584786
177	0x3d531c0b	0.051540416
178	0x3dd79ca2	0.10527922
179	0x3ce7c59c	0.02829247
180	0xbdfe5d00	-0.12420082
181	0x3d30115a	0.042985298
182	0xbdb5d95d	-0.088793494
183	0x3d8af521	0.06785036
184	0xbcfec812	-0.03110126
185	0x3ce87e82	0.028380636
186	0xbdc25be4	-0.09490183
187	0x3e555a31	0.20835187
188	0xbd24610c	-0.040131614
189	0xbd1b48ad	-0.037911106
190	0xbd6654ad	-0.056233097
191	0x3dc4b769	0.09605295
192	0x3de7959d	0.11307833
193	0x3dda2aeb	0.10652717
194	0xbe2a792e	-0.16647789
195	0xbdd2203c	-0.102600545
196	0xbe0e0533	-0.13869171
197	0xbe4e4e8d	-0.20147152
198	0xbd9da0c6	-0.07696681
199	0xbd4faf00	-0.050704002
200	0xbd94b7e7	-0.07261639
201	0xbcebcc6f	-0.028784005
202	0xbc7408fb	-0.014894719
203	0xbe9062f7	-0.28200504
204	0xbe88a6ce	-0.26689762
205	0xbea06d76	-0.31333512
206	0x3df86aeb	0.12129768
207	0x3d88836f	0.06665694
208	0xbe2ce0fe	-0.16882703
209	0x3ca33bea	0.01992603
210	0xbd839a09	-0.06425864
211	0xbd39839b	-0.045291524
212	0xbc7de0a0	-0.015495449
213	0xbda79d59	-0.081843086
214	0xbe37a436	-0.17933735
215	0xbe542f34	-0.20721132
216	0xbd56bcea	-0.052426256
217	0xbdbebcfc	-0.0931339
218	0xbe6194e4	-0.22029454
219	0x3d0dfe91	0.0346666
220	0xbd51e2af	-0.051241573
221	0x3bf85380	0.0075783134
222	0xbe3d73a9	-0.18501152
223	0xbe71f65a	-0.23629132
224	0xbe11c2de	-0.14234492
225	0xbdf30038	-0.11865276
226	0xbdee8670	-0.11646736
227	0x3ca9608e	0.020675924
228	0x3c930f38	0.017951593
229	0xbdeb275c	-0.114821166
230	0xbd9b95ee	-0.07596956
231	0xbe4e9472	-0.20173815
232	0xbce8745d	-0.028375799
233	0x3e1e881c	0.15481609
234	0xbd1ecd13	-0.038769793
235	0xbd3ed079	-0.046585534
236	0x3cfdd8ee	0.03098723
237	0xbe072ffa	-0.13201895
238	0x3c2f9570	0.010716781
239	0xbe0642f5	-0.1311148
240	0xbdda9ae0	-0.10674071
241	0xbe0207ec	-0.12698334
242	0xbd989f1f	-0.07452225
243	0x3ce73e95	0.028228084
244	0xbd706f94	-0.05870016
245	0x3d0c357f	0.034230705
246	0xbc0b638d	-0.0085076215
247	0xbe81a11c	-0.2531823
248	0xbdc2181a	-0.09477253
249	0xbe991c9c	-0.2990464
250	0xbddc3280	-0.107518196
251	0xbdbc03fa	-0.09180446
252	0xbe5f7403	-0.21821599
253	0xbdb9ff76	-0.090819284
254	0xbdbd25bb	-0.09235712
255	0x3c969893	0.0183833

lstm.weight_ih_l1 f4 [256, 64]
0	0xbca528ff	-0.02016115
1	0x3c662042	0.014045777
2	0x3decc140	0.11560297
3	0xbc850d43	-0.016241675
4	0xbd3b4797	-0.04572257
5	0xbd92b861	-0.07164074
6	0x3d87a169	0.066225834
7	0xbc8d8a35	-0.017277816
8	0xbd333eff	-0.04376125
9	0xbde08d83	-0.10964491
10	0xbdbeb39d	-0.09311602
11	0x3e4a9acc	0.19785613
12	0x3d823683	0.063580535
13	0x3d6132aa	0.054979958
14	0x3e018d6d	0.12651606
15	0xbdf73011	-0.12069715
16	0xbd2a4330	-0.04156798
17	0x3bab4b88	0.00522751
18	0xbe128885	-0.1430989
19	0x3ddb177f	0.10697841
20	0xbcbfaae0	-0.02339691
21	0x3ce5e3e4	0.028062768
22	0x3d3fad72	0.04679627
23	0x3d1bc015	0.03802498
24	0x3e107749	0.14108004
25	0x3c7ac329	0.015305319
26	0xbe0f5816	-0.13998446
27	0xbdd662c7	-0.10468059
28	0xbd89eb9c	-0.06734392
29	0x3d18f763	0.0373453
30	0x3dfb373a	0.12266393
31	0x3d611967	0.054955866
32	0x3e32ec82	0.17473033
33	0xbd2a4539	-0.041569922
34	0xbd16485d	-0.036690105
35	0xbdc68016	-0.09692399
36	0xbddab142	-0.106783405
37	0xbde0eb47	-0.109823756
38	0x3cb3f2a3	0.021966284
39	0xbb8ae2b1	-0.0042384495
40	0xbda8cbe9	-0.08242018
41	0x3e1d07c2	0.1533499
42	0x3d4bccea	0.04975597
43	0xbd85fd9d	-0.065425135
44	0xbdc116ab	-0.09428152
45	0x3d6a20a8	0.05716005
46	0x3da7a139	0.08185048
47	0x39c20500	0.0003700629
48	0xbd39172e	-0.04518812
49	0xbe00ec49	-0.12590136
50	0x3e26fb76	0.16306862
51	0xbcd3bdf0	-0.025847405
52	0x3dae8440	0.085213184
53	0xbe3e3d30	-0.18578029
54	0x3d23300b	0.03984074
55	0x3bdb1955	0.0066863694
56	0xbe09ccea	-0.13457075
57	0xbe0178f2	-0.12643793
58	0xbe025ad1	-0.12729956
59	0xbc1e1e5d	-0.009650794
60	0x3d25773a	0.040396906
61	0xbd3731e2	-0.044725306
62	0xbd1c3bf0	-0.0381431
63	0xbdbc725c	-0.092015
64	0x3d77d8d6	0.060509525
65	0x3e039130	0.12848353
66	0x3e87a1f4	0.26490748
67	0xbe0ae7ef	-0.13565038
68	0x3c778095	0.01510634
69	0x3de5a464	0.11212996
70	0x3e40090d	0.18753453
71	0xbe874f1b	-0.2642754
72	0xbde63a56	-0.112415954
73	0xbe1a84e7	-0.1508976
74	0x3e0d2170	0.13782287
75	0x3b64aa3a	0.0034891502
76	0x3e222959	0.15836085
77	0xbe8003d5	-0.25002924
78	0x3d536014	0.0516053
79	0xbdab74da	-0.08371897
80	0x3e36f306	0.17866144
81	0x3da4c697	0.080456905
82	0xbe1af221	-0.15131427
83	0xbe75c556	-0.24001059
84	0x3dcf5db3	0.101252936
85	0xbc93c9b0	-0.018040508
86	0xbd862b31	-0.06551207
87	0xbe537128	-0.20648634
88	0x3d3c2645	0.045934934
89	0x3c5a9b68	0.013342716
90	0x3e4dd6e8	0.20101511
91	0xbde7c6a5	-0.11317185
92	0x3e68ed36	0.22746739
93	0x3c2aff27	0.01043681
94	0x3b2e1268	0.0026561264
95	0xbbaa921f	-0.0052054073
96	0xbdf640a5	-0.12024049
97	0xbd9a94a5	-0.07547883
98	0xbd247707	-0.040152576
99	0xbcd56931	-0.026051136
100	0x3dfd1779	0.12357993
101	0xbdb431d8	-0.087985694
102	0xbd23e2ee	-0.04001134
103	0x3d6a53f2	0.057208963
104	0x3d6c984a	0.05776242
105	0x3c9a1224	0.018807478
106	0x3dfd5667	0.123699956
107	0x3cbe0fd1	0.023200901
108	0xbcdc86e5	-0.026919791
109	0xbe1dc776	-0.1540812
110	0x3d56c2b8	0.052431792
111	0xbd08f648	-0.033437997
112	0x3e02234d	0.12708779
113	0xbe5ba33b	-0.21448986
114	0xbd90dd81	-0.070734985
115	0x3d125aad	0.035731006
116	0x3d679beb	0.05654518
117	0xbdf0e3fa	-0.11762233
118	0xb8e6231a	-0.00010973793
119	0x3daf7be2	0.08568551
120	0xbd030feb	-0.031997602
121	0xbe8b6197	-0.27222893
122	0xbdd06f3e	-0.10177468
123	0xbd388751	-0.045050923
124	0xbe770c09	-0.24125685
125	0x3e047c5e	0.12938067
126	0x3e2aac5b	0.16667311
127	0xbdf1b104	-0.11801341
128	0x3dd2791c	0.10277006
129	0xbd63cbe1	-0.055614356
130	0x3de857d9	0.113448806
131	0xbd44ce5b	-0.04804836
132	0x3cceb4de	0.025232729
133	0x3cd16284	0.025559671
134	0x3b9b0cfd	0.004731773
135	0x3d87d18d	0.066317655
136	0xbd304a6c	-0.043039724
137	0x3ce996a1	0.028514208
138	0x3d9f4643	0.07777073
139	0xbd7178bb	-0.05895303
140	0x3d10cae1	0.03534973
141	0xbb84219e	-0.004032328
142	0xbdbef31b	-0.093237124
143	0xbdd252e4	-0.102697164
144	0xbdb0238e	-0.086005315
145	0x3da11b30	0.07866514
146	0x3ca184a0	0.01971656
147	0xbe0a520d	-0.13507862
148	0x3c9d1633	0.019175624
149	0xbe0564ac	-0.13026685
150	0x3b5743da	0.003284684
151	0xbddccade	-0.10780881
152	0x3da47e9e	0.08031963
153	0x3e0829d1	0.13297202
154	0x3d6f2bd7	0.05839142
155	0xbd3b2d33	-0.045697402
156	0x3de0c211	0.10974515
157	0x3dde2927	0.10847693
158	0xbc4eeaf3	-0.012629258
159	0xbdd31071	-0.1030587
160	0xbdf36be8	-0.11885816
161	0x3a4c9e8d	0.00078056083
162	0xbcb4842d	-0.022035683
163	0xbbf6ed5c	-0.0075356197
164	0xbcf6bd6c	-0.03011962
165	0xbc6b6d78	-0.014369361
166	0xbdc06f34	-0.0939621
167	0xbce6b394	-0.028161801
168	0xbd2bf4ff	-0.041981693
169	0x3d475334	0.048663333
170	0x3c763856	0.01502808
171	0x3d99a8a6	0.0750287
172	0x3d55789a	0.052116968
173	0x3d9c9aff	0.07646751
174	0xbd8bf66e	-0.06834112
175	0xbd4ee29b	-0.050509077
176	0x3e031ffc	0.1280517
177	0xbde2ef51	-0.11080802
178	0xbe09fcc5	-0.1347533
179	0x3d700bee	0.058605127
180	0xbc802d5a	-0.015646625
181	0xbe5dc87f	-0.21658514
182	0x3e06d987	0.13168918
183	0x3c2ddf5d	0.010612336
184	0x3cb89819	0.022533463
185	0xbd304ce7	-0.04304209
186	0x3d791a94	0.060816363
187	0x3e0065ba	0.12538806
188	0xbd9b3d79	-0.07580084
189	0xbd8868e4	-0.06660631
190	0x3d6b85dc	0.057500705
191	0xbd440422	-0.047855504
192	0x3e0f3ca6	0.1398798
193	0x3c70f6e7	0.014707304
194	0x3ac2dab3	0.0014866203
195	0xbdf959c1	-0.12175322
196	0xbc83d46b	-0.0160925
197	0x3e8aa43d	0.2707843
198	0x3e43a257	0.19104896
199	0xbd830aff	-0.06398582
200	0xbd9485be	-0.07252072
201	0x3d90977c	0.07060143
202	0x3cd59bca	0.026075263
203	0xbd433656	-0.04765924
204	0x3dcd006b	0.10009845
205	0xbd180e9f	-0.03712332
206	0x3e14a023	0.14514212
207	0x3dd2eeb9	0.10299439
208	0x3d5a0731	0.053229515
209	0xbe5bca01	-0.21463777
210	0xbdcb3768	-0.09922677
211	0xbcf02a43	-0.029317027
212	0xbdcb3699	-0.09922523
213	0xbd2a5b24	-0.041590825
214	0xbdf55986	-0.11979966
215	0xba598ed3	-0.00082991755
216	0x3b9e3035	0.004827524
217	0xbe1c52a8	-0.15265906
218	0xbd38ef5d	-0.04515015
219	0x3e298135	0.16553195
220	0xbda00768	-0.07813913
221	0x3e534711	0.20632578
222	0x3ce33cfa	0.027739037
223	0xbce526bd	-0.027972573
224	0xbcebad4f	-0.028769163
225	0x3d7b32e1	0.06132782
226	0xbd84e557	-0.064890556
227	0x3d40a198	0.047029108
228	0x3e50c7f2	0.20388773
229	0x3be9d106	0.0071355132
230	0x3d9e24d2	0.07721867
231	0x3e2e5c3c	0.17027372
232	0x3dccc8f8	0.09999269
233	0xbe71ddc6	-0.23619756
234	0x3d2c118b	0.042008918
235	0x3d8674f2	0.06565274
236	0xbc5801ed	-0.013184053
237	0x3d54ff2f	0.052001175
238	0xbcf1e27d	-0.029526943
239	0x3d1db93a	0.038506724
240	0x3adb9787	0.0016753533
241	0x3e224f20	0.15850496
242	0xbdc7cbb3	-0.097556494
243	0x3d8480f4	0.06469908
244	0xbc17f036	-0.009273579
245	0x3dc4facf	0.096181504
246	0x3de00471	0.10938347
247	0xbe03ac22	-0.12858632
248	0x3e903cb8	0.28171325
249	0x3d45752a	0.04820744
250	0x3d52378e	0.051322512
251	0xbe129db1	-0.14317967
252	0xbd50bd11	-0.050961558
253	0xbe1bb295	-0.15204842
254	0x3d181099	0.037125204
255	0x3ca58ded	0.020209277

lstm.weight_hh_l1 f4 [256, 64]
0	0x3d947b4e	0.07250081
1	0xbd6f01ac	-0.058351204
2	0x3d9080ff	0.07055854
3	0xbb196291	-0.0023404697
4	0xbdbf0aa7	-0.09328204
5	0xbbf4ca98	-0.00747044
6	0x3c61c4d4	0.013779838
7	0x3dd00b72	0.10158433
8	0xbbbf7c92	-0.0058437074
9	0x3e16b045	0.14715679
10	0x3db9cf3f	0.09072732
11	0xbd8cfe75	-0.06884471
12	0xbd0bc296	-0.03412112
13	0x3da24525	0.079233445
14	0x3dda25b9	0.10651726
15	0xbc0f01a7	-0.008728421
16	0xbda8a4c6	-0.08234553
17	0x3c30494b	0.010759662
18	0x3d85a623	0.06525829
19	0x3d7a4f34	0.06111069
20	0x3df4c407	0.11951452
21	0xbe0f7de6	-0.1401287
22	0x3dd92e43	0.10604527
23	0x3d18ef72	0.037337728
24	0x3ccbf0c1	0.024895074
25	0xbcb18c64	-0.021673389
26	0xbe1b0a2e	-0.15140602
27	0xbc670451	-0.01410015
28	0xbbf6cb28	-0.0075315423
29	0x3e2a583c	0.16635221
30	0x3d39c32c	0.045352146
31	0x3d1ef514	0.038807943
32	0xbd6dfde8	-0.058103472
33	0x3da90793	0.08253398
34	0xbcb6dc74	-0.022321917
35	0x3d3d81fe	0.04626655
36	0x3e06664c	0.1312496
37	0xbcdc8d01	-0.026922705
38	0x3d0a0873	0.033699464
39	0xbde0d08d	-0.10977278
40	0xbd1caf65	-0.038253207
41	0xbd413c26	-0.047176503
42	0xbc944459	-0.018098997
43	0x3dd88e07	0.105739646
44	0xbd93c1f9	-0.07214732
45	0x3d3f409f	0.046692487
46	0x3c308aa0	0.010775238
47	0xbc82f498	-0.015985772
48	0x3d02ca8c	0.031931445
49	0x3d26183e	0.040550463
50	0x3ccf9bf3	0.025342917
51	0xbe03fdeb	-0.12889831
52	0xbdab6185	-0.0836821
53	0x3d9c1cb5	0.07622663
54	0xbdb9f94d	-0.090807535
55	0xbdc23205	-0.09482197
56	0x3ddf0614	0.10889831
57	0xbd355a1d	-0.04427539
58	0x3c5fff73	0.013671744
59	0x3d98fa4e	0.07469617
60	0x3dd30b05	0.10304836
61	0x3e2d30aa	0.16913095
62	0xbdd8f04f	-0.1059271
63	0x3df12e98	0.11776465
64	0xbdfab0f6	-0.12240784
65	0x3d4fa51b	0.050694566
66	0xbc8a5f8c	-0.016891263
67	0xbca0b7fa	-0.019618977
68	0xbe655d7d	-0.22398944
69	0xbdb7496b	-0.0894955
70	0x3d07cafe	0.033152573
71	0x3da15090	0.07876694
72	0x3e196415	0.14979585
73	0x3dc156b8	0.094403684
74	0xbd110ef7	-0.035414662
75	0x3d08b829	0.033378754
76	0xbe5a937e	-0.21345326
77	0x3b49c840	0.0030789524
78	0xbd9f0d1c	-0.07766172
79	0xbd86d8aa	-0.06584294
80	0x3d8cac35	0.068687834
81	0xbbd06b3f	-0.006360441
82	0x3dea14d2	0.114297524
83	0xbdceba8b	-0.10094174
84	0xbe498de8	-0.19683039
85	0xbe8cf137	-0.27527782
86	0x3e1a4d6b	0.15068595
87	0xbc1b8dba	-0.009494239
88	0x3d8cc56e	0.06873594
89	0x3ce3a389	0.02778794
90	0xbdd5ff31	-0.104490645
91	0x3d6a4858	0.0571979
92	0x3cc033f5	0.023462275
93	0xbc07d19b	-0.00828972
94	0xbd8ac882	-0.06776525
95	0x3bde10b3	0.006776893
96	0x3da2d818	0.07951373
97	0xbd108939	-0.035287116
98	0xbc29d08a	-0.010364661
99	0x3dd04940	0.10170221
100	0xbd8f4d27	-0.069971375
101	0xbae5919e	-0.0017514711
102	0x3d6c76e8	0.057730585
103	0xbe52e734	-0.2059601
104	0xbdeab4e0	-0.114602804
105	0x3e2f2f42	0.17107871
106	0x3dcc4b30	0.099752784
107	0x3d67e19c	0.056611642
108	0xbda4ea69	-0.08052523
109	0xbd6953fc	-0.05696486
110	0xbe0b8073	-0.13623218
111	0x3dc01772	0.09379472
112	0xbe049ad4	-0.12949687
113	0x3e06c1cb	0.13159864
114	0x3dc5bf3e	0.09655617
115	0x3d86abbe	0.06575726
116	0x3dfa8272	0.12231912
117	0x3e3ec6bd	0.186305
118	0xbd05991b	-0.032616716
119	0xbe4b085a	-0.19827405
120	0x3e4287ef	0.18997167
121	0xbe9607c2	-0.29302794
122	0x3de534b1	0.11191691
123	0xbd41ca62	-0.047312148
124	0xbd80fc89	-0.06298167
125	0x3e288e51	0.1646054
126	0x3ded79e2	0.11595513
127	0x3da8aef4	0.08236495
128	0xbd56ce2f	-0.052442726
129	0x3d6046c4	0.054754987
130	0x3e2880aa	0.16455331
131	0xbd44eda2	-0.048078187
132	0xbd0314b3	-0.032002162
133	0xbdb7a47e	-0.08966921
134	0x3d5a714c	0.053330705
135	0x3d7325be	0.059362166
136	0xbd2f33ed	-0.04277413
137	0x3e0573dd	0.1303248
138	0xbd99ddff	-0.075130455
139	0xbd1eef08	-0.038802177
140	0xbdc4d363	-0.09610631
141	0xbd61d66e	-0.055136137
142	0xbc8dd18a	-0.01731183
143	0xbd840b00	-0.064474106
144	0xbd984bc6	-0.07436328
145	0x3e17817f	0.14795493
146	0x3df92e00	0.12166977
147	0xbd45414e	-0.048157983
148	0x3ddb0549	0.106943674
149	0xbe0e946f	-0.1392381
150	0xbd1dc4bd	-0.038517702
151	0x3ddd8b3d	0.10817573
152	0x3de438f8	0.111436784
153	0x3e093244	0.13398081
154	0xbd0d07de	-0.03443133
155	0xbde1e9ff	-0.11030959
156	0xbd8b2e7b	-0.06795975
157	0x3db5bd0d	0.08873949
158	0x3d7d4661	0.061834697
159	0xbe0b2e28	-0.13591826
160	0xbd95cc61	-0.07314373
161	0x3cce4bd9	0.025182651
162	0xbd8b283a	-0.06794782
163	0x3e32762d	0.17427893
164	0x3cdfb150	0.027306229
165	0x3e1bf2ee	0.15229389
166	0xbd38c66d	-0.04511111
167	0xbe10e2f6	-0.14149079
168	0xbded1443	-0.1157613
169	0x3da391af	0.07986771
170	0xbdbf14cd	-0.09330139
171	0x3c6513bf	0.013981759
172	0x3c9fe91c	0.019520335
173	0x3ce6fc28	0.02819641
174	0xbd824e16	-0.0636255
175	0xbcbc74ee	-0.023004975
176	0xbc01d6bd	-0.007924733
177	0xbcc1a56c	-0.02363845
178	0xbce328a5	-0.027729342
179	0xbe17f2b8	-0.14838684
180	0x3dd27a86	0.10277276
181	0x3dffb7d9	0.12486238
182	0xbd992c5a	-0.074791625
183	0x3d686fc3	0.05674721
184	0x3dd8907c	0.10574433
185	0x3d4af299	0.049547765
186	0x3d598f2d	0.05311506
187	0xbd69b9f9	-0.057062123
188	0xbbf41175	-0.00744837
189	0x3d87b057	0.06625431
190	0x3e036b1e	0.1283383
191	0x3ddbc2da	0.10730524
192	0xbe768c88	-0.24077046
193	0xbcf58f8f	-0.02997568
194	0x3e5797b0	0.21053958
195	0xbe4c8657	-0.19973122
196	0x3d7bb6c9	0.061453614
197	0xbd1e5b92	-0.038661547
198	0x3e0f78f7	0.14010988
199	0x3eb4373a	0.35198385
200	0x3bc1a922	0.005910055
201	0x3cb5b6c2	0.022181872
202	0xbd9870e7	-0.074434094
203	0x3e779c2b	0.24180667
204	0x3db2110d	0.086946584
205	0x3d6ac3d6	0.05731567
206	0xbda6ca9c	-0.081441134
207	0xbc9a1054	-0.018806614
208	0x3e8e00c3	0.27734956
209	0xbe232d6f	-0.159353
210	0x3dff56fc	0.12467763
211	0x3c862731	0.01637611
212	0xbe70c442	-0.23512366
213	0x3d4f7971	0.050652925
214	0x3e976a94	0.295735
215	0x3e262bd4	0.16227657
216	0x3d88c782	0.06678678
217	0x3d934931	0.071916945
218	0x3dc3ab2d	0.095541336
219	0x3e6bdf19	0.23034324
220	0x3dddad04	0.10824016
221	0xbd87f24d	-0.06638012
222	0xbd867d14	-0.065668255
223	0x3d7232d6	0.059130512
224	0x3e13ab24	0.14420754
225	0xbe921df7	-0.28538486
226	0xbc84f4bd	-0.016229982
227	0x3ccc82de	0.024964746
228	0xbe0f0397	-0.13966213
229	0xbbd0ff19	-0.0063780663
230	0xbe8738f0	-0.26410627
231	0x3cb3e54c	0.021959923
232	0xbdffcfd3	-0.12490811
233	0x3db49dae	0.088191375
234	0x3e7ce43d	0.24696441
235	0x3cc1d154	0.023659386
236	0x3dd20b73	0.1025609
237	0x3e1ba16e	0.151983
238	0x3e43b584	0.19112211
239	0x3e1912f8	0.14948642
240	0xbe3862b9	-0.1800641
241	0x3cb77068	0.022392467
242	0x3e820a63	0.2539855
243	0x3e8126bb	0.25224862
244	0x3e2f470e	0.17116949
245	0x3de08a4c	0.10963878
246	0x3e2d8409	0.16944899
247	0xbec723e3	-0.38894567
248	0x3e2d1836	0.16903767
249	0xbe873183	-0.26404962
250	0xbcf993d1	-0.030465992
251	0x3e032258	0.1280607
252	0xbde49972	-0.1116208
253	0xbd2ee015	-0.04269417
254	0x3e4069c2	0.18790343
255	0xbc801fa9	-0.015640097

lstm.bias_ih_l1 f4 [256]
0	0xbdcd4b1b	-0.10024091
1	0xbe20e4cb	-0.15712278
2	0xbe13c761	-0.14431526
3	0xbc3b0e4c	-0.011416983
4	0xbdd64120	-0.1046164
5	0x3d453d32	0.048154064
6	0xbcb4cdbe	-0.022070762
7	0xbaaf44c2	-0.0013371932
8	0x3da2c383	0.07947447
9	0xbe0a01c5	-0.13477238
10	0x3cd869bf	0.026417611
11	0x3cd18cec	0.025579892
12	0xbd78202d	-0.06057756
13	0xbd11a603	-0.03555871
14	0xbe5a6505	-0.21327598
15	0xbe1d6489	-0.15370382
16	0x3d9f5790	0.07780373
17	0xbe1a2794	-0.1505416
18	0xbcc7e5cb	-0.024401566
19	0xbe62dfee	-0.22155735
20	0xbddf8ee1	-0.10915924
21	0xbe4e0bff	-0.20121764
22	0xbce343a6	-0.027742218
23	0xbe29144f	-0.16511653
24	0xbd838b1d	-0.06423018
25	0xbe329571	-0.1743982
26	0xbe1eab8d	-0.15495129
27	0xbe3b4585	-0.18288238
28	0xbe3a39ea	-0.18186155
29	0xbeb24641	-0.34819224
30	0xbe66c4a1	-0.22535945
31	0xbe759e74	-0.23986226
32	0xbe72f252	-0.2372525
33	0xbddd1bbc	-0.107963055
34	0xbd530fb2	-0.05152864
35	0x3d802bd8	0.062583625
36	0x3e73ed8f	0.2382109
37	0x3db44a63	0.08803251
38	0xbe52749f	-0.205523
39	0xbd362307	-0.044467
40	0xbeaee9a6	-0.34162635
41	0xbdf75477	-0.12076657
42	0xbe227300	-0.15864182
43	0xbde70407	-0.11280065
44	0xbde9d124	-0.114168435
45	0xbe477477	-0.19478022
46	0xbe24a87c	-0.16079897
47	0xbdcab56c	-0.09897885
48	0x3d8dc5cc	0.069224924
49	0xbdaea837	-0.08528178
50	0xbe5f6e54	-0.2181943
51	0xbd3a5f43	-0.045501005
52	0x3d29c61b	0.041448694
53	0x3c0e798c	0.008695971
54	0xbe2932cc	-0.16523284
55	0x3d77e73e	0.060523264
56	0xbe0cba9f	-0.13743065
57	0xbd3852e8	-0.04500094
58	0xbdb685a9	-0.089122124
59	0xbe24420d	-0.16040821
60	0xbe2ab7c5	-0.16671665
61	0x3c0e39a3	0.008680734
62	0x3d3f6a11	0.046732012
63	0xbe574cfb	-0.2102546
64	0xbdf6feab	-0.12060293
65	0x3d14b4ef	0.036305364
66	0xbccad3c6	-0.024759185
67	0x3e189a98	0.14902723
68	0xbdd1b261	-0.10239101
69	0xbdec4551	-0.115366586
70	0xbd05e849	-0.032692228
71	0x3be94ba1	0.0071196114
72	0x3cbec95b	0.023289373
73	0x3ca7a8e5	0.020466277
74	0xbe300349	-0.17188753
75	0xbda68660	-0.08131099
76	0xbcd1f65d	-0.02563017
77	0x3e0b5def	0.13610052
78	0xbe524c75	-0.20536979
79	0xbcd57c04	-0.026060112
80	0xbe0c000f	-0.13671897
81	0x3d484b68	0.048900038
82	0x3df554d4	0.1197907
83	0xbe0ff543	-0.14058404
84	0xbe231883	-0.15927319
85	0xbe062f23	-0.13103919
86	0x3dabd252	0.08389725
87	0xbd85a408	-0.06525427
88	0x3dc44567	0.0958355
89	0x3bcb1c00	0.006198406
90	0xbd75e18a	-0.060029544
91	0xbd1af9f1	-0.03783602
92	0xbdc4a0da	-0.096009925
93	0xbe6f7900	-0.23386002
94	0xbda2e468	-0.07953721
95	0xbdb20624	-0.086925775
96	0xbdb3609a	-0.0875866
97	0x3cccff1f	0.025023995
98	0x3c666bb6	0.014063766
99	0x3d2dd1f7	0.042436566
100	0x3db747b9	0.08949227
101	0x3cbf31d0	0.023339182
102	0xbdb175a0	-0.08665013
103	0xbde21bec	-0.11040482
104	0xbe43156b	-0.19051139
105	0xbe74aeba	-0.23894778
106	0xbe3f0fde	-0.18658397
107	0xbd5095e8	-0.05092421
108	0xbd711521	-0.05885804
109	0x3d684c48	0.056713372
110	0xbe821acf	-0.25411078
111	0xbdc0bd8d	-0.09411154
112	0x3db50d6c	0.08840451
113	0xbe432095	-0.19055398
114	0xbe2bb061	-0.16766502
115	0xbe54a9f7	-0.20767961
116	0xbdb2ddfb	-0.08733746
117	0xbbabc594	-0.005242059
118	0xbdd29c19	-0.102836795
119	0xbdae4b55	-0.08510462
120	0xbd73612c	-0.059418842
121	0xbc9541ba	-0.018219817
122	0x3be05fa8	0.0068473406
123	0xbca8a795	-0.020587722
124	0xbe03fd95	-0.12889703
125	0xbe414252	-0.18872955
126	0x3cd9510e	0.026527908
127	0xbb25e1ac	-0.0025311513
128	0x3dd9fb85	0.10643677
129	0xbcf1f1e9	-0.029534297
130	0x3d97c6af	0.07410943
131	0xbde4ca37	-0.11171382
132	0xbe166477	-0.14686762
133	0x3cb7ff9b	0.02246075
134	0x3d061bc7	0.032741334
135	0xbd1f3e96	-0.038878046
136	0xbe07af37	-0.13250433
137	0xbcdc8db5	-0.02692304
138	0x3d71cb16	0.05903157
139	0xbdb4a610	-0.088207364
140	0x3df3d19c	0.11905214
141	0x3ce785b2	0.028261993
142	0xbdd7c9b4	-0.10536519
143	0xbdf1fe16	-0.11816041
144	0x3b10d431	0.0022099132
145	0x3d9bd617	0.07609194
146	0xbdd1e7a9	-0.10249264
147	0x3d7fc198	0.062440485
148	0x3e0bd6f4	0.13656217
149	0xbd81e80b	-0.06343087
150	0xbdb33614	-0.08750549
151	0xbb9a2094	-0.0047035906
152	0x3de7c423	0.11316707
153	0xbd0eabbb	-0.034831744
154	0x3e183f47	0.14867888
155	0x3dc73434	0.09726754
156	0xbd9faed1	-0.077970155
157	0xbd9492b0	-0.07254541
158	0xbd7060aa	-0.058685936
159	0x3dda9302	0.10672571
160	0x3da7bdcd	0.081904985
161	0x3ddd5fec	0.10809311
162	0x3d84f385	0.0649176
163	0x3d52ce10	0.051466048
164	0xbdffc72b	-0.1248916
165	0xbb92a936	-0.004475738
166	0xbdb19765	-0.08671454
167	0x3d7ada2b	0.061243217
168	0xbda99a18	-0.08281344
169	0xbe25b274	-0.16181356
170	0xbdbd938f	-0.0925666
171	0xbcc348fd	-0.023838514
172	0x3c7517e5	0.01495931
173	0x3d80c2e6	0.06287174
174	0xbd8aa85f	-0.067703955
175	0xbd3b8aaf	-0.045786556
176	0x3b554e4a	0.0032547885
177	0xbc3b6fff	-0.011440276
178	0x3d2f69bd	0.04282545
179	0x3db421dd	0.087955214
180	0xbd38c0ab	-0.045105617
181	0x3740139c	1.14486575e-05
182	0xbb83974d	-0.004015839
183	0x3d89164f	0.06693708
184	0xbde44978	-0.111468256
185	0x3e172e70	0.14763808
186	0xbd22c358	-0.039737076
187	0xbc923828	-0.017849043
188	0x3d665a8f	0.056238707
189	0xbc93a125	-0.018021176
190	0x3e0d1dd6	0.13780913
191	0x3c15afb4	0.009136129
192	0x3d856b4a	0.065146044
193	0xbe47e579	-0.1952113
194	0xbdf6fdf2	-0.12060155
195	0xbd106f67	-0.03526249
196	0xbda06761	-0.07832218
197	0xbe226282	-0.1585789
198	0xbd54a378	-0.05191371
199	0xbe17d4f9	-0.14827336
200	0xbd8009ea	-0.06251891
201	0xbe05362e	-0.13008949
202	0xbe8fa256	-0.2805354
203	0x3c1dce29	0.009631672
204	0xbd549c7d	-0.05190705
205	0xbdc6d142	-0.097078815
206	0xbe556d07	-0.20842372
207	0xbd030a6f	-0.031992372
208	0xbdb23be0	-0.087028265
209	0xbe3fcdd7	-0.18730865
210	0xbca75c4f	-0.020429758
211	0xbc53fd2a	-0.012938777
212	0xbd9196c8	-0.07108837
213	0xbe2c9c54	-0.1685651
214	0xbd889056	-0.06668155
215	0xbe59b476	-0.21260247
216	0x3c18db2b	0.0093295975
217	0xbcbdc247	-0.023163928
218	0xbcd7abbb	-0.026327005
219	0xbe6c727d	-0.23090549
220	0xbda3baa4	-0.07994583
221	0xbe512c75	-0.20427115
222	0xbddc6cc0	-0.1076293
223	0xbe785757	-0.24252068
224	0xbe03fcc5	-0.12889393
225	0xbe0c2458	-0.13685739
226	0xbdd29ead	-0.10284171
227	0x3cb8bed5	0.022551933
228	0xbda8663b	-0.08222624
229	0xbd835b93	-0.06413951
230	0xbda85fe0	-0.08221412
231	0xbdae4fd7	-0.08511322
232	0xbe3ea4ee	-0.18617603
233	0xbe526857	-0.20547615
234	0xbdc2f016	-0.09518449
235	0xbe0f49ae	-0.1399295
236	0xbe1112d8	-0.14167345
237	0xbde37038	-0.111053884
238	0xbe362a3c	-0.17789549
239	0xbdd4f8bc	-0.10399005
240	0xbdf3dbe0	-0.11907172
241	0xbdeb334e	-0.11484395
242	0xbe27df58	-0.16393793
243	0xbe3bab1d	-0.18326993
244	0xbd511098	-0.051041216
245	0xbe33a156	-0.17542014
246	0xbe68e6d6	-0.22744307
247	0xbac6cd62	-0.001516741
248	0xbe11c333	-0.14234619
249	0x3d0e7589	0.03478006
250	0xbdcd304a	-0.10018976
251	0xbe291ac7	-0.16514121
252	0x3d0d12f2	0.034441896
253	0xbe2a6987	-0.16641818
254	0xbd539948	-0.051659852
255	0xbdfd2d52	-0.1236216
