assets/snapshots/P2_minmax_global_mlp.pth (torch, 52437 bytes, 6 tensors)

net.0.weight f4 [128, 30]
-0.01704626 0.041779418 0.003430705 -0.19758406 -0.015148118 -0.1597359 -0.079320565 -0.122060075
0.10478573 0.122284874 0.14817868 0.20273323 0.27507737 0.059984062 0.2843336 0.31034386
0.042820975 0.11282825 0.19539866 -0.018559072 -0.118608765 -0.2709857 -0.0525483 -0.04121376
0.009992609 -0.15072519 -0.3371481 -0.22548395 -0.033787034 -1.0913945 0.055575885 0.052319776
0.25438535 -0.042971987 0.2855269 0.15435171 -0.04404621 -0.090916336 -0.08494185 -0.12693417
-0.051657774 0.025639264 -0.28078067 -0.250162 -0.10641644 0.23042426 -0.22201248 0.16393757
-0.1536586 0.2001218 -0.17774633 -0.10981762 0.11397448 0.13595662 -0.050183468 0.1711421
-0.046169247 -0.14192784 0.2379298 1.0451502 -0.1661821 -0.058867984 0.01401423 -0.17843154
-0.08499767 0.092926554 0.026532495 -0.0007915842 -0.011979407 0.032580547 -0.07879384 0.116726585
0.012376012 -0.0949022 -0.06536687 0.16244763 0.11725745 0.053218484 0.043286998 0.038653214
0.023226988 -0.16004653 0.08399329 -0.11993321 -0.02708493 -0.04149984 0.076062046 -0.15875636
0.08229615 -0.047931757 0.014632049 -0.05070676 0.09113812 -0.054923896 -0.060749393 0.11415421
-0.026531024 0.00570271 -0.21991186 0.14462216 -0.27061304 0.09535233 -0.1084598 -0.21694116
-0.42380401 0.2013745 -0.048961326 0.06281998 0.047978695 0.19887878 0.007757211 0.0656014
0.11841042 0.15616065 0.016487263 0.19464779 -0.101230845 0.06678196 0.11179215 0.17633308
0.17657681 0.026559506 0.1969152 -0.17773622 0.09997913 -0.03227934 0.066455424 -0.20956868
0.09957103 -0.1079219 -0.09812226 -0.07946793 -0.0824349 -0.059554152 0.021820402 -0.07454388
-0.29346856 0.0604032 0.058033817 -0.18474449 0.13534671 0.16769136 -0.055573482 -0.013174574
0.19841558 -0.065111436 -0.3321163 0.17781092 0.19367298 0.53068095 -0.11054579 0.024935197
-0.035834093 -0.095027 -0.009897903 -0.123249575 0.093062535 -0.10868619 -0.04785578 -0.028526433
0.018498335 -0.07307052 -0.161882 -0.02845659 0.006753471 -0.0441135 -0.07477192 0.14245017
-0.17441252 0.16761844 0.08316365 -0.17515707 -0.121393524 0.048913296 0.046087716 0.140842
0.0017787069 -0.18210466 0.015262992 -0.049721394 -0.075178325 -0.067005515 0.03952863 0.014165666
0.20233269 0.05069812 0.19992244 0.027910467 -0.016723536 -0.20731808 -0.07219354 0.48568565
0.060552884 0.0464175 0.09633405 -0.20174852 -0.039210424 0.042978365 -0.41796392 0.06570527
0.009171578 0.20140752 -0.058744717 -0.06986583 0.116948865 -0.25364983 -0.1532116 0.10741952
-0.03198508 0.7954408 0.00803168 0.06357979 -0.050608363 -0.11835399 -0.13086149 -0.1424128
0.07135458 -0.006822182 0.17486817 -0.0801737 -0.1280291 0.04031933 -0.12661035 0.1824423
-0.06417394 -0.06786233 0.03669475 0.05335603 0.080165714 -0.085499465 -0.0762589 0.15894218
-0.16554374 -0.10233788 -0.16481288 -0.08839765 0.043149393 0.07496268 -0.09088843 -0.12877525
-0.07940855 -0.022129789 0.07721766 -0.023409873 -0.10487577 0.08451295 0.11438638 0.05264225
0.078186214 -0.16352041 0.13426903 -0.20049141 -0.008877729 -0.18242879 0.49487168 -0.0074389754
00000000: 99a4 8bbc e520 2b3d aed5 603b 7a53 4abe
00000010: d02f 78bc cf91 23be d272 a2bd a2fa f9bd
00000020: e799 d63d 7e70 fa3d 27bc 173e 4d99 4f3e
00000030: f1d6 8c3e d9b1 753d 2c94 913e 64e5 9e3e
00000040: 0c65 2f3d 7f12 e73d 9616 483e 3209 98bc
00000050: 27e9 f2bd a3be 8abe e33c 57bd c2cf 28bd
00000060: 0ab8 233c b457 1abe ad9e acbe 44e5 66be
00000070: 4664 0abd d1b2 8bbf 8aa3 633d 434d 563d
00000080: cc3e 823e 6503 30bd 9530 923e 600e 1e3e
00000090: cc69 34bd 5832 babd fef5 adbd 08fb 01be
000000a0: 1a97 53bd 6f09 d23c 7cc2 8fbe 3c15 80be
000000b0: ddf0 d9bd 56f4 6b3e 3d57 63be 40df 273e
000000c0: ae58 1dbe bbec 4c3e 2203 36be 0fe8 e0bd
000000d0: 746b e93d 3638 0b3e 2e8d 4dbd e03f 2f3e
000000e0: f71b 3dbd 8855 11be dfa3 733e 7bc7 853f
000000f0: a42b 2abe 8e1f 71bd f19b 653c c2b6 36be
00000100: 4213 aebd 4750 be3d ad5a d93c 5182 4fba
00000110: 4645 44bc 2e73 053d aa5e a1bd 590e ef3d
00000120: c2c4 4a3c 165c c2bd 11df 85bd ac58 263e
00000130: ad24 f03d a0fb 593d b54d 313d d552 1e3d
00000140: 8646 be3c 3de3 23be ad04 ac3d 8b9f f5bd
00000150: 37e1 ddbc bcfb 29bd 6bc6 9b3d 0791 22be
00000160: e28a a83d 1754 44bd 43bb 6f3c e4b1 4fbd
00000170: 9fa6 ba3d e1f7 60bd 5bd4 78bd afc9 e93d
00000180: 9757 d9bc ccdd ba3b 9330 61be d517 143e
00000190: cb8d 8abe 1548 c33d 2c20 debd d325 5ebe
000001a0: d7fc d8be 1e35 4e3e ac8b 48bd c3a7 803d
000001b0: 4f85 443d e1a6 4b3e 3430 fe3b 075a 863d
000001c0: 2a81 f23d 94e8 1f3e 4c10 873c c051 473e
000001d0: 1e52 cfbd fbc4 883d 48f3 e43d a990 343e
000001e0: 8dd0 343e 5293 d93c 23a4 493e 7c00 36be
000001f0: dcc1 cc3d 5737 04bd c819 883d 2c99 56be
00000200: e5eb cb3d 2806 ddbd 53f4 c8bd 15c0 a2bd
00000210: a1d3 a8bd 0eef 73bd b3c0 b23c 76aa 98bd
00000220: 8341 96be 5969 773d deb4 6d3d a92d 3dbe
00000230: 5498 0a3e 49b7 2b3e 05a1 63bd 2bda 57bc
00000240: 742d 4b3e 2559 85bd 260b aabe 1114 363e
00000250: 3652 463e b5da 073f d565 e2bd e644 cc3c
00000260: c5c6 12bd 849d c2bd d02a 22bc 466a fcbd
00000270: 9297 be3d dd96 debd 6c04 44bd 44b0 e9bc
00000280: d289 973c ffa5 95bd 65c4 25be cb1d e9bc
00000290: 394c dd3b 5bb0 34bd 0522 99bd 75de 113e
000002a0: 3299 32be 2ba4 2b3e b451 aa3d 605c 33be
000002b0: 2b9d f8bd 4f59 483d 79c6 3c3d e338 103e
000002c0: 8023 e93a a579 3abe a111 7a3c a9a8 4bbd
000002d0: 18f7 99bd 303a 89bd c6e8 213d 1c17 683c
000002e0: 4d30 4f3e d5a8 4f3d 78b8 4c3e 7ea4 e43c
000002f0: ccff 88bc 314b 54be 35da 93bd caab f83e
00000300: 4d06 783d 4720 3e3d c94a c53d 2a97 4ebe
00000310: 1c9b 20bd 150a 303d 5eff d5be 7c90 863d
00000320: 6344 163c c63d 4e3e 4d9e 70bd d115 8fbd
00000330: e382 ef3d 64de 81be 80e3 1cbe c4fe db3d
00000340: ca02 03bd 02a2 4b3f 4f97 033c 1f36 823d
00000350: b74a 4fbd 9463 f2bd 8e00 06be a9d4 11be
00000360: 5a22 923d 9c8c dfbb a410 333e 1c32 a4bd
00000370: 0f1a 03be e225 253d 25a6 01be 27d2 3a3e
00000380: a06d 83bd 68fb 8abd 3c4d 163d da8b 5a3d
00000390: ec2d a43d 581a afbd a02d 9cbd bdc1 223e
000003a0: 4c84 29be 8696 d1bd b5c4 28be d409 b5bd
000003b0: 6bbd 303d 0986 993d b723 babd a9dd 03be
000003c0: f3a0 a2bd 8849 b5bc 4b24 9e3d 10c6 bfbc
000003d0: 1cc9 d6bd 2015 ad3d 6843 ea3d 669f 573d
000003e0: 1820 a03d e571 27be d27d 093e 9f4d 4dbe
000003f0: e573 11bc 9dce 3abe d25f fd3e a6c2 f3bb

net.0.bias f4 [128]
-0.112216644 0.051651783 -0.048582062 -0.0051587676 -0.04863115 0.05746339 0.13634661 -0.08088312
-0.13531359 -0.038014073 -0.1324105 0.093540266 0.008942244 -0.13415767 -0.13899624 0.14879988
0.2035591 0.04704562 0.016083049 -0.15184733 -0.011779919 0.040225074 0.06300684 0.12395451
0.18940265 -0.026995307 0.032536548 -0.17270188 -0.15911764 0.055215 -0.042728648 -0.06324288
-0.14845836 -0.013108266 -0.060690057 -0.028678067 0.17901124 -0.12385219 -0.19930427 0.02798615
-0.10240666 -0.047557667 -0.028436486 -0.15982793 0.15981908 -0.0075150053 -0.10170906 0.0149224205
-0.106015995 0.09040806 0.004262976 -0.02562644 0.11205092 -0.033684324 -0.10251961 -0.17206329
-0.08594882 0.08173577 0.008283362 -0.13926823 0.1192274 0.01306492 -0.22837703 -0.13084443
0.10052304 -0.007478292 0.16190635 -0.09599763 -0.15723161 -0.0104632145 0.09061881 -0.12913364
0.08935155 -0.14472938 -0.11401596 -0.13722907 -0.043137293 -0.064910434 0.060217958 -0.17111021
-0.15484491 -0.16465297 0.12828426 -0.25228775 -0.11183557 -0.1972534 -0.03186815 0.061776634
-0.10527315 -0.06971806 -0.102089 -0.1943436 0.008080496 -0.0021598586 -0.008524212 -0.18336815
-0.09928782 0.044432774 -0.11491039 0.16401383 0.08416679 0.057494223 -0.035119403 -0.1626482
-0.16129032 -0.1331058 0.15919909 0.07887498 0.11706166 -0.01063357 -0.056873843 0.059322014
0.14730288 0.13101773 -0.09070224 -0.11454642 0.07666434 0.09651266 0.08939009 0.14492826
-0.10198035 -0.16157147 0.052804083 0.028207231 -0.007766309 -0.045066632 0.14482 0.04766259
00000000: d7d1 e5bd d290 533d fcfd 46bd e10a a9bb
00000010: 7531 47bd bb5e 6b3d 729e 0b3e 0da6 a5bd
00000020: a58f 0abe a5b4 1bbd 9e96 07be 0a92 bf3d
00000030: 7d82 123c a160 09be 0855 0ebe ff5e 183e
00000040: cc71 503e e8b2 403d 99c0 833c de7d 1bbe
00000050: 9000 41bc 0cc3 243d bb09 813d dddb fd3d
00000060: c5f2 413e 4325 ddbc 0b45 053d c3d8 30be
00000070: bcef 22be 2029 623d 3c04 2fbd 7c85 81bd
00000080: 7805 18be 0dc4 56bc 2396 78bd 44ee eabc
00000090: b94e 373e 38a6 fdbd 6b16 4cbe 3643 e53c
000000a0: 95ba d1bd d4cb 42bd a2f3 e8bc efa9 23be
000000b0: 9da7 233e 6f40 f6bb d74c d0bd 2b7d 743c
000000c0: ea1e d9bd dc27 b93d 6fb0 8b3b 8aee d1bc
000000d0: f47a e53d 93f8 09bd cdf5 d1bd 5c31 30be
000000e0: ef05 b0bd 1565 a73d f0b6 073c 559c 0ebe
000000f0: 7f2d f43d 3f0e 563c abdb 69be 15fc 05be
00000100: 06df cd3d 760c f5bb c7ca 253e 689a c4bd
00000110: 5301 21be e76d 2bbc 5b96 b93d 9c3b 04be
00000120: f2fd b63d f033 14be 3381 e9bd c785 0cbe
00000130: bbb0 30bd c3ef 84bd 1ba7 763d 8437 2fbe
00000140: aa8f 1ebe ca9a 28be f35c 033e dc2b 81be
00000150: 0c0a e5bd ccfc 49be 2d88 02bd 7f09 7d3d
00000160: 7399 d7bd 58c8 8ebd 0a14 d1bd 0202 47be
00000170: 0f64 043c 6a8c 0dbb 23a9 0bbc dcc4 3bbe
00000180: 6a57 cbbd 24ff 353d 2356 ebbd 3ef3 273e
00000190: a35f ac3d 107f 6b3d 5dd9 0fbd 408d 26be
000001a0: 4a29 25be e34c 08be 1605 233e 3589 a13d
000001b0: 06be ef3d 6d38 2ebc 8cf4 68bd a4fb 723d
000001c0: 91d6 163e 8329 063e 19c2 b9bd 5097 eabd
000001d0: 3202 9d3d 6ea8 c53d 2712 b73d 1368 143e
000001e0: 13db d0bd fe72 25be 1849 583d da12 e73c
000001f0: 867c febb ca97 38bd b24b 143e d939 433d

net.3.weight f4 [64, 128]
-0.55483294 0.0454063 0.009525384 0.12599942 0.043517806 -0.022275304 0.10319632 0.088373154
0.13055354 -0.023587957 -0.17989808 0.007954689 -0.07044422 -0.16977754 -0.07888245 -0.025174929
0.29276755 -0.0030247318 0.08232941 -0.025847808 -0.32655627 0.20548466 -0.14199942 0.001670859
0.17733307 0.0041093635 0.024766805 0.062162302 -0.023064697 -0.022388574 0.020927148 0.042418662
0.04960754 -0.13627116 -0.029359208 0.1038708 0.039949328 -0.0050345873 0.03354056 0.041134886
-0.053965054 -0.9148285 0.037260387 -0.0278611 0.34639186 -0.074384294 -0.040018834 0.085402116
-0.112643085 0.09074992 0.08791868 -0.8467046 0.22363327 -0.02393272 0.05554917 0.05386209
-0.09439804 -0.06295904 -0.12032657 -0.55522543 -0.03352753 0.08404167 -0.56271005 -0.1579409
0.09991983 -0.277853 -0.023853008 -0.039703712 -0.1327721 -0.076952234 -0.07082396 -0.14032133
-0.075076 0.19326222 -0.066808335 0.07196648 -0.037822664 -1.0209554 0.17880638 -0.012990385
-0.40294152 -1.1036087 -0.039673883 -0.29748225 -0.6415259 -0.24531443 0.08915026 -0.17403269
-0.45043558 -0.23751757 -0.01020273 -1.1858888 -0.09955988 -0.0026175287 0.08392789 -0.86962134
0.004908801 -0.19040532 -0.14336872 0.27717808 0.0525302 0.06405721 0.04608718 -0.05417088
0.051976446 0.020845389 0.15571097 0.2935868 0.038203236 0.02978051 0.08459354 -0.01957999
-0.02829813 0.044979412 -0.64629024 0.006220685 0.18616374 0.016713573 0.0741941 -0.11873628
-0.5291025 0.018357081 -0.054799557 -0.99809265 -0.14010136 -0.19871786 0.18922585 0.13746276
-0.71550494 0.11335439 -0.012154651 0.16716884 0.11650102 -0.00079669134 0.116773 -0.02640931
0.23459372 -0.05411788 -0.35026008 -0.08605004 0.06323627 -0.112405315 0.006180469 0.10569523
0.30084684 0.014711199 0.054228008 -0.072669625 -0.3740685 0.27023318 -0.14929365 -0.036679715
0.33066294 -0.12512127 0.10478197 0.013897628 0.056131344 -0.010473955 0.045687012 0.018430758
-0.17024252 0.1057875 -0.01707636 -0.1142464 0.09703033 -9.242654e-05 -0.056389373 0.19453652
-0.055357177 -1.1939422 0.08064227 0.057753142 0.42788735 -0.054781824 -0.010805029 -0.061343726
-0.18932082 0.16798955 0.16488715 -0.99723107 0.27333835 0.074206404 0.017978054 -0.01911892
-0.04265129 -0.016154781 -0.25287065 -0.68670684 0.061209068 -0.05736665 -0.69666785 -0.15434763
0.10237432 -0.40635395 -0.010597178 -0.0033186849 -0.3997758 0.08337864 0.046027023 -0.26418266
-0.04903966 0.15283237 -0.018042767 0.051804684 0.06251765 -0.99629647 0.287127 -0.04328927
-0.522792 -1.2690585 0.014223198 -0.41186872 -0.739431 -0.1557412 0.0862547 -0.2334511
-0.57543164 -0.28202114 -0.007923228 -1.4144857 -0.010199614 -0.0103277275 -0.08555747 -0.8725891
0.0083075445 -0.2703812 -0.16958964 0.36953396 0.04789478 0.24106959 0.21957007 -0.087430455
0.0019819392 -0.08804143 0.17935473 0.3097255 0.07622685 -0.0052529685 0.25674182 -0.010800567
-0.0077613518 0.05490671 -0.68905866 -0.08530861 0.15072057 0.11831578 0.029716222 0.09304434
-0.6349158 -0.07530094 0.042289764 -1.1459373 -0.25397724 -0.2378528 0.22314426 0.048816167
00000000: 8809 0ebf f5fb 393d 5b10 1c3c fe05 013e
00000010: ba3f 323d b37a b6bc 9858 d33d fcfc b43d
00000020: d4af 053e 883b c1bc 3437 38be 6254 023c
00000030: 0f45 90bd 2ada 2dbe 1f8d a1bd a73b cebc
00000040: a1e5 953e 943a 46bb 529c a83d c8be d3bc
00000050: 6232 a7be 926a 523e 4c68 11be ba00 db3a
00000060: cd96 353e d7a7 863b c1e3 ca3c e69d 7e3d
00000070: 2df2 bcbc 3e68 b7bc 696f ab3c 31bf 2d3d
00000080: 4731 4b3d ab8a 0bbe b982 f0bc 37ba d43d
00000090: e8a1 233d 2ef9 a4bb d461 093d 0e7d 283d
000000a0: 760a 5dbd 3332 6abf 599e 183d f63c e4bc
000000b0: 465a b13e cb56 98bd caea 23bd 4ee7 ae3d
000000c0: 6bb1 e6bd 18db b93d b50e b43d a2c1 58bf
000000d0: 1f00 653e 8d0e c4bc 8787 633d 7f9e 5c3d
000000e0: c253 c1bd abf0 80bd c76d f6bd 4123 0ebf
000000f0: 2a54 09bd 0a1e ac3d c40d 10bf 42bb 21be
00000100: c5a2 cc3d c042 8ebe 6267 c3bc 5ca0 22bd
00000110: 69f5 07be 2299 9dbd 270c 91bd 65b0 0fbe
00000120: 72c1 99bd 88e6 453e cfd2 88bd 2963 933d
00000130: f0eb 1abd abae 82bf 0519 373e a0d5 54bc
00000140: 5a4e cebe 0d43 8dbf 1581 22bd 984f 98be
00000150: 0b3b 24bf b533 7bbe 6994 b63d a035 32be
00000160: 7e9f e6be ce37 73be 5a29 27bc 34cb 97bf
00000170: 0de6 cbbd d88a 2bbb 63e2 ab3d 819f 5ebf
00000180: 02da a03b 9df9 42be 40cf 12be 49ea 8d3e
00000190: e829 573d 6d30 833d e9c5 3c3d 49e2 5dbd
000001a0: 41e5 543d f3c3 aa3c b272 1f3e 0251 963e
000001b0: ff7a 1c3d 42f6 f33c 613f ad3d 3766 a0bc
000001c0: 7bd1 e7bc 553c 383d 4773 25bf e3d6 cb3b
000001d0: b5a1 3e3e e7ea 883c 14f3 973d 022c f3bd
000001e0: 4373 07bf 9761 963c 8075 60bd 0083 7fbf
000001f0: bb76 0fbe b27c 4bbe 6cc4 413e 0ac3 0c3e
00000200: 552b 37bf 5926 e83d 4d24 47bc 4f2e 2b3e
00000210: 1698 ee3d 0dd9 50ba af26 ef3d 5658 d8bc
00000220: 5639 703e b6aa 5dbd 4a55 b3be 013b b0bd
00000230: 0482 813d c234 e6bd 8885 ca3b be76 d83d
00000240: 9908 9a3e 3e07 713c 301e 5e3d d0d3 94bd
00000250: e885 bfbe 015c 8a3e 6fe0 18be 783d 16bd
00000260: a74c a93e ca1f 00be ee97 d63d e0b2 633c
00000270: fbe9 653d f49a 2bbc 4e22 3b3d 1afc 963c
00000280: 0e54 2ebe 1ea7 d83d b9e3 8bbc 04fa e9bd
00000290: d6b7 c63d 1fd5 c1b8 8bf8 66bd 9534 473e
000002a0: 35be 62bd 19d3 98bf c627 a53d 8f8e 6c3d
000002b0: 0d14 db3e e862 60bd 9407 31bc 8f43 7bbd
000002c0: 51dd 41be 7405 2c3e 2dd8 283e 894a 7fbf
000002d0: 01f3 8b3e 87f9 973d b646 933c 489f 9cbc
000002e0: 1eb3 2ebd 0857 84bc 4378 81be 05cc 2fbf
000002f0: 5cb6 7a3d 4bf9 6abd d358 32bf 4e0d 1ebe
00000300: a1a9 d13d a00d d0be c99f 2dbc 4b7e 59bb
00000310: 6aaf ccbe 6cc2 aa3d d586 3c3d f342 87be
00000320: cfdd 48bd 1780 1c3e 6dce 93bc 2631 543d
00000330: 4109 803d 490d 7fbf 4f02 933e 1750 31bd
00000340: b2d5 05bf 8270 a2bf 6b08 693c 75e0 d2be
00000350: 5a4b 3dbf 9f7a 1fbe 4ea6 b03d ce0d 6fbe
00000360: 7d4f 13bf 1365 90be 6dd0 01bc de0d b5bf
00000370: 481c 27bc a135 29bc c138 afbd 0062 5fbf
00000380: 5e1c 083c 686f 8abe e8a8 2dbe 8e33 bd3e
00000390: 512d 443d f2da 763e fad6 603e bd0e b3bd
000003a0: 6ce3 013b 114f b4bd c4a8 373e 5794 9e3e
000003b0: d31c 9c3d 1821 acbb aa73 833e ddf4 30bc
000003c0: f052 febb dce5 603d 2666 30bf 48b6 aebd
000003d0: 7e56 1a3e 8b4f f23d 6f6f f33c 088e be3d
000003e0: d889 22bf 6137 9abd 0838 2d3d 13ae 92bf
000003f0: 4e09 82be af8f 73be ee7f 643e 76f3 473d

net.3.bias f4 [64]
0.05229583 0.076313004 0.006487927 0.051641475 0.03320076 0.055672843 -0.0827882 0.03342183
0.02630321 0.048199583 0.03853165 0.03243744 0.049619593 0.054366276 0.041152056 0.046397652
-0.00028537313 0.021690827 -0.008885958 0.047570463 0.037518553 0.03799531 0.055027932 0.053221554
0.06311469 0.062128104 0.035640378 0.043668356 0.036025494 0.073079005 0.05619626 0.05827359
0.033559207 0.029681906 -0.0067281574 0.030807082 0.01804672 0.06912511 0.027286535 0.032900214
0.02456961 0.017878005 -0.08817608 -0.009331264 0.028635586 0.052452277 0.050647456 0.03313252
0.07328174 0.061043452 0.04397398 -0.10190266 0.019214274 0.031512547 0.053203706 0.026400294
0.012635768 -0.0942749 0.062644124 0.052717824 -0.053696778 0.03855839 0.049239952 0.017630128
00000000: 2734 563d fe49 9c3d ad98 d43b 0386 533d
00000010: 85fd 073d 3509 643d dc8c a9bd 54e5 083d
00000020: d479 d73c ed6c 453d 5dd3 1d3d 1fdd 043d
00000030: ea3d 4b3d 2caf 5e3d 0f8f 283d 770b 3e3d
00000040: 229e 95b9 f6b0 b13c 6996 11bc 3fd9 423d
00000050: 0ead 193d f8a0 1b3d f864 613d d8fe 593d
00000060: 4642 813d 0a7a 7e3d a5fb 113d 97dd 323d
00000070: 788f 133d 72aa 953d 0d2e 663d 4ab0 6e3d
00000080: 6175 093d 7827 f33c e077 dcbb 225f fc3c
00000090: b7d6 933c 7791 8d3d 0388 df3c 60c2 063d
000000a0: 3546 c93c e574 923c a995 b4bd 28e2 18bc
000000b0: 2d95 ea3c 33d8 563d b573 4f3d f7b5 073d
000000c0: bd14 963d b308 7a3d 0f1e 343d 58b2 d0bd
000000d0: 4167 9d3c 4d13 013d 21ec 593d 6e45 d83c
000000e0: 4106 4f3c 3313 c1bd 904b 803d a5ee 573d
000000f0: 27f1 5bbd 67ef 1d3d d5af 493d 0f6d 903c

net.6.weight f4 [2, 64]
-0.74853665 -0.6262601 0.9923149 -0.6764828 1.4474808 -0.8136259 -0.101990625 1.1988966
1.2665248 -1.8192952 1.1055595 1.231259 -0.8190421 -0.7576793 1.076476 1.7737725
0.9542792 1.3157208 -0.054475036 1.2402952 1.5094873 1.5446436 -0.88699615 -1.6657633
-0.78632545 -0.7524365 1.3741767 -0.72904474 1.2394683 -0.73450565 -0.6070125 -0.91241914
1.2068164 1.604368 1.0396941 1.1116941 1.0492436 -0.7591405 0.9504981 1.5053691
1.6360364 0.97068423 -0.013284427 1.0771503 1.3407707 -0.73513216 -0.72739583 1.3737271
-0.8904456 2.3362744 -0.6468691 1.834197 0.8017112 1.2564216 -0.74372685 1.1202209
1.1011107 0.117642745 -0.6669194 -0.68845737 2.0209284 1.192907 -0.803835 1.2526149
0.72932243 0.66661537 -1.0351139 0.8377836 -1.3594701 0.90582407 -0.09779495 -1.1668386
-1.4288961 1.7719796 -1.2469069 -1.3126577 0.69439787 0.77655995 -1.0799025 -1.6070023
-1.011234 -1.1788433 -0.059471816 -1.298279 -1.4239838 -1.4834784 0.881428 1.71527
0.79346585 0.76733005 -1.3546162 0.755557 -1.2798511 0.69344777 0.7499401 0.8804092
-1.0646969 -1.47419 -1.1481208 -1.1559942 -1.1495773 0.80074596 -1.0924143 -1.5237919
-1.5568309 -0.87034667 -0.11966681 -1.0093348 -1.4056503 0.73892474 0.7334419 -1.4677881
0.7229375 -2.3508828 0.79139936 -1.8131618 -0.9925865 -1.3531276 0.67246544 -1.2620666
-1.1742833 -0.04337946 0.74027663 0.7560975 -1.9209671 -1.1985793 0.74010074 -1.3450332
00000000: 19a0 3fbf 9552 20bf 5908 7e3f fa2d 2dbf
00000010: 0d47 b93f c949 50bf 76e0 d0bd 7275 993f
00000020: 7c1d a23f aade e8bf f982 8d3f e599 9d3f
00000030: beac 51bf 45f7 41bf f7c9 893f fa0a e33f
00000040: a44b 743f 8a69 a83f 3721 5fbd fec1 9e3f
00000050: e136 c13f e2b6 c53f 2e12 63bf bb37 d5bf
00000060: a04c 49bf ae9f 40bf 06e5 af3f ada2 3abf
00000070: e6a6 9e3f 9008 3cbf 2c65 1bbf 4d94 69bf
00000080: f678 9a3f ee5b cd3f b214 853f fe4b 8e3f
00000090: 9d4d 863f 0857 42bf d853 733f efaf c03f
000000a0: a469 d13f c37e 783f eda6 59bc 10e0 893f
000000b0: 609e ab3f 9f31 3cbf 9d36 3abf 4ad6 af3f
000000c0: 3ef4 63bf 8585 1540 3799 25bf f8c6 ea3f
000000d0: f23c 4d3f 6cd2 a03f e264 3ebf 6663 8f3f
000000e0: 32f1 8c3f aeee f03d 3bbb 2abf be3e 30bf
000000f0: e456 0140 2db1 983f 21c8 4dbf af55 a03f
00000100: e0b4 3a3f 4ea7 2a3f 9d7e 84bf fc78 563f
00000110: 1e03 aebf 16e4 673f b848 c8bd f85a 95bf
00000120: 11e6 b6bf 3ad0 e23f a59a 9fbf 2b05 a8bf
00000130: 0fc4 313f a2cc 463f 3f3a 8abf 40b2 cdbf
00000140: 1e70 81bf 56e4 96bf b898 73bd 022e a6bf
00000150: 1a45 b6bf 9fe2 bdbf 44a5 613f f88d db3f
00000160: 9420 4b3f be6f 443f 1064 adbf 2f6c 413f
00000170: 29d2 a3bf cb85 313f 13fc 3f3f 7f62 613f
00000180: fd47 88bf 42b2 bcbf 9ff5 92bf 9ef7 93bf
00000190: 5925 93bf b0fd 4c3f 3bd4 8bbf 9d0b c3bf
000001a0: 3c46 c7bf 0acf 5ebf df13 f5bd e231 81bf
000001b0: 59ec b3bf 2c2a 3d3f d9c2 3b3f 7be0 bbbf
000001c0: 6f12 393f dd74 16c0 2699 4a3f b015 e8bf
000001d0: 261a 7ebf 4933 adbf b226 2c3f 668b a1bf
000001e0: ea4e 96bf a9ae 31bd c582 3d3f 9b8f 413f
000001f0: 40e2 f5bf 0c6b 99bf 3e77 3d3f 0c2a acbf

net.6.bias f4 [2]
-0.4470924 0.27101102
00000000: 4ce9 e4be f5c1 8a3e
