assets/snapshots/P2_minmax_global_transformer.pth (torch, 297603 bytes, 32 tensors)

input_proj.weight f4 [64, 1]
000000 56 1f 32 bf 49 e5 52 bc 47 37 81 bf 6e 82 55 3f
       -0.69579065 -0.012872049 -1.0094994 0.83402145
000010 6f 14 c7 3e 5d 17 bd 3d b5 25 4c 3f 7f 27 f3 3e
       0.38882777 0.09232972 0.79745036 0.4749107
000020 bc a4 9b be aa d1 47 3f f3 e0 45 3f 88 ce b3 bd
       -0.3039912 0.78054297 0.7729637 -0.08779627
000030 c4 08 da 3e 61 49 9c 3e dc 7f 22 bf 9a ea 57 3f
       0.42584813 0.30524734 -0.6347635 0.8434235
000040 11 c3 1a 3f eb 5b c2 be cd 72 88 be 1e ff d2 3e
       0.604539 -0.37960753 -0.26650086 0.41210264
000050 ec cd 10 3d b2 7d 0a 3e f0 86 3f 3e e2 8b 58 3f
       0.035352632 0.13524511 0.18703818 0.84588444
000060 1e 89 ac be d8 42 7a bf 10 b1 26 3e 71 33 1e bf
       -0.33698362 -0.97758245 0.16278481 -0.61797243
000070 ad 5f f4 bd c6 2e 70 bf 4b f9 5a 3f f7 aa 31 3f
       -0.11932311 -0.9382137 0.8553664 0.69401497
000080 dd f1 43 be 18 90 03 3f f5 41 5b bf 0d a0 23 bf
       -0.19135232 0.51391745 -0.8564752 -0.63916093
000090 86 a4 ee be ed 19 c8 3e 62 55 5a bf 00 fc 6e 3f
       -0.46609896 0.3908228 -0.85286534 0.9335327
0000a0 5f 24 04 3e d0 b0 02 3f be 26 11 bf 0b 3e 7a 3f
       0.129045 0.51051044 -0.5669974 0.9775092
0000b0 ba dd 22 3e 10 26 48 bf 4c cd d2 3e 5e 39 37 bf
       0.15904894 -0.7818308 0.41172254 -0.7157191
0000c0 0a e7 23 bf 67 72 f8 3e ea 20 01 3f f1 db 55 3f
       -0.6402441 0.48524782 0.5044085 0.8353873
0000d0 61 ba 69 bf 46 20 96 be 96 a8 04 3f f3 f1 62 3f
       -0.91300017 -0.29321498 0.5181974 0.88650435
0000e0 ee fc 74 bf e7 2d 27 3e 0b 6e 24 bf 1e 36 24 3f
       -0.9569844 0.16326104 -0.6423041 0.64145076
0000f0 48 2c 1c 3f 00 ce 74 bf ec 61 02 bf e5 1b 22 3e
       0.6100507 -0.9562683 -0.50930667 0.15830953

input_proj.bias f4 [64]
000000 74 61 c5 bd dd 6a 02 3f 5e 17 8a 3d f8 f3 e4 be
       -0.09637728 0.5094431 0.06742738 -0.44717383
000010 37 57 f1 3e c8 c2 d4 bd 75 4d c8 3e b4 c4 b2 3e
       0.47136852 -0.10388714 0.39121595 0.34915698
000020 f6 17 0b 3f 2d be c3 be 02 78 23 bf 39 11 11 bf
       0.54333436 -0.3823103 -0.6385499 -0.56666905
000030 3d c7 bd be 7a 14 00 bf dc a5 d5 bd f1 5a 4d 3f
       -0.3706607 -0.50031245 -0.10432026 0.8021689
000040 98 16 f1 3e 80 7e d9 3e c2 24 4e bf 12 ab 06 bf
       0.4708755 0.42479324 -0.8052484 -0.5260478
000050 78 ee 56 bf 8a 70 81 3e 2c 5d 2c 3e af 0a 12 3f
       -0.83957624 0.25281173 0.16832417 0.5704755
000060 2f e3 70 3f 12 4a 49 3f 4c 22 91 bd 17 41 41 bf
       0.94096655 0.7862865 -0.0708662 -0.75489944
000070 40 2f 36 3e 7c af 10 3f 88 1d 49 bf e9 18 99 be
       0.17791462 0.5651777 -0.78560686 -0.29901817
000080 85 33 75 bf fb 00 e9 be 8f 8a 1c bf 26 0e ee be
       -0.9578174 -0.4550856 -0.61148924 -0.4649517
000090 bf 8d 6b bf 54 c2 6c bf 3c 00 52 bf e3 73 15 3f
       -0.9201316 -0.9248402 -0.8203161 0.58379954
0000a0 45 e7 25 3e 20 55 5b 3d fb 8c c5 3e 47 9a 79 bf
       0.16201504 0.05354798 0.38584122 -0.97501034
0000b0 74 73 97 be 92 05 7b 3f 32 c4 cb be cb 6d 2d 3f
       -0.2958027 0.98055375 -0.39798123 0.67745656
0000c0 f9 73 41 3f 3a fb 21 3f fb 13 53 3f 2f f5 0e be
       0.75567585 0.63273966 0.8245236 -0.13960718
0000d0 cf 2e d2 3e d5 12 54 bd fd c1 1d 3f 42 d3 05 bf
       0.41051337 -0.051775772 0.6162413 -0.5227548
0000e0 96 aa 23 bf 41 5f df bd 25 15 5e bf dc 94 39 bf
       -0.6393217 -0.1090684 -0.86751014 -0.72492766
0000f0 51 a1 78 3f 5a 46 7a bf 64 91 68 3f f1 bf 12 bf
       0.9712115 -0.977636 0.9084685 -0.5732413

encoder.layers.0.self_attn.in_proj_weight f4 [192, 64]
000000 23 1d f9 3c 35 b7 d5 3d fa 37 e6 bd 91 a3 b7 3d
       0.030409401 0.104353346 -0.112411454 0.08966745
000010 27 9d 14 3c 4c a7 9e 3d f7 c0 4f 3d ec 39 ab 3d
       0.009070671 0.07746753 0.050721135 0.08360657
000020 82 21 13 bd 0c ba 3b be 0d 15 d4 3d e5 7a a5 bd
       -0.035920627 -0.1833269 0.103555776 -0.08080081
000030 a8 33 61 bd fd d4 a5 3c a2 f8 f7 3d 1c f4 8b 3d
       -0.054980904 0.020243162 0.1210797 0.068336695
000040 a8 a8 8e 3d 75 c6 90 3d f1 b7 08 3e 23 b2 b1 3c
       0.069657624 0.07069103 0.13351418 0.021691388
000050 0f 4b ca bc d9 78 f5 3c c2 3c 1d 3d 13 af cd 3d
       -0.024693994 0.029964851 0.03838802 0.100431584
000060 81 1f f8 3d 19 4a 08 3e 32 7c 52 3d 2c 3d b5 bd
       0.12115384 0.13309516 0.051387973 -0.08849558
000070 f6 42 09 3e f8 48 06 bd c5 8b 14 be 96 88 38 3b
       0.1340445 -0.032784432 -0.14506443 0.0028157583
000080 c9 84 64 bd 7a 27 90 3d 3b 43 e0 bc 58 0f 4e bd
       -0.055790696 0.070387796 -0.027375808 -0.0503076
000090 34 3d 38 bd 68 ac d1 3d 8c df 06 be fb df c9 bc
       -0.044980243 0.10237962 -0.13171214 -0.024642935
0000a0 ab 76 b0 3c 28 37 e5 bd e1 5a ec ba 18 ff fc 3c
       0.02154096 -0.11192161 -0.0018032455 0.030883357
0000b0 89 a7 91 3d 76 1e 02 3e d9 c0 2f be 91 75 44 bd
       0.07112033 0.12706932 -0.1716341 -0.047963683
0000c0 eb 11 2c 3e 87 dd b2 bd 11 0f 7b bc 87 c4 90 bd
       0.1680371 -0.08733659 -0.015323416 -0.070687346
0000d0 ee b2 f8 3b f1 04 d7 bc 48 aa 5c 3d fe 99 6d 3d
       0.0075896895 -0.026247473 0.05387333 0.058008187
0000e0 03 d9 04 be 28 06 06 be a9 9c 58 3d 77 27 b5 3d
       -0.12973408 -0.13088286 0.052883778 0.08845418
0000f0 4c b7 a8 bd 1d 19 26 be 45 c6 d7 3d b7 4f 7d 3d
       -0.08238086 -0.16220517 0.10535864 0.0618436
000100 1b 05 b0 bd 59 fe 07 3e cb ac 9d bd c4 5d 09 3c
       -0.08594724 0.1328062 -0.07698973 0.008384172
000110 6a 65 79 3d e0 bb bf bd e1 34 96 3d 19 db 0b bd
       0.06088773 -0.09362006 0.073343046 -0.034144495
000120 93 9c 44 3d 5b 05 40 3e 12 3d a9 3d c5 3f fa bd
       0.048000883 0.18752043 0.08263601 -0.12219194
000130 5a e8 e4 3d 67 48 c0 bd 5d 3f 62 bb 94 12 f4 3d
       0.1117713 -0.0938881 -0.003452263 0.11917606
000140 3f 92 eb 3b b6 78 8b 3d 63 ed 5a 3d 0b 81 63 3c
       0.0071890648 0.06810133 0.053449046 0.013885747
000150 d1 24 d1 bc 52 8a 92 bd 3a 6f 78 3d 98 c4 88 3d
       -0.02553025 -0.07155289 0.06065295 0.06678122
000160 11 0f d7 bd bb 8f 48 bd 5e 79 08 3e 88 0c 79 3d
       -0.105009206 -0.048965197 0.13327548 0.060802966
000170 b6 cc 88 3d e2 c2 b0 bd 87 65 89 bd 12 ac 3d 3c
       0.066796705 -0.08630921 -0.06708818 0.011576669
000180 8b c7 fd bd 38 3b 59 bd 17 07 2c 3e f0 95 30 bd
       -0.123915754 -0.05303499 0.1679958 -0.04311174
000190 79 ab 06 3e 21 7a 18 3e f9 a5 19 3e 67 1c a7 bc
       0.13151349 0.14890338 0.1500472 -0.020399285
0001a0 00 2b 09 3e fa 8d e5 3c 45 f3 19 be 64 d0 e8 3d
       0.1339531 0.028021801 -0.15034206 0.11367872
0001b0 4e aa 96 bd c2 db d2 bd ec 91 d9 bd 85 d3 6b 3d
       -0.07356702 -0.10295822 -0.106235355 0.057574768
0001c0 3b df 4e 3d b6 26 9e 39 33 0e f0 bd d1 0e cb 3d
       0.050505858 0.0003016495 -0.11721458 0.099149354
0001d0 d7 8a 42 bd e9 c6 81 3d 2c 49 b8 bd 48 1a 24 bd
       -0.04749569 0.06336767 -0.089983314 -0.040064126
0001e0 a7 9c 42 bd f6 28 96 bd 77 e3 09 3e e9 8a 46 bd
       -0.047512677 -0.073320314 0.13465677 -0.04847232
0001f0 23 b4 8d bd ed c2 f6 3b 4f 74 f5 bd b3 6c 41 bd
       -0.06919124 0.007530561 -0.11985075 -0.047222804
000200 66 e1 86 3c 61 ac eb 3d 72 8f fb 3c 35 2d 03 be
       0.0164649 0.11507488 0.030708048 -0.12810214
000210 1e 92 74 bd b8 06 d5 bd 23 3b 08 be 2b 95 74 bc
       -0.05970966 -0.10401672 -0.13303809 -0.014928143
000220 6d 88 d7 bc eb be f4 3c aa 99 82 bd 9f ac 18 3e
       -0.02631017 0.029876193 -0.06376965 0.149096
000230 f3 a6 d4 3c 78 55 9d 3d 2c e5 9b 3c e1 bd cc bd
       0.025958514 0.076823175 0.019030176 -0.09997154
000240 ab 63 84 3b 2a f7 1c be c6 7c 98 bc 0d 31 82 3d
       0.0040402017 -0.1532866 -0.018614184 0.06357012
000250 79 a6 e3 3d 7b 39 81 bd 99 bc 77 3d c2 22 fc 3d
       0.111157365 -0.06309792 0.060482595 0.12311317
000260 e5 aa e4 bc 31 d6 19 be 9e 60 07 3e fd a5 89 bd
       -0.02791352 -0.15023114 0.1322045 -0.06721113
000270 8a 28 ea 3c 7a 1a 2d 3d 1b 93 1f 3e b8 84 b8 3d
       0.028583784 0.04226158 0.1558346 0.09009689
000280 93 2d ac bd 07 2c 1a 3d da dc ad bc 42 16 9a bd
       -0.0840713 0.037639644 -0.021223474 -0.075237766
000290 98 54 fc bd d3 4e 9e bd 7e 6c b1 bd 25 59 cb 3c
       -0.123208225 -0.07729878 -0.08663271 0.02482278
0002a0 4e ca 2b bd 6d 2e f1 3c b8 21 05 3e aa cc f5 3d
       -0.04194098 0.029441083 0.13001144 0.12001927
0002b0 dd c6 e1 bc d1 c1 27 bd 00 57 f3 3c 3b 1d 98 bb
       -0.027560646 -0.040956322 0.02970457 -0.0046421564
0002c0 7d db d0 3d 93 2b 70 3d c5 4c fa 38 72 36 38 bd
       0.10198114 0.058635306 0.000119352284 -0.044973798
0002d0 2e b7 6d 3d 6c 5b dd 3b 24 49 b7 bd fa 0c 18 3e
       0.058036022 0.006755283 -0.08949497 0.148487
0002e0 10 f4 d4 3d b3 49 04 be 54 cf fb bc be 13 03 be
       0.10398114 -0.12918739 -0.03073851 -0.128005
0002f0 8e 06 fc bc 68 5e a4 bd 28 b6 26 be 70 eb 36 3c
       -0.030764844 -0.08025819 -0.16280425 0.011164531
000300 df a4 46 3d c8 e8 8c bd fe 6b b9 3d 16 b4 8d 3c
       0.048497077 -0.06880337 0.09053801 0.017297786
000310 2a fa c9 3d 85 cf a8 3d 81 f9 0d be 2c 3f 2b 3d
       0.09862168 0.08242706 -0.1386471 0.041808292
000320 f9 f4 eb bd 4b 11 c9 3d ee 13 8f bd 23 be d1 bc
       -0.11521334 0.098177515 -0.06986223 -0.02560336
000330 81 44 25 3d 6d 18 78 3d 9a 8b 3a 3d b1 92 95 3c
       0.040348534 0.06057017 0.04554329 0.018258424
000340 9f 09 ea bd 2a b5 88 3c c7 3c 56 bd 96 d4 a0 3d
       -0.11427616 0.016687948 -0.052304056 0.078530475
000350 e3 d5 a6 ba 74 8f ff 3d 7e d4 b4 3d 79 fe bb bd
       -0.0012728538 0.124785334 0.08829592 -0.09179396
000360 e5 06 19 3e 03 40 7d ba 59 02 5a bd 88 79 28 bc
       0.14944036 -0.00096607226 -0.053224895 -0.010282882
000370 93 ab a4 3d 4e 23 89 3d 5b ce 89 bd fe 64 18 bc
       0.08040538 0.06696187 -0.06728812 -0.009301422
000380 ea 77 45 3b 9a 90 ba 3d 3a fc d0 3b 9e 21 03 bd
       0.0030131289 0.09109612 0.006377724 -0.03201448
000390 71 3a da bd 0f 80 98 3d 63 b4 e1 3d 47 77 55 bd
       -0.10655678 0.074463 0.11020734 -0.052115705
0003a0 52 47 4f 3d 16 19 52 3d 69 54 ea 3c 22 56 81 3d
       0.050605126 0.051293455 0.028604703 0.06315257
0003b0 2d 1f c7 3d 63 c8 07 3c 23 9d f6 3d 56 af 91 3d
       0.09722743 0.008287522 0.1204169 0.07113521
0003c0 87 5f 16 be a6 89 aa bd 80 3c 71 3d 2a e9 8a 3c
       -0.14684878 -0.083270356 0.058895588 0.016956884
0003d0 25 19 80 3d 63 30 94 bd db ad d7 3d fb 2e b7 3d
       0.06254796 -0.072357915 0.10531207 0.08944508
0003e0 ef db 05 be 9b 99 f8 3d 66 ed bd ba ec 9d 5c 3c
       -0.1307218 0.12138673 -0.0014490306 0.013465386
0003f0 ea da 03 bd 65 5b b5 bd d5 df 97 bd 2f bb 0a be
       -0.032191195 -0.08855323 -0.074157394 -0.13547967

encoder.layers.0.self_attn.in_proj_bias f4 [192]
000000 73 18 88 3c 8c 1f 8e bc 29 63 8b bc d6 a6 a3 bb
       0.01661322 -0.017349027 -0.017015057 -0.0049942536
000010 ba e7 38 bc c7 6a 1c 3c 6e 24 1e bc f3 b2 30 bc
       -0.011285717 0.009546942 -0.00965224 -0.010784852
000020 ab 01 24 3a 56 9e c4 bc 33 37 2d 3c c8 11 2a 3c
       0.0006256352 -0.024001282 0.010572243 0.010380216
000030 5a 37 37 bc c4 bb 3a bc 69 ec 31 3c 1a da 14 bc
       -0.01118263 -0.011397306 0.010859587 -0.009085203
000040 12 4d 0e 3c 64 f3 d0 bb c2 4e 2c bc 0b 43 1d 3c
       0.008685367 -0.0063766707 -0.010516824 0.009598504
000050 ff ea 12 3c af 0e a9 3b da a5 48 3c f1 59 39 3c
       0.00896716 0.005159221 0.012246573 0.011312948
000060 39 a5 7a bc af 17 23 bc 25 5c 76 3c eb 9d 1e 3c
       -0.015298181 -0.009954377 0.015036617 0.009681205
000070 7f a3 01 3c c5 4a 28 bc c0 31 43 3c ff fd 06 3c
       0.007912516 -0.010271733 0.011913717 0.008239268
000080 65 74 e9 3b 01 b4 41 bc e1 94 ea 39 38 8f 04 3c
       0.007124471 -0.011822701 0.0004474288 0.008090787
000090 4c 6f 3d bc 19 1e 47 3c 52 00 70 bc d3 07 90 bc
       -0.01156218 0.012153172 -0.014648514 -0.017581856
0000a0 2d e4 30 bc ab ab cf bb 15 4a 12 3c 01 20 45 bb
       -0.010796589 -0.006337603 0.008928795 -0.003007889
0000b0 a8 6c a3 3b 29 f8 56 3c 13 7b 44 bc e1 ec 20 bc
       0.004987318 0.013120689 -0.011992234 -0.009822101
0000c0 03 fe 6f bc cc a7 68 bc 9d 48 73 3b 66 61 11 3d
       -0.014647963 -0.014200162 0.0037122138 0.035493277
0000d0 a7 15 60 3c d1 28 cd 3b b5 61 29 3c 47 1a 5d 3c
       0.013677037 0.006260969 0.010338237 0.013495035
0000e0 ce 53 86 bc 6d 82 b1 bc c7 22 83 bc d9 89 6c bc
       -0.016397383 -0.021668637 -0.016007794 -0.014437162
0000f0 7a f1 18 bb 41 14 1c 3c 8c b0 aa bc ea 0c 5f bc
       -0.002333729 0.009526313 -0.020836137 -0.013613919
000100 ab 02 ca 3b 27 bc 31 bb 2c a4 0b 3a 10 c5 87 3a
       0.006164869 -0.0027120204 0.0005326893 0.0010358412
000110 f7 5a df bb 0b 9b d0 3b 08 08 3e bb 87 a8 d0 ba
       -0.006816264 0.006366139 -0.0028996486 -0.0015919366
000120 68 5b de 3b 3e 29 90 bb 90 d8 37 3c 5c 4b 04 3c
       0.006785799 -0.0043994477 0.011221066 0.008074608
000130 e5 fb 06 bb 56 70 ae bb a9 a6 d4 3b d0 6b 14 38
       -0.0020596918 -0.00532345 0.006489594 3.5386358e-05
000140 d5 d9 00 3c 07 42 4b bc 0b ec 24 bc e8 09 a1 3b
       0.007864435 -0.012405879 -0.010066043 0.004914511
000150 1f ff 2a 3c b8 ea 2b bc a2 c2 1a 3c e0 58 db 3b
       0.010436802 -0.010492973 0.009445818 0.0066939443
000160 1c 81 0a bb d8 fc e9 ba 04 7a b1 3b 3b b8 42 3b
       -0.0021134084 -0.0017851843 0.0054161567 0.002971186
000170 01 e4 7e 3b 09 7c f6 ba 33 8f 85 3b 7e 13 ae 3b
       0.0038893225 -0.0018805276 0.0040759086 0.0053123822
000180 e9 51 1e 39 b0 d8 7a ba b5 2e 73 39 53 fa 36 3a
       0.00015098568 -0.0009569032 0.00023191686 0.000698005
000190 d4 e2 8d ba cf 99 ed 39 dc 34 68 b7 67 db 9c b9
       -0.0010825046 0.0004531876 -1.3840585e-05 -0.00029918106
0001a0 ff 1d ea bb 8c 80 aa bb 29 b0 e3 ba 5c 62 1a 3b
       -0.007144689 -0.0052033123 -0.0017371225 0.0023557162
0001b0 6f 86 c4 3b f1 d2 c3 3b 46 28 fa bb 9a 95 0e bc
       0.005997471 0.005976074 -0.0076341955 -0.00870266
0001c0 d8 df 15 39 6e 30 03 38 44 4b ae ba 63 41 20 3a
       0.00014293136 3.1277938e-05 -0.0013297577 0.0006113259
0001d0 3f b6 87 3a 5b 3d 4f 3a 67 30 3a 3a 17 42 53 3a
       0.0010353996 0.0007905566 0.00071025494 0.00080588594
0001e0 3f e0 c4 bb ff ec f4 ba 8d af 3a bb 6a 66 e7 bb
       -0.0060081775 -0.0018686353 -0.0028485984 -0.0070617693
0001f0 ea e2 10 3b 1d 28 ab 3b 47 a9 42 bb 24 00 a6 ba
       0.0022107908 0.0052232877 -0.0029702948 -0.0012664837
000200 1c 5b 41 bc 3b 4c 74 3a 56 b9 83 ba c7 f8 46 3c
       -0.011801507 0.00093192206 -0.0010049741 0.012144274
000210 ed 8c 29 3c 66 ad c2 3c 3c 0f 9b bb 53 c3 b3 3b
       0.010348541 0.023764323 -0.0047320407 0.005485931
000220 c8 24 07 bb 73 dd 76 b9 1d 94 a5 3a dd d0 4f 3a
       -0.0020621289 -0.00023542884 0.0012632642 0.00079275464
000230 48 7a 13 3b fe 62 a1 3c 37 9b b5 bb e1 b1 d9 3c
       0.0022503305 0.019700523 -0.0055421847 0.026574077
000240 5d f7 8b 3b a1 9f ae ba eb c1 39 3b 68 a2 b5 3a
       0.0042714314 -0.001332272 0.0028344344 0.0013857605
000250 9e 6c f1 3b 79 83 dd b9 30 e7 1a bc a7 77 43 ba
       0.0073676845 -0.0004225036 -0.009454533 -0.0007456489
000260 fd 42 59 3b 34 20 ae bb ae ef 9b 39 c5 99 49 bc
       0.00331515 -0.0053138975 0.0002974248 -0.012304728
000270 c2 f4 3b bb ef 73 fd 3a 47 0d 43 3c a2 18 77 bb
       -0.0028679823 0.0019336919 0.011905021 -0.0037703891
000280 3f 05 aa bb 64 46 14 3c f3 89 91 bb b9 3b a3 bb
       -0.0051886137 0.009049986 -0.0044414937 -0.0049814847
000290 30 eb 6d bc 3d 7e b9 3a ec af 53 bc b1 5a 6c 3c
       -0.014521405 0.0014152002 -0.012920361 0.014425919
0002a0 b9 e5 29 3a 41 83 25 3c 9d 09 e4 3a 0e 0c 70 bb
       0.000648107 0.010102094 0.0017397885 -0.003662828
0002b0 2d 55 eb 39 15 eb 39 3b 00 8c b5 bb 95 76 03 bb
       0.00044886154 0.002836888 -0.005540371 -0.0020059694
0002c0 4f 05 05 3b 53 50 5a 3a 34 04 ec bb 67 ab 8e 3a
       0.0020297354 0.0008328009 -0.0072026495 0.0010884822
0002d0 eb da 90 bb 5d d0 b2 3b d4 9b 82 bb 95 91 91 3b
       -0.0044206283 0.0054569677 -0.0039858613 0.0044424036
0002e0 d2 f7 a3 3a e1 a3 bf 3a 86 b3 bd ba 80 46 05 3c
       0.0012509769 0.0014620983 -0.0014473058 0.008134484
0002f0 3f a5 b0 3a 5a ee c1 3b 88 64 25 3b 70 db 1c 3b
       0.0013476982 0.0059183063 0.0025236923 0.0023934506

encoder.layers.0.self_attn.out_proj.weight f4 [64, 64]
000000 27 10 fc bb 77 44 2f 3d d9 af a1 3d d8 5e 95 3c
       -0.007692355 0.042789903 0.078948684 0.018233702
000010 dd c7 47 3d 9e 1e ba bb 33 2d 7c bc ba e8 00 3e
       0.04877459 -0.0056799194 -0.015391636 0.12588778
000020 11 82 ad bd 4c a9 be bd d0 a3 0d bd 04 6f 0f be
       -0.08472074 -0.093096346 -0.034580052 -0.14007193
000030 8f a4 67 3d 61 22 d5 3d 94 95 d1 bd 05 86 db 3d
       0.05655342 0.10406948 -0.10233608 0.107189216
000040 54 9a f7 3d 26 0d a3 bd 63 1a 82 bd af 71 b3 bd
       0.12089983 -0.07961492 -0.06352689 -0.08761918
000050 b2 71 89 3d dd 54 d0 bd 67 c0 d7 3d 01 d1 9e 3d
       0.06711139 -0.101724364 0.10534745 0.07754708
000060 6b e0 0f bd 4d a1 5b bd f4 e5 de 3d c1 be 42 3d
       -0.03512613 -0.053620625 0.10883704 0.0475452
000070 e6 5f dc bc 58 a4 3b bc 1c 27 f5 3c b1 82 22 3d
       -0.026901197 -0.011452757 0.029925875 0.03967542
000080 cb a3 ae 3d bb e2 9c 3d d8 3c 06 bd 9c 80 99 bd
       0.08527335 0.07660433 -0.03277287 -0.074952334
000090 d4 ad be 3d aa c6 b8 b9 5c 98 a4 3d a3 61 ad 3d
       0.09310499 -0.0003524323 0.08036873 0.08465888
0000a0 24 08 ce bd 28 c7 a0 3d 0a 5b f5 bd bf 52 b3 bd
       -0.100601465 0.07850486 -0.11980255 -0.08756017
0000b0 85 9d f3 3d 02 f8 84 3d 5c f8 ac 3d 78 cd 0d 39
       0.11895279 0.06492616 0.08445808 0.00013523351
0000c0 e1 3d e9 3d f7 49 b1 3d 45 13 f6 bd ce d2 29 3d
       0.113887556 0.08656686 -0.12015394 0.041460805
0000d0 b0 74 5c 3c 3d 56 97 3d ef 2a a1 3c 32 69 88 bd
       0.013455555 0.073894955 0.019673793 -0.066606894
0000e0 c8 44 84 bd f9 d9 31 bd fa 66 2c 3d 86 5b 4a bd
       -0.064584315 -0.043420766 0.042090394 -0.04940369
0000f0 b7 eb fe 3d 58 d8 36 bd 1d b9 92 bd 8a 33 52 bd
       0.12447303 -0.044639915 -0.07164214 -0.051318683
000100 23 cf aa bd df 8c a5 3d 28 02 89 3c 27 08 e6 3c
       -0.083402894 0.0808351 0.016724661 0.02808006
000110 cd 5f f8 3d a9 d5 66 3d 78 50 e1 bd 43 a0 0d 3c
       0.121276475 0.056356106 -0.11001676 0.008644166
000120 e5 90 86 3d 9a 04 31 be b2 16 e3 3d b5 c9 23 be
       0.06570605 -0.17286912 0.11088313 -0.15994914
000130 4a 86 84 3d b6 89 d1 bc b9 89 42 3d fb c2 b2 bd
       0.06470926 -0.025578361 0.047494624 -0.08728596
000140 4f fa 01 3e 16 a8 df bd fa 1e 38 bb 48 4f da bd
       0.12693141 -0.10920732 -0.0028094635 -0.10659653
000150 8f 33 e4 3c 38 6f 05 be fc 46 df 3d e4 06 30 3d
       0.027856616 -0.13030708 0.10902211 0.04297532
000160 24 45 0c 3e 63 34 85 bd f1 b5 63 bd c9 53 d2 3d
       0.1369825 -0.065041326 -0.055593435 0.10269887
000170 83 93 77 bd d8 f5 9e 3d 2f f9 b2 bd 17 87 b0 3d
       -0.060443413 0.07761735 -0.08738934 0.08619516
000180 71 c7 56 3d 62 c7 77 3d d2 44 9d bd 09 3f bf 3d
       0.052436296 0.06049288 -0.07679142 0.09338195
000190 e1 f4 51 3a ae df a0 3d 9c 97 94 3b f7 9d 0d 3e
       0.0008009207 0.078551635 0.004534675 0.1382979
0001a0 f4 75 d5 bd 07 56 a7 bc 25 76 a4 bd 40 7b 9a bd
       -0.104228884 -0.020426763 -0.08030347 -0.07543039
0001b0 64 dc da 3d 1d 83 8e bc bf d5 db bd 7e b8 eb 3d
       0.106865674 -0.017396504 -0.10734128 0.115097985
0001c0 2f 9f ef bd 6a 10 7f 3d 0e d9 c2 3c b5 62 0a 3c
       -0.11700284 0.062271513 0.02378514 0.008446385
0001d0 59 b1 36 3c 12 c0 a9 3d b6 cb a6 3d 94 59 39 3d
       0.011150681 0.08288588 0.081443235 0.045251444
0001e0 e6 2a 88 3d ba 5c cc bd a3 0a 50 bc e2 09 82 bc
       0.06648807 -0.09978624 -0.0126978485 -0.015873853
0001f0 ee 69 cb bc 6f 44 ab bd 06 39 e5 bc 06 a5 59 3d
       -0.024830785 -0.08362662 -0.027981292 0.053135894
000200 4e 3a ec bd 55 5f 86 3d e9 c0 a4 bc 3c f2 de 3d
       -0.11534558 0.06561152 -0.020111518 0.10886046
000210 cb 8c 26 3d d7 26 e7 3d 8f 59 76 3d 8a e4 95 3d
       0.040661614 0.11286705 0.060144003 0.07318981
000220 3e 6e b2 3d 50 b7 7c 3d 55 3d 3f bd 4e 19 29 be
       0.08712433 0.061698258 -0.04668935 -0.16513559
000230 97 2f ef bd 0b ae 2c bd 4d 97 32 bb e1 9a d9 3d
       -0.11678999 -0.042158168 -0.0027250827 0.10625244
000240 0a c6 14 3d c0 a8 d3 bd 48 f4 e0 3d 5e 7a 07 be
       0.036321677 -0.10334921 0.10984093 -0.13230273
000250 4f 64 67 bd 87 76 ce 3d cf d9 dc 3d 74 6e f1 3d
       -0.056492146 0.10081201 0.10783731 0.117886454
000260 50 54 00 3d 0d 46 ba 3d 8a c1 0a 3e 85 1d b6 bd
       0.031330407 0.090953924 0.13550392 -0.08892349
000270 6d 4c a4 bd 5d ac 00 3e 03 79 90 bd 4c 32 e2 bd
       -0.080223896 0.12565751 -0.07054331 -0.110447496
000280 5a 82 8e bd 35 d6 cb bd e0 15 c4 3c a6 57 bd bb
       -0.06958456 -0.09952966 0.023936212 -0.005778271
000290 26 00 90 3d c8 f3 b1 3d 9e 34 3f 3d 76 32 2c bd
       0.07031278 0.08689076 0.04668104 -0.04204031
0002a0 51 b5 bc bc 30 79 bd bd 38 93 cf bb e7 b9 aa bb
       -0.023035677 -0.0925163 -0.0063346885 -0.0052101496
0002b0 27 d1 ab bc 75 c2 31 3a 24 e7 43 bd 27 d3 06 3e
       -0.020973755 0.00067809905 -0.047827855 0.13166486
0002c0 23 6c 77 bd 00 ed b6 3c f4 d6 62 bb 7c 88 37 bd
       -0.06040586 0.022329807 -0.0034612985 -0.044807896
0002d0 c8 10 f8 bd 9e bf c0 3c d3 80 52 bd 3a 97 15 3d
       -0.12112576 0.02352887 -0.051392388 0.036521174
0002e0 d0 eb 86 3d 23 cd 05 3d 42 a1 e1 bd 9a e4 f5 3d
       0.065879464 0.032666337 -0.110170856 0.12006493
0002f0 80 be 9e bb 74 cd d3 3d 29 72 36 bd 56 7b e6 bd
       -0.0048444867 0.103419214 -0.044542465 -0.11253993
000300 1f 6d 84 bd 86 48 09 be 9a bc 90 bb db 1b df 3d
       -0.06466126 -0.13406572 -0.0044170143 0.10893985
000310 50 8d 4c 3d f4 88 b3 3d 0d 8e 32 3d 6b 17 ae 3d
       0.049939454 0.08766356 0.0435925 0.085005604
000320 e6 d2 a7 3d e1 e2 30 3d 13 ba 35 3d fc d6 95 3d
       0.081945226 0.04318512 0.044366907 0.07316396
000330 e0 67 d0 bd 7d e1 d2 bd 83 9a 00 be 85 2e dd bb
       -0.101760626 -0.10296915 -0.12558942 -0.0067499303
000340 53 b8 05 3e 3f af 82 bb 86 20 fc bd ba c1 08 3c
       0.13058595 -0.003988176 -0.12310891 0.008346969
000350 cd 3c e5 bd e0 15 d6 3d d7 03 ec bd 30 2b 64 bc
       -0.111932375 0.10453391 -0.1152417 -0.013926312
000360 0a 2c b0 3d 36 39 e1 bd ad 6a 15 be 4d e9 6d bd
       0.0860215 -0.1099724 -0.14591475 -0.05808382
000370 3f 26 b8 bd 4b be 88 3d 61 40 ca bd 42 d1 5b bd
       -0.0899167 0.066769205 -0.098755606 -0.05366636
000380 71 ea b7 3d eb a9 e1 bc 6d e8 8a bd 59 16 2b 3d
       0.08980263 -0.027546844 -0.06782613 0.04176936
000390 bc 33 53 3c 4a a0 ce 3d 96 da 86 bd 3f 2e 57 bd
       0.012890752 0.100891665 -0.06584661 -0.052534338
0003a0 f1 f9 e2 3d b2 aa 37 bd dc c1 9b 3d f2 e1 7f bd
       0.11082829 -0.044840522 0.07605335 -0.062471338
0003b0 f6 4c f0 bc 4e a9 8c 3d 90 d3 92 3d 1b b5 20 bc
       -0.029333573 0.0686823 0.071692586 -0.009808804
0003c0 b9 c1 51 3d 4e 6a 0c be f0 72 b8 bd 8f 0a 23 be
       0.05121014 -0.13712427 -0.090062976 -0.15921997
0003d0 02 a8 32 3a d5 34 0d 3d a8 e0 da 3d 5e 0b b4 bd
       0.0006815196 0.034474213 0.10687381 -0.087912306
0003e0 f0 d2 06 be ce c4 81 bd cf 9a e3 3d 83 44 37 3d
       -0.13166404 -0.06336366 0.11113512 0.044743072
0003f0 5e 30 d3 bc 99 08 b5 bc 40 55 87 bd 1c c2 e2 3d
       -0.0257799 -0.022098826 -0.06608057 0.1107218

encoder.layers.0.self_attn.out_proj.bias f4 [64]
000000 b3 05 b6 3a 8f 68 6a bc 91 ec 99 3b db 0a 31 39
       0.0013887197 -0.014307155 0.0046973904 0.0001688408
000010 f1 8d 92 bc f6 01 7f 3a fa 64 5c bc 97 06 30 bc
       -0.017889949 0.000972777 -0.013451809 -0.010743759
000020 70 5f a2 bb 08 fa ea ba 66 30 a3 ba 91 d3 e8 3b
       -0.0049552247 -0.0017927298 -0.0012450337 0.007105299
000030 38 7a 98 bb 8c 5a bd 3b 90 58 2b 3a 03 35 1f bc
       -0.0046532415 0.0057786163 0.0006536329 -0.009717229
000040 db d4 32 bc e6 8b 99 bb 53 d4 9f 3c 1c e7 e2 3b
       -0.0109150065 -0.0046858666 0.019510424 0.006924523
000050 7c 47 2f 3c c4 86 76 ba 4b b1 b4 ba 71 0e d3 bb
       0.010698196 -0.0009404237 -0.0013785748 -0.0064409305
000060 e5 37 6b bc 7b 15 ad ba a5 21 ea bb a3 7e 28 3c
       -0.014356588 -0.0013205254 -0.007145124 0.010284099
000070 3a a3 2b 3b fb 9a 3d bb 7b 07 a7 3b fd 68 26 bc
       0.002618982 -0.0028931487 0.0050973273 -0.010156867
000080 16 0e b3 3b 52 b2 fd 3a f1 c5 2c 3c ef ba a4 3c
       0.0054643257 0.0019355512 0.01054524 0.020108668
000090 21 0d 35 3b 04 60 16 3c 80 26 b6 3c ed 0c 02 bc
       0.0027626234 0.009178165 0.022235155 -0.007937652
0000a0 56 3e 17 3a 25 08 ba 3b 90 f9 72 bb 17 93 24 3b
       0.00057694816 0.0056772404 -0.003707502 0.0025112086
0000b0 b5 b1 0f bb a9 69 64 bc 88 e6 cf 39 76 15 94 bc
       -0.002192599 -0.013941207 0.00039653876 -0.01807664
0000c0 a1 d9 03 bb 45 27 27 bb 29 52 1d bc 7e 43 89 ba
       -0.002011873 -0.0025505584 -0.009602108 -0.0010472385
0000d0 10 95 d7 38 ee 24 aa 3c 13 7a f1 bb f8 c5 41 ba
       0.00010279764 0.020769563 -0.0073692887 -0.00073918654
0000e0 b9 ea d8 3c c9 99 09 bc 47 fd 9e 3b 3e 81 10 3c
       0.026479112 -0.008398482 0.0048519704 0.008819876
0000f0 4f 98 47 bc 2c 8e 62 3c 4e b5 68 bb 71 67 ee 3b
       -0.012182309 0.013827842 -0.0035508457 0.007275515

encoder.layers.0.linear1.weight f4 [128, 64]
000000 2a 6e 31 3d 85 10 c3 3c 8b 75 97 3d dd 81 e7 3d
       0.04331795 0.023811588 0.073954664 0.11304066
000010 e8 b6 05 3d 78 a3 9f 3c 00 d0 bd 3d 14 1f 2a 3c
       0.032645136 0.019487128 0.092681885 0.010383386
000020 4d 33 83 3c 3f 96 b3 3d 10 1c 76 3c 08 46 96 bd
       0.016015673 0.087688915 0.015021339 -0.07337576
000030 56 39 34 3c a0 0d cf 3d b7 ad c1 bd e2 d9 36 3b
       0.010999998 0.10110021 -0.094569616 0.0027900864
000040 69 60 fe 3c 66 e6 f9 3c 80 1a ee 3d 9f 1f 71 bd
       0.031051831 0.03050537 0.11626148 -0.058868047
000050 7f b8 aa bd 11 52 aa bd c3 c6 ef bd 60 9f d1 bd
       -0.08335971 -0.08316434 -0.11707833 -0.102354765
000060 3a d3 c4 3c de f8 ca bd 75 a7 af bd ea d8 e9 bd
       0.024026502 -0.09910749 -0.08576862 -0.11418326
000070 e4 2d b4 bc 9c 6f 04 3d c2 db a4 bc 87 e7 4c bd
       -0.021994539 0.032333 -0.02012432 -0.05002549
000080 b8 ad d3 3d b9 80 44 bd be 53 64 bd bc a5 a9 3d
       0.103358686 -0.047974322 -0.055743925 0.082835644
000090 d4 a2 b9 3b 9c 14 98 3d d8 18 9d bc ad bd c8 3c
       0.0056651626 0.07425806 -0.019176885 0.024504507
0000a0 aa 84 d3 3d 6e e6 0c 3e ef 79 e2 bd 9e 40 bd 3d
       0.10328038 0.13759777 -0.11058413 0.092408404
0000b0 d3 9f e1 3d 9a 0b d6 bd ac cc 94 bd 85 90 95 bd
       0.11016812 -0.104514316 -0.072656006 -0.073029555
0000c0 4d b2 90 bd 95 88 f6 3d 9d 26 70 3d cd f0 d1 bb
       -0.07065258 0.1203777 0.058630574 -0.0064068795
0000d0 5f 5a 79 bd 1a 27 b8 3d 12 ed d0 3d ea ad e7 3d
       -0.0608772 0.08991833 0.102014676 0.11312468
0000e0 85 cb 9e bd 94 99 ed bd b3 0d 90 3d 67 7a 93 bd
       -0.07753662 -0.11601558 0.07033863 -0.07201081
0000f0 4a 61 1b 3d 30 29 01 bd 75 76 52 3d 86 78 3e bd
       0.03793458 -0.03153342 0.0513825 -0.04650166
000100 2c 3d ea bd 32 20 8d 3d 2e 8d 51 3d 3c 91 d3 3d
       -0.11437449 0.068909064 0.05116003 0.10330436
000110 0c 8a 96 3d 13 41 4d 3d 1e 2a 8b bd ce 0e cc bd
       0.07350549 0.050110888 -0.067951426 -0.09963761
000120 5a 1e e0 3d 65 f7 99 3d 1b f6 80 3b 92 89 ef bd
       0.10943289 0.0751789 0.003935588 -0.11696161
000130 f8 08 ee 3d 29 ea b1 3d d4 f2 51 3d b8 0c 0a bd
       0.116228044 0.08687241 0.05125697 -0.033703536
000140 d0 7e f4 3d 12 e0 b0 3b 66 b5 9b 3d 17 de 85 3d
       0.1193825 0.005397805 0.076029584 0.06536501
000150 8d 3d 03 bd 38 89 a4 bd 6c 5e 5a 3d 01 88 d7 bb
       -0.03204112 -0.08033985 0.053312704 -0.006577492
000160 9a 23 93 bd 52 2c 08 be 5d 46 8a 3d 34 75 f6 bd
       -0.07184525 -0.13298157 0.06751702 -0.120340735
000170 fc 28 81 bd 6f e1 e0 bd c1 a4 9c bd c7 93 82 bd
       -0.06306645 -0.10980498 -0.07648612 -0.063758425
000180 c0 0b 4d bc 98 5e 04 be 19 58 1c bd 27 f6 c1 bd
       -0.012515008 -0.1292671 -0.038169954 -0.09470778
000190 da 70 d2 3c fd 97 d1 bd ff 6f 15 3d 2c 8f dc bd
       0.025688577 -0.102340676 0.03648376 -0.10769495
0001a0 86 c4 89 bd d4 65 ce bd 82 20 ee bc 57 6a 03 3d
       -0.06726937 -0.10078016 -0.029068235 0.032083835
0001b0 c0 bf 0a 3e 59 26 ec bc f5 fe 8c bc 74 ee f0 3d
       0.1354971 -0.02882688 -0.017211417 0.11764231
0001c0 df ff f0 bc 9f ab 38 3c 96 e0 30 bc 5a df dd 3c
       -0.029418884 0.011271386 -0.010795733 0.027084041
0001d0 38 b0 e6 3d bc d4 45 3d c5 62 91 3d c4 14 b3 bd
       0.1126408 0.048298582 0.07098917 -0.08744195
0001e0 7c db 9d 3d 78 a1 6b bd a6 34 6c 3c 42 b8 08 3d
       0.07707879 -0.057527035 0.014416849 0.033378847
0001f0 97 9f 7d 3d 01 a6 90 3d 71 4f a0 bd e6 9e 8b 3d
       0.061919775 0.07062913 -0.07827652 0.06817417
000200 14 74 6d 3d 2c 71 86 bc 85 c7 c4 3d 18 8d 0c 3e
       0.05797203 -0.016411386 0.09608368 0.13725698
000210 cb 1c ce 3a ed b4 02 3e 6c 4d 41 bd 44 31 89 bc
       0.0015725134 0.1276433 -0.047192976 -0.016747124
000220 bf 20 3f 3c 8b e1 f7 3d 2f 9e 34 3d 96 92 47 bd
       0.011665522 0.12103566 0.044096168 -0.04872378
000230 e1 c3 fd 3d 38 72 6f bd 36 24 dd bd f3 58 30 bd
       0.123908766 -0.058458537 -0.10797922 -0.04305358
000240 a4 48 0d 3d 21 8c f9 bb 1e 8f 32 3d d8 9c a7 bd
       0.034493104 -0.0076155816 0.04359352 -0.081842124
000250 8b 34 13 bd 96 ee 8e 3d f3 f8 b2 3d f1 1d d6 3d
       -0.03593878 0.069791004 0.087388895 0.104549296
000260 ba 94 9c bd 5d 03 1e be c1 25 22 3d 6b 85 e4 bd
       -0.07645555 -0.1543097 0.039586786 -0.1115826
000270 e0 5c cc bd e2 cb d7 bd 3a d2 fe 3c 49 bf bf 3d
       -0.09978652 -0.105369344 0.031106103 0.093626566
000280 3f d5 c3 3d cd eb ce 3c 4d 5f 1a bd 3f 18 a3 3d
       0.09562158 0.025258923 -0.037688542 0.07963609
000290 d7 29 d4 3d 71 1d a0 bd 94 0b c3 bd 15 ea 04 3d
       0.10359543 -0.078181155 -0.09523693 0.0324498
0002a0 4b 39 25 3d f4 2d 84 bc 0f b1 9a 3a 3a b0 c8 3d
       0.040337842 -0.016135193 0.0011802035 0.097992375
0002b0 81 0f eb bc 99 88 de bd cb f7 6e 3c 55 2e bc 3d
       -0.028693916 -0.10865898 0.014585446 0.09188525
0002c0 63 14 ca 3c 6f 4b 8c 3d cd 98 60 bc 85 b0 03 3e
       0.024667924 0.06850325 -0.013708306 0.12860306
0002d0 70 f7 bd bd 1f 07 3e bd 8f 4e 11 bd e5 8e 01 bc
       -0.092757106 -0.04639351 -0.03547531 -0.007907604
0002e0 8b b3 b5 bd d1 5f 54 bd e5 9d fb bc 1a 94 81 bd
       -0.08872136 -0.05184919 -0.030714938 -0.06327076
0002f0 a1 13 b5 bd 9f 09 08 be 20 66 d3 3a bb 47 ff bd
       -0.088416345 -0.1328492 0.0016128458 -0.124648534
000300 44 03 0a 3e 28 8c eb bc 0f 53 e7 3d 08 41 03 bc
       0.13477808 -0.028753355 0.11295139 -0.00801111
000310 58 ac 14 be 74 ff 6c 3d 51 11 da 3c a0 04 6b bc
       -0.14518869 0.057860807 0.026619585 -0.014344364
000320 82 c3 ff bc e1 61 61 3d 66 5a 91 3d d5 06 a6 3d
       -0.031221155 0.055024985 0.0709732 0.08106772
000330 db dd 11 3d 60 f2 09 3e a2 15 f2 bd 75 35 14 be
       0.03561197 0.13471365 -0.118205324 -0.14473517
000340 eb 5a 3e bd ac 2b 90 bc cf 9b 19 bd c8 4f 25 3d
       -0.046473425 -0.01759895 -0.037502106 0.04035929
000350 98 b0 9b bd 1d 61 f7 bd 49 57 e9 bd 3c 1d ed 3c
       -0.07602042 -0.1207907 -0.113936014 0.028944604
000360 11 72 15 3c 7e 70 90 3c a6 c4 fd bd d9 8f 9f 3d
       0.009121434 0.017631765 -0.12391023 0.07791109
000370 4b 34 a9 bd 74 c3 f5 bd d5 ff af 3d f9 36 dd bd
       -0.08261927 -0.1200017 0.08593718 -0.10801501
000380 4a 20 7f 3d 69 13 4d 3d de 92 df 3d be da 90 3d
       0.062286653 0.05006734 0.109166846 0.07072972
000390 ae 68 12 3e c9 a5 f1 3d 5c 48 57 bd d2 6e 62 bd
       0.14297745 0.11799199 -0.05255924 -0.055281468
0003a0 2e c1 a5 bd c8 53 36 3d b6 dd af 3d 61 11 63 3b
       -0.08093487 0.044513494 0.0858721 0.003464781
0003b0 16 20 93 bb 14 c8 e0 bd f4 ca a8 bd aa 33 64 bd
       -0.004489909 -0.10975662 -0.08241835 -0.055713333
0003c0 36 4b f9 bd 76 4c 16 be 9b 72 07 be e8 34 91 3c
       -0.121725485 -0.14677605 -0.13227312 0.017725423
0003d0 ff 89 da 3c 3e 8b 83 bc dd d9 bb 3d 59 59 cc 3c
       0.02667713 -0.016057607 0.091724135 0.024944948
0003e0 e9 67 12 3e fe b8 58 bd 6f 91 01 3e d2 2f 81 bd
       0.14297451 -0.052910797 0.12653135 -0.06307949
0003f0 f2 64 85 3d 49 57 a4 bd 2e 90 ec bd a8 b3 5a bc
       0.065133944 -0.08024461 -0.115509376 -0.013348497

encoder.layers.0.linear1.bias f4 [128]
000000 dc af b3 bd 89 a9 0f 3d 87 5a 6d bd d5 69 19 3c
       -0.08773777 0.03507379 -0.05794766 0.009363611
000010 0f 8c fc 3d 13 8e b0 3d f5 7f a0 bc 83 88 28 3d
       0.123314016 0.086208485 -0.019592265 0.041145813
000020 66 37 8d 3c c4 42 28 bd 35 3b 44 bd 2d ed 9e bb
       0.01723833 -0.041079298 -0.047908027 -0.004850051
000030 ad cc dc 3d 4c d5 48 bd c2 7d 29 bd fe 86 78 bc
       0.10781226 -0.04903154 -0.041379698 -0.015168903
000040 8a 98 51 3d a3 96 f6 bd 43 79 67 bc 50 db 6a bd
       0.051170863 -0.120404504 -0.014128032 -0.05733806
000050 65 a3 bc bd 84 c2 4e bd 01 15 d5 bd 82 41 b2 bd
       -0.092108525 -0.050478473 -0.10404397 -0.08703901
000060 35 41 c4 3d e3 4a 87 bd 99 1f 39 bd b6 57 c1 bd
       0.0958275 -0.066060804 -0.04519615 -0.09440558
000070 7c 9d 6b bd 70 e8 e7 bd f3 98 5d bd 28 0b 83 3c
       -0.057523236 -0.11323631 -0.054100942 0.01599653
000080 3f 2d 26 3d 42 9c fa 3d 2c 51 ac bd 14 74 c6 bd
       0.040570494 0.12236835 -0.0841392 -0.09690109
000090 67 ac 9e bd 62 04 77 3c 98 36 68 3d bd 8d c2 3d
       -0.07747727 0.015076729 0.05669269 0.09499691
0000a0 6a 98 db bd 55 52 9c 3c 93 05 e9 3c a8 f3 2e 3d
       -0.1072243 0.019082228 0.02844504 0.042712837
0000b0 ea 4d c3 3d 14 16 f5 bd 7c 71 38 3d 71 ba 81 bd
       0.09536345 -0.11967102 0.045030102 -0.06334389
0000c0 99 7d 06 be 64 c4 ea 3d b9 e0 07 bd 64 ec f6 bd
       -0.13133849 0.1146324 -0.033173297 -0.12056807
0000d0 83 0f 33 3c 25 bb dc bd e8 c2 05 bd 19 4c e1 bd
       0.010928991 -0.107778825 -0.03265658 -0.110008426
0000e0 06 bc 2a 3d 2b 64 8c bd c4 74 13 3d c2 3a a2 3d
       0.04168322 -0.06855043 0.03600003 0.079213634
0000f0 9b 6c 1a 3d 52 07 d3 bd 77 0e 97 3d f3 f9 d9 3d
       0.03770123 -0.103041306 0.07375806 0.10643377
000100 b6 4a 82 3c 7c 6d 35 bd 8b 28 2b bd e1 53 e3 bb
       0.015904766 -0.044293866 -0.04178671 -0.0069374894
000110 f4 e8 bf 3d 4f 74 cd 3d c4 5a 09 3d 96 68 ee bd
       0.09370604 0.1003195 0.033533826 -0.11641042
000120 8f 61 8c 3d 4c 3d 65 3d 4f c0 78 bd b9 0a f2 bd
       0.06854545 0.05596666 -0.060730275 -0.118184514
000130 08 6a e9 3c 66 ae f4 bd 3e 29 dd 3b 48 48 f0 3d
       0.028492942 -0.11947326 0.006749301 0.117325366
000140 08 d5 af bc c4 3f 36 3b a8 60 a9 bd 80 33 c9 bc
       -0.021463886 0.0027809003 -0.08270389 -0.02456069
000150 36 30 de bc c0 8c a9 bb 2c d9 10 3d 83 1b d4 3d
       -0.027122598 -0.0051742494 0.03536336 0.1035681
000160 66 9f 7d 3d 75 4a a1 bc ff 1a 8e 3d 4d 87 ce 3d
       0.061919592 -0.019688824 0.06938743 0.100844
000170 df 6f b9 bd 3a 59 98 bd 8b 63 7e 3d 0d 37 21 bd
       -0.09054541 -0.074388936 0.06210665 -0.03935914
000180 c3 b6 d8 bd 2f 9d 6a 3d fc d1 95 bc 7c ac 2f 3d
       -0.10581734 0.05727881 -0.018288605 0.042889103
000190 45 68 1a bd 18 a6 ac bc 9a 7c e1 3c db 9c 09 be
       -0.037697095 -0.021075293 0.027525235 -0.13438742
0001a0 f6 0f 83 3c aa 38 6a bd 88 6e 03 bd 82 83 b2 3c
       0.015998822 -0.057182945 -0.032087833 0.021791223
0001b0 6c ef f3 3d 28 05 92 3d f1 29 f0 3d 1c f0 a6 3d
       0.119109005 0.0712989 0.1172675 0.08151266
0001c0 07 cb b3 bd ba 64 51 bb 1b a5 48 3d c8 93 1c 3d
       -0.08778959 -0.0031950907 0.04898558 0.038226873
0001d0 fb dc 54 bd ac 15 8b 3d 62 21 37 3c f3 25 49 3c
       -0.051968556 0.06791243 0.011177393 0.012277114
0001e0 9f c6 aa bc 56 c4 e6 3d 67 de 9e bd d0 d1 8d 3d
       -0.020846663 0.11267917 -0.07757264 0.06924784
0001f0 2d 08 dd 3d 78 36 6a 3d f4 4b bf 3d 8a c8 84 bd
       0.10792575 0.05718085 0.09340659 -0.06483562

encoder.layers.0.linear2.weight f4 [64, 128]
000000 85 4d 4b 3d 7d e7 b5 bd 43 83 81 3d a4 ac 84 bd
       0.049634475 -0.088820435 0.06323864 -0.06478241
000010 42 b6 1b 3d 7c 51 82 3d 54 62 86 bb e7 19 2b bc
       0.03801561 0.06363198 -0.004101077 -0.010443187
000020 37 25 9a bc 36 c2 89 bd a3 c4 7d bd 0d 73 88 3d
       -0.018816574 -0.06726496 -0.061955106 0.06662569
000030 b8 55 e5 3c a0 ce 4a bd 11 d8 31 bd eb 47 85 bd
       0.027994975 -0.04951346 -0.043418948 -0.06507858
000040 3a 0e a0 3d 8b f4 8c bd 35 53 7b 3d fc 3e 86 3d
       0.078152135 -0.0688258 0.06135865 0.06554982
000050 80 cf c3 3c 47 b9 a8 3d 77 38 ba bd 4a 0e 5d bd
       0.023902655 0.08238464 -0.09092801 -0.053968705
000060 77 7a dc 3d 3d 3a 6c bd 7e c7 3d 3d 90 bd a9 3b
       0.10765546 -0.057672728 0.04633283 0.0051800683
000070 e5 12 ff bb e0 b6 23 ba 62 ef 73 bc 06 87 98 3c
       -0.007784235 -0.0006245207 -0.014888616 0.018619072
000080 8f b3 69 3d 21 49 2b 3d f0 af 17 3d b2 ff 92 3d
       0.057056006 0.041817788 0.03703302 0.07177676
000090 27 4c 17 bd 3d 4a ac 3c 0a 70 05 3c 9a f2 ac 3d
       -0.03693786 0.021031493 0.008144388 0.0844471
0000a0 9c 67 9a 3c c2 6d f6 bc 6a 6f 7c bb 92 d7 e7 bc
       0.018848233 -0.030081633 -0.0038518556 -0.028301034
0000b0 35 ab 92 bd 9b 2e 9a bb e0 7a b7 bd bb 81 82 bd
       -0.071615614 -0.004705263 -0.089589834 -0.063724004
0000c0 65 48 45 3d 91 a9 1f bc 4a bd c3 3c dc 26 c4 3c
       0.048164744 -0.009745018 0.023893971 0.02394431
0000d0 33 8c 2f bd 77 58 36 3d 53 dd e6 bc ab 6f 94 3d
       -0.042858314 0.04451796 -0.028181707 0.072478615
0000e0 39 63 fc 3c 2d e6 80 3d 61 13 31 3d c7 38 13 3d
       0.030809032 0.062939025 0.04323137 0.03594282
0000f0 47 fa 9a 3d 3d 5f 2d bd ae 32 9a bd a6 ee e9 bc
       0.07567268 -0.042327154 -0.07529198 -0.02855618
000100 f0 31 c8 bd 34 6e dd bc 1e 78 73 3d 56 94 49 bc
       -0.0977515 -0.027030088 0.059440725 -0.012303432
000110 2b e6 87 bd 10 fb 72 bd b6 20 01 bd bc e6 27 bd
       -0.06635698 -0.059321463 -0.031525336 -0.04099153
000120 3d f3 49 bd ff 0b 2f bd ac f4 31 bd e6 0b 5d bc
       -0.049304236 -0.04273605 -0.043446228 -0.013491606
000130 ff d2 73 bd 84 32 98 bc 4d 6d f8 3c 54 9b 92 bd
       -0.059527393 -0.018578775 0.030325556 -0.07158533
000140 96 74 ba bd 88 e8 db 3d 50 f5 aa bb 6f bb 94 3d
       -0.09104268 0.10737711 -0.005217232 0.072623126
000150 a3 31 73 bd 4e f4 51 bd db 28 9d bd bd f4 0e 3d
       -0.05937351 -0.051258378 -0.07673808 0.03490137
000160 a6 70 26 3b 94 7e 4d 3d e7 3e 41 bd 28 60 20 3d
       0.0025396734 0.050169542 -0.04717913 0.0391542
000170 34 fc 7d bd 2f f1 a2 bd 35 06 c5 bc af e7 8d bd
       -0.062008098 -0.07956158 -0.024050811 -0.06928956
000180 36 76 87 3d a3 80 fd 3c a1 f7 db 3d bd dc 68 3d
       0.06614344 0.030945128 0.10740591 0.056851137
000190 6a d1 38 bd 8f 91 47 bd 17 5b 9a bd d6 58 07 bd
       -0.045121588 -0.0487228 -0.07536905 -0.033043705
0001a0 46 4b e8 bc 13 87 57 bd 9e f2 d8 3d 4c 00 3d bd
       -0.028356206 -0.05261905 0.105931506 -0.04614286
0001b0 8c dc ad 3d 64 c5 ca 3d dd 0f 5d 3c 46 15 48 3d
       0.084893316 0.099009305 0.013492552 0.048848413
0001c0 29 5b 94 3d 94 25 1f bd b4 f8 c5 3c 53 bb 8f bd
       0.0724395 -0.038854197 0.024166442 -0.07018151
0001d0 37 aa 98 3d d0 ae 56 3d 36 8a 08 3c 8d 8f 24 3d
       0.07454341 0.052412808 0.008333733 0.040175963
0001e0 18 9a f5 bc bb a1 55 3d 53 72 30 bd 26 de b2 bc
       -0.029980704 0.05215619 -0.043077778 -0.021834444
0001f0 83 6c 72 3d c6 1e a5 3d 33 a9 33 bc 38 6c 8c 3d
       0.059185516 0.0806251 -0.010965633 0.068565786
000200 71 b9 56 3d 19 69 59 bd 99 c3 05 3c b7 af e3 bc
       0.052422944 -0.053078745 0.00816431 -0.027793748
000210 d2 74 45 3c ef 8f 60 bd 6c 39 81 3d 99 a2 90 3c
       0.012051778 -0.054824766 0.063097805 0.017655658
000220 e5 cb 28 bc a1 5f 34 3c 65 5b 7f bb 8e d2 21 bc
       -0.0103025185 0.011009128 -0.0038964387 -0.00987686
000230 e3 1b 72 3d fa 00 cb 3c c4 80 d6 bc fb e5 fa bc
       0.059108626 0.02478074 -0.026184447 -0.030627241
000240 2c a3 83 bd d9 65 1f bd 24 ce 5c bd 09 32 00 bd
       -0.06427607 -0.03891549 -0.05390753 -0.031297717
000250 7c e2 91 3c 55 92 16 bd 6b 91 10 3d de 4c b4 bc
       0.017808191 -0.036760647 0.03529493 -0.02200931
000260 25 97 b7 bd 8f 68 6e 3d 0a 1f 71 bd c5 13 97 3c
       -0.089643754 0.058205184 -0.05886749 0.018442044
000270 40 2d 8d bd 1f 31 b6 bd 70 8b b7 bc 53 e0 f8 bc
       -0.068933964 -0.08896088 -0.022405356 -0.030380404
000280 e8 c1 f7 bc a2 10 84 bd f3 4a aa 3d 02 e1 50 3d
       -0.030243829 -0.06448485 0.08315077 0.050995834
000290 7f 75 4b 3d 7c b5 49 bd fc 69 44 bd 6c 70 ae bd
       0.0496726 -0.049245343 -0.047952637 -0.085175365
0002a0 17 79 0c 3d f6 c7 96 bd f3 c7 b0 bd 7f fa 63 bd
       0.034295168 -0.07362358 -0.08631887 -0.055658814
0002b0 78 17 3f 3d f9 d0 9a bd 9d 29 7e bd e9 62 1d 3d
       0.04665324 -0.075593896 -0.062051404 0.038424406
0002c0 99 72 3e b9 2e 32 54 bb e2 f3 46 bc be 3b f1 bc
       -0.00018162503 -0.0032378542 -0.012143107 -0.029447433
0002d0 43 ec 81 3d 0e 19 49 bd 3b 34 70 bc 60 c6 1f 3d
       0.063438915 -0.04909616 -0.01466089 0.039007545
0002e0 37 ec 78 bd 33 6d ac 3b 2b 0f 07 bd 6a cc b1 bc
       -0.060772147 0.005262041 -0.03297345 -0.021703918
0002f0 57 58 a7 bc 9a 8b 85 3d c8 16 34 bc 81 aa ed bc
       -0.020427866 0.065207675 -0.01099176 -0.029011967
000300 fc af 91 bc 01 bd d5 3c 18 25 92 bb da 9a 99 bd
       -0.017784111 0.0260911 -0.0044599883 -0.07500239
000310 31 a5 bb bd 21 6c 62 3b 19 d7 b4 bd 59 49 39 bd
       -0.09162367 0.0034549313 -0.08830089 -0.045235965
000320 9c 41 a2 3c 0c ce 95 bd 33 a8 d4 bc 46 d5 72 3d
       0.019806676 -0.07314691 -0.02595911 0.059285425
000330 6f 52 f5 3c 1f aa d7 3d 79 06 fc 3b bb 76 c0 bd
       0.029946534 0.10530495 0.0076912013 -0.09397646
000340 be 63 42 bc 09 6f ce bd d8 15 cb 3d 5a 26 dd bc
       -0.011864601 -0.10079772 0.09916276 -0.026995827
000350 b9 d1 37 3c 2b 00 43 3d bc 95 63 bd 0c a6 82 bd
       0.011219435 0.047607582 -0.05556272 -0.06379327
000360 39 10 4d 3b a2 02 4c bd 65 0a 74 3b e5 a5 75 3d
       0.0031290187 -0.0498072 0.003723764 0.059972662
000370 c8 b3 88 bd fe 96 99 bb 15 c6 67 ba 6e a1 65 ba
       -0.066749156 -0.004687189 -0.0008841467 -0.00087597116
000380 68 a9 bb bc bb a1 bd bc d9 a4 f3 bc 24 7e 0e bd
       -0.022907928 -0.023148408 -0.029741691 -0.034788266
000390 cc 59 5d 3c 7b 0a 44 3d b4 cb cf 3d 3f e0 ab 3d
       0.013510179 0.047861557 0.10146275 0.08392381
0003a0 2c c8 97 3d 11 6d 24 bc e4 e9 00 bc d6 21 10 3b
       0.07411227 -0.010035769 -0.007868264 0.0021992824
0003b0 1a be c1 bc 9d 30 93 3d fe 0a 6a 3b 47 42 71 bd
       -0.023650218 0.071870066 0.0035712118 -0.058901098
0003c0 3d 55 b1 bd 96 89 9b bb 56 22 9a 3c da f6 ac 3c
       -0.08658836 -0.004746626 0.0188152 0.021113802
0003d0 ce 82 35 bd 25 45 e2 3c 4e 1d 60 bb e1 b1 aa bd
       -0.0443142 0.027620861 -0.0034197154 -0.08334709
0003e0 e0 5b da 3d 44 bd 82 3d 75 b7 a2 bd 98 08 14 3d
       0.10662055 0.06383756 -0.07945148 0.03614101
0003f0 16 12 9b 3d fb 2c d6 ba b7 55 cd bc fb ae 2f bc
       0.07571809 -0.001634031 -0.025065286 -0.010722871

encoder.layers.0.linear2.bias f4 [64]
000000 3a 2d d9 ba 86 62 4b 3d 5f 02 04 bd 28 2d 27 3d
       -0.0016569265 0.049654506 -0.032228824 0.04081455
000010 07 9e 8c 3c 21 fd ae 3c 4a e6 1f bd 7c c6 b3 bd
       0.017165197 0.021360936 -0.03903798 -0.08778092
000020 41 02 68 3c 31 1a b2 bd af 47 0e bc 46 eb 10 bd
       0.014160694 -0.08696402 -0.008684083 -0.035380624
000030 20 83 12 3d 82 d4 87 3d 06 47 f9 bc 26 a9 bf bd
       0.03576958 0.066323295 -0.030429374 -0.093584344
000040 63 4d 7f bd f5 cb 10 bd 09 61 d5 bc 9f 9d 56 3d
       -0.06232966 -0.03535076 -0.026047247 0.052396413
000050 bd f9 25 3c 75 ef 81 3d 1a b7 5b bd 49 46 80 3d
       0.010130343 0.06344501 -0.053641416 0.06263406
000060 d7 98 43 3d 00 4d 97 bd c4 cc 11 3d f0 9c 94 bd
       0.04775318 -0.073877335 0.03559567 -0.07256496
000070 4b 45 47 3c 8a bf af 3b 7c 7a f6 bc 43 a5 5f 3d
       0.012162517 0.0053634094 -0.030087702 0.054600965
000080 fe 4d 98 3c 81 49 4a 3d 7f 81 6c bd 5b bc a5 bd
       0.018591877 0.049386505 -0.057740685 -0.080925666
000090 a4 b6 d6 3c ab ed 20 bd 82 2e 8d bd 48 57 08 bd
       0.026210137 -0.039289158 -0.06893636 -0.033286363
0000a0 33 48 0a 3d 9a ac e0 3c 33 5c a2 3d 28 82 26 3d
       0.03376026 0.027426053 0.07927742 0.04065147
0000b0 3e fb 8b bd 13 0c ef bc ce a2 63 bd 7f cb 74 3d
       -0.0683503 -0.029180562 -0.055575185 0.05976438
0000c0 2c d9 29 bd c0 d9 ff 3c 05 27 c8 3c ed b2 c6 bc
       -0.041466877 0.031231761 0.024432668 -0.02425524
0000d0 eb 4f c1 3c 3e 29 5f 3d 0a 20 90 3d a7 7f 33 3d
       0.023597678 0.05448269 0.07037361 0.04382291
0000e0 97 8c 72 3d ff 30 34 bc d0 fd 2d bd 3e 07 8d bd
       0.05921611 -0.01099801 -0.042478383 -0.06886147
0000f0 be 04 ce 3c c0 a9 26 3d f8 46 a3 bd da 26 7f bd
       0.025148746 0.04068923 -0.079725206 -0.06229291

encoder.layers.0.norm1.weight f4 [64]
000000 15 67 80 3f 96 23 7d 3f 3a ec 81 3f ea 52 85 3f
       1.0031458 0.98882425 1.0150216 1.0415928
000010 1b 52 7c 3f 22 6a 86 3f 3b e6 7c 3f e8 07 7f 3f
       0.98562783 1.0501139 0.98788804 0.9962144
000020 6a 7d 7f 3f a8 f1 88 3f e7 17 86 3f f3 5c 7f 3f
       0.9980074 1.0698748 1.0476044 0.99751204
000030 e3 c5 7b 3f 6d 54 7d 3f 12 02 82 3f 6d 3c 7d 3f
       0.98348826 0.9895695 1.0156882 0.9892033
000040 c8 94 79 3f d9 85 80 3f e3 0c 7a 3f c3 70 80 3f
       0.9749265 1.0040847 0.97675914 1.0034412
000050 c3 32 7c 3f bc 2b 83 3f ac 1e 84 3f 18 2e 7f 3f
       0.98514956 1.0247722 1.032186 0.9967971
000060 4f ff 7c 3f ae b9 83 3f b4 2e 80 3f c4 33 7e 3f
       0.9882707 1.029104 1.0014253 0.9929774
000070 6d 16 82 3f 98 2a 82 3f 82 a2 81 3f 84 0b 83 3f
       1.0163094 1.0169249 1.0127718 1.0237889
000080 44 65 7f 3f 6e a3 7e 3f 43 61 7e 3f 48 dd 7b 3f
       0.99763894 0.99468124 0.9936716 0.98384523
000090 d5 8b 7f 3f 8c 45 7f 3f 32 75 79 3f 02 f6 7e 3f
       0.9982274 0.99715495 0.9744445 0.9959413
0000a0 6c f7 80 3f 44 95 82 3f b4 3a 7e 3f 83 cb 81 3f
       1.0075507 1.0201802 0.99308324 1.0140232
0000b0 09 b8 82 3f dc b4 7d 3f 58 a9 81 3f 2c 12 7c 3f
       1.0212413 0.99104095 1.0129805 0.9846523
0000c0 ca b2 80 3f fe fd 7e 3f 73 ce 7b 3f e5 21 81 3f
       1.0054562 0.9960631 0.9836189 1.0088469
0000d0 62 88 85 3f 61 93 7b 3f 07 10 7f 3f 65 c8 85 3f
       1.0432246 0.9827176 0.9963383 1.045178
0000e0 a6 31 79 3f bd 07 80 3f 71 c2 7d 3f 28 3c 80 3f
       0.9734138 1.0002362 0.9912482 1.0018358
0000f0 be 27 7d 3f cd 3c 7d 3f d3 89 80 3f 6a 61 7d 3f
       0.98888767 0.989209 1.0042061 0.9897677

encoder.layers.0.norm1.bias f4 [64]
000000 36 90 cf 3a ec a7 7f bc 09 02 98 3b 7f 6a df b8
       0.0015835825 -0.015604001 0.0046389145 -0.00010653305
000010 e4 c0 a1 bc bd 91 f4 3a 88 0b 65 bc 40 56 19 bc
       -0.019745298 0.0018659156 -0.0139798 -0.0093589425
000020 88 15 cb bb 73 1e 02 bb bc 59 b4 3a 57 f3 05 3c
       -0.006197635 -0.0019854575 0.0013759653 0.0081756925
000030 74 8d 15 bb 73 07 e1 3b f2 fe 04 3a b8 b0 30 bc
       -0.0022819908 0.006867343 0.000507339 -0.0107843205
000040 96 a5 68 bc 07 2d a0 bb f7 4c b5 3c a7 e5 17 3c
       -0.014199635 -0.00488818 0.022131426 0.009271062
000050 78 7d 5d 3c c3 30 75 bb 66 b0 4b bb 61 44 0b bc
       0.013518684 -0.0037413097 -0.0031080483 -0.0085001895
000060 62 4d 8c bc 93 65 49 bb 85 4a c5 bb 6f 3b 03 3c
       -0.017126743 -0.003073071 -0.0060208463 0.008009776
000070 fd 34 19 3b ac 8d 0d bb 9c 46 aa 3b 05 cc 18 bc
       0.002337753 -0.0021599336 0.0051964056 -0.009325986
000080 fe 77 b0 3b 21 10 21 3b ab 40 2d 3c 95 38 ad 3c
       0.005385398 0.0024576264 0.0105745 0.021145144
000090 b4 00 8c 3a 13 e6 04 3c 0f 4b c0 3c 84 83 e7 bb
       0.0010681362 0.008111495 0.02347329 -0.0070652384
0000a0 65 9f 91 b9 c0 f7 92 3b 1d 89 8c ba dc b0 aa 3a
       -0.00027775313 0.0044851005 -0.0010722015 0.0013022679
0000b0 1d f8 e6 39 45 f4 7b bc ed 08 92 3a 4e bb 91 bc
       0.00044053877 -0.015378063 0.0011141576 -0.01778951
0000c0 4e 3c 3b bb 39 2d 7b bb f1 d8 5e bc b2 af 14 3a
       -0.002856988 -0.0038326515 -0.013601528 0.00056719326
0000d0 f3 f3 11 bb a1 47 96 3c f2 e7 d9 bb 10 04 41 3a
       -0.002227065 0.018344702 -0.0066499645 0.0007362971
0000e0 39 6f e5 3c 77 47 bd bb 63 e3 fc 3b 3a cb d6 3b
       0.028007137 -0.0057763415 0.0077175363 0.006554988
0000f0 50 a3 3b bc e9 dc 4c 3c 47 3b 39 bb 8b c5 ec 3b
       -0.011452511 0.012503841 -0.0028264092 0.0072256974

encoder.layers.0.norm2.weight f4 [64]
000000 8b 90 7f 3f be 7d 77 3f 26 dc 83 3f 5f fa 83 3f
       0.9982993 0.9667624 1.0301559 1.0310782
000010 0e 22 79 3f 8a e2 83 3f d7 69 7c 3f cd d9 7d 3f
       0.9731759 1.0303509 0.98599 0.9916046
000020 ee d5 7f 3f cf a3 82 3f 51 6e 85 3f 42 86 7f 3f
       0.99935806 1.020624 1.0424291 0.99814236
000030 c6 47 7e 3f 32 13 7d 3f 22 d0 81 3f a5 34 7d 3f
       0.9932827 0.98857415 1.0141642 0.98908454
000040 41 2a 79 3f 29 8e 80 3f a9 96 7a 3f 8a f3 7e 3f
       0.973301 1.0043384 0.9788614 0.9959036
000050 14 fb 7a 3f cf a1 81 3f 35 ca 83 3f 49 a8 79 3f
       0.98039365 1.0127505 1.0296084 0.9752241
000060 f7 3e 7c 3f 39 5c 84 3f 5c 70 80 3f 2f b4 78 3f
       0.98533577 1.0340644 1.0034289 0.9714994
000070 77 93 81 3f f6 0f 82 3f 2b 10 81 3f 5a 37 7d 3f
       1.0123128 1.0161121 1.0083059 0.98912585
000080 c8 cf 7e 3f d5 23 7f 3f 41 43 7e 3f c2 3e 7f 3f
       0.995358 0.9966405 0.9932137 0.99705136
000090 a3 9d 7d 3f 02 57 7f 3f 2d 4f 7d 3f ed 98 7d 3f
       0.9906866 0.9974214 0.9894894 0.9906147
0000a0 6b 20 82 3f 7f 8e 82 3f a8 21 7a 3f 46 54 82 3f
       1.0166143 1.0199736 0.97707605 1.0181968
0000b0 28 96 82 3f 76 27 7d 3f b2 ac 80 3f 24 cc 78 3f
       1.0202074 0.9888834 1.0052702 0.97186494
0000c0 fb 81 80 3f dd d0 7c 3f 0b 32 79 3f 1c 6f 7c 3f
       1.0039667 0.987562 0.97341985 0.9860704
0000d0 ef 95 82 3f 13 b2 7a 3f 6f c6 7f 3f 46 21 83 3f
       1.0202006 0.9792797 0.9991216 1.0244529
0000e0 c8 43 7c 3f 06 eb 80 3f e9 7b 7e 3f 11 7a 7f 3f
       0.98540926 1.0071723 0.9940782 0.99795634
0000f0 7a 96 7c 3f 2b 0a 76 3f 1c 3c 80 3f 35 19 7e 3f
       0.9866711 0.96109265 1.0018344 0.9925721
