assets/snapshots/P2_minmax_global_transformer.pth (torch, 296393 bytes, 30 tensors)

input_proj.weight f4 [64, 1]
-0.27850538 0.52527875 -0.40350658 -0.32882008 0.25240675 0.14779513 -0.4425514 -0.9317645
0.22679952 0.87162954 0.8597406 0.20353803 0.6043803 -0.15248094 0.22702579 -0.3001349
-0.22871657 -0.28530684 0.19659518 0.29205057 -0.7164237 0.4471945 0.1743574 0.6047398
0.7725193 -0.1191498 0.95018244 0.83410615 -0.92212194 -0.19094227 0.71882874 0.21112448
0.618344 0.02434441 -0.4635777 0.09754964 -0.5980317 -0.43801227 0.18477453 0.06509704
0.25466624 0.23240043 -0.2507421 0.79422206 0.3574241 -0.12019608 -0.90276045 0.47441864
0.7504706 1.0901204 0.43760267 0.41768008 1.0025198 0.96566236 0.4013102 -0.15246627
-0.46550906 -0.44553456 -0.8787315 0.02559138 -0.6031136 -0.6732501 -0.06106766 -0.5950001
00000000: 4298 8ebe ab78 063f 6a98 cebe 1b5b a8be
00000010: 753b 813e 9b57 173e 1996 e2be 1e88 6ebf
00000020: 223e 683e 1d23 5f3f f617 5c3f 466c 503e
00000030: abb8 1a3f f723 1cbe 7379 683e 48ab 99be
00000040: ad34 6abe bd13 92be 3f50 493e a787 953e
00000050: 8b67 37bf adf6 e43e bf8a 323e 3ad0 1a3f
00000060: d3c3 453f cf04 f4bd 283f 733f fb87 553f
00000070: 2f10 6cbf 5f86 43be 2905 383f 0431 583e
00000080: cb4b 1e3f ee6d c73c 0e5a edbe 1bc8 c73d
00000090: 9b18 19bf 2543 e0be 8935 3d3e 9951 853d
000000a0: 9d63 823e 61fa 6d3e 4561 80be 2352 4b3f
000000b0: 4b00 b73e 5d29 f6bd 4f1b 67bf 00e7 f23e
000000c0: d71e 403f 1189 8b3f 750d e03e 2ada d53e
000000d0: 9252 803f a635 773f 8878 cd3e 1e20 1cbe
000000e0: 3457 eebe 1b1d e4be 8cf4 60bf 04a5 d13c
000000f0: a765 1abf 1e5a 2cbf 1522 7abd ed51 18bf

input_proj.bias f4 [64]
-0.26597682 -0.05567826 0.5789816 -0.21743397 0.84247506 0.9014854 0.27475822 -0.18957207
0.2626571 0.3374241 0.87101376 0.6066292 -0.35535064 -0.08712324 -0.73894334 0.10917156
-0.5182041 0.6159866 -0.75000525 0.6190396 0.7256071 0.81389755 -0.508193 0.019774826
0.76325756 -0.62232804 0.3425576 -0.8122599 0.8816471 0.8110219 0.44615057 0.612489
-0.4145334 0.03529327 -0.45844972 -0.57321745 0.727356 0.5564228 -0.11481053 0.60415626
-0.62287134 0.81041145 -0.89757115 0.37470597 -0.1989326 -0.7479512 -0.7118729 -0.94638854
0.80603814 -0.3454181 0.28095454 -0.078713365 0.5452418 0.32714844 -0.11978231 0.4845786
0.5976828 0.60257435 0.550058 -0.57715553 -0.7538372 -0.51705 0.71241766 -0.61350065
00000000: 1d2e 88be e30e 64bd 2338 143f 03a7 5ebe
00000010: 72ac 573f bfc7 663f 1cad 8c3e 2e1f 42be
00000020: fe7a 863e dac2 ac3e c2fa 5e3f 0d4c 1b3f
00000030: 85f0 b5be ab6d b2bd 642b 3dbf 5795 df3d
00000040: 06a9 04bf 4cb1 1d3f 5800 40bf 6179 1e3f
00000050: 63c1 393f 975b 503f f018 02bf d1fe a13c
00000060: d964 433f e450 1fbf b663 af3e 44f0 4fbf
00000070: a0b3 613f 229f 4f3f d96d e43e 14cc 1c3f
00000080: b93d d4be ad8f 103d ecb9 eabe 61be 12bf
00000090: 0134 3a3f ba71 0e3f c821 ebbd fca9 1a3f
000000a0: 7f74 1fbf 2077 4f3f 39c7 65bf 76d9 bf3e
000000b0: fdb4 4bbe bb79 3fbf 4d3d 36bf 8546 72bf
000000c0: 8458 4e3f a4da b0be 46d9 8f3e 7934 a1bd
000000d0: f794 0b3f 0080 a73e 6e50 f5bd b01a f83e
000000e0: bd01 193f 5042 1a3f 9ad0 0c3f 77c0 13bf
000000f0: 7afb 40bf 645d 04bf 0161 363f 610e 1dbf

encoder.layers.0.self_attn.in_proj_weight f4 [192, 64]
-0.058001075 -0.1375507 0.001399236 -0.004520692 0.05586287 -0.011046134 0.06944445 -0.07706808
0.014546194 -0.0656031 -0.04541999 0.08070078 -0.24299005 -0.107198864 0.110275365 0.2844474
-0.110420324 -0.036773246 -0.117278576 -0.16070099 -0.09053851 -0.03996771 0.014257656 -0.2194192
-0.14198661 -0.09681917 -0.03210455 -0.18611519 0.18993856 -0.09612163 -0.18715625 -0.14071105
0.015586911 -0.14316458 0.14571698 0.006133435 0.058105636 0.07728403 0.051232345 0.08603186
-0.06905163 0.03016826 -0.03173274 0.018663492 -0.14802806 0.058754876 0.056821983 -0.10815303
-0.15169632 -0.2746278 -0.025970314 -0.29739133 -0.13367486 0.005123152 -0.28916255 -0.002402355
-0.084903196 -0.05586754 0.24163555 -0.068066135 0.16875836 -0.08756542 0.016414696 0.044978958
-0.12580948 0.06036583 0.041888252 -0.024750315 0.14088054 -0.06623982 -0.21306218 0.084074855
0.006849008 -0.043085612 0.06958592 -0.1429257 0.066154815 0.12090776 0.16281386 -0.30899382
0.10191096 0.028407486 0.0024342497 -0.05711 0.0714311 0.12194161 0.0025390557 -0.033875983
0.068687074 0.058527496 -0.033837743 0.013805003 -0.18337815 0.1124905 -0.08602881 0.035262845
0.03591897 -0.06520857 0.031242352 -0.044694096 -0.0011668905 -0.15133117 -0.05485483 -0.0942141
-0.0042745643 -0.019354407 -0.004990047 0.03147911 0.046566274 -0.12264069 0.14428207 0.05565964
0.09600123 0.060818154 -0.06864566 -0.01533861 -0.12670869 -0.021785792 0.2068157 0.11824824
-0.13274363 -0.16005173 -0.11586489 -0.02271229 -0.1495251 0.09366449 -0.0045321733 -0.058230158
0.1498334 -0.068512745 0.10281704 -0.13152917 0.12507701 0.010794029 0.18851133 -0.06800757
-0.0048125926 0.0709234 -0.07934627 -0.13562219 -0.0016382646 0.07088201 0.1353762 0.08145553
0.061567806 0.10760697 0.13396414 0.10074631 -0.08685921 -0.08480763 0.021009825 0.008358458
-0.15557064 0.11691701 -0.10532666 -0.089446574 0.052411336 -0.0006700499 0.09709293 0.13559927
-0.09500594 0.0779833 -0.12299848 -0.10565944 0.006198499 -0.02560675 0.088691875 0.10687236
-0.0043017077 0.09452005 0.16002196 0.104457214 0.008377059 -0.009395595 0.10005525 0.038409118
-0.13271728 -0.15464988 -0.06576617 -0.10725603 -0.131913 -0.12711506 -0.38228363 0.102422714
0.05367223 0.085195795 0.1790484 -0.086981535 0.06978959 0.062095605 -0.019797193 -0.10546297
0.036405575 0.14343554 -0.15835214 0.12185702 0.08794931 0.014078511 0.028256705 -0.07711591
-0.02794257 0.06848314 -0.09787166 -0.0038609337 0.090459354 -0.06774158 0.098979786 0.06598446
0.03885681 -0.089795634 0.06864619 0.028366955 0.043904353 0.03572295 -0.04961941 0.0367275
0.11488303 0.0146828 -0.10851215 -0.1255145 0.088903874 0.02169815 -0.102731735 -0.14218658
-0.09491225 -0.12315972 -0.005758584 0.026303247 0.08168823 0.10270166 0.014105437 0.12673669
0.15221955 0.009619389 -0.039985146 0.118639484 0.12744197 -0.031311978 -0.060919553 0.14314495
-0.018866554 0.14971635 0.1543256 -0.006100497 0.13229068 0.0398433 0.11799168 -0.014401914
-0.039744332 -0.006984778 -0.0026943088 0.0069228867 -0.048156112 -0.023813114 -0.0774684 0.111113854
00000000: 8992 6dbd 17da 0cbe 9266 b73a 5022 94bb
00000010: 77d0 643d d8fa 34bc e438 8e3d dfd5 9dbd
00000020: 2953 6e3c eb5a 86bd 500a 3abd 7346 a53d
00000030: 62d2 78be 148b dbbd 0dd8 e13d 17a3 913e
00000040: 0d24 e2bd 8b9f 16bd c02f f0bd cd8e 24be
00000050: 416c b9bd 2eb5 23bd f298 693c 6daf 60be
00000060: f064 11be 2149 c6bd 1080 03bd fb94 3ebe
00000070: 417f 423e 6bdb c4bd e3a5 3fbe 8f16 10be
00000080: 3e60 7f3c bc99 12be d536 153e fbfa c83b
00000090: 2d00 6e3d 1747 9e3d 02d9 513d 7931 b03d
000000a0: f16a 8dbd 6d23 f73c 31fa 01bd 2ee4 983c
000000b0: ab94 17be f4a8 703d 2bbe 683d 567f ddbd
000000c0: 4856 1bbe 049c 8cbe b2bf d4bc ad43 98be
000000d0: 10e2 08be 1de0 a73b 1d0d 94be d470 1dbb
000000e0: bae1 adbd 5dd5 64bd 4f6f 773e 4266 8bbd
000000f0: fece 2c3e 8055 b3bd 1d78 863c db3b 383d
00000100: 33d4 00be 2942 773d 0493 2b3d 2cc1 cabc
00000110: fd42 103e bea8 87bd f92c 5abe 702f ac3d
00000120: a56d e03b 8a7a 30bd 1083 8e3d 1d5b 12be
00000130: 2d7c 873d 7d9e f73d adb8 263e 7034 9ebe
00000140: b2b6 d03d d1b6 e83c ef87 1f3b 2dec 69bd
00000150: 784a 923d 86bc f93d 4966 263b 8bc1 0abd
00000160: cfab 8c3d 87ba 6f3d 7299 0abd 612e 623c
00000170: 7bc7 3bbe 6b61 e63d df2f b0bd c66f 103d
00000180: c51f 133d 128c 85bd f6ef ff3c 2811 37bd
00000190: 59f2 98ba 8ff6 1abe 75af 60bd 52f3 c0bd
000001a0: a511 8cbb 228d 9ebc 8c83 a3bb 3df0 003d
000001b0: 47bc 3e3d 0b2b fbbd aebe 133e 5dfb 633d
000001c0: 4b9c c43d 751c 793d 1996 8cbd cb4e 7bbc
000001d0: ecbf 01be 1e78 b2bc 7fc7 533e 222c f23d
000001e0: f2ed 07be 9ae4 23be 924a edbd 200f babc
000001f0: 1c1d 19be 2bd3 bf3d a082 94bb bf82 6ebd
00000200: ed6d 193e 6950 8cbd be91 d23d 95af 06be
00000210: 3014 003e 70d9 303c 1d09 413e 8e47 8bbd
00000220: f4b2 9dbb 4a40 913d 4c80 a2bd 8be0 0abe
00000230: 0abb d6ba 962a 913d 0fa0 0a3e 28d2 a63d
00000240: 862e 7c3d 0b61 dc3d e52d 093e 1554 ce3d
00000250: 3ee3 b1bd 9faf adbd cc1c ac3c eaf1 083c
00000260: e94d 1fbe 2f72 ef3d 81b5 d7bd c42f b7bd
00000270: 45ad 563d 4aa6 2fba a8d8 c63d 89da 0a3e
00000280: 7992 c2bd b5b5 9f3d a1e6 fbbd fa63 d8bd
00000290: c71c cb3b 3fc5 d1bc 16a4 b53d e5df da3d
000002a0: 57f5 8cbb ba93 c13d ccdc 233e aaed d53d
000002b0: ef3f 093c fbef 19bc c4e9 cc3d e152 1d3d
000002c0: 0ae7 07be 8a5c 1ebe 6ab0 86bd 0da9 dbbd
000002d0: 3414 07be 732a 02be aeba c3be 00c3 d13d
000002e0: 6ad7 5b3d 227b ae3d 7758 373e 6023 b2bd
000002f0: d8ed 8e3d f657 7e3d b92d a2bc f8fc d7bd
00000300: 031e 153d c4e0 123e 1027 22be 2c90 f93d
00000310: c51e b43d 8ea9 663c 9b7a e73c f2ee 9dbd
00000320: d1e7 e4bc e340 8c3d f070 c8bd b807 7dbb
00000330: c142 b93d 19bc 8abd eab5 ca3d dc22 873d
00000340: 5228 1f3d c6e6 b7bd 6096 8c3d d161 e83c
00000350: 0dd5 333d 3a52 123d b93d 4bbd 936f 163d
00000360: cb47 eb3d 2090 703c 9e3b debd e086 00be
00000370: 3c13 b63d 52c0 b13c 0465 d2bd 5c99 11be
00000380: 5b61 c2bd 2a3b fcbd 81b2 bcbb e879 d73c
00000390: 294c a73d 3f55 d23d 7e1a 673c 43c7 013e
000003a0: 71df 1b3e a49a 1d3c 77c7 23bd 42f9 f23d
000003b0: 2680 023e fd40 00bd c886 79bd 9794 123e
000003c0: 088e 9abc 3e4f 193e 8807 1e3e aee6 c7bb
000003d0: 3577 073e ba32 233d 9fa5 f13d 01f6 6bbc
000003e0: f4ca 22bd 91e0 e4bb 0093 30bb 62d9 e23b
000003f0: 583f 45bd b813 c3bc c1a7 9ebd a98f e33d

encoder.layers.0.self_attn.in_proj_bias f4 [192]
-0.009966407 -0.013832184 -0.0010598133 -0.006090551 -0.018311352 0.00986738 0.0077473423 0.015460389
-0.030154502 -0.025486266 -0.041636847 0.019885926 0.014933624 0.024802646 -0.0025296288 0.004409734
0.018134875 0.013085223 0.018729758 0.0053664455 0.00026886415 0.03462348 -0.038144283 -0.031545993
-0.039114565 -0.010501508 0.03370793 0.022738595 -0.007871975 0.010962476 -0.017838994 0.0059797866
0.025883632 -0.020813141 -0.034900177 0.026047336 -0.042615406 -0.03390388 0.04314217 0.0022870337
-0.008687376 0.010954682 0.030341903 -0.014185195 -0.022454284 -0.03958232 -0.042222276 -0.012904923
-0.04040228 0.026732393 -0.029223602 0.021801738 0.039765295 -0.026608672 -0.0017185624 -0.021744477
-0.0066672293 -0.0072219423 0.022456618 -0.009337835 -0.036526922 -0.01584483 0.0033143163 -0.010210773
0.00054009457 0.0003283999 0.00039302534 -0.00021709179 -0.00139567 -0.00092500914 -0.0005232819 0.0013664468
0.0013958854 0.0014997058 -0.002368043 -0.0012345586 0.001331073 0.0019036633 -0.0013819884 0.0017509006
-0.00084509613 0.0008540631 -0.00062062015 0.0010154252 -0.00091732515 -0.0010004356 -0.0016136842 0.0010496359
0.0016948932 0.00033301226 0.0056127408 -0.0014990087 0.001973905 -0.00021623775 0.0019073861 0.002077047
-0.0014701607 0.0014148689 0.002350222 -0.0014927736 0.000561144 0.0015154154 -0.0015018681 0.0010500643
-0.00045749397 -0.0011790498 -0.0013125696 0.000972751 0.0010422195 0.0024020697 0.0007343454 0.0023777892
0.0007436703 -0.0005722623 -0.0018478662 -0.000761713 -0.0007356216 0.0008226995 -0.00027242026 -0.00039314918
-0.0009012805 -0.0007735402 -0.00078652485 -0.0008628681 0.0019446667 0.001636367 0.00041077778 0.000685906
-0.005679372 0.018920967 0.005040435 -0.009750544 -0.023872657 0.00072217785 0.017062446 -0.009930178
-0.0085193105 -0.0047031543 0.00049001834 -0.0051406543 0.005874457 0.027226467 -0.0016322315 0.023950752
0.01047445 -0.019545574 0.0012710849 0.0018586831 0.013476856 -0.022008497 0.021954557 0.0041757314
0.002172057 0.0062246425 0.003005588 0.020837814 0.028302573 -0.036784213 0.008860866 0.0029529308
-0.027543467 0.008708808 -0.010182923 -0.00896257 -0.0025233256 0.022574957 -0.012477177 -0.0015805707
0.008697442 -0.009846509 0.010785966 -0.007179802 -0.022219377 -0.035812274 0.0061762277 0.012093989
-0.018383501 0.0033782858 0.0023324382 -0.01669903 0.0024417522 0.0050239707 0.0057577854 0.021072732
0.023490824 -0.0040622335 0.009463712 0.013899835 -0.0017461072 0.02150804 -0.008064472 -0.0033253531
00000000: 244a 23bc 62a0 62bc 6fe9 8aba 3f93 c7bb
00000010: b001 96bc cbaa 213c 6bdd fd3b 924d 7d3c
00000020: 9306 f7bc 93c8 d0bc 668b 2abd cfe7 a23c
00000030: 29ac 743c eb2e cb3c 21c8 25bb 887f 903b
00000040: 978f 943c 6763 563c 266f 993c 02d9 af3b
00000050: 56f6 8c39 5ad1 0d3d 2e3d 1cbd 5f36 01bd
00000060: 9836 20bd 840e 2cbc 5411 0a3d 4a46 ba3c
00000070: 75f9 00bc f59b 333c 1523 92bc 16f2 c33b
00000080: e909 d43c 5280 aabc 7df3 0ebd 3961 d53c
00000090: 7e8d 2ebd cbde 0abd d8b5 303d 0fe2 153b
000000a0: 7f55 0ebc 447b 333c 958f f83c 0569 68bc
000000b0: 0cf2 b7bc 1221 22bd 44f1 2cbd 2c6f 53bc
000000c0: dc7c 25bd e4fd da3c 5666 efbc 8f99 b23c
000000d0: efe0 223d 6efa d9bc 6341 e1ba 7921 b2bc
000000e0: c678 dabb 0ba6 ecbb f1f6 b73c b8fd 18bc
000000f0: 419d 15bd 04cd 81bc 0035 593b 164b 27bc
00000100: 2295 0d3a 172d ac39 f80e ce39 22a3 63b9
00000110: eaee b6ba 507c 72ba db2c 09ba 591a b33a
00000120: 24f6 b63a c791 c43a 2b31 1bbb ead0 a1ba
00000130: 6677 ae3a 5784 f93a d623 b5ba 7a7e e53a
00000140: 7189 5dba 34e3 5f3a 1db1 22ba 0418 853a
00000150: a678 70ba 0c21 83ba 4282 d3ba f093 893a
00000160: 2e27 de3a 2698 ae39 15eb b73b 637a c4ba
00000170: a15c 013b e1bd 62b9 4201 fa3a 111f 083b
00000180: 68b2 c0ba 1f73 b93a 2f06 1a3b 2ca9 c3ba
00000190: bd19 133a e7a0 c63a 55da c4ba 50a2 893a
000001a0: cddb efb9 598a 9aba 870a acba 3700 7f3a
000001b0: 159b 883a 0b6c 1d3b 1681 403a afd4 1b3b
000001c0: def2 423a df03 16ba 1a34 f2ba b2ad 47ba
000001d0: bbd6 40ba 6eaa 573a a1d3 8eb9 971f ceb9
000001e0: e943 6cba 67c7 4aba ca2e 4eba 1932 62ba
000001f0: 30e4 fe3a 5d7b d63a a95d d739 5fce 333a
00000200: 071a babb 2500 9b3c 3c2a a53b bfc0 1fbc
00000210: 9790 c3bc 8950 3d3a 8bc6 8b3c 2fb2 22bc
00000220: 9494 0bbc eb1c 9abb 9374 003a ef72 a8bb
00000230: 847e c03b 0a0a df3c 9af0 d5ba 5e34 c43c
00000240: 079d 2b3c 0a1e a0bc 889a a63a 0e9f f33a
00000250: 08ce 5c3c 2a4b b4bc 0bda b33c 93d4 883b
00000260: 1259 0e3b 16f8 cb3b 66f9 443b 10b4 aa3c
00000270: ccda e73c 0bab 16bd 2a2d 113c f585 413b
00000280: d6a2 e1bc 63af 0e3c 46d6 26bc bed7 12bc
00000290: 615e 25bb 1eef b83c 136d 4cbc 272b cfba
000002a0: b77f 0e3c 4153 21bc 9fb7 303c 8b44 ebbb
000002b0: 6905 b6bc e4af 12bd f461 ca3b de25 463c
000002c0: ff98 96bc 3b66 5d3b d2db 183b 67cc 88bc
000002d0: ce05 203b 1fa0 a43b ceab bc3b b9a0 ac3c
000002e0: d46f c03c 7c1c 85bb af0d 1b3c 22bc 633c
000002f0: a3dd e4ba a131 b03c d920 04bc 2bee 59bb

encoder.layers.0.self_attn.out_proj.weight f4 [64, 64]
0.08940774 -0.02940914 -0.081053376 -0.021711176 -0.036093432 -0.064130776 0.027044294 0.05906479
-0.08225269 -0.16835988 0.07614982 -0.10063103 -0.21726502 0.029429972 -0.1538749 0.074616626
-0.057912655 -0.062619954 0.08574533 -0.16449589 0.05880378 -0.0009525966 -0.07448974 -0.007383254
0.0041865613 0.2431619 -0.1619298 -0.08320326 -0.096968785 -0.052800816 0.0115036145 -0.06850468
-0.030179549 -0.060288563 0.0038069151 0.117876954 0.064184204 -0.023624083 -0.08080457 -0.055231325
0.020904534 -0.052970655 0.052129827 0.1064006 0.09465535 -0.078612596 0.08977753 -0.040579345
-0.08533464 0.14070374 -0.17559981 -0.052979086 -0.08583306 0.08837152 0.06072677 -0.006267246
-0.029164074 -0.017654583 -0.103781626 -0.11227223 0.12651888 0.053203076 -0.07486259 0.052204337
-0.05348147 -0.058530144 -0.07773148 0.030736076 0.0034478372 0.0003345185 0.13931637 -0.057975627
0.038260646 -0.086408146 -0.13747738 0.15677981 0.06404171 -0.10074389 -0.049702395 0.06427589
0.10334715 0.044291653 -0.118458286 -0.04115196 -0.067103 0.05322706 -0.09773443 -0.08904708
0.13190942 0.059225857 0.015833667 -0.14437765 -0.020092305 0.07303085 0.14971586 0.122034006
0.10975056 0.13770458 -0.08668949 0.08936665 -0.01178181 -0.013845537 0.069085695 0.08827272
-0.08129529 -0.06578368 -0.012886523 0.06184514 -0.055774733 -0.095365316 -0.05093042 -0.017964879
0.09058005 -0.01928325 -0.063780285 0.090358704 -0.041531157 -0.05422049 -0.041814525 -0.00029201727
0.021738635 -0.11145058 0.027896687 0.068163335 0.13534427 -0.1239769 0.045174092 -0.08163756
0.068845466 -0.10288778 -0.008670573 0.038803317 -0.024338743 -0.06628625 -0.046698418 -0.11063602
-0.027164804 -0.024514042 -0.06634858 -0.07733229 -0.16365275 0.08931259 -0.09820939 -0.09776457
0.11321621 -0.12049815 0.17055562 -0.09889971 0.019667886 -0.016496962 -0.12106568 0.07685024
-0.027802864 0.18785594 -0.035191223 0.023691053 -0.12158901 -0.10030229 -0.0025262267 -0.063157685
0.08698474 -0.09227683 0.1284427 0.050626423 0.08380519 0.12415563 -0.068480484 0.08433353
0.10098889 0.07918955 0.061824184 0.07522213 -0.08324446 -0.079781815 -0.009693616 -0.013084244
0.041860685 -0.060242694 -0.15568306 -0.0041169757 0.06663989 -0.09572995 0.08480333 0.044344082
0.08168539 0.20699565 -0.032866452 0.11077511 -0.03571552 -0.076553755 0.086704545 0.074580155
-0.055328913 -0.0313852 0.0060438276 0.07227397 -0.013900575 -0.062696524 -0.037238356 -0.025619041
0.026219502 -0.1509052 -0.060568754 0.005668021 -0.19502962 0.009537015 0.08536697 -0.10644298
-0.11300595 0.041989807 0.123503596 -0.04598798 -0.09978906 0.10597516 -0.056371424 -0.11619839
0.0388941 0.018826133 -0.13369904 0.029561343 0.04900888 0.07160371 -0.11346497 -0.078531735
-0.008676204 -0.070170686 -0.0742958 0.041419674 0.033278406 0.12026705 0.011595806 0.05793437
-0.038171742 -0.015799599 -0.01919968 -0.05077464 0.0826449 0.036291696 -0.018750671 0.09603082
0.05343097 -0.08870188 -0.08672315 -0.0024098891 0.11246028 0.06475402 -0.07609803 0.10134607
-0.02046008 -0.078554355 0.07079897 -0.048076544 -0.06913931 0.04019913 -0.09808361 -0.09358145
00000000: 681b b73d 70eb f0bc 50ff a5bd a3db b1bc
00000010: b5d6 13bd ff56 83bd ff8b dd3c eced 713d
00000020: 1974 a8bd 8866 2cbe 70f4 9b3d a417 cebd
00000030: b97a 5ebe 2017 f13c 6291 1dbe 9ad0 983d
00000040: d235 6dbd e43e 80bd 3f9b af3d 9c71 28be
00000050: 3bdc 703d adb7 79ba 148e 98bd 39ef f1bb
00000060: 6c2f 893b 6fff 783e edd0 25be 7966 aabd
00000070: 9297 c6bd ab45 58bd a879 3c3c 2f4c 8cbd
00000080: 1a3b f7bc 24f1 76bd 707d 793b 7969 f13d
00000090: 0273 833d 4b87 c1bc de7c a5bd 3e3a 62bd
000000a0: fc3f ab3c c2f7 58bd 1686 553d 8fe8 d93d
000000b0: aada c13d a4ff a0bd 48dd b73d 8736 26bd
000000c0: eec3 aebd a414 103e 70d0 33be 9900 59bd
000000d0: 3ec9 afbd 21fc b43d a2bc 783d 785d cdbb
000000e0: 7fe9 eebc 58a0 90bc 768b d4bd fcee e5bd
000000f0: 2a8e 013e 78eb 593d 8f51 99bd 37d4 553d
00000100: 630f 5bbd 4ebd 6fbd af31 9fbd 39ca fb3c
00000110: 1cf5 613b 5062 af39 f3a8 0e3e da77 6dbd
00000120: 32b7 1c3d c1f6 b0bd dfc6 0cbe e38a 203e
00000130: 4d28 833d d052 cebd bd94 4bbd 14a3 833d
00000140: aca7 d33d 2a6b 353d 429a f2bd f58e 28bd
00000150: 4c6d 89bd 9e04 5a3d fd28 c8bd 515e b6bd
00000160: 4313 073e d096 723d 9bb5 813c bcd7 13be
00000170: 9e98 a4bc 3391 953d 1d4f 193e f7ec f93d
00000180: e7c4 e03d 6e02 0d3e 428a b1bd dd05 b73d
00000190: 7e08 41bc 64d8 62bc cd7c 8d3d 54c8 b43d
000001a0: 257e a6bd 98b9 86bd ff21 53bc 5451 7d3d
000001b0: 0c74 64bd e44e c3bd 6b9c 50bd 152b 93bc
000001c0: 0982 b93d e8f7 9dbc 3d9f 82bd fc0d b93d
000001d0: 931c 2abd 4e16 5ebd b545 2bbd e519 99b9
000001e0: 3915 b23c 3440 e4bd 9887 e43c 3899 8b3d
000001f0: b097 0a3e 9ae7 fdbd 7808 393d 9831 a7bd
00000200: dafe 8c3d d4b6 d2bd 050f 0ebc 3af0 1e3d
00000210: 0b62 c7bc 16c1 87bd d746 3fbd 2395 e2bd
00000220: b988 debc acd1 c8bc c4e1 87bd 6460 9ebd
00000230: 9694 27be 85e9 b63d 0122 c9bd ca38 c8bd
00000240: e6dd e73d bcc7 f6bd 22a6 2e3e ee8b cabd
00000250: 8c1e a13c a324 87bc 49f1 f7bd a963 9d3d
00000260: d5c2 e3bc 4f5d 403e ac24 10bd bd13 c23c
00000270: a903 f9bd 496b cdbd 0d8f 25bb d158 81bd
00000280: 0e25 b23d a2fb bcbd 7c86 033e a75d 4f3d
00000290: 0ea2 ab3d 4f45 fe3d 7f3f 8cbd 0fb7 ac3d
000002a0: 43d3 ce3d 212e a23d 5b3b 7d3d 0f0e 9a3d
000002b0: 127c aabd a664 a3bd f9d1 1ebc 4c5f 56bc
000002c0: 1c76 2b3d 0bc1 76bd 616b 1fbe b2e7 86bb
000002d0: 7f7a 883d 100e c4bd 5ead ad3d 24a2 353d
000002e0: ab4a a73d abf6 533e f99e 06bd 10de e23d
000002f0: 704a 12bd 37c8 9cbd 2792 b13d 7bbd 983d
00000300: 92a0 62bd c48d 00bd 4d0b c63b 6004 943d
00000310: 3dbf 63bc 0967 80bd 3f87 18bd 06df d1bc
00000320: 48ca d63c e586 1abe f116 78bd ceba b93b
00000330: d8b5 47be 2441 1c3c e1d4 ae3d c7fe d9bd
00000340: aa6f e7bd 81fd 2b3d 74ef fc3d e45d 3cbd
00000350: 355e ccbd 8109 d93d b9e5 66bd 6cf9 edbd
00000360: 6b4f 1f3d 4339 9a3c 67e8 08be a12a f23c
00000370: 89bd 483d f7a4 923d 5260 e8bd 3fd5 a0bd
00000380: a326 0ebc a6b5 8fbd 6528 98bd ada7 293d
00000390: f04e 083d 924e f63d 56fc 3d3c 974c 6d3d
000003a0: f959 1cbd 296e 81bc a648 9dbc 12f9 4fbd
000003b0: bb41 a93d 9aa6 143d 029b 99bc ceab c43d
000003c0: 6fda 5a3d 55a9 b5bd e89b b1bd 3bef 1dbb
000003d0: 9351 e63d c19d 843d 49d9 9bbd 878e cf3d
000003e0: e69b a7bc 1be1 a0bd 0dff 903d e9eb 44bd
000003f0: e998 8dbd d8a7 243d 0fe0 c8bd a2a7 bfbd

encoder.layers.0.self_attn.out_proj.bias f4 [64]
0.013497428 0.023038944 -0.032813706 0.004925017 -0.011431342 -0.044881407 -0.029981837 0.0039812326
0.015982756 0.006395055 0.009232037 -0.023272712 0.018320726 -0.009418611 0.03209002 0.010719784
-0.022301607 -0.031138606 0.059618976 -0.022051755 -0.014515681 -0.032496925 0.058113802 0.035237618
-0.013702769 0.03148071 0.014988453 0.045130048 -0.012970664 -0.018266993 0.0022945516 -0.033632275
0.0075538326 0.024425795 0.017611053 0.028051784 -0.017995866 -0.015685165 0.0045808945 -0.008749377
0.023466311 -0.011527675 0.015113341 -0.0005323618 0.021584373 0.025574932 0.02949417 0.02674444
-0.058520842 -0.00604252 0.03668524 0.029552938 -0.0139414705 -0.016806645 0.022146463 0.0056170896
-0.031648852 -0.023572367 -0.018543342 0.011408304 0.017165007 -0.0090094535 -0.01240036 0.017070783
00000000: 5124 5d3c 2bbc bc3c aa67 06bd 0962 a13b
00000010: 864a 3bbc 91d5 37bd 789c f5bc 0075 823b
00000020: 45ee 823c 9c8d d13b f841 173c 6aa6 bebc
00000030: 5915 963c 8550 1abc d370 033d 08a2 2f3c
00000040: dcb1 b6bc 6416 ffbc 0733 743d e2a5 b4bc
00000050: 2ed3 6dbc 7f1b 05bd bd08 6e3d 5255 103d
00000060: 9481 60bc ebf1 003d 2192 753c 49da 383d
00000070: e882 54bc a9a4 95bc 3060 163b ffc1 09bd
00000080: 2486 f73b 9b18 c83c 0e45 903c dbcc e53c
00000090: 116c 93bc 2d7e 80bc 541b 963b 8c59 0fbc
000000a0: 6c3c c03c 93de 3cbc f29d 773c 328e 0bba
000000b0: b6d1 b03c 8582 d13c c29d f13c 2817 db3c
000000c0: 8db3 6fbd 5500 c6bb 4343 163d 0119 f23c
000000d0: c46a 64bc 17ae 89bc 806c b53c 900f b83b
000000e0: 3aa2 01bd d61a c1bc 35e8 97bc e5e9 3a3c
000000f0: a19d 8c3c 639c 13bc e12a 4bbc 07d8 8b3c

encoder.layers.0.linear1.weight f4 [128, 64]
0.020746095 -0.0022186982 0.10301328 0.08458856 0.032568123 -0.1544477 -0.073213734 -0.026987106
0.004169647 0.016082812 0.06943085 0.0014146549 0.11573202 -0.034842994 -0.05261434 0.09760451
0.14116827 0.14738442 0.016727125 -0.088818945 0.05928419 -0.049671322 -0.046660878 -0.03996425
-0.16183455 0.037148237 -0.19236153 0.025572866 0.03884334 -0.13732374 -0.15248823 -0.012362175
0.045652706 0.07686582 0.1044927 0.13665543 0.038876887 0.035457786 -0.0011308617 -0.09876239
0.05050242 0.028947674 0.1174634 -0.14324526 -0.10510571 -0.008891603 0.04633839 -0.08701035
0.07810692 -0.09300903 -0.11577515 -0.14149669 -0.059366688 0.03680576 -0.086864464 0.04048865
0.15447725 0.012885362 -0.0049166693 -0.049522944 0.14771135 -0.021087307 -0.05073823 0.10575697
0.14330085 -0.06795804 -0.018087214 0.002252579 0.03130424 -0.09577146 0.10898724 0.11365101
0.041650727 -0.021176832 -0.027120229 -0.08408219 -0.03981296 0.08472575 -0.10383731 -0.077227116
0.064862385 -0.041532617 0.10790351 -0.074169666 0.030655205 -0.1318199 0.00511111 -0.08305915
-0.09536883 0.025533315 -0.090090536 0.074959666 0.028448861 0.035377357 -0.06128315 0.0609159
-0.12524147 -0.13043791 -0.07608828 -0.025232412 0.11896651 0.047426097 -0.07906736 -0.14615923
0.016442262 -0.112237915 0.10879828 0.037595514 -0.11476059 0.011872538 -0.06914319 -0.085796006
0.025204005 -0.089057 -0.108184315 -0.10716649 -0.17311509 -0.113838755 0.062575884 -0.05660522
0.09964001 -0.05407929 0.00088040065 0.0120627135 -0.056558605 -0.06597886 -0.073580235 0.036643498
0.02113234 -0.05183866 -0.19518413 -0.058710348 -0.07937118 -0.15928136 0.0315854 0.11584746
0.029928109 0.07129273 -0.033362266 0.022876004 0.0801427 0.067246735 -0.008237494 0.03378352
-0.02803729 -0.034941405 0.08891724 -0.09875598 -0.1848247 -0.031730495 0.13399366 0.027716622
-0.061141644 0.10454758 -0.1059301 0.022269221 0.014134004 0.023082647 -0.048654165 0.04461615
0.16408041 0.051637504 0.06309988 0.15294036 -0.08778739 -0.07594436 -0.041299228 -0.081610866
0.022426784 -0.07575019 0.11116277 -0.050624095 0.1493657 -0.065717824 0.051396165 0.22234073
-0.14270356 0.105718516 0.010034611 -0.048915043 -0.0021317569 0.056768984 0.10235646 -0.15876938
-0.20484582 -0.16350998 0.06936247 0.023066495 -0.020347567 0.083948836 0.011262763 0.06085562
0.0333919 -0.13921241 0.03162122 -0.09407491 0.05706122 -0.081341386 0.08784286 0.10857751
-0.12962317 -0.0023467678 -0.10144443 -0.0021846513 -0.0846211 -0.041031916 -0.05240486 0.115614995
0.13327293 0.04438695 -0.059239246 -0.10114748 -0.087895215 -0.07608031 -0.008321669 0.044258714
-0.085419245 0.12225018 -0.12984677 0.079389736 -0.12520264 -0.026483577 -0.003489269 0.050666727
0.111071944 -0.01252163 0.12872046 0.12544751 -0.07388777 -0.13041076 -0.023395237 0.042453047
0.06723054 0.062821776 0.17508352 -0.028510066 -0.014767398 0.013045721 0.10566531 -0.043115612
-0.13511142 0.06534445 -0.03671548 0.009557893 0.02680803 0.00778113 0.050429374 0.015423509
0.045904174 -0.14949122 0.008428692 0.14679046 -0.03181744 0.074681886 -0.18138564 0.16451845
00000000: b7f3 a93c 9467 11bb a0f8 d23d c43c ad3d
00000010: 2766 053d 8a27 1ebe 15f1 95bd 1014 ddbc
00000020: 89a1 883b 1ac0 833c c331 8e3d f16b b93a
00000030: e904 ed3d 87b7 0ebd 2282 57bd e0e4 c73d
00000040: 6a8e 103e f1eb 163e 5307 893c b5e6 b5bd
00000050: fbd3 723d 2874 4bbd 7a1f 3fbd 8eb1 23bd
00000060: f5b7 25be c028 183d 6cfa 44be 307e d13c
00000070: 321a 1f3d 989e 0cbe e025 1cbe b88a 4abc
00000080: 55fe 3a3d d46b 9d3d 4500 d63d 67ef 0b3e
00000090: 5f3d 1f3d 2f3c 113d 6c39 94ba f043 cabd
000000a0: a0db 4e3d ac23 ed3c a790 f03d e3ae 12be
000000b0: aa41 d7bd 16ae 11bc 53cd 3d3d 7b32 b2bd
000000c0: 85f6 9f3d 857b bebd 861b edbd 82e4 10be
000000d0: 7c2a 73bd a3c1 163d ffe5 b1bd 6dd7 253d
000000e0: 492f 1e3e 201d 533c 031c a1bb 92d8 4abd
000000f0: a541 173e 4abf acbc e4d2 4fbd 1c97 d83d
00000100: 75bd 123e 962d 8bbd a32b 94bc 01a0 133b
00000110: e038 003d d423 c4bd b434 df3d dcc1 e83d
00000120: f499 2a3d 097b adbc 3e2b debc 4933 acbd
00000130: ea12 23bd b284 ad3d a8a8 d4bd 4029 9ebd
00000140: 92d6 843d 1b1e 2abd 84fc dc3d 44e6 97bd
00000150: a020 fb3c ccfb 06be 197b a73b ea1a aabd
00000160: bc50 c3bd 3e2b d13c 6381 b8bd 7484 993d
00000170: 960d e93c d9e7 103d 0a04 7bbd f382 793d
00000180: 4d3f 00be 8491 05be 2cd4 9bbd 34b4 cebc
00000190: b7a4 f33d de41 423d 11ee a1bd c4aa 15be
000001a0: ecb1 863c fedc e5bd a2d1 de3d c1fd 193d
000001b0: 9a07 ebbd 0985 423c f29a 8dbd d1b5 afbd
000001c0: a178 ce3c 8463 b6bd bd8f ddbd 1b7a dbbd
000001d0: 1545 31be 4b24 e9bd c927 803d e0da 67bd
000001e0: 1010 cc3d 3f82 5dbd b0ca 663a b0a2 453c
000001f0: ffa9 67bd ed1f 87bd 3cb1 96bd 7e17 163d
00000200: bb1d ad3c c654 54bd 59de 47be 437a 70bd
00000210: 5b8d a2bd a71a 23be b15f 013d 6f41 ed3d
00000220: cb2b f53c ec01 923d dfa6 08bd 7566 bb3c
00000230: db21 a43d a8b8 893d 8ef6 06bc 9760 0a3d
00000240: 75ae e5bc b81e 0fbd 3e1a b63d 9340 cabd
00000250: b042 3dbe d6f7 01bd a235 093e f80d e33c
00000260: a96f 7abd 0b1d d63d e1f1 d8bd f16d b63c
00000270: 4f92 673c d217 bd3c 9749 47bd 6dbf 363d
00000280: b204 283e d981 533d 833a 813d 669c 1c3e
00000290: e0c9 b3bd b788 9bbd 6129 29bd 9923 a7bd
000002a0: 60b8 b73c ea22 9bbd 4ea9 e33d 365b 4fbd
000002b0: 52f3 183e 1197 86bd c984 523d 4aad 633e
000002c0: e220 12be f382 d83d 3668 243c 245b 48bd
000002d0: f2b4 0bbb 9886 683d 44a0 d13d 7194 22be
000002e0: 1ac3 51be 296f 27be e90d 8e3d f2f5 bc3c
000002f0: f1af a6bc 5eed ab3d 7487 383c be43 793d
00000300: f2c5 083d b38d 0ebe 4185 013d 59aa c0bd
00000310: 07b9 693d 5096 a6bd f5e6 b33d e35d de3d
00000320: f0bb 04be 3bcc 19bb 19c2 cfbd 5e2c 0fbb
00000330: d44d adbd 1511 28bd 7aa6 56bd 8ec7 ec3d
00000340: b378 083e 17cf 353d daa4 72bd 6926 cfbd
00000350: 6802 b4bd fecf 9bbd 9c57 08bc a048 353d
00000360: 49f0 aebd 4d5e fa3d 8df6 04be 1697 a23d
00000370: 1f35 00be 16f4 d8bc 38ac 64bb ea87 4f3d
00000380: b079 e33d 8627 4dbc 4ccf 033e 5075 003e
00000390: 7952 97bd 668a 05be 5ea7 bfbc 3fe3 2d3d
000003a0: 2ab0 893d b4a8 803d 1849 333e f18d e9bc
000003b0: f5f2 71bc b8bd 553c 0e67 d83d ff99 30bd
000003c0: a65a 0abe 50d3 853d f962 16bd b598 1c3c
000003d0: 849c db3c d9f8 fe3b 088f 4e3d e3b2 7c3c
000003e0: 0406 3c3d 3a14 19be 7f18 0a3c 3d50 163e
000003f0: 0153 02bd d1f2 983d 28bd 39be 8677 283e

encoder.layers.0.linear1.bias f4 [128]
0.011354775 -0.014906428 0.022643754 -0.08380695 -0.106150776 -0.009850338 -0.06333259 0.07120626
-0.050168417 -0.061337385 0.03746305 -0.036983762 -0.009782497 0.095222615 0.019481 -0.12879126
-0.010207172 -0.053343408 0.11024438 -0.107833974 0.0012230643 0.09838169 0.049986374 0.11260557
0.05917575 -0.12583327 -0.16234387 -0.104681686 -0.109798916 -0.0054432396 0.055678196 0.072801545
0.10998958 -0.11357319 0.021319639 -0.06304483 0.02765651 0.08420504 0.0932925 -0.09904628
0.0807863 0.07324656 -0.03615574 -0.06284764 0.12084097 0.059435636 0.033190407 -0.13361003
-0.12710153 -0.15259333 -0.050754797 0.035157632 -0.09622983 0.09977303 0.05551188 0.093037084
-0.081748314 0.04281663 0.034728948 0.060051482 -0.01644799 -0.11506805 0.044780657 0.013437088
-0.08786053 0.016834518 -0.081800506 0.07763434 -0.03143086 0.057977155 -0.09312773 -0.12703264
-0.0023895616 -0.09007245 0.10616582 -0.112229384 -0.09469667 0.037240442 -0.0956255 -0.080661945
-0.04167837 0.124278605 -0.07198711 -0.005322467 0.032469604 -0.105877206 -0.025043374 -0.10574575
0.014440079 -0.0978806 -0.117761396 -0.10667375 0.029741077 0.026664853 0.079054154 -0.024071353
-0.044902492 -0.070081994 -0.09915286 -0.038972978 0.068641186 0.007315859 -0.010647911 -0.13518573
-0.052192464 -0.12651674 0.055505067 -0.056199674 -0.018293811 0.023631733 0.024211204 0.022741262
-0.06977207 -0.0064126193 0.06723476 0.12989949 0.045963336 -0.16021053 0.11101216 -0.086162314
0.07473472 -0.093563534 0.013772822 0.11874715 -0.0062297224 0.12430247 -0.008191552 -0.07484445
00000000: 6109 3a3c 173a 74bc 657f b93c faa2 abbd
00000010: 9465 d9bd 5063 21bc 84b4 81bd 96d4 913d
00000020: 667d 4dbd e93c 7bbd db72 193d 497c 17bd
00000030: c446 20bc 1304 c33d 9e96 9f3c dbe1 03be
00000040: fb3b 27bc 9e7e 5abd cec7 e13d 0fd8 dcbd
00000050: 3a4f a03a 577c c93d 83be 4c3d c09d e63d
00000060: 4562 723d 70da 00be 793d 26be 5a63 d6bd
00000070: 41de e0bd 345d b2bb d20e 643d fa18 953d
00000080: 3842 e13d 1099 e8bd 86a6 ae3c a61d 81bd
00000090: e88f e23c b173 ac3d 2310 bf3d c7d8 cabd
000000a0: 4a73 a53d 4b02 963d 0b18 14bd 43b6 80bd
000000b0: 787b f73d c872 733d aaf2 073d 11d1 08be
000000c0: e726 02be 6d41 1cbe 43e4 4fbd 7301 103d
000000d0: 2514 c5bd cd55 cc3d 6d60 633d 3a8a be3d
000000e0: a96b a7bd 7e60 2f3d f13f 0e3d 8bf8 753d
000000f0: efbd 86bc cca8 ebbd ec6b 373d 3b27 5c3c
00000100: 39f0 b3bd 8be8 893c 0687 a7bd c1fe 9e3d
00000110: a5bd 00bd 7479 6d3d c0b9 bebd d814 02be
00000120: 319a 1cbb e877 b8bd 776d d93d 85d8 e5bd
00000130: 54f0 c1bd 6f89 183d 4dd7 c3bd 1732 a5bd
00000140: f0b6 2abd c885 fe3d fa6d 93bd 1768 aebb
00000150: d9fe 043d 26d6 d8bd c327 cdbc 3a91 d8bd
00000160: 1596 6c3c a075 c8bd e32c f1bd c477 dabd
00000170: 8fa3 f33c 4070 da3c 25e7 a13d 4931 c5bc
00000180: adeb 37bd 2687 8fbd a810 cbbd 21a2 1fbd
00000190: c093 8c3d e0b9 ef3b 9374 2ebc 216e 0abe
000001a0: c4c7 55bd 9b8d 01be 4859 633d a131 66bd
000001b0: e7dc 95bc 5697 c13c 9356 c63c e24b ba3c
000001c0: a9e4 8ebd f320 d2bb 61b2 893d 5f04 053e
000001d0: 0d44 3c3d 3b0e 24be 585a e33d de75 b0bd
000001e0: 840e 993d 3d9e bfbd 67a7 613c b531 f33d
000001f0: b322 ccbb 4b92 fe3d dc35 06bc 0c48 99bd

encoder.layers.0.linear2.weight f4 [64, 128]
0.121243276 -0.013257083 0.034790356 -0.01048158 0.06525733 0.06797318 -0.1344717 0.037478402
-0.021628961 0.013510443 -0.007025034 0.08785087 0.03896438 -0.086617015 -0.045147635 -0.10032721
-0.06922717 -0.04058793 0.057315983 0.0835631 0.044390094 -0.019602949 -0.09491091 0.02888309
0.020612294 0.0743324 0.026144603 -0.0175718 0.12547335 0.014684646 0.029961642 0.09180025
0.06522711 0.0029399504 0.0026357458 -0.022523273 -0.074713245 0.019845014 -0.02504448 -0.039490953
-0.03203432 -0.0037251227 0.011342225 0.014322217 -0.12485471 0.05060232 -0.08177495 -0.014706851
-0.015190752 0.03854103 0.00866416 0.024698857 0.09680412 0.012739054 0.057727043 -0.08675284
-0.0072263246 0.064691484 -0.040066004 0.042241555 0.02899468 0.053215176 0.038332596 -0.053510107
0.014017101 -0.028984042 -0.07650292 0.011120492 -0.02778344 0.04347788 0.078455426 0.0683552
-0.035866346 -0.0031481902 0.008907148 0.028988056 0.07697235 0.0655339 -0.047708888 -0.026129024
-0.0774115 -0.0026066988 0.045308445 -0.032457504 -0.072097346 0.026076538 -0.14187966 0.122932024
-0.0033186118 -0.034339182 -0.06930603 -0.035071716 -0.06473913 -0.005149722 -0.058477834 -0.07957394
0.021344388 -0.0153267905 -0.02104803 0.09392094 0.02794934 0.0842421 0.0005800767 0.08354187
-0.053628933 0.045316514 -0.04974301 -0.019819036 -0.051398546 -0.041388337 0.014477934 0.056285396
-0.016376715 0.0032318628 -0.12388354 -0.10232324 0.12986864 0.021139082 -0.009429279 -0.04564276
0.07192435 0.0018735349 0.06795402 -0.07308307 0.06655634 0.052351322 -0.03717609 0.05857268
-0.11660336 -0.016225621 -0.039971747 -0.10496688 0.0074278023 -0.048975073 0.09797514 -0.023854535
-0.03277707 -0.002229786 0.0625914 -0.007110091 -0.059553474 0.07510228 0.00012777145 -0.027343638
0.09351961 0.014704733 0.022539543 -0.031310335 -0.017333519 0.026630389 -0.068266906 0.046023134
0.04164149 -0.07487325 -0.02204382 -0.03934414 -0.0028461383 -0.03299911 0.08272492 -0.062104847
-0.036224596 -0.14541155 0.09299439 -0.061720297 -0.015785906 -0.11185468 -0.0031185583 0.074204564
0.06453225 -0.025566401 0.043605223 -0.07462025 0.10944678 0.06304159 0.034484882 0.0173219
-0.077390105 -0.02185077 -0.03540502 -0.010593127 -0.04812346 -0.1146004 0.0570698 -0.028761346
0.1087904 -0.10676934 0.060753237 0.023474922 -0.078934036 -0.051030133 0.02697933 -0.07638828
0.073217444 -0.058424555 0.068820916 -0.037271477 -0.03595433 0.09124425 -0.048300188 -0.04049854
-0.057821114 0.04586565 -0.021058151 -0.00828344 0.03743149 -0.007135055 0.041555207 -0.061608862
-0.046789635 0.067913935 0.047614723 0.02892631 -0.029366177 -0.02748182 -0.006834176 0.037195843
0.024718363 0.028539104 -0.11156795 0.0687773 -0.010894828 -0.04103212 -0.131794 0.003505618
0.0137665 -0.053488046 -0.070128605 0.06454969 0.06561866 0.05575852 -0.038019236 0.027697023
0.040016666 0.0013649864 0.03380706 0.009524732 0.0076530566 0.037350945 0.0055821566 -0.014058087
0.065349445 0.0034917814 0.045456152 0.034639195 0.07589589 0.021966284 0.045385305 -0.07004622
-0.046760906 -0.042582847 0.038153484 0.049560748 -0.08183582 -0.004778939 0.08392432 -0.09004392
00000000: 654e f83d 3c34 59bc 5580 0e3d efba 2bbc
00000010: a3a5 853d 8635 8b3d f3b2 09be f482 193d
00000020: 382f b1bc e85a 5d3c 4232 e6bb 28eb b33d
00000030: 1d99 1f3d 4364 b1bd baec 38bd 5a78 cdbd
00000040: f9c6 8dbd 873f 26bd 2ac4 6a3d 2123 ab3d
00000050: 63d2 353d 5d96 a0bc a760 c2bd 3b9c ec3c
00000060: 1ddb a83c 963b 983d 352d d63c bcf2 8fbc
00000070: 167c 003e df97 703c 1e72 f53c c501 bc3d
00000080: cb95 853d 2fac 403b 7abc 2c3b ba82 b8bc
00000090: 4203 99bd 0392 a23c 152a cdbc 44c1 21bd
000000a0: 6b36 03bd 3021 74bb bdd4 393c bba7 6a3c
000000b0: d4b3 ffbd 6144 4f3d a079 a7bd 01f5 70bc
000000c0: a2e2 78bc 33dd 1d3d 1ff4 0d3c 4255 ca3c
000000d0: 3d41 c63d 77b7 503c 3173 6c3d 79ab b1bd
000000e0: ceca ecbb f87c 843d 401c 24bd 7b05 2d3d
000000f0: 4086 ed3c 28f8 593d a402 1d3d 6a2d 5bbd
00000100: fca7 653c f16f edbc 90ad 9cbd b932 363c
00000110: 199a e3bc dd15 323d 3dad a03d d0fd 8b3d
00000120: 97e8 12bd de51 4ebb 49ef 113c 5c78 ed3c
00000130: aea3 9d3d a336 863d 656a 43bd 890c d6bc
00000140: ec89 9ebd 26d5 2abb 5995 393d 29f2 04bd
00000150: c6a7 93bd 779e d53c e748 11be c9c3 fb3d
00000160: 117d 59bb 3ea7 0cbd 52f0 8dbd 5ca7 0fbd
00000170: f395 84bd 00bf a8bb 7486 6fbd a9f7 a2bd
00000180: 6dda ae3c 381d 7bbc eb6c acbc 9f59 c03d
00000190: 04f6 e43c 1f87 ac3d 4a10 183a 0018 ab3d
000001a0: 03aa 5bbd cf9d 393d 54bf 4bbd 885b a2bc
000001b0: 4887 52bd d186 29bd db34 6d3c 848b 663d
000001c0: 7628 86bc a9cd 533b a7b6 fdbd d98e d1bd
000001d0: 49fc 043e de2b ad3c 437d 1abc e7f3 3abd
000001e0: 134d 933d 6691 f53a 7a2b 8b3d 94ac 95bd
000001f0: b14e 883d 576e 563d f545 18bd e8e9 6f3d
00000200: becd eebd 98eb 84bc 6ab9 23bd e0f8 d6bd
00000210: ec64 f33b 169a 48bd 31a7 c83d 966a c3bc
00000220: 4041 06bd 9a21 12bb ec2f 803d c4fb e8bb
00000230: 58ee 73bd 39cf 993d 63fa 0539 c4ff dfbc
00000240: 3687 bf3d 1fec 703c d9a4 b83c 443f 00bd
00000250: 06ff 8dbc f927 da3c 85cf 8bbd c182 3c3d
00000260: 4490 2a3d 2657 99bd 3e95 b4bc 5227 21bd
00000270: 4786 3abb 132a 07bd af6b a93d a761 7ebd
00000280: 3e60 14bd c4e6 14be d873 be3d 6cce 7cbd
00000290: 7251 81bc 1114 e5bd ba60 4cbb 90f8 973d
000002a0: 7c29 843d a170 d1bc 649b 323d 80d2 98bd
000002b0: a225 e03d f31b 813d 0540 0d3d a8e6 8d3c
000002c0: b47e 9ebd 6300 b3bc db04 11bd cc8e 2dbc
000002d0: 1b1d 45bd 9db3 eabd 06c2 693d ea9c ebbc
000002e0: 80cd de3d e2a9 dabd 63d8 783d 7b4e c03c
000002f0: 2ba8 a1bd f904 51bd c203 dd3c 7571 9cbd
00000300: 07f3 953d 964e 6fbd fbf1 8c3d faa9 18bd
00000310: d944 13bd 44de ba3d 6bd6 45bd cce1 25bd
00000320: d5d5 6cbd 9fdd 3b3d 2582 acbc 44b7 07bc
00000330: c351 193d 2ecd e9bb cb35 2a3d 9359 7cbd
00000340: 7da6 3fbd 7616 8b3d a807 433d def6 ec3c
00000350: 5691 f0bc 8e21 e1bc 39f1 dfbb ab5a 183d
00000360: 2a7e ca3c d7ca e93c bd7d e4bd 1ddb 8c3d
00000370: 3880 32bc 4c11 28bd 02f5 06be 83be 653b
00000380: e38c 613c 4816 5bbd 969f 8fbd a132 843d
00000390: 1363 863d 0c63 643d 0fba 1bbd dee4 e23c
000003a0: 84e8 233d 58e9 b23a 4679 0a3d 9f0d 1c3c
000003b0: 7ec6 fa3b 4efd 183d 86ea b63b e453 66bc
000003c0: eed5 853d 5fd6 643b 3b30 3a3d d4e1 0d3d
000003d0: 4e6f 9b3d a3f2 b33c f1e5 393d 6574 8fbd
000003e0: 5d88 3fbd 5a6b 2ebd d446 1c3d 3600 4b3d
000003f0: 8a99 a7bd a598 9cbb 84e0 ab3d f268 b8bd

encoder.layers.0.linear2.bias f4 [64]
-0.003283728 0.07475656 -0.0431099 0.068330795 0.07290554 0.054018673 -0.121434145 -0.020061323
0.10968439 -0.03739944 0.070981815 0.06556961 -0.01777655 0.09093803 -0.036689125 0.012645479
-0.12094347 -0.0798568 -0.031071348 0.056158 -0.0668833 0.02588423 0.0011467976 0.07296368
-0.044188976 0.031921897 0.09990318 -0.014244074 0.051856045 -0.083126485 0.04906954 -0.024256147
-0.05938953 0.0928292 0.02278517 0.030244181 0.089073844 -0.0132238455 -0.05104668 -0.051906243
-0.058566038 0.0019117603 -0.032079685 0.09412649 -0.048401535 -0.00019165211 0.014230295 0.09685221
-0.05045803 0.02771841 0.01895099 0.06433634 -0.088620394 0.04462757 -0.006331986 -0.005217934
0.010655969 0.02173736 -0.007142817 0.01604702 0.053119555 -0.057722967 -0.0029699162 0.06868068
00000000: d033 57bb f819 993d 0294 30bd 04f1 8b3d
00000010: 804f 953d af42 5d3d 77b2 f8bd a557 a4bc
00000020: 36a2 e03d 2830 19bd ea5e 913d 5c49 863d
00000030: 21a0 91bc b83d ba3d 5647 16bd fc2e 4f3c
00000040: 36b1 f7bd f68b a3bd 5789 febc ee05 663d
00000050: 1dfa 88bd 2a0b d43c 2450 963a fb6d 953d
00000060: 80ff 34bd 89c0 023d 0a9a cc3d fa5f 69bc
00000070: 0167 543d 383e aabd 24fd 483d d4b4 c6bc
00000080: 7042 73bd 3c1d be3d f7a7 ba3c a5c2 f73c
00000090: 596c b63d d4a8 58bc 5316 51bd a49b 54bd
000000a0: f1e2 6fbd 0894 fa3a fd65 03bd 64c5 c03d
000000b0: b040 46bd 39f6 48b9 2f26 693c 745a c63d
000000c0: 14ad 4ebd b811 e33c 1b3f 9b3c c5c2 833d
000000d0: 9c7e b5bd 66cb 363d 8c7c cfbb 34fb aabb
000000e0: 6096 2e3c 8c12 b23c 4b0e eabb 0a75 833c
000000f0: e493 593d eb6e 6cbd eda2 42bb 75a8 8c3d

encoder.layers.0.norm1.weight f4 [64]
1.0236859 1.0020514 0.99464214 0.9346818 0.9741701 0.94240725 1.0228517 1.0747362
1.0370388 1.0406259 1.0169314 0.9233752 1.0005041 0.9286639 0.9561343 0.963763
1.0668733 1.0664847 0.9350962 0.9501828 1.012752 0.98187065 0.93859076 0.9374744
1.0550164 0.9412038 1.1064267 1.0052702 0.97818786 1.032642 1.0596656 0.93347853
1.0591899 0.9974144 1.0162815 0.9569744 0.9583504 0.96778005 0.98451877 0.9889646
0.96751076 0.9892843 0.98961407 1.0574633 0.9914361 1.0049632 1.0016844 1.0024104
0.93377423 1.0518543 1.040213 1.0516174 1.0363123 0.9873418 1.0116494 0.9570765
1.0215033 0.95557946 1.1348127 0.95437974 0.993148 1.0298859 0.9669271 1.0138127
00000000: 2408 833f 3843 803f dea0 7e3f 4e47 6f3f
00000010: 3663 793f 9a41 713f ceec 823f f590 893f
00000020: b0bd 843f 3b33 853f cf2a 823f 5162 6c3f
00000030: 8510 803f ebbc 6d3f 38c5 743f 2cb9 763f
00000040: 4e8f 883f 9282 883f 7762 6f3f 2e3f 733f
00000050: dca1 813f e05b 7b3f 7c47 703f 53fe 6f3f
00000060: c70a 873f bbf2 703f 649f 8d3f b2ac 803f
00000070: 856a 7a3f 9d2d 843f 1fa3 873f 73f8 6e3f
00000080: 8993 873f 8d56 7f3f 8315 823f 46fc 743f
00000090: 7456 753f 6fc0 773f 6c09 7c3f c92c 7d3f
000000a0: c9ae 773f bc41 7d3f 5957 7d3f f55a 873f
000000b0: c2ce 7d3f a2a2 803f 3237 803f fc4e 803f
000000c0: d40b 6f3f 29a3 863f b325 853f 669b 863f
000000d0: e2a5 843f 6fc2 7c3f ba7d 813f f702 753f
000000e0: 9fc0 823f dba0 743f 8b41 913f 3b52 743f
000000f0: f33e 7e3f 4dd3 833f 8988 773f 9dc4 813f

encoder.layers.0.norm1.bias f4 [64]
-0.006063941 0.03365628 -0.04969734 0.0052066697 -0.02030393 -0.031566557 -0.038285445 -0.012372094
0.027716422 0.014505455 0.024262303 -0.016359568 0.03952125 -0.0050524594 0.030989917 0.0056180162
-0.04446102 -0.06496404 0.05767088 -0.049028527 -0.029743554 -0.025962327 0.054914404 0.0399845
0.004178723 0.019330999 0.03374149 0.06920704 -0.028919017 -0.046740953 0.01614503 -0.04417334
0.026566988 0.031394403 -7.195695e-05 0.03925761 -0.028328383 -0.032195363 0.016936563 -0.013418881
0.041864432 -0.006452961 0.020248778 0.015137724 0.031977266 0.010725788 0.018213984 0.04216225
-0.062154707 0.00991954 0.04560497 0.05120689 -0.00018901305 -0.0033658883 0.04073213 -0.012477677
-0.05744138 -0.0380487 -0.031058056 0.002983639 0.005891157 -0.023094987 -0.045238107 0.0099110585
00000000: 06b4 c6bb 2bdb 093d 708f 4bbd b69c aa3b
00000010: 6d54 a6bc ef4b 01bd 33d1 1cbd 53b4 4abc
00000020: 8d0d e33c 4aa8 6d3c bdc1 c63c 8004 86bc
00000030: 09e1 213d 1a8f a5bb 91de fd3c 5617 b83b
00000040: c21c 36bd de0b 85bd 4d38 6c3d 23d2 48bd
00000050: c1a8 f3bc f2ae d4bc eded 603d c9c6 233d
00000060: abed 883b 0b5c 9e3c 8434 0a3d 6cbc 8d3d
00000070: 93e7 ecbc 7173 3fbd 9542 843c 1bef 34bd
00000080: 03a3 d93c 6b97 003d 98e7 96b8 96cc 203d
00000090: ed10 e8bc 49df 03bd 8cbe 8a3c deda 5bbc
000000a0: 0a7a 2b3d 5c73 d3bb c4e0 a53c 3704 783c
000000b0: 98fa 023d 37bb 2f3c 7e35 953c 53b2 2c3d
000000c0: ef95 7ebd 9185 223c 47cc 3a3d 51be 513d
000000d0: ce31 46b9 3c96 5cbb bcd6 263d 2c6f 4cbc
000000e0: a747 6bbd f4d8 1bbd 776d febc 2889 433b
000000f0: 9b0a c13b b331 bdbc 984b 39bd fe61 223c

encoder.layers.0.norm2.weight f4 [64]
0.9538086 0.9850078 0.9239798 0.9089406 1.0214471 0.96224153 0.94536316 1.0176111
0.9941752 0.9800321 1.0005887 0.92181486 0.9894351 0.95640147 0.97316396 0.93077296
1.0861777 0.99933386 0.9585038 0.9771348 1.0156236 0.9658972 0.919385 0.915724
0.99155384 0.89497334 1.063519 1.0267447 0.9682027 1.0216528 1.0259268 0.9629098
1.0173343 0.97006387 0.9729701 0.99208164 0.985782 0.95359445 0.9627801 0.9564542
0.9725192 0.9842681 1.0142429 0.9776687 0.97718567 0.9652189 1.0008177 0.9931013
0.9306798 1.0532635 1.005472 0.9954761 0.9705271 0.93486845 0.959177 0.972471
0.96674776 0.95412815 1.0279984 0.9477297 0.98856694 1.0436347 0.9945081 1.0052446
00000000: cd2c 743f 7929 7c3f f189 6c3f 55b0 683f
00000010: c7be 823f 7655 763f 5203 723f 1541 823f
00000020: 4482 7e3f 62e3 7a3f 4a13 803f 0ffc 6b3f
00000030: 9e4b 7d3f bad6 743f 4621 793f 2347 6e3f
00000040: df07 8b3f 58d4 7f3f 8160 753f 8225 7a3f
00000050: f4ff 813f 0a45 773f d15c 6b3f e36c 6a3f
00000060: 79d6 7d3f f91c 653f 6421 883f 5f6c 833f
00000070: 22dc 773f 85c5 823f 9251 833f 4281 763f
00000080: 0338 823f 1b56 783f 9214 793f 10f9 7d3f
00000090: 365c 7c3f c41e 743f c278 763f 2fda 743f
000000a0: 05f7 783f fff8 7b3f b6d2 813f 7f48 7a3f
000000b0: d728 7a3f 9618 773f cb1a 803f e33b 7e3f
000000c0: 0841 6e3f 57d1 863f 4eb3 803f 86d7 7e3f
000000d0: 7774 783f 8a53 6f3f a08c 753f dcf3 783f
000000e0: c87c 773f be41 743f 7495 833f 6a9e 723f
000000f0: b912 7d3f d295 853f 1598 7e3f dbab 803f

encoder.layers.0.norm2.bias f4 [64]
-0.00095734856 0.025489269 -0.00987231 0.01952434 0.034769133 -0.009953434 -0.027320098 -0.0033638114
0.018451873 0.018370803 0.03049531 -0.03091971 -0.01943179 -0.012644332 -0.022990033 -0.020637516
-0.053802077 -0.05089568 0.010232843 -0.0039100195 0.008845059 0.0049428465 0.015401905 -0.0040923883
0.0056105303 0.023680406 0.030408151 0.044069167 0.013285987 -0.010245223 0.009670058 -0.036105774
-0.008432434 0.0021266842 0.0016067757 -0.023913167 0.011363135 0.0028636707 -0.013336378 -0.004381622
0.0049386425 0.00976009 0.005890461 0.009976094 -0.00793089 -0.0016837209 0.004881407 0.015340184
-0.049952928 -0.040210117 0.05174513 0.03723542 -0.007730516 -0.02780712 0.03777604 0.023735203
-0.033839606 0.0101419315 -0.02936124 0.002369603 -0.016208354 -0.039401952 -0.014961643 0.008342023
00000000: 93f6 7aba dfce d03c 78bf 21bc 82f1 9f3c
00000010: 146a 0e3d ba13 23bc 66ce dfbc 6473 5cbb
00000020: 6228 973c 5e7e 963c 4dd1 f93c 554b fdbc
00000030: 6b2f 9fbc 2c2a 4fbc 9855 bcbc 0210 a9bc
00000040: 915f 5cbd fd77 50bd a8a7 273c 9f1f 80bb
00000050: deea 103c 9af7 a13b 4658 7c3c 7119 86bb
00000060: 8ad8 b73b 69fd c13c 841a f93c df81 343d
00000070: 78ad 593c 94db 27bc 2a6f 1e3c a6e3 13bd
00000080: 3128 0abc d75f 0b3b 729a d23a 8ce5 c3bc
00000090: 712c 3a3c 6cac 3b3b d380 5abc b693 8fbb
000000a0: 56d4 a13b c9e8 1f3c c504 c13b c572 233c
000000b0: 90f0 01bc 4cb0 dcba 36f4 9f3b 6555 7b3c
000000c0: 719b 4cbd 5db3 24bd b4f2 533d 2b84 183d
000000d0: 4550 fdbb c2cb e3bc 0dbb 1a3d 5470 c23c
000000e0: 669b 0abd 582a 263c fc86 f0bc 574b 1b3b
000000f0: 62c7 84bc f163 21bd ae21 75bc fbac 083c
