assets/snapshots/P2_minmax_global_transformer.pth (torch, 297603 bytes, 32 tensors)

input_proj.weight f4 [64, 1]
000000 e3 e0 74 3e df 3d 8e 3e 94 97 9e bd 7e de d3 3e
       0.23913912 0.2778158 -0.07743755 0.41380686
000010 06 99 b8 be 7d 76 5e bf 21 f2 40 3f 9f 4e 10 bf
       -0.36054248 -0.8689955 0.7536946 -0.56369966
000020 86 cb 55 bf b6 a0 47 bf 3e 8c ad be a9 06 cb 3e
       -0.8351368 -0.779796 -0.3389606 0.3965352
000030 c6 07 36 bf 60 ec 2c bf 99 33 64 be 44 00 61 3f
       -0.7110561 -0.6754818 -0.22285308 0.8789103
000040 78 4e 29 bf 4f 14 0d be 0e f6 50 3f 21 0a 2a 3e
       -0.6613536 -0.13777278 0.8162545 0.16605426
000050 c3 80 ce 3e 09 1f 2f bf 27 7d c1 be a6 7c 22 3d
       0.40332612 -0.6840673 -0.37790796 0.039669655
000060 ee ed 23 3f 1e 87 24 bf 69 9e bf be 8e 18 75 bf
       0.64034927 -0.6426867 -0.37425545 -0.9574059
000070 bb 3c 30 3f e5 0e f0 be e6 21 82 3d 61 4e 62 3e
       0.6884267 -0.46886364 0.06354122 0.22100212
000080 80 b5 22 3e ff bc 6c 3f ce ba 51 bf 1e e3 ad 3e
       0.1588955 0.92475885 -0.81925666 0.3396234
000090 46 d4 d6 3e 74 15 35 bf c5 32 8e 3e 0b b5 05 3e
       0.41958827 -0.7073586 0.2777311 0.13057344
0000a0 c1 b9 0b 3e 88 08 5a 3e 6d 0e ce 3e 80 73 eb 3e
       0.13645078 0.21292317 0.4024538 0.45986557
0000b0 a1 3f 06 3e 4c 41 05 3e 75 10 70 3f f8 55 25 3f
       0.1311021 0.1301319 0.9377511 0.645843
0000c0 05 2e f6 3e 91 c5 07 bf 7d fa 4e 3f 83 b1 b8 bd
       0.48081985 -0.5303584 0.80850965 -0.09018233
0000d0 2f 5f 5d bf 5a 55 97 be a2 86 18 3f e6 8b 7a 3f
       -0.86473364 -0.29557306 0.59580433 0.9786972
0000e0 6c f5 6b 3f 4a 46 ae 3b 21 7d a9 be e5 f1 63 be
       0.9217136 0.0053184377 -0.33103278 -0.22260244
0000f0 41 e8 2e 3f 93 b6 30 bf 64 46 4f 3f f7 cb f8 be
       0.6832314 -0.69028586 0.8096678 -0.48593113

input_proj.bias f4 [64]
000000 03 26 3e bf 4e d1 d0 be 96 30 33 bf e6 77 53 3f
       -0.7427675 -0.40784687 -0.6999601 0.82604825
000010 7b ce 57 3f e9 55 cb 3e ef 4b 67 be 66 cf b2 3e
       0.8429944 0.39713982 -0.2258756 0.34923857
000020 d7 bb bb 3a aa 9d 30 3d ae 6d 63 bf 4b e3 0f bf
       0.0014322948 0.04311911 -0.8883923 -0.56206197
000030 f1 b1 ca 3e dc 9d 33 be 52 a5 c9 3e 1b 6d 28 3f
       0.39588884 -0.17540687 0.39383942 0.6579148
000040 af 7e 09 bc 36 fe 58 3f 9a 17 ec be 10 14 2a 3f
       -0.00839202 0.84762895 -0.46111757 0.6643686
000050 0b bd 15 3e 84 d5 d0 3e da 1d 6d bf b9 07 65 be
       0.14622895 0.407879 -0.92623675 -0.22366227
000060 1f da fe be b9 24 e2 3e 31 31 cd 3e 34 31 43 3d
       -0.49775788 0.44168642 0.40076593 0.047654346
000070 b1 ec 87 3e 2b 7e 37 bf 77 e5 6e 3f 8a d7 68 bf
       0.2654777 -0.7167689 0.93318886 -0.90953887
000080 a1 f0 35 3e 85 eb 05 3f a2 96 39 3e 44 76 29 bf
       0.17767574 0.523125 0.18123868 -0.66196084
000090 35 fc 99 3e 36 aa d8 3e c6 f6 74 3f 45 0e 52 3e
       0.3007523 0.4231736 0.95689046 0.20513256
0000a0 09 2c 3d bf 95 07 12 3f 20 81 14 bf 30 ea 66 bf
       -0.7389532 0.5704282 -0.5800953 -0.9020109
0000b0 6b 33 02 bf 51 04 ca 3e 0a 78 55 bf 90 5b f6 be
       -0.5085971 0.39456418 -0.8338629 -0.48116732
0000c0 ee dc e3 3e a5 a6 a3 3e 86 eb 10 3f 78 27 29 3f
       0.44504493 0.31963077 0.5660938 0.6607585
0000d0 ad 3d ef be 70 23 be 3d 76 89 46 bf 86 04 56 3e
       -0.46726742 0.09284103 -0.775535 0.20900163
0000e0 00 21 ef 3e 83 91 77 3f 7b 3d bf 3c a1 da 3c 3f
       0.46704865 0.9670641 0.023344746 0.737711
0000f0 10 9c 48 bf 06 77 bd 3d 15 37 06 bf 7c 3d 0f 3f
       -0.7836313 0.092512175 -0.524278 0.5595319

encoder.layers.0.self_attn.in_proj_weight f4 [192, 64]
000000 26 da 33 3d bd 0d af bc 20 bb b5 bc 13 cc 7f 3d
       0.043909214 -0.021368856 -0.022183955 0.06245048
000010 43 a1 14 3e 9f dc b0 bd e6 7d 9e bc 95 46 86 3d
       0.14514641 -0.0863583 -0.019347142 0.06556431
000020 93 c9 8b ba 3e 73 05 3d ea 17 86 bc 08 0c cc 3d
       -0.0010664932 0.032580607 -0.016368825 0.09963232
000030 99 60 b2 3c 1e e0 7a 3d d5 47 b1 bd 63 d5 6b 3d
       0.021774577 0.06124889 -0.08656279 0.05757655
000040 dd 14 ce 3d e9 28 e7 3c 31 c1 d8 bd 28 dc c1 3d
       0.10062573 0.02821775 -0.10583723 0.094658196
000050 33 ba eb bd 3a f7 1b 3d 89 ca 85 bb 9f ad c0 bd
       -0.11510124 0.03807757 -0.004082982 -0.094081156
000060 67 62 14 3d 0a fc f5 3d 4d 1f 2d 3d ca 3f ba bc
       0.036226656 0.12010963 0.04226618 -0.022735495
000070 07 26 0e be 4d 7b 77 3d 6e 78 2b bd 49 2a 0f be
       -0.13881694 0.060420323 -0.041862898 -0.13980974
000080 ba 5d a0 3b d6 ec d8 bd 63 a5 02 be 7a 4e cf 3b
       0.0048939856 -0.10592048 -0.12758403 0.006326494
000090 18 b6 93 3b 21 76 cf 3c f7 51 03 bc a9 41 90 bd
       0.0045077913 0.025324883 -0.008015147 -0.07043774
0000a0 a0 b5 bd bd 23 2e 01 be 8f bb bd bd f8 16 09 3d
       -0.09263158 -0.12615256 -0.092642896 0.03346917
0000b0 d2 07 e7 3d c9 97 f3 bc ca 5a bc 3c e1 88 17 be
       0.112807885 -0.029735463 0.02299251 -0.14798309
0000c0 8c 02 68 3d d9 82 a1 3d de 01 70 bc 39 02 84 3d
       0.056643054 0.07886285 -0.014648883 0.064457364
0000d0 e9 91 32 3b 7b f4 e1 3d 23 7a 9c 3c 80 93 ec 3d
       0.0027247614 0.11032959 0.019101208 0.11551571
0000e0 a7 16 05 3e f7 7d b9 bd 99 50 fa bd 3b 89 0a 3e
       0.12996922 -0.09057229 -0.12222404 0.13528912
0000f0 eb 44 77 bc cb b0 8f bd 13 74 dd 3d 12 f5 e1 39
       -0.015092115 -0.070161425 0.10813155 0.00043097936
000100 8b 07 24 3e 44 c4 b7 ba fe 7f 0a 3d e9 37 07 3e
       0.16018502 -0.0014020284 0.03381347 0.13204922
000110 8b 81 98 3d b9 06 07 bc 75 a0 60 bd 37 4e 10 3c
       0.07446583 -0.008241349 -0.054840524 0.00880771
000120 29 73 29 3c 2f 65 38 3d 3b 60 a4 3c 83 f2 af 3d
       0.010342398 0.04501837 0.020065418 0.08591177
000130 e0 38 6e be 2c a1 7d 3d ca ad 0f be 5e 47 ff bd
       -0.23263884 0.061921284 -0.14031139 -0.12464784
000140 d2 1f 0a 3e 05 79 98 3d b5 b2 3c 3e 84 0d 96 3d
       0.13488701 0.07444958 0.18427546 0.07326797
000150 f4 26 06 3e c4 58 ed bd 4f 04 8c 3d 2a 72 d2 3c
       0.13100797 -0.11589196 0.06836759 0.025689203
000160 8e 2b e3 bd 24 c9 b9 3d b5 31 0e 3d b1 4e 13 3e
       -0.11092292 0.09071568 0.034715373 0.14385487
000170 70 f8 b6 bd bd d9 0a be 77 34 12 bd 31 36 ff bd
       -0.089341044 -0.13559623 -0.035694566 -0.12461508
000180 8c c5 b0 3d 75 f7 ec bd d6 e1 17 3e 9e 7b de 3d
       0.08631429 -0.11570636 0.14832243 0.10863422
000190 7f 83 03 3e 19 67 43 be b5 c4 e1 bd 15 35 00 3e
       0.1284313 -0.19082297 -0.11023847 0.12520249
0001a0 7a 7e 0a 3e 87 75 27 be 2f e5 e7 3d 63 82 e9 3d
       0.1352481 -0.16353427 0.1132301 0.114018224
0001b0 27 9b 9a 3d bd a4 c4 3d fc b9 26 3e af 27 05 3e
       0.07549124 0.09601734 0.16281885 0.1300342
0001c0 77 c9 89 bd de b9 43 be 52 c4 7a bc 65 9f eb 3d
       -0.067278795 -0.19113871 -0.0153055955 0.115050115
0001d0 af 4e 58 bd e0 6e 0b be 43 35 b5 3c 6d c2 55 bd
       -0.052809414 -0.13616514 0.022120124 -0.052187372
0001e0 8e 0d 72 bd ea ae 6f bd f6 78 14 3e 6c 4a e3 3c
       -0.059094958 -0.05851642 0.14499268 0.027745448
0001f0 ed 55 5b 3c 5d ba c6 3d d6 03 38 3d 55 ed 51 3d
       0.0133871855 0.09703515 0.044925533 0.051251728
000200 76 24 3b 3d 9f f5 05 3e 6c e0 b8 3d b9 3f 17 3e
       0.04568907 0.13081978 0.0902718 0.14770402
000210 8e 1a 93 3d de f3 c2 bd 01 b8 13 3c 8f a5 d4 3d
       0.07182799 -0.0951917 0.009016038 0.1038314
000220 d6 cd 81 bd 80 7c 0f 3d ee f5 88 bd e6 cc 2f 3d
       -0.06338088 0.03503084 -0.06687532 0.042920016
000230 e4 7e eb 3d 92 63 f3 3c 7b 51 40 bd 16 26 ab bd
       0.11498812 0.029710565 -0.046952706 -0.08356874
000240 9d 3c 56 3d 2a 3c 02 3e 2e 3b e3 bd 0f 3c 92 bc
       0.0523039 0.12718263 -0.11095272 -0.017850904
000250 79 e3 16 3d 4d 9b 96 3d 53 6b 27 3c d3 11 98 bd
       0.03683803 0.0735384 0.010218459 -0.07425275
000260 b5 fe 91 3d da 25 94 bd 83 3e ee bd ec 8b 18 bc
       0.0712866 -0.07233782 -0.11633017 -0.009310704
000270 28 13 8f bc 05 3b c6 3d 2c 3a 2b 3d 8e 71 d0 3c
       -0.01746519 0.09679226 0.041803524 0.025444772
000280 c4 e8 bd 3d 3d e6 da 3d 0d 3e 82 3d 5b cf 0c 3d
       0.09272912 0.10688446 0.063594915 0.034377437
000290 f5 19 1b 3e 7b 8b 5c bd bd 80 0e 3e cc 61 2a 3e
       0.1514662 -0.053843956 0.13916297 0.16638869
0002a0 27 55 03 be b6 26 c1 bc 0b 60 6b bd e4 bc 37 3b
       -0.12825452 -0.02357803 -0.05746464 0.0028036172
0002b0 61 b0 e5 bc f5 6c b1 bc b3 f1 00 be dc 38 6d bd
       -0.028038206 -0.0216584 -0.12592201 -0.057915553
0002c0 e1 58 04 3e 09 1e 27 3e cd 46 f4 3c 6b 33 a6 bd
       0.1292453 0.16320051 0.029818917 -0.08115276
0002d0 38 05 97 bc 3c bc 40 bb ba 4e 2f 3c 10 fc eb bd
       -0.018435106 -0.0029409071 0.010699922 -0.115226865
0002e0 9d 02 9c bd 44 df 00 3e 87 0a 96 bd ae c7 70 bd
       -0.07617686 0.12585169 -0.07326227 -0.05878418
0002f0 5c 31 66 3c 00 70 07 bd 9c e1 2c be 91 5c bd 3c
       0.014049854 -0.033065796 -0.16882938 0.023115428
000300 77 8b 83 bd 63 31 0a be 16 b2 9e 3d 6f f6 24 be
       -0.06423085 -0.13495402 0.07748811 -0.16109632
000310 e8 08 6f 3c 54 ff 56 3d 20 eb f2 3d ea d4 4a bd
       0.014589526 0.052489594 0.11861253 -0.049519457
000320 5f 08 37 bd 75 cb 07 bd ad f9 df 3d 92 db 8f 3c
       -0.044685718 -0.033153016 0.10936294 0.017560754
000330 51 95 08 be 35 e3 ed 3d 1a 48 a2 3d 05 88 5c 3d
       -0.1333821 0.11615602 0.079239085 0.053840656
000340 8f 61 2f bc 3e 91 1a be 26 b4 03 3e d4 66 d2 3d
       -0.010704412 -0.15094468 0.1286169 0.10273519
000350 23 52 a2 3d d0 c0 dc bd c5 f4 98 3d 5e af 32 bd
       0.079258226 -0.107789636 0.07468561 -0.043624274
000360 60 db a7 bd 5c d3 71 bd 9f 3a d4 bd 45 3f ca 3d
       -0.08196139 -0.05903946 -0.103627436 0.09875349
000370 11 38 05 3e 48 1d 83 3c 5b fa 06 3e a2 c3 c4 bd
       0.13009669 0.016005173 0.1318144 -0.096076265
000380 bf 35 2d bd 8b 56 8e 3a 29 55 7b bc 43 48 8c 3d
       -0.042287584 0.0010859532 -0.015340128 0.0684972
000390 dd 14 8a 3c da 95 23 be ca 2d 22 3d de 98 42 bd
       0.016855652 -0.15975133 0.03959445 -0.047509067
0003a0 0e b5 c6 bd bf eb 16 bd 28 a9 b2 3d 73 08 8f bd
       -0.09702502 -0.03684592 0.0872367 -0.069840334
0003b0 c6 07 c0 bc dd 48 c6 bd ff 74 57 3d 2d 17 52 3d
       -0.023441207 -0.09681866 0.05260181 0.051291633
0003c0 45 55 e6 bd 2b 04 46 3d 94 89 16 be 23 12 84 3d
       -0.112467326 0.04834382 -0.1470092 0.06448772
0003d0 2d a5 0d 3e 75 ee 0e 3e e9 9d b2 3d 41 6b c6 bd
       0.13832541 0.13958152 0.08721525 -0.09688426
0003e0 45 d8 e2 bd b2 b2 f3 3d aa 86 c8 3d 3a 13 29 be
       -0.110764064 0.11899318 0.0979131 -0.1651124
0003f0 3b cc dc bc 6a bd 11 3e 71 8c 00 be cc c2 2d be
       -0.026952853 0.14232412 -0.12553574 -0.1696884

encoder.layers.0.self_attn.in_proj_bias f4 [192]
000000 f9 9c bb ba 4f 2b 7e bc 29 04 81 3c 01 c9 44 bc
       -0.0014313749 -0.015513255 0.015749054 -0.012010814
000010 cd 96 7e bc cf 75 77 3b d2 b0 bd 3b e9 14 1a bc
       -0.015538883 0.0037759428 0.005788901 -0.009404399
000020 4c 0e 71 bb 68 b1 7d bc ab 00 24 3c 03 e7 75 3c
       -0.0036782203 -0.0154841915 0.010009925 0.015008691
000030 48 2c 25 3c 11 8f 4e bc f8 57 15 bd 57 60 09 3c
       0.010081358 -0.012607352 -0.036460847 0.008384786
000040 59 37 94 3b c9 55 80 3b 41 50 4e bc 92 42 dd bb
       0.0045231995 0.0039164764 -0.012592376 -0.0067523206
000050 5f 4a 2a 3c 40 39 40 bc ce 0c 44 ba ac 6c 62 bc
       0.010393708 -0.011732399 -0.00074787147 -0.013819855
000060 99 5f 3f bc 5d 9b 8e 3c 0e b0 54 3c 36 0f 4d bc
       -0.011680507 0.017408067 0.012981428 -0.012515834
000070 cf 07 3e 3c e9 50 53 bc c9 72 15 bc 7f 1e 0b 3c
       0.011598541 -0.012897708 -0.009121605 0.008491158
000080 6a 6c 0c bd 9f 90 0b 3c e6 24 6a ba 88 60 aa 3b
       -0.03428308 0.008518367 -0.000893189 0.0051994957
000090 2e 3f a1 bb f2 df b1 bc 9e 5f 8c 3c 87 8a bb 3c
       -0.0049208617 -0.02171323 0.017135438 0.022893203
0000a0 63 cc 7b 3c b1 8d 77 bc e6 74 2f 3c 60 7c 89 bc
       0.015368554 -0.015109465 0.010709023 -0.01678294
0000b0 90 a7 21 3c 6f b5 73 3c 8f 3a 5c 3c fe 2a 11 3c
       0.00986661 0.0148748 0.013441696 0.008860348
0000c0 04 db 06 bc 39 41 07 bc d4 6a 5b bd 3e d1 0f 3c
       -0.008230928 -0.008255296 -0.053568676 0.008777915
0000d0 c1 4b b5 3b c0 f4 b1 bb 79 dc 64 3c 7a 12 db ba
       0.005532712 -0.005430788 0.01396858 -0.001671388
0000e0 eb 32 92 bb 19 51 71 bc e7 24 86 3c 06 49 84 bc
       -0.0044616363 -0.014728808 0.016375018 -0.016148102
0000f0 42 4a 1a bc d4 a9 64 bc c2 8a 8c bb f8 b2 49 3c
       -0.0094171185 -0.013956506 -0.004289002 0.012310736
000100 a3 34 ac 39 af 6d 8a ba d5 ee 44 3a 8f 36 b9 ba
       0.00032845614 -0.0010561253 0.00075123954 -0.001413064
000110 17 96 6e ba 1b e6 1d 3a 5b 8c 58 3a 54 41 d2 ba
       -0.00091013446 0.0006023363 0.00082606607 -0.0016041198
000120 5e 9c 7a ba 67 bb 1e 3a 73 09 ee 39 c2 b7 a3 3a
       -0.00095600437 0.0006055147 0.00045401938 0.0012490677
000130 08 e3 2f 3a 38 5c 97 bb 3a 06 ee ba ea 72 03 3b
       0.00067095505 -0.0046191476 -0.0018159815 0.0020057508
000140 96 69 b9 bb 42 52 d2 b8 38 36 a0 bb fa af ee 38
       -0.005658339 -0.00010028902 -0.004889276 0.000113815026
000150 4f b4 8e 3b 09 ff b4 bb cd df 4b 3b 61 6b 65 bb
       0.0043549906 -0.0055235666 0.0031108737 -0.003500663
000160 fe 8e 96 3b 36 21 dd ba ab c7 36 ba 5b 0f 97 bb
       0.0045946827 -0.001687086 -0.0006972502 -0.004609985
000170 05 7a de 3b 5b f8 32 bc a0 cd c0 bb 74 99 0e 3b
       0.006789448 -0.01092347 -0.0058838874 0.0021758946
000180 0b a9 d4 b9 84 1b 1d 3b d7 50 17 3b ab b5 38 3c
       -0.00040561738 0.00239727 0.0023088956 0.011273782
000190 aa d4 1c bc 79 e2 6b bc 93 01 03 3c 42 36 ea 3b
       -0.009572187 -0.014397257 0.007995981 0.0071475813
0001a0 82 d4 97 3a af 0c 79 bb f1 8f 99 ba 76 ae 27 bb
       0.0011583718 -0.0038001945 -0.0011715872 -0.0025586165
0001b0 27 c4 d2 37 fa 10 e7 3a f2 18 d5 3a c7 e6 09 3b
       2.5125291e-05 0.0017628961 0.0016258045 0.0021042095
0001c0 ed f1 9b bc 3b 3d fe bb 60 a2 14 bc dd 8f c5 3b
       -0.019036258 -0.007758764 -0.009071916 0.0060291127
0001d0 5b 41 f3 3b da 70 83 bb a6 c7 f4 bb ed 32 be 3b
       0.0074235625 -0.0040112557 -0.007470089 0.0058044107
0001e0 ec bc f9 bb a8 d1 bc bb 52 09 b3 3b 48 44 21 bb
       -0.007621398 -0.0057622977 0.0054637576 -0.002460735
0001f0 2d 22 19 bb 80 e2 33 bc 30 1b 9d 3b 80 95 88 3c
       -0.0023366318 -0.010979295 0.004794501 0.01667285
000200 47 9d 03 bc 07 cc a6 b9 1e fb a6 3b 75 db a8 ba
       -0.008033103 -0.00031814 0.0050958535 -0.0012882786
000210 3e 9c be bb 02 19 6b bb 39 84 31 bc d2 93 5c 3b
       -0.0058169654 -0.003587306 -0.010834747 0.0033657444
000220 c6 32 46 ba 09 91 7a bc 4f 5a 55 bb 74 71 8b ba
       -0.00075606664 -0.015293368 -0.0032555049 -0.001063867
000230 8e 61 66 3b a8 e5 8c ba b3 da 8e bc a6 69 10 bc
       0.0035153362 -0.0010749595 -0.017438268 -0.008814251
000240 a6 94 35 3a 67 28 1a bc 8c a4 1f ba d8 7e 9e bc
       0.00069267524 -0.009409047 -0.0006089888 -0.019347593
000250 93 93 40 3b d9 66 97 3b f8 9e b4 3b f4 66 89 3a
       0.0029384836 0.0046204147 0.0055121146 0.0010482953
000260 1d 8c 45 bb dc 09 d1 3b 2a ec 77 3b 45 51 40 3c
       -0.0030143328 0.006379349 0.0037829974 0.011738126
000270 91 02 10 bc 53 29 02 3b 67 24 dc b9 e0 c2 b0 ba
       -0.008789674 0.0019861057 -0.00041988792 -0.0013485812
000280 19 cc af 3b 2e 60 79 3b 59 20 2b 3b a5 d6 a1 3b
       0.0053649065 0.0038051712 0.002611181 0.0049389177
000290 ca 4c 87 3b 18 95 ad 3a b5 b3 ef 3b 18 c0 55 3b
       0.004129027 0.0013243286 0.007315124 0.0032615718
0002a0 cc 39 72 3c 62 c6 49 3c 60 09 fd ba ab c0 96 39
       0.014784288 0.012315365 -0.0019305162 0.00028753778
0002b0 e5 54 31 bc c8 ad 95 3b 8b cb 31 bb d9 3e 0e bb
       -0.010823463 0.0045678355 -0.0027129378 -0.002170494
0002c0 6a db ac 3c 66 ab 45 3b 27 e7 14 3a 9c 82 06 bc
       0.021100719 0.0030161976 0.00056801963 -0.008209851
0002d0 3a b6 63 bb 16 72 51 ba 43 c2 de bb 92 46 1b 3b
       -0.0034746067 -0.00079897174 -0.00679806 0.0023693186
0002e0 29 d9 1a b9 a4 3d 6d bb 06 6e 04 bc a7 11 2f bc
       -0.00014767483 -0.003620007 -0.008082872 -0.010685361
0002f0 39 25 bd 3b 3f b4 fb b9 1e 38 55 3a 30 1b da 39
       0.0057722596 -0.00048008744 0.0008133667 0.00041600456

encoder.layers.0.self_attn.out_proj.weight f4 [64, 64]
000000 ef 14 a5 bc 80 0a 96 bd 59 ee 15 bd 36 05 9f bd
       -0.020151583 -0.073262215 -0.03660426 -0.07764666
000010 07 b5 d4 bd f0 bd 96 3d d2 db b9 bd e5 f2 e3 3d
       -0.10386091 0.073604465 -0.090751305 0.11130313
000020 fa 46 a0 3d 63 2b b8 3c 2b 52 9e ba 19 e8 9e 3c
       0.07826038 0.022481626 -0.0012078931 0.019397782
000030 cd e7 d4 bd bd 60 03 3d fd 71 c4 3c 93 a7 74 3d
       -0.10395775 0.03207468 0.023980135 0.059730124
000040 45 f6 96 3b 3a e9 bb 3c a5 20 00 3e 3f 71 d7 3d
       0.0046069943 0.02293836 0.12512453 0.10519647
000050 5a 2e 06 be ec 57 f8 bd f7 cc cb 3d 7f 52 26 bd
       -0.13103619 -0.12126145 0.09951203 -0.04060602
000060 48 af d1 bd 81 79 e1 3d 96 09 a7 bd e6 c5 cb 3b
       -0.1023851 0.11009503 -0.08156125 0.0062186597
000070 63 d3 bd bd b0 44 d0 3d 8c d2 06 3e 87 fc 0e ba
       -0.092688344 0.10169351 0.13166255 -0.00054544996
000080 7b f8 ca bd b0 db 07 3d 5e c9 85 3d 21 7e 6e bd
       -0.09910675 0.033168495 0.06532548 -0.058225755
000090 cf 8b ff bd 61 c1 03 bd 81 64 df 3d 0c 76 2e 3c
       -0.12477838 -0.032166842 0.109078415 0.010648262
0000a0 30 5c d8 3d c3 c5 9e 3d f2 15 c9 3d e0 15 ab 3d
       0.10564458 0.07752564 0.09818639 0.08353782
0000b0 4a 9f 99 3c e2 3f 9e 3d c5 db 9c 3d 92 1a 62 b9
       0.018752713 0.077270284 0.07659105 -0.00021562938
0000c0 b1 12 5f ba 7b 75 fa 3d a4 7c b5 3c e6 36 35 bd
       -0.000850956 0.12229439 0.02215416 -0.04424181
0000d0 f5 e7 ac bd 10 3c 58 3d c1 ed ac 3b 48 72 0b 3c
       -0.0844268 0.052791655 0.005277366 0.0085111335
0000e0 ec a2 cb bd 7a 42 fd 3c 22 97 ad bd b7 4e e9 3c
       -0.09943184 0.030915488 -0.08476092 0.028479917
0000f0 1e aa 9f bd 8c 0e ab bd f7 0f ad 3d 57 5b 39 bb
       -0.07796119 -0.08352384 0.08450311 -0.0028283203
000100 5b c5 e3 3d 84 1d 92 bc 2a 56 bc bd 45 b0 94 3d
       0.11121627 -0.01783634 -0.09196122 0.07260183
000110 06 c7 9c 3d a8 43 e5 3c 59 ea d6 bd fc ba 51 bd
       0.07655148 0.027986363 -0.10493917 -0.051203713
000120 76 ba 81 3d 45 bc 98 3c 75 6a 84 bc f9 fe 88 bc
       0.06334393 0.018644461 -0.016164044 -0.016723143
000130 f7 bd 8c 3c ae 6c 77 3d e2 f2 02 3d 20 ba 0e bb
       0.017180426 0.06040638 0.031969912 -0.002177842
000140 d3 21 bc 3c 7f fe dc bc 4a b3 46 bd 96 4c 03 3c
       0.022965347 -0.026976822 -0.048510827 0.008013865
000150 29 70 02 3e 45 4b 93 bd 1b ff f5 3d 77 05 f5 3d
       0.12738098 -0.07192091 0.12011548 0.11963933
000160 39 22 02 3e 75 d0 ed 3c 34 ff aa bb 12 e6 c6 bc
       0.12708367 0.029030064 -0.005218411 -0.024279628
000170 c1 d0 37 bb 08 89 05 3e 85 cc f9 bd 9f 54 02 3c
       -0.002804801 0.13040555 -0.12197212 0.007954746
000180 ad 29 fe 3d 45 a7 90 3c 1d c5 9a 3d 3b c4 5d bd
       0.12410293 0.017657885 0.075571276 -0.054142218
000190 f3 49 47 3c 15 bf 18 3d af ae e4 3d 5b 8d 70 3c
       0.012163627 0.037291605 0.11166131 0.014682139
0001a0 75 31 ab 3d ac c9 79 bd e1 ce cc 3d f4 44 ac bd
       0.083590426 -0.060983345 0.100003965 -0.08411589
0001b0 fc 82 ce bc 78 4b 96 3d 09 c5 78 3d 43 79 30 3d
       -0.025208943 0.07338613 0.060734782 0.043084394
0001c0 60 71 ad 3d 4d ba 2d 3d 5b 52 a2 bc e9 52 85 bd
       0.0846889 0.042414 -0.01981466 -0.065099545
0001d0 2e f7 f3 bd 60 21 a6 3d 62 8a d7 bc 61 44 6e 3d
       -0.1191238 0.081118345 -0.026311103 0.05817068
0001e0 54 18 e0 bd 6d 24 d6 3d 11 11 60 bd 3e 01 1e 3d
       -0.1094214 0.104561664 -0.054703776 0.038575403
0001f0 d3 03 8d 3a cf 1e 95 bd 85 15 64 bd 1d f9 e9 bd
       0.0010758586 -0.07281267 -0.055684585 -0.11424468
000200 16 1a 53 bd ae 78 ae 3c 7a e8 00 be e6 cc 0d 3d
       -0.05153855 0.021297779 -0.12588683 0.034619235
000210 b6 b1 62 bd 13 58 b6 3d 48 cb 9e bd 3d 77 f3 bd
       -0.05534526 0.089035176 -0.077536166 -0.11887977
000220 61 e9 e3 3d 87 c8 bd bd 6d 86 17 3d 39 49 76 3d
       0.11128498 -0.09266763 0.036993433 0.060128424
000230 16 83 7e bd 01 0c 91 bd 09 13 00 3e 47 24 0a 3d
       -0.062136732 -0.07082368 0.12507261 0.033726003
000240 81 6c fc 3d 31 ec 05 3e d4 bb 0a 3e ba 48 05 bd
       0.12325383 0.13078381 0.13548213 -0.03254006
000250 d6 36 e2 bd 15 cb ab 3d 29 3e 9e bd e2 23 04 be
       -0.110456154 0.08388344 -0.077267 -0.12904313
000260 2a 12 7f bd af da dd bd bc 11 0f 3d 0f ca 28 bc
       -0.062273182 -0.10832726 0.034929022 -0.010302081
000270 24 97 99 bd 62 1e 78 bc 22 e6 13 3e f2 a8 f2 3c
       -0.07499531 -0.015143963 0.14443257 0.029621575
000280 b5 ca 90 bd dc 26 cb 3d 4d 08 57 3c 46 2e 06 be
       -0.07069913 0.09919521 0.013124538 -0.1310359
000290 13 3f 47 3c 74 8f e6 3d 6e a5 c0 bd 97 71 7e bd
       0.012161034 0.1125783 -0.09406553 -0.062120046
0002a0 77 3b 47 3d 13 99 f2 bd d3 94 b5 bd 09 c2 0e 3c
       0.048640694 -0.11845603 -0.088662766 0.008713254
0002b0 28 14 d7 bd fd 47 dd bd e3 60 93 3d 81 6b 91 bd
       -0.105018914 -0.10804746 0.07196214 -0.07100583
0002c0 df 85 37 3d 2d 91 7d 3d af 1f 69 3d a5 9b a6 3c
       0.044805404 0.06190603 0.05691498 0.020337889
0002d0 cd ea b2 bd cc 1c 7e bd ff 0d a2 bd 2f c9 2d 3d
       -0.08736191 -0.06203918 -0.07912826 0.04242819
0002e0 2b a8 c7 bc 2e 42 81 bd 0a fd f5 3d 4b 3c 1a bd
       -0.02437218 -0.06311451 0.12011154 -0.037655156
0002f0 f8 8e d4 3d 4b 56 a9 3d 9d 84 dc 3d 76 e8 83 3c
       0.103788316 0.08268412 0.107674815 0.016102057
000300 16 29 54 3c e3 43 5a bd f8 0c df bc e6 3a a1 bd
       0.012949249 -0.053287398 -0.027227864 -0.07872562
000310 d0 f1 7c 3d f5 26 b3 bc ed af cf bd 36 0e bf 3d
       0.061754048 -0.021869162 -0.10140977 0.093288824
000320 19 06 96 bd 1c ec 9f bd 28 e8 37 3d 7a 39 98 bd
       -0.07325382 -0.07808706 0.044899136 -0.07432838
000330 51 b6 d4 bc e6 31 0a 3d f2 23 54 bc ea 7a 51 bd
       -0.025965841 0.033738993 -0.012948023 -0.05114261
000340 8f 30 5a bd 72 5d 19 3d 41 73 ca 3c dc f7 16 3d
       -0.053268965 0.037442632 0.02471316 0.03685747
000350 df a1 73 3d 68 e2 03 3e 23 db 13 bd 9c 9f e2 3d
       0.059480544 0.12879336 -0.036097657 0.11065599
000360 a5 b0 c3 bc b3 14 a9 bd 82 b1 f1 3d 5f c9 8a bb
       -0.023887942 -0.08255901 0.11801435 -0.004235431
000370 79 32 5e 3d 30 21 c9 bd 77 cf 7f bd 42 25 37 bc
       0.054247353 -0.09820783 -0.062453713 -0.011178317
000380 09 c0 fe 3d 37 ef fc 3c 10 cd bb 3c a5 1a be bd
       0.124389715 0.030875785 0.02292493 -0.09282426
000390 0c 4d e9 bd 2b 07 58 bd a6 cc 89 bd 6d b9 9d 3d
       -0.11391649 -0.05274121 -0.06728487 0.07701383
0003a0 ba ba 84 3d 2c 83 5b bd a6 97 d9 bc ce 9d 2d 3d
       0.06480928 -0.053591892 -0.02656157 0.042386822
0003b0 4a 26 a4 bd 7d 75 e9 3d 57 a3 2a 3a 8b d7 98 3c
       -0.080151156 0.11399362 0.0006509325 0.018657466
0003c0 2c 8e fb bc c2 35 cc bd 13 2e 8b 3d 2a 69 d7 3d
       -0.030707441 -0.09971191 0.06795897 0.10518105
0003d0 50 23 8a 3d 24 15 a3 39 56 33 81 bd 17 09 03 3e
       0.067450166 0.00031105534 -0.0630862 0.12796436
0003e0 96 20 c4 bd 6f 01 04 be b9 b4 64 bd 8a cb 54 bc
       -0.09576528 -0.12891172 -0.055836413 -0.012987981
0003f0 2d e8 ea bb cc 0c 45 3d 2f 6e c3 bc 70 f3 0e 3e
       -0.007168791 0.048107907 -0.02385625 0.13960052

encoder.layers.0.self_attn.out_proj.bias f4 [64]
000000 65 49 08 3c b8 76 d3 ba ac 83 2b 3c f9 85 a9 bc
       0.00831828 -0.0016133403 0.010468405 -0.020693766
000010 ff fa 31 bc 6d a8 5d 3b 4e 8a c6 bb 49 be db b9
       -0.010863065 0.0033822313 -0.0060589677 -0.0004191271
000020 54 cb 44 3c 1f 35 03 3c 22 c6 d1 3c f2 bc d6 3b
       0.012011368 0.0080082705 0.025607172 0.0065532858
000030 e0 3e e2 3a 3f 38 54 3c 02 8a 38 bb 27 c8 a4 bc
       0.001726117 0.012952863 -0.002815843 -0.020114971
000040 b9 e2 a4 ba 82 75 f2 bc 7b 3b c2 ba 41 64 b2 bc
       -0.0012579776 -0.029597048 -0.0014818752 -0.02177632
000050 f6 d2 ba 39 de 58 00 bb ff 35 d7 3c e3 53 be 3b
       0.00035633863 -0.001958422 0.026270865 0.00580834
000060 bb 9f fd bb 15 bf 2b bc e1 99 98 b9 01 57 ef 3a
       -0.0077399886 -0.010482569 -0.00029106348 0.0018260182
000070 1f ef 27 bb a6 02 12 3c af 1e 33 bc ba b4 98 3b
       -0.0025624705 0.008911764 -0.0109326085 0.004660216
000080 38 f9 5f bb ee 35 14 bc c9 4e 8d bb a1 0e ba 3c
       -0.0034175646 -0.009046061 -0.0043123704 0.022712054
000090 96 3f b0 ba 69 6f 37 ba 3b 39 32 bc ea ff fe ba
       -0.0013446684 -0.00069974974 -0.010877903 -0.001945493
0000a0 85 81 b2 3b b8 69 f5 b8 cd 9f 63 3c 51 1c d5 3b
       0.005447569 -0.00011702202 0.01389308 0.0065036197
0000b0 10 89 6f 3b 23 4d fa bb 3c d8 cd ba a0 23 19 3a
       0.0036550201 -0.00763859 -0.0015704702 0.00058417954
0000c0 60 02 dd bb dc 83 a5 bb 81 9c 5c bb 2d bd df 3a
       -0.006744668 -0.0050511193 -0.003366262 0.0017069929
0000d0 de 24 c1 3b 46 63 06 3c 83 e1 58 b9 47 67 b4 ba
       0.0058942875 0.00820238 -0.00020683375 -0.0013763689
0000e0 9d e3 3e bc 54 8f 9b bb 24 f0 62 ba 93 50 73 bb
       -0.011650947 -0.0047473107 -0.00086569996 -0.0037126883
0000f0 e6 0c 26 3c 3c 87 30 3c 10 b3 53 3c 1e 78 f0 39
       0.010134911 0.01077443 0.01292111 0.00045865861

encoder.layers.0.linear1.weight f4 [128, 64]
000000 b7 26 0b 3d f0 95 fe 3c 8b 79 ae bc 20 fa 9c 3b
       0.03397247 0.031077355 -0.02129819 0.0047905594
000010 a4 6b 0a bb c9 b0 3a 3d 08 ab aa 3b 39 67 c5 bd
       -0.0021121288 0.04557875 0.005208377 -0.09638829
000020 e0 cf 8f 3d 3a 08 2c 3d a8 cf 08 be 87 e9 05 be
       0.07022071 0.042000033 -0.13360465 -0.13077365
000030 23 5b a4 bd d0 be cb bd 9f 2f b7 3b 74 10 2f bd
       -0.080251954 -0.09948504 0.0055903937 -0.0427403
000040 3b dc c9 bd 07 67 8e bd 13 3a 24 3e 4a 8b e8 3d
       -0.09856459 -0.06953245 0.16037779 0.11354692
000050 13 b9 aa bc 17 cb e1 bb 0e de d4 3d 20 0f 54 3d
       -0.020840203 -0.0068906653 0.10393916 0.051772237
000060 78 93 60 3d 56 9c d3 3d 38 b6 e3 bd 72 0e 27 bd
       0.054828137 0.10332553 -0.1111874 -0.04078526
000070 b3 63 9a 3d da 35 79 3d 11 bd 79 bd 2d f4 a8 bd
       0.07538547 0.060842372 -0.060971323 -0.08249698
000080 12 6e a5 bd 61 3b 97 3c aa 9b 0b be 9e 36 c9 3d
       -0.08077635 0.018460931 -0.136336 0.098248705
000090 e8 67 d2 bc ba 5d 6c bd 18 9d d6 bd 70 80 cf 3d
       -0.025684312 -0.057706572 -0.10479182 0.101319194
0000a0 8b b0 6d bd 31 44 d8 bd b5 f7 8a bc 7e 48 5f 3d
       -0.058029693 -0.105598815 -0.016963819 0.054512493
0000b0 e7 47 3f 3c 1d 1b 78 3d ba 83 d2 3c 4e d3 14 bc
       0.011674858 0.060572732 0.025697578 -0.009083582
0000c0 e4 d1 d9 3d a8 9a 1c be 7f 46 58 3d ea 67 cd 3c
       0.106357366 -0.15293372 0.052801605 0.025073964
0000d0 40 0c f4 bd 9f 90 8b bd 91 7a 11 3d 72 ca 7c 3c
       -0.11916399 -0.06814694 0.03551728 0.015429126
0000e0 e8 a5 19 3d ec a0 60 bd ab e3 f9 3d 34 7c b3 bc
       0.037511736 -0.054840967 0.12201627 -0.02190981
0000f0 06 74 91 bd 3e b2 ff bd 4f 66 93 3d f4 5f 91 bd
       -0.07102208 -0.12485169 0.07197248 -0.0709838
000100 21 89 0a 3e b1 be 02 3e 4a 7b 68 3d 79 f7 ba bd
       0.13528873 0.12768055 0.056758203 -0.09129233
000110 5f c4 80 bd 1a 02 1b be a7 fb 56 3d fa 19 ad bd
       -0.06287455 -0.1513752 0.052486088 -0.0845222
000120 3c f5 82 ba 98 11 fe 3c 93 e0 3e 3d d0 f5 2d 3e
       -0.0009991298 0.031014249 0.04660089 0.16988301
000130 ce 49 c9 bc 64 46 4e 3d 1a 50 df bd da 4d 81 3d
       -0.024571326 0.0503601 -0.1090395 0.06313677
000140 52 16 d3 bd ca b8 1b be 0b 83 ee 3d 68 24 4e bd
       -0.10306992 -0.1520721 0.11646088 -0.05032769
000150 61 52 98 bc 16 cc 3b be 66 79 a0 bd f5 1c 89 3d
       -0.018593969 -0.18339571 -0.07835655 0.06694976
000160 37 c7 54 3d 2f 31 d1 bd 68 97 dc bd 94 da db bd
       0.0519478 -0.10214459 -0.10771066 -0.1073505
000170 64 59 dd bd a7 81 68 3b cb 9b 60 bc 32 53 8f bd
       -0.108080655 0.003547767 -0.013709019 -0.0699829
000180 fa 54 d5 bb 45 ce ce bc 9e 15 5a bd e8 ae 27 3e
       -0.006510374 -0.025244841 -0.053243272 0.16375315
000190 71 ac 3d 3d dd 86 b0 3c 71 bd 37 3d be 3f ff bc
       0.04630703 0.021548683 0.0448584 -0.031158324
0001a0 0e 2f 09 3e cb ec dc bc f4 c5 01 bc 40 e7 0a 3e
       0.13396856 -0.02696838 -0.007920731 0.13564777
0001b0 ab 15 08 3e 8b a4 cc 3d b9 a1 2d bd 56 39 b2 3c
       0.13289516 0.099923216 -0.04239056 0.021755856
0001c0 34 9f 98 3d 9d 6a 05 be 19 2f 0b be 6e b2 71 bd
       0.074522406 -0.13028951 -0.13592185 -0.059008054
0001d0 7f 90 06 3e ef a2 82 bd a2 98 a4 3c 2b c0 b6 bd
       0.13141058 -0.06378733 0.020092312 -0.08923372
0001e0 18 54 9b 3d da 50 aa 3d 1a 48 d4 bd 1f a1 6e bd
       0.07584399 0.083162025 -0.10365315 -0.058259126
0001f0 a4 6d 72 bd 84 03 f6 bd a4 2b 79 3d 5f c8 23 be
       -0.059186593 -0.12012389 0.060832635 -0.15994404
000200 92 09 44 3d 45 ad 86 3d 4d a7 fb 3d 66 fa 8c bc
       0.04786069 0.06576017 0.122877695 -0.017209243
000210 00 c6 c5 bd 93 d2 aa 3c 09 cd 34 bd 83 c9 a8 3c
       -0.09656906 0.020852363 -0.04414085 0.0206039
000220 9e 41 89 bd 12 45 52 3d 7c 65 28 3d 79 35 a3 3d
       -0.067019686 0.0513354 0.041112408 0.079691835
000230 ed 77 9c bc dc 12 d7 3d 0c 65 ca 3c 18 e2 dc 3d
       -0.019100154 0.10501644 0.024706386 0.107853115
000240 7a f5 71 3d 61 4a d6 3d 9b 0e 29 3d 0a fb 5e 3c
       0.059071995 0.104634054 0.041273694 0.013609657
000250 77 c4 9b bd 54 3b 6e bc 61 de 13 3d 54 9e 7b bd
       -0.07605832 -0.014540512 0.03610075 -0.06143029
000260 fa a5 85 bc 09 6d 1d 3c a0 04 ab 3d 71 6b 01 bc
       -0.016314495 0.009608516 0.083504915 -0.007899151
000270 b2 34 d2 3d 85 74 a8 bc 9b 31 71 bb b6 35 e2 3d
       0.10263957 -0.020563373 -0.0036803249 0.11045401
000280 0f 0c 75 3d 5f ba 03 be 68 1c 43 bc 45 81 ad bd
       0.059825953 -0.12864064 -0.011908628 -0.08471922
000290 da 1b a9 bd d3 8b e5 3d a4 6a 11 bd 24 a8 91 bd
       -0.082572654 0.1120831 -0.03550209 -0.071121484
0002a0 64 5f c6 3d ac 03 d4 3c e4 b6 90 bc 28 4f b0 bd
       0.09686163 0.025880657 -0.017665334 -0.08608848
0002b0 b8 cb 55 bc bc 10 e8 bd 3c 18 3a bd 14 f4 7e bd
       -0.013049059 -0.11331317 -0.045433268 -0.06224449
0002c0 fe 7b be 3d b1 34 ba 3d b1 e0 e8 bd 5e 1e 0d 3e
       0.093009934 0.09092081 -0.113709815 0.13781115
0002d0 2d 8f ba bd 1d 0c 6a bd ab 3a 8d bd 4d 79 99 bd
       -0.0910934 -0.05714046 -0.06895956 -0.074938394
0002e0 24 51 a5 3d 96 4a 38 bd c8 61 36 3c ed 8e 9c 3d
       0.08072117 -0.044993006 0.011131711 0.076444484
0002f0 fc b0 c5 bd 51 48 a6 3c aa 1c f2 3b 82 64 97 b8
       -0.09652898 0.020298155 0.007388671 -7.218962e-05
000300 6f d5 72 bb 4b d7 03 bc f7 e7 cb 3d d5 26 8f 3d
       -0.0037053486 -0.008046935 0.09956353 0.069898285
000310 a3 99 47 bc 2e 34 14 3e 0d a8 12 be f9 49 ca bc
       -0.012182626 0.1447303 -0.14321919 -0.024693476
000320 d2 8a 8f bd ff 03 34 3d 9d 5c 92 bd 73 4d e7 3d
       -0.070089 0.043949123 -0.07146571 0.11294069
000330 31 19 3f 3e 77 e7 ef bd e4 90 9f 3d 5d b5 0e 3c
       0.18661954 -0.1171407 0.077913076 0.008710233
000340 1d 3a 67 3d 73 d7 dc 3c 8b f2 2c 3d 87 a8 f9 bc
       0.056451906 0.026958203 0.042223494 -0.030475868
000350 cc 04 dd bd 39 10 33 bd e0 10 6e bc 8e 2d e8 bd
       -0.107919306 -0.043716643 -0.0145303905 -0.11336814
000360 e7 48 05 be 9e fc a4 3d f7 88 8d 3d 90 a8 af bd
       -0.13016091 0.080559954 0.069108896 -0.085770726
000370 a1 9e 8d bc b9 98 8a bd 90 6e a5 bd d4 10 e3 bb
       -0.017287554 -0.06767411 -0.08077729 -0.0069294963
000380 37 32 df bd 8b 4f 3a bd b7 39 4d 3b 50 94 5f bc
       -0.108982496 -0.045486014 0.0031314918 -0.0136462
000390 63 eb dc bd a8 b2 9d bd bd 5f f4 3d 25 98 b4 3d
       -0.10787084 -0.077000916 0.11932323 0.08818082
0003a0 7a fa 67 3d be 53 f8 bc 87 46 c8 3d 4b 1a b9 3d
       0.056635357 -0.030313369 0.09779077 0.09038218
0003b0 df 18 f9 bd 7a 22 29 3d b5 63 03 be 6e 81 85 3d
       -0.12162947 0.041292645 -0.12831004 0.065188274
0003c0 10 30 9f bd fa 72 f4 3d 0d 72 3f bd ad 84 a2 3c
       -0.07772839 0.119359925 -0.046739627 0.019838655
0003d0 08 83 b3 3a f3 fe a3 bd 31 4d d5 bd 02 38 19 bc
       0.0013695667 -0.08007612 -0.10415114 -0.009351732
0003e0 69 fc 25 bd 2a 64 a7 bd ba e7 4c 3d 60 23 03 3e
       -0.04052392 -0.08173402 0.05002568 0.12806463
0003f0 99 60 29 bd 3b ac 52 3d e7 12 32 bd 20 44 00 3c
       -0.04135189 0.051433783 -0.043475058 0.007828742

encoder.layers.0.linear1.bias f4 [128]
000000 3b 85 a4 bb d6 93 b8 bd 00 29 fc bc f3 a1 b1 bd
       -0.005020765 -0.090125725 -0.03078127 -0.086734675
000010 df 8b 3d bd e9 cb a8 3c 27 d0 02 be f5 fd af bd
       -0.04627597 0.020605044 -0.12774716 -0.0859336
000020 5a c3 e4 bd 33 5a ac bd 74 a9 0f bd d6 80 e9 bd
       -0.11170073 -0.08415642 -0.035073712 -0.11401527
000030 0e 42 92 bc 4d 4c 66 bd d6 c3 a9 bd 91 d4 1f 3c
       -0.017853763 -0.05622511 -0.08289306 0.00975527
000040 23 c9 f7 bc 7e bf 95 3c 23 5e 8f 3d 88 ca 89 3d
       -0.030247277 0.018279787 0.07000377 0.06728083
000050 25 10 a8 3d fa 47 bc 3d 96 cd c0 bd f2 f3 80 3d
       0.08206204 0.09193416 -0.094142124 0.06296529
000060 8d e1 8b 3d c9 c8 ab bd 32 65 5c bd 5f ff 0a be
       0.0683013 -0.08387906 -0.053807445 -0.13573979
000070 fa 05 d5 bd df 63 ae 3d a8 37 98 3d 30 63 ae bd
       -0.104015306 0.08515143 0.074324906 -0.08515012
000080 8f 65 e7 3c f3 2a a8 3d ba 21 9b bd 3c 4c 03 3e
       0.02824667 0.08211317 -0.07574792 0.1282205
000090 5f 8e 0a bd f1 e9 77 3c 14 f6 4a bd 51 78 0e be
       -0.033827182 0.01513146 -0.049551085 -0.13913085
0000a0 3d fd b0 3b 76 d2 a2 3d a1 95 c9 3d 0e 20 1a 3d
       0.005401282 0.079502985 0.098429926 0.037628226
0000b0 ad 56 6b bd 04 d1 85 3d 5e c7 4a bd c6 15 04 3d
       -0.057455707 0.06534007 -0.049506538 0.032247327
0000c0 ab 62 fe 3c 53 5e b9 3d 2c 2a c0 3d 56 fb 5c 3d
       0.031052908 0.09051194 0.09383044 0.05395063
0000d0 91 2d 30 bd 1a cd b1 3d d5 d3 d1 bd 39 89 61 3c
       -0.043012206 0.08681698 -0.10245482 0.013765627
0000e0 b7 5b 0e 3c 96 6a bb bd 48 7b 1a 3c 2e a9 00 3e
       0.008688859 -0.09151189 0.009428807 0.12564537
0000f0 5a 90 f5 bc 24 6f 8d 3a ab c3 be bd eb ca 9f bd
       -0.029976059 0.0010790569 -0.093146645 -0.078023754
000100 d5 bd 6d 3d 3e 8e c4 3d ad b6 13 3d cf ed fa 3d
       0.058042366 0.09597443 0.036062885 0.1225239
000110 89 ee c1 bc 6b 3c 4a 3d 11 3f 68 bc 79 13 7f 3d
       -0.023673313 0.049374025 -0.014175192 0.06227443
000120 f0 f9 ba bc 0b 6e 9e bd d6 9d 78 3c 5b 9e c1 bd
       -0.022824258 -0.07735833 0.01517435 -0.09454032
000130 71 56 a4 bd 2a 8f ef 3c 40 83 c1 3d 2d 99 53 3d
       -0.080243 0.02924307 0.09448862 0.05165975
000140 0d 9e d2 bd 51 0e f9 3c f0 75 97 bd f3 b1 c8 bc
       -0.10284052 0.030402334 -0.07395542 -0.024498915
000150 9e 87 51 bd 07 e6 c0 bc d6 cb ce 3d 99 d9 99 bd
       -0.051154725 -0.023547186 0.10097472 -0.075122066
000160 b0 e8 ed 3c d5 96 ee 3c ea 6c 0a bc 50 3d bc 3d
       0.029041618 0.029124657 -0.008448819 0.09191382
000170 58 b1 c7 bd 13 70 72 bd 35 12 a0 bd 49 0a 9e bd
       -0.097506225 -0.059188914 -0.07815973 -0.077168055
000180 ca 20 cc 3d 18 d9 9d 3d 0e 81 ca bd 7d 41 b7 3c
       0.099671915 0.07707423 -0.098878965 0.022370094
000190 19 e3 ee 3b bb 18 c3 bc 62 b5 38 bd 11 ea 81 3d
       0.0072902557 -0.023815503 -0.045094855 0.06343473
0001a0 59 0b e1 bd d3 63 65 3d 44 50 17 3d 03 7e 7e 3d
       -0.109884925 0.056003403 0.03694178 0.062131893
0001b0 a0 15 f9 3d d8 21 82 3d 83 9a f8 bd 34 45 14 bc
       0.12162328 0.063541114 -0.12138846 -0.009049702
0001c0 c3 a9 a9 bd b6 6e 68 3d ee 3d 93 bd 87 52 d8 bc
       -0.082843326 0.056746207 -0.071895465 -0.02640654
0001d0 8c d2 ff bd 4c 7f c2 bc 22 8e c7 bd 1a 89 f9 bd
       -0.124913305 -0.02374234 -0.097439066 -0.12184353
0001e0 ae 53 c8 3d 5f 3b 6a bd e0 24 f1 bd 5b f3 9e 3d
       0.09781586 -0.057185527 -0.117746115 0.0776126
0001f0 0d d0 04 be b0 3a 02 bd 20 b3 c1 bd f7 1c f4 bd
       -0.1296999 -0.03179425 -0.094579935 -0.11919587

encoder.layers.0.linear2.weight f4 [64, 128]
000000 0f 09 65 bc 02 a1 56 bd 82 a2 76 3a d9 56 4f bb
       -0.0139792105 -0.052399643 0.0009408371 -0.0031637459
000010 f7 11 99 3d 74 69 8f bc 6d 77 92 3d bf f7 20 3c
       0.0747413 -0.017506339 0.07151685 0.009824692
000020 c8 6d 50 bd ad 69 02 3d bf 37 08 3d d6 d7 66 3d
       -0.050885946 0.03183906 0.03325629 0.05635818
000030 a5 e4 89 3c fd 82 90 3d f0 d9 b7 3d 73 16 7a bd
       0.016832659 0.07056234 0.08977115 -0.061056565
000040 94 91 03 bc 93 4c 35 bd 5e 27 49 bd d8 0a 39 3d
       -0.008030314 -0.04426248 -0.04910981 0.045176357
000050 6a d1 f4 3c be fa 98 bd 05 6a fa bc 6e e7 35 bd
       0.029885013 -0.074697 -0.030568132 -0.04441016
000060 88 6d 45 bc 6f fa 26 3d e0 09 93 bd 56 89 cb bb
       -0.01205004 0.040766176 -0.07179618 -0.00621144
000070 0c f5 fd 3c 68 83 60 bd fa 9d 7a bd 86 09 79 3d
       0.031000637 -0.05481282 -0.061185814 0.060800098
000080 c5 4c bf bc 25 db a5 3d d6 c6 79 3d c3 d7 ee 3d
       -0.023352036 0.08098439 0.06098064 0.11662247
000090 a7 8e 18 bd fb 18 76 bd 69 6f a6 bd 72 d8 45 bd
       -0.03724542 -0.060082417 -0.081267186 -0.04830212
0000a0 65 87 46 3d a8 e8 08 bd 65 e6 b8 3c ad f5 f0 3c
       0.048468966 -0.033425003 0.022570798 0.029414022
0000b0 71 bf 02 3d 38 14 07 3d b6 4f 2f 3d 3c b8 16 bd
       0.031920854 0.032978266 0.042800628 -0.036796793
0000c0 b8 bb 00 bd 65 cf 1f bb 3f a0 11 bd f7 cb a7 ba
       -0.031429023 -0.0024385091 -0.035553213 -0.0012801875
0000d0 b6 c8 2e bd 49 bc 94 3d ce 67 cd 3d 46 32 70 3d
       -0.04267188 0.07262475 0.10029565 0.058641694
0000e0 df 02 23 3c c0 59 9e 3c c3 60 b3 bd 39 77 c4 3a
       0.009949415 0.019329906 -0.0875869 0.0014989144
0000f0 cb f6 fd 3d 1a 82 a1 3d e2 1c 95 bd 2e ec 0b bc
       0.12400588 0.07886143 -0.072808996 -0.008540196
000100 c9 e6 8b 3d b8 f9 f2 3c 14 60 5c bc 5c d9 1c 3d
       0.06831128 0.02966009 -0.013450641 0.038293228
000110 67 d3 1c 3d 66 a3 54 3d 61 90 3d 3c 52 30 88 3d
       0.038287546 0.05191364 0.011570067 0.06649841
000120 aa 63 67 3c 0e 7e 71 3d 3a 4b 43 3c 18 29 ac bb
       0.014122883 0.058958106 0.011919791 -0.005253922
000130 27 36 2f bd 8d b0 2a 3d 56 fd a9 3c 28 aa 8f bd
       -0.042776253 0.04167228 0.020750683 -0.070148766
000140 6e 38 b0 bd e3 93 a8 bd 7e 4d 04 bc f9 69 14 bd
       -0.08604513 -0.08231332 -0.008075116 -0.036233876
000150 07 28 68 3d 1d c9 a7 3c 59 89 c3 3d b1 13 47 3d
       0.056678798 0.02048164 0.09547681 0.048602764
000160 ff c4 63 3d 8b a7 40 bd b1 e6 6e 3c 52 cd 40 3d
       0.055607792 -0.04703478 0.014581368 0.04707081
000170 2e 1d 69 3d 96 72 67 bd 18 cc 4b bd 37 c4 ea bb
       0.056912594 -0.056505762 -0.049755186 -0.007164504
000180 f6 e7 ac bd 5b 60 9d 3d 49 42 b2 bd 5e d8 96 3d
       -0.084426805 0.07684394 -0.08704049 0.073654875
000190 ce 9f d0 3c 78 8d 85 bd f3 8f 80 3d 0a 78 8e 3c
       0.025466826 -0.06521124 0.06277456 0.017391223
0001a0 17 89 a7 3d 89 17 73 bd c7 0f 29 bc ec 16 9d 3d
       0.08180445 -0.059348617 -0.010318703 0.076703876
0001b0 b4 92 ae 3c d1 ca 7f 3d a7 84 c5 3d e8 eb 93 bb
       0.021310188 0.06244928 0.09644442 -0.004514206
0001c0 6c 30 cf bc 9b ad 8d 3a f7 e9 36 ba d2 b8 4b 3d
       -0.025291644 0.0010809185 -0.00069776125 0.049736805
0001d0 56 c4 84 3d 66 a0 0e bd f9 d8 54 3d c8 ed 65 bc
       0.064827606 -0.034820937 0.051964734 -0.014033742
0001e0 cd 71 b8 bc 1d cd 5b 3d 67 fb 94 3d 75 b4 61 bd
       -0.022515202 0.05366241 0.07274514 -0.055103738
0001f0 02 7d 33 bd 4d b7 34 bd b6 83 84 3d 00 fd 74 3b
       -0.04382039 -0.04412012 0.06470434 0.0037382245
000200 78 65 b4 bd 97 c3 9b 3d b5 39 08 bc e2 6c 56 bc
       -0.08808416 0.07605665 -0.00831454 -0.013087483
000210 66 05 72 3d d2 05 4f bd 7a 53 09 3d 0e 32 a4 3d
       0.05908718 -0.05054266 0.033526875 0.0801736
000220 2d 1d 38 bd e1 b9 e8 3a 95 e7 4e 3d 37 e5 50 3d
       -0.0449497 0.0017755592 0.050513823 0.050999846
000230 53 a2 1e bc d9 6e b8 bd fc 3b 7a bd 49 e4 cd 3c
       -0.009682256 -0.090055175 -0.06109236 0.025133269
000240 00 5c 14 bd e6 bb bd 3d 8f ac a5 bc 0b 73 99 bd
       -0.03622055 0.092643544 -0.020223884 -0.07492646
000250 28 b0 00 3d a4 51 65 bd 64 74 4c bc 5d 5f 72 3d
       0.031417996 -0.05598606 -0.012478922 0.059172977
000260 ba 7c 99 bd 87 85 d0 bc ce 65 93 bd f4 c0 7d 3d
       -0.07494493 -0.025454296 -0.07197152 0.061951593
000270 08 2a 85 3c 9a 36 65 bd 92 c5 20 3d dd 4b d9 3c
       0.016255394 -0.055960275 0.039250918 0.026525432
000280 1b a5 47 3d af 71 b9 bd 3a 54 7e bd 24 06 89 3d
       0.04874144 -0.090548865 -0.062092043 0.06690624
000290 98 6c 11 bd f1 33 af 3d bc ad 93 3d 0c f4 01 3c
       -0.035503954 0.08554829 0.072108716 0.00793172
0002a0 08 1d 58 3d ba b2 6f 3c d8 0f b2 bd e8 53 90 bd
       0.05276206 0.014630014 -0.08694428 -0.07047254
0002b0 c4 b9 b9 3d f0 1f 12 3d dd be 9d bd ae b5 86 bb
       0.09068635 0.03567499 -0.0770242 -0.0041110134
0002c0 45 2a 47 bd 5e 39 38 3d 95 0b 3d 3c c1 12 a0 bd
       -0.048624296 0.044976585 0.011538406 -0.07816077
0002d0 33 0f 87 bd da 96 1d 3d dd 36 29 bc d8 d2 b7 3c
       -0.06594696 0.03847394 -0.010328022 0.022439405
0002e0 ca 13 d3 bc f3 b5 71 3c 2b 51 a5 3d 59 20 c7 3d
       -0.025766272 0.014752853 0.08072122 0.09722967
0002f0 56 63 6a 3d 89 58 8f bd 32 bd 83 3d 33 1a d0 3c
       0.05722364 -0.069993086 0.064325705 0.025403118
000300 6b d2 03 bc be aa 88 3c 16 f8 50 bd a5 11 9a 3d
       -0.008045773 0.016682979 -0.051017843 0.07522897
000310 12 f9 ab 3c 3a 70 3a 3d ad 33 cb 3d 73 7c f4 3c
       0.02099279 0.045517184 0.09921966 0.029844498
000320 a8 f9 89 3d 27 7c 98 bd b0 69 c5 3d 3e 3b 6e 3d
       0.06737071 -0.07445555 0.09639299 0.058161967
000330 7e c3 8f 3d a5 49 67 bd 78 23 d6 bd db c1 f6 3c
       0.07019709 -0.056466717 -0.10455984 0.030121734
000340 0f 9d 15 3d ca 09 21 3d 7b 15 10 bc 5f ae 52 3c
       0.036526736 0.039315976 -0.008794184 0.012858956
000350 c6 8f 15 3d 10 6f 61 3c 46 9e 92 bd 27 40 0e bd
       0.036514066 0.0137593895 -0.071590945 -0.03472915
000360 07 45 c3 bc 59 ac 8f 3d 76 e9 08 3d 34 b5 8b 3d
       -0.023836626 0.070152946 0.03342577 0.06821671
000370 b2 15 22 3c 6a 55 c0 3c 9c 68 8d 3c 37 5e f0 3d
       0.009892868 0.023478229 0.017261796 0.1173672
000380 0b 78 e2 bc be 1a 9b bd 82 59 14 3d 8e b9 3c 3c
       -0.027645132 -0.0757346 0.036218174 0.011518849
000390 bf e9 ec 3b ad 7e 0f bd c1 e1 cc 3b 1c 8d a1 3c
       0.007230013 -0.035032917 0.006252498 0.019720607
0003a0 32 2d 00 bd 57 43 3e 3d d9 d3 e6 3c d4 9d 91 3d
       -0.0312931 0.04645094 0.028177189 0.071101815
0003b0 b3 d9 66 bd 93 54 2b bd 5a 00 50 3d 1b c2 16 bd
       -0.056359958 -0.041828703 0.050781585 -0.036806207
0003c0 82 1d 79 3d f5 e7 40 3a 98 88 9e 3d f8 d4 c5 bd
       0.060819156 0.0007358783 0.07740897 -0.09659761
0003d0 5c ff 1c bd 16 09 ad 3d b9 8d 89 3d d7 0c 0c bd
       -0.038329467 0.08448999 0.067164846 -0.034191933
0003e0 f8 5d 71 bc a8 6f 95 3d b4 93 5b 3d dc 69 f3 bc
       -0.014731877 0.07296687 0.053607658 -0.029713564
0003f0 64 e3 22 3d 57 bb 87 3d 45 61 c9 bd 92 65 9c bd
       0.039767638 0.06627529 -0.09833006 -0.076365605

encoder.layers.0.linear2.bias f4 [64]
000000 a5 db 6c 3b b8 6b 8d bd e3 e0 71 bd 7a 3f 3f 3c
       0.003614166 -0.06905311 -0.05905236 0.011672849
000010 68 8c e5 bb 77 3c 23 3d ec 2a cb 3c 21 55 13 3d
       -0.007005263 0.039852586 0.02480074 0.035969857
000020 30 b3 6c 3c d7 e3 21 bd d6 94 d7 3d 19 e6 eb 3c
       0.0144470185 -0.039523926 0.10526435 0.028796243
000030 62 01 7d 3d a9 1a 3a 3d 9f 9a 2c 3d 48 0a c8 bd
       0.061768897 0.04543558 0.042139646 -0.09767586
000040 bf ba e2 bc 09 90 66 3d 3f 50 b9 bc 61 e6 41 3d
       -0.027676938 0.056289706 -0.022621272 0.047338847
000050 42 e3 14 3d 7a b5 95 3d 8f 8f 4f bc f6 16 a4 3c
       0.036349542 0.073100045 -0.012668504 0.02003048
000060 46 49 9d 3d 75 b7 3b bd 49 97 61 3d b3 6e 34 bd
       0.076799914 -0.045829255 0.055075917 -0.044050884
000070 ab 4d 7c 3d 4a 29 4b 3d 9b dd 5c bc c7 f2 1c bd
       0.061597507 0.049599923 -0.013480569 -0.038317468
000080 fe 96 16 3d d8 3d 16 bd 3b 80 fc bc c4 b9 76 bd
       0.03676509 -0.036680073 -0.030822864 -0.060235754
000090 9b c8 46 3d 4d d5 a7 3d f6 01 db bc 16 04 6b bc
       0.048531156 0.08194981 -0.026734333 -0.014344236
0000a0 ec 5f e6 bc a7 84 0c bd 88 60 26 bd 24 c7 93 bd
       -0.028121911 -0.034306195 -0.040619403 -0.072157174
0000b0 82 30 89 bd 20 e7 8e bd e8 b4 ab 3d b3 60 11 3c
       -0.06698705 -0.06977677 0.083841145 0.008873153
0000c0 9b 36 85 bd be 16 89 bd f6 5a c0 bc bd b3 a4 3d
       -0.06504556 -0.06693791 -0.023480874 0.08042095
0000d0 73 24 9d bd 0d f2 70 3b 0a c3 72 3d 97 31 31 bd
       -0.07672968 0.0036765367 0.059268035 -0.043260183
0000e0 58 da 49 3d 1e a9 aa bc a7 f1 11 3d 16 0e c2 3c
       0.049280494 -0.020832594 0.03563085 0.023688357
0000f0 fe 2e 80 3b db 22 c0 3d 24 a0 4f 3d 1f 3b a6 3d
       0.003911852 0.09381648 0.05068983 0.08116745

encoder.layers.0.norm1.weight f4 [64]
000000 74 10 7f 3f cb 3f 80 3f 5a 4a 7a 3f a8 d5 79 3f
       0.9963448 1.0019468 0.977697 0.9759164
000010 f3 94 7f 3f 7d 7d 83 3f bb 17 80 3f ce c9 7e 3f
       0.99836653 1.0272671 1.0007242 0.9952668
000020 c9 a9 7f 3f 9c 9e 7b 3f 6b ef 78 3f 16 86 80 3f
       0.99868447 0.98288894 0.9724032 1.004092
000030 48 8f 88 3f 57 49 7e 3f 73 b2 80 3f 7f 9b 71 3f
       1.0668726 0.9933066 1.0054458 0.94377893
000040 5a e2 83 3f 31 53 7c 3f 85 5b 86 3f a5 f8 79 3f
       1.0303452 0.9856444 1.049668 0.97645026
000050 85 d6 80 3f da 41 83 3f eb 8b 79 3f a7 76 7e 3f
       1.0065466 1.0254471 0.9747912 0.993998
000060 7f 77 82 3f 12 ad 7f 3f 8e 92 84 3f eb 86 82 3f
       1.0192717 0.9987346 1.0357225 1.0197424
000070 35 6d 80 3f 25 f7 7c 3f e9 39 7e 3f 1e 34 80 3f
       1.0033327 0.9881461 0.99307114 1.0015905
000080 0a 05 81 3f fa 09 7f 3f cc 0d 85 3f 2e ea 79 3f
       1.0079663 0.996246 1.0394835 0.97622955
000090 60 cb 81 3f 12 6b 81 3f 8f 63 7d 3f 27 94 7f 3f
       1.014019 1.01108 0.9898004 0.9983544
0000a0 27 41 7f 3f ad 54 80 3f 93 2f 7d 3f 86 e1 7f 3f
       0.9970879 1.0025841 0.9890072 0.99953496
0000b0 02 83 80 3f 60 37 7f 3f b1 77 81 3f 30 33 83 3f
       1.003998 0.9969387 1.0114652 1.0249996
0000c0 79 1c 7f 3f cd 2b 84 3f b9 af 80 3f 65 e8 7d 3f
       0.9965282 1.0325867 1.0053626 0.9918273
0000d0 d4 14 80 3f 63 b3 7f 3f 47 58 81 3f 5a f3 80 3f
       1.0006356 0.998831 1.0105065 1.0074265
0000e0 c2 ea 7c 3f 68 41 7f 3f 49 d1 81 3f 6f 6e 80 3f
       0.9879571 0.99709177 1.0141994 1.0033702
0000f0 93 ea 7f 3f 95 8c 7d 3f 23 d2 7c 3f ee b3 81 3f
       0.99967307 0.99042636 0.98758143 1.0133035

encoder.layers.0.norm1.bias f4 [64]
000000 3c 49 19 3c 52 a2 ec ba dd 12 83 3c a0 f5 b3 bc
       0.009355839 -0.0018053746 0.016000206 -0.021967709
000010 14 52 10 bc 52 4b 6f 3b 90 36 02 bc fe 38 aa ba
       -0.008808631 0.00365134 -0.007947579 -0.0012986956
000020 15 7e 33 3c 91 81 4a 3c 3e ba f6 3c 58 f2 6d 3c
       0.010955353 0.012359993 0.030118104 0.014523111
000030 04 a9 3a 3a 9a 58 31 3c 72 f3 4d bb b2 78 0f bd
       0.0007120522 0.010824347 -0.0031425622 -0.035027213
000040 7d 64 99 b9 39 e7 a0 bc da 42 e2 38 9e 9d 9e bc
       -0.00029257304 -0.019641506 0.00010788972 -0.019362267
000050 e5 cd 1e bb 73 1f d4 b9 16 b4 c4 3c 46 9a cd 3b
       -0.002423161 -0.00040459223 0.024011653 0.0062744943
000060 d8 3d b3 bb db 67 11 bc 5a 48 01 bb f1 84 dc 3a
       -0.005470019 -0.008874859 -0.0019726963 0.0016824288
000070 2d 4c 53 bb f7 9c 2c 3c d9 ac 45 bc 7a ce df 3b
       -0.003224145 0.01053547 -0.012065136 0.006830034
000080 b7 ba 99 bb ef ff 11 bc f4 5d 35 bb d5 24 05 3d
       -0.0046914476 -0.008911117 -0.0027674409 0.03250583
000090 bb d1 f7 ba aa 0b 3d ba 70 18 2e bc f8 8b 0f bb
       -0.0018907109 -0.0007211516 -0.010625944 -0.0021903496
0000a0 51 de 92 3b 39 35 67 ba c9 32 42 3c 94 c2 d6 3b
       0.0044820686 -0.00088198815 0.011852928 0.0065539572
0000b0 26 10 7c 3b 19 c0 ca bb 09 9b 15 3b 0a 50 2f 3b
       0.0038461774 -0.0061874506 0.0022828004 0.0026750588
0000c0 4f 26 e7 bb 15 d9 90 bb 08 df 8e bb 20 fa d6 b9
       -0.0070541273 -0.0044204094 -0.0043600835 -0.00041003618
0000d0 7f cc 7f 3b d2 b9 91 3b e7 a3 38 3b fc 18 01 bb
       0.0039031801 0.0044472003 0.0028173865 -0.001969873
0000e0 ba 49 62 bc f1 96 f6 bb 2a fa f4 3a 1f 5f 95 bb
       -0.013811523 -0.007525318 0.0018690277 -0.0045584585
0000f0 1b d1 21 3c 0d 73 65 3c e6 c7 75 3c 23 20 34 3b
       0.009876515 0.014004481 0.015001273 0.0027484975

encoder.layers.0.norm2.weight f4 [64]
000000 21 86 7f 3f 0e f4 80 3f e9 6a 7d 3f 2a a9 79 3f
       0.9981404 1.007448 0.98991257 0.9752375
000010 25 60 80 3f 72 fc 81 3f e6 ad 7d 3f 07 6d 80 3f
       1.0029341 1.0155165 0.9909347 1.0033273
000020 c7 b9 7a 3f 1c 98 7b 3f d0 7e 7a 3f 5a 92 7f 3f
       0.97939724 0.98278975 0.9784975 0.9983269
000030 83 de 85 3f 28 c8 7b 3f 56 d4 80 3f bb 67 79 3f
       1.045853 0.9835229 1.00648 0.97423905
000040 b1 e0 84 3f 4c c3 7d 3f a9 2c 84 3f d7 68 7a 3f
       1.038107 0.99126124 1.0326129 0.9781622
000050 51 98 80 3f 63 9e 82 3f 57 d2 75 3f 92 cd 7e 3f
       1.0046483 1.0204586 0.9602408 0.99532425
000060 7b f2 81 3f d0 e7 7a 3f 7d 76 81 3f 9c 65 81 3f
       1.0152124 0.9800997 1.0114285 1.0109134
000070 d2 bf 80 3f 9d e0 7a 3f 3d d7 7e 3f f2 0a 80 3f
       1.0058539 0.9799898 0.9954718 1.000334
000080 f5 af 81 3f 60 92 7e 3f de f3 83 3f fc 17 7b 3f
       1.0131823 0.994421 1.0308797 0.9808347
000090 81 c9 81 3f fb cf 7f 3f c8 b3 7d 3f f5 32 7c 3f
       1.0139619 0.9992673 0.9910245 0.98515254
0000a0 c3 e2 7d 3f ef 54 80 3f 17 ec 7d 3f 3c c2 7d 3f
       0.99174136 1.002592 0.9918837 0.99124503
0000b0 11 cc 7f 3f 60 a4 7f 3f ed 50 81 3f 88 b6 83 3f
       0.99920756 0.9986019 1.0102822 1.0290079
0000c0 f0 07 7a 3f 68 c5 82 3f fd 84 80 3f d8 aa 7a 3f
       0.9766836 1.0216494 1.0040585 0.97916937
0000d0 19 ac 7c 3f 65 e0 7b 3f 2b 37 81 3f 3f d2 80 3f
       0.987001 0.98389274 1.0094961 1.0064162
0000e0 b8 d7 7a 3f d0 99 7f 3f 67 b2 81 3f c7 1c 80 3f
       0.9798541 0.99844074 1.0132569 1.0008782
0000f0 b1 33 80 3f 1c 19 7d 3f 1b 0a 7d 3f 9b d7 80 3f
       1.0015775 0.9886644 0.98843545 1.0065798
