assets/snapshots/P2_minmax_global_mlp.pth (torch, 52437 bytes, 6 tensors)

net.0.weight f4 [128, 30]
-0.0469033 -0.17683405 0.07673236 -0.028709961 -0.113381945 0.061835986 -0.14066716 -0.16350582
-0.05735095 -0.046767466 -0.057552047 0.049638946 -0.13597445 -0.13385034 0.12421269 0.12770015
0.090594195 -0.16181818 0.043945573 -0.07995821 0.11197468 -0.1364974 0.03254806 -0.03059809
-0.04487649 0.03748171 -0.14405483 0.16375063 -0.040794205 0.14723231 0.024167757 -0.10752834
0.089033246 0.037208002 0.119863994 0.0070176274 0.107570186 0.0147203365 -0.15657146 0.09346533
-0.17708528 0.13051604 0.033688024 -0.096142456 -0.15814027 -0.16695037 -0.15768448 -0.15039958
-0.1424607 -0.036668416 0.02847152 -0.11627374 -0.06623039 -0.007288117 -0.030672459 -0.14405084
-0.13695258 -0.15609026 -0.14892305 -0.1413966 0.047964342 -0.102174826 0.13188468 0.019242203
0.12257631 -0.1465198 0.01893184 -0.1700835 -0.02664306 0.07121807 0.108457245 -0.1361827
-0.12394615 -0.07789911 0.086743414 -0.07581272 0.015049656 0.04487086 -0.15074407 -0.1250065
0.045740463 -0.05403395 -0.06476415 -0.044986583 -0.1727106 0.093939275 -0.021193568 -0.014944425
0.045132276 0.025368223 -0.042632125 0.05375465 -0.13714197 0.009699113 0.23773025 0.13149765
0.038637653 -0.06396156 -0.10616748 -0.19451645 -0.15596934 0.003760294 -0.2632474 0.11035179
-0.23412806 0.10031114 -0.20092599 -0.18428725 0.013203203 0.084485404 0.17927788 0.13771333
0.101778 0.030547105 -0.06555766 0.067471415 -0.09374672 0.15770945 0.067159176 -0.018378267
-0.19052441 -0.122310445 -0.04588601 -0.13737603 0.13835518 -0.10538072 0.2147103 0.11819996
0.013989777 0.15632279 0.02943071 0.1314191 0.0055824746 -0.14810316 -0.03509319 0.011111831
-0.0077508423 -0.06983383 -0.020953953 0.04355953 -0.1599773 -0.0052517946 0.13563311 0.08836298
0.08067985 0.025603801 0.022059895 0.21945252 0.2029761 0.05397484 0.17584948 0.22617549
0.12844302 0.14691779 -0.13058004 0.08469305 0.21994914 -1.9258132e-05 -0.16186231 0.09668658
0.024694856 -0.085223354 0.18089063 0.02188024 0.07140048 -0.046614595 -0.009276705 0.15479535
0.12621985 -0.11836655 -0.048274204 -0.06340209 0.015324087 -0.2087664 -0.12869531 -0.09102459
-0.104428776 -0.006719036 -0.100157164 -0.3161664 -0.13868159 -0.02808562 -0.06787351 0.046420023
-0.2627657 0.10428055 0.22254215 -0.05057173 -0.1438235 0.10449162 0.10937821 0.12359119
-0.017424079 -0.006316776 0.20864765 -0.19824055 0.18032333 0.102887705 0.08999342 -0.13094063
-0.18805236 0.11443343 0.15025231 0.043556117 -0.08962688 0.08734838 0.08492538 -0.0068360795
0.09165959 -0.070374005 0.06413016 -0.17521897 0.02562856 -0.06812434 -0.087825015 0.036066912
-0.015511158 0.08465389 0.1450903 -0.09108156 -0.107321344 0.20687366 -0.08105679 -0.11791247
-0.018105788 0.006966274 -0.08862497 -0.11943179 0.20419966 -0.119020805 0.20495303 -0.11874705
0.1041764 0.09027417 -0.07810916 -0.04840619 -0.034131356 -0.054365408 0.0987905 0.21357735
0.07332078 0.2295645 0.07991611 -0.08903367 -0.29185787 -0.17090632 0.074973054 0.034478296
-0.021912938 0.12869984 0.25003496 -0.08442996 -0.05482589 -0.07653492 0.09852817 0.101804286
00000000: ad1d 40bd fc13 35be db25 9d3d 2731 ebbc
00000010: cb34 e8bd bb47 7d3d 0d0b 10be 126e 27be
00000020: d4e8 6abd 3e8f 3fbd b2bb 6bbd 3552 4b3d
00000030: e33c 0bbe 1010 09be 3963 fe3d d4c3 023e
00000040: 7389 b93d aab3 25be 4600 343d 21c1 a3bd
00000050: fb52 e53d f9c5 0bbe 1d51 053d d8a8 fabc
00000060: 69d0 37bd 6c86 193d 1c83 13be 3fae 273e
00000070: d317 27bd 11c4 163e 76fb c53c d137 dcbd
00000080: 1057 b63d 6b67 183d 417b f53d 20f4 e53b
00000090: c24d dc3d 912d 713c 4554 20be c06a bf3d
000000a0: d855 35be ffa5 053e 74fc 093d 56e6 c4bd
000000b0: 86ef 21be 0af5 2abe 0a78 21be 5902 1abe
000000c0: 38e1 11be 9f31 16bd 1b3d e93c ed20 eebd
000000d0: cca3 87bd 28d1 eebb cf44 fbbc 1082 13be
000000e0: 4c3d 0cbe 20d6 1fbe 497f 18be 45ca 10be
000000f0: 4276 443d 0941 d1bd c70c 073e d3a1 9d3c
00000100: 4a09 fb3d 4909 16be f216 9b3c 5e2a 2ebe
00000110: 8c42 dabc c8da 913d d51e de3d 7a73 0bbe
00000120: 7bd7 fdbd 9289 9fbd 88a6 b13d b343 9bbd
00000130: d592 763c 82ca 373d a75c 1abe b401 00be
00000140: 5a5a 3b3d b452 5dbd 11a3 84bd da43 38bd
00000150: 0cdb 30be 3c63 c03d 229e adbc 76d9 74bc
00000160: 9fdc 383d 05d1 cf3c 069f 2ebd d62d 5c3d
00000170: f26e 0cbe 07e9 1e3c 8f6f 733e 52a7 063e
00000180: 8442 1e3d 47fe 82bd 566e d9bd 522f 47be
00000190: 6db6 1fbe 446f 763b 5dc8 86be 1f00 e23d
000001a0: 44bf 6fbe ed6f cd3d 8bbf 4dbe ccb5 3cbe
000001b0: 3f52 583c af06 ad3d 9f94 373e b904 0d3e
000001c0: fc70 d03d ec3d fa3c 1843 86bd 742e 8a3d
000001d0: 48fe bfbd 967e 213e c08a 893d 058e 96bc
000001e0: d518 43be e67d fabd f8f2 3bbd 4dac 0cbe
000001f0: fbac 0d3e d9d1 d7bd 04dd 5b3e d212 f23d
00000200: 6135 653c 1513 203e ac18 f13c bb92 063e
00000210: 31ed b63b 5ba8 17be e0bd 0fbd 660e 363c
00000220: c7fa fdbb 0a05 8fbd a0a7 abbc 7a6b 323d
00000230: 17d1 23be 3f17 acbb 68e3 0a3e a6f7 b43d
00000240: 7a3b a53d 10bf d13c f4b6 b43c 29b8 603e
00000250: f7d8 4f3e b914 5d3d e311 343e 8c9a 673e
00000260: 9186 033e 9e71 163e c6b6 05be 8d73 ad3d
00000270: 593a 613e 868c a1b7 3cbf 25be 9d03 c63d
00000280: de4c ca3c 9589 aebd 653b 393e 303e b33c
00000290: 6a3a 923d f2ee 3ebd 52fd 17bc ac82 1e3e
000002a0: c73f 013e 296a f2bd 2cbb 45bd f4d8 81bd
000002b0: e111 7b3c dcc6 55be b4c8 03be 1a6b babd
000002c0: c1de d5bd 5c2b dcbb 331f cdbd 90e0 a1be
000002d0: 8c02 0ebe d013 e6bc 4401 8bbd ec22 3e3d
000002e0: 3a89 86be 0a91 d53d 17e2 633e 4d24 4fbd
000002f0: 7846 13be b4ff d53d af01 e03d 611d fd3d
00000300: f1bc 8ebc f5fc cebb bba7 553e 92ff 4abe
00000310: aea6 383e cab6 d23d 784e b83d 4d15 06be
00000320: cc90 40be 135c ea3d bedb 193e e667 323d
00000330: 4c8e b7bd b5e3 b23d 5ced ad3d 3101 e0bb
00000340: 06b8 bb3d 3f20 90bd ac56 833d 9a6c 33be
00000350: fcf2 d13c c684 8bbd 9add b3bd e6ba 133d
00000360: 8322 7ebc 055f ad3d 8d92 143e f888 babd
00000370: 4bcb dbbd b0d6 533e 1a01 a6bd 187c f1bd
00000380: 9752 94bc 5845 e43b 0281 b5bd a898 f4bd
00000390: b719 513e 2ec1 f3bd 35df 513e a731 f3bd
000003a0: 705a d53d aae1 b83d b2f7 9fbd 9245 46bd
000003b0: 52cd 0bbd 43ae 5ebd ac52 ca3d 05b4 5a3e
000003c0: 3529 963d f512 6b3e 0fab a33d 4957 b6bd
000003d0: 656e 95be 1102 2fbe 798b 993d 1d39 0d3d
000003e0: c382 b3bc e4c9 033e 9504 803e 9de9 acbd
000003f0: 1d91 60bd 57be 9cbd 23c9 c93d c47e d03d

net.0.bias f4 [128]
-0.1069909 0.1466818 -0.055483513 0.13376947 -0.110793896 -0.07351255 0.05146923 0.15010992
0.0896943 0.09073414 -0.16175455 0.13655172 -0.02749719 0.13193005 0.03860017 0.11845443
-0.06534626 0.027876887 -0.008923374 0.14718798 -0.028564895 0.0271753 -0.2067334 -0.06680889
-0.08215013 0.032570135 0.15953343 0.10669861 0.030903786 -0.0419461 0.06640667 0.045999758
-0.12604196 0.11586099 0.102724716 0.1564818 -0.0070818514 -0.1404696 0.18457405 0.12482313
0.066353336 0.11612178 -0.12092022 0.02880108 -0.13750646 0.076982334 0.12261363 -0.08252173
-0.007819063 0.056929264 -0.10588951 0.019946301 0.100678734 0.036056902 0.118136026 0.18951255
0.010290688 0.14321177 0.19213884 -0.16109224 0.12808594 -0.08418594 -0.06812011 -0.0705121
0.15391384 -0.1669935 -0.15221544 -0.15503605 -0.14025073 -0.17580287 -0.16570733 0.03271079
0.07954357 0.16599098 0.105473004 0.020960186 -0.12919725 0.06579751 -0.022709576 -0.17123005
-0.18182878 0.012448249 -0.038286664 -0.027337464 0.007964335 -0.019512158 0.1924969 0.13364847
-0.07743201 -0.09797066 -0.0005966639 -0.10917946 -0.02181919 0.051917695 0.16063143 0.024843888
-0.03774869 0.13563457 -0.17651677 -0.012231727 -0.10652108 -0.09816279 0.04562721 -0.05510804
-0.13238566 -0.14036459 0.10129708 0.121058315 -0.066604786 0.1518678 0.08808958 0.076213844
-0.09748241 -0.05634196 0.15354183 -0.039396 0.101555794 -0.16975503 0.14713193 -0.0063256603
-0.059669565 0.13177693 -0.14981379 0.16441412 -0.098356806 0.0393604 0.11429117 0.11399547
00000000: 0c1e dbbd c133 163e ae42 63bd ddfa 083e
00000010: e9e7 e2bd bf8d 96bd 66d1 523d 6ab6 193e
00000020: a5b1 b73d d2d2 b93d fca2 25be 37d4 0b3e
00000030: c941 e1bc ac18 073e 361b 1e3d 3c98 f23d
00000040: 43d4 85bd 125e e43c 5833 12bc 72b8 163e
00000050: ed00 eabc bc9e de3c ecb1 53be 19d3 88bd
00000060: 543e a8bd 4368 053d bb5c 233e cd84 da3d
00000070: f029 fd3c accf 2bbd 3800 883d 3e6a 3c3d
00000080: 2511 01be 8748 ed3d 5661 d23d c43c 203e
00000090: e00e e8bb 43d7 0fbe fb00 3d3e 45a3 ff3d
000000a0: 42e4 873d 41d1 ed3d 05a5 f7bd 3ef0 eb3c
000000b0: 7ece 0cbe eaa8 9d3d db1c fb3d 2701 a9bd
000000c0: 871b 00bc a92e 693d 99dc d8bd 6d66 a33c
000000d0: a730 ce3d 67b0 133d 4df1 f13d 940f 423e
000000e0: 469a 283c 1ba6 123e 0bc0 443e 5df5 24be
000000f0: f628 033e ae69 acbd 8e82 8bbd a668 90bd
00000100: 979b 1d3e 5800 2bbe 5dde 1bbe c5c1 1ebe
00000110: e39d 0fbe ab05 34be 2faf 29be c0fb 053d
00000120: bde7 a23d 8af9 293e 3b02 d83d b2b4 ab3c
00000130: 494c 04be d8c0 863d 6f09 babc ee56 2fbe
00000140: 5331 3abe bef3 4b3c 7ad2 1cbd d1f2 dfbc
00000150: d87c 023c f6d7 9fbc e81d 453e 25db 083e
00000160: ac94 9ebd d7a4 c8bd 7069 1cba 7b99 dfbd
00000170: 28be b2bc a6a7 543d 917c 243e 6985 cb3c
00000180: 5f9e 1abd cae3 0a3e d0c0 34be 9567 48bc
00000190: b927 dabd 9309 c9bd 99e3 3a3d f8b8 61bd
000001a0: 1b90 07be bcbb 0fbe d874 cf3d 6ced f73d
000001b0: 1768 88bd 3c83 1b3e 4f68 b43d 0116 9c3d
000001c0: dca4 c7bd d4c6 66bd 123a 1d3e b35d 21bd
000001d0: 7cfc cf3d 43d4 2dbe c1a9 163e 7c47 cfbb
000001e0: 1368 74bd 88f0 063e c968 19be 2d5c 283e
000001f0: 4b6f c9bd 5f38 213d 7d11 ea3d 7576 e93d

net.3.weight f4 [64, 128]
0.043937698 0.08641038 0.06212846 -0.18335505 0.08904723 0.044408567 0.137678 -0.038442764
0.07861837 -0.026910674 -0.025968907 -0.10502015 -0.10676448 0.108723685 -0.081933275 0.065396726
-0.032598015 -0.25181034 -0.01072201 0.07598327 -0.025368666 0.06426426 0.13126805 -0.2136879
-0.05202894 -0.112914644 -0.11123658 -0.013412512 0.18134938 -0.036808424 0.010644304 0.105071396
-0.0093629155 0.0035807441 -0.058326982 -0.20893401 0.020670108 0.075347655 -0.0031292492 -0.11151207
0.07607981 -0.0566247 0.0818512 0.01513389 0.0043529687 0.16012233 0.12120668 -0.08499383
0.022519672 0.013077461 -0.08276695 0.008333655 0.023308363 -0.09761453 -0.007353424 -0.104994714
0.055681657 -0.08576051 0.073550254 0.016771864 -0.081975386 -0.09068236 -0.041909073 -0.017144833
0.1432248 0.05069996 -0.11647786 0.20709187 -0.068515316 -0.017323123 -0.014019359 -0.07499623
-0.14446828 -0.054020084 0.009812325 -0.14096852 -0.17122445 -0.20508379 -0.04373315 -0.06493318
0.18841538 0.04911058 0.003001709 0.16732931 0.2353703 -0.12011122 -0.040241703 0.03281179
0.10814413 -0.1329799 -0.12900503 -0.0040943976 0.0858845 -0.04790126 -0.071492605 0.046824865
0.040767923 -0.0171867 0.16529843 -0.047422048 -0.031467244 0.07649051 -0.09768567 -0.21132119
0.089885004 0.0074454197 -0.072621696 0.06029249 -0.04143295 -0.07418409 -0.058283757 -0.1588225
0.103419185 0.051516622 0.058679894 0.058335796 -0.18206662 0.030876517 -0.11891077 -0.057158478
-0.07331707 0.047473583 -0.06820059 0.15758893 0.051408563 0.1227693 -0.08210083 -0.07671949
-0.071413465 -0.04129806 0.07076329 0.023399144 -0.09993593 -0.1010446 -0.006988943 0.009304792
-0.13220096 -0.013438163 -0.03832139 0.070953175 0.03291651 -0.048971098 0.05028083 0.08399639
-0.023717728 0.08445294 -0.049291875 -0.09789975 0.09993718 0.12582791 -0.13453706 0.17429423
0.079209805 0.14190356 0.13854885 -0.042614397 -0.18781492 0.13858707 -0.05007706 0.09320832
0.018958567 0.014404313 -0.03430262 0.10677802 -0.14251171 -0.08636208 -0.00032103184 0.044598386
-0.000733753 0.15175368 0.09897546 -0.048356995 0.018467505 -0.052319318 -0.14613013 -0.062681876
0.002481817 -0.087638594 -0.03182393 0.05822244 -0.04060667 0.02966985 0.061727412 0.12735197
-0.13264059 -0.01971107 0.096539825 0.061119165 0.051966123 0.07224961 0.18642117 0.12974131
0.008072348 0.02669202 0.066880815 -0.07296923 -0.07309022 -0.0017419609 -0.016086262 0.05278792
0.07452562 0.049946558 0.09603634 0.08107156 0.048748992 0.10575964 0.060928263 0.018784313
-0.036085594 0.040185504 0.073215745 -0.03063358 -0.11000899 0.06550871 0.1551065 0.05432218
-0.06749756 0.1309287 0.14301616 0.053021293 0.073037915 0.0063151573 0.078441404 0.0420385
0.0543669 0.08022617 -0.09724799 0.10474446 -0.046834566 -0.036475427 0.11490934 0.13491814
-0.10979943 0.005002167 0.16892833 -0.1484741 -0.023810208 -0.080050394 0.069361664 0.077136114
-0.02020357 0.033713408 0.017779477 -0.09915986 0.118363 -0.08399855 0.037142843 0.06999479
0.05728881 -0.014161506 -0.013503482 -0.20277975 -0.052298352 -0.028956791 0.026533332 -0.04516591
00000000: 04f8 333d edf7 b03d 697a 7e3d 6dc1 3bbe
00000010: 655e b63d c2e5 353d 76fb 0c3e 2976 1dbd
00000020: ab02 a13d c673 dcbc bfbc d4bc ce14 d7bd
00000030: 56a7 dabd 86aa de3d a2cc a7bd b8ee 853d
00000040: 7f85 05bd 49ed 80be 5fab 2fbc 1e9d 9b3d
00000050: f3d1 cfbc fb9c 833d 226b 063e 00d1 5abe
00000060: 4c1c 55bd cb3f e7bd 01d0 e3bd 27c0 5bbc
00000070: a7b3 393e 6ec4 16bd 7265 2e3c ac2f d73d
00000080: ea66 19bc ebaa 6a3b 46e8 6ebd ccf2 55be
00000090: 5c54 a93c df4f 9a3d 1714 4dbb 7160 e4bd
000000a0: bbcf 9b3d 4def 67bd 9aa1 a73d 23f4 773c
000000b0: 59a3 8e3b 1cf7 233e 353b f83d 3f11 aebd
000000c0: 2d7b b83c d942 563c b881 a9bd e289 083c
000000d0: 2ef1 be3c 20ea c7bd fef4 f0bb 7807 d7bd
000000e0: 7312 643d 35a3 afbd 84a1 963d 2665 893c
000000f0: b6e2 a7bd acb7 b9bd d9a8 2bbd 5273 8cbc
00000100: 86a9 123e c3aa 4f3d f28b eebd e40f 543e
00000110: c251 8cbd 39e9 8dbc 74b1 65bc a097 99bd
00000120: 7eef 13be 2a44 5dbd e0c3 203c 0d5a 10be
00000130: 7655 2fbe 7c01 52be 8821 33bd b0fb 84bd
00000140: f6ef 403e 2d28 493d 52b8 443b 6058 2b3e
00000150: e904 713e dffc f5bd 7cd4 24bd a865 063d
00000160: ab7a dd3d e22b 08be e519 04be 4c2a 86bb
00000170: 36e4 af3d 1d34 44bd b76a 92bd 6ecb 3f3d
00000180: 44fc 263d 1fcb 8cbc fe43 293e 9f3d 42bd
00000190: cce3 00bd 0ea7 9c3d 6d0f c8bd 9564 58be
000001a0: a115 b83d b5f8 f33b afba 94bd 42f5 763d
000001b0: 99b5 29bd d4ed 97bd f3ba 6ebd 5ea2 22be
000001c0: 70cd d33d 1803 533d 545a 703d 84f1 6e3d
000001d0: ac6f 3abe c0f0 fc3c 7d87 f3bd 021f 6abd
000001e0: 4327 96bd a973 423d c0ac 8bbd fe5e 213e
000001f0: c991 523d 796e fb3d 7b24 a8bd 1c1f 9dbd
00000200: 3941 92bd 2828 29bd 58ec 903d 90af bf3c
00000210: 35ab ccbd 79f0 cebd 8103 e5bb 2073 183c
00000220: b05f 07be be2b 5cbc e4f6 1cbd e64f 913d
00000230: 76d3 063d eb95 48bd 46f3 4d3d 4d06 ac3d
00000240: ae4b c2bc aaf5 ac3d 47e6 49bd aa7f c8bd
00000250: ddab cc3d 08d9 003e 15c4 09be 307a 323e
00000260: c038 a23d 2b4f 113e c0df 0d3e 6f8c 2ebd
00000270: 8e52 40be c5e9 0d3e 9a1d 4dbd 01e4 be3d
00000280: ff4e 9b3c 1100 6c3c e780 0cbd 6fae da3d
00000290: 97ee 11be 9ade b0bd 2a50 a8b9 ccac 363d
000002a0: 5559 40ba 5165 1b3e a5b3 ca3d fc11 46bd
000002b0: 2a49 973c c84c 56bd 23a3 15be 5b5f 80bd
000002c0: fba5 223b dd7b b3bd cf59 02bd a77a 6e3d
000002d0: 2e53 26bd 2f0e f33c e2d5 7c3d 8e68 023e
000002e0: efd2 07be 1c79 a1bc acb6 c53d 1758 7a3d
000002f0: 6eda 543d 9bf7 933d 31e5 3e3e e8da 043e
00000300: e241 043c 39a9 da3c cff8 883d e470 95bd
00000310: 53b0 95bd 8252 e4ba 56c7 83bc 2538 583d
00000320: e3a0 983d c394 4c3d b3ae c43d d908 a63d
00000330: 06ad 473d 8398 d83d ea8f 793d 8fe1 993c
00000340: 7dce 13bd 8e99 243d 23f2 953d 46f3 fabc
00000350: 654c e1bd 6e29 863d 3dd4 1e3e ef80 5e3d
00000360: 293c 8abd 2c12 063e d472 123e db2c 593d
00000370: e794 953d 61ef ce3b e3a5 a03d 9030 2c3d
00000380: d4af 5e3d 9e4d a43d f429 c7bd 4384 d63d
00000390: 9ad5 3fbd 4267 15bd 9755 eb3d fb27 0a3e
000003a0: 86de e0bd 38e9 a33b 8cfb 2c3e 9809 18be
000003b0: a00d c3bc 76f1 a3bd 7d0d 8e3d 8af9 9d3d
000003c0: f581 a5bc 1217 0a3d 44a6 913c 5314 cbbd
000003d0: 4d68 f23d 6f07 acbd 1823 183d 6e59 8f3d
000003e0: aca7 6a3d a905 68bc b53d 5dbc 7fa5 4fbe
000003f0: cc36 56bd cb36 edbc 6e5c d93c e4ff 38bd

net.3.bias f4 [64]
-0.02636747 -0.0026190637 0.05282331 0.0018841642 0.026258579 0.09641183 -0.08669583 0.06438226
0.06692944 0.025348086 0.06304366 0.052218232 0.109022476 0.09101148 -0.07894638 -0.0075807655
-0.08014525 0.02708944 0.089439504 -0.018105775 0.060464222 0.031332597 0.06291969 -0.02297212
0.018287163 0.0041279714 0.07937969 0.106702276 -0.031189824 -0.0013636821 0.0031759955 -0.031475183
0.11173222 0.018857548 0.10847418 0.0611652 -0.045618135 -0.008453862 0.012668357 0.07806548
0.08179541 -0.03626875 0.09870718 0.021089386 -0.064929456 0.05492215 0.049449258 -0.0045571695
-0.0272158 0.008793337 0.12637153 -0.0606906 -0.032905858 -0.041170996 0.05830047 -0.017074795
-0.00045330622 0.015338531 0.05217351 0.061850093 0.05632306 0.042161193 0.085076384 0.035487104
00000000: 9800 d8bc 99a4 2bbb 415d 583d 0ff6 f63a
00000010: 3b1c d73c 9173 c53d 958d b1bd d9da 833d
00000020: 4d12 893d caa6 cf3c 091d 813d c9e2 553d
00000030: 2d47 df3d 3a64 ba3d a4ae a1bd 1268 f8bb
00000040: 3123 a4bd acea dd3c 0f2c b73d 9052 94bc
00000050: 55a9 773d 9c56 003d 0adc 803d 0730 bcbc
00000060: f6ce 953c ef43 873b d291 a23d b986 da3d
00000070: cd81 ffbc 94bd b2ba 5d24 503b 1fec 00bd
00000080: ddd3 e43d 257b 9a3c b627 de3d 5c88 7a3d
00000090: 15da 3abd 1182 0abc f18e 4f3c cbe0 9f3d
000000a0: 5a84 a73d 8a8e 14bd fd26 ca3d a6c3 ac3c
000000b0: bcf9 84bd 0cf6 603d 4e8b 4a3d 4f54 95bb
000000c0: abf3 debc ee11 103c 8a67 013e b596 78bd
000000d0: 4bc8 06bd eba2 28bd 79cc 6e3d 71e0 8bbc
000000e0: bba9 edb9 764e 7b3c e4b3 553d 8656 7d3d
000000f0: 02b3 663d 37b1 2c3d 873c ae3d ed5a 113d

net.6.weight f4 [2, 64]
0.054055557 -0.051287547 -0.19315492 0.085648805 0.22546892 -0.057498675 -0.017382225 -0.086783625
0.23998827 -0.19653955 -0.20073007 -0.11853646 0.13219856 -0.09344428 0.04179471 0.18335553
-0.102308 -0.15219997 -0.15792231 -0.005614285 0.14527042 -0.20857412 0.1290071 -0.060101286
0.074784614 -0.10773849 0.11755401 0.119889446 -0.20088087 0.26079985 0.16957279 -0.1210782
0.20728393 -0.15366897 0.15283838 -0.063545 0.08706835 0.18055084 -0.22595641 0.117527485
0.18679555 0.20112467 0.16692242 -0.21664928 -0.09275401 0.14483196 0.03603658 -0.020713584
0.22161724 -0.060446296 0.1969184 -0.05762511 0.19149199 -0.17553788 0.099341065 0.05675785
-0.08986123 -0.14162797 -0.19087374 0.19899243 0.13377415 -0.21124512 0.03326106 -0.09026348
-0.27187347 0.18275474 0.11976751 0.021044187 -0.061961606 0.15976506 -0.022382954 0.16661501
-0.09365859 0.05139872 0.19793192 0.15479092 -0.056742527 0.20284198 0.040785275 -0.1459226
0.07445866 0.15412578 0.20281759 -0.19290209 -0.078885846 0.15743975 -0.0929684 0.1668001
-0.2033869 0.18108013 -0.093495026 -0.07365792 0.19290733 -0.25436366 -0.124558076 0.17447849
-0.08543822 0.09348998 -0.14150631 0.1688018 0.050452992 -0.1352883 0.029237915 -0.1587831
-0.11543522 -0.058805496 -0.07409256 0.007550657 -0.029379336 -0.10172613 -0.20245618 0.20864612
-0.05087425 0.1976282 -0.030689657 0.036103122 -0.19307053 0.20750226 -0.11374001 -0.18375105
0.19568951 0.13353856 0.18939492 -0.037517965 -0.1321099 0.007044651 -0.18692927 0.19314216
00000000: 5c69 5d3d e412 52bd 67ca 45be a468 af3d
00000010: 53e1 663e bb83 6bbd 2b65 8ebc 9dbb b1bd
00000020: 7cbf 753e aa41 49be 2f8c 4dbe 3ec3 f2bd
00000030: 0f5f 073e b75f bfbd ee30 2b3d 8dc1 3b3e
00000040: db86 d1bd 4fda 1bbe 63b6 21be 09f8 b7bb
00000050: c5c1 143e 7494 55be 701a 043e c42c 76bd
00000060: ad28 993d ffa5 dcbd 28c0 f03d 9988 f53d
00000070: b7b3 4dbe 8f87 853e 7da4 2d3e d9f7 f7bd
00000080: 3d42 543e 665b 1dbe aa81 1c3e e223 82bd
00000090: e450 b23d 52e2 383e 1e61 67be 40b2 f03d
000000a0: 5547 3f3e a0f3 4d3e b6ed 2a3e 4fd9 5dbe
000000b0: d0f5 bdbd d44e 143e 189b 133d 89af a9bc
000000c0: a1ef 623e 8996 77bd faa4 493e 4f08 6cbd
000000d0: 7a16 443e 34c0 33be 5473 cb3d eb7a 683d
000000e0: 2a09 b8bd ec06 11be 6874 43be acc4 4b3e
000000f0: 17fc 083e a450 58be c03c 083d 0fdc b8bd
00000100: 0033 8bbe 0f24 3b3e ab48 f53d dc64 ac3c
00000110: 74cb 7dbd 7499 233e 755c b7bc 209d 2a3e
00000120: 13d0 bfbd 7787 523d aaae 4a3e 8381 1e3e
00000130: da6a 68bd cfb5 4f3e 760e 273d bc6c 15be
00000140: c87d 983d 26d3 1d3e 6aaf 4f3e 2088 45be
00000150: e78e a1bd e337 213e 3766 bebd a5cd 2a3e
00000160: a844 50be 126d 393e 527a bfbd f7d9 96bd
00000170: 8089 453e f43b 82be 4e18 ffbd 7daa 323e
00000180: 3cfa aebd ad77 bf3d 08e7 10be 61da 2c3e
00000190: cca7 4e3d 0489 0abe 5a84 ef3c 0998 22be
000001a0: 4d69 ecbd 08de 70bd d7bd 97bd 806b f73b
000001b0: efac f0bc ca55 d0bd ac50 4fbe 54a7 553e
000001c0: 8461 50bd 0c5f 4a3e e068 fbbc dee0 133d
000001d0: 48b4 45be 797b 543e 86f0 e8bd 3c29 3cbe
000001e0: d562 483e 55be 083e bef0 413e 70ac 19bd
000001f0: d147 07be d1d6 e63b 636a 3fbe 0fc7 453e

net.6.bias f4 [2]
0.1411407 0.08128099
00000000: 3087 103e a676 a63d
