assets/snapshots/P3_log_amount_no_scaling_mlp.pth (torch, 52373 bytes, 6 tensors)

net.0.weight f4 [128, 30]
000000 b0 61 33 3c 7b 2c fd bd c1 0e 0b be d6 14 0c bd
       0.0109485835 -0.123619996 -0.13579847 -0.03419956
000010 4c 82 f5 bd 5f 71 14 be 84 8b 64 3c 34 9e 84 bc
       -0.11987743 -0.14496373 0.013949279 -0.016188718
000020 10 fa 05 be eb 34 7a 3c 06 94 3e 3e 02 8c 4c bb
       -0.13083673 0.015271406 0.18611154 -0.003121138
000030 91 20 6a 3d 22 d9 54 bd 59 99 43 bd 5e e6 43 ba
       0.057159964 -0.051964886 -0.047753666 -0.0007472987
000040 13 38 fd 3d aa cd e3 3d 4c b5 e8 bd 2d 6d c8 3d
       0.12364211 0.11123212 -0.11362705 0.09786449
000050 d6 34 a5 bd 6b 5f 8a 3d 2c c3 16 be a3 21 d2 3d
       -0.08066718 0.06756481 -0.1472289 0.10260322
000060 42 f7 e9 3c 76 ca 89 bd 01 19 e1 3d 2b 6d 52 bd
       0.028560285 -0.067280695 0.10991097 -0.051373642
000070 4e 79 b1 bb 95 b3 fc bd b6 8e 24 be 69 c9 88 bd
       -0.005416072 -0.1233894 -0.16070065 -0.06679041
000080 90 26 22 be 6a b6 b4 bd 31 41 bf 3d db 35 f9 3d
       -0.15835023 -0.08823855 0.09338606 0.12168475
000090 10 6c 3b bd f5 a0 88 3d 94 d7 04 3e e8 87 91 bc
       -0.045757353 0.06671325 0.12972862 -0.017765
0000a0 a6 1e 9e 3d ba 3f a1 3d 74 dd 7f 3d 28 b0 9a bb
       0.077206895 0.07873483 0.062467054 -0.0047207065
0000b0 a7 9e c8 bd 3b ab 4c bc 1e f2 62 3d b3 27 1a be
       -0.097958855 -0.012491996 0.055406682 -0.15054207
0000c0 3c 0b 12 3e 9d 97 05 be 0f 68 5b 3d b2 49 17 3e
       0.14262098 -0.13046117 0.053566035 0.14774206
0000d0 61 15 20 be 36 69 5f 3d f4 6a c8 3d 53 48 49 3d
       -0.15633155 0.054543696 0.09786025 0.04914124
0000e0 c6 22 2e 3e c1 64 07 3e 35 28 c4 bd 35 e7 27 be
       0.17005453 0.13222028 -0.095779814 -0.16396792
0000f0 d9 0a 32 3d db 42 1e 3e 4c 05 52 3e ba 3d 02 bc
       0.043467376 0.15455191 0.20509833 -0.007949287
000100 96 01 f3 3c a6 28 5a bd c6 67 4e be 52 c8 bf 3d
       0.029663842 -0.05326142 -0.20156774 0.0936438
000110 2c 2e d2 bd e1 45 c9 3d 2a d9 90 3d c9 16 20 3e
       -0.10262713 0.098277815 0.07072671 0.15633692
000120 8e 00 c9 3d 87 17 e0 bc 86 50 36 bc 78 9e d1 3d
       0.09814559 -0.027354969 -0.011127597 0.10235304
000130 39 fb ca 3c 96 2e 53 be 9d 70 a0 bb 29 ea 30 bd
       0.024777995 -0.2062324 -0.004896237 -0.043192063
000140 24 3a 8b 3d f4 c1 18 3e 36 fe 27 be 56 ad 85 bd
       0.06798199 0.14917737 -0.16405568 -0.06527202
000150 a9 59 b5 3d 39 e3 86 bd db 84 2d be b1 e3 2b 3d
       0.08854992 -0.06586308 -0.16945212 0.04196519
000160 1e 1c 1c 39 cf d2 08 be 47 bc 57 3d e8 66 98 bb
       0.00014887794 -0.13361667 0.05266979 -0.0046509393
000170 bc cb 07 bc 1a b5 fd 3d ca c4 05 3d cf 0d 9f 3d
       -0.00828832 0.12388058 0.032658376 0.07766306
000180 74 f7 af 3d 26 0a 42 3e 56 52 a1 3d d1 0d d5 3d
       0.0859212 0.18949184 0.078770325 0.10403026
000190 ff cd 3d 3d 77 67 62 bd 94 d6 7c 3d f1 82 29 3d
       0.04633903 -0.055274453 0.061728075 0.04138464
0001a0 18 8e 6a 3e 27 eb 8c bd a1 d3 b6 3d 39 0a dc bd
       0.22905767 -0.06880789 0.08927084 -0.10744137
0001b0 8f 1d 47 3e 25 16 db 3d 4d 09 48 3c 5e 70 7b 3d
       0.1944487 0.10697583 0.012209249 0.06138646
0001c0 57 13 6e 3c 91 17 de bc 0e 04 23 be 39 83 23 3e
       0.014530978 -0.027110847 -0.15919515 0.15968026
0001d0 a1 16 b3 bd a0 8f 33 be a7 13 e3 3d 22 8b 89 3d
       -0.087445505 -0.17535257 0.11087733 0.067159906
0001e0 78 60 b2 3d f2 84 8d 3d cd b0 46 3e 7e 83 4c bd
       0.08709806 0.06910123 0.19403382 -0.04993009
0001f0 ae 16 23 be e9 68 66 bd e6 29 e0 3d c5 ee e2 bd
       -0.1592662 -0.056252394 0.109454915 -0.11080698
000200 bb 80 dc 3d e7 9c a6 3d 82 f8 a8 3c a5 5a 63 bd
       0.10766741 0.081353955 0.02062631 -0.055506367
000210 b7 44 c6 ba 57 87 cb bc 1b 05 09 3e d9 8d 37 3b
       -0.001512668 -0.024844809 0.13380854 0.0028008132
000220 f9 22 ee 3d df 5a ef bd b2 2e 7f 3c 8b da 32 3e
       0.11627764 -0.11687254 0.015575098 0.1746618
000230 ed 1d 1e be a9 b5 2c 3e 39 f5 45 be 5b bc ee bd
       -0.15441103 0.16866173 -0.19331826 -0.1165702
000240 5f 2f 4d bd 15 ea d2 bd 8b ad f5 3d 3f 58 77 bd
       -0.050094005 -0.10298554 0.11995991 -0.060386892
000250 0e c5 75 3c fb e9 0e be dc f6 82 3d e4 67 05 3d
       0.015000595 -0.13956444 0.06394741 0.03256978
000260 fb dd 07 be 32 71 2b 3e 07 50 1d be 63 27 ec bc
       -0.13268273 0.167424 -0.1536256 -0.028827375
000270 b4 4d 2f 3e f8 74 bc 3d 2f e1 80 3d dc ab 33 3e
       0.17119485 0.092019975 0.0629295 0.17546028
000280 4c c8 4a bd 97 27 4a be 56 07 9b bd 95 f6 1d 3e
       -0.049507424 -0.19741665 -0.075697586 0.15426095
000290 1c cb b2 bd 25 f3 cd 3c 84 40 09 bd d0 7e af bd
       -0.08730146 0.025140354 -0.033508793 -0.085691094
0002a0 63 77 cb bc 27 da 21 be 21 71 02 3e e4 af 34 be
       -0.024837201 -0.15805875 0.12738468 -0.17645222
0002b0 a0 4b c7 3d 77 64 64 3d 9b b4 3a bc fb ed a6 3d
       0.09731221 0.055759873 -0.011395599 0.0815086
0002c0 35 72 60 3d a5 05 9f bd c8 e4 02 be a2 ce 26 3e
       0.054796416 -0.077647485 -0.12782586 0.16289762
0002d0 e2 f2 7b bc 28 6c 20 be 34 e3 83 be 53 b7 94 3e
       -0.015377732 -0.15666258 -0.2575928 0.29046115
0002e0 27 05 41 3e 26 15 e2 3d 09 52 14 3e ce 74 a5 bc
       0.18849622 0.1103919 0.14484419 -0.020197298
0002f0 36 68 40 3e 47 aa 2c be 52 43 46 3d b6 b1 17 3e
       0.18789753 -0.1686183 0.048404045 0.14813885
000300 e5 9d a5 3d eb 20 d4 bd 91 54 23 3d 5f 2c a4 bd
       0.080867566 -0.10357841 0.03987557 -0.080162756
000310 a2 9e 46 be 81 bb 3c 3e 12 a4 14 be d5 a5 0a be
       -0.19396451 0.18430902 -0.14515713 -0.13539822
000320 2c d6 24 3d f6 5e b0 bb 78 fc 15 3e 57 52 0f be
       0.040243313 -0.005382414 0.1464709 -0.13996254
000330 11 3a 47 be 39 e9 e5 bd 51 f1 14 3b 14 2d 96 bc
       -0.19455744 -0.11226124 0.0022726844 -0.018332042
000340 d5 f8 e7 3c f0 8f 9e bd b2 97 e5 bd c0 37 38 bd
       0.028316895 -0.07742298 -0.11210574 -0.044975042
000350 6f e5 8a 3b 2a 43 2a 3e 10 ca 8e bc 02 dc eb 3d
       0.0042387764 0.16627184 -0.017430335 0.115165725
000360 76 13 92 bb a3 d8 b2 bd 97 14 1b 3e 97 00 fc bd
       -0.0044578863 -0.087327264 0.15144573 -0.123048
000370 9b 53 08 be a3 6f e6 bd 90 4a 18 3e e5 c9 3a be
       -0.13313143 -0.11251762 0.14872193 -0.18241079
000380 ec 9b 06 be 2f f6 47 3e 11 7f 45 bc 9b b3 99 bd
       -0.13145417 0.19527505 -0.012054221 -0.0750496
000390 ff 5c d4 3d 52 76 22 be 80 a6 c0 bc 45 16 ca 3d
       0.103693 -0.15865448 -0.023516893 0.09867529
0003a0 11 6d 65 3d 58 95 76 bd 36 17 df bd f7 05 25 3e
       0.056012217 -0.06020102 -0.10893099 0.16115557
0003b0 20 e0 17 be 95 0c cc 3d e5 f6 16 be 3b d7 2c 3e
       -0.1483159 0.09963337 -0.1474262 0.16878979
0003c0 d1 f8 3e 3d cd 35 61 bc cb 4a df bd 1d fa a8 bd
       0.04662401 -0.013745737 -0.109029375 -0.0825083
0003d0 61 f0 3e 3e d6 58 80 bc 16 e4 d2 bc db 26 9d 3d
       0.18646385 -0.01566736 -0.025743525 0.07673427
0003e0 87 75 bf 3d f6 02 74 bd 4c 1c 29 bd fc 2f c8 ba
       0.093485884 -0.059573136 -0.04128675 -0.001527309
0003f0 71 fd c3 bd 75 74 12 3b be 14 77 3d 2f 47 19 be
       -0.095698245 0.0022347246 0.060322516 -0.1496856

net.0.bias f4 [128]
000000 f7 42 23 be 35 a6 e8 bd f5 c2 21 3e a3 ba 52 be
       -0.15943514 -0.113598265 0.15797026 -0.20579009
000010 a3 b6 8e bd 74 19 0d be 6f f7 ff 3d ea 7e 2b 3e
       -0.06968429 -0.13779241 0.12498366 0.16747633
000020 16 f1 1a bd aa 8f 03 be 9c a7 58 3f 04 85 0f be
       -0.037827574 -0.12847772 0.8463075 -0.14015585
000030 20 35 38 3e 16 32 c6 bd c9 61 aa 3f f7 62 14 3d
       0.17989016 -0.09677522 1.3311092 0.036227193
000040 31 a6 2f bc 20 e7 0b 3d 74 a6 88 3f d3 6b b1 bd
       -0.010720775 0.034155965 1.0675797 -0.08663144
000050 f3 6a 03 be 4d de d2 3e 9a 48 3c bd 4e 10 85 3f
       -0.12833767 0.41185227 -0.045967676 1.0395601
000060 7f 92 4f 3e 12 b0 3a be 5e 0e cc bd e0 f6 68 3e
       0.20270728 -0.18231228 -0.09963678 0.22750425
000070 75 35 c5 3c d1 90 53 3e 3d 24 a7 3c f9 ac ea bd
       0.024073342 0.20660712 0.020403022 -0.11458773
000080 21 e9 d3 bd f5 c2 6d 3c dd 13 2e be 41 5d b4 bc
       -0.103472 0.014511813 -0.16999765 -0.022017123
000090 92 53 08 3e e9 ed 8a bc e6 17 d7 bc 2f 59 2b bd
       0.1331313 -0.016959148 -0.026256513 -0.0418331
0000a0 1f 83 08 3f 49 e4 40 3d 46 c1 e8 3d fd ed c7 bd
       0.53325075 0.04709271 0.11364989 -0.097621895
0000b0 97 36 ce bd 12 83 91 3d 9e 6e 89 3e 37 ba 1b be
       -0.10069006 0.07105078 0.26842207 -0.15207754
0000c0 38 c2 e8 bd 7f fa 0b 3c 0e 69 5e 3e 00 a3 75 bd
       -0.11365169 0.00854361 0.21719763 -0.059969902
0000d0 92 cd 06 3d 56 9a f8 bd aa f2 0a be 80 00 2e 3e
       0.03291089 -0.12138812 -0.13569131 0.16992378
0000e0 64 88 42 bd a3 2c ce 3c 06 db a2 3f 21 af 1a be
       -0.047493353 0.025167769 1.2723091 -0.15105869
0000f0 27 ea 7d 3d fd b3 89 bc 95 00 3c be a1 9b 14 3e
       0.061990883 -0.016809458 -0.18359597 0.14512493
000100 23 73 9e 3e fc a0 5e 3d 78 3e fc 3e 20 92 1f bc
       0.30947217 0.054352745 0.4926641 -0.009739429
000110 80 f0 c7 bd f6 19 fa bd 0a ce 53 3e a8 40 05 3e
       -0.097626686 -0.12211983 0.20684066 0.13012946
000120 19 a8 84 3d 0e 8a a1 3c d5 da 32 3d 6f 4c 79 bd
       0.064773746 0.01971915 0.043665726 -0.06086391
000130 74 ce f0 bd 9e 86 4c be 50 61 14 bd e3 bb d1 3d
       -0.11758128 -0.19973227 -0.036225617 0.10240915
000140 3d 2d d7 3d ca 86 84 bd 28 9d 10 3e 14 a8 3b 3d
       0.105066754 -0.064710215 0.1412245 0.04581459
000150 3f 84 02 be 2c 2a 76 3c 07 e9 0a 3e 5d 2e 6f bd
       -0.1274576 0.015024703 0.13565455 -0.058393825
000160 6e 8c 4c be 21 5e 7f 3d 16 1a 9d 3d 79 38 59 3d
       -0.19975445 0.062345628 0.07670991 0.053032372
000170 15 cc 37 3f 6d df 2b be 0b 83 c4 bd b2 04 c8 bc
       0.7179578 -0.16784449 -0.09595307 -0.024416301
000180 1e 0a cb bd 55 62 24 bd 5d 71 df 3d c6 e3 6a 3e
       -0.09914039 -0.04013284 0.10910294 0.22938451
000190 6f 46 35 be e5 c8 20 3d 91 bc cf bd 44 1c 8f bd
       -0.1770265 0.039254088 -0.10143388 -0.06987813
0001a0 30 39 b6 bd 76 d1 78 3e f8 b1 22 be 24 3d 54 bd
       -0.088976264 0.24298653 -0.15888202 -0.05181612
0001b0 e0 39 fb bd 2e b4 53 3d ef bc 28 bd 52 58 fe bc
       -0.12266898 0.051685505 -0.041195806 -0.031047974
0001c0 67 bb 33 3e 58 dd 91 3f 70 54 fd 3e 63 2c 21 3f
       0.17551957 1.1395674 0.49478483 0.62958354
0001d0 0b 54 b4 3e 42 15 4b 3d dc ab 41 3e bf 7b 1a 3d
       0.3522037 0.04958082 0.18913215 0.03771567
0001e0 2a 31 8c 3e 0f 13 16 be 11 42 af bd 06 a3 05 3e
       0.2738126 -0.14655708 -0.08557523 0.1305047
0001f0 65 cb a8 bd 37 3a a6 3d eb 18 15 3d 22 f3 77 3e
       -0.082419194 0.08116572 0.036400717 0.24213842

net.3.weight f4 [64, 128]
000000 94 8a a3 bd 7f 61 ef bb f1 9d 0f 3d 5f 5f 64 3d
       -0.07985416 -0.0073053236 0.035062734 0.055755015
000010 6b 9f a8 bc 6e 66 3d 3d 97 cf 40 3a 3b 43 26 bb
       -0.020583829 0.046240263 0.0007355152 -0.0025369662
000020 25 5b c1 3c 9c bf 67 bd 71 44 14 3d 5c 07 dc bd
       0.023603031 -0.056579217 0.036198083 -0.10743591
000030 10 6c 99 3d 8d 8c 43 bd 4e 8a bc bd 4c 42 40 3d
       0.074913144 -0.04774146 -0.09206067 0.046938226
000040 89 26 7c bd ec a1 09 3c 1d 9a af bd 38 9b c1 3c
       -0.061560187 0.008400422 -0.08574317 0.023633584
000050 5d 46 97 bd dc 92 24 3d 20 7e 13 3d 9d 33 13 be
       -0.073864676 0.04017912 0.036008954 -0.14375158
000060 bd e8 35 be 0c c6 27 bd d5 0e 59 3d b3 68 47 bd
       -0.17764564 -0.040960357 0.05299266 -0.048683833
000070 a4 86 71 3d af 10 f8 bd bd c4 46 3d 8d 88 82 3d
       0.058966294 -0.12112557 0.048527468 0.06373701
000080 93 cb 17 3d db 61 08 bd 92 9f 53 3c 8e f6 8d 3c
       0.037059378 -0.033296447 0.0129164625 0.01732948
000090 f3 59 43 3c 59 15 d7 bd 7e 33 4d bc 7b d4 50 3d
       0.011923301 -0.105021186 -0.012524484 0.050983887
0000a0 6a 8f 24 3d 61 e3 4a bd 89 7e 88 3d 2b 58 ca bd
       0.040175833 -0.04953325 0.0666476 -0.09880098
0000b0 ed 42 52 bd dc 42 88 bc d5 7d a6 3d 4b 42 c9 3c
       -0.051333357 -0.016633444 0.08129469 0.024567744
0000c0 e4 6c ad bc 2e ea 8a bd cf 42 03 be e1 10 01 3d
       -0.021170087 -0.067829475 -0.12818454 0.031510238
0000d0 c7 1a 8f 3d 3f 61 31 bc 60 67 4c bc c9 c1 dc bd
       0.06987529 -0.010826408 -0.012475818 -0.10779149
0000e0 33 6f 9b bd 32 27 5b bd 0a a1 96 bd db ed 02 3a
       -0.07589569 -0.053504176 -0.073549345 0.00049945497
0000f0 15 88 6a bc ee 7a 81 3d d8 4c 81 bd 6e 78 6e 3d
       -0.014314671 0.06322275 -0.06313485 0.05822032
000100 dd d2 01 be 5e a4 dc bd 6a 43 33 3d f2 cf a5 3a
       -0.12678094 -0.10773538 0.043765463 0.0012650474
000110 df e2 82 bd 8e eb 58 3d 94 aa bc bc f0 79 39 ba
       -0.063909285 0.052959017 -0.023030557 -0.000707536
000120 be 82 48 be b0 dc 89 3c 13 ce 96 bd a7 e2 30 3d
       -0.19581124 0.016828865 -0.07363524 0.043184903
000130 7c 6a 20 bd 20 ac ca 3c c5 ef 8d bd 64 62 1d bd
       -0.03916405 0.024740279 -0.06930498 -0.03842391
000140 7f eb 5e bd 2f 1c 8a bd 70 43 4c 3b a1 c1 61 3d
       -0.054423805 -0.06743657 0.0031168126 0.0551163
000150 71 a3 8c bd 7a 98 b9 bd 77 16 3d 3d 03 2c 99 bc
       -0.068671115 -0.09062286 0.046164002 -0.018697744
000160 88 c3 90 3d 8d cd 56 be 7c ac 9e bd 47 e5 c3 bc
       0.070685446 -0.20976849 -0.077477425 -0.023913039
000170 cc fc b7 bd 2b a2 c1 3c d3 9b a4 bd e1 6c 81 3d
       -0.08983764 0.023636898 -0.080375336 0.06319595
000180 d7 54 ba bd 46 e7 30 be 21 45 af 3c a7 4f cf bd
       -0.09098213 -0.17275724 0.021395268 -0.10122614
000190 42 d3 5e bd f7 64 00 3d aa 52 5b bc cd 21 9d bd
       -0.05440069 0.031346288 -0.013386408 -0.076724626
0001a0 6e cb 95 bd 80 f8 2d be 36 86 71 3c 16 bc 6b 3b
       -0.07314192 -0.16989326 0.014741471 0.0035970262
0001b0 7a 1c 9e be 81 17 15 ba 49 6d 43 bd 60 dd 1e be
       -0.308811 -0.0005687401 -0.047711644 -0.15514135
0001c0 aa 7e ce 3c 59 7a b8 bd 1a 50 91 3c 82 35 8e bd
       0.025206883 -0.09007711 0.01773839 -0.069437996
0001d0 16 bb 1c bd 8f 65 37 bd 81 6d 95 3c 9e e5 87 bd
       -0.038264357 -0.04477459 0.018240692 -0.06635593
0001e0 9c b4 40 be 1e 95 f7 bc 35 89 05 3d 9f dd 79 bd
       -0.18818897 -0.030222472 0.032601554 -0.06100237
0001f0 c4 bd 6a bd b1 d5 3a bd 06 86 a0 bd 7c ce 9e bd
       -0.05730988 -0.04561395 -0.07838063 -0.077542275
000200 88 66 8b 3d 2a 40 a7 bd d2 55 8b 3b c6 2a 8f 3d
       0.06806666 -0.08166535 0.004252174 0.0699058
000210 7a 48 fa 3c 7e 1f 44 3d 22 b2 b7 3d 88 ba c3 bc
       0.030552138 0.047881596 0.08969523 -0.023892656
000220 9d bb 94 3d bb 14 86 3d 11 b4 49 3d 63 d8 df bd
       0.07262347 0.06546923 0.04924399 -0.10929944
000230 87 f8 b1 3d 65 54 73 3b b2 35 f3 3d c4 73 e9 3b
       0.08689981 0.003712916 0.11875476 0.007124396
000240 84 6c a5 bd 24 12 c4 bd 64 f6 93 3e cb 58 5f 3d
       -0.08077338 -0.095737725 0.2889892 0.05452804
000250 27 e5 90 3d cb 5e 8c 3e c9 10 45 3d 29 79 73 3e
       0.07074957 0.2741607 0.04811171 0.23776688
000260 23 fc 3d 3e fd 6d 37 bd 89 6b ef bc d0 f2 1a 3e
       0.18553214 -0.044782627 -0.029226081 0.15131688
000270 23 93 28 3d 2a 71 4f 3e a1 05 b0 bc e8 82 10 39
       0.041155946 0.20258012 -0.02148706 0.00013781677
000280 0e 9c 96 3d f9 6d 1f 3d 4a d6 03 3d 49 7e 61 bd
       0.07353984 0.038923237 0.032186784 -0.055052076
000290 d2 4d 52 3c 5d 26 51 3d c0 33 35 bd 30 ae e6 bd
       0.012835937 0.051061977 -0.044238806 -0.112636924
0002a0 f0 e5 a2 3e 5a 36 a4 bd a7 32 96 bd 11 a2 6f bc
       0.31816053 -0.08018179 -0.0733388 -0.014626042
0002b0 7c d1 85 3d 0b 28 7b 3d 34 ea 1f 3e 08 a1 61 bd
       0.065340966 0.061317485 0.15616685 -0.055085212
0002c0 bf 2b 49 3c 41 7c 97 bc c7 f7 f4 3d 74 b8 39 3d
       0.012278496 -0.018491866 0.11961322 0.045341924
0002d0 fb 93 83 bd 90 09 8e bd 7c f6 0d bc af e0 59 3e
       -0.064247094 -0.06935418 -0.0086647235 0.21277116
0002e0 3e 65 61 3d 93 4c 49 3e da b5 98 3e 2c 5a 62 bc
       0.055028193 0.19658117 0.29826242 -0.013815444
0002f0 e1 27 42 3d be d4 3f 3b 8c be 0e 3d 95 33 45 bd
       0.047401313 0.0029271091 0.03484969 -0.048144896
000300 db 08 e7 3d a7 d2 6e 3e 0a 04 96 3e 31 85 a1 bd
       0.11280986 0.23322545 0.29299957 -0.07886732
000310 8c 05 a0 3c 14 ba c2 3c ac ae 93 3d c6 0f 53 3d
       0.019533895 0.02377037 0.072110504 0.051528715
000320 07 dd 5d 3d b5 ad 33 3d 47 0e af bc 2a 5f 35 3c
       0.054165866 0.04386683 -0.021369113 0.011070052
000330 99 94 d1 3c 56 4e 1a bb 22 9f a2 bd dd b2 66 bd
       0.025583552 -0.0023545227 -0.079405084 -0.05632292
000340 c6 ec 36 bd ab a2 11 bd 9d 25 ad bc cc 7b 4d bd
       -0.0446594 -0.035555523 -0.0211361 -0.05016689
000350 1d 7f b7 3c 79 b5 01 bd 4d 24 b5 bb 65 42 82 bd
       0.02239948 -0.031667206 -0.005528009 -0.0636032
000360 87 b7 18 bd fd 70 36 3e 02 b2 67 bd 9d ad 0c 3d
       -0.0372844 0.17816539 -0.056566246 0.034345258
000370 0f 4c 3f 3e 77 a4 83 3c 47 d9 b1 bd 5f 8c e0 3c
       0.18681358 0.016069634 -0.086840205 0.027410684
000380 a1 92 a6 bd 5d 2e 15 bd ac 78 39 3d 6d fd 74 bc
       -0.08133436 -0.03642117 0.045281097 -0.014953
000390 b7 df 8c bd 75 be 06 bd 65 d3 2c bd 79 97 be 3c
       -0.06878608 -0.032896478 -0.04219379 0.023265587
0003a0 5a 61 79 bd 0a e3 13 3e 0d 5e b4 bd 49 84 a1 3d
       -0.060883857 0.14442077 -0.08807001 0.078865595
0003b0 ec d2 1c bd 9c 06 7d bd f0 e3 fa bc af fb 35 3d
       -0.03828709 -0.06177388 -0.030626267 0.044429477
0003c0 3e ce 8d 3b c4 7d 6a 3e a2 d5 0f 3e 49 ee 78 3e
       0.0043275645 0.22899538 0.14046338 0.24309649
0003d0 81 65 91 bc 91 ef db 3c dd e1 0b bd 14 6f 8b 3d
       -0.017748596 0.026847633 -0.034150947 0.06808296
0003e0 87 b7 3a 3e 11 c5 b4 bd 61 94 d3 bd 67 23 a3 bc
       0.18234073 -0.0882665 -0.103310354 -0.019914342
0003f0 30 62 8f bd 81 14 17 3e 9f 9a 27 bd 87 f5 54 bb
       -0.0700115 0.14753915 -0.040918943 -0.0032494979

net.3.bias f4 [64]
000000 71 1b b7 bd 7d da a1 bd 79 26 b7 3c 5b e7 d1 bd
       -0.08940781 -0.079030015 0.022357212 -0.10249206
000010 41 9a 9e 3c e7 79 e4 3c f7 64 85 bb 41 42 b6 3a
       0.019360663 0.027890159 -0.004070874 0.0013905243
000020 8c 5f 44 3d 7d 17 75 bd f6 12 5d 3d 6e 85 de bb
       0.047942683 -0.059836853 0.05397316 -0.0067908084
000030 e3 26 d3 3c d7 14 aa bd 86 ab 1c bd a4 dc 9c bd
       0.025775379 -0.08304756 -0.038249515 -0.07659271
000040 de cf 88 3c 71 90 8e 3d 35 3c 36 bc 8a a7 99 3b
       0.016700681 0.06961144 -0.011122753 0.0046891617
000050 56 15 40 3d 6b 28 bb bd ec 33 92 bd fa 3c ad bd
       0.046895348 -0.091385685 -0.071388096 -0.08458896
000060 04 19 c0 bd 42 e9 92 3d 4a 50 2f bd ee 4b 23 3d
       -0.09379771 0.07173397 -0.04280118 0.039867334
000070 c7 0d 47 bc bf a1 96 bb 79 95 63 bd e5 e2 96 bd
       -0.012149281 -0.0045969184 -0.05556247 -0.073674954
000080 e5 c8 51 bd e8 fc cb bb 9e 64 56 3c 72 0f 7c 3d
       -0.05121698 -0.006225217 0.013085512 0.061538167
000090 a7 cf 39 bd 74 90 bc 3c 21 5e f2 bc 5c 2a 5b 3d
       -0.04536405 0.0230181 -0.0295859 0.053507194
0000a0 c2 d5 12 bd 49 85 db bc 70 83 b4 bd cb b9 11 3d
       -0.035848387 -0.026796954 -0.08814132 0.035577577
0000b0 99 81 01 3c 39 4a 77 3d d6 97 88 bd 0b 82 02 bc
       0.007904434 0.06037352 -0.066695854 -0.007965575
0000c0 0c 00 56 3c bd eb df 3c c1 a7 93 3c c3 47 bc bd
       0.013061535 0.027334088 0.018024327 -0.09193375
0000d0 9a f7 8a 3c db 6d 66 bd 47 96 34 bb bc 9d 8a bd
       0.016963769 -0.05625711 -0.0027555393 -0.06768367
0000e0 09 eb 03 3d f9 02 b4 3c e7 26 64 3d a4 2a 67 bd
       0.03220657 0.021974074 0.055701163 -0.05643715
0000f0 5b 44 01 3d 17 8b ca bd 88 c0 d0 bd 3e 15 73 39
       0.03155933 -0.098898105 -0.101929724 0.00023182199

net.6.weight f4 [2, 64]
000000 a8 e2 14 bc 6c d5 21 3c e4 17 a9 3d 77 b4 bf 3d
       -0.009087242 0.009877544 0.0825651 0.09360593
000010 35 74 b9 bd 9a 70 da bd 3a c8 93 bc a0 c3 82 3d
       -0.09055368 -0.10666008 -0.018039811 0.06384969
000020 6d 4f 96 bd 85 cc d1 bd c4 e2 e4 bd 8d 41 65 bd
       -0.07339368 -0.10244087 -0.111760646 -0.055970717
000030 16 00 e4 bd 07 eb 20 3d 92 2c 8f bd 45 84 8e 3d
       -0.11132829 0.03928664 -0.06990923 0.06958822
000040 e3 c7 be bd 97 24 31 bd 06 94 99 bd bb 50 04 bd
       -0.09315469 -0.043247785 -0.07498936 -0.032303553
000050 9d 17 d5 3d b9 ed 0a bd f5 5c 85 3b 7a 1f 00 3a
       0.104048945 -0.033918116 0.004069919 0.0004887503
000060 fb 69 82 3d e1 32 de bd 82 f7 08 bd bd 81 25 bd
       0.063678704 -0.10849548 -0.033439167 -0.04040693
000070 8e f8 94 bd db f5 0e 3d c5 91 81 39 a7 7d 8c 3b
       -0.072739705 0.034902435 0.00024713404 0.00428744
000080 cd c5 86 3c 8d 63 ad 3d cb 60 56 3d 83 91 8e 3c
       0.01645174 0.084662534 0.052338403 0.01740337
000090 9b 80 5d 3d bf 6b 97 bd 4a a7 b1 bb 33 3d a2 bd
       0.054077726 -0.07393598 -0.0054215537 -0.07921829
0000a0 b2 e1 28 bd 0c 21 74 3d cc 12 29 bb a2 11 b3 bd
       -0.041230865 0.05960183 -0.0025798557 -0.087435976
0000b0 60 16 ca bc 21 f9 75 bd eb 4c 85 3d 50 1d b6 3d
       -0.024668872 -0.06005204 0.065088116 0.0889231
0000c0 c7 c8 e9 3d 4c af 76 bd 15 8f 18 bc 53 4e c0 bc
       0.11415248 -0.06022577 -0.009311457 -0.023474848
0000d0 cc 9b b3 3c 54 35 49 3d e2 14 be bd 1b a1 25 3b
       0.021924876 0.049123123 -0.09281327 0.0025273028
0000e0 aa b4 bb 3d b8 d2 4b bc 7b af 85 bd 25 62 9d bd
       0.09165318 -0.012440376 -0.06527611 -0.07684735
0000f0 6e c0 ba 3d c6 f0 b0 bc 4a 98 a5 bd 30 e1 d2 39
       0.09118734 -0.021599185 -0.080856875 0.000402221
000100 eb 09 a1 3b 5a 4c 7a bc c0 e9 18 3d 47 8c 72 bc
       0.0049145124 -0.015276993 0.037332296 -0.014803953
000110 46 08 be bd 12 ca 83 bd 0e c0 ad bc 47 a7 67 bd
       -0.09278922 -0.06435026 -0.021209743 -0.056556012
000120 af 72 e3 bc d5 72 d4 bd 2e e5 a3 bd 1d d3 6f 3d
       -0.027764646 -0.10373465 -0.08002697 0.058550943
000130 24 44 b5 bd 15 39 f2 3a 07 87 72 bd 8b 2d a9 bd
       -0.088508874 0.0018480147 -0.059210803 -0.0826064
000140 28 8c 38 bd 11 34 98 3d a2 44 33 bd a6 7b d2 3c
       -0.04505554 0.07431806 -0.043766625 0.025693726
000150 53 6b 61 3d 59 bc 4a 3d 76 7d 2d bc a5 1a aa bd
       0.055033993 0.04949603 -0.010588994 -0.08305863
000160 f1 12 d7 3d ac 2a 2c 3d 59 93 dc bc 5b 14 e6 bc
       0.1050166 0.042032883 -0.02692573 -0.028085878
000170 a6 0d 8f 3d f8 46 64 3d d0 01 9b bd 93 ba 21 3d
       0.06985025 0.055731744 -0.07568705 0.03948457
000180 1c a3 94 bd 23 a4 c1 bd 35 08 87 bd 8b 38 11 3d
       -0.07257673 -0.09455135 -0.06593362 0.035454314
000190 53 92 44 3b ad 8c 7e bd e5 db ab 3d f5 81 bc bd
       0.0029994443 -0.062145878 0.08391551 -0.09204475
0001a0 bd 38 13 bd 0f 9c 05 bd 21 f9 9e bd 76 05 53 3d
       -0.03594278 -0.032619532 -0.07762361 0.05151888
0001b0 55 8c b6 3d ca 71 b5 3d e3 d1 8c 3d 18 82 c2 bd
       0.08913485 0.08859594 0.0687597 -0.0949747
0001c0 39 d5 bb bd 98 c0 e0 3d 5c 80 6a 3d 37 6e 25 bd
       -0.09171528 0.10974234 0.05725132 -0.040388312
0001d0 48 b6 79 3d 58 da a5 3d d2 8f 19 3d 81 ed 07 bd
       0.060964853 0.080982864 0.037490673 -0.033185486
0001e0 8d 0b 57 bb 70 b9 80 3c 68 93 ae bd 36 5d 26 bd
       -0.0032813281 0.015713423 -0.08524209 -0.040616237
0001f0 8d 7d 96 bb 11 05 cb bc 66 06 c2 3d 51 30 13 3d
       -0.0045926035 -0.02478269 0.09473877 0.03593475

net.6.bias f4 [2]
000000 02 ef a4 3e 43 11 89 be
       0.32213598 -0.26770982
