assets/snapshots/P3_log_amount_no_scaling_transformer.pth (torch, 297603 bytes, 32 tensors)

input_proj.weight f4 [64, 1]
00000000: d166 4fbf 55f9 153d c0b3 f73d e051 1dbf
00000010: 1f16 bc3e 5e74 143f 6ba1 d23e 9b53 1a3f
00000020: 86ec 013d 653c 113f 4dc4 20bf d350 86be
00000030: 24a0 0dbf 8909 1d3f c8a7 b23e e318 053e
00000040: 2e70 623d d9dc 49bf c9ff 6bbe c6d7 69bf
00000050: 7a01 72bf 873c 613f f3bc 2a3e 310f 4ebe
00000060: f622 2bbf 8b76 55bf dbd8 5bbf 80f5 3fbf
00000070: 8228 44bf 0296 763f a12d 6d3f c07b cbbe
00000080: aacc 5bbf cc4a bb3e 2b3e 7b3f 1bb6 6ebf
00000090: 6445 32bf bc92 653f fc8f 40be 2fa4 513f
000000a0: 5e2d af3e dd02 283f 6e0d 8dbe 8b3f 25bf
000000b0: 8ee7 1abf 0c1b a03e e2c5 5cbe f0e8 31be
000000c0: 330d 93be c9ab cabe 33fc e43e d4c0 77be
000000d0: 7182 353f 499b 5f3e de85 033f 3b53 dbbe
000000e0: 8999 f53e 989b 7cbf 763c 623e cbc8 00bf
000000f0: 9349 b53e 39c5 3bbd bf73 a7be b4dc 0c3d
-0.8101626 0.036614735 0.120948315 -0.61453056 0.36735627 0.5799006 0.41138777 0.6028382
0.031719707 0.5673278 -0.6279953 -0.2623354 -0.5532248 0.61342674 0.34893632 0.12997775
0.055282764 -0.7885261 -0.23046793 -0.9134487 -0.94533503 0.8798298 0.16673641 -0.20122983
-0.6685022 -0.8338401 -0.8587777 -0.7498398 -0.7662431 0.96322644 0.9264775 -0.3974285
-0.8585917 0.36580503 0.98141736 -0.9324662 -0.6963713 0.89677024 -0.18804926 0.8189115
0.342143 0.6562937 -0.2754931 -0.64550084 -0.60509574 0.31270635 -0.21559861 -0.17374015
-0.28721008 -0.39584187 0.44723663 -0.24194652 0.7090216 0.2183658 0.5137614 -0.42836937
0.479687 -0.9867492 0.22093377 -0.50306386 0.35407695 -0.045842383 -0.32705495 0.034390166

input_proj.bias f4 [64]
00000000: 79b9 203f aad7 2e3f fc99 5d3f 649b 13be
00000010: dd89 0cbf 04a5 fa3d 46e1 44bf fba0 3e3e
00000020: 3b64 253f 2d8a ae3d 43b6 0fbf 23f6 49be
00000030: 9eaf febd 275c 32bf c4f7 98be bfd6 733f
00000040: d2c2 b73e d5e9 7dbe 72be 5d3f 4b93 0ebe
00000050: fe89 3abf 9e93 36bf c6af cc3e b7d8 67bf
00000060: b49a b5be 5e08 2d3f d860 24be be50 9a3e
00000070: 712c 18bf 982f 993e e95f 0ebf 0641 0b3f
00000080: 7050 513f 70bd ddbe 68c0 37be 8caf c2be
00000090: 56ff 20be 369a 1bbe dbbb 9e3e ba3a e93e
000000a0: 27c7 b7be a642 4bbe 44f8 8cbe 2eac 8a3e
000000b0: 0dbc 23bf 0766 8bbe cc6a 6abf dc6e c3be
000000c0: 10f3 cebe 13e2 903d 754a 43bf 6d11 77bf
000000d0: 17fe 9e3d 6d02 6e3e 2de6 1abf 9c57 9d3d
000000e0: 0c88 5e3e 49d4 35bf e5cc cd3e 0dd0 72bf
000000f0: 98a3 21bf e63e 913e 3c8e 0bbf ed47 63bf
0.6278301 0.6829783 0.86563087 -0.14414746 -0.5489786 0.122385055 -0.7690624 0.18616097
0.64606065 0.08522449 -0.56137484 -0.197228 -0.1243584 -0.69671863 -0.2987653 0.9524955
0.35890824 -0.24796231 0.8661872 -0.13923375 -0.7286681 -0.71318996 0.39977854 -0.90565056
-0.35469592 0.6759089 -0.16052568 0.30139726 -0.5944281 0.29919124 -0.556151 0.5439609
0.8176336 -0.43308592 -0.17944491 -0.38024557 -0.15722403 -0.15195546 0.31002697 0.45552617
-0.3589413 -0.19849643 -0.27533162 0.27084488 -0.6395882 -0.27226278 -0.9156921 -0.38170516
-0.40419817 0.0707437 -0.7628549 -0.96510965 0.077633075 0.23243113 -0.6050747 0.07682726
0.21731585 -0.71027046 0.40195385 -0.9484871 -0.6314025 0.283683 -0.5451391 -0.88781625

encoder.layers.0.self_attn.in_proj_weight f4 [192, 64]
00000000: 466a 343e ccb6 cabd cbd6 60bd 60f3 673c
00000010: 43f5 983d 5b8e dbbd 39b4 acbb 31a7 d83d
00000020: ba1d 013e 4507 663c 2153 f63d 2e75 90bd
00000030: 0e26 80bd fd5b 603d 68b8 ca3d 63aa e7bd
00000040: 4369 573d 4b80 b63d 3317 bc3d 2c53 b63d
00000050: 6209 de3d 1c05 26be 6652 d8bd 3684 053e
00000060: d4ee d9bd 586e 1b3c 0033 2a3d 2939 e3bd
00000070: 26d5 233e 53fc d3bd 7467 1dbe 3889 e53c
00000080: 02fa dabd 9569 d73d e5da 9f3c 628a eabd
00000090: 5b15 6dbd 8799 cbbd 32b9 ae3d 933f 063e
000000a0: 753d e43d 74ad 4bbb 7d2c 243e 90a7 77bd
000000b0: 0d6e e2bc 339a cd3d 967f 9a3d f20b 293e
000000c0: 56c4 163e e706 dc3d b7ea 863c a2fb 0d3e
000000d0: 2849 ce3d f8e7 943d 4bd0 c4bd 3f51 9fbd
000000e0: b51e 29bd 8abf b23d 13a9 bbbd ed0b b9bd
000000f0: 43c2 19be 39e9 0abe 97ab 98bc caa7 573d
00000100: ac9e 1f3d 58ed e8bc 3cc7 0bbe 4933 6fbd
00000110: 7654 a93d 9de5 b2bd ac6d bc3d f697 9cbb
00000120: 90c6 583d 80a5 a1bd c6cb 223e 2dfb d2bb
00000130: bd43 43bb dba4 efbc c50e ba3d 884b c13c
00000140: f856 2ebc fbb7 063c 19da 83bd 967d 82bd
00000150: 82b7 433d 894b 45bd b936 e3bd 50da 023e
00000160: 09fd aabb e8d7 be3d 6a39 bbbc 5d30 21bd
00000170: d3cc 303c a0fd d83d d593 153d 8a4c 003e
00000180: cadb e4bd de63 dbbd f6f5 8dba f847 843d
00000190: 42c5 193e 6ebb 49bd 0e22 0bbe 4364 0c3d
000001a0: f308 12bc 1557 923d 6c58 353e bf24 babd
000001b0: 24d8 d43c 63bf 693d 6bb0 bdbd 2444 7ebc
000001c0: c8e3 b23c 2323 233d ecb9 45bd bb90 4f3d
000001d0: 6f5e 66bd 4b6b 38be 1dd8 783d 1c29 d3bd
000001e0: 9fc9 a5bd 2bca d9bd b77c f4bd 477f db3c
000001f0: 9d53 863d 4c46 e53c b98b 3e3b f337 edbd
00000200: 6b3d 59bb 2519 1c3e c281 a2bd 98f8 a53d
00000210: 0510 f23d e830 2e3e 1bf5 b2bb a144 dd3d
00000220: c9ba 093e f439 62bd 7d0b c03d d30f c6bc
00000230: 1b0c 163e 610c a9bd 24fb 723c c397 89bc
00000240: d5e5 393e d7ef cfbd 6e6b 86bd df60 bfbd
00000250: 2ce8 cbbc 3219 8cbc 4138 28bd 1a62 863d
00000260: 33cb e0bd bff4 163d d2ab 1ebe 421c 163e
00000270: b0de f73d 44ae 9dbd c244 803c 7855 d53d
00000280: 080a 76bd 0f7a b6bd eefa 5fbc ed64 2ebe
00000290: 0d76 c33d 2248 e8bd 6aea 783d 3422 b93d
000002a0: d53f 04be 29da c73d 331f b9bd 0b35 683d
000002b0: f45c 9b3d 663b d03d c272 a4bd 37d6 3abe
000002c0: 9b78 a6bd 7733 c13d 7bab 4abd 031d 813d
000002d0: 60d3 493d 6489 013e db21 cdbd fb9b 8a3d
000002e0: 973a 153d 387c 083d 99bd ea3d b7e1 cdbd
000002f0: c2b9 56bd 80af c3bd a538 2e3d ef8b 883d
00000300: bda0 46bd f3d6 39bd af3a 67bd 863b 55bd
00000310: 71ae 143e 15bb 963d 55e9 6d3d a8ef 243d
00000320: 1ed7 63bd ca6c 82bd 4d13 2c3e 9195 353e
00000330: 0c2b b33d 0d62 8d3d ebae e8bd b5b0 e03d
00000340: 01e4 5ebd 13b6 bfbd 3774 51bd 801c 34bd
00000350: e3b0 4d3d 1561 9dba 3ade 0fbe 0333 e2bb
00000360: fa14 07bd d1bf b03d 3da1 8c3c 5b37 8d3c
00000370: f74e 863d d8df da3d 4fa1 d93c fd20 0dbe
00000380: fbf7 12be 5ff7 97bc bcef b53d faef b4bc
00000390: 52ee dabd 32e0 f73d 393e cabd cf99 10be
000003a0: c995 0cbe 21ea 223d 407a 9dbd dfbb 20be
000003b0: 59f5 103e 717d 783c 9982 3e3d cd3e ffbc
000003c0: dea3 1e3e d637 123d 2af7 41bd 5659 933d
000003d0: fec8 2bbe d18d 0abe 3ffa e43d 856a 113e
000003e0: a253 05be 07d0 a7bd fb7b d2bd 0d68 c3bd
000003f0: 34d9 45bd 077e 743d 1c8d f93d 1f03 1fbd
0.17618665 -0.09898147 -0.054892343 0.014157146 0.07468655 -0.107205115 -0.0052705077 0.10578764
0.12608996 0.014039819 0.12027574 -0.070536 -0.06257258 0.054775227 0.09898454 -0.113117956
0.05259062 0.08911189 0.091841124 0.089025825 0.108416334 -0.16212887 -0.10562591 0.13038716
-0.10641256 0.009486757 0.041552544 -0.11094887 0.15999278 -0.103508614 -0.15371495 0.028019533
-0.106922165 0.10518185 0.019513557 -0.11452176 -0.057881694 -0.099413924 0.08531417 0.13110189
0.111445345 -0.0031078728 0.16032596 -0.060462534 -0.027640367 0.10039177 0.07543866 0.16508463
0.14723334 0.10743504 0.016469343 0.13865522 0.10072547 0.07270807 -0.09610041 -0.07779168
-0.04128905 0.087279394 -0.09163108 -0.09035478 -0.15015511 -0.1356553 -0.018636508 0.05265025
0.03896968 -0.028433487 -0.1365022 -0.05839852 0.08268063 -0.087352015 0.09200606 -0.0047788573
0.05292374 -0.07892895 0.15898046 -0.006438634 -0.0029795014 -0.029253414 0.09084848 0.023595586
-0.010640852 0.008222575 -0.06438083 -0.0637161 0.04778243 -0.04816774 -0.11094422 0.12778592
-0.0052181524 0.093185246 -0.022854526 -0.039352763 0.010791021 0.1059525 0.036517937 0.12529197
-0.11174734 -0.107124075 -0.0010830748 0.064590394 0.15016654 -0.049251013 -0.1358721 0.034275305
-0.0089132665 0.07145516 0.17709512 -0.0908904 0.02598197 0.057067286 -0.09262165 -0.015519176
0.02183713 0.03982843 -0.048273012 0.050675135 -0.056242403 -0.18009679 0.060752977 -0.10310575
-0.08095097 -0.106342636 -0.1193785 0.026794089 0.06558917 0.027987622 0.002907498 -0.11582937
-0.003314818 0.15243967 -0.079349056 0.08104056 0.11819462 0.17010844 -0.0054613478 0.108041056
0.13450159 -0.05523105 0.09377191 -0.024177467 0.14653055 -0.08254314 0.014830384 -0.016795998
0.1815408 -0.10153168 -0.06563459 -0.093446486 -0.024890982 -0.017101858 -0.041069273 0.0656168
-0.10976257 0.0368545 -0.15495232 0.14659217 0.12103021 -0.07699254 0.015657786 0.104166925
-0.06006816 -0.089099996 -0.013670666 -0.17030688 0.09544001 -0.11341883 0.06077043 0.09039727
-0.12914975 0.097584076 -0.09039154 0.05669121 0.07586089 0.10167579 -0.08029701 -0.18245779
-0.081284724 0.09433644 -0.049479943 0.06304362 0.04927385 0.12650067 -0.10016223 0.06768032
0.03643283 0.03332159 0.11461944 -0.10052817 -0.052423246 -0.09554958 0.04253449 0.06667315
-0.048493136 -0.045371007 -0.05645245 -0.05205872 0.14519669 0.07359902 0.05808385 0.040267617
-0.055625074 -0.06368406 0.16804238 0.17732836 0.08748445 0.06903467 -0.11361488 0.10971204
-0.05441666 -0.093609 -0.05113622 -0.043972492 0.05021752 -0.0012007082 -0.14049616 -0.0069030537
-0.03297899 0.08630336 0.017166728 0.01723831 0.0655803 0.10687226 0.026566176 -0.13782115
-0.1435241 -0.018550573 0.08883616 -0.022087086 -0.10689987 0.12103309 -0.09875149 -0.14121173
-0.13729014 0.039774064 -0.07689333 -0.15696667 0.14156093 0.015166626 0.046511266 -0.031157875
0.15492198 0.03569778 -0.047354855 0.07194774 -0.16775891 -0.13530661 0.11180543 0.1420079
-0.13020185 -0.08193975 -0.10277554 -0.095413305 -0.048302844 0.0596905 0.121851176 -0.038821336

encoder.layers.0.self_attn.in_proj_bias f4 [192]
00000000: 33c6 f43c 6ff6 d2bc 24a9 da3c 267f cebc
00000010: f807 02bd 75b7 c03c 3d3e f9bc cb97 e03c
00000020: e10e f6bb 6cd3 80bb 4a91 22bb c0a0 0d3c
00000030: 138d 5bbb 1b46 d63a 41f8 3c3b b4af 053c
00000040: 6a0b a2bc dbf3 843c 1c36 97bc 3319 81bc
00000050: c096 733c 871b 763c 267e 8d3c fe93 1b3b
00000060: 664f 7bbc f2a0 143c e85f f93b d0b3 57bc
00000070: 1970 6cbc 5bb7 4a3c 9216 96bc 131a 7b3c
00000080: 34b8 7dbc 6b7a 5b3c 83e0 94bc b60d c9bc
00000090: 3c08 9e3c 0907 ac3c 4b04 92bc 70ed b23c
000000a0: 6b52 c5bc 8342 b5bc 97eb 98bc 8f1c 253c
000000b0: 1ec6 9e3c 1328 ae3c 6ec2 093b 546b a53c
000000c0: 2c9e 6abc 278f bbba bcb5 013c 3d3c 473c
000000d0: e8c9 173c 2220 5fbc 0224 bcb9 ccd4 2a3c
000000e0: 9d38 843c 6d5a 5a3c c24e b73b 7d44 5f3c
000000f0: 629c 39bc 0fe5 3dbc d7bb 59bc 6d67 943c
00000100: 8f9b 2e3b 5085 073b fd17 49bb 3910 ae3b
00000110: 3738 4b3b a32c 56bb 29a6 c63b a4a4 86bb
00000120: 718a e83b 69ac fa3b c39a 813b 408b 21bc
00000130: b132 573b bb38 8ebb 56a4 87bb 438e bbbb
00000140: 2c96 d83a a8fd 6cbb 4d34 213c 655b e03b
00000150: 1070 07b9 d475 18bb 1dc0 1bbc 1343 fcba
00000160: 582a 753b 3ee9 d7ba b100 8c3a e977 7a3a
00000170: 3345 1b39 46d0 6e3a 558b d23a 1e6e c839
00000180: 7e32 373a 755a f5b9 d42c ed3a 0446 c339
00000190: 66e7 46b9 09b4 04bb 32ec 9f39 bff3 d0b9
000001a0: 6c91 beb8 83c3 2337 7531 d639 f01e 0aba
000001b0: e678 503a afb4 aa3a 51f7 2bba c0fd 1b39
000001c0: 5c31 4c39 f678 f2b9 f2fa c2b7 4c52 55b9
000001d0: abf4 3eba 021a 46ba 8eb2 b4b8 bbc7 233a
000001e0: 661d 8d3b fdf8 5abb 6720 813b ba93 593b
000001f0: d36f 803b e7f1 b83b 619e 023b 1bbf 29bb
00000200: 5968 eebb 75fd 283c dcdc 3c3c 0622 a8ba
00000210: 3953 fd3b 38ae 083c 2f02 59bc 4bd7 0e3c
00000220: a7ac 92bc 686c 753c 5ba9 2d3c ee6a 273c
00000230: cda0 98bc e219 d53b fd00 d83c cb31 48bc
00000240: c04e dc3c 2886 a6bb a85c 9bbc 8ee4 8e3c
00000250: 348f c93a 1bb8 d7ba 2f2b 183c ee21 12bc
00000260: f81a f6bb 271c 603c 1af0 7abc 1589 c93c
00000270: 62ae 2cbb 5a08 e7ba 3127 4e3b d7d4 2abc
00000280: 3c8b 96bc 00c9 2abc 6a01 c9bb 03bd ac3c
00000290: ab42 42bc 4ef8 40bc a12b 37bc 0495 aebc
000002a0: 0ccc 01bc ffbd 95bc fffc 8bb9 ea72 1fbc
000002b0: 643e 70bc 43e0 6bbc bea6 2cbc 8ea6 f2bb
000002c0: 63b4 e63b 3487 f4ba a702 2a3c 0216 923c
000002d0: 0ea5 bb3c 831e a53b 1ee8 393c a196 a9bb
000002e0: 1cac 61bc d8a0 7ebc 5e57 753c 885f 283b
000002f0: ade4 64bc d77f a93c 8acf 673c eb8c 0e3c
0.029879665 -0.025752274 0.02669198 -0.025207113 -0.03174588 0.02352498 -0.030425185 0.02741613
-0.007509098 -0.0039314535 -0.0024805837 0.008644283 -0.0033500835 0.0016347797 0.0028834494 0.008159567
-0.019780833 0.01622956 -0.018458419 -0.015759086 0.014867485 0.0150212115 0.017272066 0.0023739333
-0.015338754 0.0090715755 0.00761031 -0.013165429 -0.014431023 0.012372817 -0.01832131 0.015326041
-0.015485812 0.013395886 -0.018173462 -0.02454267 0.019291036 0.020999448 -0.017824313 0.021841735
-0.024087152 -0.022126442 -0.018667025 0.01007761 0.019381579 0.021259343 0.002102043 0.02019278
-0.014319938 -0.001430963 0.007916864 0.012160358 0.009264447 -0.013618501 -0.00035884982 0.010426711
0.016140277 0.013327223 0.0055941055 0.013627169 -0.0113287885 -0.011590256 -0.013289413 0.018115724
0.0026643013 0.0020678826 -0.0030684464 0.0053119925 0.0031008848 -0.0032680414 0.0060622883 -0.004108982
0.0070965816 0.0076499474 0.0039552166 -0.00985986 0.003283661 -0.004340259 -0.0041394634 -0.005723746
0.0016524247 -0.0036161933 0.00983913 0.0068468326 -0.0001291635 -0.002326359 -0.009506253 -0.0019246064
0.0037409272 -0.001647271 0.0010681358 0.0009554611 0.0001480773 0.00091100147 0.0016063253 0.00038229016
0.000698842 -0.00046797437 0.0018095025 0.00037245464 -0.00018968954 -0.002024891 0.00030502822 -0.00039854457
-9.086993e-05 9.761078e-06 0.0004085411 -0.0005268892 0.00079525856 0.0013023819 -0.00065599853 0.00014876481
0.00019473344 -0.0004624796 -2.3243458e-05 -0.00020343921 -0.0007284383 -0.0007556976 -8.616327e-05 0.00062477187
0.004306483 -0.0033412569 0.0039406302 0.0033199624 0.0039195805 0.0056440714 0.0019930827 -0.0025901261
-0.007275623 0.010314335 0.011527266 -0.0012827523 0.007730868 0.008342318 -0.0132451495 0.008718322
-0.017904593 0.014979459 0.0105994595 0.010218365 -0.018631363 0.0065033296 0.026367659 -0.012218903
0.02689302 -0.0050819106 -0.01896508 0.017442968 0.0015377761 -0.0016458066 0.0092876395 -0.008919222
-0.007510539 0.013678587 -0.015316034 0.024601499 -0.0026349057 -0.001762639 0.0031456465 -0.010426722
-0.018376939 -0.010423899 -0.006134202 0.021086222 -0.011856715 -0.01177795 -0.011179836 -0.02131129
-0.007922184 -0.018279074 -0.00026700643 -0.0097319875 -0.014663313 -0.01439673 -0.010537801 -0.007405109
0.0070405467 -0.0018656016 0.010376609 0.01783276 0.022905853 0.0050390377 0.011346845 -0.005175427
-0.013773944 -0.015541278 0.014974443 0.0025691707 -0.013970536 0.020690842 0.014148602 0.00870059

encoder.layers.0.self_attn.out_proj.weight f4 [64, 64]
00000000: af8b 93bc b6c1 b13d 0372 553d b4a9 103d
00000010: 3418 d8b8 111a abbd 6dcd 81bd 59a0 1e3d
00000020: e23f fd3d 9c76 753d f5ab bfbc 8405 c03d
00000030: 2b59 bbbd f55c 49bc b79e a13d 0595 e53d
00000040: 0239 d2bb 94af c33d 7eb4 b5bd c8a3 0d3d
00000050: d6b5 9cbc fe97 01be 59f5 6ebc fd33 0ebe
00000060: 963d ffbd 07f3 f53d 5150 033e 9de9 e23d
00000070: e38e fdbd f6b8 983b e284 7bbd 9b5b f9bc
00000080: f191 e63d 6a3c 11be c686 a7bd ac97 a73d
00000090: 76dc 293d 1021 293d 883a fbbd c1ed aabd
000000a0: 5375 ebbd 84b6 c83c f03b ba3d 1942 dabd
000000b0: 4858 61bd f90c 8b3d 1983 e3bd 1aa3 aa3d
000000c0: 7065 d83c 8e60 e1bd 4eb3 0d3e 6329 16bd
000000d0: 3289 283c 5857 3e3d b2a2 133d 1a80 25be
000000e0: c091 7d3b 8348 fd3c 5c59 aebb 0696 c8bd
000000f0: 14e3 453d 1312 a43d 467c c03d d278 bf3d
00000100: f895 88bd ce76 c0bc 89c9 253d 5012 66bd
00000110: eec4 afbd 0dfa c83d 9f11 79bd 33c0 43bd
00000120: ae88 823d 3ab1 e1bc 2631 913b 836f bdbd
00000130: 23ee d03d a9ff 93bd 7c27 72bc 59e7 87bd
00000140: 5fae 673d bd9f 63bd ab96 44bd adfc ecbd
00000150: c11b 9dbd a5cb bfbd 7974 88bd ae61 08be
00000160: c756 b5bd 26a6 a73c 3a2e 77bd 805b f4bc
00000170: 6e39 09be 9cb3 3bbd b158 3c3d 7c89 12bd
00000180: cefd e9bd d6c8 e9bd 25be 443d 10d6 d73d
00000190: 259a 33bd 161b 113c 50f2 50bd a492 d7bc
000001a0: 7596 253b cb26 04be d300 073e 7722 b1bd
000001b0: 3061 c43c 5d7e 853d e7c5 8ebd 5da6 c93d
000001c0: 81b7 a6bd 5474 53bc 4343 85bc 60f4 2ab9
000001d0: 5c77 8a3d 6472 173d af7d 363d 2939 1cbd
000001e0: 7462 abbd b35f 54bd ef61 9ebc c98a 2abd
000001f0: 00a7 3cbd 94c3 3fbd a64d 4b3d a578 a53d
00000200: a261 cfbd 7969 c23d e113 bdbd 229f 92bc
00000210: 7cc8 903d a212 5c3c 8266 813d 3d7c 65bd
00000220: 7e13 81bd 3b01 90bd 74b7 e23d 7a8e 9dbd
00000230: af44 f3bd 242b e23c 343b 05bd 6e3c fdbd
00000240: 4057 6d3d 6110 62bd 263b 76bd c312 873b
00000250: e4c2 883d ef75 ec3c 3499 11bd 78b4 233d
00000260: 4919 543d d78d 67bd 44b2 2ebd 3029 a43d
00000270: 10bf d7bd ae94 3439 3cdf 0f3d 516c e9bd
00000280: 21ba e93d 70d0 873b dde6 0a3e 0a6d 3b3d
00000290: 81e1 6e3c 6045 e0bd 95b5 07bd 3c0c 103d
000002a0: 7660 0ebe 1845 23bc 8f9d aabd cfdb a0bd
000002b0: 53c5 2cbe a66f 053d e053 a9bc fc0c 643d
000002c0: 50ca 973c 08aa 54bd e323 9dbd 0674 f5bd
000002d0: 94b4 3cbd 0482 febd 6009 b0bb 3405 50bd
000002e0: cefa 6d3d 5828 0bbe 4929 f73c b35f 31bc
000002f0: 903d d13d 9bca 5fbd 86c6 a5bd f17f f4bd
00000300: 543e 3a3b d0ff fcbc 15b0 5fbc 62c8 003e
00000310: 4799 94bd 6d9d 3f3d 7540 f43d 0625 06bd
00000320: 1337 84bc 0a49 adbb 5387 36bd 36e6 f4bc
00000330: 3319 1bbc 23db e53c 7c3c cfbd ded3 a93d
00000340: 480f f5bd 3d8a 80bd 2422 cdbd 04c3 00be
00000350: 04d0 2a3d c3c8 563d 664d f83d 8f7e 99bd
00000360: 4389 fe3d 57dc ac3b 2552 8abd 8fce 943d
00000370: f3dc 8b3b a678 a4bd 43ac 6ebc 2db8 98bb
00000380: 0644 253d e410 30bc e4cf a5bd 9904 973d
00000390: 0100 dd3d 9d19 083e 69fb b9bd 3e75 8f3d
000003a0: 63d6 b03d 1b46 953d 8943 d03d 8b94 4fbd
000003b0: f43a 75bc 66e9 873d 06f2 043d 4599 8d3d
000003c0: 660a 1d3d 8225 bcbd 1561 afbd 4a8b fc3c
000003d0: ecd2 39bd 318a 3a3c 88c7 83bd 67f4 663d
000003e0: cc4c 5fbd f478 94bc 1fb2 3d3d 9bb3 6c3c
000003f0: 108c 3fbd db33 b1bd 1b32 96bd 340a ae3d
-0.018010942 0.086795256 0.052110683 0.03531809 -0.00010304191 -0.08354581 -0.0633801 0.03872714
0.123657 0.059927568 -0.023397425 0.09376052 -0.09147867 -0.012290229 0.078916006 0.11210064
-0.0064154873 0.09554973 -0.08872317 0.034580022 -0.019129675 -0.12655637 -0.014584863 -0.1388702
-0.124629185 0.120092444 0.12823607 0.110797144 -0.12380769 0.004660721 -0.061406024 -0.030439189
0.11258305 -0.14183202 -0.08180003 0.08183226 0.041470014 0.041291296 -0.12267023 -0.08346129
-0.11496987 0.024501093 0.090934634 -0.106571384 -0.055015832 0.06789584 -0.11108989 0.083318904
0.026415557 -0.110047445 0.1383793 -0.036660563 0.010286616 0.046470016 0.03604383 -0.16162148
0.003869161 0.030918365 -0.005320711 -0.0979424 0.04831226 0.0801126 0.09398703 0.093492165
-0.06669229 -0.02349415 0.040475402 -0.056169808 -0.08582483 0.098133184 -0.06080782 -0.047790717
0.06373726 -0.027550329 0.004430908 -0.09249785 0.10201671 -0.07226498 -0.014779922 -0.06635923
0.056562778 -0.05557226 -0.04799525 -0.115716316 -0.07671309 -0.09365014 -0.066628404 -0.13318512
-0.08854442 0.020464968 -0.06034682 -0.029828787 -0.13400814 -0.045825586 0.04598302 -0.035775647
-0.114253625 -0.114152595 0.0480329 0.10538876 -0.043848176 0.008856555 -0.051012337 -0.02631504
0.0025266681 -0.12905423 0.13183908 -0.08649152 0.023972124 0.065182425 -0.069713406 0.098461844
-0.08140469 -0.012906153 -0.016267424 -0.000163035 0.06761047 0.036974326 0.044553455 -0.03814045
-0.08368388 -0.05184908 -0.019333808 -0.041636262 -0.0460577 -0.046817377 0.0496346 0.08079652
-0.10126044 0.094927736 -0.09232307 -0.017898146 0.07069489 0.013432177 0.0631838 -0.056026686
-0.06302546 -0.07031485 0.11070147 -0.07693191 -0.11878335 0.027608462 -0.032527164 -0.12365042
0.057944536 -0.0551914 -0.060115002 0.0041221096 0.066777974 0.028864829 -0.035546497 0.03996703
0.051781926 -0.056531753 -0.042650476 0.080156684 -0.10534489 0.00017221525 0.035125002 -0.11397613
0.114124544 0.0041447207 0.1356463 0.045758285 0.0145801315 -0.10950732 -0.033132154 0.035167918
-0.13903984 -0.009965204 -0.08330833 -0.07854425 -0.16872148 0.03257718 -0.020669878 0.055676445
0.018529087 -0.051919967 -0.076728605 -0.1198502 -0.04607065 -0.12427142 -0.0053722113 -0.050786212
0.058100514 -0.13589609 0.030171053 -0.010826039 0.1021682 -0.05463658 -0.08094506 -0.119384654
0.0028418498 -0.0308837 -0.013652821 0.1257644 -0.07255798 0.046780992 0.11926357 -0.032750152
-0.016139543 -0.005288248 -0.04456265 -0.02989493 -0.009466457 0.028058594 -0.10118958 0.082923636
-0.11965805 -0.06276367 -0.100162774 -0.12574393 0.041702285 0.052437555 0.121241376 -0.07494842
0.12428524 0.00527529 -0.06753949 0.072659604 0.0042682826 -0.08030824 -0.014567438 -0.0046606273
0.040348075 -0.010746215 -0.080962926 0.07373924 0.10791016 0.1329102 -0.09081156 0.07004784
0.08634641 0.07288762 0.10169131 -0.05067877 -0.014967669 0.06636314 0.032457374 0.069139995
0.038339995 -0.091868415 -0.08563439 0.030828137 -0.045367166 0.011385486 -0.06434542 0.056385424
-0.0545166 -0.018124081 0.046312448 0.014447118 -0.046764433 -0.08652469 -0.073337756 0.0849804

encoder.layers.0.self_attn.out_proj.bias f4 [64]
00000000: 36a2 38bb 8e7e 4e3c 75d6 c33b e013 54bc
00000010: ddbc 39bb 00b0 65bb 33be 9f3c b08b ae3c
00000020: f3b1 d73c bde2 533c 5b20 80bc ce8e 8cbc
00000030: 1c42 103c 0c70 c03b 4830 303b 53bc 703c
00000040: 228d 093c 7e31 a3bb 029a 94bb d667 f5bc
00000050: 9d67 89bc bff8 8e3c ae0f 23bc 0eaa 933c
00000060: 993b bc3a 4fc2 d5bc 8085 003b a8c4 8fbc
00000070: 3ab6 b5bc 13bf bfbb e1ec 963b dd42 af3b
00000080: 9c84 73bc d345 09bc 12d9 113c ccd6 dbbc
00000090: 3434 6fba 669f 9f3c c841 a83b bbdd e3bb
000000a0: 3ef0 453c 2456 b83c d1a0 93bc cc2e 57bc
000000b0: 859c 903b c62d 52bb 58b8 9dba 7a04 3d3c
000000c0: 7cab 91bc 78f3 e1bb 74c0 c53c a802 c53b
000000d0: e0f4 3b3c 07b6 aa3c 0c0d b13c 514f d8bb
000000e0: 7efa ad3c 5aee 0e3c b6d5 0ebc 88b5 8abb
000000f0: a351 f23b 2230 83bc b323 723b cb67 9fbb
-0.0028172857 0.012603415 0.005976493 -0.012944192 -0.002834133 -0.003504753 0.019499874 0.021306843
0.02632997 0.012932477 -0.015640428 -0.017157938 0.008804824 0.005872732 0.0026884247 0.0146933375
0.008395465 -0.004980265 -0.0045349607 -0.02995674 -0.01677304 0.017452596 -0.009952469 0.018025424
0.0014361023 -0.02609363 0.0019610822 -0.017549828 -0.022181619 -0.0058516352 0.004605875 0.005348547
-0.0148631595 -0.008378464 0.008901851 -0.026835822 -0.00091249053 0.019485187 0.005134795 -0.0069539226
0.012081204 0.022502013 -0.01802102 -0.013133716 0.00441319 -0.003207074 -0.0012033088 0.011536712
-0.017781965 -0.006895479 0.02413962 0.0060122795 0.011471957 0.02083875 0.021612667 -0.006601252
0.021237608 0.00872382 -0.008717945 -0.004233066 0.0073949858 -0.016014162 0.0036947548 -0.004864668

encoder.layers.0.linear1.weight f4 [128, 64]
00000000: caac 23be 26c0 dcbd 7a28 523c 4e91 b73d
00000010: 82ae e63d aa21 87bd 8b6d b4bd 9bef 8cbd
00000020: 9cb6 4dbc ac8c 823c 90d0 8dbb 2281 c2bd
00000030: 6f8a be3c a62f 073e 8f25 5fbd 74d2 07be
00000040: a503 0dbe 98c9 a2bd 07ef 1cbe 3ef5 68bd
00000050: c116 f63d c209 9dbd f508 24be 66c3 75bd
00000060: 8711 da3c 40e2 65bc a9a0 62bd 2c73 153e
00000070: bdd7 0c3e c615 be3c 7a64 80bd dc7a 67bc
00000080: 262c 07be b836 b43b ab8a 94bd b218 03bc
00000090: 2784 d13d bb94 c43c 963f 08be 9b37 dd3d
000000a0: d6b3 e0bb 9df2 d53d dcc4 0c3e 59b6 5c3d
000000b0: baac 983d eb98 093e 5c98 f73d d534 a33d
000000c0: a852 9c37 794f 13bd 0386 043e 97ce 23be
000000d0: 75dc 07bd 4ab8 303d 05cf 4cbd 3af0 1a3e
000000e0: 4808 26bd ad4d 853c d984 fabd 581d e63c
000000f0: 8527 2f3e 9daa 66bc b80a 44be c363 7a3d
00000100: 6205 303d 13a6 d13c 8b08 56bd 2cff 9cbd
00000110: dcbb 373c 2146 08be 7e3b f8bd 61ba f4bd
00000120: bea3 9bbd 30f5 b6ba 24db 1b3d 8b96 a63d
00000130: b888 7a3d 2bb4 943d 23e8 983d b52f 07be
00000140: 3fff f0bb 754e 83bd 3849 5b3c d9c4 d0bd
00000150: 2368 973d 3ce8 993d 41e6 cdbd 3849 153d
00000160: abaa b83d 6a6c 943b 45a4 503d 0090 893d
00000170: fd79 8e3d 6277 563d 6398 82bd edfa db3d
00000180: 0db3 9abc 3e9a 8b3d cfa0 bc3c b800 e73d
00000190: c978 133e f66c 9abd 8b2c 913d 4659 68bd
000001a0: 0e5f 523d 1e1f 03bd bd44 c4bd a42c ddbd
000001b0: 27d9 aa39 dc7b 133a 4275 323e cddc 0b3e
000001c0: d340 f23d cddf ebbd 151e 9f3d 4365 65bd
000001d0: 5e22 843d 3694 ab3d 4b51 74bc c0a2 7c3d
000001e0: 31e4 4ebd c4c7 bc3a 593d 01bd 3488 233e
000001f0: 664a 863d 98af 06be e381 7abd 30a0 cbbc
00000200: e291 6abd 1b03 04bc ef0b 6f3d e070 c7bc
00000210: 5468 fabc bf33 af3d 2e90 b7bd 91cc 173d
00000220: 3932 8d3d 3382 f2bc e0d5 eb3d cc7b 333d
00000230: b062 94bd 0bd3 5d3c 4cf8 d2bd 96e2 0b3d
00000240: 5706 f3bc c7ff 7e3c cfb7 04bd a0cb 95bd
00000250: 9101 063d 9dc3 063e ce21 86bc 42be 9abd
00000260: b24a 803d ede2 e13d 2fb7 ccbd 5f0b 563c
00000270: 4d26 453d d3a3 5c3c 8f20 87bc ef45 c6bd
00000280: f33e 99bd 576b ea3d 1cec d6bd 37b2 31bd
00000290: 7a0d 5cbd 0816 733c 6c56 7c3d d275 02be
000002a0: 40ed ca3d f314 1ebd 0db1 e3bd 73fe c5bc
000002b0: 3e29 c2bd bdcb f43d 214c 763d 3510 4cbc
000002c0: 050e 88bc 0dd0 c8bc 366c e33d 51ea 6fbd
000002d0: af5c e6bd 62fc 003d 04ff ba3c def1 a43d
000002e0: 3e40 86bc cc1d 023e 7823 17bd 3a3f 82bd
000002f0: 72ca 6ebd 3ba5 213d d87f bf3d 436a bebd
00000300: 6ed9 9bbd 4301 aebd 5a82 3bbd 3788 e63c
00000310: eaae ec3d e20d 06bd bdb8 36bd 864c 25bd
00000320: a958 b23d 9c79 4bbc dd73 713c 945a 463c
00000330: bf1e 0ebe 4359 833d 3d04 1abc d824 54bc
00000340: 6568 6e3b 49a2 cfbd 7a30 a4bc b6e3 13be
00000350: e10b 4fbb c21f f53d 0f61 a0bd 2300 7e3d
00000360: 1413 463d 4b6c 73bd 8583 06be 0bf4 fbbd
00000370: e101 02be a30a af3d 584d 123e e5f2 7b3d
00000380: 4816 2bbe 2659 dd3d b4e1 d9bc a80b b6bd
00000390: ec77 21bc ae01 603d 8234 74bd ad7d b3bc
000003a0: cef3 1c3d 6da5 0f3b affb 71bd b3f4 643d
000003b0: 2337 10be 5d97 58bd 3064 86bd 5c2d c23d
000003c0: 0e46 f6bb 491e 963a 26d1 de3d eca5 e2bd
000003d0: 1c7d ac3d 38eb d1bc e652 2fbd 0ae7 46bd
000003e0: 583a 903c 004f 7f3d 96b6 61bd 391f a3bd
000003f0: d263 83bc c283 99bd 224c 19bd 1899 e4bd
-0.15983883 -0.10778837 0.012827033 0.089632615 0.112637535 -0.06598218 -0.08809956 -0.068816386
-0.0125557445 0.015936218 -0.004327841 -0.094972864 0.02325937 0.1320177 -0.054479178 -0.13263875
-0.13770922 -0.07948607 -0.15325557 -0.056874506 0.12016059 -0.07667877 -0.16019042 -0.0600008
0.026619686 -0.014030993 -0.055329 0.14594716 0.13754173 0.023203742 -0.062691644 -0.014128413
-0.13200435 0.005499687 -0.07253011 -0.008001493 0.10230284 0.023996701 -0.13305506 0.108016215
-0.0068573756 0.104466654 0.13746971 0.053884838 0.0745482 0.1343724 0.12089607 0.07969061
1.8635139e-05 -0.035964463 0.12941746 -0.15996777 -0.03316923 0.0431445 -0.050002117 0.15130702
-0.04053524 0.01627239 -0.1223237 0.028090164 0.17104919 -0.014078763 -0.19144714 0.061130296
0.042973883 0.025591886 -0.05225424 -0.07665858 0.011214223 -0.13308002 -0.12120722 -0.119496115
-0.07599591 -0.001395857 0.038050786 0.081341825 0.06116554 0.07260927 0.074661516 -0.13201793
-0.0073546465 -0.06411449 0.013384156 -0.10193796 0.073929094 0.07514998 -0.10053683 0.03644678
0.09016927 0.0045295255 0.05093791 0.06716919 0.06956861 0.052359946 -0.06376722 0.1074122
-0.018884206 0.06816529 0.023025898 0.11279434 0.14401545 -0.07540314 0.07088574 -0.056725763
0.051360182 -0.032012098 -0.09583423 -0.1079953 0.00032586718 0.00056260615 0.17427543 0.13658448
0.118287705 -0.11517296 0.077694096 -0.056004774 0.064518675 0.08377878 -0.01491196 0.061678648
-0.05051059 0.0014402797 -0.031552646 0.15969926 0.06557159 -0.13152921 -0.061159026 -0.024856657
-0.05726803 -0.008057381 0.05836099 -0.024345815 -0.030567326 0.08554792 -0.08963047 0.037060324
0.06894345 -0.0296031 0.11515403 0.043819234 -0.07245386 0.013539086 -0.10301265 0.034151636
-0.029666109 0.015563912 -0.032401856 -0.07314229 0.032716338 0.13160558 -0.016373541 -0.0755582
0.06264247 0.11029611 -0.09995877 0.0130642345 0.04813223 0.013466793 -0.016495017 -0.096813075
-0.0748271 0.11446255 -0.10494253 -0.04338285 -0.05372379 0.014836796 0.061605856 -0.12740257
0.09908533 -0.038594197 -0.11117754 -0.024169182 -0.094805226 0.119529225 0.060131196 -0.012455036
-0.016608248 -0.024513269 0.11104624 -0.05857307 -0.11248147 0.03149069 0.022826679 0.08053945
-0.016388055 0.12706679 -0.03689906 -0.06359716 -0.058298536 0.039464217 0.09350556 -0.092976116
-0.07609831 -0.084963344 -0.04577861 0.028141124 0.115568 -0.032728083 -0.044609774 -0.04035618
0.08708317 -0.012419131 0.014737097 0.012106556 -0.13878916 0.0641351 -0.009400425 -0.012948237
0.0036378142 -0.10138375 -0.020042647 -0.14442334 -0.0031592774 0.11968948 -0.078310125 0.06201185
0.048358038 -0.059429448 -0.13136108 -0.12302407 -0.12696029 0.08546951 0.14287317 0.06151094
-0.16707718 0.10808019 -0.026596881 -0.08888942 -0.009855252 0.054689102 -0.059620388 -0.021910513
0.038318448 0.002191867 -0.059077915 0.055897426 -0.14083533 -0.052878726 -0.06562078 0.09481308
-0.0075156754 0.0011453117 0.10879736 -0.11066803 0.084223 -0.025624856 -0.042803667 -0.04856018
0.017605945 0.0623312 -0.05510577 -0.079649396 -0.016038809 -0.07495834 -0.03742612 -0.11162013

encoder.layers.0.linear1.bias f4 [128]
00000000: 1c23 473d dc8e c2bb 2d8a 08be 70d3 af3d
00000010: e9f0 953d 2215 8abc d43a f8bc 88ff f4bd
00000020: 5474 b83d e0f1 1d3d 5d2a c93d a238 4a3d
00000030: f56f dabd f519 ad3d abf0 ffbd 6be5 57bd
00000040: c21d d63d 175a 1c3d 205a c43d d634 37bc
00000050: f693 b13d 0b71 a3bc 3b7b 8dbc cd64 e5bd
00000060: 2a39 27bd 21e6 173d dde0 edbd 9c49 4dbd
00000070: 07f0 70bd fb50 25bd 1df1 d33d 0578 823c
00000080: f562 303d c5ed 9cbc fbe3 8d3d 0890 16bd
00000090: f321 143d 3d35 543d 11f0 18bd 642b 9b3d
000000a0: ffbe 43bd cf01 7bbd 6fcf 6fbd ea10 f2bd
000000b0: 6f3e a43d 8ed7 fabd ea62 d53c 992d 00bd
000000c0: 47a7 b93d 5bad d1bd 952f f3bc 4428 4a3c
000000d0: 1145 d33d a637 d43b 0b13 05be 7472 383d
000000e0: 516d 4abd 72c7 253d 49a2 d53c 3feb 3fbd
000000f0: 60b3 1c3d 3604 35bd 1f2a 193d 4bb2 f83d
00000100: 7e3d 723d 860a 4b3c 718b 13bc 6927 37bd
00000110: fbd1 533d 7d44 a1bd a001 d63d a77b c3bc
00000120: 7ee9 5ebd 9d04 093d 6e57 e53d b952 d93d
00000130: b9e0 0cbd 157a 58bc 4b86 093d bca3 d4bd
00000140: 7431 9fbd 15da 5d3d a035 dc3d 0b48 e73d
00000150: 3a2c 4abc ff2e d2bd 62a0 95bd 3ec6 bf3a
00000160: 31c8 d3bc c3f8 23bd 81a2 a3bc b986 323c
00000170: 6df0 053d ae11 f0ba 1309 093e 89b9 e13d
00000180: d39a ae3d 8f7d cebc c5ab b73c 1097 27bd
00000190: fcc2 06bb f0e5 70bc a3bc fd3d b422 48ba
000001a0: e914 ea3d 0f0b 4a3c 6483 36bd 28ae 2d3b
000001b0: c129 473d 8353 8b3d a99e ca3d b3f7 c83c
000001c0: cb3a 7bbd 44eb 0d3e 4cb3 0cbd 4f24 523d
000001d0: 30f8 efbd a4b6 d1bb e7fe 92bd 4a6c 7abc
000001e0: 3e31 efbc 5936 fd3d fe04 56bd af9b 0fbd
000001f0: 1e76 603c b79b cc3d d00a d4bd 53f8 71bc
0.048617467 -0.0059374403 -0.1333396 0.085852504 0.073213406 -0.01685578 -0.030301489 -0.11962801
0.09006563 0.038560748 0.09822533 0.049370416 -0.10665885 0.084522165 -0.12497076 -0.052709024
0.104548946 0.038171854 0.095875025 -0.011182031 0.086707994 -0.019951364 -0.017270675 -0.11200867
-0.040826 0.037084702 -0.11615155 -0.050119027 -0.058822658 -0.040360432 0.10348723 0.01592637
0.043063123 -0.019156346 0.069282494 -0.036758453 0.03616519 0.051808584 -0.03733832 0.075766355
-0.04778957 -0.06128102 -0.058547433 -0.11819632 0.08019721 -0.12248145 0.026048142 -0.031293485
0.09065109 -0.10238143 -0.029685775 0.012338702 0.10315908 0.0064763604 -0.12995546 0.045031026
-0.04942066 0.04047341 0.02607836 -0.046855208 0.038257003 -0.04419347 0.037393685 0.12143382
0.059140675 0.012392646 -0.009005413 -0.04471532 0.051713925 -0.07874391 0.10449529 -0.023862673
-0.054421894 0.033451665 0.111983165 0.10611481 -0.034394 -0.0132127 0.033575337 -0.10382792
-0.07773104 0.054163057 0.10752416 0.11293038 -0.012339646 -0.1026287 -0.07305981 0.0014631224
-0.025852295 -0.04003216 -0.019974949 0.010896378 0.03269999 -0.0018315816 0.13382368 0.11021716
0.08525624 -0.025206355 0.022420773 -0.04091555 -0.0020562997 -0.014703259 0.12389495 -0.00076345657
0.114297695 0.012331738 -0.044558898 0.002650151 0.048623804 0.06803038 0.09893543 0.024532175
-0.061335366 0.13859278 -0.03435068 0.051304158 -0.1171726 -0.0063999463 -0.07177525 -0.015284607
-0.029198285 0.123638816 -0.052250855 -0.03506058 0.013700036 0.09990638 -0.10353625 -0.014768678

encoder.layers.0.linear2.weight f4 [64, 128]
00000000: 6e21 7a3d 9e87 52bc 5976 07bd fecd 253d
00000010: ef8b 86bd d9aa 0d3d 2df3 25bd b742 f8bc
00000020: d3df a7bd 6837 d03c 6913 d6bd f36a 82bd
00000030: 24c4 9cbc b137 aabc 9a1b 4f3d ac93 b43d
00000040: 7eb2 0dbd 4e50 853d 4f98 84bd d0ab 513c
00000050: 101f 8abc e13c 09bd b1a7 6cbd 85d1 1abd
00000060: 0c4d 103d 2bf3 89bd 0313 063d 8e38 943d
00000070: 52f4 20bd bf8b 64bd 4f3d 7bbd a69f bf3d
00000080: dc52 573d c51b 913d 3582 09bb bc59 a0bd
00000090: 7927 52bd 6482 8fbd d160 3ebd 8c30 66bd
000000a0: 8b6d 8fbc 4383 463c e167 efb8 5066 4fbd
000000b0: 678a 86ba 5d7d dbbc c75a 183d f3de 943c
000000c0: 49cd 74bd 51f6 c8b9 2a08 a03d db11 81bb
000000d0: 4afe 66bd 0679 313d ec3c 8abd c033 0dbc
000000e0: 0654 193d 396b 623d 3c43 3ebd c052 a7bd
000000f0: d197 59bd 177a 92bc 50c3 07bd d3ff a03d
00000100: 1778 a93d fa1c 9f3d 10c9 0ebd b2e0 023d
00000110: bdf2 99bd 28d9 76bb fdd4 fbbb 32aa 963d
00000120: 98f0 57bd df59 133d cdfa 803d acae 873d
00000130: d3ff 17bd 3362 8b3c dab2 573d 65b4 b0bd
00000140: d9bc 993d a6c6 4a3d a224 803d 6508 81bc
00000150: 311d 9fbd 77a4 ffbc ca31 80bd 8945 6cbd
00000160: c660 82bb 0b05 11bd 9c7d edbc 3ddb a3bd
00000170: 2aef e83b 4533 973b c399 f0bc 83fd ef3c
00000180: 4d3d ba3d 626e 963b 0a25 bd3d 2653 31bd
00000190: 1b17 953c 6ef2 173c d3fe a9bc a68a 05bd
000001a0: b897 39bd db2b 043b 2baf ba3d 48c7 94bd
000001b0: 5341 093d a5dd 573d c75f 283d 33bb c63c
000001c0: 0354 a2bc 8133 30bd 61fb 35bc a264 bd3d
000001d0: 61d1 f03a 814e 21bd 6b63 56bd 9ed6 533d
000001e0: fea9 20bc b769 91bd 8245 7ebd edc0 cbbb
000001f0: a1e2 acba 67c6 52bd 90bd e93c f592 e6bb
00000200: 13cb a93d bb45 633d 7f85 223d c158 0cbd
00000210: 84bc 313d 18cd 6ebd 0dfa a2bd d6f3 97bd
00000220: 8fe1 98bd 1fd8 9ebd c024 923d abd4 673d
00000230: 1f3c 213d 0676 e637 dc48 b53d c0ad 60bd
00000240: 7898 973d ea63 57bc 6921 843d 2999 053d
00000250: a61d 3b3d c0e5 97bd a2e4 623d 0555 81bd
00000260: e78d 393d 4bf9 febc 496a 6dbd e135 7d3d
00000270: 890e 5c3d 6b55 283c c83c 223c 1aa3 293c
00000280: 1f2c b13d 7597 60bd 5fc9 18bd 7e3e 9f3d
00000290: 478f 383d 3d98 52bb 6466 b5bd 7f8c fcbc
000002a0: c892 bfbd 6220 963d 29dd 97bd 4195 02bd
000002b0: d16f f5bc c01e f23c ab9a 393c 2c6a 7e3d
000002c0: c813 bb3c c1f5 a03d 415f fc3c 2782 0e3c
000002d0: 01c1 de3d af6a 543d e683 96bd d343 a8bd
000002e0: 6fc1 773d 5c5d e6bc 16cb a0bc e6e5 793d
000002f0: bc54 033d 4c56 a6bd 6bdf 9ebd 57f9 c63a
00000300: 24e4 d7bc 8794 f23c adfe 633d ce94 e5bc
00000310: 5f8a 8dbd 93e8 da3a f5db 503c 0b7d 893c
00000320: f51f 183d 5862 513d ebe3 47bd b11d 7cbd
00000330: 32b9 3c3c a88d e93d 994c 52bd c11e 8d3d
00000340: 1dde b83c 3e77 6cbd ed87 6abd 6f59 b43d
00000350: 4a15 123c 88f7 aebd fb65 9e3c 4a0a 7e3a
00000360: 9e16 99bd dba8 0cbc 9ea4 de3d 1431 3fbd
00000370: 866d a0bc c8bd 843d 9e6e de3c 723a a3bd
00000380: 638f 033c 6486 b1bd bb57 84bb ff77 413d
00000390: ee08 6c3d e215 f0bc c210 83bd 4231 53bd
000003a0: f806 56bd aa42 1cbd edec 5a3d 6156 82bd
000003b0: a48a 5abd 516b 9a3d 8bd6 4a3d 25c3 f6bb
000003c0: 79cb e1bc 0651 3a3d 6370 853d f6b8 4bbd
000003d0: b48b 8ebd d1dd 96bc b43a 4a3d 54a3 0a3d
000003e0: beb9 16bd e106 f43c 1c08 ac3c ea7b fbbc
000003f0: 2f89 18bc 0bea 823d 33c8 6ebd a63f 01bb
0.061067037 -0.0128497165 -0.03307185 0.040479653 -0.06569659 0.03458676 -0.040515114 -0.03030525
-0.08196988 0.025417045 -0.10452921 -0.06368055 -0.019136496 -0.020778509 0.050563432 0.08817229
-0.03459405 0.065094575 -0.06474363 0.012797311 -0.016860515 -0.033505324 -0.05777711 -0.03779747
0.035229728 -0.06735834 0.032732975 0.072373495 -0.039295502 -0.055797335 -0.061337765 0.093566224
0.052569255 0.07085375 -0.002098215 -0.078296155 -0.051307175 -0.07007292 -0.04647905 -0.05619864
-0.017508289 0.012116256 -0.00011415757 -0.050634682 -0.0010264636 -0.026793176 0.037195947 0.018172717
-0.059766088 -0.00038330493 0.07814057 -0.003938896 -0.056394853 0.043328308 -0.06749901 -0.008618295
0.037433647 0.055278037 -0.04645084 -0.0817008 -0.0531233 -0.017880483 -0.03314525 0.078612946
0.082748584 0.07769199 -0.034859717 0.031952567 -0.07517002 -0.0037666056 -0.0076853023 0.07356681
-0.052719682 0.03597438 0.062978365 0.06625113 -0.037109207 0.017014598 0.0526608 -0.086281575
0.07506723 0.049505852 0.06256987 -0.015751073 -0.0776924 -0.031206353 -0.062594965 -0.0576835
-0.0039788214 -0.0354052 -0.02899056 -0.08000801 0.0071085887 0.004614266 -0.029370194 0.029295688
0.090937234 0.0045907954 0.0923558 -0.043292187 0.018199494 0.009274108 -0.020751392 -0.03260293
-0.045310706 0.0020167741 0.09115442 -0.072645724 0.033509564 0.05270161 0.041106965 0.024259185
-0.01981545 -0.043017868 -0.011107297 0.0924771 0.0018372947 -0.039381508 -0.052340906 0.051718347
-0.009806154 -0.07100242 -0.062078007 -0.006218067 -0.0013190099 -0.051458742 0.028532773 -0.0070365616
0.082906865 0.055486422 0.039678093 -0.03426433 0.043392673 -0.05830106 -0.0795785 -0.07419555
-0.07464897 -0.077560656 0.07135916 0.0565993 0.039363977 2.7473096e-05 0.088517874 -0.0548532
0.07402128 -0.01314638 0.06451685 0.032616768 0.04568257 -0.07416868 0.055393822 -0.06315044
0.045301344 -0.031124732 -0.05796269 0.06181896 0.0537248 0.0102742715 0.009902187 0.010353828
0.086509936 -0.05483194 -0.037301417 0.07775591 0.045058515 -0.0032134198 -0.0885742 -0.030828713
-0.09354168 0.07330395 -0.0741523 -0.03188062 -0.029960545 0.029555678 0.01132838 0.062112972
0.02283658 0.07859374 0.03080714 0.008698023 0.10876656 0.051859554 -0.073493764 -0.082160614
0.060487207 -0.02812069 -0.019628089 0.061010264 0.03206323 -0.081219286 -0.07757457 0.001518051
-0.026353903 0.029611839 0.0556628 -0.028025057 -0.06911158 0.0016701393 0.012747754 0.016783258
0.03713985 0.05111918 -0.048801344 -0.061551753 0.011518763 0.11403972 -0.05134258 0.068906315
0.02256685 -0.057730906 -0.057258535 0.088061206 0.0089162085 -0.085433066 0.019335737 0.0009690864
-0.07475017 -0.00858518 0.10871242 -0.046677664 -0.019583475 0.064815104 0.027152356 -0.07970132
0.0080297915 -0.08668211 -0.0040387786 0.047233578 0.057625704 -0.02930731 -0.06399681 -0.051560648
-0.05225274 -0.038149513 0.053448606 -0.06364132 -0.053354874 0.0754 0.04952101 -0.0075305873
-0.027562844 0.045487426 0.06515577 -0.04973694 -0.0696024 -0.018416317 0.04937239 0.033847168
-0.03679823 0.029788436 0.02099996 -0.030698735 -0.009310051 0.063922964 -0.058296394 -0.0019721775

encoder.layers.0.linear2.bias f4 [64]
00000000: c582 2b3d a98f f2ba 359f 30bd 7475 93bc
00000010: 801b 033d 54ed 9fbd 5617 90bc 8d8a 7b3d
00000020: 0802 3f3d 67e9 a73d e747 93bb 89c7 80bd
00000030: b652 c83d bb0e eebc e35d 433d 9441 3ebc
00000040: a653 b43c 6afb 4fbb a42e d1bd 443c 36bd
00000050: a753 33bc 982f 44bd ae27 863d 74a0 35bc
00000060: dbfc 8e3d 1f05 5dbd 9556 26bd 66c5 bbbd
00000070: b473 adbd 39d8 23bc 3e18 c2bc 7daa b2bc
00000080: f40f 21bd 2116 883d 1b05 c43c b433 963d
00000090: 15ba 3bba 634b 81bd 5446 2b3d aca7 70bc
000000a0: 8eb6 823d 60cf 973d 707e 133d 717c 0bbd
000000b0: 1133 033c 4438 4abd d697 38bc 3c50 2cbd
000000c0: a304 8bbd d386 abbd baff 993d 06fe 1b3c
000000d0: 1ab4 463d 0604 503d 23ae ae3a dba1 8fbd
000000e0: ebff 323d 3d5a a73c 476c 443d 14ca 8c3d
000000f0: eb6b 653d 9aca 1dbd f326 0ebd 2ac8 a7bd
0.04187276 -0.0018505949 -0.04312058 -0.018000342 0.032008648 -0.078089386 -0.017589252 0.06141143
0.046632797 0.08198815 -0.0044946554 -0.06288058 0.09781401 -0.029059758 0.04769696 -0.011612315
0.022012543 -0.0031735548 -0.10213974 -0.044491068 -0.010945237 -0.04789695 0.06550537 -0.011085618
0.06981822 -0.053959962 -0.040609915 -0.0916851 -0.08469334 -0.010000282 -0.0236932 -0.02180981
-0.039321855 0.06644846 0.023928216 0.0733408 -0.0007161212 -0.06313207 0.041815117 -0.014688414
0.06382476 0.074126005 0.036009252 -0.034054223 0.008007781 -0.049370065 -0.011266669 -0.042068705
-0.06787994 -0.08375325 0.07519479 0.009521013 0.048511602 0.050785087 0.0013327043 -0.07013293
0.043701094 0.020428771 0.047954824 0.06874481 0.05601112 -0.038523294 -0.034705114 -0.08192475

encoder.layers.0.norm1.weight f4 [64]
00000000: 06bd 7d3f 0ee6 7e3f 63fd 833f acb0 793f
00000010: 26f6 7c3f a538 803f e73c 7e3f 569d 7d3f
00000020: aef4 7e3f 3f89 813f 71a1 813f 6a02 823f
00000030: b3e4 783f e78e 7d3f 8bc2 813f 4eaa 853f
00000040: 7a83 853f f023 7d3f 301f 803f 9aea 7b3f
00000050: c262 833f a859 7b3f 0ca5 833f e6ac 813f
00000060: 9850 803f 39ff 7e3f f21d 813f a961 813f
00000070: 1c49 803f b50b 823f 6307 7f3f 1309 803f
00000080: 0716 7c3f 459b 813f 8c17 7e3f 3878 7f3f
00000090: 8047 813f 1145 783f 753b 7d3f f574 823f
000000a0: 1283 7d3f c110 7d3f 4c11 7d3f ae02 803f
000000b0: b065 843f a300 813f 5c24 853f a4c6 823f
000000c0: c73a 803f f732 7d3f df7c 7c3f 0887 823f
000000d0: fbc4 7f3f 4217 813f 2c1e 7b3f 4371 803f
000000e0: 6d9e 7d3f 9a73 823f 13a0 7c3f 8ee8 853f
000000f0: 6a5f 7c3f 1441 813f 20dc 833f 579c 803f
0.9911655 0.99569786 1.0311702 0.97535205 0.9881309 1.0017287 0.9931168 0.990682
0.995921 1.0120009 1.0127393 1.0156987 0.9722397 0.99046177 1.0137495 1.0442598
1.0430748 0.9888296 1.0009518 0.9840485 1.0264513 0.9818368 1.0284743 1.013089
1.0024595 0.9960819 1.0087264 1.0107929 1.0022311 1.0159823 0.99620646 1.0002769
0.9847111 1.012551 0.9925468 0.99792814 1.0099945 0.96980387 0.9891885 1.0191942
0.9902812 0.9885369 0.9885452 1.0000818 1.0343533 1.0078319 1.0401721 1.021687
1.0017937 0.9890589 0.9862804 1.0197458 0.99909943 1.0085223 0.98092914 1.0034565
0.99069864 1.0191529 0.98681754 1.0461595 0.9858309 1.0097985 1.0301552 1.0047711

encoder.layers.0.norm1.bias f4 [64]
00000000: 4897 efbb 0a84 f93b e903 ab3a f2de 57bc
00000010: f698 a83c 9475 afba b49b 943c f3fc 0c3c
00000020: af83 733c 517c 3c3c 56a4 95bc 8d7f 62bc
00000030: 9bcc 1a3c 4692 243c fbbf c5ba ecb7 1c3c
00000040: d0c2 9a3b 61a0 04bc d60d 2abc 9c3a d7bc
00000050: 74dd 7abc 54d3 a73c cc4c 00bc 7d20 803c
00000060: cd34 1f3b 3744 dcbc 2eb4 253b 3519 07bc
00000070: e282 98bc 6f11 a6bb 1322 683c 34b4 303b
00000080: fed4 81bc 415c e4bb a6d1 4f3c d37e 44bc
00000090: 79a9 60ba 96ad 6d3c 0114 f3b9 b6aa 2ebb
000000a0: 8310 6c3c 7596 b03c 9a4f 41bc 6e52 87bc
000000b0: a43a ac3b fef6 c2bb dd07 aa3b 38b3 4b3c
000000c0: ce8a 45bc 1aa0 0abb 7aa9 b83c 2515 ef3b
000000d0: e374 253c 226f 813c 98be 8d3c f69a ae38
000000e0: 378e 8b3c e214 0c3c 2c38 64bc 430b 05bb
000000f0: 9261 3a3c 74fa 85bc 6a86 6b3b 9a0a 92bb
-0.0073117353 0.0076146172 0.001304743 -0.013175713 0.02058075 -0.0013386481 0.018140651 0.00860523
0.014862939 0.011504249 -0.018266838 -0.013824356 0.009448196 0.01004464 -0.0015087122 0.009565335
0.0047229305 -0.008094878 -0.010379275 -0.026273064 -0.015311588 0.020486511 -0.00783081 0.015640492
0.0024292946 -0.026887996 0.0025284397 -0.008245756 -0.018617097 -0.005067996 0.01416828 0.0026962878
-0.015848633 -0.0069690053 0.012684261 -0.011993128 -0.0008570175 0.014506718 -0.00046363476 -0.0026652045
0.014408234 0.021556119 -0.011798764 -0.016518798 0.005256014 -0.005949854 0.0051889257 0.012432866
-0.012057019 -0.0021152557 0.02254175 0.007296222 0.010098669 0.015800063 0.017302796 8.32583e-05
0.017035587 0.008549901 -0.013929408 -0.0020300902 0.011375802 -0.016354777 0.0035938271 -0.00445683

encoder.layers.0.norm2.weight f4 [64]
00000000: 1281 7f3f 0f59 7e3f 7699 803f 440b 7b3f
00000010: 8d70 793f bfc0 7a3f 4422 823f 035b 7d3f
00000020: e57a 7e3f 0d5f 823f 98e0 803f d087 823f
00000030: 02c4 7e3f a3cc 7d3f 2870 7e3f 44b5 7d3f
00000040: 320a 813f f4f2 813f 1581 7c3f 0c86 7f3f
00000050: 4aa1 813f 8e9f 7d3f d1a7 803f 342b 803f
00000060: 1cc9 7e3f ea39 823f ec8f 813f c8f9 813f
00000070: 96d0 7f3f e50a 813f eb62 7c3f c39f 803f
00000080: bfe3 7d3f 4cc9 813f 4582 803f 83ec 7f3f
00000090: 3c20 853f 4c5c 7e3f 033c 7d3f 5183 813f
000000a0: ded7 7f3f 89dc 7c3f a196 7f3f 9601 7c3f
000000b0: eb27 843f a7cd 803f 377c 803f 7696 813f
000000c0: c24c 823f 4b57 813f 6259 7f3f 3215 833f
000000d0: 2f3f 7f3f ff97 813f 8b1f 7e3f 8c7a 7d3f
000000e0: 4a2c 813f 9587 833f b0c3 7b3f 00d5 823f
000000f0: 1095 793f 236c 833f 440c 823f c60c 7c3f
0.9980632 0.9935464 1.0046833 0.98064065 0.97437364 0.9795036 1.0166707 0.98967
0.9940627 1.0185257 1.006854 1.0197697 0.99517834 0.99140376 0.99389887 0.99104714
1.0081236 1.0152268 0.98634464 0.99813914 1.0127347 0.99071586 1.0051214 1.0013185
0.9952562 1.0173924 1.0122046 1.0154352 0.9992765 1.008145 0.98588437 1.0048755
0.9917564 1.0139556 1.0039755 0.99970263 1.0400462 0.99359584 0.98919696 1.01182
0.9993876 0.9877401 0.99839216 0.9843992 1.0324682 1.006276 1.0037907 1.0124042
1.0179675 1.0104765 0.9974576 1.0240843 0.99705786 1.012451 0.9926688 0.99015117
1.0091641 1.0275751 0.9834547 1.0221252 0.97493076 1.0267376 1.0159993 0.9845699

encoder.layers.0.norm2.bias f4 [64]
00000000: 3aec 063c 6d6e ad3b dc84 64bc 9860 14bc
00000010: 1bfc 863c 60fa f7bb 788e 903c cddd 33bc
00000020: 1119 733c f920 383c db85 0b3c 7bd1 62bc
00000030: 80f1 7a3c 1b96 1a3a 4fd7 87bb 181d 2ebb
00000040: d752 743a 5b97 3f3b 429b 8ebc f018 98bc
00000050: c67b 8cbb e198 6eba 6ddf 7abc 6943 883c
00000060: 0803 a13c 9ca6 c6bc b42c a33b 7ed4 e53a
00000070: 0a42 10bc c3ca 5cbc ad94 f9ba 2f77 243b
00000080: 337b 0ebb fb25 07bc 50ff 0bbc 4fe2 973b
00000090: dd76 8b3b f041 683b 77fa 2b3b 7ce6 05bc
000000a0: c4ca 7f3c d97a db3c 1067 6dbc f9f0 64bc
000000b0: 69d6 3f3c 4ef0 2fbc 04d4 293c 5d9a 5b3c
000000c0: 0794 3ebc fd09 5f3c 3749 953c 59e3 fc3b
000000d0: 958b a1bb 7dc3 473c 0f8b 803c 98d7 903c
000000e0: 350e 533c 28f6 523c 2da6 99bc ec2a 3cbb
000000f0: 8a4f 803b cc0e 8bbc 1603 c33b 6ba7 03bc
0.008235032 0.005292705 -0.013947692 -0.009056233 0.016477635 -0.007567689 0.01764606 -0.010978174
0.014837519 0.01123833 0.0085158 -0.013843889 0.015316367 0.0005897001 -0.00414554 -0.0026567634
0.00093202054 0.0029234502 -0.017408017 -0.018566579 -0.004287216 -0.000910176 -0.015312058 0.016633706
0.019654766 -0.024249367 0.0049796943 0.0017534641 -0.008804807 -0.013476077 -0.0019041501 0.0025095453
-0.0021740913 -0.008248801 -0.008544758 0.0046351324 0.004256113 0.0035439692 0.0026241818 -0.008172628
0.015612308 0.026791977 -0.014489904 -0.013973468 0.011708834 -0.010738445 0.01036549 0.013403502
-0.011631972 0.013613221 0.018223388 0.0077175316 -0.0049299696 0.012192604 0.015691308 0.017680928
0.012881805 0.012876071 -0.018755997 -0.0028712107 0.003915732 -0.01697483 0.0059512956 -0.008035521
