assets/snapshots/P3_log_amount_no_scaling_mlp.pth (torch, 52437 bytes, 6 tensors)

net.0.weight f4 [128, 30]
000000 7e 02 73 3d f4 38 86 bd 0c e4 22 be 9c 14 99 bd
       0.05932855 -0.06553832 -0.15907305 -0.07474634
000010 fa fd 46 3d 1a 98 d4 bc e8 25 b9 bd 7c 3f 0a 3e
       0.048582055 -0.025951434 -0.09040433 0.1350078
000020 82 b6 8a 3b 51 3b 4e 3e 7d 65 89 3d b0 4d 17 bc
       0.0042331824 0.20139815 0.067088105 -0.009234831
000030 08 3c 52 3e 6f a9 9c bd 45 7e 9a 3d 11 3e 16 be
       0.20530713 -0.076495044 0.07543615 -0.14672114
000040 e4 da b0 3d 50 99 0b 3e 0b cf 1a 3c b5 13 33 3e
       0.086355 0.13632703 0.009448777 0.17487986
000050 86 fe 06 be b1 10 f0 3b fc f7 0e 3e e5 b2 96 bd
       -0.1318303 0.0073262085 0.13961786 -0.0735834
000060 67 c7 02 3e 0a 92 e7 3d 69 b7 c9 bd 9b e6 53 bd
       0.12771378 0.113071516 -0.09849436 -0.051733594
000070 3b 35 63 bc 42 3f 73 bc ab 85 e2 bc 9c a3 46 3d
       -0.013867672 -0.014846625 -0.027651628 0.048495874
000080 47 b2 fc 3c 2e 5f 58 3d e0 44 fd 3d 06 a9 c0 3d
       0.030846728 0.052825145 0.123666525 0.09407239
000090 10 f1 af bd af d7 2b bd a8 42 06 3e 64 a8 14 be
       -0.08590901 -0.04195374 0.13111365 -0.14517361
0000a0 4a 3c 7c 3c b2 d6 fe bd 6f 83 2a be 3a a1 b1 bd
       0.015395233 -0.12443294 -0.166517 -0.0867333
0000b0 7a f4 be 3d 29 cb f7 3d 19 00 38 3e d5 67 55 3d
       0.09323974 0.120992966 0.17968787 0.052100975
0000c0 d9 18 b6 bc 80 18 28 3e 8b c1 09 be 86 a7 cc 3d
       -0.022228645 0.16415596 -0.13452737 0.0999289
0000d0 60 eb e3 3c 02 39 4c bd c8 84 e7 3d e2 bb 03 be
       0.027822196 -0.049859054 0.11304623 -0.1286464
0000e0 5a ed 75 bd 82 2a f0 bd 81 35 37 bd 78 02 0d be
       -0.06004081 -0.11726858 -0.04472876 -0.13770473
0000f0 09 41 ea bc c9 98 60 be 5e db e8 3d ef bf de 3d
       -0.028595464 -0.21933283 0.11369966 0.10876452
000100 25 20 84 3e 2e 76 dd 3b e3 82 42 3e 6b 0f 3c bd
       0.25805774 0.006758473 0.18995242 -0.04591314
000110 16 47 d4 bd 0b e8 f1 3d ba 6f b4 bd c9 b9 74 3d
       -0.10365121 0.11811837 -0.08810373 0.05974749
000120 5f 4a 72 3e 7e 15 5d 3e c6 6e 1c bd da 78 9d bc
       0.23661183 0.2159023 -0.03819158 -0.019222666
000130 e0 05 22 be 71 6c ac bd 52 a2 19 3c c7 86 e2 bd
       -0.15822554 -0.08419121 0.009377079 -0.11060863
000140 8c 42 f2 3d 53 f4 66 bd 9f 4b ad 3d a3 06 ac 3d
       0.11829099 -0.05638535 0.08461689 0.08399703
000150 f5 04 31 3e c9 4b 32 3e dc f8 ea bd 23 5b 33 be
       0.17287047 0.17411722 -0.114732474 -0.17515235
000160 a0 f8 5e 3d 21 1e 67 3e 82 75 46 3d d7 ed 36 3d
       0.054436326 0.22570087 0.048451908 0.044660416
000170 09 0e ff bd ea 72 b8 bd a6 cc 4e bc af f8 67 3e
       -0.12453849 -0.09006293 -0.012622034 0.22653459
000180 26 29 b5 3d a2 eb d3 bd ca 43 f0 3d 4b 33 29 3e
       0.08845739 -0.10347678 0.1173168 0.16523473
000190 9e 20 79 3e 3d 83 9e 3d 99 ae ad 3d 0e 33 bb bc
       0.24328849 0.077398755 0.084805675 -0.022851493
0001a0 47 f6 19 3d ca e3 99 3c c6 31 55 3e b9 db 4a 3c
       0.037588384 0.018785376 0.20819768 0.0123814875
0001b0 01 6d 35 3e aa 52 16 3e ce f9 e9 3b eb 6d ac bd
       0.17717363 0.14679971 0.0071403747 -0.08419403
0001c0 ac 30 a5 3d 3c 2f aa bd d6 e3 c2 bd ba d5 c4 3d
       0.08065924 -0.083097905 -0.095161125 0.096110776
0001d0 89 35 e5 3d b6 5f 6f bc be 9d 9d 3c f3 ce 43 3e
       0.11191852 -0.014610222 0.019240256 0.19121914
0001e0 21 9f ac 3c f9 41 23 be 13 01 51 3e b9 05 0d be
       0.021071972 -0.15943135 0.20410566 -0.13771714
0001f0 8c fd 34 3e 9a f4 85 3d 4c bb 56 be 7f 52 03 be
       0.17674845 0.06540795 -0.20969886 -0.12824439
000200 0c 83 32 3d 5c e2 6f be 90 28 8c 3d 1a 3c 18 bd
       0.043582007 -0.23426193 0.06843674 -0.037166692
000210 b9 4c 76 3d ee 70 eb bd 1d 3e fe bc 62 a2 01 be
       0.060131762 -0.11496149 -0.031035477 -0.126596
000220 5f 45 7c 3d 20 8f 26 bc bf 81 f9 bd 37 82 44 be
       0.061589595 -0.01016596 -0.1218295 -0.19190298
000230 16 c7 91 bc 54 aa 29 3e 21 39 2f 3e 29 b5 72 bd
       -0.017795127 0.16568881 0.17111637 -0.0592548
000240 bc 8a 35 bd d8 7c 28 3c 02 ce 8b bd 61 67 b5 3b
       -0.04432176 0.010283671 -0.06826402 0.0055360054
000250 6d 98 45 3e 69 9f 36 bd 61 6e 36 3c a1 7a 1e 3e
       0.19296427 -0.04458562 0.011134715 0.15476467
000260 e6 0b 43 be fa e2 4f 3e f9 ff 6c bc 8f a0 03 be
       -0.19047508 0.20301428 -0.0144653255 -0.12854217
000270 b6 81 35 bc 37 a9 09 bd 00 68 45 bd 4d fe 43 bd
       -0.011078289 -0.03360864 -0.048194885 -0.047849942
000280 32 1b dd 3c 9a ea 88 bb b6 6b 3e 3e 88 05 21 3e
       0.026990507 -0.0041783573 0.18595776 0.15724766
000290 be 9b ad 3d d8 ff e0 bc 68 b9 41 bd 5b 45 15 3d
       0.08476971 -0.027465746 -0.047295958 0.036443096
0002a0 83 2e cc bc 38 1a 0e be 3b 7d 1d be 91 68 97 bd
       -0.024924522 -0.13877189 -0.15379803 -0.07392991
0002b0 6b e3 ea bd 1b d4 02 3e 4e 01 af 3d 22 b8 07 3e
       -0.11469158 0.12776224 0.08545171 0.13253835
0002c0 3b 86 21 bc fa 16 58 be 48 63 3b be 22 b7 78 3e
       -0.009858663 -0.21102515 -0.18299592 0.2428861
0002d0 e0 c7 fb bd 1d 9d ad 3d 45 18 41 be 7b 45 92 bc
       -0.122939825 0.084772326 -0.18856914 -0.017855396
0002e0 bd 0f 56 3e 0f 7a 22 3d b9 90 bf 3d 3f 0b d9 3d
       0.20904441 0.039667185 0.093537755 0.10597848
0002f0 ab b2 95 bd d3 93 5e be 79 1c 94 bd 9e ec 93 bd
       -0.07309469 -0.21736078 -0.07231993 -0.072228655
000300 77 3e ca bd 35 27 9a 3d 57 d5 a2 bb 0a 26 19 3e
       -0.098751955 0.075270094 -0.0049692797 0.14955917
000310 47 6f fd bd 6f e4 a1 3d 42 07 b4 3d 73 52 9f 3c
       -0.1237474 0.079048984 0.08790447 0.019448495
000320 e7 01 6f bd af 21 b4 bb a5 99 1b be fb 41 89 3d
       -0.058351424 -0.0054971795 -0.1519533 0.06702038
000330 0e 52 61 3c 5c 86 12 be 6d 64 f9 3d a3 be 1f 3e
       0.0137524735 -0.14309067 0.12177358 0.15600066
000340 31 a3 f9 bd 66 ea b0 3d 63 e4 58 bb 4c ed a1 bd
       -0.121893294 0.08638458 -0.0033095113 -0.07906589
000350 d4 8c 88 bc fd 25 61 3d 84 63 1b 3e 01 28 2a be
       -0.016668715 0.05496787 0.15174681 -0.16616823
000360 e7 ae c1 3d 1e 1c c8 bd cc 18 9a 3d 38 8e 86 3d
       0.09457188 -0.09770988 0.07524261 0.06570095
000370 f0 d1 ee bd 86 dc c6 3c 05 bd fc bd 86 81 58 3e
       -0.11661136 0.024275076 -0.1234074 0.2114316
000380 d7 35 0b be 5a 4b 5f 3e 28 1e 6c 3a a7 19 93 bd
       -0.13594757 0.21806088 0.0009007179 -0.07182627
000390 2b 0c 5c be 55 c4 f7 bd 40 6e 1e be 0c b5 b7 3d
       -0.21489017 -0.12097994 -0.15471745 0.08970079
0003a0 8a 75 ae 3d f3 68 fc bb ee a9 9d bd a2 21 a3 bd
       0.085185125 -0.0077029406 -0.07698427 -0.07965399
0003b0 45 3d b6 3d 12 3f 20 be 21 18 1a 3e 56 d4 04 3d
       0.08898405 -0.1564906 0.15048267 0.03242906
0003c0 c2 2d 11 3e 96 e8 66 3d 27 fd 69 3d 3d 57 ab bd
       0.14177611 0.056374155 0.05712619 -0.08366249
0003d0 32 89 58 3e 50 7b e3 3d 2d 8c 3b be 0f c6 a4 3d
       0.21146086 0.11107504 -0.18315192 0.08045589
0003e0 d5 86 ab 3d 48 d9 fd bd 12 aa b6 3d e5 6f ea bd
       0.083753265 -0.12394959 0.08919157 -0.114471234
0003f0 5b 7d 17 be 42 d8 ab ba de ba 0e 3e 9e 25 8e bc
       -0.14793913 -0.0013110714 0.13938472 -0.017351922

net.0.bias f4 [128]
000000 36 64 43 bd 82 4a 21 be 70 24 a3 3d 36 81 51 3e
       -0.04770299 -0.15751079 0.07965934 0.20459446
000010 0a 42 8d bd db d5 5f 3e f3 35 a9 3d eb 56 55 3e
       -0.068973616 0.21858923 0.08262243 0.20833938
000020 ea 5f fa bd 23 7f 6e 3e d1 39 5c 3d 50 0d 11 be
       -0.122253254 0.23290686 0.053766076 -0.14165235
000030 37 37 1c be e2 0b 6a 3d d6 8a 6a be c8 6c b4 3d
       -0.15255438 0.05714024 -0.22904524 0.08809811
000040 99 a2 61 bc 5b 83 40 3e 5b 02 a2 3c b8 67 a4 bd
       -0.013771676 0.18800108 0.019776514 -0.08027595
000050 61 10 bc 3d 46 f2 40 3e 76 b7 8a bd 74 a3 0a 3d
       0.091828115 0.1884242 -0.06773274 0.033847287
000060 b8 17 84 3e aa 3d 88 3d 2e 1c f0 3d 91 ee f1 3c
       0.25799346 0.066523865 0.11724125 0.029532703
000070 6a 76 db bd 83 f7 b2 bb a7 ac dd bc 5f af 58 3e
       -0.10715945 -0.0054616346 -0.027059866 0.21160649
000080 63 90 5e 3d 7a da 96 3d 48 f1 b6 3d 92 3f ba 3d
       0.054336917 0.0736589 0.089327395 0.09094156
000090 94 52 fb bc 5e 97 65 bd 0a 0d 69 3e 41 19 12 3e
       -0.030679025 -0.056052558 0.2275888 0.14267446
0000a0 00 3e ca 3c 0a b5 1e be ef 85 30 be 38 d0 9a bd
       0.024687767 -0.15498748 -0.17238592 -0.07559246
0000b0 99 59 96 bd 42 54 0d 3e 1e 24 b9 3d dd d7 2b bc
       -0.07341308 0.13801673 0.09040092 -0.010488478
0000c0 99 d5 79 3e cb 21 8f bd 6c 21 17 be 20 2c 7a bd
       0.24397887 -0.06988867 -0.14758843 -0.061077237
0000d0 b7 04 0a 3e 92 52 34 3e 06 56 31 3d 0e cd 02 3d
       0.13478361 0.17609623 0.04329493 0.031933837
0000e0 7e fd a1 3d 4f a1 42 3e 75 a0 16 bc 34 14 73 bd
       0.07909678 0.19006847 -0.009193529 -0.05934544
0000f0 4b f5 dd 3d 9b 3b 01 3e c2 75 2e 3e ed 4b 84 bd
       0.108378015 0.12620394 0.17037109 -0.06459794
000100 75 66 e5 bd 08 69 06 3d 49 34 7d 3d 47 73 73 bd
       -0.11201183 0.03281501 0.06181744 -0.05943611
000110 f0 40 28 3e c4 d4 80 bd f5 31 0d be c1 55 7f 3d
       0.16431022 -0.06290582 -0.13788588 0.06233764
000120 8e 30 14 3e de 64 12 bd 3e 1f 83 3e 10 47 0c be
       0.14471647 -0.035740726 0.25609773 -0.13698983
000130 c1 81 1b 3d 3f 9b e9 3d 78 52 e6 ba 08 bd 41 3d
       0.03796554 0.11406564 -0.0017572185 0.047299415
000140 c1 3f 0b be 27 d8 e7 bd e1 48 67 3e cd 90 30 3e
       -0.13598539 -0.11320525 0.22586395 0.17242737
000150 eb 7b 83 bd 2f 0d ed 3d 6b 46 81 3d cb d0 15 be
       -0.0642012 0.1157478 0.06312259 -0.1463043
000160 e3 ba 6c be b7 2c 9a 3d b3 a9 05 3e 55 f2 27 3e
       -0.23118167 0.0752806 0.13053016 0.16401036
000170 49 36 23 3d 27 00 cc bd e5 9c 00 3e a9 f7 85 3b
       0.039846692 -0.099609666 0.1255985 0.0040883613
000180 9e 95 78 3d b1 11 27 3e 16 f3 c3 3d 29 42 92 bd
       0.06068956 0.16315342 0.09567849 -0.07141525
000190 b1 df 80 3d f8 8b 2f 3e 44 28 bd 3c 0b 86 b6 3c
       0.06292666 0.17143238 0.02309049 0.022280714
0001a0 b8 00 48 3d d0 78 b5 bd 00 38 b4 3b ab d7 0a 3e
       0.04882881 -0.08860934 0.00549984 0.13558833
0001b0 67 88 3d bd 73 ba 39 3e b7 76 13 3e 58 17 d1 3d
       -0.04627266 0.18137531 0.14400755 0.102095306
0001c0 a8 bd 81 3d 70 b6 65 3d af 8e db bd 91 5e 4d bd
       0.06335002 0.05608219 -0.10720574 -0.050139014
0001d0 70 c6 2a be 95 47 1e be aa ca 0d be 8a 1e 51 3d
       -0.1667726 -0.15456994 -0.13846841 0.051054515
0001e0 46 d0 17 be ad 30 7c 3e 28 4a 05 3e 29 1d 59 3d
       -0.14825544 0.24627943 0.1301657 0.053006325
0001f0 5a ad 6d 3d 2e d0 02 3e c4 32 39 be b1 58 22 be
       0.05802665 0.12774727 -0.18085772 -0.15854146

net.3.weight f4 [64, 128]
000000 e7 a6 5b bd c6 b9 a8 bd f8 aa a9 bd 5f 99 c4 bc
       -0.053625967 -0.082385585 -0.08284563 -0.023998914
000010 fd 0b 0c 3d 06 16 4b 3d d0 8a 18 3c 86 1e 94 3d
       0.03419112 0.04958155 0.009310439 0.072323844
000020 e9 d8 8f bd 75 bd 03 bc 83 eb be bb a4 ab 96 3d
       -0.07023794 -0.008040776 -0.005826415 0.073569566
000030 cd 70 a0 bd e3 b0 e5 bb 5f 17 7c 3d 08 9a 02 3d
       -0.07834015 -0.007009612 0.061545726 0.031885177
000040 06 c9 0c bd 0b 59 57 3a 9d de 2a 3d 14 b5 75 3d
       -0.0343714 0.00082148676 0.041716207 0.059987143
000050 b1 59 91 3d f7 ac 8e 3d 7a c8 67 bd 45 5c b7 bc
       0.070971854 0.06966584 -0.056587674 -0.022382865
000060 fc fe 5c 3d a9 63 8b bd fe e7 51 bd b3 a9 ac bc
       0.05395411 -0.06806118 -0.051246636 -0.021077013
000070 50 1d a6 3c 2f 6b 39 3d d2 9d b0 3a 11 3f 84 bd
       0.02027765 0.045268234 0.0013474768 -0.064573415
000080 a3 05 0c 3d b4 1c 49 3d 4d 82 4d 3d 3a 9d 90 3d
       0.034185063 0.04909964 0.050173093 0.070612386
000090 69 47 4f 3c 6f 5d 84 bd 52 d6 18 bc 0e 54 cc bc
       0.012651303 -0.064631335 -0.009328442 -0.024942424
0000a0 4c c0 95 3d 5e a3 b0 3d d7 22 3f bd 9b 83 a9 bd
       0.07312068 0.0862491 -0.046664085 -0.08277055
0000b0 a3 3d 4d bd 94 9b ac 3d 93 aa 1a bd 4f fd 8f bd
       -0.05010761 0.08428112 -0.03776033 -0.07030737
0000c0 bc e7 a1 bd 7a dd c6 3b 74 e5 d7 3c 82 6f 75 3c
       -0.07905528 0.0060688825 0.026354529 0.014980199
0000d0 d3 66 d5 bd b7 f6 b1 3b c9 15 4a bd ae fb 33 bd
       -0.10420003 0.005431022 -0.049337182 -0.043941192
0000e0 74 f2 a3 bd 31 37 16 3c 7c cb e2 3c 6f 29 6a bd
       -0.08005229 0.009168432 0.02768492 -0.05716842
0000f0 5e b0 4d 3d 44 99 23 bd 0a 2e a8 3d 10 3f bf 3c
       0.050217025 -0.039941087 0.08211906 0.0233455
000100 ee 16 32 3d 25 c6 09 bd d2 3e 1d bd 8e a2 0a 3d
       0.0434789 -0.03363623 -0.03838999 0.03384643
000110 5c 9c 2c bd 71 7d 95 3d c9 54 83 3c a8 59 83 3d
       -0.042141303 0.07299317 0.01603164 0.06413585
000120 bb ee 50 bd cf dc 6d bc 24 b4 38 bc dc b3 3c bd
       -0.05100892 -0.014517977 -0.011273418 -0.046069965
000130 1e b0 83 3d 65 3d 42 bd 84 96 ad 3c 37 07 b1 3c
       0.06430076 -0.04742183 0.021189936 0.021609886
000140 0d 90 8a bd f8 ff 93 bd da 6a 00 bd 68 e1 ae bd
       -0.06765757 -0.072265565 -0.0313519 -0.085390866
000150 9c 94 1e bd ee 1b 2d 3c 1b 53 25 bd 1c 82 46 3d
       -0.038715944 0.010565741 -0.04036246 0.048463926
000160 eb 62 b9 bc 03 b7 0e bc d3 a8 7b bb 5d 31 14 bc
       -0.022630176 -0.008710626 -0.0038400188 -0.009044972
000170 0c 7c 71 3b d5 39 51 3c 8e 29 a7 bd 96 a3 89 3c
       0.003684762 0.012770136 -0.08162223 0.016801637
000180 9d a1 84 bb 17 82 7f bd 51 6d 00 bd e6 3a 9d bc
       -0.004047586 -0.062379923 -0.031354252 -0.019193124
000190 6c bf 72 bd a0 20 03 3d d5 1a 38 3c 51 42 c4 3c
       -0.059264585 0.032013535 0.011236866 0.023957403
0001a0 f5 a7 bc bd 42 1e c8 bd f4 ac 9c 3c 3e 6e 4c 3d
       -0.09211723 -0.09771396 0.01912544 0.049909823
0001b0 16 7d 5c bd 30 cc 9e bd ea 1b 57 bc 6a 75 76 3d
       -0.05383023 -0.077537894 -0.013129214 0.06017057
0001c0 fc 78 ab bd 73 5f a3 3d e1 f9 8d bd 66 0f 0a 3d
       -0.08372685 0.0797719 -0.06932426 0.03370609
0001d0 c6 1e 7d bd 29 65 83 bd 0b f1 62 3d 1f 10 90 3d
       -0.061796926 -0.06415779 0.055405658 0.07034325
0001e0 75 27 a3 bd 49 c0 3a bd 8f cd b7 bc d0 44 10 3d
       -0.0796651 -0.045593534 -0.022436885 0.035221875
0001f0 31 59 d6 3b e1 a3 40 bd 7d 0c c5 3c 54 21 e2 bb
       0.006541394 -0.047031287 0.024053806 -0.0069009457
000200 0f c9 67 bd d0 f2 e1 bc da b4 b2 3d 45 a7 8b 3c
       -0.05658823 -0.027581602 0.08725901 0.017047534
000210 b6 79 46 3d 28 d2 f1 3d 84 93 da 3d 99 40 bd 3d
       0.048455916 0.11807662 0.106726676 0.09240837
000220 10 78 88 bd b3 1b 13 3e 26 c7 26 3d f2 13 1b 3d
       -0.06663525 0.14366035 0.040717266 0.03786082
000230 a6 f8 a4 bc 0f d4 88 bb e3 5a 9d bb 58 0e 81 3d
       -0.020138096 -0.00417567 -0.0048020943 0.06301564
000240 c9 8b 28 bd 30 4d 6a 3d 1c 89 de 3c c7 91 af bc
       -0.041148935 0.057202518 0.027164988 -0.021431817
000250 96 85 94 3d bd e7 50 3d 35 1e da 3d 71 a3 5e 3c
       0.07252042 0.051002253 0.10650293 0.013588772
000260 ac 42 5e 3d 32 08 b4 bc 24 d4 98 3c 06 07 82 3b
       0.054262802 -0.021976564 0.018655844 0.0039681224
000270 72 9a c4 3d 1e b5 e5 3c 95 6b 0e 3e de df 06 bd
       0.095997706 0.028040465 0.13908227 -0.03292834
000280 c7 60 a5 3d 95 6c a5 bd ef 01 5e bc 6a 5d 04 bd
       0.080750994 -0.08077351 -0.013550266 -0.03231565
000290 d5 dc 79 3c df 0e 19 3d 0f 09 24 3e c1 5b 11 3e
       0.015250404 0.037367698 0.1601908 0.14195158
0002a0 60 c0 e8 3b a1 79 b5 3d 6b 00 86 bc f7 f6 62 bd
       0.007103011 0.088610895 -0.016357621 -0.055411305
0002b0 71 ef ac bd 9c 2a fb bb 0e 2b c1 3d a6 46 2c 3d
       -0.08444107 -0.0076649915 0.0943204 0.042059563
0002c0 5c 50 c4 3d c8 44 54 bd b8 d2 98 3d c3 f9 c6 3b
       0.0958564 -0.051823407 0.074620664 0.0060722544
0002d0 a7 a9 b2 bd 64 a7 96 3c 8b df 90 bb e4 71 c3 bd
       -0.08723765 0.018390365 -0.0044211796 -0.09543207
0002e0 5b 8a f0 bc 7a 2c 32 3d bb 33 28 3d 95 c6 ea bc
       -0.029362848 0.043499447 0.04106496 -0.028659144
0002f0 2e 06 e5 3a 50 ba 01 3e 48 ad 25 3c 48 9a 76 bd
       0.0017473155 0.12668729 0.010112114 -0.060205728
000300 6b 77 7d bc 86 2f ca 3d c2 92 5b 3d 00 5c dd bd
       -0.015470366 0.098723456 0.053606756 -0.10808563
000310 d2 f6 50 3d 69 29 18 bd 7a 65 a1 3d fc 89 e2 bc
       0.051016636 -0.037148867 0.07880683 -0.027653687
000320 88 bc ac 3c b4 5d a6 bc b1 c9 06 3e d1 b6 d7 39
       0.021085992 -0.020308353 0.13162877 0.00041144204
000330 8c 01 81 3d 80 44 dc 3c 2d 03 dc 3d e7 72 02 bd
       0.06299123 0.026888132 0.10742793 -0.03184786
000340 a6 69 d0 bd 8d 7c ab bd 41 8f 74 3d ba ad 96 3c
       -0.10176401 -0.083733656 0.05970693 0.018393386
000350 e4 48 14 3d 6e 03 63 3d 5d 48 ce bd ae 43 30 bd
       0.036202326 0.055423193 -0.10072396 -0.043033294
000360 ce ad d1 bd 6c 12 45 bd 37 d0 eb 3c 8a 8b f5 3d
       -0.10238229 -0.04811327 0.028785808 0.119895056
000370 c0 b1 93 3c ce 19 95 bc c7 b0 ab 3c a0 6e 95 bd
       0.018029094 -0.018200781 0.020958317 -0.07296491
000380 8e ed c9 bc 7f ac cf 3c 99 44 78 bc e9 fd 4a bd
       -0.024649408 0.025350807 -0.015153074 -0.049558554
000390 57 79 94 3c 03 66 72 bc 77 31 c5 bc 33 f8 7e bc
       0.018124266 -0.014794829 -0.024071438 -0.015562105
0003a0 b7 ff 81 3d 07 a3 c0 bd 65 3f 4a 3d ca cf 76 3d
       0.06347602 -0.09406095 0.049376864 0.060256757
0003b0 e4 66 ad bc 03 b7 06 3e bd 4c eb bc 83 80 ae bd
       -0.021167226 0.13155751 -0.028723115 -0.085206054
0003c0 8f 20 c1 3c 2e a1 a7 bc 21 62 12 3e d5 ab 5e 3d
       0.023575095 -0.020462599 0.14295246 0.05436309
0003d0 67 f4 f4 3c f6 6a cf bc 16 38 b0 bb 56 3b 73 3c
       0.029901696 -0.025319558 -0.0053777797 0.01484569
0003e0 43 a1 56 3d a1 c7 1f 3e ab 57 86 3d 51 ff 33 bd
       0.052399885 0.15603496 0.0655969 -0.04394466
0003f0 d5 69 e9 3d fd 10 75 bc 29 61 b5 3d 4b f1 32 3d
       0.11397139 -0.014957664 0.088564225 0.043687146

net.3.bias f4 [64]
000000 04 31 9d bd da f3 42 3c 3f d0 99 bd d8 a3 96 3d
       -0.076753646 0.011898959 -0.07510423 0.073554695
000010 57 5f b7 bd b4 1e ed 3c 83 0c a0 bd 71 28 e9 bd
       -0.089537315 0.028945304 -0.078148864 -0.11384667
000020 d9 f2 5b 3d 57 08 c9 bd ee 1c c6 3d dd 2d e6 bd
       0.053698394 -0.09816044 0.09673487 -0.112392165
000030 be 41 22 3d fa c3 1c 3c c7 e2 51 be d7 61 4d bd
       0.039613478 0.009568209 -0.20496665 -0.050142135
000040 38 f9 89 bc 0c a1 0c 3d cd 41 5f bd 3b 9a 1d bb
       -0.01684247 0.034333274 -0.054506112 -0.0024048227
000050 b0 1e c4 bd 9f 7d 97 3c e2 92 c0 bd aa 6e 50 3d
       -0.09576166 0.018492518 -0.09403016 0.050886787
000060 e5 44 87 bd 30 51 b0 bd 26 1c d0 bc f7 75 5c bb
       -0.066049375 -0.08609235 -0.025404047 -0.0033639648
000070 a8 48 54 3c 9f ff b5 bc 60 9b f6 bb 35 b7 66 3c
       0.012956776 -0.022216616 -0.0075258464 0.014081766
000080 03 ac db 3d 9e 25 13 bd 39 e1 2e bd 45 a7 6a bd
       0.10726168 -0.035924546 -0.042695258 -0.057288427
000090 89 7e e2 bd 4f ef 8c bb ea 81 4b bd c4 f7 07 be
       -0.11059291 -0.0043009887 -0.049684443 -0.13278109
0000a0 a7 8b c1 3d 48 f3 8a bd 1f 0e 56 bb 08 4d 9a bd
       0.09450465 -0.067846835 -0.0032662225 -0.07534224
0000b0 09 69 81 3c 5a 4d 3f 3d 35 b9 41 bd b2 52 af bd
       0.015797155 0.046704628 -0.047295768 -0.08560695
0000c0 ff dc 07 bc e0 fe a6 bd 82 83 b4 3c c0 64 44 3d
       -0.008292436 -0.08154082 0.022035364 0.047947645
0000d0 6c 47 60 bc 32 86 91 bd c5 0d 04 bd 8a 0e b4 bc
       -0.013688903 -0.07105674 -0.032239694 -0.021979589
0000e0 5e 38 c5 bd 75 7c 14 3e e1 c8 d9 bd 9c 8e b7 3c
       -0.09629892 0.14500602 -0.10634018 0.022406869
0000f0 21 e0 08 bd 69 c4 a1 bd 07 29 cf 3d 30 d2 b9 3d
       -0.03341687 -0.078987904 0.10115247 0.09073293

net.6.weight f4 [2, 64]
000000 df fa 9a bd 0a b8 94 3d 1c 6e 26 3d 1b 1c 53 3d
       -0.07567381 0.07261665 0.040632352 0.051540475
000010 cb 6a 6c 3d 3f 28 99 3d 55 af 85 3d 9e 8a b8 bd
       0.057719033 0.074783795 0.065275826 -0.09010814
000020 79 48 95 3d c1 9d c5 bd 94 4e 9b bb 0e 3e 87 bc
       0.07289214 -0.0964923 -0.004739592 -0.016509082
000030 b6 e3 06 3c 5e 09 53 3b 77 e7 7b bd 7e 3c 45 3d
       0.008233001 0.0032201628 -0.06150004 0.048153393
000040 8c b6 5c 3d d0 80 06 3d 72 49 42 3d f9 dc 93 bd
       0.053885028 0.03283769 0.047433324 -0.072198816
000050 ae a5 b7 bd fa 66 40 3b 2b 2a b3 bd 1a b9 e2 3d
       -0.08967148 0.0029358254 -0.08748277 0.110704616
000060 fc 3a 76 bd a5 af 00 3d 70 79 c8 bb 0e 37 37 3d
       -0.060114846 0.031417508 -0.006117992 0.04473024
000070 5e 1b 12 bd 94 3a d9 3d 96 10 09 3c 78 43 ba bd
       -0.03567063 0.10606876 0.008365771 -0.090949
000080 0a 51 f0 39 e8 4d 8e bc 34 34 8a bd f7 b5 82 bd
       0.00045836746 -0.017371133 -0.06748238 -0.06382363
000090 f6 60 7d bd 53 08 69 3c b3 81 3c bc 5f 23 bc 3d
       -0.061860047 0.014223176 -0.011505532 0.09186434
0000a0 4d 1c 82 3d b4 ff bc bd 49 8c a4 3d 8a 26 81 bd
       0.06353054 -0.09228459 0.0803457 -0.06306179
0000b0 ce 98 28 bd df 26 b7 bc d1 80 cf bc e4 dc da bd
       -0.04116135 -0.022357402 -0.02532998 -0.10686663
0000c0 b0 cc 52 3d 1f 5e 60 bb ba 21 8d 3d d1 d6 66 3a
       0.051464736 -0.0034235788 0.068911985 0.0008805814
0000d0 e8 ab 1b 3d e3 19 e5 bc 2b c9 62 bc d4 b4 bc bd
       0.03800574 -0.027966445 -0.0138419075 -0.09214178
0000e0 1a b8 c1 bd b0 27 bf 3d 8a 14 72 bd ad e2 be 3c
       -0.09458943 0.09333742 -0.05910162 0.023301447
0000f0 a1 59 51 bd bc 6a af bc 23 b0 69 3d 0a 4c 95 bd
       -0.051110867 -0.0214132 0.057052743 -0.07289894
000100 56 99 5f bd 04 82 af bc 30 88 3e 3d 4a 6d e2 3c
       -0.054589592 -0.021424301 0.046516597 0.027640004
000110 30 f7 83 bd dc 06 04 3c 0d 78 88 3d c5 c1 f3 bc
       -0.06443632 0.008058276 0.06663523 -0.029755482
000120 8c 98 31 bd bc 37 05 3d 61 f5 94 bb 1c 50 51 3d
       -0.04335837 0.032523856 -0.004545853 0.05110179
000130 65 a9 8e 3d 6a 85 bf bd a1 4f 6e bd 01 45 c2 bd
       0.06965903 -0.093516186 -0.05818141 -0.09485818
000140 d8 21 67 3d b7 64 86 bd 83 66 0f bd c5 7a fb bc
       0.05642876 -0.065621786 -0.035009872 -0.03069819
000150 cf ed 4b 3d df 83 91 3b 78 fc 59 bd 34 73 ae 3d
       0.04978734 0.004440769 -0.05321929 0.08518067
000160 94 88 82 bd 70 36 21 3d 6d 6f e4 3b 9d 4d 7d 3d
       -0.063737065 0.039358556 0.006971291 0.061841596
000170 25 84 68 bd fc c8 cf 3d 0c 19 b4 bb c1 37 9a ba
       -0.056766648 0.101457566 -0.00549615 -0.0011765884
000180 63 2d 7a 39 9e d1 b1 bc 5b 08 d7 ba 60 18 87 bd
       0.00023858766 -0.021706399 -0.0016405688 -0.06596446
000190 c1 a5 7d bd 06 a3 9d 3d 34 a4 2c bc 5a b7 bd 3d
       -0.061925653 0.0769711 -0.010537196 0.09263487
0001a0 de 05 cf bc 29 d0 6f 3c 9e 27 a1 bd 23 6c 77 bd
       -0.025271352 0.014637032 -0.078688845 -0.06040586
0001b0 7d 38 0c bd ab 1f 44 3d ea 59 95 bc d1 45 da bd
       -0.03423356 0.047881763 -0.01823135 -0.10657848
0001c0 7e 4e 37 3d 00 64 81 3d c9 8f f7 bb 81 b9 f3 ba
       0.04475259 0.063179016 -0.0075549823 -0.0018594713
0001d0 d4 2f c1 bc c8 7e 19 3d cd 89 35 bd 76 ba 9c bc
       -0.023582377 0.037474424 -0.04432087 -0.01913188
0001e0 87 c7 2c 3d 93 6a 04 3d 6a c8 86 3d dc ea cc bd
       0.04218247 0.0323282 0.06581195 -0.10005733
0001f0 2c ca e1 3d a7 55 9c 3d a9 62 09 3b 88 f3 90 bd
       0.11024889 0.076335244 0.0020963347 -0.070777

net.6.bias f4 [2]
000000 43 f7 83 3e be 0c 8b be
       0.25774583 -0.2715816
