assets/snapshots/P3_log_amount_no_scaling_mlp.pth (torch, 52437 bytes, 6 tensors)

net.0.weight f4 [128, 30]
-0.11073429 -0.11466861 -0.09799821 -0.026362253 0.0656422 -0.13342282 0.074369974 -0.08736699
-0.09021558 0.1751551 0.17077687 0.012688008 -0.017322201 0.12892616 0.0228263 0.066239804
0.13419805 0.12398176 0.14534919 0.15689643 -0.094339244 0.07671704 0.094120204 -0.050058287
-0.06545352 -0.06596594 -0.03223202 -0.06623306 -0.13295935 -0.09803096 -0.13853328 0.12785222
-0.008842252 0.076653376 -0.08835843 -0.11260872 -0.07971634 -0.06806748 0.009763826 0.045625538
-0.028144518 0.11846938 0.011408722 0.17788245 -0.15341623 0.14320478 0.0061863516 0.200471
0.10482187 -0.12383147 -0.0021419306 -0.1757078 0.13751715 0.02206186 -0.17232217 0.11330415
0.1676417 -0.096644916 -0.049871314 0.11160313 -0.012767039 -0.2107562 -0.05881098 -0.072959304
0.17567852 0.16200942 -0.01232202 0.20595686 0.04513259 -0.0057376446 -0.080521606 0.054740354
-0.16749695 -0.061666247 0.071353175 0.10831285 -0.11467253 -0.028278962 0.14568184 0.021180436
-0.0059807957 -0.06475925 -0.042185668 -0.0741987 0.16061534 -0.08636916 0.1166621 0.05684867
-0.05363592 0.22739492 -0.089071326 0.16337723 -0.052652955 -0.054953005 -0.10392904 -0.15697682
-0.09663235 -0.030919667 0.15747342 -0.21075144 -0.05954114 -0.0504748 0.15725128 0.20647891
-0.0053873975 0.028981311 0.05269419 0.1273999 -0.096851446 -0.034078836 -0.03374672 -0.034212258
0.06037934 -0.057614945 -0.22480102 0.1128557 -0.020731732 -0.098897435 0.07395747 0.15428787
-0.15151788 -0.047677077 0.0037769466 0.022464573 -0.050135367 0.1742027 -0.14047553 -0.12104212
-0.0579329 -0.048495475 -0.036601312 0.17053424 0.10484484 -0.10554093 -0.15785424 -0.044460386
-0.043911193 -0.07109894 -0.13951789 0.12102049 0.058293793 -0.15507625 -0.037723083 -0.09058648
0.06620155 0.15217356 0.10022693 0.046074204 0.045490462 0.10627303 -0.01503897 0.13154723
0.11197655 0.089059815 -0.0898148 -0.024736946 0.19018367 0.13393757 -0.011623587 0.08393249
-0.0057474747 0.011671185 0.21964675 -0.018138727 -0.14003272 -0.13803084 0.008863482 -0.15474354
0.07727012 0.06983936 0.012704348 -0.20268711 -0.13688666 -0.19496289 0.17721093 0.21116214
-0.16478235 0.09701158 -0.03224768 0.030693626 0.12683174 -0.059769217 0.16616681 0.14687335
-0.031141225 0.025125384 0.120592505 -0.035248153 0.12562212 -0.0849907 -0.042957403 -0.044751972
0.086869985 0.0094356695 -0.042722356 -0.11690094 -0.02318423 0.06849365 0.12296442 -0.14668846
-0.11574654 0.09020676 -0.1562224 -0.12505265 0.07355643 0.007159207 -0.116553284 0.190695
-0.055916954 0.081332766 0.0037376527 0.048141133 0.25082937 -0.21028641 0.016770719 -0.10755139
-0.16733971 -0.09404385 0.23939516 -0.16662419 -0.2000248 0.07072658 -0.13550214 -0.24832782
-0.33551747 0.09758567 -0.26626942 -0.08342694 -0.22499578 -0.21263485 0.09761997 0.017836235
-0.016842145 0.1720896 -0.21710466 0.048518512 0.03234842 0.16906513 -0.069547206 0.123652674
0.1311054 -0.0566978 0.09869379 -0.026869819 0.062280674 0.057968162 -0.12790832 -0.0507609
0.15579878 0.12208822 -0.19034725 0.012989489 -0.19637412 0.05625419 0.02906207 -0.15503345
00000000: a9c8 e2bd 60d7 eabd 49b3 c8bd a7f5 d7bc
00000010: 6b6f 863d fe9f 08be 494f 983d 77ed b2bd
00000020: f2c2 b8bd dc5b 333e 22e0 2e3e 5de1 4f3c
00000030: 4ae7 8dbc 3805 043e 38fe ba3c bca8 873d
00000040: 376b 093e 26ea fd3d 6bd6 143e 75a9 203e
00000050: ef34 c1bd d31d 9d3d 18c2 c03d eb09 4dbd
00000060: 7f0c 86bd 2719 87bd b905 04bd 33a5 87bd
00000070: 7f26 08be 75c4 c8bd abdb 0dbe b1eb 023e
00000080: 18df 10bc 72fc 9c3d 44f5 b4bd 679f e6bd
00000090: 5242 a3bd f766 8bbd 74f8 1f3c d8e1 3a3d
000000a0: 558f e6bc 13a0 f23d a6eb 3a3c d126 363e
000000b0: 2519 1dbe 46a4 123e e1b6 ca3b 4548 4d3e
000000c0: d9ac d63d 5b9b fdbd a25f 0cbb bfec 33be
000000d0: 4cd1 0c3e 13bb b43c 3975 30be 020c e83d
000000e0: 44aa 2b3e c5ed c5bd dd45 4cbd 2f90 e43d
000000f0: d82c 51bc 79d0 57be c8e3 70bd b06b 95bd
00000100: 12e5 333e cce5 253e 4ce2 49bc 5be6 523e
00000110: f3dc 383d da02 bcbb 83e8 a4bd 6c37 603d
00000120: 5284 2bbe bf95 7cbd 9d21 923d 21d3 dd3d
00000130: 6ed9 eabd 48a9 e7bc 9f2d 153e 9882 ad3c
00000140: 8dfa c3bb 7fa0 84bd e1ca 2cbd 7df5 97bd
00000150: 5978 243e 50e2 b0bd 8aec ee3d 27da 683d
00000160: 57b1 5bbd 37da 683e 076b b6bd 5c4c 273e
00000170: a0aa 57bd 6716 61bd c0d8 d4bd 88be 20be
00000180: 2ee7 c5bd 3e4b fdbc b640 213e 3acf 57be
00000190: 69e1 73bd aabe 4ebd 7b06 213e 356f 533e
000001a0: c488 b0bb 376a ed3c ddd5 573d 1f75 023e
000001b0: 0d5a c6bd 4096 0bbd 003a 0abd 2722 0cbd
000001c0: 5450 773d a6fd 6bbd 3d32 66be e420 e73d
000001d0: 98d5 a9bc bd8a cabd 0477 973d a4fd 1d3e
000001e0: 8127 1bbe 0a49 43bd a686 773b a007 b83c
000001f0: be5a 4dbd 3162 323e d1d8 0fbe eee4 f7bd
00000200: 0c4b 6dbd 31a3 46bd 42eb 15bd 87a0 2e3e
00000210: e4b8 d63d d825 d8bd 8ba4 21be 181c 36bd
00000220: 39dc 33bd 529c 91bd c7dd 0ebe 97d9 f73d
00000230: 79c5 6e3d 4fcc 1ebe 8583 1abd 6885 b9bd
00000240: ae94 873d 63d3 1b3e c743 cd3d 4eb8 3c3d
00000250: 3554 3a3d ada5 d93d 0366 76bc 51b4 063e
00000260: f653 e53d fe64 b63d d2f0 b7bd 23a5 cabc
00000270: 82bf 423e ee26 093e dc70 3ebc cce4 ab3d
00000280: 5055 bcbb 7f38 3f3c 14eb 603e ab97 94bc
00000290: bd64 0fbe f557 0dbe 2338 113c 1775 1ebe
000002a0: cc3f 9e3d f007 8f3d e625 503c 368d 4fbe
000002b0: 042c 0cbe 5aa4 47be c876 353e e33a 583e
000002c0: b4bc 28be 02ae c63d 2516 04bd 3371 fb3c
000002d0: 2ee0 013e 91d0 74bd a227 2a3e f865 163e
000002e0: e21b ffbc c0d3 cd3c 34f9 f63d 5e60 10bd
000002f0: 16a3 003e 9b0f aebd 1af4 2fbd d84d 37bd
00000300: e4e8 b13d 1198 1a3c a3fd 2ebd c369 efbd
00000310: dbec bdbc 6646 8c3d c5d4 fb3d 8035 16be
00000320: 860c edbd 52be b83d c4f8 1fbe cd0d 00be
00000330: c1a4 963d c897 ea3b 7db3 eebd 8d45 433e
00000340: 2d09 65bd cb91 a63d 68f3 743b a32f 453d
00000350: b56c 803e 5255 57be bf62 893c e743 dcbd
00000360: 1a5b 2bbe 109a c0bd 0124 753e 889f 2abe
00000370: 4dd3 4cbe 19d9 903d 13c1 0abe a649 7ebe
00000380: f2c8 abbe ffda c73d 7754 88be bedb aabd
00000390: 4b65 66be f3bc 59be fbec c73d 4c1d 923c
000003a0: 8af8 89bc 4238 303e af50 5ebe 59bb 463d
000003b0: c77f 043d 691f 2d3e c46e 8ebd 9d3d fd3d
000003c0: 7e40 063e f43b 68bd f81f ca3d 181e dcbc
000003d0: 051a 7f3d 0670 6d3d 66fa 02be a9ea 4fbd
000003e0: b789 1f3e 6409 fa3d 64ea 42be ded1 543c
000003f0: 4c16 49be cb6a 663d 9413 ee3c 17c1 1ebe

net.0.bias f4 [128]
-0.011889793 0.13870193 -0.05605774 0.15305607 -0.028472386 0.23177937 0.14234756 -0.13699704
0.06699708 0.15166058 -0.054635506 0.1544415 -0.17693233 -0.1420845 0.007813621 0.03408116
0.05220371 -0.0567935 0.08032096 0.12320211 0.1412076 -0.095469125 0.12762532 -0.09761916
0.10588152 0.18423541 -0.1654976 0.25531772 -0.11782051 0.088710934 0.08357516 -0.05073161
-0.038597368 0.10742301 -0.050705135 -0.044236142 -0.0017354063 -0.05773586 -0.26261723 -0.0014064302
0.11178669 -0.062120717 -0.12791114 0.23611605 -0.17569254 0.2491977 0.12221378 -0.09992602
-0.0045194537 0.2491174 0.0847958 -0.09871776 0.045702744 0.13326554 -0.14115748 0.032894656
0.051091686 -0.020074284 0.08520101 0.050295923 -0.07923719 0.14132851 0.23361678 -0.10258263
-0.019077571 0.18786792 -0.118000545 0.030992273 0.17248821 -0.028395388 0.042815033 -0.21530458
-0.065481834 -0.026313849 0.19008249 -0.10523481 -0.12101119 -0.17782451 -0.036565665 -0.15358895
0.047647856 -0.054131687 0.09887199 0.12417388 0.09595466 0.1792565 -0.04755271 -0.07629474
0.06479947 0.09901196 -0.1073426 -0.023636105 -0.07607073 -0.034757763 0.08468539 -0.050126612
-0.08899742 0.13840036 -0.19005382 -0.045444824 0.030665247 0.0181481 -0.0415296 0.052776612
0.063274935 0.21574298 0.17859414 0.12329003 -0.029657014 -0.0750629 -0.15632796 -0.058233906
0.13479763 0.0958289 0.009362924 -0.1337204 0.18160246 -0.15842098 -0.1149897 0.18834442
0.12174839 -0.1520229 -0.13026272 0.019365193 -0.0826079 -0.07305006 -0.114030145 -0.16320324
00000000: 68cd 42bc e107 0e3e cd9c 65bd bbba 1c3e
00000010: ec3e e9bc 9257 6d3e 8fc3 113e f448 0cbe
00000020: c435 893d e94c 1b3e 7bc9 5fbd ea25 1e3e
00000030: c02d 35be 997e 11be b404 003c b098 0b3d
00000040: 8fd3 553d 4da0 68bd 517f a43d 6351 fc3d
00000050: ba98 103e 5185 c3bd 36b0 023e 8eec c7bd
00000060: 69d8 d83d 35a8 3c3e 3478 29be 01b9 823e
00000070: e14b f1bd 14ae b53d 7429 ab3d f3cb 4fbd
00000080: 4618 1ebd 9800 dc3d 30b0 4fbd f530 35bd
00000090: 9376 e3ba 707c 6cbd c475 86be f757 b8ba
000000a0: 6cf0 e43d 4b72 7ebd 23fb 02be 68c8 713e
000000b0: bfe8 33be af2d 7f3e 384b fa3d 03a6 ccbd
000000c0: ed17 94bb a218 7f3e 6ca9 ad3d 892c cabd
000000d0: cd32 3b3d c376 083e 968b 10be 8cbc 063d
000000e0: 8445 513d d372 a4bc de7d ae3d 1903 4e3d
000000f0: 1c47 a2bd 6cb8 103e 3d39 6f3e d816 d2bd
00000100: 9148 9cbc 7360 403e 45aa f1bd 82e3 fd3c
00000110: c0a0 303e 729d e8bc d15e 2f3d ce78 5cbe
00000120: 571b 86bd 2490 d7bc fca4 423e 5985 d7bd
00000130: b7d4 f7bd a117 36be e1c5 15bd 6c46 1dbe
00000140: 662a 433d 30b9 5dbd 667d ca3d e04e fe3d
00000150: e083 c43d 048f 373e a1c6 42bd 6b40 9cbd
00000160: 96b5 843d c8c6 ca3d 70d6 dbbd 81a0 c1bc
00000170: f9ca 9bbd 285e 0ebd 896f ad3d 9051 4dbd
00000180: 4844 b6bd d3b8 0d3e 789d 42be 5a24 3abd
00000190: af35 fb3c 53ab 943c f11a 2abd 4a2c 583d
000001a0: 4a96 813d baeb 5c3e 62e1 363e 7c7f fc3d
000001b0: 44f3 f2bc 94ba 99bd 7014 20be ad86 6ebd
000001c0: 6408 0a3e f141 c43d f366 193c 00ee 08be
000001d0: fff5 393e 1c39 22be b87f ebbd 5cdd 403e
000001e0: 3857 f93d e4ab 1bbe 9763 05be c1a3 9e3c
000001f0: 552e a9bd 459b 95bd a388 e9bd c01e 27be

net.3.weight f4 [64, 128]
0.05808567 -0.042618986 -0.013209296 0.055420328 -0.06258463 -0.06570188 -0.028899763 0.07024072
-0.09315975 0.0111443335 -0.013394476 0.009078384 0.055140786 0.0034836107 -0.038954426 0.03096245
0.047692303 -0.015893036 -0.034835193 -0.08766238 0.05038935 -0.07456351 0.020004872 -0.034685597
0.009344021 0.041543547 -0.018359767 -0.06621616 0.059976798 0.054417085 -0.0016934326 0.03705042
-0.024148097 0.050801508 -0.021444194 0.07041679 -0.04383457 -0.0077458634 0.010932349 -0.10409107
-0.06342718 0.07179489 -0.032438107 -0.07076006 0.077373594 -0.09005619 -0.028452162 -0.0026372126
-0.005430698 0.049814533 -0.009736042 -0.006792491 0.01848117 -0.08494848 0.052459408 0.016706595
0.0055275527 0.07549458 -0.06446335 0.03352239 -0.011010448 -0.0918932 -0.042433914 -0.06806098
-0.07363148 -0.07911064 -0.024984576 -0.0045868023 -0.05432622 0.063502766 -0.040200613 0.05102614
0.06491372 0.05313352 0.044676837 -0.06391563 -0.015976798 0.060296375 0.049727738 0.030104311
0.070737734 -0.027818486 -0.005468016 0.00547877 0.011007564 0.038988944 0.010060674 -0.0456691
-0.080714904 0.014605786 0.044704035 -0.04307125 -0.051425323 0.032573402 -0.059397124 -0.064427905
-0.020210888 -0.07798757 -0.08987535 -0.092163466 -0.06325997 -0.0646514 -0.099856116 0.040925365
0.014152278 0.0063472562 -0.067140214 0.014770332 0.055572394 -0.0133193685 0.046816528 0.016458232
-0.03227836 0.037858594 -0.027174855 -0.07806044 0.07439281 0.04830101 -0.04420703 -0.0014110277
0.061284423 -0.062499605 0.06055369 -0.03764062 -0.09180978 0.009540476 -0.011375243 -0.022891216
0.023434723 -0.00065013435 0.08601211 0.014206939 -0.013857202 -0.05665551 -0.040109966 -0.10296914
-0.07688781 -0.0027041412 0.031974863 -0.012063569 -0.03576634 -0.08604307 -0.06499049 -0.091179
0.05856095 0.048566636 0.053307034 0.0072969343 -0.049966786 -0.08981989 0.00698921 -0.02920775
-0.0040968065 -0.0786077 -0.03743814 0.066729225 0.0010909073 0.04074374 -0.08349173 -0.04289392
-0.0029077788 0.065170474 -0.03352354 0.0009268408 0.018622683 0.042086452 0.04139643 0.031669617
-0.053464312 -0.06548681 0.034967117 -0.06418968 0.031421456 0.014845407 0.02918606 0.020288683
-0.06770785 -0.033758253 0.054810707 0.06606188 0.041541386 -0.059994027 0.001924471 -0.040126603
0.010251125 0.005555555 -0.060677487 0.018239707 0.010425792 0.036649432 -0.09765784 0.011910349
-0.0076921307 0.01804921 -0.039376326 0.056331526 0.059100796 -0.0042410665 0.033200737 -0.060720444
-0.008809556 0.07029655 -0.0011491905 0.009523697 0.031883936 0.021122357 0.024253836 0.0019725421
-0.019945005 0.012999375 -0.087288186 0.032346424 -0.0645351 -0.0011681875 0.02017059 0.03693359
-0.042082343 -0.012174031 0.034839887 -0.08611129 -0.0781897 0.035571203 0.048820645 -0.068505235
-0.03855797 -0.041320115 -0.04806278 -0.030057797 -0.0337412 0.015893586 0.026994599 0.022540443
-0.061140463 -0.08013371 0.03643795 -0.021520184 0.01625626 0.004274132 0.03859002 -0.01966004
-0.01177271 0.0025202765 -0.043465633 0.030253302 0.08159534 0.06192493 0.003087541 0.025785754
0.052439574 -0.08615933 -0.0558623 0.064938895 0.087911546 -0.009136162 -0.1028088 -0.06370288
00000000: 3deb 6d3d 3f91 2ebd ce6b 58bc 6d00 633d
00000010: 5f2c 80bd b58e 86bd 32bf ecbc 5eda 8f3d
00000020: 8aca bebd b996 363c 8174 5bbc 81bd 143c
00000030: 4edb 613d 4a4d 643b ad8e 1fbd f7a4 fd3c
00000040: 0159 433d 1d32 82bc 59af 0ebd 5588 b3bd
00000050: 1065 4e3d c1b4 98bd 42e1 a33c 7c12 0ebd
00000060: aa17 193c 9129 2a3d 3967 96bc 579c 87bd
00000070: 3baa 753d 73e4 5e3d 2bf6 ddba 2ec2 173d
00000080: 3bd2 c5bc 3e15 503d bcab afbc ae36 903d
00000090: e18b 33bd 03d1 fdbb 981d 333c b32d d5bd
000000a0: 1ce6 81bd 3309 933d d2dd 04bd a6ea 90bd
000000b0: 0c76 9e3d 616f b8bd 8214 e9bc 16d5 2cbb
000000c0: fff3 b1bb 530a 4c3d eb83 1fbc 8b93 debb
000000d0: d365 973c 78f9 adbd addf 563d 45dc 883c
000000e0: 7920 b53b e79c 9a3d 5c05 84bd c64e 093d
000000f0: 2b65 34bc 8132 bcbd 2fcf 2dbd 8e63 8bbd
00000100: 1acc 96bd c204 a2bd 74ac ccbc e34c 96bb
00000110: 2c85 5ebd bd0d 823d 66a9 24bd c900 513d
00000120: 7cf1 843d 89a2 593d 0fff 363d 33e6 82bd
00000130: c6e1 82bc 55f9 763d 50af 4b3d 519d f63c
00000140: f2de 903d 98e3 e3bc 0b2d b3bb 4187 b33b
00000150: 1259 343c dfb2 1f3d 86d5 243c 860f 3bbd
00000160: db4d a5bd 1b4d 6f3c 941b 373d 7b6b 30bd
00000170: 5ca3 52bd b06b 053d 664a 73bd c7f2 83bd
00000180: 4e91 a5bc f2b7 9fbd 9110 b8bd 33c0 bcbd
00000190: 718e 81bd f467 84bd 5d81 ccbd 5ba1 273d
000001a0: f5de 673c a5fc cf3b cf80 89bd 43ff 713c
000001b0: e19f 633d 7b39 5abc b0c2 3f3d 6ad3 863c
000001c0: 5036 04bd 9d11 1b3d cd9d debc 27de 9fbd
000001d0: 425b 983d 48d7 453d 6e12 35bd 3cf2 b8ba
000001e0: 6005 7b3d 96ff 7fbd 2507 783d 0d2d 1abd
000001f0: c406 bcbd a84f 1c3c 3a5f 3abc 5c86 bbbc
00000200: 2dfa bf3c c76d 2aba 1e27 b03d 39c4 683c
00000210: 5109 63bc 9c0f 68bd 594a 24bd 7ce1 d2bd
00000220: 5b77 9dbd f637 31bb 13f8 023d 47a6 45bc
00000230: ba7f 12bd 5937 b0bd bc19 85bd 0ebc babd
00000240: 9bdd 6f3d cfed 463d 7a58 5a3d 1f1b ef3b
00000250: f9a9 4cbd 7ef3 b7bd be05 e53b 1745 efbc
00000260: 813e 86bb 13fd a0bd bc58 19bd 55a9 883d
00000270: c6fc 8e3a e8e2 263d b6fd aabd 89b1 2fbd
00000280: 6f90 3ebb 1978 853d fb4f 09bd 3cf7 723a
00000290: 998e 983c d862 2c3d 4e8f 293d 00b8 013d
000002a0: 65fd 5abd f31d 86bd ae39 0f3d e175 83bd
000002b0: c9b3 003d 263a 733c 9b17 ef3c 7434 a63c
000002c0: 6aaa 8abd 1846 0abd 3181 603d 734b 873d
000002d0: 4d27 2a3d 4cbc 75bd 883e fc3a cb5b 24bd
000002e0: 56f4 273c 600b b63b f588 78bd 706b 953c
000002f0: f1d0 2a3c b71d 163d d500 c8bd a023 433c
00000300: 450e fcbb f0db 933c 1249 21bd e3bb 663d
00000310: ad13 723d a5f8 8abb 7ffd 073d 00b6 78bd
00000320: f555 10bc a3f7 8f3d 6fa0 96ba 4809 1c3c
00000330: bb98 023d cb08 ad3c fbaf c63c c445 013b
00000340: b563 a3bc 55fb 543c 26c4 b2bd af7d 043d
00000350: fa2a 84bd de1d 99ba cb3c a53c ad47 173d
00000360: 895e 2cbd 9675 47bc 45b4 0e3d 1e5b b0bd
00000370: ec21 a0bd 1cb3 113d 28f8 473d 794c 8cbd
00000380: f6ee 1dbd 483f 29bd 7add 44bd c53b f6bc
00000390: 3634 0abd 4433 823c c723 dd3c bca6 b83c
000003a0: 6c6e 7abd 241d a4bd f63f 153d 194b b0bc
000003b0: d92b 853c 050e 8c3b 9210 1e3d 180e a1bc
000003c0: 53e2 40bc 392b 253b 0509 32bd c6d5 f73c
000003d0: 751b a73d ffa4 7d3d 5858 4a3b a53c d33c
000003e0: e1ca 563d 4e74 b0bd decf 64bd affe 843d
000003f0: f80a b43d d7af 15bc 6c8d d2bd a876 82bd

net.3.bias f4 [64]
-0.072641864 0.02985405 -0.0827774 0.0418468 -0.045471765 0.011338269 -0.11881763 -0.048991356
0.02346253 -0.037745364 0.007649083 -0.070239305 0.056451455 -0.0746051 -0.07357968 -0.080600955
0.0054955827 0.071519725 -0.07573736 0.06380152 -0.08646191 -0.014517929 -0.060550492 -0.057012863
0.023270125 0.06438141 -0.008317014 0.09961406 -0.037542142 0.09741394 0.0112217525 -0.0008508725
-0.04506732 -0.05606573 0.014911411 -0.075642936 -0.09952925 0.004017174 0.063689224 0.010669774
-0.23345862 -0.121868216 -0.011036585 -0.111895554 -0.07918836 -0.022441857 -0.060226668 0.025333297
-0.030895391 0.023672491 0.10528984 -0.28347263 -0.037691865 0.06874908 -0.060263537 -0.010607962
-0.0023013542 -0.059944954 -0.06008635 -0.012433935 0.08494175 -0.024821995 0.045170713 -0.049729485
00000000: 42c5 94bd 7b90 f43c 3387 a9bd 8d67 2b3d
00000010: 9a40 3abd 26c4 393c a856 f3bd 29ab 48bd
00000020: 7e34 c03c e29a 1abd 29a5 fa3b a0d9 8fbd
00000030: a439 673d 8fca 98bd f1b0 96bd 1d12 a5bd
00000040: 4a14 b43b ef78 923d 301c 9bbd 5faa 823d
00000050: f112 b1bd 9cdc 6dbc cb03 78bd 5286 69bd
00000060: fda0 be3c 67da 833d 1644 08bc 7502 cc3d
00000070: cac5 19bd f680 c73d 71db 373c 160d 5fba
00000080: 8398 38bd 2ea5 65bd fe4e 743c afea 9abd
00000090: fed5 cbbd 7fa2 833b 7f6f 823d 47d0 2e3c
000000a0: c70f 6fbe 0b96 f9bd cbd2 34bc 7f29 e5bd
000000b0: 822d a2bd fcd7 b7bc 3db0 76bd c687 cf3c
000000c0: 5518 fdbc d0ec c13c 33a2 d73d 5323 91be
000000d0: c962 1abd 51cc 8c3d e6d6 76bd 04cd 2dbc
000000e0: 51d2 16bb d788 75bd 1b1d 76bd b4b7 4bbc
000000f0: f1f5 ad3d 7f57 cbbc ed04 393d 25b1 4bbd

net.6.weight f4 [2, 64]
-0.09576938 -0.039669782 0.057612326 -0.0005168266 0.08139725 0.09657724 -0.0475555 0.048173867
-0.07500529 -0.10301169 -0.07357508 -0.06600044 0.034492668 0.034075312 -0.0963591 0.064541966
0.046859186 0.0399168 0.017984841 -0.056097466 0.08365758 -0.10112712 -0.03776478 0.017324729
-0.08119747 0.08437821 0.021863798 -0.031100972 -0.061277967 -0.014794754 0.00031583296 -0.08706808
0.07758558 -0.01073069 -0.09332733 -0.03214139 -0.035143103 0.064763315 0.10769417 -0.075587206
0.066395216 0.010366519 0.056362808 -0.08853041 -0.015635166 -0.02813792 -0.017954148 0.02057765
-0.05958847 -0.06238108 -0.081360795 0.048297327 -0.067428306 0.10046811 0.08997314 0.06357777
0.0056510544 -0.010019908 -0.03993982 0.08853773 -0.053544864 -0.08905417 -0.04245979 -0.06752901
0.07734075 0.07599854 0.0486261 0.016974123 0.02991871 -0.02632729 -0.05088007 0.041208025
-0.07564526 -0.093425795 0.08584684 0.027200721 0.008753966 0.03565328 -0.024874074 0.086240284
-0.08679651 -0.003986418 0.043047573 -0.07245215 0.08008434 -0.10198337 -0.03528732 0.007653325
-0.0003162293 0.06253119 -0.053833775 -0.09070308 0.09604426 -0.01468771 0.027162699 -0.08571769
-0.0959281 0.0031623605 -0.09648498 -0.020934468 -0.023785919 -0.10104381 -0.03300971 -0.05558552
0.068566404 0.0183873 0.025914669 -0.08313551 -0.002632417 -0.09962775 0.0945508 0.015832521
0.05391444 -0.036227968 -0.08740527 0.049676016 0.09230743 0.056929506 0.050200406 0.01793802
0.059694353 -0.0847942 -0.061774403 0.014136144 -0.058019206 0.10018316 0.018911835 -0.020441376
00000000: bd22 c4bd c87c 22bd e7fa 6b3d a57b 07ba
00000010: 9ab3 a63d 4aca c53d 8ec9 42bd f651 453d
00000020: 609c 99bd cbf7 d2bd 88ae 96bd 3d2b 87bd
00000030: 2f48 0d3d 8e92 0b3d eb57 c5bd 942e 843d
00000040: 6bef 3f3d cc7f 233d f254 933c 75c6 65bd
00000050: aa54 ab3d bc1b cfbd 3eaf 1abd 97ec 8d3c
00000060: dc4a a6bd 7cce ac3d b51b b33c 77c7 febc
00000070: 9bfe 7abd b265 72bc 6296 a539 c050 b2bd
00000080: 30e5 9e3d c7cf 2fbc 6622 bfbd b1a6 03bd
00000090: 37f2 0fbd a1a2 843d c38e dc3d 77cd 9abd
000000a0: 37fa 873d 55d8 293c b0dc 663d 6e4f b5bd
000000b0: 5215 80bc 7f81 e6bc 9414 93bc 7692 a83c
000000c0: 0a13 74bd 4e83 7fbd 7da0 a6bd 6bd3 453d
000000d0: da17 8abd 39c2 cd3d d643 b83d 1035 823d
000000e0: 7b2c b93b 8a2a 24bc f097 23bd 4553 b53d
000000f0: dc51 5bbd 0862 b6bd 51ea 2dbd a64c 8abd
00000100: d464 9e3d 1fa5 9b3d 292c 473d 510d 8b3c
00000110: 1518 f53c 54ac d7bc 9f67 50bd bfc9 283d
00000120: e7eb 9abd 0656 bfbd 78d0 af3d 0cd4 de3c
00000130: cb6c 0f3c 2c09 123d b7c4 cbbc bf9e b03d
00000140: 5ec2 b1bd 7fa0 82bb a752 303d cb61 94bd
00000150: 4203 a43d a8dc d0bd 7089 10bd bec8 fa3b
00000160: 94cb a5b9 5a10 803d ce80 5cbd 89c2 b9bd
00000170: dab2 c43d b9a4 70bc 4f84 de3c c28c afbd
00000180: f475 c4bd 9b3f 4f3b eb99 c5bd c37e abbc
00000190: b0da c2bc 0ff0 cebd 3135 07bd a4ad 63bd
000001a0: 8b6c 8c3d f7a0 963c 004b d43c f342 aabd
000001b0: a184 2cbb a209 ccbd daa3 c13d 34b3 813c
000001c0: 63d5 5c3d c763 14bd 8901 b3bd 1479 4b3d
000001d0: ae0b bd3d ea2e 693d f19e 4d3d c1f2 923c
000001e0: 1182 743d 95a8 adbd 2807 7dbd 499b 673c
000001f0: 8ca5 6dbd d42c cd3d feec 9a3c ac74 a7bc

net.6.bias f4 [2]
0.12930445 -0.16349706
00000000: 6368 043e c66b 27be
