assets/snapshots/P3_log_amount_no_scaling_transformer.pth (torch, 297667 bytes, 32 tensors)

input_proj.weight f4 [64, 1]
0	0xbef80fd8	-0.48449588
1	0xbf0a2224	-0.53958344
2	0xbf43a8c3	-0.76429385
3	0x3f3b953b	0.7327458
4	0x3e8fa2b1	0.2805381
5	0x3e654b78	0.2239207
6	0x3f549c11	0.8305064
7	0x3e60ee15	0.21965821
8	0xbd5d2a30	-0.05399531
9	0xbf0edcfe	-0.5580596
10	0xbf1efc1a	-0.62103426
11	0xbeac60d7	-0.33667633
12	0x3dafbdfe	0.0858116
13	0x3dda7813	0.106674336
14	0x3e0891be	0.13336846
15	0x3f3b03b0	0.730525
16	0x3e84e012	0.25952202
17	0xbeb3989e	-0.35077375
18	0x3dc30abd	0.095235325
19	0xbf5d5fcf	-0.8647432
20	0x3ed7451e	0.4204492
21	0xbebf258c	-0.37333333
22	0xbf4eae88	-0.80735064
23	0x3e228afc	0.15873331
24	0x3d5e4b20	0.054270864
25	0x3e310498	0.17286909
26	0x3f160920	0.58607674
27	0xbddabe2d	-0.106808044
28	0x3d9313b9	0.07181496
29	0x3f1fe133	0.62453
30	0xbf489a5f	-0.7836055
31	0x3f19940d	0.5999153
32	0x3f0742f4	0.5283654
33	0x3e6c8414	0.23097259
34	0x3f013ec7	0.50486416
35	0x3ece0c70	0.40243864
36	0x3f44ad56	0.7682699
37	0xbec2a66f	-0.38017604
38	0x3da4205d	0.08013985
39	0xbe93a5e3	-0.288375
40	0x3f57bb7b	0.8427045
41	0x3f5fad9a	0.8737427
42	0x3e9a0164	0.30079186
43	0x3e80467f	0.25053784
44	0x3df71086	0.120636985
45	0x3f1c860b	0.61142033
46	0xbf533ee6	-0.8251785
47	0xbd953ddf	-0.072871916
48	0xbe6a67c1	-0.22891141
49	0x3f3311d5	0.69949085
50	0xbe2fbd17	-0.17161976
51	0x3e0da31f	0.13831757
52	0x3f34796f	0.7049779
53	0x3f6b2799	0.91857296
54	0xbe5b709c	-0.21429676
55	0x3ee3dd26	0.4450466
56	0xbf1e5e0d	-0.6186226
57	0xbf666c09	-0.900086
58	0x3e990dba	0.29893285
59	0xbe6ce5b6	-0.23134503
60	0x3f430bc7	0.76189846
61	0x3f0e8f16	0.5568708
62	0xbdafefab	-0.08590635
63	0xbe9d78a6	-0.3075611

input_proj.bias f4 [64]
0	0x3df9c704	0.12196162
1	0x3e5541f3	0.20825939
2	0x3f7a4a12	0.9776927
3	0xbe2b7b42	-0.16746238
4	0x3ed660ef	0.4187083
5	0xbf61aa24	-0.8815024
6	0x3f209da0	0.62740517
7	0x3f309184	0.6897204
8	0x3c89472f	0.016757576
9	0xbf4b9c7e	-0.79535663
10	0xbe991f08	-0.29906487
11	0x3ce15915	0.027508298
12	0x3f7c8d18	0.9865279
13	0x3edf1eb5	0.43578115
14	0xbf6e8f0c	-0.9318702
15	0x3f5621a2	0.8364507
16	0x3e786e9e	0.24260947
17	0xbe9d277d	-0.3069419
18	0xbe12e108	-0.14343655
19	0xbdc572b7	-0.09641021
20	0x3f5d992c	0.86561847
21	0x3f17c21a	0.5928055
22	0xbf49c271	-0.7881232
23	0xbe13bfc0	-0.14428616
24	0xbf489dd7	-0.78365844
25	0x3f41703e	0.75561893
26	0x3f1679fd	0.5877989
27	0xbf70c255	-0.9404653
28	0x3ef77064	0.48327935
29	0x3f7bc649	0.98349434
30	0xbf40facd	-0.7538269
31	0xbf313543	-0.69221896
32	0x3f6273e2	0.88458073
33	0xbeaa7e02	-0.3329926
34	0x3c9fc632	0.019503687
35	0x3ef4bbb8	0.47799468
36	0x3ef58055	0.47949472
37	0x3ecd2d3d	0.40073577
38	0x3dc7b497	0.09751242
39	0x3f171b97	0.59026474
40	0x3f10e506	0.5659946
41	0x3f823788	1.0173197
42	0xbf4e3141	-0.80543905
43	0xbed5372d	-0.41643658
44	0x3f627a0d	0.88467485
45	0x3f53f359	0.82793194
46	0x3e7afb54	0.24509937
47	0x3f3b9625	0.7327598
48	0x3f671bfb	0.9027707
49	0x3f505617	0.8138136
50	0xbe5cead7	-0.2157396
51	0x3f2ce8e9	0.6754289
52	0xbf716215	-0.94290286
53	0xbf5ec92d	-0.8702572
54	0x3e9e9416	0.30972356
55	0xbf1e92a4	-0.61942506
56	0xbf167c21	-0.58783156
57	0xbf57d69c	-0.8431184
58	0x3e70d62e	0.23519203
59	0xbe158e04	-0.14604956
60	0xbebacd96	-0.36484975
61	0x3f1ec380	0.6201706
62	0x3e0b455e	0.1360068
63	0x3db74201	0.08948136

encoder.layers.0.self_attn.in_proj_weight f4 [192, 64]
0	0x3d8fbbbb	0.070182286
1	0xbe210151	-0.15723158
2	0x3d5c3f99	0.05377159
3	0xbd9cc510	-0.07654774
4	0x3cf27b81	0.029599907
5	0x3d575758	0.052573532
6	0x3d582555	0.052769978
7	0xbd6cb358	-0.057788223
8	0xbd71faf7	-0.05907723
9	0xbd1863fc	-0.037204728
10	0x3d8b8a13	0.06813445
11	0x3cedb9dc	0.029019289
12	0x3cede9ac	0.029042087
13	0xbe0aaf28	-0.1354338
14	0x3db2ee42	0.0873685
15	0xbd78ba54	-0.06072457
16	0xbd8ff0d7	-0.070283584
17	0x3db601bc	0.088870496
18	0x3da369c3	0.07979157
19	0x3daa7742	0.08323528
20	0xbd9ed4cc	-0.077554315
21	0xbd88dc9e	-0.066827044
22	0x3dacde40	0.08440828
23	0xbe02814a	-0.12744632
24	0xbdf83b4c	-0.12120685
25	0x3d868bdd	0.065696456
26	0x3dd3ad88	0.10335833
27	0x3cc99189	0.02460553
28	0xbc0cad63	-0.0085862605
29	0x3e299ed1	0.1656449
30	0xbdfba1f5	-0.1228675
31	0x3c8c3101	0.01711321
32	0x3ccf1ee2	0.02528328
33	0x3e125cf3	0.1429327
34	0x3e130269	0.14356388
35	0x3d81512f	0.06314313
36	0x3d6fb001	0.05851746
37	0x3d77c0f6	0.060486756
38	0x3c93f354	0.018060364
39	0x3d284921	0.041085366
40	0x3dd446c2	0.103650585
41	0x3bea6e27	0.0071542445
42	0xbe0cd57a	-0.1375331
43	0x3cf013e3	0.029306358
44	0xbd782e8b	-0.06059126
45	0xbe094ba2	-0.13407758
46	0xbe13c3d7	-0.14430176
47	0x3dba9fe4	0.09112528
48	0x3d3926eb	0.04520313
49	0xbdf5fa01	-0.12010575
50	0xbdd2c351	-0.1029116
51	0xbcf4a214	-0.029862441
52	0xbd731bfa	-0.059352852
53	0x3d9cac7e	0.07650088
54	0xbc2febe4	-0.010737393
55	0xbda5beef	-0.08093058
56	0x3dead93f	0.11467218
57	0x3dd1faa2	0.102528825
58	0xbda49e29	-0.08037979
59	0xbdf683c2	-0.120368496
60	0xbd673d66	-0.05645504
61	0xbdd72009	-0.10504157
62	0x3c790040	0.0151978135
63	0xbe06023d	-0.13086791
64	0x3d4f09b7	0.050546374
65	0xbd87821e	-0.06616615
66	0xbd642597	-0.05569991
67	0xbe185598	-0.14876401
68	0xbcdd44d2	-0.027010355
69	0x3c9ad188	0.01889874
70	0x3dbdf427	0.09275084
71	0xbcb4b731	-0.022060009
72	0xbda8d3fe	-0.08243559
73	0xbd010fb9	-0.031509135
74	0x3ccda9cf	0.025105385
75	0x3df055a9	0.117350884
76	0x3d6d3a2b	0.0579168
77	0xbd80b651	-0.06284774
78	0xbdf3ed2a	-0.1191047
79	0xbc0e8ba0	-0.008700281
80	0x3c6dbb7e	0.014510034
81	0x3d1d4b3e	0.038401835
82	0x3dc087ba	0.09400888
83	0x3dbf7ec8	0.093503535
84	0xbe1b76d8	-0.15182054
85	0x3d43effc	0.04783629
86	0x3df7441b	0.12073537
87	0xbdfbd968	-0.12297326
88	0x3da13dde	0.07873128
89	0xbd8fbd1b	-0.07018491
90	0xbd4e9c21	-0.050441865
91	0x3c093644	0.008374754
92	0xbd221d0c	-0.039578483
93	0xbe076488	-0.13221943
94	0xbda18f19	-0.07888622
95	0xbe052d50	-0.13005567
96	0x3dc11aa4	0.094289094
97	0x3d104baa	0.03522841
98	0xbcbe335c	-0.02321785
99	0xbe248710	-0.16067147
100	0xbdd57c92	-0.104241505
101	0x3e199c90	0.1500113
102	0xbdd42a0e	-0.10359584
103	0x3dccde8d	0.10003386
104	0xbcaa9d15	-0.020826856
105	0xbd991a41	-0.07475711
106	0x3d227c38	0.039669245
107	0xbdf469fb	-0.11934277
108	0x3e06e3e4	0.13172871
109	0x3d5631d8	0.05229363
110	0x3bfcfa0a	0.0077202367
111	0x3dd89968	0.10576135
112	0x3d941237	0.07230037
113	0x3ddd40a0	0.10803342
114	0x3de97e23	0.11401012
115	0x3e02f2ef	0.12787984
116	0x3d807f39	0.06274266
117	0xbd3bf6c7	-0.045889642
118	0x3c94dd42	0.01817191
119	0x3d1a9b44	0.03774573
120	0x3cfb1a53	0.0306522
121	0x3d9f30fe	0.077730164
122	0x3baf731a	0.0053542973
123	0x3c0be909	0.008539447
124	0x3bd1b780	0.0064000487
125	0x3e0157f4	0.12631208
126	0xbd6a1eda	-0.05715833
127	0xbd305aac	-0.04305522
128	0x3d7797f3	0.060447644
129	0xbacb2ce3	-0.0015501048
130	0x3d91a021	0.0711062
131	0x3ce8b230	0.028405279
132	0x3d72e49f	0.05930006
133	0xbd78534d	-0.060626317
134	0x3ddccfc6	0.10781817
135	0xbd5ac9ff	-0.053415295
136	0x3cef6231	0.029221626
137	0x3d8392d8	0.064244926
138	0xbd929185	-0.07156662
139	0xbe13b2da	-0.14423695
140	0x3daa2497	0.0830776
141	0xbd5b46c6	-0.05353429
142	0xbb673c0e	-0.0035283598
143	0xbde1014b	-0.10986575
144	0x3dd5225a	0.10406943
145	0xbcca97fe	-0.024730679
146	0x3d5b6c13	0.053569864
147	0xbd9ce1a1	-0.07660223
148	0xbb9d36a4	-0.0047977734
149	0x3d98d9ab	0.07463392
150	0x3d83cedf	0.06435942
151	0xbdb791c1	-0.08963347
152	0x3de5efff	0.11227416
153	0x3da435e4	0.08018091
154	0x3d643a05	0.055719394
155	0xbd989353	-0.07449975
156	0x3d1e8e7a	0.038710095
157	0xbe0567f4	-0.13027936
158	0x3df4d84c	0.11955318
159	0x3ae11779	0.0017173133
160	0x3db5670f	0.088575475
161	0xbdfe3316	-0.124120876
162	0xbe11b5b4	-0.1422947
163	0x3e22cbe6	0.15898094
164	0xbe027355	-0.12739308
165	0x3dfbf797	0.123030834
166	0x3dd93587	0.10605913
167	0xbd9ba13a	-0.07599111
168	0x3d0c8a35	0.034311492
169	0x3e09f6fc	0.13473123
170	0xbdad54ed	-0.08463464
171	0x3de70ae1	0.11281372
172	0x3db5270f	0.088453405
173	0x3e230341	0.1591921
174	0x3c5f6ee5	0.013637279
175	0x3d2bedc5	0.0419748
176	0x3dc7f8b9	0.09764237
177	0x3df5fbe7	0.12010937
178	0xbda079cd	-0.07835732
179	0xbd864b1d	-0.065572955
180	0xbd18241e	-0.03714382
181	0xbdc0c568	-0.09412652
182	0x3e2bf198	0.1679138
183	0x3dd17505	0.10227398
184	0x3d1a3832	0.03765125
185	0xbcde30b6	-0.027122837
186	0xbd452356	-0.048129402
187	0x3d802b1c	0.062582225
188	0xbe004bbb	-0.12528889
189	0x3bc8f1a8	0.0061323233
190	0x3cdb0c52	0.026739273
191	0x3c7a2c9b	0.015269424
192	0x3d9455c0	0.07242918
193	0x3e15bf31	0.14623715
194	0x3e2755c4	0.1634131
195	0xbe2bb9af	-0.16770051
196	0xbdc4d77a	-0.096114114
197	0x3c388b26	0.011263644
198	0x3e0265ed	0.12734194
199	0x3dbadf74	0.091246516
200	0x3d681aed	0.056666303
201	0x3deb60ac	0.11493048
202	0x3dc4799d	0.095935084
203	0x3e0dcb1e	0.13847014
204	0xbdb29a05	-0.08720783
205	0xbde6a586	-0.1126204
206	0xbe0e5162	-0.13898233
207	0x3db222c5	0.08698038
208	0xbd82f515	-0.06394402
209	0xbe06f8f0	-0.131809
210	0x3d819809	0.063278265
211	0x3dc1ab53	0.094565056
212	0xbd4eabb0	-0.050456703
213	0xbda753ad	-0.08170257
214	0xbd8aed71	-0.067835696
215	0x3d109039	0.03529379
216	0x3bc5b976	0.0060340716
217	0x3e0a7447	0.13520919
218	0x3e12cb38	0.14335334
219	0x3c4346cf	0.011918738
220	0x3db5d912	0.088792935
221	0x3dc7fc82	0.09764959
222	0xbd9c691d	-0.07637236
223	0x3d535fb7	0.051604953
224	0x3e14e97c	0.14542192
225	0x3c7f063c	0.015565451
226	0xbdf0c596	-0.117564365
227	0x3e0883b5	0.13331492
228	0x3d6d234d	0.057894994
229	0x3db4b879	0.08824248
230	0xbcdb1a13	-0.026745832
231	0xbcee99da	-0.029126097
232	0xbdb04e2c	-0.0860866
233	0x3e0f33a1	0.13984539
234	0x3d7b4cbb	0.061352473
235	0x3d16e17e	0.03683614
236	0x3d9655ec	0.07340607
237	0x3dccf74e	0.10008107
238	0xbd944817	-0.072403125
239	0xbc8fdfbb	-0.017562738
240	0x3d9b7cc2	0.07592155
241	0xbe02c226	-0.12769374
242	0xbdcc4b5a	-0.0997531
243	0x3d91fe6c	0.07128605
244	0x3c87f963	0.016598409
245	0x3da20c46	0.07912497
246	0xbd8fa099	-0.070130534
247	0xbe1ef738	-0.15523994
248	0x3d4636e0	0.048392177
249	0xbe18b48f	-0.14912628
250	0xbe0405b8	-0.12892807
251	0xbbc7f9ce	-0.006102777
252	0xbe037b2c	-0.12839955
253	0x3d98cefa	0.07461353
254	0x3d953d34	0.07287064
255	0xbc5fd7f4	-0.013662327

encoder.layers.0.self_attn.in_proj_bias f4 [192]
0	0x3c4cf10a	0.01250864
1	0x3bdff622	0.0068347612
2	0x3d04cfb2	0.032424636
3	0x3d0aa1c5	0.03384568
4	0x3ce74386	0.02823044
5	0xbcd522a1	-0.026017489
6	0xbcde14f8	-0.027109608
7	0xbcde8306	-0.027162086
8	0x3d014826	0.031562947
9	0xbc86081b	-0.016361287
10	0xbd07b438	-0.033130854
11	0xbd0417e3	-0.032249343
12	0x3cb385e9	0.02191444
13	0x3ccf076c	0.025272094
14	0x3c9b9d8f	0.018996028
15	0x3c24047e	0.010010837
16	0xbc940218	-0.018067405
17	0x3c8b6da4	0.017020054
18	0xbc9285cb	-0.017886063
19	0xbc5fd958	-0.013662659
20	0xbc99821c	-0.018738799
21	0x3c998ee5	0.018744895
22	0x3c87afe8	0.01656337
23	0xbc805308	-0.015664592
24	0x3c0e5349	0.008686849
25	0xbc6ae65a	-0.014337147
26	0x3d0554fd	0.032551754
27	0x3c83f458	0.016107723
28	0xbc4b3c8a	-0.01240457
29	0xbc168175	-0.009186138
30	0x3c5655df	0.013081997
31	0xbb681a96	-0.0035416237
32	0xbc7ff260	-0.015621752
33	0x3cce1393	0.025155818
34	0x3ce95aa7	0.02848561
35	0x3cdb4fd8	0.02677147
36	0x3ce103f3	0.027467703
37	0x3ced482a	0.028965075
38	0x3c77ba7f	0.015120148
39	0x3ce67aa2	0.028134648
40	0x3cf2419b	0.029572299
41	0xbcec6dce	-0.028860953
42	0x3cd0ae92	0.025473867
43	0xbcbb580f	-0.022869138
44	0x3cefdb74	0.029279448
45	0x3c6f17ed	0.014593107
46	0x3cfa33e9	0.03054233
47	0xbb37c073	-0.0028038293
48	0xbc06639e	-0.0082024615
49	0xbbc5bf2e	-0.0060347533
50	0x3c033db0	0.008010313
51	0xbc368634	-0.011140395
52	0xbbe94ab2	-0.0071195
53	0xbb8987eb	-0.004197111
54	0x3bc31e41	0.0059545343
55	0xbc24b857	-0.010053716
56	0xbb9db895	-0.0048132637
57	0x3b17d24d	0.002316612
58	0xbc8c3d94	-0.017119206
59	0xb9cdacc8	-0.0003922938
60	0xbc447300	-0.011990309
61	0xbc50271c	-0.012704637
62	0x3b93f1fa	0.00451493
63	0x3b62d1ec	0.0034609986
64	0x3a26fe8c	0.0006370328
65	0x3b27230c	0.0025503067
66	0xb937f3d1	-0.00017543069
67	0xbaa486be	-0.0012552363
68	0xbb1c485d	-0.0023846843
69	0xb88c833c	-6.7001645e-05
70	0x3b0b1781	0.0021223726
71	0x3a87b021	0.0010352173
72	0x3beeb74b	0.007285034
73	0xbb87c05b	-0.0041428036
74	0xbc14bd0e	-0.009078277
75	0xbba77347	-0.0051101777
76	0x3b71fd5a	0.003692469
77	0x3a2552d2	0.00063065917
78	0xb8f28d57	-0.00011565786
79	0x395dc870	0.00021150871
80	0xbc444b95	-0.011980911
81	0x3bc34b34	0.0059598926
82	0xbba29ebd	-0.0049627707
83	0xbc0339e0	-0.008009404
84	0xbc0728e7	-0.008249498
85	0x3c1981cd	0.009369326
86	0x3bec5690	0.0072124675
87	0x39e35d00	0.00043366104
88	0x3b8dd4d3	0.004328349
89	0xbb90a35e	-0.004414006
90	0xba8a885d	-0.0010569204
91	0xbb17b314	-0.002314751
92	0xbc24e5a5	-0.010064517
93	0xbc222c7c	-0.009898301
94	0x3c4abae2	0.012373658
95	0x3bdd6b65	0.006757187
96	0xbb8db391	-0.0043243845
97	0x3bb635f9	0.0055606333
98	0x3bdca7a7	0.006733853
99	0x3be8d007	0.007104877
100	0x3c81d279	0.015847431
101	0x3bedc66a	0.007256319
102	0x3b929517	0.0044733393
103	0x3c21c24a	0.009872982
104	0x3b84f243	0.0040572
105	0xbb398429	-0.0028307533
106	0x3b504f3f	0.0031785516
107	0xbb089089	-0.0020838103
108	0x3ba85342	0.005136878
109	0x3a89f19b	0.0010524275
110	0x3b53afbf	0.0032300798
111	0xb8abd9b9	-8.1944694e-05
112	0xbaa426f2	-0.0012523814
113	0x3a8c8f1e	0.0010723805
114	0x3af57ae7	0.0018728644
115	0x3aba3c25	0.0014208598
116	0xba7986f7	-0.00095187075
117	0xbad3fb40	-0.0016172901
118	0xb9ff3f68	-0.00048684631
119	0x3a6458a2	0.0008710717
120	0xb99583c6	-0.00028517673
121	0x3a138580	0.0005627498
122	0xba0ccbb0	-0.0005370928
123	0xba91dd92	-0.0011128655
124	0x393f3e4d	0.00018238388
125	0xb9cad2ca	-0.00038685492
126	0xba7609fc	-0.0009385643
127	0xb9f3b861	-0.00046485945
128	0x3bc7c41c	0.006096376
129	0xbbfcc339	-0.007713702
130	0xba681ac1	-0.00088540843
131	0xbbaf55e9	-0.0053508175
132	0x3be51fb4	0.0069923047
133	0x3c2052de	0.009785382
134	0x3c253191	0.010082618
135	0xbb74ad9c	-0.0037334925
136	0xbc32fe73	-0.010924923
137	0xba5b074d	-0.0008355275
138	0xbc891326	-0.016732763
139	0x3c482cfb	0.012217755
140	0x3ba848c5	0.005135628
141	0x3c39cd74	0.011340488
142	0xba686af2	-0.0008866034
143	0x3c25d18b	0.01012076
144	0x3c3b0304	0.011414293
145	0x3c395911	0.011312739
146	0xbb8a57e7	-0.0042219046
147	0xbbc29c41	-0.005939037
148	0xbc3be035	-0.011467029
149	0xbae2da09	-0.0017307411
150	0x3c21e5cd	0.009881449
151	0x3a5870d5	0.00082565594
152	0xbac7241d	-0.0015193258
153	0x3ba33457	0.0049806046
154	0x3c14899b	0.009066011
155	0x3ab5bea8	0.0013866024
156	0xbc19bb0f	-0.009382977
157	0x3b12e37a	0.0022413419
158	0xbc07bb38	-0.0082843825
159	0x3c8599a0	0.016308606
160	0xbbffea88	-0.0078099407
161	0x3b9eadb2	0.0048424834
162	0x3bf9faf0	0.007628791
163	0x3b51899c	0.003197289
164	0x3b716490	0.0036833622
165	0xbb18a407	-0.0023291127
166	0xbb5d5adc	-0.003377608
167	0x3badb959	0.005301636
168	0x3c008894	0.007845063
169	0x3ac885cc	0.0015298664
170	0x3b7a6bb1	0.0038211162
171	0xbc2c0ea7	-0.01050154
172	0x3b5cd839	0.0033698215
173	0x3b1e0ff4	0.0024118396
174	0x3b2c2dd4	0.0026272433
175	0x3c9c3d3c	0.019072168
176	0xbb9d3966	-0.004798102
177	0xbc1bf790	-0.009519473
178	0xbab07221	-0.0013461747
179	0xbc160933	-0.009157467
180	0xbc13c1e2	-0.009018393
181	0xbbfe8dea	-0.0077683823
182	0x3b78f8f1	0.0037990178
183	0x3c127076	0.008937946
184	0x3c3fd9c8	0.011709638
185	0xbb2b3b40	-0.0026127845
186	0x3c1523a9	0.00910274
187	0xbc6c6414	-0.014428157
188	0xbbed06ce	-0.007233477
189	0xbbdfd471	-0.006830745
190	0x3c1cda42	0.009573521
191	0xbb8cf444	-0.0043015797

encoder.layers.0.self_attn.out_proj.weight f4 [64, 64]
0	0xbdafe18e	-0.08587943
1	0x3e098e90	0.1343329
2	0x3d90edb5	0.07076589
3	0xbdda99fc	-0.106739014
4	0x3da48bf8	0.080345094
5	0x3d6b7e01	0.057493214
6	0x3d57f7d2	0.052726574
7	0x3d275135	0.04084893
8	0xbe178d10	-0.14799905
9	0xbd865549	-0.065592356
10	0x3d90c5e5	0.070689954
11	0xbdb13ed1	-0.086545594
12	0xbce4c14f	-0.027924208
13	0xbd272be1	-0.04081333
14	0x3d992f59	0.07479734
15	0xbd9b81f3	-0.07593145
16	0xbcb9398c	-0.022610448
17	0xbd857a7c	-0.06517503
18	0x3e12056e	0.14259884
19	0xbca0520d	-0.019570375
20	0x3d05fd1f	0.0327121
21	0x3d81a150	0.06329596
22	0xbd4726da	-0.048621036
23	0x3cd3ed2c	0.025869928
24	0x3d58ab82	0.052897938
25	0x3d519011	0.051162783
26	0x3d762fa1	0.060104016
27	0xbd283909	-0.041070018
28	0x3d80b662	0.06284787
29	0x3dd2c6dc	0.10291836
30	0x3d407a80	0.046991825
31	0x3c8213e5	0.015878627
32	0xbcc931a5	-0.024559805
33	0xbbd76746	-0.0065735904
34	0x3c771342	0.015080275
35	0x3dd40eed	0.10354409
36	0xb8dd8cbb	-0.00010564314
37	0x3d6bde69	0.057585154
38	0xbe002297	-0.12513195
39	0x3dafb67b	0.08579727
40	0xbda40fa5	-0.080107965
41	0xbd97c07a	-0.07409759
42	0xbe28539e	-0.16438147
43	0xbca299ef	-0.019848792
44	0xbd7a632d	-0.061129738
45	0x3e021a91	0.12705447
46	0x3cb92240	0.02259934
47	0xbdc7ee50	-0.097622514
48	0xbd272600	-0.040807724
49	0xbc7fec8b	-0.015620361
50	0x3de1700c	0.11007699
51	0xbc52ed73	-0.012873995
52	0x3d926697	0.07148474
53	0xbd5e5381	-0.054278854
54	0x3d8a376c	0.06748852
55	0x3daefc06	0.085441634
56	0xbe1220d6	-0.14270338
57	0xbdd8ba7d	-0.10582445
58	0x3d83a45f	0.06427836
59	0x3bd1e823	0.0064058467
60	0xbca6a102	-0.020340446
61	0xbd9b213b	-0.075746976
62	0x3e1be328	0.15223372
63	0x3d6e72c9	0.058214936
64	0x3db50d97	0.08840483
65	0x3dcda34b	0.10040911
66	0x3d373a1f	0.044733163
67	0x3d8bd13d	0.068270184
68	0xbe16e9db	-0.14737646
69	0xbdb6d99e	-0.08928226
70	0xbc2b0064	-0.010437105
71	0xbc26466e	-0.010148628
72	0x3da3672c	0.07978663
73	0x3d9c7adf	0.07640623
74	0x3d68ec63	0.05686606
75	0xbd58bc91	-0.052914206
76	0xbdf0f170	-0.117648005
77	0x3c8a780a	0.016902942
78	0xbdc86c89	-0.097863264
79	0xbcdec1f1	-0.027192088
80	0x3d13cbf5	0.03608318
81	0x3ddcd175	0.10782138
82	0x3cb87e9e	0.022521313
83	0x3dbee872	0.09321679
84	0xbd044912	-0.032296248
85	0xbd1c3b47	-0.03814247
86	0xbd46853f	-0.048466917
87	0x3d3f64d0	0.046727
88	0xbdfd31a3	-0.12362983
89	0x3d11c205	0.035585422
90	0xbd539ebc	-0.051665053
91	0xbc98131f	-0.018563805
92	0x3d1efaa6	0.038813256
93	0xbd90a493	-0.0706264
94	0x3df41b76	0.119193
95	0xbd86befb	-0.065793954
96	0x3d821ff3	0.0635375
97	0x3c374485	0.01118577
98	0x3df17fbc	0.117919415
99	0x3d8616ec	0.06547341
100	0x3d722811	0.05912024
101	0x3d626611	0.05527312
102	0x3d37602d	0.044769455
103	0xbd94399c	-0.072375506
104	0x3ca0a80f	0.019611387
105	0xbdafe8ce	-0.08589326
106	0xbd8dd9d6	-0.069263145
107	0xbd11db22	-0.035609372
108	0x3d66ca41	0.056345228
109	0xbdeb421b	-0.11487218
110	0x3d33bc58	0.04388079
111	0x3e09abab	0.13444392
112	0x3d89edfb	0.06734844
113	0x3b1c423f	0.0023843197
114	0xbc5f0d21	-0.01361397
115	0xbc812a6e	-0.015767302
116	0x3d945b28	0.07243949
117	0x3e1d3c2e	0.15354988
118	0xbde0871c	-0.1096327
119	0x3dbd09eb	0.09230407
120	0xbddf08d0	-0.10890353
121	0x3d12909c	0.03578244
122	0xbcd78aa5	-0.026311228
123	0x3de25848	0.110519946
124	0xbd547584	-0.051869884
125	0xbd723be0	-0.059139132
126	0x3cdd6c6c	0.027029239
127	0xbd86a23e	-0.06573914
128	0xbe100296	-0.14063486
129	0x3de47c3c	0.11156508
130	0xbcea9fa5	-0.028640578
131	0x3d2a199f	0.04152834
132	0xbdd9c2a2	-0.106328264
133	0x3db0c258	0.08630818
134	0x3d3ed0fe	0.04658603
135	0xbdd4f47c	-0.10398194
136	0x3d9d1fde	0.07672094
137	0x3d44fb71	0.048091356
138	0x3d74494c	0.059640214
139	0x3e07f831	0.13278271
140	0xbdcf1fef	-0.10113513
141	0xbd02bc9c	-0.031918153
142	0xbd80b492	-0.06284441
143	0x3cd02ee1	0.025412979
144	0x3d5464b3	0.051853847
145	0x3d99de44	0.07513097
146	0x3d7e3ede	0.062071674
147	0xbd0b1e46	-0.033964418
148	0xbde40871	-0.111344226
149	0xbd8205ad	-0.06348739
150	0xbd4594d9	-0.048237655
151	0x3d1ccfe8	0.038284212
152	0xbcb4e637	-0.022082431
153	0x3d2c30f9	0.04203889
154	0x3d053cf8	0.032528847
155	0x3c5587a8	0.013032831
156	0xbdb6a812	-0.089187756
157	0xbd8636b2	-0.06553401
158	0x3e128088	0.14306843
159	0xbd54e6f6	-0.051978074
160	0xbdc473eb	-0.09592422
161	0x3d01147a	0.03151367
162	0x3dcaab4d	0.09895954
163	0xbd6e4e2b	-0.058180016
164	0xbc843c85	-0.01614214
165	0x3d1ae238	0.037813395
166	0xbcf75fa2	-0.030196968
167	0xbda02db1	-0.07821215
168	0x3dc3bbde	0.09557317
169	0x3ba0c166	0.0049058674
170	0xbb5de5a9	-0.0033858812
171	0xbd87e402	-0.06635286
172	0x3df75c35	0.12078134
173	0x3df2df1c	0.11858961
174	0x3dcc9d23	0.09990909
175	0x3da83f54	0.08215204
176	0x3d622dfa	0.055219628
177	0x3b6bb650	0.003596682
178	0xbc263672	-0.010144817
179	0xbd793202	-0.060838707
180	0xbd90d2d9	-0.07071466
181	0x3e0caacc	0.13737029
182	0xbcaba495	-0.020952502
183	0xbdf70a18	-0.12062472
184	0x3dd83646	0.10557227
185	0xbd847053	-0.06466737
186	0x3d3abc02	0.045589454
187	0xbc8d1fa0	-0.017226994
188	0xbcd301ec	-0.025757752
189	0x3d3ca7e9	0.04605857
190	0x3d1b32e5	0.037890334
191	0xbdb9488a	-0.09047039
192	0xbd26cc05	-0.040721912
193	0xbdbbbe2e	-0.09167133
194	0x3d20248e	0.03909736
195	0x3db73a14	0.089466244
196	0x3de713d8	0.11283082
197	0xbdb1937a	-0.08670707
198	0xbda5ae7c	-0.08089921
199	0x3cfb3647	0.03066553
200	0x3cb9193d	0.022595042
201	0x3dc9f3fe	0.09860991
202	0x3cfa6451	0.030565413
203	0xbb640121	-0.0034790712
204	0xbd40f03d	-0.04710411
205	0xbd8492a5	-0.06473283
206	0x3db50f26	0.0884078
207	0xbd0b26d3	-0.033972573
208	0xbe0f6344	-0.1400271
209	0x3d9403e0	0.072273016
210	0xbc7ae48d	-0.01531328
211	0xbdcfe14b	-0.10150393
212	0x3cd765e5	0.026293704
213	0x3cbc09e7	0.02295394
214	0x3d5e28b9	0.054238055
215	0x3d75b6d9	0.05998883
216	0xbd9687ef	-0.07350146
217	0xbdb74db7	-0.0895037
218	0xbdf7989d	-0.120896555
219	0x3d966df9	0.07345194
220	0xbda5bc2a	-0.0809253
221	0xbc4af58c	-0.0123876445
222	0xbd58dff6	-0.05294796
223	0xbd474996	-0.04865416
224	0x3df50879	0.11964507
225	0x3dc2b82e	0.09507786
226	0xbd5a70ee	-0.053330354
227	0x3d184ea6	0.03718438
228	0xbc38948b	-0.011265884
229	0x3b908fc1	0.004411668
230	0xbdc8d143	-0.098055385
231	0x3dba89d2	0.091083184
232	0x3da49dbe	0.080378994
233	0xbdca0aea	-0.09865363
234	0x3dbb816f	0.09155547
235	0x3d8965bb	0.06708857
236	0xbdebbad4	-0.11510244
237	0x3d2e2626	0.04251685
238	0x3dd64aa2	0.10463454
239	0x3de3f470	0.11130607
240	0xbbba22ea	-0.0056804316
241	0x3c184459	0.009293639
242	0xbd5e1122	-0.054215558
243	0x3df501b5	0.11963216
244	0x3e01d1fe	0.12677762
245	0xbd938acc	-0.07204208
246	0xbd8b72c8	-0.06809002
247	0xbc40506a	-0.011737922
248	0x3d611ebf	0.054960962
249	0x3d539c19	0.05166254
250	0xbd976142	-0.07391597
251	0x3d0cd4d0	0.03438264
252	0x3c883ea7	0.016631437
253	0x3cdfa574	0.027300574
254	0xbe137562	-0.14400247
255	0x3c88bf53	0.016692793

encoder.layers.0.self_attn.out_proj.bias f4 [64]
0	0xbc93aa11	-0.01802543
1	0xbcad6974	-0.021168448
2	0xbad2638d	-0.0016051397
3	0x3c18573b	0.009298141
4	0x3bcf0c4a	0.0063186036
5	0x3c22bf39	0.009933286
6	0xbbad145a	-0.005281967
7	0xbbc98c98	-0.0061507933
8	0xb9c30788	-0.0003719891
9	0xbc47c820	-0.01219371
10	0xbccffe9d	-0.025389964
11	0xbbdf1fa7	-0.006809193
12	0xbc99508f	-0.018715171
13	0xbaac8bfd	-0.0013164278
14	0x3c32ff53	0.010925132
15	0x3c01fac5	0.007933323
16	0x3bb6c0f5	0.0055772015
17	0x3bfb04e6	0.007660496
18	0x3c09c427	0.008408583
19	0x3a3366ee	0.0006843646
20	0x3b4c4f59	0.0031175225
21	0x3bf60b39	0.007508662
22	0xbc799628	-0.015233554
23	0xbc8c3a71	-0.01711771
24	0x3bffd0aa	0.007806857
25	0xbc4d4de2	-0.012530776
26	0xbbd31079	-0.0064411727
27	0x3c184903	0.009294751
28	0xbbda03b0	-0.0066532716
29	0xbba4ccce	-0.0050292974
30	0x3b35b7a3	0.0027727864
31	0x3c8d0bcc	0.01721754
32	0xbc45c9de	-0.012072055
33	0x3c40b137	0.011761001
34	0x3bdb4f26	0.006692785
35	0x3b46cc63	0.0030334226
36	0xbc1b7c0c	-0.009490024
37	0xbbbf7be6	-0.0058436273
38	0x3bd3a6de	0.006459101
39	0x3b870a16	0.0041210754
40	0x3caab991	0.020840438
41	0x3c5e8250	0.013580874
42	0xbbe37076	-0.0069408966
43	0xb8aaec72	-8.150273e-05
44	0xbc3e549b	-0.011616851
45	0x3c38bfd0	0.0112762
46	0xbcbfd37b	-0.023416271
47	0xbc74a756	-0.014932474
48	0xbae3dfe3	-0.0017385449
49	0x3b846912	0.0040408457
50	0x3b060df9	0.0020455106
51	0x3c8a1de0	0.016859949
52	0x3c64951f	0.013951569
53	0x3c94c1fa	0.018158901
54	0x3b007d17	0.001960581
55	0x3c34a25e	0.0110250395
56	0xbc1576f5	-0.0091226
57	0x3c070142	0.008240046
58	0x3c429474	0.011876214
59	0xbc14669c	-0.009057667
60	0x3c8a0860	0.016849697
61	0xbb9549d5	-0.0045559206
62	0xbc360797	-0.011110208
63	0xbcb2536d	-0.021768296

encoder.layers.0.linear1.weight f4 [128, 64]
0	0x3dd8c42f	0.10584294
1	0x3dded9b3	0.108813666
2	0xbcda5bdf	-0.026655136
3	0x3df1b256	0.11801593
4	0x3cdcb0f2	0.026939843
5	0x3b6ee2d5	0.003645112
6	0x3dac4928	0.08412391
7	0xbdf17646	-0.11790137
8	0xbdb0f5a5	-0.08640603
9	0x3dc68ae1	0.09694458
10	0xbd2f200e	-0.04275518
11	0xbd6f34d9	-0.05840001
12	0xbd36668e	-0.044531398
13	0x3cf35706	0.029704582
14	0xbd6f1fe2	-0.058380015
15	0x3d051bb0	0.032497108
16	0xbdb8be8f	-0.09020721
17	0x3e0cad44	0.1373797
18	0xbde854cf	-0.11344301
19	0x3ca17fa1	0.019714179
20	0x3c168c3a	0.009188706
21	0x3d45a487	0.04825261
22	0x3d4ad923	0.049523484
23	0xbd662962	-0.05619181
24	0xbd0647b0	-0.03278321
25	0x3cbc7e5c	0.023009472
26	0xbd3ec2ec	-0.04657261
27	0x3cbef8c6	0.023311984
28	0xbe0442ac	-0.12916058
29	0xbd265f7b	-0.0406184
30	0xbdd74d39	-0.10512776
31	0xbbce0fa7	-0.006288487
32	0xbda54d56	-0.08071391
33	0xbd692c9c	-0.05692731
34	0xbd9325d7	-0.07184952
35	0xbdf23188	-0.118258536
36	0x3d754f04	0.05988981
37	0x3a05b4dc	0.00051004975
38	0xbd9c2a30	-0.07625234
39	0xbd30b485	-0.043140907
40	0xbcf2afe8	-0.029624894
41	0xbd6e5b01	-0.058192257
42	0x3d75033a	0.05981753
43	0x3d9d30ab	0.07675298
44	0xbd8b1618	-0.067913234
45	0xbc7fad69	-0.015605309
46	0x3db22a09	0.08699424
47	0x3d3fff92	0.04687459
48	0x3d56e41a	0.05246363
49	0xbc7b1a16	-0.015326044
50	0x3d182fcb	0.037154954
51	0x3deeda88	0.11662775
52	0x3dbf4604	0.09339526
53	0xbd726947	-0.05918243
54	0xbcb478bc	-0.022030227
55	0xbd9f6fe4	-0.07785013
56	0x3cdac3c1	0.02670467
57	0x3cd2bc5c	0.025724582
58	0xbda8ef10	-0.082487226
59	0x3d8067e5	0.06269816
60	0xbcb72232	-0.022355173
61	0xbdb3b955	-0.08775584
62	0x3d4ed119	0.05049238
63	0x3dea6403	0.11444857
64	0xbda11883	-0.07866003
65	0x3ce8989b	0.02839308
66	0xbd9a9a3b	-0.075489484
67	0xbda4bf42	-0.08044292
68	0xbd257aa7	-0.040400174
69	0x3d3e2fac	0.046432182
70	0xbcfb95bb	-0.030711045
71	0x3d021ca1	0.031765584
72	0x3d52d3a4	0.051471367
73	0x3bdd24cf	0.0067487727
74	0xbd319cbd	-0.043362368
75	0x3dd9ac03	0.10628512
76	0xbbb1f3ca	-0.0054306732
77	0xbdbd7cd1	-0.092523225
78	0x3c536e91	0.012904779
79	0x3bc7513a	0.006082681
80	0x3da88167	0.082278065
81	0xbd3b746f	-0.045765337
82	0xbdc73d99	-0.09728546
83	0xbd366653	-0.044531178
84	0x3da3b797	0.07994001
85	0xbe0054fe	-0.12532422
86	0xbda8df91	-0.08245767
87	0xbd1600e4	-0.036621943
88	0xbd9ae78b	-0.075636946
89	0x3d03cc68	0.03217736
90	0xbdeaa024	-0.11456326
91	0x3ba723d6	0.0051007075
92	0xbd8be1eb	-0.068302
93	0xbdab4f83	-0.08364775
94	0xbd888cc6	-0.066674754
95	0xbd520ccc	-0.051281735
96	0xbd916054	-0.07098451
97	0xbd74433b	-0.05963443
98	0xba831002	-0.0009999278
99	0x3db73d40	0.089472294
100	0x3d83aa9d	0.06429026
101	0x3d8c00c1	0.06836081
102	0x3e09186b	0.13388221
103	0x3ca66459	0.020311521
104	0x3ddbe2b2	0.10736598
105	0x3d8b127b	0.06790634
106	0xbb260207	-0.0025330798
107	0x3dd3f00a	0.10348518
108	0x3c6d00da	0.014465535
109	0x3dec1f89	0.11529452
110	0x3d195121	0.037430886
111	0xbd7da13d	-0.061921347
112	0xbcf64aba	-0.03006493
113	0x3dd76cf4	0.10518828
114	0xbc848669	-0.016177373
115	0x3d2c9351	0.04213268
116	0xbdbbe432	-0.09174384
117	0xbd976e0a	-0.07394035
118	0x3c00257f	0.00782144
119	0xbd3fbee6	-0.046812914
120	0x3c0641de	0.008194415
121	0x3dc96555	0.09833781
122	0xbd83a4a9	-0.06427891
123	0x3d5dfd9e	0.054196946
124	0xbc636d96	-0.013881108
125	0xbdb77adf	-0.08958983
126	0xbbe4180e	-0.0069608754
127	0xbd81866d	-0.06324468
128	0x3cb0171d	0.021495396
129	0xbdc903b7	-0.09815162
130	0x3e032b8a	0.12809578
131	0xbdd81f45	-0.10552839
132	0xbd889ac9	-0.06670148
133	0x3d1f6d1f	0.038922425
134	0xbe14ef7a	-0.14544478
135	0x3dca2194	0.09869686
136	0xbd2034a4	-0.039112702
137	0xbda4e9ee	-0.08052431
138	0x3dd06bbc	0.10176799
139	0xbd49abf6	-0.04923626
140	0x3dcde593	0.100535534
141	0x3db0cc14	0.08632675
142	0xbdd75746	-0.10514693
143	0xbde1f842	-0.110336795
144	0xbdd0a834	-0.10188332
145	0xbc165898	-0.009176396
146	0xbe181292	-0.14850834
147	0x3d6c11c8	0.057634145
148	0xbdb7f8bd	-0.0898299
149	0xbd0a87d7	-0.033820953
150	0xbc99d4ab	-0.018778166
151	0xbd98307a	-0.07431121
152	0x3df8478d	0.12123022
153	0xbd936fe1	-0.071990736
154	0xbd8a8a31	-0.06764639
155	0xbd65c9a7	-0.056100514
156	0x3d64af59	0.055831287
157	0x3c7fad08	0.015605219
158	0x3dbc09e4	0.09181574
159	0x3dd6cd9b	0.10488435
160	0x3dae27aa	0.08503659
161	0x3bf0ab4c	0.007344639
162	0xbd70e6e9	-0.058813963
163	0x3dfb8bb1	0.122825034
164	0xbdf4b048	-0.119476855
165	0xbde25478	-0.110512674
166	0x3d801e6b	0.06255802
167	0x3e05d21a	0.13068429
168	0x3dc2f230	0.0951885
169	0xbc725b89	-0.0147923315
170	0x3daccee1	0.084378965
171	0xbbb2943c	-0.0054498
172	0x3d80425a	0.062626556
173	0xbcf59824	-0.029979773
174	0x3cf149b4	0.02945409
175	0x3d075432	0.03303928
176	0x3deb736e	0.11496626
177	0xbd901642	-0.07035495
178	0x3d1e54da	0.03865514
179	0x3dbffb53	0.09374108
180	0xbcef032b	-0.029176315
181	0xbda68e5e	-0.08132623
182	0xbdeb7dc0	-0.11498594
183	0xbd829372	-0.06375779
184	0x3da8c6fc	0.08241078
185	0xbdace400	-0.08441925
186	0xbddb12e2	-0.10696961
187	0xbdda23e8	-0.1065138
188	0x3d485210	0.048906386
189	0xbd1de924	-0.03855242
190	0xbd66149f	-0.05617201
191	0x3b7e94de	0.0038846056
192	0x3c1a3b51	0.009413556
193	0xbd82be51	-0.06383956
194	0x39f39704	0.00046461087
195	0x3dc1edfa	0.094692186
196	0xbcbdd685	-0.02317358
197	0xbd8e6fae	-0.06954895
198	0x3ca068db	0.019581249
199	0xbdb6c38b	-0.089240156
200	0x3cfa85f0	0.030581445
201	0xbbc7343a	-0.006079224
202	0xbc1ad364	-0.0094498135
203	0x3dd09b07	0.10185819
204	0x3d6027e8	0.054725558
205	0xbd8e6c0a	-0.069542006
206	0x3d9e6d67	0.077357106
207	0x3c44d6e3	0.012014124
208	0xbddfacc6	-0.10921626
209	0xbd8c2a32	-0.068439856
210	0xbd345753	-0.04402859
211	0xbd8d6559	-0.06904096
212	0x3d4ab7ee	0.049491815
213	0x3d5ccd1e	0.053906552
214	0xbd33a8ee	-0.043862276
215	0xbb954566	-0.004555392
216	0x3d7de50f	0.061986025
217	0xbdb0c305	-0.08630947
218	0xbb8a3549	-0.004217778
219	0x3d6b2202	0.05740548
220	0xbc1ad1ce	-0.009449435
221	0x3dc6fa2d	0.09715686
222	0xbdd233d8	-0.10263795
223	0xbcdf53a1	-0.027261557
224	0x3d65a066	0.05606117
225	0xbd93eef6	-0.072233126
226	0x3db95796	0.09049909
227	0xbd0e6288	-0.034761935
228	0xbce16314	-0.027513064
229	0x3d97ac24	0.0740588
230	0x3ddb28e6	0.1070116
231	0xbcdd533b	-0.027017226
232	0x3bdfb6a0	0.0068271905
233	0x3da88349	0.08228166
234	0xbdde188f	-0.10844528
235	0xbb6257c2	-0.003453717
236	0x3d414a8e	0.04719024
237	0x3d86543b	0.065590344
238	0x3deb9485	0.11502937
239	0x3d687b8a	0.05675844
240	0xbc9d4d6c	-0.019201957
241	0xbdbdf892	-0.09275927
242	0x3d0939ef	0.033502515
243	0xbddd9b87	-0.1082068
244	0x3cca8e15	0.024725953
245	0xbdc768b4	-0.097367674
246	0xbdc2652d	-0.09491954
247	0x3d206e10	0.039167464
248	0x3d0b2edb	0.03398023
249	0xbc2266ff	-0.0099122515
250	0x3ba41b44	0.005008133
251	0x3d823cd1	0.06359256
252	0x3d8e2eb1	0.069424994
253	0x3da1d409	0.079017706
254	0x3db66768	0.08906442
255	0xbdd405b2	-0.10352649

encoder.layers.0.linear1.bias f4 [128]
0	0x3dd76c3d	0.10518692
1	0xbddd3bf7	-0.10802453
2	0x3d5dec79	0.054180596
3	0xb918803c	-0.0001454362
4	0xbd274f36	-0.040847026
5	0x3d38ab65	0.04508533
6	0xbdfb4ddc	-0.1227071
7	0x3daa7c5e	0.083245024
8	0xbd27dcba	-0.040981986
9	0xbd1bf222	-0.038072713
10	0x3d55693d	0.052102316
11	0x3dd9f84a	0.106430605
12	0x3cd757ba	0.026286948
13	0x3db5c4f8	0.088754594
14	0xbda6e6cf	-0.08149492
15	0x3d8a5c70	0.06755912
16	0x3db9d457	0.09073704
17	0x3d877f0d	0.0661603
18	0xbdb132d4	-0.08652273
19	0x3dbc15e5	0.091838636
20	0x3db41e24	0.08794811
21	0x3d401a63	0.046900164
22	0xbc8a9b5a	-0.01691978
23	0xbcc4af9f	-0.024009524
24	0x3ccdf922	0.02514321
25	0x3dc51d5c	0.096247405
26	0x3c0b7351	0.00851138
27	0x3d5e912b	0.05433766
28	0x3d8f9e44	0.07012609
29	0xbd6a9e93	-0.057280134
30	0xbdddc68b	-0.10828885
31	0x3dd4d3be	0.10391949
32	0x3caf964f	0.021433977
33	0x3d7cc80a	0.06171421
34	0xbba9ac90	-0.0051780418
35	0x3cf37bf9	0.0297222
36	0xbafa1c90	-0.0019081999
37	0x3d83bb31	0.06432188
38	0x3d434c83	0.04768039
39	0xbd99422f	-0.07483327
40	0x3bd44ed1	0.006479122
41	0xbc0611fc	-0.008182999
42	0xbdbbf034	-0.091766745
43	0x3c50442b	0.012711565
44	0xbd55b5db	-0.052175384
45	0x3d8ebb76	0.06969349
46	0x3d0ca504	0.03433706
47	0xbbb3a613	-0.005482444
48	0xbc838b1e	-0.016057547
49	0x3d2c6999	0.042092893
50	0xbde8a377	-0.113593034
51	0x3db0c8c8	0.08632046
52	0x3cb56ebf	0.022147534
53	0xbdcdc841	-0.10047961
54	0x3d1a4be8	0.037670046
55	0x3cdc96eb	0.026927432
56	0x3da13dc4	0.07873109
57	0x3dc0a006	0.09405522
58	0x3d10635f	0.035251018
59	0x3da70f91	0.08157266
60	0x3c6f5e7a	0.014609927
61	0xbd8bbe61	-0.06823421
62	0xbdf386ca	-0.11890943
63	0x3de548e9	0.11195547
64	0x3d3b2173	0.045686197
65	0xbd968a7c	-0.073506325
66	0xba11a545	-0.0005555938
67	0xbd945ca7	-0.072442345
68	0xba5790bc	-0.0008223166
69	0xbd9375c8	-0.07200199
70	0x3db376ce	0.087628946
71	0x3ce7d86e	0.028301444
72	0x3daa2e98	0.08309668
73	0x3c1ed290	0.009693757
74	0xbda14fea	-0.078765705
75	0xbd383c0c	-0.04497914
76	0xbcf62efb	-0.030051699
77	0x3dd0a93e	0.101885304
78	0x3dc24bae	0.09487091
79	0xbc36d1b0	-0.011158392
80	0x3e03aa98	0.12858045
81	0x3b67264d	0.0035270632
82	0xbe0324da	-0.12807027
83	0x3daa76c1	0.08323432
84	0x3d707289	0.05870298
85	0x3cc0cab5	0.023534158
86	0x3db32ff1	0.087493785
87	0xbd46f6ee	-0.048575334
88	0x3c6b2444	0.014351908
89	0x3cd3da34	0.025860883
90	0xbd821302	-0.06351282
91	0x3d8f0ecb	0.069852434
92	0xbd821382	-0.06351377
93	0xbcf8ddce	-0.030379202
94	0xbe0368af	-0.12832902
95	0x3db4887a	0.08815093
96	0xbd8ca7ed	-0.06867967
97	0x3db537b4	0.08848515
98	0xbbcb6735	-0.0062073716
99	0x3e0257db	0.12728827
100	0xbdfbbce2	-0.12291886
101	0xbd1cc970	-0.038278043
102	0x3d4ee957	0.0505155
103	0xbde7a916	-0.113115475
104	0xbde26247	-0.11053901
105	0x3d857776	0.06516926
106	0x3dd0993c	0.10185477
107	0xbdd189bf	-0.10231351
108	0x3d2e6bb5	0.042583186
109	0x3deee445	0.11664633
110	0x3d41b5ec	0.047292635
111	0x3db578b8	0.08860916
112	0x3cc100cb	0.023559948
113	0x3bd24fac	0.006418189
114	0x3de64d93	0.11245265
115	0xbd3d7fd0	-0.04626447
116	0xbbee4bd9	-0.0072722253
117	0xbd5d2973	-0.053994607
118	0xbd2b45ff	-0.0418148
119	0x3c6bc089	0.014389166
120	0xbdc628a0	-0.09675717
121	0x3dadcb55	0.08486048
122	0xbdb0d2aa	-0.08633931
123	0x3dd4bd3d	0.10387657
124	0xbdc7acdf	-0.097497694
125	0x3de6b1e2	0.11264397
126	0xbda5d1bf	-0.080966465
127	0xbdc849f6	-0.09779732

encoder.layers.0.linear2.weight f4 [64, 128]
0	0xbd8b837d	-0.06812189
1	0xbcf58919	-0.0299726
2	0xbbcaa733	-0.0061844825
3	0xbd5390f1	-0.0516519
4	0x3d06ab42	0.032878168
5	0xbd58c157	-0.05291876
6	0x3d9f0b0a	0.077657774
7	0x3c2e2502	0.010628941
8	0x3ddf8821	0.109146364
9	0x3c1627b4	0.009164739
10	0xbc262681	-0.010141016
11	0xbd242ed0	-0.040083706
12	0xbc106e15	-0.008815308
13	0x3dbf99ff	0.09355544
14	0xbcc58cf7	-0.024115069
15	0x3d8fc417	0.07019823
16	0xbd5b723e	-0.053575747
17	0xbd110d31	-0.03541297
18	0xbd4b937e	-0.049701206
19	0xbcdfeec5	-0.027335534
20	0x3c0f3fd7	0.008743248
21	0xbd769d61	-0.060208682
22	0x3d979e85	0.07403282
23	0xbdc1f308	-0.09470183
24	0x3dae4fba	0.085113004
25	0xbd82f36b	-0.063940845
26	0x3dc2c52a	0.09510262
27	0xb994edd4	-0.00028405956
28	0xbcc33d90	-0.023833066
29	0x3d7ed1b4	0.062211707
30	0x3a2d6685	0.0006614703
31	0xbdb36adb	-0.087606154
32	0xbd55ddc7	-0.052213456
33	0xbce02b54	-0.02736441
34	0x3ddabdb0	0.10680711
35	0xbc7481ed	-0.014923555
36	0x3dc4edbf	0.09615659
37	0xbcca1804	-0.024669655
38	0x3d237454	0.03990586
39	0x3d189f53	0.03726132
40	0x3bdd2d6f	0.006749801
41	0xbc3b02e7	-0.011414266
42	0xbdc06c12	-0.09395613
43	0xbdbb2770	-0.091383815
44	0x3d83d5fe	0.064373
45	0xbd6626eb	-0.05618946
46	0xbd0755c1	-0.033040766
47	0xbd05e728	-0.03269115
48	0x3ca7d4cb	0.02048721
49	0xbd35e77a	-0.044410206
50	0xbd1bb208	-0.03801158
51	0xbdb74963	-0.08949544
52	0x3cc59fb5	0.024124006
53	0x3d840026	0.06445341
54	0x3d682292	0.056673594
55	0xbd8941bd	-0.06701992
56	0x3d7c1585	0.06154396
57	0x3d8d79f1	0.06908024
58	0xbc74c77c	-0.014940139
59	0x3dc384b2	0.09546794
60	0x3d295ba7	0.041347172
61	0xbd3d2e7d	-0.046186913
62	0xbcae6119	-0.021286534
63	0x3be3dd63	0.0069538816
64	0xbd450802	-0.04810334
65	0x3ca6339b	0.02028828
66	0x3d8e91a7	0.06961375
67	0x3decdfa7	0.11566096
68	0xbc604f3a	-0.013690764
69	0xbd29b404	-0.041431442
70	0x3cfd1602	0.030894283
71	0x3d660bf4	0.056163743
72	0xbd5cb3e9	-0.053882513
73	0xbc9cfbb7	-0.019162996
74	0x3dc83b17	0.097768955
75	0xbdb812ee	-0.089879856
76	0x3d45ca12	0.048288412
77	0x3d306413	0.04306419
78	0xbde672fd	-0.11252401
79	0xbc402b4c	-0.011729073
80	0x3c94e87e	0.018177267
81	0xbddce82e	-0.10786472
82	0xbd4772dd	-0.048693527
83	0xbd9618d6	-0.07328956
84	0x3d76b6c9	0.06023291
85	0x3d82e678	0.06391615
86	0xbd9e4b1c	-0.0772917
87	0xbd3d0e46	-0.04615619
88	0xbbf3293d	-0.0074206875
89	0xbd60154d	-0.054707814
90	0xbc3eb44d	-0.011639667
91	0xbd846845	-0.064652
92	0x3ce54045	0.027984748
93	0xbd759c03	-0.059963237
94	0x3d5a59eb	0.05330841
95	0x3d64f8d1	0.055901352
96	0xbd5bcb10	-0.053660452
97	0x3c5fc58d	0.01365794
98	0x3ce37a98	0.027768418
99	0x3ab5c8f1	0.0013869089
100	0xbd7d5644	-0.061849847
101	0x3d34111f	0.04396164
102	0x3d963bc9	0.07335622
103	0x3d101d88	0.035184413
104	0xbd8675e2	-0.06565453
105	0xbcae6012	-0.021286044
106	0x3d18088d	0.03711753
107	0xbd1cbede	-0.038267963
108	0x3da54944	0.08070615
109	0xbcbc79d9	-0.02300732
110	0x3db4b2ea	0.08823188
111	0xbd0f3559	-0.034962986
112	0xbb0ee3f8	-0.002180336
113	0xbd92bd39	-0.071649976
114	0xbd05c9dd	-0.032663215
115	0x3c4ad4fc	0.012379881
116	0xbc0c9beb	-0.008582096
117	0x3c5740d4	0.013138015
118	0x3d05963e	0.032613985
119	0xbd02680b	-0.031837504
120	0xbd78471d	-0.060614694
121	0xbd8ba63f	-0.06818818
122	0x3da2c9f8	0.07948679
123	0x3b5c13c5	0.003358112
124	0xbc75f27b	-0.015011425
125	0xbca5657f	-0.020189999
126	0x3d59a62c	0.05313699
127	0x3d961e6f	0.073300235
128	0xbd0797e6	-0.033103846
129	0x3cdd1b46	0.026990544
130	0xbdb1eb5d	-0.0868747
131	0x3d09d763	0.033652674
132	0x3d84e2d5	0.06488577
133	0x3d5660c2	0.05233837
134	0x3d74ef4e	0.05979853
135	0xbd1f388d	-0.03887229
136	0x3dc4432f	0.09583127
137	0x3d59efd5	0.053207237
138	0xb93e1044	-0.00018125871
139	0xbc8a739b	-0.016900828
140	0x3afbb1bb	0.0019202748
141	0x3c8e5a85	0.017377147
142	0x3ccb81eb	0.024842223
143	0x3d87c5e6	0.06629543
144	0x3d97ba39	0.07408566
145	0xbd539680	-0.0516572
146	0xbcbcf93b	-0.023068061
147	0x3caeca8f	0.021336822
148	0xbd8aed5e	-0.067835554
149	0x3d9b32d9	0.07578058
150	0xbc21c154	-0.009872753
151	0xbd48c743	-0.049018156
152	0xbd6bbcf8	-0.05755326
153	0xbdaedb2e	-0.08537899
154	0xbd775570	-0.060384214
155	0xbc6e2850	-0.014535978
156	0xbd879377	-0.066199236
157	0x3dbaaceb	0.09115013
158	0xbd1095a6	-0.035298966
159	0xbc72f0e7	-0.014827943
160	0x3d57a7a8	0.052650124
161	0x3d43b420	0.047779202
162	0x3d0cbc50	0.034359276
163	0x3cff8b46	0.03119434
164	0x3dc2a9a6	0.09505014
165	0xbc9863b2	-0.018602226
166	0x3d502236	0.050813876
167	0xbd34e159	-0.04416022
168	0xbd508dc3	-0.050916445
169	0x3d21f134	0.03953667
170	0x3c802b1b	0.015645554
171	0xbd4b5410	-0.049640715
172	0x3d4f57c6	0.050620817
173	0xbd90ba09	-0.070667334
174	0xbd8bbd35	-0.06823198
175	0xbd5818e1	-0.0527581
176	0x3d7df4ec	0.062001154
177	0xbcf95e2c	-0.030440412
178	0x3d70655a	0.058690406
179	0xbdc4fd79	-0.096186586
180	0x3d95be05	0.07311634
181	0xbd598d3e	-0.053113215
182	0x3c2f9db2	0.01071875
183	0xbcfff9af	-0.031246988
184	0x3d84bf97	0.06481855
185	0x3d1116de	0.0354222
186	0x3d43cce4	0.04780282
187	0xbd27eb96	-0.040996157
188	0xbdbf8a1b	-0.093525134
189	0xbd0bd3ac	-0.034137413
190	0x3cb5f2d7	0.022210522
191	0x3da5fd91	0.081050046
192	0xbb942b2f	-0.0045217494
193	0x3d2742bf	0.04083514
194	0x3d8cd2ab	0.06876119
195	0x3c9aad55	0.01888148
196	0x3ce2f0fd	0.027702803
197	0x3d853412	0.06504072
198	0x3d0d84bc	0.034550413
199	0x3dabd2ba	0.08389802
200	0xbd195852	-0.037437744
201	0x3cafed6b	0.021475514
202	0x3bba39ea	0.0056831734
203	0xbcbd9717	-0.023143334
204	0x3dbe6a3e	0.09297608
205	0xbc41cf5e	-0.011829225
206	0xbca3f344	-0.020013459
207	0x3d041212	0.032243796
208	0xbd648af2	-0.05579657
209	0xbdd1a7c4	-0.10237077
210	0x3cb45700	0.022014141
211	0x3b874f16	0.004129301
212	0x3c9a8228	0.018860891
213	0xbd650cda	-0.05592046
214	0xbdb2935a	-0.08719511
215	0xbd147ecc	-0.036253735
216	0x3d83379c	0.06407091
217	0x3dbeeffa	0.09323116
218	0x3d9f7e21	0.07787729
219	0xbcad9604	-0.021189697
220	0x3da54bdc	0.0807111
221	0xbd4253bb	-0.047443133
222	0x3cd848fb	0.026401987
223	0xbd39c379	-0.045352433
224	0x3c3597c0	0.011083543
225	0x3d145e86	0.036222957
226	0x3d91cb1d	0.07118819
227	0xbcfc8fec	-0.030830346
228	0x3d9c2e4c	0.07626018
229	0xbcb65300	-0.022256374
230	0x3d959f1d	0.07305739
231	0x3d481efe	0.04885768
232	0xb995b24a	-0.0002855233
233	0xbd3ed564	-0.046590224
234	0xbd00c17f	-0.031434532
235	0x3d38d149	0.045121465
236	0x3b1ea628	0.0024207924
237	0xbc06110b	-0.008182774
238	0xbd5b7788	-0.05358079
239	0x3d1ab5fc	0.03777121
240	0xbd43f881	-0.047844414
241	0x3c8f382a	0.017482836
242	0xbdcf1eee	-0.10113321
243	0x3d6caeba	0.05778382
244	0x3cbf1894	0.02332715
245	0xbdb56a8d	-0.088582136
246	0xbd7d5f1f	-0.061858293
247	0x3cbb6571	0.02287552
248	0x3d8c1151	0.0683924
249	0xbca496b5	-0.020091394
250	0xbd0adeb8	-0.033903807
251	0xbd8976d9	-0.067121215
252	0x3da6b35c	0.08139679
253	0x3d596e5c	0.053083763
254	0x3dafbcab	0.085809074
255	0x3dcabda6	0.09899454

encoder.layers.0.linear2.bias f4 [64]
0	0x3d35126a	0.044207014
1	0xbd214eea	-0.0393819
2	0xbc8d0297	-0.017213149
3	0xbc73a8f3	-0.014871824
4	0x3dbcd351	0.09219993
5	0xbda0aa61	-0.07844997
6	0xbd9d5c39	-0.07683606
7	0x3b9dbfdd	0.0048141317
8	0xbce77266	-0.028252792
9	0xbbe418b2	-0.0069609517
10	0x3cfa4dd0	0.030554682
11	0xbd678dcd	-0.056531716
12	0x3d8a1820	0.06742883
13	0x3d01b2a5	0.03166451
14	0xbd00a65d	-0.031408656
15	0x3dbc52b1	0.0919546
16	0x3cdd9240	0.027047276
17	0xbd2ceee8	-0.042220026
18	0xbd82c5b9	-0.06385369
19	0xbdadbd11	-0.08483327
20	0x3cd43128	0.025902346
21	0x3d0d97dd	0.034568656
22	0xbd865ab6	-0.065602705
23	0x3d073c70	0.033016622
24	0xbc543ab7	-0.012953452
25	0x3cf3dfc9	0.029769795
26	0x3d83db5d	0.064383246
27	0x3a6d20da	0.0009045728
28	0xbd669aec	-0.05630009
29	0xbbfbe5b9	-0.007687297
30	0xbca65c96	-0.02030782
31	0xbc06c1e4	-0.008224938
32	0xbca09580	-0.019602537
33	0xbd7a5a8e	-0.061121516
34	0x3d2615f5	0.040548284
35	0x3da6b38b	0.08139714
36	0x3d95a186	0.07306199
37	0x3bb728af	0.0055895667
38	0x3d7ce775	0.061744172
39	0xbd9f0e2c	-0.07766375
40	0x3d07e547	0.03317764
41	0x3d0bb22b	0.03410546
42	0x3d1eb52c	0.038746998
43	0x3d3ad92f	0.04561728
44	0x3da00c0f	0.078148
45	0x3d8af5df	0.067851774
46	0xbdaf2094	-0.08551136
47	0x3cef3732	0.029201124
48	0xbaa8579a	-0.001284349
49	0x3ca2dd47	0.019880904
50	0xbc8a2f0c	-0.016868137
51	0x3c0c2e15	0.008555909
52	0x3ce56326	0.02800138
53	0xbc2835e1	-0.010266752
54	0xbd40d5a1	-0.047078732
55	0x3cb30bf6	0.02185629
56	0xbd10445f	-0.035221454
57	0xbd1ab169	-0.037766848
58	0x3d63e057	0.05563387
59	0xbd8d1787	-0.06889253
60	0xbb8d8118	-0.0043183677
61	0xbd4e0005	-0.050292987
62	0x3c1678d1	0.009184078
63	0x3d824c1b	0.06362172

encoder.layers.0.norm1.weight f4 [64]
0	0x3f7c4f33	0.9855835
1	0x3f7dac59	0.99091107
2	0x3f77aa1d	0.9674395
3	0x3f800d7f	1.0004119
4	0x3f7f7249	0.9978376
5	0x3f7c2773	0.98497695
6	0x3f827411	1.0191671
7	0x3f805b99	1.0027953
8	0x3f8527d6	1.0402782
9	0x3f8062e6	1.0030181
10	0x3f7cdca9	0.987742
11	0x3f7ee885	0.99573547
12	0x3f7fa997	0.9986815
13	0x3f832786	1.0246437
14	0x3f816ddc	1.0111651
15	0x3f7a674f	0.97813886
16	0x3f82996e	1.0203073
17	0x3f834066	1.0254028
18	0x3f8198ed	1.0124794
19	0x3f80bbc6	1.0057304
20	0x3f812f24	1.0092511
21	0x3f7f5964	0.99745774
22	0x3f8166df	1.0109519
23	0x3f81f626	1.0153244
24	0x3f82c8cd	1.021753
25	0x3f839c0e	1.0281999
26	0x3f81fe68	1.0155764
27	0x3f7adb4c	0.9799087
28	0x3f7c7beb	0.98626584
29	0x3f7c9d3b	0.98677415
30	0x3f7c5f48	0.9858289
31	0x3f7ba7a8	0.983027
32	0x3f7f3535	0.9969056
33	0x3f8210e2	1.0161402
34	0x3f7ac896	0.9796232
35	0x3f80672a	1.0031483
36	0x3f79a849	0.9752241
37	0x3f7f8fe7	0.9982895
38	0x3f840263	1.0313228
39	0x3f7d60bf	0.9897575
40	0x3f82acde	1.0209005
41	0x3f831260	1.0239983
42	0x3f7e28ea	0.9928118
43	0x3f8254d1	1.0182134
44	0x3f7cbbf4	0.98724294
45	0x3f8227fe	1.0168455
46	0x3f7bf1b3	0.9841568
47	0x3f7f902f	0.9982938
48	0x3f780000	0.96875
49	0x3f7eb14d	0.9948929
50	0x3f81c9a1	1.0139657
51	0x3f8202af	1.0157069
52	0x3f7a16a8	0.9769082
53	0x3f7eba9e	0.99503505
54	0x3f82fc04	1.0233159
55	0x3f7c2910	0.98500156
56	0x3f8156a5	1.0104567
57	0x3f7d22fa	0.98881495
58	0x3f819bbf	1.0125655
59	0x3f7cb0f1	0.9870749
60	0x3f81743e	1.0113599
61	0x3f81e8b2	1.0149138
62	0x3f83c536	1.0294559
63	0x3f81d24f	1.0142306

encoder.layers.0.norm1.bias f4 [64]
0	0xbca689a7	-0.02032931
1	0xbcbdd80f	-0.023174314
2	0xbbe1f3eb	-0.0068955324
3	0x3c49c604	0.012315277
4	0x3c1d84cc	0.009614181
5	0x3c026cf8	0.0079605505
6	0xbb3d238a	-0.0028860294
7	0xbbd509c5	-0.0065014088
8	0xbafa62bc	-0.0019102911
9	0xbb65c5ad	-0.003506045
10	0xbc579a46	-0.01315934
11	0xbba53cba	-0.0050426396
12	0xbc866af6	-0.016408425
13	0x3a3f2f52	0.0007293123
14	0x3bdba1b0	0.0067026243
15	0x3c1ecc31	0.009692238
16	0x3a99ebb0	0.0011743214
17	0x3bdba696	0.006703208
18	0x3c1fc407	0.009751326
19	0xbc47858f	-0.012177839
20	0x3b83e3c0	0.0040249527
21	0x3b2e5280	0.0026599467
22	0xbca0c3b2	-0.019624565
23	0xbc813c28	-0.015775755
24	0x3bdd2fc2	0.006750078
25	0xbc0b11d0	-0.008488134
26	0xba307c74	-0.0006732412
27	0x3be21778	0.0068997703
28	0xbad92444	-0.0016566594
29	0xbb410960	-0.002945505
30	0x39aeb404	0.00033321988
31	0x3c9f2873	0.019428467
32	0xbc58fda2	-0.0132440645
33	0x3c3784f6	0.011201134
34	0x3bf55cc7	0.0074878666
35	0x3b1c53c2	0.0023853634
36	0xbc112a6e	-0.008860214
37	0xbc472098	-0.012153767
38	0x3bec169c	0.0072048437
39	0x3ad30aee	0.001610128
40	0x3c976fa3	0.01848585
41	0x3c8c43e9	0.017122226
42	0xbb67ab3e	-0.003534987
43	0xbb8f0778	-0.004364904
44	0xbbbebb20	-0.005820647
45	0x3c63d88f	0.013906612
46	0xbcc66dca	-0.024222273
47	0xbc257040	-0.010097563
48	0xbccd693f	-0.0250746
49	0xbba1535e	-0.004923268
50	0x39618b4e	0.00021509567
51	0x3c3b6bc8	0.011439271
52	0x3c9f679b	0.019458583
53	0x3cb01233	0.021493053
54	0x3b8ec421	0.0043568765
55	0x3c373749	0.011182615
56	0xbc8bac9a	-0.017050076
57	0x3bf15144	0.007364424
58	0x3c45c7e3	0.0120715825
59	0xbc2a4a15	-0.010393639
60	0x3c8cd97f	0.017193554
61	0xbb59a4ab	-0.0033209722
62	0xbc71afda	-0.014751399
63	0xbc8d8ba8	-0.017278507

encoder.layers.0.norm2.weight f4 [64]
0	0x3f7d9398	0.99053335
1	0x3f7cf6b1	0.9881392
2	0x3f7a90d8	0.97877264
3	0x3f8089c5	1.0042044
4	0x3f80f09e	1.007343
5	0x3f79aed1	0.97532374
6	0x3f826bff	1.0189208
7	0x3f81e795	1.0148798
8	0x3f81ef2d	1.0151116
9	0x3f7e2711	0.9927836
10	0x3f7fca81	0.9991837
11	0x3f83e176	1.030318
12	0x3f820125	1.0156599
13	0x3f818983	1.012009
14	0x3f80d96e	1.0066354
15	0x3f7b5cb2	0.98188317
16	0x3f813f40	1.0097427
17	0x3f840b4a	1.0315945
18	0x3f8012db	1.0005754
19	0x3f7d4096	0.98926675
20	0x3f81dcfa	1.0145562
21	0x3f814763	1.009991
22	0x3f7f7e5a	0.9980217
23	0x3f819b94	1.0125604
24	0x3f82b13f	1.0210341
25	0x3f8482f4	1.0352464
26	0x3f821a63	1.0164303
27	0x3f7dccfd	0.9914091
28	0x3f7dc635	0.99130565
29	0x3f814843	1.0100178
30	0x3f7b88f5	0.98255855
31	0x3f7ad2de	0.9797801
32	0x3f800497	1.0001401
33	0x3f81bcc5	1.0135733
34	0x3f7fbb2e	0.9989499
35	0x3f813d6d	1.0096871
36	0x3f7bfaee	0.98429763
37	0x3f80a6d4	1.0050912
38	0x3f8172ff	1.0113219
39	0x3f7cb5bb	0.987148
40	0x3f825faf	1.018545
41	0x3f824ea3	1.0180248
42	0x3f7e9bd6	0.99456537
43	0x3f81b841	1.0134355
44	0x3f7ce2a6	0.9878334
45	0x3f816023	1.0107464
46	0x3f7ada2d	0.9798916
47	0x3f7c63a4	0.9858954
48	0x3f787b72	0.9706336
49	0x3f7cea22	0.9879476
50	0x3f8409ca	1.0315487
51	0x3f82188f	1.0163745
52	0x3f7e5c27	0.99359363
53	0x3f823402	1.0172122
54	0x3f806034	1.0029359
55	0x3f7b867f	0.982521
56	0x3f7d491e	0.9893969
57	0x3f7b46e0	0.9815502
58	0x3f8047a1	1.002186
59	0x3f7c33c3	0.9851648
60	0x3f8218ab	1.0163778
61	0x3f7ed668	0.9954591
62	0x3f8163a7	1.0108536
63	0x3f81f4f1	1.0152875

encoder.layers.0.norm2.bias f4 [64]
0	0xbc7869f0	-0.015161976
1	0xbb06e3c4	-0.0020582536
2	0x3b3a4267	0.0028420927
3	0xbba804f2	-0.0051275427
4	0x3c468eaa	0.012118975
5	0xb9d73537	-0.00041047644
6	0xbc03c1d9	-0.008041822
7	0xbc141067	-0.009037114
8	0xbab1f43f	-0.0013576819
9	0x3cb8f27a	0.02257656
10	0x3c0b3fda	0.00849911
11	0x3c1632a4	0.009167347
12	0xbc37be32	-0.01121478
13	0xbadab257	-0.001668523
14	0x3c3677c1	0.01113695
15	0x3b8b3b74	0.0042490307
16	0x38ab0bbd	8.156102e-05
17	0x3c34b305	0.01102901
18	0x3c3d1308	0.011540182
19	0x3c20ced8	0.00981494
20	0xba113e36	-0.0005540581
21	0x3bd227ed	0.006413451
22	0xbbcafa27	-0.0061943713
23	0xbc4437ea	-0.011976222
24	0x3c241016	0.010013601
25	0xbc050113	-0.008117932
26	0x39c89f3f	0.0003826562
27	0x3ae05f20	0.0017118193
28	0x39195682	0.00014623444
29	0xbc4979fc	-0.01229715
30	0x3c4bda09	0.01244212
31	0x3bc58356	0.0060276194
32	0xbc61a0af	-0.01377122
33	0x3c3845af	0.011247083
34	0x3c4195d0	0.011815503
35	0xbba08aab	-0.004899343
36	0xbc71059e	-0.014710812
37	0x3b6f3ef1	0.0036506022
38	0x3b5c8fb1	0.0033654983
39	0xba21a0d0	-0.00061656255
40	0x3b135f67	0.0022487284
41	0x3c0a87b6	0.008455208
42	0xbb136fcb	-0.0022497054
43	0xbbdfae82	-0.006826223
44	0x3be09175	0.0068532773
45	0x3b339d9a	0.002740717
46	0xbc26e4c3	-0.010186377
47	0xbc4b9292	-0.012425082
48	0x3b98a481	0.0046582823
49	0xbc7b7681	-0.015348078
50	0x3b829031	0.003984474
51	0x3bf7d0b7	0.0075627225
52	0x3bdf3457	0.0068116593
53	0x3c9a2dfb	0.018820753
54	0x3b20addd	0.0024517693
55	0x3c081767	0.008306361
56	0xbb26d396	-0.0025455705
57	0x3c606f0f	0.013698353
58	0x3c318d6b	0.010836939
59	0x3b41be3a	0.0029562847
60	0x3c1e872b	0.009675781
61	0xbc20558a	-0.009786019
62	0xbc64ccfe	-0.01396489
63	0xbaa43054	-0.001252661
