assets/snapshots/P3_log_amount_no_scaling_lstm.pth (torch, 222297 bytes, 12 tensors)

lstm.weight_ih_l0 f4 [256, 1]
00000000: 3cd1 f8bc 671d 173e 2ee7 00bd e9a4 21be
00000010: 4c5b 283d b553 b03e 50bb 52be 9610 52be
00000020: 5703 823d 8d31 59be ccd0 343c d666 253e
00000030: 848d cdbd 6e61 91be 1db9 763c a209 99be
00000040: fbb6 523e 3e54 88bd f3f9 033e ae7f 8abe
00000050: 3823 a23e 0bf7 b53e 0c5a 1c3d 677b 743e
00000060: 0400 3cbe e9a9 293d 19e8 43be 342f 65be
00000070: 39ca 233e 5301 75be ba23 18be b8bd 6cbe
00000080: 9b81 d53d 80c4 83be 56ad 21bd 2887 88be
00000090: cda7 88be dfea e1bd e693 2bbe 7a07 163e
000000a0: 77a6 a0bc f275 9e3e 2e96 76be 2375 433e
000000b0: f433 63be 8910 793e 58b6 9dbe d465 37be
000000c0: be4a c53d 0ff6 3c3e a8d8 6bbe 4057 1c3e
000000d0: 45c9 d5bd b529 d5bd 6d16 8c3d 8643 61be
000000e0: 031c e23e 0ef6 29be 3923 de3c 62a9 a0bd
000000f0: 6002 573e ea89 143c f5b3 56be d5bc 26be
00000100: 8bcf cb3d f622 e73d ca08 2fbe c5ad 00bf
00000110: 626c 9ebe 4f49 08be 4225 693e 4abb 1f3e
00000120: c427 56be 2695 4b3e 7a68 10be 0b5e 003e
00000130: 58bd 88bb 1e79 923e a98a 7fbe 9309 3b3d
00000140: 3c32 603e 2840 67bd de84 433e 4f3e b63d
00000150: ef77 b93d 8ad6 763e 5ec5 7fbd 5815 e63e
00000160: f1e8 973e 96e2 f7bd 4cce 81bc a960 f1bc
00000170: a209 d83e 12c4 dfba a108 20bf ae44 6b3e
00000180: 1bbe 153c 1223 a03c ffde 09be d7e1 6e3e
00000190: a6fd e53c 11b0 96bd 860d a4bd 6826 43bd
000001a0: 00e8 32bf 608b bcb9 756f 7e3e 58e5 0f3d
000001b0: 6ea5 463d ca78 dabd 507e 8f3d dfd2 403e
000001c0: 9473 8dbd 8dbd b93e 5d76 c4bd 9303 16be
000001d0: 71b6 af3d e9ad 5f3d 2c79 343e 49de 24be
000001e0: c880 633d 4295 6ebd ba1f b93d b958 993e
000001f0: 394c 833e 0323 1bbc 8d24 69be 1b4e a1bc
00000200: 8cc5 0bbe 23d3 ad3e d614 3c3d 4d24 d5bc
00000210: 54d6 31be b2e5 6cbe d9c7 513e 7c93 3ebe
00000220: c742 bc3e bb0e 91be f965 173e 372e cfbd
00000230: 9cc2 a5bd 7443 59be ff5a 693d f6d5 36be
00000240: 3255 0fbe 68f7 acbc f677 0f3e 3344 cc3d
00000250: fffb 3a3e b2d6 db3e ba60 1c3e 0147 2c3e
00000260: 0fc0 7a3e b805 18be ba55 553e 3dc9 47be
00000270: 92fa af3e 1dd4 d5bd babe 603e 347b 0dbe
00000280: 2de5 2c3d 4580 213e 2a60 05be 2801 723e
00000290: 0e67 0bbe 092d 553e 4a90 40be b5a0 a7bd
000002a0: 21f9 dabc a566 cfbe 7ba5 99be 874f b6be
000002b0: 864c 3b3e 9fce 0d3d 5e8a 6dbe 3ca5 05be
000002c0: dbef 7bbd 9ed1 24bd 72b6 083e 3262 933e
000002d0: 6d55 693e 3690 54bd f707 9cbc 6c42 623e
000002e0: 4713 afbd 38bd 62be 0831 1cbd e4d7 b7bd
000002f0: a78a 84be 2709 453d 9734 a0bd 4837 f33d
00000300: 84b6 b1bc d016 853d 011c 80bd 8dbd dcbe
00000310: 352f 31be f9eb ecbc 628d 1dbe 4640 21be
00000320: 60eb 053c 1a37 663d fe3f efbd d8bb 5a3e
00000330: 3a0f 543d f828 22be e289 6ebe 22b0 34be
00000340: 21ae 0dbd 27f6 853d 7f6a 943e eb6b 813d
00000350: 837f 593e 5e86 8c3e b82a ed3d c46f fc3e
00000360: cb7b 21bd 2e99 bfbc 0e29 f7bd 2697 fa38
00000370: 5833 e73e 4277 603d 7849 cabe 832d 89bd
00000380: 7b37 023d 680e 53be 0e05 cdbd c25b 1abe
00000390: f1ff 21be 3914 98be 669e 1f3d ec30 333e
000003a0: de7e 73be 33aa 153e c3c3 63be 0a9f 6abe
000003b0: 3776 41be c6c5 18bd 73fa 95be ab57 943c
000003c0: 2513 4c3e a4ee 0b3f 8c8b 0c3c 9d70 c0bd
000003d0: 7b4d 4fbe 32e3 553d 8bd9 d73e 2421 b3be
000003e0: a956 ec3e 9867 50be 5fe2 b7bc f73c bf3c
000003f0: dfd5 833e 6cfd 06be 5220 bfbd 73d1 043d
-0.030373208 0.1475731 -0.03147047 -0.15785564 0.041102692 0.34438863 -0.20579267 -0.2051414
0.06348293 -0.21210308 0.011036109 0.1615251 -0.100367576 -0.28394645 0.015058783 -0.29890162
0.20577614 -0.06656693 0.12888317 -0.27050537 0.31667495 0.3554004 0.038171813 0.238752
-0.18359381 0.041421805 -0.19131507 -0.22381288 0.1599511 -0.23926286 -0.14857379 -0.23119247
0.10425111 -0.25735855 -0.039471947 -0.26665616 -0.26690522 -0.11031126 -0.16755638 0.1465129
-0.019610627 0.3094936 -0.24080727 0.19087653 -0.22187787 0.24322714 -0.3080318 -0.17909938
0.096333966 0.18453239 -0.23031867 0.15267658 -0.1043878 -0.104083456 0.06840215 -0.21998414
0.44161996 -0.16597769 0.027116405 -0.07844807 0.20997 0.009066084 -0.20967086 -0.16282971
0.09951695 0.11285965 -0.17093197 -0.5026515 -0.30942065 -0.13309215 0.22768119 0.15598789
-0.20913607 0.19881114 -0.14102355 0.12535875 -0.004172962 0.2860803 -0.24955238 0.045663428
0.21894163 -0.05645767 0.19093654 0.08898603 0.09056079 0.24105278 -0.062444083 0.4493816
0.29669908 -0.12103765 -0.01584544 -0.029465036 0.4219485 -0.0017071983 -0.62513167 0.22975418
0.009139563 0.019547973 -0.13463973 0.23328339 0.02807505 -0.07357801 -0.08010392 -0.04764405
-0.69885254 -0.00035961997 0.24847205 0.03513083 0.04849761 -0.1066757 0.07006514 0.18830441
-0.069068104 0.36277428 -0.095928885 -0.14649801 0.0857972 0.054609213 0.17624348 -0.1610042
0.055542737 -0.058247812 0.090392545 0.29950503 0.2564409 -0.009468797 -0.2276785 -0.019690564
-0.13649577 0.33950147 0.04591831 -0.026018286 -0.17366916 -0.23134497 0.20486392 -0.18610948
0.36769697 -0.2833155 0.14784993 -0.10116237 -0.080937594 -0.21217138 0.056971546 -0.17855057
-0.13997343 -0.021114066 0.14010605 0.099739455 0.18260191 0.42937237 0.15271273 0.16823961
0.24487327 -0.14845932 0.20833483 -0.1951036 0.34370857 -0.10440848 0.21947756 -0.1381653
0.042210747 0.15771587 -0.13024965 0.23633254 -0.13613531 0.20817961 -0.18805042 -0.08184949
-0.026730122 -0.40508 -0.30009064 -0.3560755 0.1829091 0.034620877 -0.23197314 -0.13051313
-0.06150804 -0.04023897 0.13350847 0.28785855 0.22786494 -0.051895343 -0.019046767 0.2209565
-0.08548599 -0.22142494 -0.038132697 -0.08976725 -0.25887033 0.04810443 -0.07822531 0.118757784
-0.021693476 0.06498492 -0.06255341 -0.43113366 -0.17303164 -0.028921114 -0.15385965 -0.15747175
0.008173794 0.056204893 -0.116821274 0.21360719 0.051772334 -0.15835941 -0.23294786 -0.17645314
-0.03458989 0.065410905 0.289875 0.06319412 0.21240048 0.27446264 0.115804136 0.4930402
-0.0394247 -0.023388471 -0.120683774 0.000119490825 0.4515636 0.054801233 -0.39509177 -0.06698134
0.03179119 -0.20610964 -0.1001073 -0.15074065 -0.1582029 -0.2970293 0.03896942 0.17499131
-0.23778865 0.14615707 -0.22242646 -0.22912231 -0.18892752 -0.037297986 -0.2929264 0.01810821
0.19929178 0.5466101 0.008578192 -0.09396479 -0.202444 0.052218623 0.4215816 -0.34986222
0.46159866 -0.20352018 -0.02244681 0.0233445 0.25749108 -0.1318261 -0.093323365 0.03242631

lstm.weight_hh_l0 f4 [256, 64]
00000000: 863e 03be 5d9d 1b3d 74f6 3f3d f2d6 353e
00000010: de91 6a3d e9fc e6bc 69df cf3d 1e35 fcbc
00000020: d0df 1ebe 465b e63b 39b7 aebb fa83 b63d
00000030: 793d f13b 2592 03be 940f 143d 17ac 60be
00000040: 18ab 13be 118a dc3d 0e09 513c b59f 083d
00000050: 6c02 a93d ac92 42bd 7506 bb3d 22b0 373d
00000060: df27 4c3d ec97 b7bd e651 f03d e33d a9bc
00000070: 8fbc 0e3e a614 81bb 49dd cfbc b10a 5b3d
00000080: bc9d c13c fff4 883d 078c 783d 46f3 2d3e
00000090: f59c eabd 842b 6a3d 832a e63c 6770 23bc
000000a0: ce25 9dbd 704f f73c 01c7 f93d 503a c3bd
000000b0: 8464 6e3d 7463 40bc fa7a 86be dc97 fdbd
000000c0: 9a02 f0bb f86d b53d 930b f23d de16 dfbc
000000d0: b96b 0e3e 3a47 4fbc c09e 75bd 1b38 933d
000000e0: 0728 2bbe de1e 81be f4f9 563e 0f83 2e3b
000000f0: cbf3 a2bd a67c b73d 7f3e 9abd 2638 8e3d
00000100: 3738 053c dd6a 27be e2dc 8dbe fe0d 7b3e
00000110: 0aaa 4b3e 2949 e5ba 9ad3 7fbd 5abe 2e3d
00000120: b03d 1fbd 324c fabd b2a7 1dbe f82b acbc
00000130: 824c 65bd 89c4 b6bd 7120 89be 3ece afbe
00000140: 7c6f 77be f600 4cbe f215 913d 8ca9 2abe
00000150: b8a1 92bd 4d3d 043e 4958 21bd 9658 783e
00000160: 878e adbd a363 493e 1970 533e faa2 afbd
00000170: 3e3e 843e 759f a83c 5f31 4fbe 2ffd 1b3e
00000180: 8f01 43be 9b43 4d3e 24d4 183d 434d 6a3e
00000190: c47d 4b3c 24f3 9cbb c563 14bb 5949 563d
000001a0: ff34 d4bd cd51 013e ee5c 87be 88de ae3c
000001b0: d0e1 f73d cfa7 563e 918e cdbe ce81 10be
000001c0: 036c e4bc 499f 44be f27f f03d 4a18 d03c
000001d0: 97cd b23e 610a 083e f288 76be a56d 393e
000001e0: 21b1 9cbc 3fcb 1fbe a047 863d 53f8 523d
000001f0: 1b50 7f3d 2f6c 08be 5f95 1dbe c785 373e
00000200: 10e0 d93d 7bbc 52bd d57e 16bd 55ff 1f3e
00000210: 9fd7 bd3d 6a73 9cbd adca 14be bc3c 9d3d
00000220: 175f 833c 9160 113e af21 1f3d 2a99 a5bd
00000230: 3c61 81bd b1a6 953d 7e22 e1bd b0df fd3b
00000240: 47fd 56bd 43d0 4cbd 5ace a8bd 1011 ebbd
00000250: 7985 c3bd bcc7 e03c 1c46 d1bd def7 ccbd
00000260: d0f6 ccbd 14f9 19bd 95db b53d 7018 c83d
00000270: b45b 8cbd 1b2e c4bc debd 3f3c c010 0f3e
00000280: d31f 253d 76b8 0f3b b2c1 c6bc 0b43 29be
00000290: 057c 9e3d f560 8abd c0c2 c13c 8725 01be
000002a0: bb57 713e eaa2 11bc 7b5b c13c 515b 443e
000002b0: 88da 1b3d 91a8 653e 05f3 0e3b 32ad 19be
000002c0: d576 c93d 10cf eb3c aede 04be e3c3 e5bd
000002d0: efdf 92bd 6ef0 323e 57c3 0ebd 89bd ecbd
000002e0: 9e3e d3bd 0123 c73d 24af febc 4720 953c
000002f0: 2b55 283d f91b 953d 0b3b 4f3d 1ea9 d33d
00000300: a1ef 49be c7ef 8d3e c632 ce3d cba7 c4bd
00000310: 034d 143c bc5c 63be 02d1 22be c72a 853d
00000320: 8f64 9c3e 0463 c83d ff48 c13b 8fab 08bd
00000330: 83c5 e6bd 018a 5d3d 4bf0 28bd 7da7 be3c
00000340: f261 f5bd 85b8 663e 0af8 84bd 3a5a ed3d
00000350: 1a88 993e bf51 403e 62fc 603e c6b1 993e
00000360: bdaa 763c 24eb a4bc 2221 0b3d 149b 353d
00000370: 9a4b bb3e e162 1bbd e430 dabc 21cf 243e
00000380: 8efe 833c 18f7 26be 708a 1f3d 8845 32be
00000390: 943a a43c ea62 b03d 94f4 ab3d 2d27 34be
000003a0: 004c a93e 9b0f d3bd 81df 7e3e 06de 34be
000003b0: 45d6 e0bd 37e1 063d 69e5 983d 04f3 b6bd
000003c0: 21b5 903d eebc 3dbe 4e5d 5bbd 6afe fb3d
000003d0: 9710 45be eb69 13bd 3423 9abd 5c0e 44be
000003e0: 0d37 c5be 9461 e53d 9a77 38bd 5d69 5b3d
000003f0: 0e46 8cbe 2f95 173c 2c40 6c3d a27b 8cbc
-0.1281682 0.03799187 0.046865895 0.17757776 0.057268016 -0.028196769 0.10150034 -0.030787047
-0.15515065 0.0070299236 -0.0053319004 0.08911891 0.0073620644 -0.12848718 0.03614767 -0.21940647
-0.14420736 0.107685216 0.012758506 0.033355433 0.08252415 -0.04750316 0.09132091 0.044845708
0.04984271 -0.08964524 0.11734371 -0.020659393 0.13939117 -0.003939229 -0.025374072 0.053476993
0.023634784 0.06687354 0.060680415 0.16987333 -0.114557184 0.057170406 0.028096443 -0.009975529
-0.07673226 0.030189246 0.1219616 -0.095326066 0.058201328 -0.0117424615 -0.262657 -0.123824805
-0.007324529 0.088588655 0.11818614 -0.027232584 0.1390828 -0.012651259 -0.05996585 0.07188436
-0.16714488 -0.25218862 0.20993787 0.002662841 -0.07956656 0.08959322 -0.075314514 0.06944303
0.008131078 -0.16349359 -0.27707583 0.24517056 0.19889084 -0.0017493117 -0.06245766 0.042662002
-0.03887719 -0.12221564 -0.15396002 -0.02101706 -0.055981167 -0.08924205 -0.26782563 -0.34337038
-0.24163622 -0.19922242 0.07084264 -0.1666624 -0.07159752 0.1291401 -0.039390836 0.24252543
-0.084744506 0.19666915 0.2064823 -0.08576007 0.25828737 0.020583848 -0.20233677 0.152333
-0.19043563 0.2004532 0.037311688 0.22881036 0.012420122 -0.004789727 -0.0022642475 0.052316044
-0.10361671 0.12628861 -0.26438087 0.021346346 0.12103617 0.20962451 -0.40147832 -0.14112017
-0.027883535 -0.19201387 0.11743154 0.025402207 0.34922478 0.13285209 -0.24075678 0.18108232
-0.01912743 -0.15604876 0.0655663 0.05150635 0.062332254 -0.13322519 -0.15389012 0.17922126
0.1063844 -0.05144928 -0.03674205 0.15624745 0.09269642 -0.07639201 -0.1453044 0.076776
0.016036553 0.14196993 0.038850483 -0.08085854 -0.06317374 0.073071845 -0.10992907 0.007747613
-0.052487638 -0.0500033 -0.082424834 -0.11477864 -0.09546942 0.02743899 -0.102184504 -0.100082144
-0.10008013 -0.037591055 0.088797726 0.09770286 -0.068534285 -0.023947766 0.011702983 0.13971233
0.040313553 0.0021930016 -0.024262283 -0.16529481 0.077384986 -0.06756774 0.023652434 -0.12611972
0.23568623 -0.008888939 0.023603192 0.1917546 0.038050205 0.22427584 0.0021812331 -0.15007475
0.098371185 0.028785259 -0.1297557 -0.11219003 -0.07171618 0.17474529 -0.03485426 -0.115595885
-0.10314678 0.09723473 -0.031089373 0.018203868 0.041096848 0.07280726 0.050593417 0.10334991
-0.19720317 0.27721998 0.10068278 -0.096023165 0.009051564 -0.22203344 -0.15900043 0.065023
0.3054547 0.09784511 0.0058985944 -0.033366736 -0.11268141 0.05408669 -0.041244786 0.023273224
-0.11981572 0.22531326 -0.06492622 0.11589475 0.2998665 0.18781184 0.21971276 0.30018443
0.015055356 -0.020131655 0.033967145 0.044337347 0.36581117 -0.037936095 -0.026634641 0.16094638
0.016112592 -0.16305196 0.038950384 -0.17409337 0.020047463 0.08612616 0.08396259 -0.1759307
0.33065796 -0.10305711 0.24889947 -0.1766282 -0.10978369 0.032929625 0.074656315 -0.0893307
0.070657976 -0.18529102 -0.05355578 0.12304385 -0.1924461 -0.035989683 -0.07526246 -0.19146103
-0.38518563 0.11200252 -0.045035936 0.05356728 -0.27397197 0.009251877 0.057678387 -0.017148796

lstm.bias_ih_l0 f4 [256]
00000000: a6c7 31be e5d5 2cbe a39f a3bd c1fb 623e
00000010: e034 a7bd defc bbbd 5948 7a3c 03d7 0dbd
00000020: f582 b7bb ac2c fbbc 5b85 983b 2ebf 0dbe
00000030: da23 3fbe 4ac3 b73d 3e5b 56bd 36d1 0cbe
00000040: 7581 a23c cb71 06be 75af 24be e5ee cabd
00000050: 1cda 6d3a 8d4c c63d 6788 17bd 4fee 563d
00000060: f408 0abd 0222 0fbd ed48 9d3c 53a4 dbbd
00000070: d83c 713e 9357 2cbe 5957 ecbc 7479 01be
00000080: 8402 c9bd ea17 2f3d 93da ffbd 02ce 07be
00000090: 9f47 2bbe 370d 5e3d 1baa 6abc 5965 81bb
000000a0: b1ec 48be 5dc1 463d 24e0 e63c 310b 40bd
000000b0: 4138 8dbd 22d0 fabd b8da f2bd 014d 07be
000000c0: 90cc 7f3c 8ebf 683c ad5a 16be 854c 97bd
000000d0: f58a cd3d 2d46 49be 3cdf 833d 78be 5abd
000000e0: 5d1e 2abd 641b 6abc 7174 ab3c 6273 0cbd
000000f0: 8100 55bd 065d 0a3c 6f82 10bd 2394 4d3d
00000100: 53b7 e2bd 04ce 35be 5508 083e 1ac9 2c3e
00000110: 0549 93bd 556f 493e 6bfb 913d b714 12be
00000120: 83c6 77bd 014f b23d 41ab a3bd 1e14 01be
00000130: fe59 713c 8aac 2b3e cb05 323d 2a15 af3a
00000140: 3af4 9b3d e833 dfbc dc2c d1bd 943a af3c
00000150: 1f7f 1c3d 0aa5 0e3e d8cf 25be 6262 2e3d
00000160: 561f bb3d 2257 d5bd 5fa7 2abe 8b90 8dbd
00000170: b0f7 46bd e657 d93d 2f74 1a3e 024f 923d
00000180: c62a 93bd a7e4 fa3d 6c7f 09be a955 643d
00000190: 5f67 47bd 9e9b 1f3c 96f5 24be 1a5f 13be
000001a0: 0dfa fe3d 0d34 9dbc 89c0 fb3d f846 ab3d
000001b0: 6289 b5bd d229 053e f148 a33c b407 1abe
000001c0: 76fa c23d 0f6c 143e 82e7 933d 0e8d 573d
000001d0: 47a8 75bc 3058 2bbd cb43 923e dbc1 d63d
000001e0: 80e5 373e 7a56 4fbd 28b2 ba3d 7dff d73c
000001f0: 37fc 9e3d eea4 a2bd ef50 01be 9e87 d03d
00000200: 5aed 6bbd 3115 043d c374 213d 0e13 11bc
00000210: b9ed 193d 6083 a2bc 2611 433d c2b7 a9bd
00000220: 6a14 43bd 4197 1e3d 2aa6 1f3d 2f6f 0c3d
00000230: 5808 01bd f0e6 783d 7978 85bd d3f8 44bc
00000240: ee58 733d eeed b4bc 5903 213a a237 273d
00000250: 851e 34bd 6462 f1bd 39bf 9f3d cf13 2a3d
00000260: a396 15bc eb81 9dbd 96a1 d13d 936d 84bd
00000270: 04e1 83bd b9c8 de3c e29c 22bd db5e d43c
00000280: ff1a aabd 79c0 71bd dc3b dcbd 1288 5b3d
00000290: fedc 593d cfc3 2e3d e807 0dbd 3e49 333d
000002a0: d95e c43c e036 ef3d 8722 8ebd aaff b13d
000002b0: 11f9 873d 3cbc eb3c ac73 ecbd 8994 893d
000002c0: 0d0b 1bbc 023c 0aba 3b67 26bd 88fc 45bd
000002d0: 22e9 bd3c 8f8e b9bb 5dba a53c 8704 f03d
000002e0: 2336 60bc 3039 03bd 1f1e 32bd 3776 8ebd
000002f0: 4225 aa3d 4f51 943d 6659 8b3d f1f3 483d
00000300: 6097 44be eea9 483d fb5b 87bd 5f78 27bd
00000310: 910b cdbb 03b6 b2bc 5cd2 493c 77f4 76bd
00000320: 67e6 0b3d aea6 cf3d 8841 3abe 4aef 93ba
00000330: 4333 24be eac8 003e a475 603d 1d07 833c
00000340: aff5 5f3c a3a1 88bb 410f 6dbd eb41 95bd
00000350: e613 94bd 6d24 093e a894 29be cf00 603c
00000360: cffa 90bd ba45 8c3c f9d7 923d 8366 963d
00000370: e9af 3b3e 1bea 30be a895 f83c b603 ffbd
00000380: f474 4ebe e272 1a3c 1a71 783c a631 ccbc
00000390: 8d27 2abc 4a0d cdbb f9eb 973c f0d7 09be
000003a0: dcc1 dc3c 65ed d1bb 43e3 1a3d 20dc d03d
000003b0: cafd a2bd c294 ddbd 7c85 df3c d189 53be
000003c0: c314 fcbd 4368 d9bd 692f 50be 4e3b 69bd
000003d0: 8936 21be 41e9 a93c 8016 77bd d07b bebd
000003e0: 0fa5 e1bd 4e6a 1c3d 11b4 d7bd 59ef 17be
000003f0: d88b ab3d e25a 23be 0c50 c1bd dccd e3bd
-0.17361316 -0.1687847 -0.07989433 0.22166349 -0.08164382 -0.0917909 0.015276038 -0.03462888
-0.005600328 -0.03066095 0.004654569 -0.1384246 -0.1866602 0.08972795 -0.05233311 -0.13751683
0.01983712 -0.13129346 -0.16082557 -0.09908847 0.00090733333 0.0968257 -0.036995318 0.052473363
-0.033699945 -0.03494454 0.019199813 -0.10724702 0.23558366 -0.16830282 -0.028850244 -0.12643987
-0.09814933 0.042747416 -0.124928616 -0.1326218 -0.1672654 0.05421182 -0.014322783 -0.003948849
-0.1962154 0.04852425 0.02818305 -0.046885673 -0.06895495 -0.122467294 -0.118581235 -0.13212968
0.015612736 0.014205826 -0.14683028 -0.07387642 0.100362696 -0.19655676 0.06439063 -0.0534043
-0.041532863 -0.014288757 0.020929547 -0.034289725 -0.052002434 0.00844503 -0.03528064 0.050190102
-0.110701226 -0.1775437 0.13284428 0.16873589 -0.07191662 0.19671376 0.07128032 -0.14265715
-0.06049205 0.08706475 -0.079916485 -0.1260533 0.0147309285 0.16765037 0.043462556 0.0013357748
0.07614942 -0.02724643 -0.10213634 0.021390237 0.03820717 0.13930145 -0.16192567 0.042574294
0.09136836 -0.1041701 -0.1666541 -0.06912335 -0.048576057 0.106124684 0.15083383 0.07143976
-0.07185893 0.12250643 -0.13427514 0.055745754 -0.048682567 0.009741692 -0.16109309 -0.14391747
0.12450037 -0.019189859 0.122925825 0.083631456 -0.08864094 0.13004234 0.019932242 -0.15042001
0.09520428 0.14494346 0.07221891 0.052624755 -0.014993734 -0.04183215 0.28567347 0.10486194
0.17958641 -0.05061958 0.09116012 0.026366943 0.0776295 -0.07941614 -0.1262853 0.10182117
-0.057599403 0.032246772 0.039417993 -0.008854641 0.037580226 -0.019838035 0.047623776 -0.08287002
-0.04762689 0.038718466 0.038976826 0.03428572 -0.031502098 0.060767114 -0.06517119 -0.012022215
0.05941098 -0.02208611 0.00061421614 0.04082454 -0.04397442 -0.11786345 0.07800145 0.041522797
-0.009130153 -0.076907955 0.10235898 -0.06466212 -0.06439403 0.027195321 -0.039700396 0.025924137
-0.0830593 -0.059021447 -0.10753605 0.053596564 0.05318927 0.042667206 -0.034431368 0.04377102
0.023971008 0.116803885 -0.06940179 0.08691342 0.066393025 0.02877628 -0.115455 0.06717784
-0.009463084 -0.0005273224 -0.040625792 -0.048336536 0.023182455 -0.0056627463 0.020230466 0.117196135
-0.013684782 -0.03203696 -0.043485757 -0.069561414 0.083078876 0.07242071 0.06804161 0.049060766
-0.1919837 0.048990183 -0.06609341 -0.04088628 -0.0062574823 -0.021815306 0.01231822 -0.060291734
0.034155276 0.101392135 -0.1818906 -0.0011286524 -0.1603518 0.12576643 0.05479969 0.015994603
0.013669415 -0.004169659 -0.057875875 -0.072879635 -0.07230358 0.13392802 -0.16560614 0.013672068
-0.07079088 0.017123092 0.071701 0.07343771 0.18328823 -0.17276804 0.0303448 -0.1245188
-0.20161802 0.009426804 0.015163684 -0.024926018 -0.010385406 -0.0062576877 0.018545138 -0.1346128
0.026947908 -0.0064064735 0.03781439 0.101982355 -0.07958563 -0.10819389 0.02728533 -0.20658042
-0.123086475 -0.106155895 -0.20330586 -0.056941323 -0.1574346 0.020741107 -0.060324192 -0.09300959
-0.110178106 0.038187318 -0.10532392 -0.14837398 0.083762825 -0.15952638 -0.09439096 -0.11123249

lstm.bias_hh_l0 f4 [256]
00000000: 7ea4 9dbc d789 2abe f5b2 97bd 54cb ff3c
00000010: e1a8 b1bd 8206 67bd c5be 5fbd 80a2 bdbb
00000020: 3de2 a1bd 35a2 a8bd f46f 4cbe 6a36 943c
00000030: 975b e33b 8674 a43d de8e 123d 4093 1dbe
00000040: b91b 8dbc 7247 fdbc 515b 1fbe b509 d1bd
00000050: cb7e 0abe d203 5e3e 66a6 49be bdbe cd3c
00000060: 9b39 7abd 2c0d 08be f288 8fbd 242f 32bd
00000070: 3cab 383d 0f2a 66bd 9d19 283d f028 b73c
00000080: 0245 03be 553a 91bd 4019 65be fa32 16be
00000090: 24eb 34be b8a7 ebbd 75b9 dfbd a3f1 06be
000000a0: c0ff 08bd f0a4 f53c 8b7f 6d3d 9900 cb3c
000000b0: e3ec 12be 68b4 5fbd f627 53bd 3261 d3bd
000000c0: 7743 ac3c 2793 88bc b001 7fbe 9fdd c2bd
000000d0: 841f 113b 7487 21be 0e4f 283e f552 afbc
000000e0: 5d1b 83bd fdfa 813d cb1d f3bb 4e0f babc
000000f0: 6dc6 82bd 62c5 05be 849c 26bd d17f 5ebc
00000100: 2184 15be 7c2d 35be 9c15 71bd 35d9 cc3d
00000110: 7a7a f03d b1f5 233e f98c a93d bcd5 a03d
00000120: 8384 17bb a8a2 1ebe 8a19 a7bd 78a2 b7bd
00000130: 652e 03bd 4eae 013e 682d af3d e108 1dbc
00000140: 1edb 983c a8b9 fe3d ec13 1ebe 0350 eb3d
00000150: 4970 993d dc66 523c 15e2 dbbd 06c3 dc3d
00000160: 7b29 e1bd 58bf 4abd 09b0 2cbd d1e0 b03d
00000170: 94e9 323e 6a69 493c cd8d 193e 9a50 a43d
00000180: db68 6bbd f12f 703d 83a1 1e3d a88d 073e
00000190: daf9 873d 5201 6b3d 41a3 d0bd 9be4 85bd
000001a0: ec9d 293d 2805 ef3d fa7c d3bd dab0 a83b
000001b0: 4f3f 653c d50b 643d cbba 80bd 00e6 8dbe
000001c0: 93fa 7e3d 2dde 0e3e 346f c63d 2f1c f63d
000001d0: 1848 16bd 0e47 743d 1879 713e 73cf c33d
000001e0: fcbb 3b3e ce48 71bc c43f dbbd 7e17 e5bd
000001f0: 8578 a73d b82d a73d 8ac1 9ebd 7d2c 02bd
00000200: 7d94 b3bc 0673 fdbb 9005 42bd dcd4 d23d
00000210: 6bd3 073d 8607 ab3d 7054 ab3d 6b24 343d
00000220: 3680 fd3c 3c3f 76bc b704 debc 4a11 013c
00000230: 2460 04bd 7b10 aebd 7894 bf3d e49e 7dbc
00000240: c4ba cebd f22c 163d e3df 6cbd 9279 09bd
00000250: 1a2e 9fbc 4b49 45bd a8e0 d83c 6f81 14bd
00000260: cadc 823d 04cc 783d f125 d6bd 2453 dbbd
00000270: 4299 b43c 9e73 6dbc 5118 8abd 7237 f3bc
00000280: 77a5 dd3d 6c2e f33d 507d cbbc 085f a93d
00000290: c551 cabd f1c2 08bd cdbe e7bc 8fbb 553d
000002a0: 4342 3abd 0e32 9bbd 3724 303c 75e6 4abd
000002b0: 0197 043c 5d16 cabd 962e c23d 8499 53bd
000002c0: a8af 11bd fbd2 4bbd af44 b53d 2090 413d
000002d0: 0814 353d d3fa c4bc 90fa 6abd 04c1 82bc
000002e0: 0e07 4f3c 074b bcbc a70a 443d dd6b 7f3d
000002f0: 103a 8c3c 7eeb a2bb 1dcc 92bd 74be 3dbd
00000300: 0d1c 693c d20a 98bd ce51 bc3c 3c27 a63c
00000310: 3719 873d 45aa 7b3d 464e d03d 7c22 20bb
00000320: c98e fb3d 25ca 6a3c 6db4 50bd 9f24 33bd
00000330: cb8c eebc 5cbb 9dbc e421 afbd a8a8 d83d
00000340: bb40 84bd bbdb b53d 9a5b 75be d193 b23d
00000350: 6f80 c3bd c2f9 403e 1d56 713c 02cb 0cbd
00000360: af77 4a3d 4aea c83c a23b 16bd faf0 6d3c
00000370: 2aac 3d3d 8b3b f3bd c377 5d3e 3db6 583d
00000380: b1c2 01bd b418 053e f74d a9bd 5eb5 09bd
00000390: 51fa 973d 5523 da3d fc29 313d 225d 66be
000003a0: 6040 e5bd 9112 0b3d cb6b 113e 7be6 9abd
000003b0: f233 3dbc c31b 25be dc81 60bd 7af7 92bd
000003c0: d6cc bdbd 1808 253d f04a 2dbd edce 62bd
000003d0: b368 e6bd 26db 14be f05a 01bd 2088 82bd
000003e0: 6d99 a0bd b5b0 36bd 6b7d a3bc 6b9e 6fbd
000003f0: f09a 8d3d da11 01be 49af f8bd 2f76 a23d
-0.019243475 -0.16654144 -0.0740718 0.031224884 -0.08674789 -0.05640269 -0.05462529 -0.005787194
-0.0790448 -0.082340635 -0.19964582 0.018092353 0.0069384086 0.080300376 0.03578078 -0.15388203
-0.017225133 -0.030917857 -0.15562178 -0.102069296 -0.1352493 0.21681145 -0.19692382 0.025115365
-0.061090093 -0.13286275 -0.07008542 -0.043501988 0.045085177 -0.056192454 0.04104005 0.022358388
-0.12819293 -0.07091204 -0.22372913 -0.14667884 -0.17667824 -0.11506599 -0.10924045 -0.13178115
-0.033447027 0.029985875 0.057982963 0.024780558 -0.14348178 -0.05461541 -0.05155178 -0.10321273
0.021028263 -0.01667173 -0.24902987 -0.09514927 0.002214403 -0.15774328 0.16436407 -0.021401862
-0.064017035 0.063467 -0.007419323 -0.022712376 -0.06385503 -0.13063577 -0.04067661 -0.0135802785
-0.14601184 -0.17693132 -0.0588585 0.100023665 0.117421106 0.16011693 0.082788415 0.078532666
-0.0023119755 -0.15491736 -0.08159168 -0.08966535 -0.032026667 0.12664148 0.085535824 -0.009584636
0.01865917 0.12437755 -0.15437287 0.114898704 0.0749212 0.012841906 -0.10736481 0.10779385
-0.1099424 -0.049498886 -0.042160068 0.0863663 0.17471915 0.012293199 0.14995499 0.08023186
-0.057473045 0.05863947 0.03872825 0.13237631 0.06639452 0.057374306 -0.10187388 -0.06537744
0.04141037 0.11670905 -0.10326572 0.0051480355 0.013992145 0.055675346 -0.06285628 -0.2771454
0.062250685 0.13951941 0.09689179 0.12017094 -0.036689848 0.059638076 0.2358135 0.09561052
0.18333429 -0.014726831 -0.10705522 -0.111861214 0.08177284 0.08163017 -0.077517584 -0.03178071
-0.02192139 -0.007734659 -0.047368586 0.10294506 0.03316061 0.08351044 0.083657146 0.043980043
0.030944925 -0.015029725 -0.027101858 0.007877657 -0.03231825 -0.08499237 0.0935449 -0.015479777
-0.100942165 0.036663957 -0.057830703 -0.033563204 -0.019431163 -0.0481656 0.026474312 -0.03625625
0.063897684 0.06074144 -0.104564555 -0.10709217 0.022045735 -0.014492897 -0.06742919 -0.029689524
0.108225755 0.11874089 -0.024840027 0.08270079 -0.098788776 -0.033389036 -0.028289223 0.052180823
-0.04547335 -0.075779065 0.010750822 -0.049536187 0.008092643 -0.09867547 0.09481542 -0.051660076
-0.03556791 -0.049761754 0.08850991 0.04725659 0.044208556 -0.024045384 -0.05736786 -0.015961178
0.012635959 -0.022984995 0.04786172 0.062358726 0.01711753 -0.0049719205 -0.07167838 -0.04632421
0.014227879 -0.07423939 0.022988226 0.02028238 0.06596606 0.06144168 0.101711795 -0.0024434617
0.122830935 0.014330422 -0.050953317 -0.043736096 -0.02911987 -0.019254379 -0.08551386 0.105790436
-0.06457659 0.08879801 -0.23960724 0.087196 -0.09545981 0.18845275 0.014730004 -0.03437329
0.049430545 0.02452578 -0.036677964 0.014522785 0.046306767 -0.11876591 0.21627717 0.05290817
-0.031679813 0.12997705 -0.08266824 -0.03362023 0.07420791 0.1065127 0.04325293 -0.22496465
-0.11193919 0.033953253 0.14201276 -0.07563492 -0.011548029 -0.16123872 -0.054811344 -0.07176109
-0.09267585 0.040290922 -0.042307794 -0.05537312 -0.112504385 -0.14536723 -0.031580865 -0.0637362
-0.07841764 -0.044602115 -0.019957265 -0.05850069 0.069143176 -0.12604466 -0.12142808 0.07932698

lstm.weight_ih_l1 f4 [256, 64]
00000000: 00ce eabc a7f2 073d 4e90 16bc 6447 f63d
00000010: 17e0 d63d 1dc9 6c3b 7917 263e 74d5 c53d
00000020: 42d6 2b3e 2315 0bbc 902c e13d 1252 033d
00000030: 83ef 8bbd a0c4 46be 7c96 eabd db88 37be
00000040: 21c5 bfbd eb1b 1bbc 8c65 023e 2900 193e
00000050: 4986 3a3c 1277 703e 410a 42bd 355e f13c
00000060: fd94 01be bb9b dbbc c86f a33d e572 e4bd
00000070: 9c1d ba3d 4ecf 4d3d 8af3 2abd 4773 463d
00000080: abc8 fabd ca28 543c 41d0 c5bd cb53 243e
00000090: 0cf8 febd 4e72 ad3d a9ad 2f3e 90d2 1e3e
000000a0: 100f 92bc d9c6 cabd 0ee0 1dbd 8507 6e3d
000000b0: b0ab 7dbd 7b5e e23d 1d74 17be ce25 513e
000000c0: 67db 49bc 0a9c b33c 4876 b83d 3055 bbbd
000000d0: 411b 023e 869a 413c 5446 1fbe 779c 883d
000000e0: 62bb 87bc d00c 95bd de14 8e3c 70f0 673e
000000f0: 3567 15bc 17e4 223b 5daa 48bc b660 dbbd
00000100: ef09 f73c c038 013b 7b35 c1bd 9aab 673d
00000110: 3648 b83d 1332 8b3d 5803 5fbe 6302 223d
00000120: e5b9 04bc b6bf 1c3e 1200 21be 377c 90bc
00000130: 8aa1 1dba ed54 afbd 8414 48bd 92d3 2dbe
00000140: 85b4 2bbe 8b20 00be f1bc 88bd 3d6c 823d
00000150: 3de6 c4bd 9c14 51bd dd52 b23c 6aca da3c
00000160: c0e7 ce3d 1b24 963d 9caf 593b c73e 163e
00000170: 9072 433e e69c 23be 7c33 8ebc 1259 5b3e
00000180: 16a4 94be 1dc8 db3c efe9 d23d 4804 95bc
00000190: 2871 013d 608c 413e 0fc2 343c d8ea 26be
000001a0: 9505 923e 331a 8ebd bb00 f93d 594e c0bb
000001b0: 8a55 eebd 6ca1 813e a392 a33d 35ae 9fbd
000001c0: cff0 6bbd 165e 89bd 39bc 3dbe 0a36 33ba
000001d0: 8879 a73d a8bd 913d ee63 40be 7d95 dbbd
000001e0: 90be b03c ac07 0e3d 7719 253e 2ea1 cd3d
000001f0: 06a9 72bc 3350 03be 7492 41be 9e40 a0bd
00000200: 6c49 07bd 9020 783d 9f4a 9cbd b23b 813d
00000210: c8b4 83bd cc63 233e 0512 12bd e3fa 3f3d
00000220: aa11 633d bbc4 12be 9eed f3bd aa7f 823e
00000230: 400a 0aba 2c6f 8abe da80 193d d3fa 56be
00000240: 006c 16bd 5661 383e 239c bcbd 9baf a63d
00000250: acca 9abd 1504 7b3e 02b3 ad3d 9ac4 cbbc
00000260: 75ce 233e 01b4 ee3c 0df6 c03d 662e 72bc
00000270: 4352 bcbc 5077 053e b191 d83c 573e 463e
00000280: 670d 603c 916a 063e 8a8b efbd 282c 823c
00000290: 816a 33bd c543 4e3e 81be 4abd c382 203e
000002a0: 30fe c23c 4728 703d 4e18 dabc 527a b43d
000002b0: d382 023e 05bf 813d ff92 84bd bc26 453c
000002c0: 9de5 043e 40be b7bd b002 f6bd d109 803c
000002d0: 2a95 61bd 698c 09bc 4a51 b1bc 7f87 b13c
000002e0: dd31 0b3e 7c78 133d 11f2 9d3c 98b9 6a3c
000002f0: 2a01 f73c a441 023e 7af1 713d 4114 f23c
00000300: f38c 593d 09f0 59bd 9657 33bc 2478 99bd
00000310: 46ab 1fbe 7405 9bbc 5872 a7bc 3959 9a3d
00000320: c022 b73c 90f5 89bd cd92 a8bd 028d 063e
00000330: 13bf c73d 42cc fabd 7aa8 1c3e a6a3 b9bd
00000340: 43ac 23be 12fb 043e bb04 03be 34bc 78bd
00000350: abb4 613d c0a2 143e 90e4 29be 1658 5abb
00000360: 7381 0a3d aca9 c23d faa3 1f3c 14e0 62bd
00000370: f53a 023d f4c3 07be e922 283e 9c95 babc
00000380: effb 843d 0828 42bc 5119 e43d 8b16 aabd
00000390: b262 d13d ff9e a53d 53e0 de3d c7b5 183d
000003a0: 45ee 693d 6b97 31bd 70b4 f63c 8671 c53d
000003b0: 99b4 1c3c bac2 d43d 8a54 2abd 4664 163e
000003c0: bbbb 90bd 74ed 84bd acdb fb3c 099d 843c
000003d0: 7c4e ccbd 6271 c13a e75c d03d 4eba 3fbe
000003e0: 10b5 34bd ff51 453d 1694 3abd c801 683d
000003f0: 2d22 dcbc 448f e8bd 05e2 8dbd 4444 733c
-0.028662682 0.033190396 -0.009189678 0.120253354 0.104919605 0.0036130615 0.16219892 0.096598536
0.16780952 -0.008488926 0.10994828 0.03206069 -0.068327926 -0.19410944 -0.11454484 -0.179233
-0.09363771 -0.009467105 0.1273405 0.14941467 0.011384555 0.23482922 -0.04737306 0.029463867
-0.12654491 -0.026807657 0.07980305 -0.11154727 0.09087679 0.05024653 -0.041736163 0.04844978
-0.12245306 0.012949178 -0.09658862 0.1604759 -0.12449655 0.084690675 0.1715609 0.1551001
-0.017829448 -0.099012084 -0.038543753 0.05811264 -0.061931312 0.11053177 -0.14790387 0.20424578
-0.012320376 0.021924991 0.09006935 -0.091471076 0.12705709 0.011816626 -0.15554172 0.06670468
-0.016568843 -0.072778344 0.017343935 0.22650313 -0.009118845 0.002485519 -0.012247649 -0.107118055
0.030156104 0.0019717664 -0.09434029 0.056560136 0.08998148 0.0679666 -0.2177862 0.039553057
-0.008100961 0.15307507 -0.15722683 -0.017637355 -0.0006013146 -0.0856112 -0.04884769 -0.16975239
-0.16768081 -0.12512414 -0.06676663 0.06368301 -0.09614227 -0.051045045 0.021768028 0.026707847
0.101027966 0.07331105 0.0033216244 0.14672385 0.19086671 -0.15977821 -0.017358534 0.21420696
-0.29031438 0.02682882 0.102985255 -0.018190518 0.031602055 0.18901205 0.011032595 -0.16300523
0.28519884 -0.06938591 0.121583425 -0.005868715 -0.11637409 0.25318468 0.07986953 -0.07796899
-0.0576027 -0.067073986 -0.18528832 -0.00068363606 0.08177477 0.07116252 -0.1878812 -0.10721872
0.021575242 0.034675285 0.16122995 0.10040508 -0.014810806 -0.12823562 -0.18903524 -0.07824825
-0.033029005 0.06057793 -0.0763142 0.06310214 -0.06430966 0.15956038 -0.035661716 0.046870124
0.055436768 -0.14332859 -0.11910556 0.25488025 -0.00052658096 -0.27037942 0.037476398 -0.2099412
-0.03672409 0.1800588 -0.09209468 0.08138963 -0.07558188 0.24513276 0.08481409 -0.02487402
0.15996726 0.029138567 0.094219305 -0.01478157 -0.022988444 0.13033795 0.026436659 0.19359718
0.01367507 0.1312659 -0.11696537 0.015890196 -0.043802742 0.2014304 -0.049498085 0.15674882
0.023802847 0.05863216 -0.026622918 0.08812393 0.12745218 0.06335262 -0.0647335 0.012033161
0.12978216 -0.08971834 -0.12012231 0.01562968 -0.055073895 -0.008395293 -0.021645207 0.021671055
0.1359324 0.036003575 0.019280465 0.014326476 0.030151922 0.12720352 0.05906818 0.029550673
0.053112935 -0.05320743 -0.010946175 -0.07493618 -0.1559268 -0.018923499 -0.020440266 0.07536549
0.022355437 -0.067362905 -0.08231125 0.13139728 0.097532414 -0.1224599 0.15298644 -0.090644166
-0.15983681 0.129864 -0.12794773 -0.06072636 0.05510394 0.14515209 -0.16591096 -0.0033316663
0.03381486 0.095050186 0.009743685 -0.05538948 0.031794507 -0.13258344 0.16419567 -0.022776417
0.06493365 -0.0118503645 0.11137641 -0.08305081 0.10223903 0.08086967 0.1088263 0.03728273
0.057111997 -0.043357294 0.030115336 0.096407935 0.009564542 0.10388704 -0.04158453 0.14686689
-0.07067057 -0.06490603 0.030744396 0.016188161 -0.09975907 0.0014758522 0.1017397 -0.18723413
-0.044117987 0.0481739 -0.045551382 0.056642324 -0.026871765 -0.11355451 -0.069278754 0.014847819

lstm.weight_hh_l1 f4 [256, 64]
00000000: 2be6 20be 03dc c839 583a d1bd 5415 0b3e
00000010: babd 23be 04a2 84bd c589 9dbd d594 25be
00000020: a6a0 883c 9626 1b3d ac59 e4bc 7c36 69bd
00000030: a560 2d3d de85 d3bb c3ae d7bd 10a6 b8bd
00000040: 223a debd ed0f 57bd 9b29 b8bc c516 57bd
00000050: 5954 25be 1e33 d2bc 28f7 803d ac3e 89bc
00000060: b881 a2bc 3747 30bb 3600 e93c ead5 81bd
00000070: 93df 013c 1466 8d3c 76ab 703d 1e7b 863d
00000080: 0e48 07bd 90d6 893d bc7f 0fbe 3907 9e3d
00000090: 788e 10be 209f 67bd 1823 45bd cda8 2fbe
000000a0: 0c5e cf3d ca3c 01be 7c98 0cbd 3624 ddbc
000000b0: d3ad d03d c1ed 2abe 2647 d8bd 48b2 9c3d
000000c0: a2e9 da3d 00cb 3fbd 60fb 23bd c69e b9b7
000000d0: 3557 05bd d8ff dd3c 1860 2cbc 65e7 05bd
000000e0: 4995 afbd adf0 40be d11e c5bd e521 9c3b
000000f0: 5585 0b3d 2c8b a7bd b538 bd3d 6e16 573d
00000100: b637 50bd efb9 2b3b c64f 443e 0c08 80bd
00000110: 8452 0abd a2be 1abe ed85 873d 418f f5bc
00000120: e995 313c d09c 15be 7d3a a2bd fa81 953d
00000130: 56e5 1fbe bd32 9cbd a7a2 4fbc b39f 80bb
00000140: dd80 9dbd b73d 283c badf 2dbe 17b6 163d
00000150: 0fe8 b3bd 5d16 a8ba 81e6 3fbe 98e1 be3c
00000160: 9407 b0bd 02d5 5fbc 3791 8b3c 2f17 903d
00000170: a54f f8bc 85fe d33d 0e3d f4bd 2c67 413d
00000180: 2650 4bbd 9cde 1b3e 80f9 b8bd c131 2a3b
00000190: 1916 b43c 31ae bcbd 5039 52bd b5b8 e93b
000001a0: fd78 c8bd 2091 8abc c04d 003d cbde a4bd
000001b0: bfe7 8cbd f650 cabc f805 61be 0a07 b63d
000001c0: d7a2 de3c 73e7 c03d 76a1 4e3d 5772 873c
000001d0: 9b5d 8b3c b92e b8bd bde3 913c 3c4e 133e
000001e0: 4ff0 323e 69d2 58bc e5e2 00bc 3eda 0b3b
000001f0: cc2b 4ebe 73f7 073c df53 e2bd d69b 023e
00000200: 4ebd 52bd b0a1 ce3d e550 3c3c c150 58bc
00000210: c515 1abe 617b e73c 793b b8bd a1b7 b1bd
00000220: d794 8e3e f179 18be bb93 4d3d 3db4 1ebe
00000230: 49e8 3dbd 9872 7f3d de39 83bd 872e 70be
00000240: a2f5 01bd 9752 71be f9e4 1f3e 95dd 3c3d
00000250: 286b 82be 4d72 443e 472c 0f3e 9100 2d3e
00000260: 8ea2 e3bd a8ed 5dbd a900 1e3e 0ad1 32bd
00000270: b5d2 98bd 9f36 ae3d 059e 39bd 73da 043e
00000280: b671 b13b 9fac 643d 238b 38bb ef9f 03be
00000290: ceef aa3d 3cee bdbd f191 433d 2a6f c7bd
000002a0: d5af e53d 879f 07bd 31d3 29be 6ad7 1abe
000002b0: 774c 69bc bc38 8d3d 14ef 47be e76e 973e
000002c0: d906 343e 7d5f a8bc a6c6 853c b4f4 053e
000002d0: 27fa 14be 6832 69bd 70ee 153e 2efa 0bbc
000002e0: 712b dcbd e231 33be ca09 05be ac30 3d3d
000002f0: 0527 373e 7242 a7bd ce81 8e3c 4586 ce3c
00000300: 08a6 bdbd df6c 81bd 106f e13d e481 d8bc
00000310: 0e0b f9bc 6fa2 90bd 3ddb b93d d134 a3bd
00000320: dfad 62bd dc8e 43bd cb6a e8bc 5ba0 ba3d
00000330: 4df9 163d 7576 6abb d2b0 003e ecbb 3f3d
00000340: 6983 f4bd f8da 63bd daf6 e0bc 126c 34bd
00000350: 0699 36bd fa4d 11bd 1c42 6cbd 7988 10bc
00000360: b3da 103d 8738 583d a531 343d 977c 453d
00000370: de88 c8bd 4e6f 50bd 4013 9ebd 9e50 2abd
00000380: b29a 523d 80e7 f83d 3621 24be b16d 3ebd
00000390: afd7 2a3e e4b1 0abe 70c2 a9bd f7af 763d
000003a0: de70 c43d 22d4 743d 660b 363d f226 b53c
000003b0: dcfc 173e 0ff2 6d3d 590e 0dbe 2a34 d13c
000003c0: c167 543d 2511 1e3d 9de2 613d cb82 1cbd
000003d0: 806e 1abe aa85 a13c 0418 463d 2763 053e
000003e0: 5ac2 adbd a121 b2bb 583b 2a3b 8f56 833c
000003f0: ff45 b63c 6a7b f33d 1152 073d 8961 b7bd
-0.15712802 0.00038310894 -0.10216206 0.13582355 -0.15990344 -0.064762145 -0.07692293 -0.16170056
0.016678166 0.037878595 -0.02787479 -0.056936726 0.042328496 -0.006455167 -0.1053138 -0.09016049
-0.10850932 -0.052505422 -0.022480777 -0.05251195 -0.16145457 -0.02565914 0.06297141 -0.016753517
-0.019837245 -0.0026897916 0.028442483 -0.06339629 0.007926839 0.017260589 0.058757268 0.065664515
-0.0330277 0.06730378 -0.1401357 0.07716221 -0.14116848 -0.056548238 -0.04812917 -0.17154236
0.1012536 -0.12620845 -0.034325108 -0.026994806 0.10189404 -0.16692258 -0.105604455 0.07651192
0.10689093 -0.046824455 -0.04003465 -2.2127653e-05 -0.03255387 0.027099535 -0.010520957 -0.03269138
-0.08573396 -0.1884181 -0.096250184 0.0047647827 0.034062702 -0.08180842 0.09239332 0.052511625
-0.05083438 0.0026203354 0.19171056 -0.06251535 -0.0337701 -0.15111783 0.06617341 -0.029975535
0.010838964 -0.146106 -0.07921312 0.07300182 -0.15614828 -0.07626865 -0.012673057 -0.0039252876
-0.07690594 0.01026862 -0.16979876 0.03679475 -0.08784496 -0.0012824048 -0.18740274 0.02330093
-0.085951954 -0.013661625 0.017037017 0.07035672 -0.030311415 0.1035128 -0.11925708 0.047217533
-0.049636982 0.15221637 -0.09031963 0.0025969597 0.021983193 -0.09212912 -0.05132419 0.0071326145
-0.09788702 -0.016914904 0.03132415 -0.08050307 -0.068801396 -0.024696808 -0.21974933 0.08888061
0.027177257 0.094191454 0.05044695 0.016534014 0.017012408 -0.08993287 0.01780879 0.14385313
0.17474483 -0.013233759 -0.007866596 0.00213398 -0.20133895 0.008298743 -0.110511534 0.12754759
-0.051450066 0.10089433 0.011493896 -0.013202847 -0.15047367 0.028257074 -0.089957185 -0.086776026
0.2784793 -0.14890267 0.050189715 -0.15498443 -0.046364103 0.062365144 -0.06407522 -0.23455249
-0.031728394 -0.23566662 0.1561469 0.046109755 -0.2547238 0.19184227 0.13981734 0.16894747
-0.11114989 -0.054181725 0.1542994 -0.043656386 -0.07462064 0.08506512 -0.045316715 0.12973957
0.0054151667 0.055828687 -0.0028159104 -0.12853979 0.0834652 -0.09273955 0.047746602 -0.09738
0.11215178 -0.03311112 -0.1658447 -0.15121236 -0.014239422 0.06895587 -0.19524795 0.295768
0.17580737 -0.020553345 0.016330075 0.13081628 -0.1454855 -0.056932837 0.14641738 -0.008543534
-0.10750473 -0.17499498 -0.12992015 0.046188995 0.17885979 -0.0816697 0.01739588 0.02521051
-0.092601836 -0.06319594 0.110075116 -0.026429124 -0.03040078 -0.07062232 0.090750195 -0.07969058
-0.055341598 -0.047743663 -0.028371235 0.09112617 0.036858846 -0.0035776172 0.12567452 0.046810076
-0.11939127 -0.055628747 -0.027461458 -0.044048376 -0.04457953 -0.035474755 -0.057680234 -0.0088216
0.035364818 0.052788284 0.043992657 0.04821452 -0.0979173 -0.0508874 -0.077185154 -0.04158079
0.05141706 0.1215353 -0.16028294 -0.04649133 0.1668384 -0.13544422 -0.08289039 0.060226407
0.0959184 0.059772618 0.044444464 0.022113297 0.14842552 0.058092173 -0.13775004 0.02553757
0.05185676 0.03859057 0.055147756 -0.03821067 -0.15081215 0.019717056 0.048362747 0.13026105
-0.08484335 -0.005436138 0.0025975313 0.016032485 0.022250174 0.11888774 0.03303725 -0.0895415

lstm.bias_ih_l1 f4 [256]
00000000: 71b7 a9bd 0567 2ebe 9383 a33d da67 84bd
00000010: b1c3 46bd 2b04 01be c57d 8ebe fcaa b73d
00000020: 141f 113d 11fa 5cbe 9ed6 3ebc 5b9e c7bd
00000030: 7714 02be cb7c 0abe f2e8 fcbd 54fc be3d
00000040: 7fc3 de3d 5f09 c43c 3cd9 6c3d 9a6f 85bd
00000050: ad3a 92bd 3322 3abe 9d99 df3d c1c2 343d
00000060: a16a 0abe 51c1 0abe 06cc 7cbe 6b63 febc
00000070: 99ef 5abe 4b0f 47bd a5ae ef3b 5bd4 dcbd
00000080: 5c6a f0bd cabe c1bd bd61 cabd 2ed4 b83d
00000090: ce53 1ebd 634d 81bd df4d 48be 1dd6 d6bd
000000a0: 8996 2bbe 2977 a83c 1612 cbbc 17df 69be
000000b0: fbf4 d43d e288 12be 5189 32bd a0d8 e3bd
000000c0: afbf a3bd cf4c 03be 4c20 09be 0f60 eabd
000000d0: 751e 363d 6935 72be eef8 a8bd 48d7 8bbd
000000e0: 7add 113d c7e0 1d3e 1b06 2fbd 6a18 5cbd
000000f0: 5d0e e9bd 144c 76bc 99b2 153e 81db 94bd
00000100: 3f01 32bc 7326 cbbd 44d6 533c 7153 333d
00000110: 918d 913d cdb0 05be 4282 8cbc 792c 2f3e
00000120: 07bc ac3d b09f 1bbd 1320 053e 773d b1bd
00000130: 3d08 3d3c c4ad 3fbe c522 9a3d 9605 7d3e
00000140: 75a2 2d3e 212c b9bd 1dd9 683d 94af 0d3d
00000150: b8a6 6c3d 7ad6 f4bd c4cc 243e 4230 d23d
00000160: 6459 7d3d 4710 983c 1c4e a63d e0fa bc3c
00000170: dd7c 02be 0375 23be 41a8 bebc 26dc 4dbd
00000180: 81cb 75bb abf3 c9bc ac80 21bd 26d3 de3d
00000190: 0105 3c3e 25bf b63c 76d0 28be 7a8a 24bd
000001a0: 1be5 113b 6ceb 05be 190b 3e3e 3b6d eebd
000001b0: daab 14be 1970 7b3d 4cdb 50be cb53 203d
000001c0: 7346 0f3e 176b 07be ae1a 0a3d 8233 aebd
000001d0: 2b0c 8a3d d39f 8d3d 4db4 ab3d 405a 8c3e
000001e0: f3f9 b23d 8caa b93d 9a8a 0b3b 90c2 d33d
000001f0: 4b04 363d 32d6 0bbd de9a 6e3e b0a3 343d
00000200: 25a2 18be 716e 523d efe5 19be d378 6fbd
00000210: f626 e5bc e87f b2bd 0b4d 193e 0cb1 1bbb
00000220: 5ee9 9fbd f0f7 5dbd bd8a d73d ebd9 213d
00000230: aeae a3bd 742e 1fbd 6715 6b3d 8780 08be
00000240: 8d33 553c 575d 4e3d 00bf 243d 786b d73d
00000250: bd72 323d d5b7 92bd 11dc 3cbd b2ae 9e3d
00000260: 5155 c23d 2184 87bd af56 123e f8ca 11bc
00000270: 36aa 25bc 1f7d cabc 2a25 f7bd b00b c03d
00000280: c6e0 443d fde3 ff3c 35ea e3bd 517e f83c
00000290: 5f41 71bd 7439 5e3d bd79 2e3d 5f7e e63d
000002a0: e6a4 2f3e 46b6 153d 65ac ccbd 4ac9 96b9
000002b0: 8647 823b 8f4b 18be 189e 203d 310f 093c
000002c0: f8b9 81bd 7502 bbbd 7d90 b0bd cd30 483d
000002d0: ec47 b33b c9d2 99bd fe91 123e c693 1ebd
000002e0: 4633 04be ec28 5fbd 64d5 a9bd ff4c c23c
000002f0: 59e8 923d 250a cbbd 945f 97bd f44b 233e
00000300: aadc 293c 9456 b6bc bf5c a8bd 779c adbd
00000310: e794 cabd 713d 8bbe a79c 52be 0ca0 843d
00000320: 4dab 7abd 9f2d 4ebe 3eff 00bd bdb9 aabd
00000330: b71b 1cbe 7dcd 7cbe f165 09be 8fa0 023d
00000340: c03c f53d e147 44be 5bfe bd3d 012a c9bc
00000350: 4307 1b3b 35e8 87be 757e d63d 19dd e5bc
00000360: 5640 67bd 0b61 b1bd 2a79 71be c759 5cbd
00000370: 62e0 5dbd 75f5 5cbe 533f e9bd e582 ecbd
00000380: bab4 a83b b692 54be ee42 03bd 817e b23d
00000390: 0e54 27bd 8e29 35be ed3a 5cbe 596c 5cbd
000003a0: ff7d 1b3d 313e 85bd 5e64 d73d d244 20be
000003b0: 35de 113d 995f 0cbd 0370 5fbe c9aa a23d
000003c0: 2470 c7bc 2375 cbbd c7bd d1bd c12c dcbd
000003d0: 2a0e b03d 50bb 92bc 9f47 9cbd 4d3e 173e
000003e0: a2fb 26be c415 083e 7876 e23d 3059 1dbe
000003f0: fe66 ae3d 3e8a 97bc d720 2fbd 7ef0 c8bd
-0.08286942 -0.17031486 0.0798408 -0.064651206 -0.04852647 -0.12599246 -0.2783033 0.089681596
0.03543003 -0.21579768 -0.011647848 -0.09747001 -0.12703119 -0.13524167 -0.12349118 0.093254715
0.10877132 0.02393025 0.05782436 -0.06515427 -0.07140098 -0.18177108 0.10917971 0.044131044
-0.13517238 -0.13550307 -0.24687204 -0.031053266 -0.21380462 -0.04859857 0.0073145204 -0.10782691
-0.117390364 -0.09460218 -0.09881923 0.09024845 -0.03865414 -0.063135885 -0.19560955 -0.104900576
-0.16756643 0.020564632 -0.024788897 -0.22839008 0.10398289 -0.14310029 -0.043587986 -0.11125302
-0.07995545 -0.12822269 -0.13391227 -0.11444103 0.04446264 -0.23653187 -0.082506046 -0.06828171
0.035611607 0.15417777 -0.042730432 -0.05373422 -0.11379693 -0.015032787 0.14618911 -0.072684295
-0.010864555 -0.09919443 0.012929503 0.043780748 0.0710708 -0.13055725 -0.017151956 0.17106809
0.08434301 -0.037994087 0.13000517 -0.086543016 0.011537609 -0.1871863 0.07526163 0.24709162
0.16956504 -0.0904162 0.05684768 0.034591272 0.057776183 -0.11954971 0.16093737 0.10263111
0.061852828 0.01856245 0.08120367 0.023068845 -0.12742944 -0.15962605 -0.02327359 -0.050258778
-0.003750533 -0.024652323 -0.03942935 0.10880117 0.18361284 0.022307942 -0.16485772 -0.040171124
0.0022261802 -0.13078088 0.18558921 -0.11641928 -0.14518681 0.0613862 -0.20396155 0.03914241
0.13991718 -0.13224445 0.03371685 -0.08505918 0.06740602 0.0691525 0.08383999 0.27412605
0.0873908 0.09065732 0.002129233 0.10339844 0.044437688 -0.03413982 0.23301265 0.044101417
-0.14905603 0.051374856 -0.15029119 -0.058464836 -0.02797268 -0.087158024 0.14970796 -0.0023756651
-0.07808183 -0.05419153 0.10524509 0.039514463 -0.07992302 -0.03886266 0.057393458 -0.1333028
0.013012779 0.050381985 0.040221214 0.10518545 0.043566454 -0.071639694 -0.04610831 0.07748164
0.09488929 -0.066169985 0.1429088 -0.008898489 -0.010111382 -0.024717866 -0.12067635 0.09377229
0.048065923 0.031236643 -0.11128656 0.03033367 -0.058900233 0.05425401 0.042596567 0.11254572
0.17152748 0.036550783 -0.09993819 -0.00028760202 0.0039758114 -0.14872573 0.03921327 0.008365438
-0.06334299 -0.09131328 -0.08621309 0.048874665 0.0054712202 -0.07510907 0.14313504 -0.038715146
-0.12910184 -0.054482386 -0.08292654 0.023718355 0.07173223 -0.09914044 -0.07391277 0.15946943
0.010367552 -0.02225808 -0.08220815 -0.08477109 -0.09891682 -0.27195314 -0.2056757 0.06475839
-0.06119852 -0.2013459 -0.031493418 -0.08336208 -0.15244947 -0.24687763 -0.13417794 0.0318914
0.11974478 -0.19168045 0.0927703 -0.024556162 0.0023655451 -0.26544347 0.104733385 -0.02805953
-0.05645784 -0.086610876 -0.23581377 -0.053796556 -0.054169066 -0.2157801 -0.11389031 -0.11548404
0.0051484974 -0.20759091 -0.03204625 0.08715535 -0.040851645 -0.17691633 -0.21506853 -0.053814266
0.037961956 -0.06506003 0.105171904 -0.15651253 0.035612304 -0.034270857 -0.21820073 0.07942731
-0.024345465 -0.099344514 -0.10241275 -0.10750724 0.085964516 -0.017911583 -0.07630848 0.1476986
-0.16306928 0.13289553 0.11057752 -0.15366054 0.08515738 -0.018498536 -0.042755928 -0.09811495

lstm.bias_hh_l1 f4 [256]
00000000: eda6 3a3d 0116 82be a047 f53d b778 c3bd
00000010: 4c09 fcbd 3ab9 37be 0af1 67be 9b73 743d
00000020: b4da 47bc 4d58 77be 5a36 ad3c d8a4 72be
00000030: 7876 7cbd ad71 f3bd 0988 e43b 2d9f dcbd
00000040: ddd4 22bd ecf6 3bbe 12ce 64bd d61e 1ebd
00000050: 844d 08be 12df 8cbe cf5b 093e 4342 923d
00000060: 23ed 323d 064b 19be 8daa 03be 8671 2cbd
00000070: 6d59 bdbd ee67 c1bd 31c7 4bbe 5da6 f8bd
00000080: d0eb 15be 4631 29bd 6e8f a9bd ce87 be3c
00000090: 4606 f03d 815e 9c3c 8bd2 9abe 2a33 70bd
000000a0: 9b66 b4bd d9f6 5fbd 58b3 48bd b329 abbd
000000b0: be94 e9bc 3611 9a3c cf06 cdbd 5afa ae3d
000000c0: 4730 c3bd 6cf9 9dbd 620c c6bc 0ec7 afbd
000000d0: ede3 a33d 6794 57be 2ade 90bc ebf9 063d
000000e0: 0c32 edbd 98f4 a83d 23da 923d fd73 00be
000000f0: 6ec8 c4bc effb 9abd f1aa b6bd 1623 e6bb
00000100: 3d96 df3d 9de1 0bbe df59 8f3d 56a6 363d
00000110: 6c91 c4bd c8e0 28be 8ac8 023e ac5d ccb9
00000120: b0c8 35bc 2dae 91bc ca5e 853c 3e9f a3bd
00000130: 6216 5bbd 9d96 3cbe d8ca a13d 7ca5 8e3e
00000140: 5da1 353e 5124 003d a5f0 f63d a75b 2f3e
00000150: 9c9a e8bc 02a1 cbbd 41a0 9cbc ad43 74bd
00000160: 7d41 64bb 1c4d b5bc 95f3 b4bd a694 9a3d
00000170: c0fa 07be db78 21bd b438 a63d 67b8 d13c
00000180: 8006 e1bb ce04 273e a25c c03a c7c7 2e3e
00000190: ee3c 373e 8ab5 0dbe 11da 45be 9be9 cabd
000001a0: 155e 89bd ec84 b23d bfe1 ba3d 3891 4bbd
000001b0: 66a9 54bd 98e2 eb3d a8e3 8cbc b4d4 173e
000001c0: 88d0 8f3d 4977 953b b34f 033e a24c b33d
000001d0: f611 263e 1923 1abe d009 a83d 9c4f 8e3e
000001e0: 6615 04be 43b4 5e3e ffe6 0f3e ce98 f5bb
000001f0: 0e3a 06bd 69c4 d83c 9567 4b3e 524e 3fbd
00000200: b59a 863d e5dd bc3d 69fd 5ebd 1996 fe3d
00000210: 50ff b1bd f204 82bd 0b3b c13c aaee bfbd
00000220: 425b 5c3d f6b6 75bd 75f2 6f3c 8ae7 f7bd
00000230: 9a7b 2a3d 9b46 8a3c 1620 8c3d 8b2d 713d
00000240: db20 a0bd e33d 25bd 4d14 943d 163a dbbc
00000250: 2fb7 20be 6b48 46bd 12b4 e93d ec6d fc3d
00000260: f95e b6bb f0f1 d63d ded3 89bd 58af 01be
00000270: 9c0f 0dbe cdda 2dbd 0158 583c b7b8 c23c
00000280: 55e8 cf3d dcc2 cbbc 65ce a13d 97b0 583d
00000290: 59f7 bbbc d2a7 07be 4ec0 b93d 7e5a dcbd
000002a0: bc32 253d e473 233c d7df a33c 8c5a e2bb
000002b0: b03b fa3d 64e4 103d d9c2 333d 0a99 023d
000002c0: 1d0a e0bc aae5 bd3c fa41 b8bc 8deb 053e
000002d0: 318f 35bd 86c7 84bd 34ae 533d 965c ffbd
000002e0: d7a3 66bb ae3a 023e 643a c4bd f65b 393c
000002f0: cdc5 d13b c3d5 f83c e0ba 15bd 9e27 e13c
00000300: 0b72 953d f8f5 44be 574e 283d df05 14be
00000310: e98c 5ebc b35b 14be f760 07be 34f8 eabd
00000320: 67af 84bd fffe 8cbe 70ae 3bbe c9a4 69be
00000330: 3fff 95bd 7b61 80be 1c7c 1f3c 9672 113e
00000340: 5245 e0bd f463 49be 1af8 b23d 589e f2bd
00000350: 287a 86bd 8da8 6dbe 3aef eabc c1fa b2bd
00000360: 066d f2bd d2e0 16bd ad0c a4bd 7d1c 2abe
00000370: 26c8 99bd f866 b8bd d86a 0cbe ece1 e3bd
00000380: 6088 ce3c 543c 2ebd 9bd4 88be ad5d 91bc
00000390: 06a2 99bc c872 f1bd bfe8 e4bd 5f93 8dbe
000003a0: 475c 1dbd 653c afbd 4c36 a0bd 09a7 8abd
000003b0: aba9 173c 7542 c0bd 5b51 06be f2d3 333e
000003c0: c817 40bd c1ac 87be d770 4dbd a579 82bd
000003d0: 2a1a 05bd 8dfc 5dbe 3d1d 71bd a56a bd3b
000003e0: db98 fdbd ba30 323e 2758 093d 6be6 2abe
000003f0: 975f 003e a3ee bfbd fbf9 1cbe 7faa 5a3c
0.04556935 -0.25407413 0.11976552 -0.09544509 -0.12306461 -0.17941752 -0.22650543 0.059680562
-0.012198139 -0.24154778 0.02114408 -0.23695695 -0.061636418 -0.11886916 0.0069742245 -0.10772548
-0.039753783 -0.18355912 -0.055860586 -0.038603626 -0.1331082 -0.2751394 0.13413928 0.07141545
0.043683182 -0.14970025 -0.12858029 -0.042100452 -0.09245572 -0.09443651 -0.19900204 -0.12141106
-0.14640737 -0.041306756 -0.0827931 0.023258116 0.117199466 0.019088032 -0.30238757 -0.058642544
-0.08808633 -0.05467877 -0.04899916 -0.08357563 -0.028513309 0.018807035 -0.10011064 0.085438445
-0.095306925 -0.07713589 -0.024175826 -0.085828885 0.08002458 -0.21052705 -0.017684061 0.032953184
-0.11581811 0.082497776 0.071705125 -0.12544246 -0.024021354 -0.07567584 -0.08919323 -0.0070232255
0.109173276 -0.13660283 0.069995634 0.044592224 -0.095980495 -0.16491997 0.12771812 -0.00038979703
-0.011095211 -0.017783249 0.01628055 -0.079893574 -0.053488143 -0.1841683 0.079000175 0.2786063
0.17737336 0.031284634 0.12057618 0.17124806 -0.028394036 -0.09942819 -0.019119384 -0.059634853
-0.0034829073 -0.022131495 -0.08835522 0.07547884 -0.13279247 -0.039421897 0.08116284 0.025600625
-0.00686723 0.16310427 0.0014676044 0.17068397 0.17894337 -0.13838783 -0.19321467 -0.09907838
-0.06707398 0.08716759 0.09125089 -0.04969904 -0.051919363 0.11517829 -0.017198399 0.14827234
0.07022196 0.004561339 0.12823372 0.08754851 0.16217789 -0.15052451 0.082049966 0.27795112
-0.12898788 0.21748452 0.14052962 -0.0074950224 -0.03277021 0.026460843 0.19863732 -0.04670555
0.06572477 0.092220105 -0.05444089 0.124309726 -0.08691275 -0.063485995 0.023587724 -0.093716934
0.053797968 -0.05998894 0.014645209 -0.121047094 0.041621782 0.01687937 0.068420574 0.058881324
-0.07818767 -0.040342223 0.072304346 -0.026761096 -0.15694879 -0.048408907 0.11411299 0.123256534
-0.005565521 0.10495365 -0.067298636 -0.12664545 -0.13775486 -0.042444993 0.0132045755 0.02376972
0.10151736 -0.02487319 0.07900695 0.052902784 -0.022945093 -0.13247612 0.09069882 -0.107594475
0.040331587 0.009976361 0.020004196 -0.0069077667 0.12218416 0.03537406 0.043886993 0.03188423
-0.027348572 0.023180801 -0.022492398 0.13078137 -0.04432601 -0.064833686 0.051679805 -0.12468831
-0.003519287 0.12717697 -0.0958145 0.011313429 0.0064017535 0.030375367 -0.03655517 0.027484711
0.072971426 -0.19234455 0.041090336 -0.14455365 -0.0135834 -0.14488105 -0.13220583 -0.11473122
-0.06478768 -0.27538297 -0.18328261 -0.22816767 -0.07324075 -0.25074372 0.00973418 0.14203867
-0.10950722 -0.19667035 0.08738728 -0.11846608 -0.06566268 -0.23208828 -0.028678525 -0.08739234
-0.11837201 -0.0368355 -0.0801023 -0.1661243 -0.075088784 -0.09004015 -0.13712633 -0.111270756
0.025211513 -0.042538002 -0.26724705 -0.017744863 -0.018754017 -0.11789471 -0.11177205 -0.27651498
-0.03841808 -0.08556441 -0.07822856 -0.06770141 0.009256761 -0.09387676 -0.13116972 0.1756132
-0.04689768 -0.26498988 -0.05015644 -0.06370858 -0.032495655 -0.21678372 -0.058865774 0.0057805353
-0.123826705 0.174014 0.033531334 -0.1668946 0.12536465 -0.09371688 -0.15329735 0.0133463135
