assets/snapshots/P3_log_amount_no_scaling_mlp.pth (torch, 52437 bytes, 6 tensors)

net.0.weight f4 [128, 30]
000000 eb e2 6b bc 83 5f 85 3e 8c e9 a0 3e f4 b8 af 3f
       -0.014397363 0.26049432 0.31428182 1.3728318
000010 6b 55 bc be 5d ce 6b be 35 ba f1 3e a1 06 64 be
       -0.3678392 -0.2302794 0.47212377 -0.22268154
000020 f0 55 68 3e b8 b1 9d 3e e0 26 13 3f 36 e5 e4 3d
       0.22689033 0.3079965 0.57481194 0.11176531
000030 74 98 76 3f 7e bb 6c 3e ec 61 18 3f d3 fa 1c 3e
       0.96326375 0.23118398 0.59524417 0.15330057
000040 44 a5 df bd 9b 9a f6 3d bb c8 3d bf 70 0f 4f bd
       -0.10920194 0.120412074 -0.74134415 -0.05055183
000050 cb 82 0a bf ca 02 e5 be 5b bd 1a bf bc c2 3d bf
       -0.54105824 -0.4472869 -0.60445184 -0.74125266
000060 a6 2d c1 3e 85 63 ed 3e 49 fc 69 3e 8d 9b d1 3e
       0.3773014 0.4636499 0.22850145 0.40938988
000070 56 95 5c bd 31 fa 8c 3f 74 4f b1 bc f1 05 14 be
       -0.053853355 1.1013852 -0.021644332 -0.14455391
000080 29 9a 0d bf a7 d4 13 bf 14 69 19 bc 44 8a 30 3e
       -0.55313355 -0.57746357 -0.0093634315 0.17240244
000090 50 f2 40 be 8f 5a c6 bb 91 c2 d3 3c d2 21 2d bd
       -0.18842435 -0.006053276 0.025849612 -0.04226858
0000a0 5d 41 61 be 87 74 fb bd f5 00 03 bf bd 65 d1 3d
       -0.2199759 -0.12278085 -0.51173335 0.10224483
0000b0 7d b2 f6 bd 62 c4 ff bc 4b bd 5e bd 83 c6 b3 3d
       -0.12045763 -0.031221572 -0.054379743 0.087780975
0000c0 c4 d1 d0 3e 5e cb dd 3d fe 09 b1 3c 61 fe a7 bc
       0.40785038 0.10829805 0.02161121 -0.02050704
0000d0 74 eb c7 3d c3 73 c5 3e 92 09 d9 3d f3 b4 70 be
       0.09761706 0.38564882 0.105975285 -0.23506527
0000e0 54 c0 98 3d ac ee 85 be a7 37 db bd 8d 04 5f bf
       0.07458559 -0.26158655 -0.10703974 -0.8711632
0000f0 b5 e2 73 bc ce 17 06 3d 17 32 28 3f d1 ad 8e 3f
       -0.014885594 0.032737546 0.6570143 1.1146795
000100 48 04 d3 be 1e 32 95 be b0 eb df 3e 80 68 f3 3d
       -0.41214204 -0.291398 0.43734503 0.11885166
000110 e2 79 9d be 9c f8 c4 3e 60 1e 07 3f ea 89 b4 3e
       -0.30757052 0.38470924 0.52780724 0.3526147
000120 51 7c a3 3f 44 8b 4b bd cd 88 a6 3e 9f 9b 1d 3e
       1.2772313 -0.04969336 0.32526246 0.15391396
000130 19 e1 cc be 75 72 c7 bc b0 51 23 bf 5c b5 a7 be
       -0.40015486 -0.02434657 -0.6379652 -0.32755554
000140 ad 55 b9 be 76 99 2f bd c9 84 17 bf 90 cc 37 bf
       -0.36198178 -0.04287096 -0.5918699 -0.7179651
000150 ac e5 54 3d c9 25 07 3f 7a fe 03 be 47 1b 9b 3e
       0.051976845 0.5279203 -0.12890044 0.30294248
000160 34 da 58 3d 4d 5a 7c 3f 25 22 eb bc a4 3a b2 be
       0.05294247 0.9857529 -0.028702805 -0.34810364
000170 92 c0 1d bf e2 52 34 bf 0e 33 d8 3e e5 a9 7d 3e
       -0.61621964 -0.7043897 0.42226452 0.24771841
000180 01 ce c8 be 15 45 26 3e 57 da 02 be ed ba e8 bc
       -0.39219669 0.1623729 -0.12778603 -0.028409446
000190 8b 4b a5 be d2 c9 85 be 65 f2 20 bf 1a f7 94 3e
       -0.32284197 -0.2613054 -0.62869865 0.29094774
0001a0 bc f3 b5 be a7 f6 af 3d bc 4a 86 3e cd bb 45 3e
       -0.35537517 0.08591967 0.26228893 0.19309922
0001b0 da 3a 4f 3f f0 a2 93 3c 22 72 be 3e 8b 6c 45 3d
       0.80949175 0.01802203 0.3719645 0.048199218
0001c0 27 a0 03 3f 67 9b c7 3e 3c 0d f6 bd 35 cc 83 be
       0.5141625 0.3898575 -0.12014243 -0.25741735
0001d0 fd 7b fe bc 1b 69 cd be a6 ae 3c bc 08 4b da be
       -0.031064982 -0.40119252 -0.011516249 -0.4263537
0001e0 31 63 28 be 46 5e b6 3d 18 4e 89 bc e9 cb 4c 3d
       -0.16444089 0.089047 -0.01676087 0.04999915
0001f0 40 2b aa bd a5 e4 63 bd b4 4a 13 3e 67 e6 27 be
       -0.083090305 -0.055637974 0.14383966 -0.16396485
000200 17 4c 00 bc 0b 2c 19 3e 1d 00 76 3d 97 79 b2 bd
       -0.007830641 0.14958207 0.0600587 -0.08714598
000210 56 4f b3 bd 8f 52 f4 3d 6a 02 11 be 0d dd 24 be
       -0.087553665 0.11929809 -0.14161077 -0.16099949
000220 b7 7d 38 3e a6 72 c7 3d 35 79 94 3c 64 ed 30 3e
       0.18016706 0.09738664 0.018124202 0.17278057
000230 02 db d3 bd f3 49 8c bd 00 12 60 3d 6f 78 09 3e
       -0.10344507 -0.06850042 0.054704666 0.13424848
000240 6e 48 2c be f9 58 31 3d e2 c3 07 3e 3a 20 d1 3c
       -0.16824505 0.04329774 0.13258317 0.025528062
000250 1e 31 c0 bd 4b 75 38 be 62 13 09 bc bf 3f 8f be
       -0.09384368 -0.18013494 -0.008366438 -0.27978322
000260 6d 3d ae be 43 e8 33 bf b8 75 ac 3e 9a d0 33 3e
       -0.3403124 -0.7027628 0.33683562 0.17560044
000270 3b 2d 38 be d1 15 c0 bd d2 05 72 bd f0 99 b2 3d
       -0.17986004 -0.09379161 -0.059087582 0.087207675
000280 dc b4 a6 be 09 31 83 be 02 df 02 bf 05 2c bf 3d
       -0.3255986 -0.25623348 -0.5112153 0.09334568
000290 7d 99 f7 be b1 94 0e be bb 10 7c 3e 49 22 f5 3d
       -0.4835929 -0.13923909 0.24615757 0.1196943
0002a0 2a 85 fa 3e 8c c1 87 3e d3 c1 8c 3e 6e c1 9f 3e
       0.4892972 0.26514852 0.27491626 0.31202263
0002b0 a1 42 b8 3e 6d 6d 05 3f f6 60 1f be 82 6f ee be
       0.35988334 0.52120095 -0.15564331 -0.4656945
0002c0 3c 00 90 bd ec c9 2d be 3f 49 62 bb 48 01 30 bf
       -0.07031295 -0.16971558 -0.0034528521 -0.68751955
0002d0 6c 78 82 bb bf ea ae bd 3b a5 a5 be bb 74 0b bf
       -0.0039816406 -0.08540868 -0.32352623 -0.5447499
0002e0 5a 7e 48 3e f3 5f 70 3d eb e4 64 be c1 9e 08 3e
       0.1957945 0.058685254 -0.2235295 0.1334181
0002f0 cd 9e ba bd c5 ec 83 3d 61 e8 84 be e8 09 67 bd
       -0.0911232 0.064416446 -0.2595854 -0.05640593
000300 00 32 75 be 63 a8 fa bc a5 48 5b bd 23 cb b2 be
       -0.23944855 -0.030597871 -0.053536076 -0.34920606
000310 1a 53 27 3c 1d 13 ab bd 00 43 6c 3e ff c6 ac 3d
       0.010212684 -0.08353255 0.23072433 0.08436393
000320 63 73 49 3e 50 b9 8e 3c 28 08 81 3e 67 7f 2d 3e
       0.19672923 0.017422348 0.25201535 0.16943131
000330 30 07 08 be 26 61 0b be ba d1 9f 3d 80 a8 a3 bb
       -0.13283992 -0.13611278 0.07803674 -0.004994452
000340 0e 86 20 3e 5b ee 0c bf 5d 12 5d bc 05 fe 1b be
       0.15676138 -0.550512 -0.013493148 -0.1523362
000350 7d 97 f5 be a5 ec 86 bf 82 01 8e 3e e5 38 aa 3d
       -0.4796714 -1.0540968 0.27735525 0.08311633
000360 2c c6 0a bf 10 c8 c2 bd 6e 76 85 bd 6f dd 5e be
       -0.54208636 -0.09510815 -0.06516729 -0.21764158
000370 cb ca c1 be 2b 8a cc be 5d f7 1f bf 33 89 75 be
       -0.3785003 -0.39949164 -0.6248682 -0.23978119
000380 61 5d 46 bf 20 c1 4f be 38 8d 8d 3d f0 0b 6c 3d
       -0.77486235 -0.20288515 0.06911701 0.057628572
000390 49 9d be 3e 4b 32 11 3e 58 6f 4a 3e da f2 11 3e
       0.37229374 0.14179341 0.19769037 0.14252797
0003a0 99 62 32 3f 39 ab 17 3f 56 3b 75 be 02 9f 06 bf
       0.696817 0.5924564 -0.23948416 -0.52586377
0003b0 9d b8 88 bc 7c 5e e4 be dd 69 80 3b 74 60 44 bf
       -0.016689593 -0.44603336 0.00391887 -0.76709676
0003c0 ae 13 f4 bd 09 a2 1f be a4 bb 3d bc 96 29 ed bd
       -0.11917816 -0.15589155 -0.011580382 -0.115801975
0003d0 d9 5d 60 3d 0a dc b1 3c 8c ec 28 be c7 a7 08 be
       0.054777 0.021711368 -0.16496485 -0.13345252
0003e0 be 7e 6f bd 64 eb d7 bd 02 c7 10 bc 43 6c b2 bd
       -0.05847048 -0.10542944 -0.00883651 -0.087120555
0003f0 3a fe 2a 3d 63 e4 fb 3c 46 ca 12 be 43 97 29 be
       0.041746356 0.030748552 -0.14334974 -0.16561608

net.0.bias f4 [128]
000000 dc ba d2 3f 95 e6 94 bf 82 bd d0 3f 84 92 99 bf
       1.6463275 -1.1632868 1.6307833 -1.1997838
000010 a1 9e 16 be f8 45 b7 bf 3a 5b 8c bf e0 2f c9 bf
       -0.1470895 -1.4318228 -1.096534 -1.5717735
000020 c2 56 af 3d 95 5b 92 bf ab 42 16 be 6c c4 b9 bc
       0.085614696 -1.1434199 -0.1467387 -0.022676669
000030 20 a1 5f 3f b0 d1 a2 bf 75 f4 12 bf 32 19 8d bf
       0.8735523 -1.2720242 -0.5740426 -1.1023314
000040 df 23 93 bf 9a ea b7 bd 2f 10 2e 3f f4 39 8c 3f
       -1.1495322 -0.089802936 0.67993444 1.0955186
000050 e3 4e 0e 3e 98 f9 d6 3f 4f e1 8d bf 3b 31 91 3f
       0.1389728 1.679492 -1.1084384 1.1343149
000060 8d 79 d2 3d 4e 84 af 3f f6 b4 b8 bf df 4c e2 3f
       0.1027709 1.3712251 -1.4430225 1.7679709
000070 d6 ef 98 bd 8f eb 90 bd 4c ae 88 3f bc ee f2 3f
       -0.0746762 -0.07076179 1.0678191 1.8979106
000080 49 6a cd 3f 26 23 4f 3f 76 8e e2 be 03 f2 8b bd
       1.6048061 0.8091301 -0.44249314 -0.068332694
000090 25 45 bd 3d b4 b8 33 3f 4b 73 dd 3d d0 0a a6 bd
       0.09241704 0.7020371 0.10813006 -0.08107531
0000a0 02 01 20 be 1e a0 fa bd 0f 7c f4 3f 8f 85 50 bc
       -0.15625384 -0.12237571 1.910036 -0.012727155
0000b0 3c 63 82 bf 90 7e 19 3d 9c 55 25 bf 7a d4 1a be
       -1.0186534 0.037474215 -0.64583755 -0.15120116
0000c0 15 cf 65 3f ab 48 41 3d bc 3a ec 3f 33 fc 84 bf
       0.8976911 0.047188442 1.8455424 -1.0389465
0000d0 90 4d 26 3d ab 77 00 40 14 07 30 3f 67 d2 a7 3d
       0.040601313 2.007304 0.687608 0.08194428
0000e0 e8 ac 5e bf 56 4b 9c bf 73 00 ec be a2 ae 85 bf
       -0.86982584 -1.2210491 -0.46094093 -1.0443919
0000f0 74 f3 0b 3e fb f1 9b 3d f7 ec 37 3f 91 d8 8e bf
       0.13667089 0.076145135 0.71845955 -1.1159841
000100 d3 5b 8d bd 6f 84 32 bf 14 7a 98 bf c8 fd 34 bf
       -0.0690228 -0.6973333 -1.1912255 -0.7069974
000110 8c fc 2d 3b 3c e2 ee be 0c be c6 be 3d 89 03 bf
       0.0026548235 -0.46656978 -0.3881687 -0.51381284
000120 ee 5c 50 3d db c0 90 3f 2c 81 ad bf 04 72 0a be
       0.050869875 1.1308855 -1.3555045 -0.13520056
000130 8d d1 84 bf d8 ae 28 3f 79 c0 40 bf b5 b8 db bd
       -1.037645 0.6589179 -0.7529369 -0.107285894
000140 ea 2c 72 bf f7 cf 06 be 9b 50 8a bf be 31 40 be
       -0.94599783 -0.1316527 -1.0805849 -0.18768975
000150 bd b3 d7 be ff 56 5a bf ac e1 ae bf 89 3c 43 bd
       -0.42129317 -0.85288996 -1.366262 -0.047665153
000160 4c 08 37 bf c0 3b b5 3c bf 5a 50 bf 53 a7 dc 3f
       -0.71497035 0.022123218 -0.8138847 1.7238563
000170 10 7f 92 bf 49 fd 22 be 02 66 f1 3c b8 fc 9c bd
       -1.1445026 -0.15916933 0.029467586 -0.0766539
000180 bb b7 6a bf 01 8a 24 40 aa 79 92 be cc 24 a2 bf
       -0.916866 2.570923 -0.28608447 -1.266748
000190 98 16 a1 bd 4d 06 97 bf 55 6f 7b 3f ad 2b f0 bd
       -0.078656375 -1.1798798 0.98216754 -0.117270805
0001a0 2f ac 06 40 bb 8a 82 bf 6b e2 bf 3f 85 30 a2 3d
       2.1042593 -1.0198587 1.4990972 0.079194106
0001b0 65 90 80 3e 8a d8 5d 3d 9c a0 53 bf e8 d8 b9 bf
       0.25110164 0.054161586 -0.82666945 -1.451932
0001c0 79 10 a1 3f 57 80 54 bf 75 bd de be 50 99 a8 bf
       1.2583152 -0.8300833 -0.4350392 -1.3171787
0001d0 dc a7 00 3d b6 79 79 bf 3c 86 26 be 83 47 42 3d
       0.031410083 -0.9745134 -0.16262144 0.04743148
0001e0 03 a6 c8 3f 19 50 8a bf b6 e3 21 3e 5f 0a ab bf
       1.5675663 -1.0805694 0.15809521 -1.336254
0001f0 07 26 94 3e f6 d5 e8 3c 88 01 33 bd df c6 a3 3c
       0.28935263 0.028422337 -0.043702632 0.01999229

net.3.weight f4 [64, 128]
000000 e4 8b 3b 3e e6 33 29 bd 97 14 0f 3d 68 6f a5 bc
       0.18315083 -0.04130926 0.034931745 -0.020194724
000010 b7 68 57 3d 22 f7 84 bb 3c 2c 81 bc 93 6e d2 3c
       0.0525901 -0.004057781 -0.015768163 0.025687492
000020 87 74 09 3d 84 31 d3 3b 61 cb 9d 3d a7 d7 bc 3c
       0.033558395 0.0064451117 0.07704807 0.02305205
000030 5a 62 56 3d 30 e5 ae ba 66 86 32 bc 16 b0 a8 ba
       0.05233989 -0.001334345 -0.010896301 -0.001286986
000040 53 60 b3 bc 5d 1b 82 3d ef 73 53 3e d6 d4 93 3c
       -0.021896517 0.063528754 0.20649694 0.018045824
000050 ba cd 5f bd e0 5b fa 3d 7d f9 12 bd 9d d0 c6 3d
       -0.054639556 0.12224555 -0.03588246 0.097077586
000060 40 fd cd 3b f6 8b b2 3d 82 df 8b bd 5c 0a 10 3e
       0.0062862933 0.08718102 -0.0682974 0.14066452
000070 43 f2 8c bd ff 82 8e 3c ad c8 88 3d 89 77 a8 3d
       -0.06882145 0.017396448 0.06678901 0.082259245
000080 c1 53 fa 3d bb 3a 07 3e 9e 6a 20 3d df 9e 07 3d
       0.12223006 0.13205998 0.039164178 0.033110496
000090 92 3d cd ba e9 80 4b 3d bb a1 24 3d ed fd 88 bd
       -0.0015658608 0.049683485 0.0401933 -0.066890575
0000a0 5e 73 85 3d c8 d0 8f 3d cd bd 32 3e a1 63 b2 3c
       0.06516145 0.07022244 0.17455216 0.021776022
0000b0 f3 3d 4d 3d 73 ea 36 bc 4d 20 c7 bd 6f 33 aa bc
       0.050107908 -0.0111642955 -0.09722958 -0.020776479
0000c0 1a db 4d 3d 48 32 48 3d 72 99 55 3e ea bd 79 bd
       0.05025778 0.048876077 0.20859316 -0.06097213
0000d0 e8 1a 9f 3d 67 f1 93 3e 18 8a e1 3d cb 63 73 3d
       0.07768804 0.28895113 0.110126674 0.059421342
0000e0 68 c0 00 be 09 f7 2a 3b bf 77 d3 bd 0d 0f e7 bb
       -0.12573397 0.0026087186 -0.10325574 -0.0070513547
0000f0 64 b2 8e 3d 50 da 87 bd b2 5f d3 3d 59 e4 ac 3c
       0.06967619 -0.06633437 0.10320987 0.021104978
000100 f4 dc 06 3d 84 db 87 bd 20 13 b6 bd 56 62 26 bd
       0.03292556 -0.06633666 -0.088903666 -0.040621124
000110 a4 30 23 bc de 6c ac bd 4b 9a 8f bc 80 ec 6b 3d
       -0.009960327 -0.08419202 -0.017529627 0.05759859
000120 74 c6 50 bd c4 05 31 3e 2f 7b 39 bd 04 16 59 bd
       -0.05097051 0.17287356 -0.045283493 -0.05299951
000130 47 58 76 bd 79 9b 37 3c 8d 09 70 bd 54 9f 9a bc
       -0.06014278 0.011206501 -0.05860286 -0.018874802
000140 15 e1 e2 bc b7 66 a7 3c 7b e1 9d bd 1c 61 8d 3d
       -0.027695218 0.02043472 -0.077090226 0.06903288
000150 05 40 29 bd ab cc 89 bd 5c c2 fd 3c 9f 82 94 bd
       -0.04132082 -0.067284904 0.030976467 -0.072514765
000160 7d c4 56 bd 0b 56 b2 bd 28 7d c8 bd 47 93 04 3e
       -0.05243348 -0.08707818 -0.09789497 0.12946807
000170 8c 0e 3e 3d 8e 0f 97 bd 6e 5b 3b 3d eb 46 66 3d
       0.04640059 -0.07376014 0.04574149 0.056219976
000180 cc 6b dd bd c5 e6 34 3e 79 5a c3 bd 5e 14 c2 3c
       -0.10811576 0.17666157 -0.09538741 0.023691352
000190 77 88 10 3c 07 70 19 3d 99 de 87 3d 95 1f b4 3d
       0.008821598 0.037460353 0.06634254 0.08795086
0001a0 ba 85 8e 3e 45 93 f2 3c 24 5f 00 3e 59 da 68 3d
       0.278364 0.02961124 0.12536293 0.056848858
0001b0 6a 2c f9 bb 3a ea a9 bd 14 dd d6 b9 cd 94 78 bd
       -0.0076041715 -0.08296628 -0.00040981977 -0.060688782
0001c0 85 b4 28 bb 23 97 a3 3c 40 46 74 bd c2 8a 39 3d
       -0.0025742364 0.019969529 -0.059637308 0.045298345
0001d0 6c 8f a6 bc 6e 91 ed bc 73 8e 80 3d 86 80 66 bd
       -0.02033206 -0.02900001 0.0627717 -0.056274913
0001e0 6b a2 01 3e c9 d0 a7 bd 9f b5 a7 bc bc 5e a2 bd
       0.12659614 -0.081941195 -0.020472346 -0.079282254
0001f0 72 44 e2 3c 71 4f 65 3d 6c 65 0c bd 98 28 a9 bd
       0.027620528 0.055983964 -0.03427641 -0.08259696
000200 b3 63 97 3e 55 30 c1 bd 04 f7 ec 3d 45 2b f2 bc
       0.29568252 -0.09433047 0.11570552 -0.029561648
000210 a3 23 d8 bb f6 30 09 bd 5a a5 fb bc 1b 5c 83 bd
       -0.006596045 -0.03349396 -0.030718494 -0.06414052
000220 14 7b be bc a0 96 ad bd 2a 96 ee bc 5a c0 75 bc
       -0.023252048 -0.08475995 -0.029124338 -0.0149994735
000230 96 81 15 3d e1 c7 21 3c 6f b5 84 3c 86 37 04 bd
       0.036500536 0.009874315 0.016199796 -0.032279514
000240 c5 6f ea bc d8 f6 7d bd bd 1e ea 3d 81 82 c3 3e
       -0.028617749 -0.062002987 0.11431644 0.38185504
000250 84 a6 af 3d 87 5d 80 3e 80 22 b0 bd 2d 2a ce 3c
       0.08576682 0.25071356 -0.0860033 0.025166595
000260 91 2d 29 3e bc ee 8f 3e 94 9c 08 bd 14 e1 c8 3e
       0.16521288 0.28111827 -0.03335245 0.3923422
000270 a9 32 a9 3d 47 a3 97 bd f7 4e 5c 3d aa 42 20 3e
       0.08261616 -0.074041896 0.053786244 0.1565043
000280 d3 28 f3 3d 59 75 fe 3e 15 70 2d bd 5f d8 63 3d
       0.11873021 0.49698904 -0.042343218 0.05562627
000290 c1 35 56 3d 36 4f ba 3e 2d 69 e8 3d 8e e3 07 3d
       0.052297357 0.36388558 0.11348186 0.033175997
0002a0 71 6f 53 bd 4b 2d ff 3c 2b 15 51 3e dd bc ce 3c
       -0.05161995 0.031149527 0.20418231 0.025236541
0002b0 9c ee 43 bd 24 98 be 3d 57 ea bd bc 4f 55 97 bd
       -0.047834978 0.09306362 -0.023183031 -0.07389318
0002c0 0d 43 c2 3e b1 d8 64 bd 28 88 d9 3d 8d a3 d1 39
       0.3794178 -0.055870716 0.10621673 0.0003998544
0002d0 79 b6 f8 3c 14 ea 84 3e 23 83 c4 3e 14 1b d5 3c
       0.030360447 0.25959837 0.383813 0.026013888
0002e0 68 12 87 bd 74 0e b7 bd 9f 17 46 3c 99 52 f8 bc
       -0.065953076 -0.089383036 0.012090593 -0.030312823
0002f0 5a 8d e2 3d 11 a3 95 bd 45 31 ce 3e aa c5 35 bc
       0.11062117 -0.07306493 0.40271965 -0.01109449
000300 49 1c 76 3d 95 86 d4 3c ec a2 93 bd 07 c9 ac bd
       0.06008557 0.02594308 -0.07208809 -0.084367804
000310 cc 59 f8 3c eb 21 99 bd 6f 33 94 bd 20 3a c7 bd
       0.030316256 -0.074771725 -0.07236373 -0.09727883
000320 fb 40 92 bc 49 33 13 3e 5b 69 92 bd 7f cc b1 3d
       -0.01785325 0.14375032 -0.07149001 0.08681583
000330 97 6d 28 bc 17 f6 2d bc fc 86 bc bd c2 9c 41 bd
       -0.0102800345 -0.010617754 -0.09205434 -0.047268637
000340 e8 d5 a8 bc e3 58 4c 3d a0 98 4a 3d 6a d3 cf bc
       -0.020609811 0.049889456 0.04946196 -0.025369365
000350 81 89 95 bd 58 5a a9 bd bf 90 3d bd e3 05 33 3d
       -0.073016174 -0.08269185 -0.04628062 0.043706786
000360 b1 0e 03 bd 3e 5a 35 bc 88 1e 55 bd 45 2a c6 3e
       -0.031996433 -0.011068879 -0.05203107 0.38704124
000370 69 84 6d bd 3c cf 10 3d 35 b2 a5 3d 45 00 61 3d
       -0.057987604 0.035353884 0.08090631 0.054931898
000380 ef 85 80 bc c8 f6 45 bd 4e 26 fe bc 25 a9 64 bc
       -0.015688865 -0.048331052 -0.031024124 -0.013956343
000390 19 21 93 bd f3 d8 90 bd bb b6 98 3e 80 93 c8 3d
       -0.07184047 -0.0707263 0.29826912 0.097937584
0003a0 37 24 e6 3d 96 9f fc bd 03 21 95 3e fb 92 24 3e
       0.11237376 -0.12335126 0.29126748 0.16071694
0003b0 cf 55 bf 3d c0 85 f2 3c df 6c 53 bd 95 7a ee 3c
       0.093425386 0.029604793 -0.0516175 0.029111186
0003c0 f5 b3 bf 3d 2d ea 6c 3b f7 85 c4 bc 60 9a 2d bd
       0.09360496 0.0036150322 -0.02398966 -0.04238355
0003d0 15 67 c2 bc 82 3f 0a bb 28 c9 3c bb 96 95 63 3d
       -0.023730794 -0.0021094983 -0.0028806422 0.05556258
0003e0 a5 2f 94 3d 17 40 13 bd 74 84 18 3e 37 bf a3 3c
       0.0723565 -0.035949793 0.14894277 0.01998864
0003f0 be b3 3f 3e 2c 62 e9 bb 37 67 0b bc 66 77 37 3c
       0.1872091 -0.0071222987 -0.008508495 0.0111979

net.3.bias f4 [64]
000000 12 ec 58 3c 8b fb f8 3e f5 61 0d be 07 d7 64 bc
       0.013239877 0.48629412 -0.13806899 -0.013967282
000010 2b 62 8b 3b 8c 9a fb bd ed 35 eb 3e 86 a7 68 be
       0.004253646 -0.12285337 0.4593958 -0.22720155
000020 f2 0a e8 bc c1 f9 a9 3b c2 01 4e bc ce b3 94 bc
       -0.028325532 0.0051872437 -0.012573661 -0.018152144
000030 14 29 ae ba c1 be c7 3f 12 11 f6 3e a2 7f 6b 3e
       -0.0013287389 1.5605088 0.480599 0.22997907
000040 bb 5a fb bc 7d 69 f2 3e 96 a8 3f 3c a8 b4 80 3e
       -0.030682912 0.47346106 0.011697909 0.2513783
000050 75 96 04 3f f4 ef 2c 3b cb ee d1 bc c1 e9 bf be
       0.5179208 0.002638814 -0.02562656 -0.37483028
000060 76 51 a9 3e d7 d3 c2 3b 6a 55 33 3e c9 97 85 3c
       0.33069962 0.0059456634 0.17513052 0.016307728
000070 74 e0 20 bd 57 1c 55 b9 9a 0e e1 bd 6f 24 0e 3b
       -0.039276555 -0.0002032382 -0.10989113 0.0021689197
000080 5a 5a 2c be 40 8a 00 3f af 50 98 be d3 5c b7 bb
       -0.16831341 0.5021095 -0.29749057 -0.0055957823
000090 20 37 ae 3b 3d fb 8a 3c cc ba 1c be 7b 1d 60 be
       0.00531663 0.016965503 -0.15305632 -0.21886246
0000a0 37 33 96 3c be 40 59 bc 4d bb d0 bd ca df 0d 3c
       0.018334968 -0.013260065 -0.10191975 0.0086593125
0000b0 ed 17 45 bd ed 88 bd bd 4b 9b 1a be 97 99 c4 3f
       -0.04811852 -0.09254632 -0.15098302 1.5359372
0000c0 d0 54 b2 3e a7 ea 97 bd 42 2f 1e 3f 5a 26 0d 3c
       0.34830332 -0.07417803 0.6179086 0.008615101
0000d0 22 7e cf 3e af 2d dd bd 2f db 17 be a9 55 7f be
       0.4052592 -0.10799729 -0.14829706 -0.2493502
0000e0 04 30 e8 bc d0 e7 9f bd 5e a6 0f 3c c2 41 08 ba
       -0.028343208 -0.078078866 0.008767692 -0.0005197787
0000f0 3b 85 91 bd 0a c3 26 bd 46 c4 f0 3e 36 2f 8f be
       -0.0710549 -0.040713347 0.47024745 -0.27965707

net.6.weight f4 [2, 64]
000000 b7 29 17 3d fb 68 ae bd 9b d7 03 bd 0c e3 43 3d
       0.036905017 -0.08516117 -0.03218804 0.04782395
000010 7c 92 6a 3d 57 bc d1 bc 9b 61 aa bd 48 d9 bd bc
       0.057268605 -0.025602503 -0.08319398 -0.023174897
000020 8c f3 1a 3d 38 07 b1 3c 6b 7d 54 3d 9f 51 37 3d
       0.03782992 0.021609887 0.05187742 0.044755574
000030 7d 87 c0 3d cf 14 0d 3c 83 86 53 be 6a f1 5d 3c
       0.09400842 0.008610918 -0.20656781 0.013546327
000040 3c 06 05 3d 57 dd 2a 3c 7f 88 91 3d 41 b7 a2 bb
       0.03247665 0.010428748 0.07106113 -0.004965693
000050 1c 29 93 be 98 b7 c0 3d 10 0f 00 bc a7 17 62 bd
       -0.287423 0.09410018 -0.007816091 -0.055198338
000060 b8 c4 2d be 86 c4 19 bd 21 f4 e9 3c ef 55 8a bd
       -0.16969573 -0.037540935 0.028558793 -0.06754672
000070 f4 fa 88 3d 86 9e 24 bc be f1 a8 bd 1e 5c be 3d
       0.066884905 -0.010047561 -0.08249234 0.09294914
000080 40 cc 65 bd f2 7a b1 bd c1 d2 cd bc ea 3d d6 3c
       -0.05610299 -0.08666028 -0.02512491 0.02615257
000090 67 e6 5c bc 16 81 9b 3d fe 0a a1 3c 90 5a 7f bd
       -0.013482667 0.075929806 0.019658562 -0.062342227
0000a0 e4 f3 be 3d 0e 42 bb 3d 3d 67 62 3d a5 53 50 3b
       0.09323862 0.09143458 0.055274237 0.0031788137
0000b0 36 33 8e 3c a0 34 80 3c 8b 7d d2 3d 41 71 4d 3d
       0.017358404 0.015650094 0.10277852 0.050156835
0000c0 cd 93 94 bd 14 9c ad bb 11 78 7d be b6 bf 10 3d
       -0.07254753 -0.005298147 -0.24752833 0.03533908
0000d0 c1 de 8c bd 52 ec bb bd ff 95 06 bd ba ed 9c 3b
       -0.068784244 -0.09175934 -0.03285789 0.0047890814
0000e0 12 39 02 3d 7d df 56 3d 5a b3 60 bd 5a 53 c4 bd
       0.031792708 0.05245923 -0.054858543 -0.095862105
0000f0 78 7d 1d 3d f4 7d 6b 3d 1a bc e2 bd 8f b2 aa bd
       0.038449734 0.057493165 -0.11071034 -0.083348386
000100 54 c3 45 bd c0 90 55 3d 3d a4 36 3d 82 aa 3c 3c
       -0.048281983 0.052139997 0.044590224 0.011515262
000110 ba dc 5a bb 8a ab 91 bd 1a 0a fb 3d ab 25 8e bc
       -0.0033395723 -0.071127966 0.12257786 -0.017351946
000120 7b 04 2c 3d c7 88 11 bd 0e e2 3f 3d 7e 0b a0 3d
       0.04199646 -0.03553083 0.046846442 0.07814692
000130 25 0b b4 3d ce 1f b6 bb fd 1a 80 3e 1f 6e 75 3d
       0.08791188 -0.0055579906 0.2502059 0.059919473
000140 f2 4e a8 bc 3e a0 1a 3c 8e 80 13 3c 72 f7 32 bd
       -0.020545457 0.009437619 0.009002818 -0.043693013
000150 bc 6d 6e 3e 5c 9a 00 3d 7a ef ae 3c bc fb 8e bb
       0.23284048 0.03139721 0.021354426 -0.004363505
000160 6d 08 5d 3e 10 68 eb bd 08 cb 9a bc 7c 21 bf bd
       0.21585245 -0.11494458 -0.018895641 -0.093325585
000170 49 1a 0a 3d cc 61 09 bd 7e 7e 63 bd c3 52 21 3d
       0.033716474 -0.033540532 -0.055540554 0.03938557
000180 11 b2 01 bd bf ee a1 3d a5 39 98 bd 28 c4 c7 bc
       -0.031663958 0.07906865 -0.0743287 -0.024385527
000190 48 b6 a7 bd 27 82 c9 3c c9 e7 bd 3c 60 03 a5 bd
       -0.08189064 0.024598194 0.023181813 -0.08057284
0001a0 f8 53 98 3d f2 43 d1 3d d7 28 5e 3d 4c 42 85 bd
       0.07437891 0.10218038 0.054238167 -0.06506786
0001b0 80 d3 ed 3c 96 7e 74 3d 45 c7 ea 3d b1 54 1a 3d
       0.029031515 0.059691034 0.11463789 0.037678424
0001c0 bb 3e 49 bd d8 ff 82 3d b1 ad 60 3d d4 ab 6e bc
       -0.04913209 0.063964546 0.054853145 -0.014567334
0001d0 60 b2 b7 bd a8 2f 90 bd b9 3b 84 bd f7 16 af bc
       -0.08969569 -0.0704034 -0.06456704 -0.021373255
0001e0 a4 86 c4 3c 95 0f b8 3d f5 72 ea bd bd 9f bf bd
       0.023989983 0.08987347 -0.114477076 -0.093566395
0001f0 f7 6c 18 3d a9 f6 07 3e 33 71 c8 bc a8 83 42 bd
       0.037213292 0.13277687 -0.02446804 -0.04748884

net.6.bias f4 [2]
000000 f2 32 7f bd cd 35 5f 3e
       -0.062304445 0.21797867
